models_2/GMF32.pt (torch, 339039 bytes, 3 tensors)

weight f4 [944, 32]
1.0700371 -0.16802269 1.5129607 0.94990826 0.3489642 -0.8735041 0.25471368 0.7036177
-0.8198956 -2.027042 -0.5304647 -1.3087497 -0.11976539 1.0408014 1.7409395 0.35407442
0.97984743 0.6751233 2.1810162 -0.6759071 0.44109437 0.28623098 -0.35541826 0.33824834
0.62400556 -1.5168998 -0.9810099 -0.79726464 -0.51545197 -0.16117485 0.30790824 0.2547861
-1.248535 -1.3928375 -0.54339623 -0.34997755 -0.83822596 -0.4991405 1.620415 0.41567093
-0.60186064 -1.2393907 1.6436474 -1.1071986 0.13384897 1.9456204 -0.04911149 -0.5232273
-0.2077759 0.53986543 -0.29398158 -0.14438422 -0.1592191 0.6312766 0.4925056 -0.9501962
-1.0655142 -0.11548884 0.734565 0.36830842 -0.41019288 0.38652098 0.79878724 1.1573485
1.4662894 -0.24673632 0.7728421 0.6927252 -0.63757163 -0.7651506 1.8165351 -0.3030495
0.33200195 -0.6760586 0.9273846 -0.26002848 0.36934945 1.151816 1.9831547 -0.030966457
1.1219895 0.4100359 0.81612396 1.0130819 0.46857807 -0.43344423 -1.0390412 0.013501865
-1.011938 0.7273957 0.14688729 -1.3559988 1.236028 -0.10110128 -0.03628009 2.5813098
1.762777 -1.2803934 1.0858358 0.5869527 -1.047265 -1.9686966 0.48880875 0.3774512
-1.2214901 -0.3563851 0.43999395 -0.0058318623 -1.0368886 0.5646825 0.41958603 0.8569512
-0.15716007 0.32501686 0.5626999 -1.5896919 0.63490874 -0.73421454 -1.1901332 -1.2391477
-0.1981224 0.33314726 0.82061285 -1.3825318 0.30503416 -1.8395859 0.18988615 -1.3335459
-0.81268424 -0.41557655 -1.266659 -0.96375346 -1.255201 0.4293174 0.12901169 0.8593756
-0.34813812 -1.2535652 0.9501165 -1.5247685 1.5650811 -0.9827876 0.24266596 0.06744824
-0.39706007 1.148177 -0.069789514 0.49832752 -0.40329 0.8828724 0.8770031 0.82412034
-0.8800525 -0.48911056 -0.58183557 -1.1461153 -0.34749898 1.2776349 0.10058434 -0.69335073
0.32182506 -1.573991 1.3405783 -0.93114436 -0.15429768 -0.013850346 0.65525055 1.6401101
0.23589024 0.68565756 -1.3000711 -0.22890565 0.84663725 -0.2829186 0.8188316 -0.76953727
0.90695274 1.2110829 0.37219575 -0.113554634 0.56736106 0.124594934 -0.097836465 -0.53720134
0.7672883 0.3983743 1.4910493 -0.29646432 -1.5892769 1.1454886 0.62999636 -0.27659982
-0.5398832 -1.1332225 1.0758374 0.3577259 -0.29330763 -0.2723507 0.7214732 -1.1612303
0.1900042 -1.2141788 -0.93096226 0.92999893 -0.54661834 -0.03777631 0.15673721 0.47689098
-1.2408298 0.72733337 -1.0441325 1.2236025 -1.7870415 2.5262325 -0.9541772 0.12986791
0.14860858 -2.649512 0.06410895 0.06445807 -0.24228014 -0.0057669166 1.2350365 -0.5672758
-0.17423373 -1.1859126 0.8561839 -0.7041734 -0.25464764 -2.145223 0.20024286 -0.53244066
0.41662896 0.4311667 -0.33889976 -0.41065827 -0.07079227 0.06053932 0.42838988 0.27642095
-0.4895203 1.6361394 -0.025324522 0.36291912 0.210622 -0.7901473 0.369331 -0.40852046
-0.95131934 1.9613476 -0.45567307 -1.1056595 -1.0670937 1.0776907 0.81885326 -0.26600617
00000000: faf6 883f 240e 2cbe b2a8 c13f 302d 733f
00000010: 70ab b23e f79d 5fbf d569 823e 4a20 343f
00000020: aee4 51bf 0ebb 01c0 89cc 07bf 1c85 a7bf
00000030: 8f47 f5bd fb38 853f 1bd7 de3f 3e49 b53e
00000040: 48d7 7a3f e1d4 2c3f c595 0b40 3f08 2dbf
00000050: 1fd7 e13e de8c 923e 62f9 b5be e32e ad3e
00000060: d4be 1f3f c629 c2bf 7723 7bbf 8919 4cbf
00000070: a9f4 03bf 050b 25be 26a6 9d3e 5373 823e
00000080: ffcf 9fbf 8048 b2bf 041c 0bbf 4230 b3be
00000090: fa95 56bf 588f ffbe c269 cf3f d2d2 d43e
000000a0: 8a13 1abf 5ba4 9ebf 0a63 d23f afb8 8dbf
000000b0: b40f 093e 170a f93f 2129 49bd 39f2 05bf
000000c0: 35c3 54be 9f34 0a3f c184 96be 75d9 13be
000000d0: 550a 23be 589b 213f b229 fc3e 0f40 73bf
000000e0: c562 88bf 6a85 ecbd 740c 3c3f ec92 bc3e
000000f0: cd04 d2be 14e6 c53e 527d 4c3f ff23 943f
00000100: 5faf bb3f 72a8 7cbe fbd8 453f 7056 313f
00000110: e537 23bf e9e0 43bf 3984 e83f 4e29 9bbe
00000120: 29fc a93e 2d12 2dbf 1469 6d3f 7422 85be
00000130: 5f1b bd3e b56e 933f 03d8 fd3f 5ead fdbc
00000140: 5a9d 8f3f 3af0 d13e 80ed 503f abac 813f
00000150: 77e9 ef3e 67ec ddbe 4dff 84bf ed36 5d3c
00000160: 2f87 81bf 9b36 3a3f 9f69 163e 5e91 adbf
00000170: 2a36 9e3f 300e cfbd 6f9a 14bd 2e34 2540
00000180: ada2 e13f eee3 a3bf abfc 8a3f 8842 163f
00000190: c80c 86bf 40fe fbbf 2445 fa3e 4941 c13e
000001a0: ca59 9cbf 1c78 b6be e346 e13e 3519 bfbb
000001b0: c4b8 84bf 088f 103f fbd3 d63e 2761 5b3f
000001c0: 92ee 20be 9c68 a63e 1a0d 103f 067b cbbf
000001d0: 6189 223f 7cf5 3bbf 4956 98bf 649c 9ebf
000001e0: 99e0 4abe 4792 aa3e af13 523f cdf6 b0bf
000001f0: 702d 9c3e 8d77 ebbf 8471 423e a2b1 aabf
00000200: 130c 50bf 73c6 d4be e221 a2bf 8cb8 76bf
00000210: 6daa a0bf 7ecf db3e a41b 043e 0a00 5c3f
00000220: 293f b2be d374 a0bf d63a 733f 9d2b c3bf
00000230: 9454 c83f f897 7bbf 6d7d 783e 4e22 8a3d
00000240: 754b cbbe 77f7 923f ceed 8ebd c924 ff3e
00000250: 077c cebe ed03 623f 4683 603f 8df9 523f
00000260: 1f4b 61bf b36c fabe 2df3 14bf e8b3 92bf
00000270: 63eb b1be 8a89 a33f 2aff cd3d 6f7f 31bf
00000280: 41c6 a43e 8978 c9bf 1298 ab3f 7a5f 6ebf
00000290: 3600 1ebe 90ec 62bc 80be 273f 21ef d13f
000002a0: 368d 713e 4187 2f3f bb68 a6bf 3e66 6abe
000002b0: 38bd 583f b5da 90be f39e 513f 6500 45bf
000002c0: 0e2e 683f c404 9b3f 7190 be3e 558f e8bd
000002d0: 933e 113f a12b ff3d 7c5e c8bd 0786 09bf
000002e0: 026d 443f b7f7 cb3e b4da be3f 2cca 97be
000002f0: 6d6d cbbf 5f9f 923f 7147 213f 7e9e 8dbe
00000300: c935 0abf 6f0d 91bf 0ab5 893f d927 b73e
00000310: 6b2c 96be 8d71 8bbe 78b2 383f 32a3 94bf
00000320: 7690 423e 366a 9bbf 8b53 6ebf 6914 6e3f
00000330: 2eef 0bbf 55bb 1abd b87f 203e 0e2b f43e
00000340: 83d3 9ebf 8532 3a3f 22a6 85bf 029f 9c3f
00000350: c7bd e4bf cbad 2140 f544 74bf 18fc 043e
00000360: d92c 183e 9b91 29c0 8e4b 833d 9802 843d
00000370: 4918 78be 67f8 bcbb ad15 9e3f fd38 11bf
00000380: 546a 32be fccb 97bf de2e 5b3f b544 34bf
00000390: 2d61 82be 554b 09c0 770c 4d3e 084e 08bf
000003a0: 6450 d53e e2c1 dc3e 4584 adbe cd41 d2be
000003b0: 8afb 90bd 14f8 773d eb55 db3e 0c87 8d3e
000003c0: 68a2 fabe 046d d13f 5f75 cfbc 89d0 b93e
000003d0: 4bad 573e 1847 4abf f418 bd3e 9829 d1be
000003e0: aa89 73bf 700d fb3f fb4d e9be 4086 8dbf
000003f0: 8796 88bf c5f1 893f 5ea0 513f f631 88be

weight f4 [1683, 32]
0.9772315 -0.6230869 -0.12738426 -0.37778583 1.3945105 -1.010702 -1.2544217 -0.07004788
2.476961 -0.13204622 0.24939084 0.71968955 -1.1168766 0.056365427 0.3973499 0.30564117
0.62469494 1.8694935 -1.4080641 0.118378416 1.1324598 0.15934515 0.15408905 0.77979183
-0.014994116 -1.7948366 1.2353979 -0.8615028 1.2779653 -1.4402537 0.0051848977 0.56549007
0.70255774 0.6216592 -0.734031 0.37073016 -1.9280666 -0.61819136 0.8864228 -0.30346334
-0.35906637 -1.2514879 -0.17902967 1.5009103 1.0222816 -1.5970976 1.0656545 -0.0025786995
-1.3915365 1.5309874 -0.5893878 -0.7865266 0.23390235 2.0971196 -0.6056414 0.87178606
0.33810937 -2.5274591 2.79867 -1.2449408 -0.68338495 1.4386313 -0.056830842 -0.42398223
0.7646306 -0.5914761 0.26210836 -0.5688111 1.4915614 0.86325014 0.09949948 -1.5832086
-0.6322686 0.303041 0.95586354 0.36172062 -0.1202981 -0.4465743 -2.69928 -0.06760563
1.9088333 -1.6608957 0.2735842 -1.4978448 0.64693606 -1.4722525 1.1251099 0.8192201
-0.6871552 1.1796783 0.6492723 -0.017800264 0.3613577 0.10325682 2.4395285 -0.38689685
1.246545 0.49285373 0.3618161 -0.8797351 -0.920169 0.6714003 0.9561107 -0.9949986
0.552731 -1.5858244 -0.22593325 -2.1517994 -0.81749785 2.655556 -0.74061775 0.4078924
-0.58594084 0.15037596 -0.60517925 -0.5726344 -0.9946468 -0.3587638 -0.104843564 -0.4222212
-0.89374727 1.2523061 -1.1230607 -0.2151409 0.55366385 0.96059823 0.83851284 1.1399202
0.35522008 0.46117774 -1.3491321 0.29014483 -1.5138513 -1.4431964 0.19477195 -0.7321596
1.274139 -0.37551925 0.38467997 0.86632246 -0.81118643 0.5781365 0.57261264 0.087270156
0.6731778 0.7568063 -0.12158134 -0.77610475 -0.033604782 0.49530363 -0.7258521 -0.0094211735
-0.79028153 -2.7452483 1.2564634 -2.1754737 0.094530195 -1.1373234 -0.28992736 1.0112618
0.8703598 0.030006949 1.2311915 1.1396344 -0.5900005 -0.5800854 0.6650964 0.49609518
-0.27615392 -0.35527086 -0.8510882 -1.1000959 1.8168544 -0.30702314 -1.682169 0.9861044
0.42829898 0.81823844 0.23804021 1.3964168 -0.31485778 0.45879507 1.6621873 -0.39555013
0.7715503 -0.96838 0.2139317 -1.6036903 -0.9504787 0.13799344 -0.9171493 -0.28914797
0.04354106 2.3249235 1.4031432 0.420983 -0.00073100394 -0.6429988 1.4386777 0.7259443
-0.09606173 0.7976245 0.59862757 -1.3933455 1.5194886 0.37589267 -0.11461583 0.2961551
-0.7142547 -0.046902977 0.39037362 1.4852108 0.8905668 -1.11142 0.8310764 -0.37822175
-0.68025845 1.2647679 0.8874928 1.6570829 0.49811772 0.50991774 -0.9379509 -0.06114212
0.07941106 1.0668628 0.8448155 0.10785951 -1.1930548 0.621741 -0.45576108 0.7252223
2.179299 1.7407303 -0.62068695 0.36926988 0.55602205 -0.6600762 -1.6492691 -0.27621117
-0.28436807 -1.5657588 0.16598122 -0.6112708 0.3660196 -0.57558507 -0.5271193 -1.2097433
-0.21648276 0.73257726 -0.7576675 1.5316317 0.7131307 0.19752975 -0.66947186 -1.7680197
00000000: d82b 7a3f a082 1fbf 0571 02be 256d c1be
00000010: 527f b23f af5e 81bf e490 a0bf 4375 8fbd
00000020: 8786 1e40 2037 07be 5060 7f3e 933d 383f
00000030: d0f5 8ebf 6fdf 663d 7271 cb3e 007d 9c3e
00000040: 02ec 1f3f 904b ef3f 723b b4bf 6270 f23d
00000050: 71f4 903f 602b 233e 85c9 1d3e 70a0 473f
00000060: e1a9 75bc 35bd e5bf 8521 9e3f 738b 5cbf
00000070: 5e94 a33f 3c5a b8bf 13e6 a93b f5c3 103f
00000080: d3da 333f 0f25 1f3f 75e9 3bbf 58d0 bd3e
00000090: e3ca f6bf ca41 1ebf 9bec 623f 8c5f 9bbe
000000a0: 8cd7 b7be c130 a0bf 8e53 37be d41d c03f
000000b0: 20da 823f b26d ccbf 5e67 883f 66ff 28bb
000000c0: de1d b2bf 65f7 c33f 1ee2 16bf cf59 49bf
000000d0: 1984 6f3e 3537 0640 510b 1bbf 5f2d 5f3f
000000e0: ac1c ad3e e4c1 21c0 691d 3340 385a 9fbf
000000f0: 51f2 2ebf 1225 b83f 75c7 68bd 3314 d9be
00000100: d5be 433f fa6a 17bf 1133 863e 9b9d 11bf
00000110: 7ceb be3f f6fd 5c3f 62c6 cb3d 94a6 cabf
00000120: 5bdc 21bf 3128 9b3e 79b3 743f 7233 b93e
00000130: da5e f6bd 63a5 e4be 01c1 2cc0 d274 8abd
00000140: a654 f43f 3b98 d4bf 3a13 8c3e 61b9 bfbf
00000150: 9a9d 253f c572 bcbf 9a03 903f 69b8 513f
00000160: 67e9 2fbf b3ff 963f b636 263f dcd1 91bc
00000170: e003 b93e 5078 d33d 3c21 1c40 5817 c6be
00000180: c98e 9f3f 5357 fc3e f63f b93e 5236 61bf
00000190: 3290 6bbf e4e0 2b3f acc3 743f 3ab8 7ebf
000001a0: c77f 0d3f 4bfc cabf 0c5b 67be 15b7 09c0
000001b0: 8a47 51bf a1f4 2940 2099 3dbf 46d7 d03e
000001c0: 3800 16bf 28fc 193e 07ed 1abf 2b98 12bf
000001d0: 2ca1 7ebf e4af b7be 39b8 d6bd 612d d8be
000001e0: 9fcc 64bf 914b a03f 74c0 8fbf e54d 5cbe
000001f0: eabc 0d3f c4e9 753f c7a8 563f e8e8 913f
00000200: 68df b53e 7d1f ec3e 5cb0 acbf dd8d 943e
00000210: e1c5 c1bf a9ba b8bf 4c72 473e d06e 3bbf
00000220: fd16 a33f 0f44 c0be c6f4 c43e 4fc7 5d3f
00000230: eaa9 4fbf c100 143f be96 123f b2ba b23d
00000240: 6155 2c3f 0fbe 413f a3ff f8bd cdae 46bf
00000250: 2ba5 09bd 7098 fd3e 71d1 39bf 445b 1abc
00000260: e44f 4abf 26b2 2fc0 cbd3 a03f f63a 0bc0
00000270: 0c99 c13d d093 91bf 5c71 94be 0771 813f
00000280: e6cf 5e3f 22d1 f53c af97 9d3f 8adf 913f
00000290: 460a 17bf 7a80 14bf c243 2a3f 3000 fe3e
000002a0: 0c64 8dbe 10e6 b5be ebe0 59bf f1cf 8cbf
000002b0: af8e e83f 2332 9dbe 5051 d7bf 5771 7c3f
000002c0: 014a db3e 1378 513f d0c0 733e c9bd b23f
000002d0: 0a35 a1be 30e7 ea3e 8ec2 d43f 8c85 cabe
000002e0: 5284 453f c0e7 77bf e910 5b3e b945 cdbf
000002f0: 9252 73bf 274e 0d3e 4cca 6abf 340b 94be
00000300: 1c58 323d 8ccb 1440 329a b33f 158b d73e
00000310: d8a0 3fba 929b 24bf 9726 b83f 7cd7 393f
00000320: 03bc c4bd 1f31 4c3f a83f 193f 2559 b2bf
00000330: 9a7e c23f 0175 c03e b4bb eabd a4a1 973e
00000340: 65d9 36bf 561d 40bd 0ddf c73e 631b be3f
00000350: 30fc 633f 0343 8ebf 6cc1 543f 48a6 c1be
00000360: 6b25 2ebf eae3 a13f ba32 633f 4b1b d43f
00000370: 4909 ff3e f889 023f 8d1d 70bf 2970 7abd
00000380: 44a2 a23d f68e 883f d445 583f 72e5 dc3d
00000390: 05b6 98bf 6b2a 1f3f 8459 e9be 2ba8 393f
000003a0: a379 0b40 40d0 de3f 57e5 1ebf f110 bd3e
000003b0: 7657 0e3f c1fa 28bf 401b d3bf 8d6b 8dbe
000003c0: b198 91be c96a c8bf fbf6 293e 3e7c 1cbf
000003d0: ec66 bb3e 8b59 13bf 4af1 06bf ded8 9abf
000003e0: a8ad 5dbe 2f8a 3b3f 7ff6 41bf 820c c43f
000003f0: bc8f 363f 3d45 4a3e 8262 2bbf 784e e2bf

weight f4 [1, 32]
0.35448322 -0.59648186 0.8419471 -0.37561077 0.42677617 0.3903695 0.44536075 -0.3088241
0.39468324 0.30492917 0.48173407 -0.46817598 0.4572297 -0.33950987 -0.35155728 0.5100553
0.31541467 0.8270272 -0.42789444 0.37797758 0.27191165 0.40493637 -0.33391038 0.36033055
0.50589496 0.32109678 -0.42818922 -0.36650303 0.26103222 0.3577059 -0.55686444 -0.3784142
00000000: d37e b53e 09b3 18bf d889 573f 0e50 c0be
00000010: 6882 da3e 83de c73e 5306 e43e 311e 9ebe
00000020: ec13 ca3e ad1f 9c3e d9a5 f63e c3b4 efbe
00000030: 031a ea3e 3dd4 adbe 51ff b3be fc92 023f
00000040: 087e a13e 0eb8 533f fb14 dbbe 4786 c13e
00000050: 0138 8b3e d253 cf3e 4df6 aabe 3f7d b83e
00000060: 5582 013f cc66 a43e 9e3b dbbe 49a6 bbbe
00000070: 04a6 853e 3a25 b73e ab8e 0ebf 82bf c1be
