models_2/MLP64.pt (torch, 696519 bytes, 9 tensors)

weight f4 [944, 64]
0.33126205 -0.96039134 0.7230443 0.61317444 -0.21285099 0.30532122 -0.7470392 1.2351866
1.0153203 1.4481416 -0.14755777 -1.3176025 -0.20270003 0.2616766 0.7282601 0.043259904
-0.8766778 0.5110528 0.33607063 -0.051267162 -1.6934582 0.0593277 -2.253026 2.2498796
1.1917417 -1.8298295 -1.926905 0.593301 2.2618487 -0.68431586 0.4940797 0.6447822
0.90512127 0.8896972 -0.5453973 0.516632 1.1253273 -0.06566974 -1.0449702 -0.16194728
-0.6990605 -0.90154153 2.4682298 -1.2982903 1.4231519 -0.90372753 0.9844617 0.68465936
-0.68251836 -0.4040669 -1.7125006 1.4846158 -1.6566348 -0.5582361 -0.92096835 0.99514866
0.3953253 2.2321382 0.034195106 -0.8520402 -1.3011725 -1.5690881 0.24251063 1.2968272
0.3673462 -0.6413197 -0.6690819 -0.2406771 -1.9448785 -0.7426874 0.93688095 -1.1722689
1.7062418 -0.2846792 -0.12340594 -0.12843049 0.5806132 -1.3596275 1.0304313 -0.2028558
-1.6474438 0.70644224 -0.7110391 -0.16726044 -1.8116616 2.4418597 -1.2071756 -0.9051191
1.6594728 0.42379418 -0.34625047 -1.0153649 0.102393895 -0.19546567 -0.17621948 2.2364225
-0.2820339 1.18262 -0.6179823 0.477551 -0.6118634 -0.33874735 1.220563 -0.5365994
0.7649619 -1.9911109 -0.48395753 -0.2809926 -0.07551696 0.44209623 0.96096665 -1.5558248
0.68542516 0.8640002 -0.6318687 -1.1690807 0.5842429 0.8663218 -0.7434637 2.2648256
0.34749857 0.14305061 -0.14770631 -0.27550408 -1.3371003 0.53646 -1.5068533 1.7496588
-0.5217672 0.83841306 -0.8855678 0.30144233 1.0963622 0.197042 1.0496612 0.3670666
-1.379958 0.23955588 0.9810917 0.7694307 -0.21950254 0.74459505 -2.8166244 0.31781888
-0.04802931 -0.005775698 -1.673692 -2.4667625 -1.3321738 -1.1966153 -0.75979626 -0.875628
-0.26548806 1.1058844 -2.31241 2.019701 0.011294358 -0.19711518 0.021943513 -3.0597014
0.76320153 -0.36270937 -0.8688381 -0.34029853 0.4634433 0.56894726 1.0430436 1.4755108
-0.65456414 0.0064973873 0.581173 1.4865403 -0.85367066 -0.49219412 -0.40213335 1.1342807
-0.20368041 1.343399 0.9728807 -0.9974755 -0.011224906 0.2267611 0.059886314 0.88319933
-1.7466742 0.9631275 0.3636512 1.0224888 0.08793846 -0.04057256 -0.6000465 -1.3780103
-1.399101 -1.208985 -0.17035024 1.0377184 -0.65115964 0.8791124 0.7954913 -0.10039837
1.9580182 -0.7431687 0.7106069 -0.21951486 0.44923294 0.5285199 0.0008470567 -0.25442615
0.24725695 0.8362799 -1.5961009 0.40941423 -0.99153686 -0.03177227 -2.5264904 0.43401277
0.9857563 -1.4709488 -1.413906 -1.2274157 0.8044031 -0.20605865 0.024801241 0.30276155
1.2458367 -0.9602109 1.2044321 -1.5558287 2.8104665 0.9616509 -0.5536357 -1.4781195
-1.5045555 0.43864563 0.7867321 -1.1363555 0.17361684 0.15001215 0.20305794 -2.0000165
1.1734802 1.5280594 2.3517542 0.45620963 -0.47492483 0.8989282 0.89920235 -1.2787074
-1.3597846 0.17962366 -0.2003935 -0.5384254 1.1491055 -1.5752288 -0.51917595 0.43082404
00000000: 2e9b a93e 35dc 75bf 6e19 393f 00f9 1c3f
00000010: 9cf5 59be 1053 9c3e f63d 3fbf 981a 9e3f
00000020: 04f6 813f b45c b93f 6219 17be 33a7 a8bf
00000030: 9990 4fbe 7afa 853e 416f 3a3f 4c31 313d
00000040: f56d 60bf 5bd4 023f 7311 ac3e 84fd 51bd
00000050: 3dc3 d8bf 9a01 733d 9431 10c0 07fe 0f40
00000060: fe8a 983f da37 eabf d3a4 f6bf 93e2 173f
00000070: 21c2 1040 532f 2fbf 04f8 fc3e 7210 253f
00000080: 07b6 673f 32c3 633f 289f 0bbf ff41 043f
00000090: ba0a 903f db7d 86bd 95c1 85bf 82d5 25be
000000a0: a1f5 32bf 6dcb 66bf 7af7 1d40 602e a6bf
000000b0: d729 b63f b05a 67bf af05 7c3f d645 2f3f
000000c0: 86b9 2ebf dbe1 cebe 3833 dbbf e407 be3f
000000d0: 9c0c d4bf 90e8 0ebf 95c4 6bbf 10c2 7e3f
000000e0: 1468 ca3e 5adb 0e40 2b10 0c3d 4e1f 5abf
000000f0: d28c a6bf e1d7 c8bf b554 783e 6ffe a53f
00000100: cd14 bc3e 872d 24bf f448 2bbf 0f74 76be
00000110: c7f1 f8bf c320 3ebf 6ed7 6f3f e80c 96bf
00000120: 2266 da3f 79c1 91be 41bc fcbd 4883 03be
00000130: 11a3 143f 4608 aebf 2ce5 833f 6eb9 4fbe
00000140: 70df d2bf 66d9 343f a906 36bf 5246 2bbe
00000150: 87e4 e7bf 6e47 1c40 bb84 9abf e3b5 67bf
00000160: 9b69 d43f 8dfb d83e be47 b1be 7af7 81bf
00000170: e4b3 d13d 2728 48be e172 34be 8c21 0f40
00000180: bf66 90be 1860 973f 1734 1ebf 9181 f43e
00000190: 14a3 1cbf 4b70 adbe 693b 9c3f 945e 09bf
000001a0: 8bd4 433f b9dc febf 48c9 f7be 43de 8fbe
000001b0: a3a8 9abd 705a e23e e901 763f 4425 c7bf
000001c0: 0678 2f3f 1e2f 5d3f 26c2 21bf 70a4 95bf
000001d0: f190 153f 44c7 5d3f a353 3ebf e7f2 1040
000001e0: 55eb b13e dc7b 123e 5340 17be df0e 8dbe
000001f0: 1a26 abbf 7155 093f 92e0 c0bf d2f4 df3f
00000200: 8992 05bf 3da2 563f 92b4 62bf a656 9a3e
00000210: 9955 8c3f 61c5 493e 4c5b 863f 27f0 bb3e
00000220: 77a2 b0bf 234e 753e d328 7b3f 69f9 443f
00000230: 46c5 60be c89d 3e3f 9343 34c0 28b9 a23e
00000240: 62ba 44bd 1142 bdbb 8a3b d6bf 70df 1dc0
00000250: ac84 aabf b12a 99bf 0282 42bf 2829 60bf
00000260: 0dee 87be 9f8d 8d3f 87fe 13c0 c842 0140
00000270: f90b 393c 90d8 49be e2c2 b33c 26d2 43c0
00000280: 2d61 433f 0bb5 b9be 2c6c 5ebf 9c3b aebe
00000290: 7148 ed3e 87a6 113f 7482 853f 8add bc3f
000002a0: 8491 27bf 09e8 d43b c1c7 143f f446 be3f
000002b0: 298a 5abf de00 fcbe 6ce4 cdbe 1c30 913f
000002c0: 9991 50be 80f4 ab3f b60e 793f 8e5a 7fbf
000002d0: abe8 37bc 1034 683e 5a4b 753d 5a19 623f
000002e0: 0593 dfbf 868f 763f 7d30 ba3e eae0 823f
000002f0: 1419 b43d 6a2f 26bd a69c 19bf a462 b0bf
00000300: be15 b3bf 05c0 9abf 4b70 2ebe f5d3 843f
00000310: 66b2 26bf 830d 613f 51a5 4b3f a99d cdbd
00000320: 57a0 fa3f 4e40 3ebf 55ea 353f 81c8 60be
00000330: dc01 e63e 154d 073f 030d 5e3a 2544 82be
00000340: ed30 7d3e 7116 563f 094d ccbf be9e d13e
00000350: 5cd5 7dbf a423 02bd 05b2 21c0 ec36 de3e
00000360: 865a 7c3f 0d48 bcbf dffa b4bf f51b 9dbf
00000370: 5ded 4d3f 0a01 53be f92b cb3c 9003 9b3e
00000380: 9477 9f3f 62d0 75bf d52a 9a3f 6525 c7bf
00000390: afde 3340 c12e 763f 12bb 0dbf 0533 bdbf
000003a0: 4695 c0bf 2996 e03e 4667 493f 1974 91bf
000003b0: 9dc8 313e c99c 193e 6cee 4f3e 4500 00c0
000003c0: 9934 963f 7397 c33f 2483 1640 4f94 e93e
000003d0: 5929 f3be 2920 663f 2032 663f afac a3bf
000003e0: 6c0d aebf 44ef 373e f433 4dbe 3fd6 09bf
000003f0: e415 933f 19a1 c9bf b7e8 04bf f894 dc3e

weight f4 [1683, 64]
-0.15593289 0.2503561 -0.2343144 -2.8312676 0.39992106 0.18066895 1.183652 -0.09826166
-2.6591365 0.98840755 -0.9087641 1.0978938 0.83405274 1.6421006 0.78302425 -0.26487
1.087549 -0.23566839 1.5865242 -1.660198 0.24340965 0.28320286 0.4358262 0.8694363
0.5514238 -1.2141253 -0.26825872 -0.20088117 -0.8480354 0.03512632 -1.4620476 -0.1819638
-0.3796312 1.2113183 1.7381159 0.29735112 0.13744481 -0.5048222 -1.8484604 0.30961606
-1.2758843 -0.859524 0.94821787 -1.1961905 -0.25884178 -1.2435305 -0.9300844 1.6109897
0.48876706 -0.4236073 1.3345039 -0.9572329 0.874086 -1.7694178 2.256114 -1.2227123
-0.9531259 -1.5594939 -1.3927739 -1.6945847 -1.2051387 -1.4227862 -0.9712737 0.38121483
0.97263396 0.7099946 -0.19079532 -0.07655699 -1.2707168 -0.013745833 -0.0070615285 -0.09337263
0.33486405 0.31120512 1.5366946 0.064646125 0.5686661 1.32805 0.5388228 -2.5130975
-1.6463372 0.7352722 1.2739162 -0.42222792 -0.7114046 0.47700664 0.52067965 1.5775478
-2.202195 2.3434696 0.016037425 -1.0825491 -1.6524383 0.1263971 -0.081103414 -0.26070657
-0.5754244 -0.13204548 1.2274107 -0.9660184 0.5710258 0.37011006 -1.28711 -0.8444417
0.36151886 1.2097607 -0.76128423 -0.2534401 0.17519042 0.9568269 1.5302429 0.98007417
0.63199943 0.30044338 0.028638814 0.13417792 0.15534833 -0.27806175 -0.5124226 -1.4769797
-0.6805664 -0.36882538 -0.2147987 -0.7003533 -1.5212039 1.4070996 -0.8983167 1.0605232
-1.6912335 1.9151258 -0.63151324 1.4358623 2.3725345 0.7381838 0.38249716 1.2145878
-1.520563 1.1999533 1.4998485 -0.026527803 -0.12966064 -1.2067589 -1.1525153 -0.39507234
0.47703394 -0.49386507 1.7039555 -0.97783387 0.03129978 0.66283906 -1.1248012 0.717086
0.4557807 0.24457766 0.24926993 -0.27324682 -0.93317443 -1.516895 0.13215552 -0.51154584
0.1337085 0.93124956 -0.048656527 1.3430079 -1.10178 -0.15440828 -0.14549802 -0.36060122
-1.4744595 -0.03419308 1.6720921 -0.043270946 0.92577857 0.4342691 1.1090966 1.3344725
-0.43138236 0.025714941 -1.1778861 -0.7464094 1.4708781 -1.374748 -1.1942053 0.24878033
0.93513244 -2.0148206 1.069917 -1.0030727 -0.23424344 -1.8721879 -0.39254805 -0.35212958
0.90917605 -0.9300541 0.75840986 0.8394565 0.85399455 0.93944645 0.5271126 0.6823087
0.44700086 -0.27341697 -0.8239181 0.89928156 -1.1238782 -0.204648 1.8896632 0.7274371
0.11966146 0.14790058 -0.8670927 -0.5519219 0.5069011 0.31470355 1.5474236 0.22997725
-0.75301415 -0.17539468 1.4334636 0.21942706 1.5517962 -0.25713807 1.4822875 0.48303828
0.8264128 0.2899556 0.3406815 -0.87406725 -0.03901819 0.41558737 0.9472491 -1.0541532
-0.77987844 1.1927642 -2.116887 -0.3747526 1.0651189 0.95720154 -0.7094375 2.0408041
-0.3880659 0.44480833 -1.294185 -2.338115 -2.0354822 0.02712885 0.8725556 0.45956948
-0.11597023 0.11645706 -0.6632116 0.9150533 2.2319357 1.3439964 -0.54077405 -0.49671528
00000000: dfac 1fbe ad2e 803e 1df0 6fbe 7d33 35c0
00000010: 74c2 cc3e 4801 393e e981 973f 693d c9bd
00000020: 4b2f 2ac0 4708 7d3f c4a4 68bf c987 8c3f
00000030: 7b84 553f 5a30 d23f 4774 483f 0a9d 87be
00000040: ce34 8b3f 0e53 71be 3a13 cb3f 5e81 d4bf
00000050: 6140 793e f7ff 903e 9d24 df3e 6193 5e3f
00000060: 1c2a 0d3f 7568 9bbf 3559 89be cbb3 4dbe
00000070: d918 59bf 9ee0 0f3d 6024 bbbf b854 3abe
00000080: 055f c2be 7a0c 9b3f 957a de3f 683e 983e
00000090: 55be 0c3e 073c 01bf 5a9a ecbf ff85 9e3e
000000a0: 2d50 a3bf c409 5cbf 68be 723f c51c 99bf
000000b0: e986 84be 022c 9fbf 031a 6ebf e934 ce3f
000000c0: ad3f fa3e 0ee3 d8be 06d1 aa3f 370d 75bf
000000d0: 1ac4 5f3f 487c e2bf 2c64 1040 d681 9cbf
000000e0: 0f00 74bf 7f9d c7bf 6a46 b2bf 27e8 d8bf
000000f0: fc41 9abf dc1d b6bf 65a5 78bf 972e c33e
00000100: 8afe 783f 35c2 353f d95f 43be e9c9 9cbd
00000110: d9a6 a2bf 3436 61bc 6564 e7bb 263a bfbd
00000120: 4d73 ab3e 4756 9f3e 69b2 c43f 3065 843d
00000130: 1a94 113f 8bfd a93f 4bf0 093f 97d6 20c0
00000140: 2dbb d2bf cd3a 3c3f b00f a33f 422e d8be
00000150: 9d1e 36bf 373a f43e 434b 053f 16ed c93f
00000160: c3f0 0cc0 68fb 1540 eb60 833c f890 8abf
00000170: 1983 d3bf 3e6e 013e 8c19 a6bd 557b 85be
00000180: 034f 13bf ee36 07be cb1b 9d3f fb4c 77bf
00000190: bf2e 123f 117f bd3e 05c0 a4bf 552d 58bf
000001a0: 0019 b93e 70d9 9a3f 86e3 42bf e7c2 81be
000001b0: 1e65 333e 9cf2 743f 00df c33f 24e6 7a3f
000001c0: b7ca 213f b7d3 993e f29b ea3c f065 093e
000001d0: a213 1f3e 1c5e 8ebe 212e 03bf ac0d bdbf
000001e0: 9939 2ebf aed6 bcbe 31f4 5bbe 5b4a 33bf
000001f0: cfb6 c2bf d71b b43f 15f8 65bf 39bf 873f
00000200: 577a d8bf d822 f53f daaa 21bf 56ca b73f
00000210: 9bd7 1740 9df9 3c3f abd6 c33e 9d77 9b3f
00000220: cfa1 c2bf 1298 993f 09fb bf3f d650 d9bc
00000230: c2c5 04be 1377 9abf 9f85 93bf ec46 cabe
00000240: cb3d f43e e2db fcbe 371b da3f 5253 7abf
00000250: 3334 003d d2af 293f 7cf9 8fbf f392 373f
00000260: 175c e93e 9172 7a3e 9e40 7f3e 02e7 8bbe
00000270: 85e4 6ebf 9e29 c2bf c753 073e abf4 02bf
00000280: e2ea 083e 5f66 6e3f 114c 47bd afe7 ab3f
00000290: 2107 8dbf 341d 1ebe 6ffd 14be b9a0 b8be
000002a0: 17bb bcbf 0b0e 0cbd 1d07 d63f e03c 31bd
000002b0: d3ff 6c3f 8558 de3e e1f6 8d3f ffcf aa3f
000002c0: 26de dcbe 24a8 d23c f9c4 96bf b014 3fbf
000002d0: bc45 bc3f bef7 afbf b8db 98bf 45c0 7e3e
000002e0: d764 6f3f d2f2 00c0 0af3 883f b064 80bf
000002f0: 83dd 6fbe daa3 efbf 0ffc c8be 544a b4be
00000300: c3bf 683f 0718 6ebf 2627 423f 9fe6 563f
00000310: 639f 5a3f 907f 703f daf0 063f c8ab 2e3f
00000320: 4cdd e43e 4ffd 8bbe 4cec 52bf 5137 663f
00000330: 3edb 8fbf 3f8f 51be 7ce0 f13f 5139 3a3f
00000340: 1111 f53d 4073 173e caf9 5dbf c14a 0dbf
00000350: 45c4 013f d320 a13e fa11 c63f 287f 6b3e
00000360: 89c5 40bf aa9a 33be bc7b b73f 7db1 603e
00000370: 42a1 c63f 9aa7 83be 99bb bd3f cb50 f73e
00000380: ca8f 533f 0f75 943e ce6d ae3e dfc2 5fbf
00000390: 8ad1 1fbd dec7 d43e eb7e 723f 7eee 86bf
000003a0: 1da6 47bf 7fac 983f 147b 07c0 93df bfbe
000003b0: d155 883f 290b 753f b29d 35bf 899c 0240
000003c0: 93b0 c6be ebbd e33e dba7 a5bf ada3 15c0
000003d0: 5745 02c0 523d de3c ce5f 5f3f b14c eb3e
000003e0: cd81 edbd 0a81 ee3d 3cc8 29bf ef40 6a3f
000003f0: 09d8 0e40 1308 ac3f 2b70 0abf 7751 febe

weight f4 [32, 128]
-0.22659959 -0.02035747 -0.26750124 -0.20861265 -0.14199789 -0.2492178 0.0129050715 0.06259305
-0.1168032 0.09965092 0.0416308 -0.01743523 0.0894311 -0.031729944 -0.080292866 -0.002089292
-0.054315567 0.15272704 0.04581455 -0.11074284 -0.12983708 -0.20968154 -0.00797277 -0.113794394
0.098852545 0.11344224 0.077502646 -0.035559192 -0.18798216 0.11262168 0.066697516 -0.06321197
0.16009925 -0.2903243 0.020007974 -0.15237899 -0.0398294 -0.011779823 -0.1478417 0.10102159
-0.098879 -0.0073796157 0.27379048 -0.05887151 0.1672332 -0.13194136 -0.051682524 0.10901061
0.044861108 -0.1887063 -0.03862266 0.0034756185 0.1727979 0.008978241 -0.16809174 0.1286754
-0.1317122 -0.009819714 0.12987554 -0.2566989 -0.12637974 0.059406962 0.21883519 0.08152395
0.089414574 0.13139674 0.17306407 -0.33012787 0.20926058 -0.2255614 -0.22314923 0.193301
-0.38604495 0.07450864 -0.20250832 0.009796654 -0.17000423 -0.11544123 -0.07516623 -0.14490375
0.12919521 -0.16952981 -0.1714802 0.07093811 -0.062014814 -0.14035165 0.23349077 -0.25113174
0.14266966 -0.25044778 0.21735322 -0.012263705 -0.009920996 0.15721118 0.123443015 0.3130306
-0.065859996 -0.28822646 0.16152397 0.15446809 -0.098125614 0.35553914 -0.072395794 -0.074368335
0.12225148 -0.16908824 -0.011768082 0.27534282 0.076963514 -0.10779809 -0.00063593604 0.3387439
0.271251 0.19914061 -0.10424176 0.019281778 0.1008036 -0.094468124 0.043180726 -0.22047998
0.24142316 -0.2043455 -0.14087294 0.33209875 0.27758512 -0.2314904 -0.10992019 -0.07554806
0.008263887 -0.1700235 0.28888512 0.032614507 -0.02403143 0.18185423 0.04322323 0.054529335
-0.23270272 0.117125854 -0.05648127 0.014746092 0.04920415 -0.15147187 0.07355921 -0.22896324
0.2315974 0.12048526 0.05094467 -0.061004847 0.22829947 0.32762024 0.0048959586 -0.15625629
-0.11483585 0.16115242 0.087906666 0.19300357 -0.14332838 0.045604754 0.011449537 0.029981654
-0.04586866 0.0037097684 -0.06059327 0.073415235 0.009006923 0.07907141 0.06204099 -0.014565269
-0.15713942 0.1764578 -0.12208584 0.058824718 0.018768007 -0.08757649 0.13583131 0.3464294
0.008976895 -0.054678153 0.15906976 0.049395695 -0.30781788 -0.0058994265 -0.058531538 -0.16925247
0.027944818 -0.07344802 -0.13842827 -0.035693664 0.0618737 0.12269941 0.15073442 -0.16631842
0.02389205 0.2717332 0.18891084 0.26143536 0.050314277 0.22316691 -0.20863953 -0.122730084
0.032975174 -0.10223541 -0.3353509 -0.24273847 -0.0439257 0.077982366 0.23155674 0.071362734
-0.11800724 0.06920738 -0.03584307 0.12286889 0.07369297 0.08803094 0.10173168 -0.16115624
0.18754643 0.08918008 0.19278094 0.22795786 0.23110808 0.2667238 0.19574521 0.002101651
0.28696764 0.13417244 0.08021013 -0.23691824 0.018633833 0.11938334 0.17402399 -0.07543307
0.34467298 -0.010957919 0.09346115 0.029345727 0.023512151 0.13125345 0.021597361 -0.31155208
-0.072802514 0.113786966 0.44839036 -0.166596 0.283224 0.18715416 0.25196788 0.27201357
-0.47231153 0.04639514 0.32808942 -0.034832932 -0.16276295 0.24292499 0.38285342 0.27875537
00000000: b909 68be b5c4 a6bc ecf5 88be 8e9e 55be
00000010: e567 11be f332 7fbe cb6f 533c c930 803d
00000020: 8436 efbd c815 cc3d 0f85 2a3d 54d4 8ebc
00000030: a727 b73d 42f7 01bd 9670 a4bd 81ec 08bb
00000040: 007a 5ebd 7a64 1c3e 0aa8 3b3d 24cd e2bd
00000050: 03f4 04be c2b6 56be 39a0 02bc 090d e9bd
00000060: 3473 ca3d 6854 e83d b5b9 9e3d 84a6 11bd
00000070: 657e 40be 32a6 e63d b598 883d 4775 81bd
00000080: 0ff1 233e 63a5 94be c3e7 a33c 3d09 1cbe
00000090: 2724 23bd 2900 41bc d163 17be 68e4 ce3d
000000a0: 1381 cabd b4d0 f1bb 442e 8c3e 4123 71bd
000000b0: 2e3f 2b3e a31b 07be 0eb1 53bd f440 df3d
000000c0: 48c0 373d 393c 41be cb32 1ebd 34c7 633b
000000d0: eff1 303e 7919 133c 3e20 2cbe 7cc3 033e
000000e0: 90df 06be dee2 20bc 18fe 043e 0a6e 83be
000000f0: b169 01be b754 733d 5516 603e 07f6 a63d
00000100: fd1e b73d de8c 063e b537 313e 8506 a9be
00000110: 6848 563e 91f9 66be 3b81 64be b3f0 453e
00000120: afa7 c5be fc97 983d 575e 4fbe 2582 203c
00000130: 9715 2ebe 746c ecbd c1f0 99bd a661 14be
00000140: c04b 043e 3999 2dbe 8198 2fbe 0048 913d
00000150: 3f03 7ebd 58b8 0fbe 3418 6f3e 5794 80be
00000160: ff17 123e b13a 80be d891 5e3e b5ed 48bc
00000170: ac8b 22bc f8fb 203e b1cf fc3d 8c45 a03e
00000180: 9be1 86bd 6b92 93be 8a66 253e e22c 1e3e
00000190: 15f6 c8bd 3a09 b63e 3f44 94bd 6d4e 98bd
000001a0: fc5e fa3d 7825 2dbe eace 40bc bcf9 8c3e
000001b0: 0c9f 9d3d 3fc5 dcbd f2b4 26ba d76f ad3e
000001c0: 69e1 8a3e 84eb 4b3e b47c d5bd d2f4 9d3c
000001d0: 1e72 ce3d 8178 c1bd 46de 303d 81c5 61be
000001e0: a237 773e f23f 51be ff40 10be d908 aa3e
000001f0: a31f 8e3e d20b 6dbe d61d e1bd f1b8 9abd
00000200: 4165 073c a41a 2ebe c0e8 933e ca96 053d
00000210: 90dd c4bc ff37 3a3e d70a 313d 275a 5f3d
00000220: 9f49 6ebe aedf ef3d e758 67bd 9899 713c
00000230: 4a8a 493d 711b 1bbe 36a6 963d 5775 6abe
00000240: de27 6d3e fac0 f63d 5cab 503d 38e0 79bd
00000250: 56c7 693e d7bd a73e 476e a03b a601 20be
00000260: 0f2f ebbd 2405 253e 6908 b43d baa2 453e
00000270: adc4 12be 0dcc 3a3d d796 3b3c 169c f53c
00000280: c7e0 3bbd 961f 733b a630 78bd ba5a 963d
00000290: c691 133c 31f0 a13d b11e 7e3d 2ba3 6ebc
000002a0: 28e9 20be 5bb1 343e 2408 fabd 30f2 703d
000002b0: 5dbf 993c 4e5b b3bd 5d17 0b3e 325f b13e
000002c0: d413 133c 33f6 5fbd 2fe3 223e 2453 4a3d
000002d0: 4e9a 9dbe fa4f c1bb c4be 6fbd 8550 2dbe
000002e0: 88ec e43c ea6b 96bd 24c0 0dbe 8533 12bd
000002f0: 476f 7d3d d449 fb3d 205a 1a3e 604f 2abe
00000300: 43b9 c33c 9d20 8b3e d871 413e dbda 853e
00000310: 5816 4e3d de85 643e 9aa5 55be e959 fbbd
00000320: fa10 073d cc60 d1bd 1db3 abbe 6f90 78be
00000330: 6feb 33bd 38b5 9f3d 361d 6d3e a026 923d
00000340: c8ad f1bd 99bc 8d3d 2fd0 12bd afa2 fb3d
00000350: 57ec 963d 9149 b43d b358 d03d 2406 25be
00000360: 2c0c 403e 0ca4 b63d 5e68 453e c96d 693e
00000370: 99a7 6c3e 0690 883e 6f71 483e dabb 093b
00000380: 6ced 923e 8064 093e 3545 a43d b29a 72be
00000390: fba5 983c 417f f43d 5833 323e a77c 9abd
000003a0: fa78 b03e d888 33bc 8f68 bf3d 7366 f03c
000003b0: 8e9c c03c 4e67 063e f3ec b03c c183 9fbe
000003c0: 7c19 95bd 2409 e93d 6c93 e53e 2498 2abe
000003d0: bc02 913e 57a5 3f3e ef01 813e 5d45 8b3e
000003e0: d1d2 f1be d508 3e3d 56fb a73e faac 0ebd
000003f0: 55ab 26be 54c1 783e 5d05 c43e 06b9 8e3e

bias f4 [32]
-0.42672834 -0.15220913 0.14481989 -0.6066555 -0.14601627 -0.005395937 -0.076176256 0.12059453
0.35476136 -0.5845913 -0.051714722 -0.2273351 0.4473949 0.56112415 -0.3897578 0.2813388
0.27686608 0.038873672 0.2734335 0.24465248 0.3189953 -0.053065393 0.5912421 0.041061983
-0.50706255 0.29214007 -0.13200584 0.066287145 0.43522736 -0.091936454 0.15515663 0.20662437
00000000: 237c dabe b6dc 1bbe aa4b 143e c64d 1bbf
00000010: 4a85 15be 66d0 b0bb 4c02 9cbd 44fa f63d
00000020: 48a3 b53e c7a7 15bf d1d2 53bd 88ca 68be
00000030: f210 e53e d5a5 0f3f 568e c7be a40b 903e
00000040: 64c1 8d3e 003a 1f3d 7aff 8b3e 2e86 7a3e
00000050: 5a53 a33e 195b 59bd a45b 173f 9c30 283d
00000060: dace 01bf 6293 953e 8a2c 07be 8ec1 873d
00000070: 1fd6 de3e 2e49 bcbd 61e1 1e3e 5795 533e

weight f4 [16, 32]
0.1668513 0.017757403 -0.30004323 -0.28948584 0.29062638 0.1451695 -0.0874288 -0.048117936
-0.18143956 -0.20503873 -0.14963064 -0.101863004 -0.2983501 0.040161576 -0.19362798 -0.16906571
-0.41143546 -0.108763985 -0.08894661 0.13627258 0.29337776 -0.17921354 -0.19719629 0.05320146
0.17372905 0.07614832 0.0076609845 0.05701962 -0.08739494 0.09444984 0.20270227 0.5270266
0.115383156 0.08876043 -0.119408265 0.33565167 -0.21966344 0.17499465 0.30748755 -0.22223152
-0.28205293 0.3450056 -0.54702455 -0.10443292 -0.021861289 -0.32394946 -0.1920399 0.040039025
0.13112715 0.22472776 0.17916824 -0.10445809 -0.008201937 0.1576804 -0.46385205 -0.15360074
-0.067561805 0.019445427 0.20424075 0.19378333 0.021332199 0.5645009 -0.05052398 -0.0484816
0.15227278 -0.06062241 -0.05749606 -0.22663805 0.19765462 -0.06297618 -0.03554497 -0.07802071
0.14462255 -0.22164878 0.3244662 -0.20598754 0.042258248 0.15111005 -0.20306727 -0.06678039
0.15929486 0.21772918 0.15686199 0.38985363 -0.34725922 -0.06011643 0.37750807 0.13799371
-0.38082156 -0.09058049 -0.2393932 -0.071300134 0.3216394 -0.13445203 -0.26253486 -0.120093286
-0.2306677 -0.21163222 0.37973294 0.06730479 0.019484688 0.20696306 -0.26134527 0.397874
0.0060391407 0.24863225 -0.5763133 -0.06509983 -0.19928688 -0.30373496 -0.4257938 0.20208134
0.3637201 -0.04051339 0.23020546 -0.37038872 0.30783767 -0.14340039 0.47793075 0.706235
-0.14918272 0.09503037 -0.015714789 0.13250932 0.1944677 0.58675134 -0.013182011 0.14696665
-0.075693786 -0.033473417 -0.19644216 -0.025217826 0.27160284 0.17135689 -0.29283857 -0.26937282
0.047381673 -0.16072091 0.20862837 -0.28934306 -0.03857898 0.108785644 0.2193902 -0.15246573
0.18782818 -0.43750644 -0.064493395 -0.3047227 -0.04530517 -0.38722023 -0.15272993 0.17386532
0.008289735 -0.0097804135 0.09429977 0.09077912 -0.32767874 -0.0618076 -0.20903918 -0.057968028
0.124334365 0.20644054 -0.13257422 0.3272876 -0.047755532 0.0939485 0.4380338 -0.3442665
-0.3373163 -0.10276292 0.08159316 0.23443691 0.008879861 0.020084206 0.18350203 0.3002158
-0.06341691 0.105659164 0.06967977 0.1362041 0.32405272 0.15502916 -0.38986105 0.23196901
0.14343013 -0.17098105 -0.27936032 -0.18420438 -0.20459457 -0.2510931 -0.09181936 -0.23500791
0.01803682 -0.15011719 -0.08095373 0.2606336 0.21485737 -0.20654863 -0.060655423 0.12575185
0.019448396 0.09587871 0.24417332 -0.013995795 0.07122816 -0.24783981 0.8861043 0.50889343
0.31553447 0.21268815 0.299662 -0.2533537 0.085260026 -0.060588513 0.012570111 -0.0043629473
0.09070374 -0.11884202 0.13443287 0.07143613 -0.20999512 -0.04023263 0.12000901 -0.04428361
-0.048122898 0.30741102 -0.18975635 -0.17903844 -0.024474267 -0.07155982 0.19506578 0.16224392
-0.21443337 0.51684403 0.26244447 0.17943148 -0.24595053 0.37416765 0.11795968 -0.23631103
-0.26040295 -0.11555404 -0.15574096 0.016234068 0.028848017 -0.08900557 0.14597781 -0.34027734
-0.105811134 -0.16000986 0.3525909 0.43126675 -0.20735686 -0.3835805 -0.17541093 -0.13106667
00000000: 11db 2a3e f977 913c 449f 99be 7d37 94be
00000010: fbcc 943e 50a7 143e df0d b3bd 5017 45bd
00000020: 4bcb 39be acf5 51be c638 19be 8d9d d0bd
00000030: 58c1 98be 7780 243d 6a46 46be 901f 2dbe
00000040: aba7 d2be a7bf debd a429 b6bd 0a8b 0b3e
00000050: 9c35 963e c183 37be d3ed 49be c6e9 593d
00000060: 07e6 313e a7f3 9b3d ff08 fb3b 688d 693d
00000070: 1efc b2bd eb6e c13d 2f91 4f3e 37eb 063f
00000080: 014e ec3d 07c8 b53d 528c f4bd 89da ab3e
00000090: 74ef 60be cc31 333e 026f 9d3e a990 63be
000000a0: 3e69 90be 93a4 b03e cd09 0cbf ede0 d5bd
000000b0: 7216 b3bc b4dc a5be 1ca6 44be f6ff 233d
000000c0: 3246 063e 091f 663e e177 373e 20ee d5bd
000000d0: 6b61 06bc f976 213e 047e edbe 8349 1dbe
000000e0: d85d 8abd 044c 9f3c 7d24 513e 236f 463e
000000f0: ddc0 ae3c 2283 103f 3cf2 4ebd a494 46bd
00000100: 65ed 1b3e 344f 78bd fd80 6bbd ce13 68be
00000110: f965 4a3e a8f9 80bd 9a97 11bd 52c9 9fbd
00000120: ef17 143e e6f7 62be 6f20 a63e 66ee 52be
00000130: fc16 2d3d 98bc 1a3e def0 4fbe 28c4 88bd
00000140: 311e 233e 66f4 5e3e 6ea0 203e e59a c73e
00000150: f6cb b1be a53c 76bd bd48 c13e 394e 0d3e
00000160: 0bfb c2be 4482 b9bd 7e23 75be ce05 92bd
00000170: ebad a43e cbad 09be f86a 86be 78f3 f5bd
00000180: 2734 6cbe 1eb6 58be 5b6c c23e 18d7 893d
00000190: 5a9e 9f3c 20ee 533e 0ccf 85be 24b6 cb3e
000001a0: fce3 c53b 7499 7e3e 4589 13bf 0f53 85bd
000001b0: dc11 4cbe 2683 9bbe a501 dabe 69ee 4e3e
000001c0: 8539 ba3e 5ef1 25bd fbba 6b3e 97a3 bdbe
000001d0: e69c 9d3e 8dd7 12be 57b3 f43e d1cb 343f
000001e0: 5bc3 18be 489f c23d 4dbc 80bc 86b0 073e
000001f0: 8a22 473e 5635 163f 5df9 57bc 6d7e 163e
00000200: 5805 9bbd 6c1b 09bd 2228 49be 9d95 cebc
00000210: 870f 8b3e 2e78 2f3e f0ee 95be 3ceb 89be
00000220: 4913 423d 0694 24be ada2 553e c624 94be
00000230: fe04 1ebd 02cb de3d d3a7 603e fa1f 1cbe
00000240: 0856 403e d800 e0be 1d15 84bd 9d04 9cbe
00000250: ea91 39bd bb41 c6be 3c65 1cbe c009 323e
00000260: abd1 073c 073e 20bc 3d20 c13d 67ea b93d
00000270: 82c5 a7be f729 7dbd 5e0e 56be e26f 6dbd
00000280: 04a3 fe3d 2665 533e 89c1 07be 3e92 a73e
00000290: 4e9b 43bd 1268 c03d f745 e03e b343 b0be
000002a0: b9b4 acbe 5e75 d2bd 511a a73d 3b10 703e
000002b0: d67c 113c a287 a43c f5e7 3b3e e3b5 993e
000002c0: bae0 81bd d563 d83d 44b4 8e3d 1679 0b3e
000002d0: 3dea a53e f7bf 1e3e de9b c7be 4989 6d3e
000002e0: 59df 123e a815 2fbe 5108 8fbe 13a0 3cbe
000002f0: 3d81 51be 468f 80be ca0b bcbd eaa5 70be
00000300: f4c1 933c 52b8 19be 12cb a5bd c471 853e
00000310: 9203 5c3e 7c81 53be d271 78bd 18c5 003e
00000320: 3e52 9f3c 0f5c c43d 9208 7a3e 9e4e 65bc
00000330: 12e0 913d b8c9 7dbe bbd7 623f d746 023f
00000340: bc8d a13e ecca 593e 4c6d 993e 93b7 81be
00000350: cf9c ae3d a92b 78bd def2 4d3c 0ef7 8ebb
00000360: e2c2 b93d 7263 f3bd c5a8 093e 1b4d 923d
00000370: f608 57be f8ca 24bd 49c7 f53d bb62 35bd
00000380: 841c 45bd fa64 9d3e 7d4f 42be da55 37be
00000390: 427e c8bc f48d 92bd 53bf 473e 4523 263e
000003a0: 6c94 5bbe e44f 043f 1f5f 863e e3bc 373e
000003b0: 75da 7bbe e792 bf3e d894 f13d 85fb 71be
000003c0: 8953 85be 99a7 ecbd 8f7a 1fbe 4ffd 843c
000003d0: ad52 ec3c 8d48 b6bd 357b 153e d538 aebe
000003e0: 82b3 d8bd a0d9 23be cb86 b43e ffce dc3e
000003f0: 5b55 54be aa64 c4be ec9e 33be 5736 06be

bias f4 [16]
-0.19049075 -0.67213213 -0.32279578 0.3515505 -0.6233534 -0.63925225 -0.4144051 -0.36735576
-0.34383765 -0.3986411 -0.41129434 0.57013476 -0.6819675 0.35662913 -0.35235268 -0.27790922
00000000: 0210 43be da10 2cbf 7d45 a5be 6dfe b33e
00000010: 1794 1fbf 09a6 23bf e82c d4be 0e16 bcbe
00000020: 7d0b b0be b01a ccbe 2c95 d2be 5af4 113f
00000030: 6c95 2ebf 1898 b63e 9267 b4be 1e4a 8ebe

weight f4 [8, 16]
-0.16956735 0.28665778 0.24321704 0.471262 0.108818986 0.07502614 0.2591455 0.01475453
0.021875964 0.17538795 0.14220563 0.19396192 0.3698969 -0.21044023 -0.15092836 -0.1841865
-0.09034218 -0.30084038 -0.3017983 0.28137586 -0.028018925 -0.12245882 0.1126455 -0.49116755
-0.5125591 -0.60859096 0.022972003 0.33512107 -0.3057871 -0.1437725 -0.47319445 0.28284007
0.18065062 -0.33829495 0.09047813 0.3551599 0.21948534 0.1756021 -0.030337894 0.37161633
0.071800694 0.06344258 0.19881138 0.0928628 0.22887012 -0.17134893 -0.29090834 0.018048095
-0.18633161 0.22773224 -0.14456712 0.33052942 0.3565182 0.54722404 0.09798566 0.123594806
-0.16066776 0.35180134 0.08857484 0.16203603 0.19142778 -0.084351234 -0.082028605 -0.091195084
0.09488868 0.27118617 0.109082416 0.43692487 -0.013501968 0.5050207 0.26791474 -0.14914525
-0.40271232 0.3274519 0.37444896 0.029465463 0.34479773 0.096988596 0.012083056 -0.04336748
-0.027701195 0.045008034 -0.31510273 0.030642048 0.21922858 -0.13032031 -0.7797848 -0.0031280753
-0.17959568 0.042525697 -0.2364043 0.44829172 -0.006373209 0.1645088 -0.4132553 0.13881102
-0.5387805 0.20691717 0.1342199 0.110372916 0.31600508 -0.08506427 -0.5708959 -0.16211632
-0.31278202 0.19707164 -0.08255346 -0.28581905 0.28567374 0.26493514 -0.028670596 -0.80922455
0.21222046 -0.46945536 -0.18585671 0.42281953 -0.2098023 0.12279866 0.12570733 0.14438292
-0.275259 -0.40457842 -0.01083346 -0.2626814 0.08381432 0.25474665 -0.71492106 -0.08701783
00000000: 10a3 2dbe cfc4 923e e30d 793e 4149 f13e
00000010: 7ddc de3d 4ea7 993d b8ae 843e fcbc 713c
00000020: 3935 b33c e698 333e 5a9e 113e f49d 463e
00000030: 2063 bd3e a57d 57be f78c 1abe 639b 3cbe
00000040: 5205 b9bd c007 9abe 4f85 9abe 7f10 903e
00000050: f287 e5bc b1cb fabd afb2 e63d 507a fbbe
00000060: 1337 03bf 9ecc 1bbf c82f bc3c fd94 ab3e
00000070: 2090 9cbe 1939 13be 8b46 f2be 6ad0 903e
00000080: 7afc 383e ff34 adbe 994c b93d 85d7 b53e
00000090: c4c0 603e 09d1 333e 2d87 f8bc 7f44 be3e
000000a0: 3e0c 933d 2fee 813d 3695 4b3e da2e be3d
000000b0: ee5c 6a3e 1876 2fbe f0f1 94be 99d9 933c
000000c0: b7cd 3ebe a432 693e 6709 14be 273b a93e
000000d0: 8e89 b63e e016 0c3f b5ac c83d 461f fd3d
000000e0: 1786 24be 4e1f b43e ba66 b53d c6ec 253e
000000f0: a505 443e 57c0 acbd 9dfe a7bd 7dc4 babd
00000100: ff54 c23d ead8 8a3e 9a66 df3d 9eb4 df3e
00000110: 5c37 5dbc 0949 013f 1f2c 893e 88b9 18be
00000120: 4f30 cebe c7a7 a73e c6b7 bf3e 8e61 f13c
00000130: 5489 b03e f5a1 c63d 03f8 453c 19a2 31bd
00000140: 9eed e2bc 585a 383d 2555 a1be 0805 fb3c
00000150: 757d 603e b072 05be fa9f 47bf 6500 4dbb
00000160: eee7 37be 6d2f 2e3d f813 72be 7e86 e53e
00000170: 5ad6 d0bb ff74 283e 3396 d3be 7a24 0e3e
00000180: 85ed 09bf 18e2 533e f170 093e 320b e23d
00000190: 6bcb a13e 2d36 aebd 3c26 12bf d201 26be
000001a0: f724 a0be 26cd 493e ca11 a9bd e056 92be
000001b0: d443 923e 94a5 873e 99de eabc 5729 4fbf
000001c0: 5250 593e 745c f0be 3951 3ebe cd7b d83e
000001d0: 6ad6 56be dd7d fb3d 6cb9 003e 1ed9 133e
000001e0: bfee 8cbe e724 cfbe d37e 31bc 2d7e 86be
000001f0: d8a6 ab3d 276e 823e 1105 37bf 6736 b2bd

bias f4 [8]
-0.02136026 0.6891546 0.24694687 -0.18371922 -0.09582363 0.77124125 0.5236946 0.60418034
00000000: b6fb aebc 706c 303f a4df 7c3e e420 3cbe
00000010: 2e3f c4bd 1170 453f d910 063f 90ab 1a3f

weight f4 [1, 8]
-0.22691913 0.6601584 -0.395156 -0.1535594 -0.15727761 0.6235809 0.5764487 0.45079908
00000000: 7d5d 68be 2400 293f e351 cabe ad3e 1dbe
00000010: 620d 21be ffa2 1f3f 2492 133f 23cf e63e
