models_2/NeuMF_class64.pt (torch, 810479 bytes, 17 tensors)

weight f4 [944, 8]
000000 7e 0d cc 3f fc e8 ff 3e f7 1a 44 3f ab 10 ce 3e
       1.5941617 0.4998244 0.76603645 0.40247092
000010 6e 9a c9 3e 26 d2 69 bf 43 5d 94 be b8 c4 55 3f
       0.39375633 -0.91336286 -0.28977403 0.83503294
000020 db 7e 78 3d 20 4b 00 bf ee f5 3d bf c8 d5 a8 3f
       0.060667854 -0.5011463 -0.74203384 1.3190241
000030 50 68 c3 3f f6 d3 0e c0 c6 bd 01 3f 71 2a 0c 3f
       1.5266209 -2.231687 0.50680196 0.5475226
000040 52 46 4f 3f 64 a8 78 bf af bb bb bf af d8 c8 3f
       0.80966675 -0.97131944 -1.4666651 1.5691127
000050 ff 9e a3 3f 4d f9 1e bf dd 3e b6 3f 32 1a c1 3c
       1.2782897 -0.6209915 1.4237934 0.023572061
000060 ba 1e d3 3f 03 6e 09 bf 13 6b 0c bf 4d 4a 8e 3f
       1.6493752 -0.5368349 -0.5485088 1.1116425
000070 40 a3 fe 3e 53 3b b4 be 68 88 5f bf 9a 19 ed 3f
       0.49733925 -0.3520151 -0.87317514 1.8523438
000080 3a b6 80 be bc 92 85 bf ea ac 64 3f a1 9f 2f bf
       -0.25139028 -1.0435405 0.89326346 -0.6860295
000090 66 ec 5d 3f 70 dd db bf b8 5d 2f 3f 2c 44 92 3e
       0.8668884 -1.7176952 0.6850238 0.28567636
0000a0 9e a9 94 3f 7d 29 cb bf 0a 37 97 3e 00 ca c1 3e
       1.1614263 -1.5872036 0.2953418 0.37849426
0000b0 82 e9 37 3f c8 a4 cd bc f3 bc fb 3f 74 4b 19 3f
       0.7184068 -0.025102988 1.9667038 0.5988076
0000c0 62 e8 c8 3f 3e d7 a0 bf 8c 95 fb 3d ea 66 38 bf
       1.5695918 -1.2565687 0.12284383 -0.72032034
0000d0 44 c3 c7 3d f1 10 9d bf 6f a5 6e 3e 64 63 ed 3e
       0.09754041 -1.2270795 0.23305295 0.46364892
0000e0 f8 38 7d 3f 22 1c 0b bf 44 51 d5 bd 36 00 11 3f
       0.9891505 -0.543398 -0.10415891 0.56640947
0000f0 66 a6 09 3f e1 52 93 be 25 6d 16 40 9e fd 1f 3f
       0.5376953 -0.2877417 2.3504117 0.62496364
000100 1f ac d2 3f 41 15 66 bf e6 ad 57 3f cc 00 d0 3d
       1.6458777 -0.8987618 0.8424972 0.10156402
000110 a4 e4 9d bf 07 5e b2 be 99 4f 58 3f 89 cd a3 3e
       -1.23354 -0.34837362 0.84496456 0.31992748
000120 0f 27 e8 3f db 77 7c bf 50 42 c0 3f 59 69 d9 3f
       1.813692 -0.98620385 1.5020237 1.6985275
000130 38 14 23 bf 8f 77 14 bf e4 f2 a1 3f d6 7d 31 3e
       -0.63702726 -0.5799493 1.2652249 0.17333159
000140 0f ea de 3f 84 00 24 bf 2d b0 c7 3c 92 43 85 bf
       1.7415179 -0.64063287 0.024376 -1.0411246
000150 02 44 d1 be 61 d2 30 bf db 35 06 be c6 4c c1 3f
       -0.40872198 -0.6907101 -0.13106482 1.5101554
000160 af df 98 3f 9b 0f 46 be b6 8e 58 be 18 0e b7 bf
       1.1943263 -0.1934189 -0.2114819 -1.4301176
000170 84 8c 23 bf d0 c2 ce be 9a 09 74 bf 8e 6f c8 3f
       -0.63886285 -0.40383005 -0.9532715 1.5659044
000180 b6 c1 da 3e 58 96 7a be 6b 74 90 bf d6 da 14 be
       0.42725915 -0.24471414 -1.1285528 -0.14536604
000190 b3 b4 02 bf 66 6e b1 be 6e f8 af 3f ad 90 d9 3f
       -0.51056975 -0.3465454 1.374769 1.6997277
0001a0 e2 6e a9 3f cd 90 52 be 8a 36 88 be 7c 34 df 3e
       1.3236964 -0.2056305 -0.2660411 0.4359473
0001b0 b9 9c 25 3d 8b 9d a3 3e 16 76 03 40 ad ef 7e 3f
       0.040432665 0.31956133 2.0540824 0.99584466
0001c0 7b 42 10 3f 06 1c e0 bf 24 87 97 be 12 67 86 3f
       0.5635144 -1.7508552 -0.29595292 1.0500205
0001d0 5b 4b 1c 3f 40 bc 8e be d3 a3 d1 3e f0 7d 17 3f
       0.61052483 -0.27877998 0.409453 0.5917654
0001e0 c0 c8 a2 3f 24 d0 45 3f 1c 2d a8 bf 55 60 72 3c
       1.2717514 0.7727072 -1.3138766 0.014793475
0001f0 0c 35 0d bf 27 c3 6a bf f3 36 16 3e c7 3e 00 40
       -0.5515907 -0.9170403 0.14669399 2.0038316
000200 15 71 8b 3f 84 c2 01 be 26 19 31 3f 00 f5 a7 bf
       1.0893885 -0.12671858 0.69179 -1.3121643
000210 08 fc 63 bf 19 13 32 3f 89 d3 3b 3e 98 dd 34 3f
       -0.89056444 0.6956039 0.18342413 0.70650625
000220 b3 38 e7 3f 5e 89 ab bf c8 eb 29 bf 84 f9 5f be
       1.8064178 -1.3401296 -0.663754 -0.21872526
000230 be b5 26 bf 59 ec f1 3e 87 86 9a 3f e3 a7 48 3f
       -0.65121067 0.4725063 1.2072304 0.78381175
000240 9d d0 2b 3f df 21 ee bd 13 b6 db bf fb 05 71 3f
       0.67115194 -0.11627554 -1.716494 0.9414975
000250 85 23 14 bd cf 80 95 bf 00 c5 9e bd 8d 0d 7d 3f
       -0.036166687 -1.1679934 -0.077524185 0.988488
000260 22 0b 01 40 44 a7 17 c0 04 4f fd 3e e9 ee 43 bf
       2.0163045 -2.369584 0.49474347 -0.7653642
000270 ba 6c bc bf 41 06 a8 3e e5 79 70 3f 67 c4 75 bf
       -1.4720681 0.3281727 0.93935996 -0.9600281
000280 12 d0 d4 3d 8b 07 55 be 79 03 84 ba 9f d8 18 bf
       0.10391249 -0.20803659 -0.0010071836 -0.5970554
000290 11 13 f5 be 18 f1 7f bf f6 9e fc 3e 6a 73 e3 3f
       -0.4786611 -0.99977255 0.49340028 1.7769597
0002a0 bb 13 8f 3e cf 25 98 bf 3f c4 23 bd 89 14 09 c0
       0.2794474 -1.1886538 -0.039982077 -2.1418784
0002b0 42 a0 b3 bf cd bf 87 be 66 f8 95 3f d9 e3 4f bf
       -1.4033282 -0.2651352 1.171643 -0.8120704
0002c0 89 64 d3 3f 87 4e ed be 16 ef be 3f d0 62 5f 3f
       1.6515056 -0.46348974 1.4916713 0.8726015
0002d0 de f3 e4 be 0c 6d bf 3d 6f 3c 7d bc 12 26 98 3f
       -0.44717306 0.09346971 -0.015456303 1.1886618
0002e0 72 d9 35 40 c8 2a b7 be 9c ec 18 3e ad b9 56 3f
       2.8413968 -0.35774827 0.1493401 0.8387707
0002f0 20 cb 87 bf 86 ec 4a 3e ae 56 90 3f 33 67 82 3d
       -1.0608864 0.19816789 1.1276453 0.0636734
000300 eb 57 b3 3f 32 cb 1a bf 48 94 78 bf 90 b1 16 bf
       1.4011205 -0.604663 -0.9710126 -0.5886469
000310 18 2a 1b 3e b6 e4 e9 3e 56 dd be 3f e0 fe 2b 3f
       0.15152776 0.45682305 1.4911296 0.67185783
000320 09 7b dd 3e 98 a3 36 3f cd 3a c1 bf 98 e0 13 3f
       0.4325793 0.71343374 -1.509607 0.5776458
000330 5e b1 96 3f 67 69 19 be 7d 97 ae 3f 4c 5f 76 3f
       1.1772878 -0.14981614 1.363998 0.9623916
000340 f0 58 63 3f 7d 0d a1 3f 9a a9 95 bf ae 4b 0e c0
       0.8880758 1.2582241 -1.1692383 -2.2233691
000350 25 5f ed bd cc 64 7c bf c1 de c7 3f 54 7c 3d 3f
       -0.11590413 -0.98591304 1.5614854 0.74017835
000360 d5 9c 21 3f ee 5f 80 bf 26 71 99 3f 82 66 82 be
       0.6312993 -1.0029275 1.1987655 -0.25468832
000370 94 54 df 3f c3 d5 15 c0 27 07 0b be 0d 8d 0d 3f
       1.7447686 -2.341172 -0.13576947 0.5529335
000380 24 ce 88 3f 18 14 31 bf a1 22 1c 3f a6 fe c4 3f
       1.0687909 -0.69171286 0.6099034 1.5390213
000390 fb 9b d0 bf 29 65 d1 bf 0c 17 c7 3e 0a 1a e5 3e
       -1.6297601 -1.6358997 0.3888477 0.4474643
0003a0 83 40 06 bf fd 14 85 3f d8 83 82 3f 28 e0 21 40
       -0.5244219 1.039703 1.0196486 2.5293064
0003b0 43 43 36 bf 3d 62 51 bf 27 87 5e 3f 44 1f 14 40
       -0.71196383 -0.81790525 0.86924976 2.3144083
0003c0 c9 1a c0 3f 86 26 09 3f 54 d0 aa bf df 9d 35 bc
       1.5008174 0.5357441 -1.3344827 -0.011085003
0003d0 45 a5 96 3e 2d 51 10 bf fa 04 d3 3f 70 f4 d0 3f
       0.29422966 -0.56373864 1.6485894 1.6324596
0003e0 73 3c a6 3f 49 58 2f be 47 9b c3 3e 40 ff a2 3e
       1.2987198 -0.17123522 0.38204405 0.31835365
0003f0 7e 08 0b bf b9 4f d3 be 4d ec a0 3f 7c 1f 54 be
       -0.54309833 -0.4127176 1.2572113 -0.20715135

weight f4 [1683, 8]
000000 92 a5 ac be d2 11 cd bf fb 63 e9 3f cc 28 22 be
       -0.3372007 -1.6021063 1.8233637 -0.15835875
000010 4b 81 11 be c8 d2 61 bf 2a 58 9f bd 2e fb ab 3e
       -0.14209478 -0.8821225 -0.07780488 0.33590072
000020 8e 5a 09 bf 3a 15 c8 bf 61 fb d9 3f 45 94 08 3f
       -0.536538 -1.5631478 1.702984 0.5335124
000030 57 5b 86 3f d3 85 df bf c9 b1 7d 3f 0f 80 86 bf
       1.0496625 -1.7462715 0.99099404 -1.050783
000040 5e 4c b7 3f c1 d5 09 bf 4b 0c fc bf 3e 48 aa be
       1.432018 -0.5384179 -1.9691252 -0.3325824
000050 ef 4e 84 3f c6 2c d7 3f 19 4f 10 bf d8 b3 2b 3e
       1.0336589 1.6810539 -0.56370693 0.16767824
000060 dc 40 83 bf 88 1a 21 be 4b 32 76 bf 7b 9e 63 3f
       -1.0254169 -0.15732777 -0.9617049 0.88913697
000070 d1 f0 0b 3f ae 96 fe 3e a7 9a 1a bf 12 01 f0 be
       0.5466433 0.49724334 -0.6039223 -0.46875817
000080 e7 3e 91 bd c7 ce c9 be 27 ef 4c 3f b3 bb 7f be
       -0.07092076 -0.3941557 0.8005242 -0.24973945
000090 45 39 37 be 8e 41 ea bf 0b c3 d8 3b b6 f7 65 3e
       -0.1789294 -1.8301256 0.006615048 0.22457775
0000a0 98 11 c8 bf 76 fa a0 3e 2f 67 e2 3d fe d6 91 3f
       -1.5630369 0.31441087 0.11054837 1.1393735
0000b0 44 c6 eb 3f 79 10 b1 3e 54 6b b1 3f a3 40 d2 3e
       1.8419881 0.3458288 1.3860879 0.4106494
0000c0 99 29 97 bf 0e 03 18 3f a8 84 a4 bf 07 3e a9 3f
       -1.180957 0.5937966 -1.2852983 1.3222054
0000d0 af c5 2d 3f 11 3b ae 3d b4 2d f7 3f 79 b3 83 be
       0.67879766 0.0850736 1.9310822 -0.25722864
0000e0 0a 1f 95 be 58 93 cf bd 59 7d 5b bf ec 5f 2d 40
       -0.29125243 -0.101355255 -0.8573814 2.7089796
0000f0 7b 51 39 3f 33 8c ed 3f 15 b3 9e 3e 3c 44 a3 bf
       0.72389954 1.855841 0.30996004 -1.2755198
000100 86 3b bf bf a5 c7 eb 3f f0 75 bd bf 24 71 f7 3e
       -1.494004 1.8420302 -1.4801617 0.48328507
000110 cb ab 8e 3f c4 66 9a 3f 3f 2e c5 be b2 62 a2 bf
       1.1146177 1.2062612 -0.38511845 -1.268637
000120 75 67 e4 bf aa b9 b9 bd 74 65 6f 3f fb af 80 3d
       -1.7844073 -0.09068616 0.9351418 0.062835656
000130 aa 3f 66 3e 7c 30 88 3f 3a 87 c9 bc f9 12 32 bf
       0.22485223 1.0639796 -0.024600614 -0.695602
000140 59 5a a4 be 4b 99 ca be d8 5b 38 3f 26 c5 41 3f
       -0.3210018 -0.39570078 0.7201514 0.7569145
000150 44 0b 29 bf 59 f2 60 bf 8e 09 68 3f 36 c9 55 c0
       -0.66032815 -0.87869793 0.9063958 -3.340406
000160 0c 02 7a 3b 2e f7 37 3e cf da 21 3e 38 38 c2 3e
       0.0038148193 0.17965385 0.15806125 0.37933517
000170 4e da 59 3d a6 51 14 bf 82 a8 4d bf da ba d7 bf
       0.053186707 -0.57937086 -0.8033525 -1.6853898
000180 c0 bc 0c be 33 52 ec 3f 30 1e a7 be 60 83 68 3f
       -0.13743877 1.8462585 -0.3264022 0.9082546
000190 37 f1 78 3f 6b 55 c0 bf ee 14 f1 3f b6 3c 0f c0
       0.97243065 -1.5026067 1.8834512 -2.2380805
0001a0 3d ed ef 3d f3 41 e0 3e de 15 93 bf 77 55 8f bf
       0.117151715 0.43800315 -1.1491048 -1.1197957
0001b0 8e 93 d2 3f 82 03 e3 3e 65 18 51 be c1 90 01 bf
       1.645128 0.44338614 -0.20419462 -0.506115
0001c0 98 38 08 bf cb b0 a4 be 29 75 0e c0 e9 1a 12 bf
       -0.53211355 -0.32166132 -2.225901 -0.5707231
0001d0 62 71 9f 3e cd 14 28 3e ce a3 50 3f be 91 9e 3d
       0.31141192 0.16414185 0.81499946 0.07742642
0001e0 87 82 81 3e 7c 42 ec 3e 81 bf 47 bf 56 51 18 40
       0.25294897 0.46144474 -0.78026587 2.3799644
0001f0 5c 45 cc 3e 9c 80 de 3f e4 36 88 bf 3c 1d 9e bf
       0.39896667 1.7382998 -1.0641751 -1.2352672
000200 83 c4 4a bf 42 d0 24 3f 76 84 7d 3e f3 d1 13 bf
       -0.79206103 0.64380276 0.24757561 -0.5774223
000210 e2 63 32 3f 0f 83 c2 3f 08 18 7c bf 11 9e 4f bf
       0.6968366 1.5196246 -0.9847417 -0.81100565
000220 a9 dd 36 bf 70 9e fb 3f 0d f7 8e 3e 65 13 d6 3e
       -0.71431977 1.9657726 0.2792286 0.41811672
000230 64 87 e6 bf be a5 d8 be db 04 5a 3e e5 d7 a2 bf
       -1.8010068 -0.4231395 0.21290915 -1.2722136
000240 33 2e 55 3f c5 8e 5b 3f 81 da 1b c0 95 71 31 3f
       0.8327362 0.85764724 -2.4352114 0.6931394
000250 ee 1f fb 3e 46 10 87 3d c1 d0 b4 be 3d 18 96 3f
       0.49047798 0.06594901 -0.35315517 1.1726147
000260 70 68 c3 3f 6b 3b 85 3f 04 13 3d bf 65 2c 04 bf
       1.5266247 1.0408758 -0.7385714 -0.5163024
000270 32 ec 42 40 03 6b c1 3f ac e2 41 bf 0f db bf 3f
       3.0456662 1.5110782 -0.757365 1.4988726
000280 52 54 fe be af 5f 9d be 43 22 9f bf 8d fb 8e 3f
       -0.49673706 -0.30737063 -1.2432331 1.1170517
000290 b4 a1 f4 be 6e fd b2 3f a6 c5 0a 3e dd 67 1a bf
       -0.4777962 1.3983591 0.1355196 -0.6031473
0002a0 8e 47 cc be 82 3f f3 3f 34 a8 68 3f df 0a e9 3e
       -0.39898342 1.9003756 0.9088166 0.45516106
0002b0 58 fc ab 3f 4d d8 bf 3e 8c 0e c8 bd 9a a4 8a 3f
       1.3436384 0.37469712 -0.097683996 1.0831482
0002c0 63 69 d0 bf f2 8c 84 be ae b2 8d bf dc 52 a8 be
       -1.6282161 -0.25888783 -1.1070154 -0.32875717
0002d0 b6 be b9 3e 02 d4 55 bf 69 3b a7 3f b7 41 02 bf
       0.36278313 -0.83526623 1.3065006 -0.5088152
0002e0 07 20 7a bd 56 5d bd 3f bf 49 9d bf cd 07 79 3c
       -0.0610657 1.4794109 -1.228813 0.015199614
0002f0 f8 a2 aa be 58 dc 9b bf 18 14 cf 3f b3 cb 1f c0
       -0.3332746 -1.2176619 1.6178007 -2.4968078
000300 68 0f c2 bf 6b 78 d4 3f 41 45 cc bd 94 eb a0 3e
       -1.5160952 1.6599249 -0.09974147 0.31429732
000310 e2 48 6c bf 89 39 a4 bf 30 f7 90 3f d1 bb 24 c0
       -0.9229871 -1.2830058 1.1325436 -2.5739634
000320 39 bb f9 be bc b4 df 3f 55 5b cb bf 3e 32 70 bf
       -0.48775652 1.7477031 -1.5887247 -0.93826663
000330 70 58 09 3f e1 b7 0f c0 4c f8 46 3e b2 04 aa bf
       0.5365057 -2.245598 0.19430655 -1.3282683
000340 88 98 b4 bf e5 b1 f2 be bb 10 61 bf a9 16 01 be
       -1.4109049 -0.47401348 -0.87916154 -0.126063
000350 e6 5a a4 3e be 61 0c 3e 0b e5 32 3f ce 53 d4 bf
       0.321006 0.1370916 0.6988074 -1.6588075
000360 1f 14 e8 be 58 24 ba bf ff 52 c7 bf 67 4f fb be
       -0.4532785 -1.4542341 -1.5572203 -0.49084017
000370 ae b4 9e 3e 13 7f eb 3f 98 09 3b bf e8 60 69 bf
       0.30997223 1.8398155 -0.73061514 -0.9116349
000380 8c 36 cd be 7c 24 5c 3f 53 5f 96 3f 46 aa 96 3e
       -0.40080678 0.8599317 1.1747841 0.29426783
000390 6d a0 d3 3d 98 3a 1b be fd 8a ba bf f5 a2 6d bf
       0.10333333 -0.1515907 -1.4573666 -0.9282678
0003a0 02 aa f6 bf 7d 44 05 bf 54 e6 84 bf e8 69 e0 be
       -1.9270632 -0.5205763 -1.038279 -0.438308
0003b0 20 1b 3c 3f 43 aa a9 bd 0b 13 bd 3f c0 64 3f bf
       0.7347889 -0.08284428 1.4771436 -0.7476311
0003c0 98 bf 8b be 56 bd 88 be b2 74 15 3f f6 48 ab bf
       -0.27294612 -0.26706952 0.5838119 -1.3381641
0003d0 6c fc 32 3e bb e4 b6 bf 5a 95 0b bf e5 c1 8c bf
       0.17479104 -1.4288553 -0.5452477 -1.0996672
0003e0 61 71 22 c0 03 bb 1f be 0b 92 f7 be e2 59 82 3f
       -2.53817 -0.15598683 -0.4835361 1.018368
0003f0 b9 fe 8a 3f 74 a7 8e bf d6 88 08 40 8f 6e 0a bf
       1.0858985 -1.1144853 2.1333518 -0.5407495

weight f4 [8, 8]
000000 49 6e a9 be 8d 6b 7a be df 3f 3e 3d d6 da 77 bc
       -0.33091953 -0.2445509 0.04644763 -0.015127858
000010 23 ca 92 be 46 32 8c 3c 0d da 7b 3e 56 31 81 3e
       -0.28669843 0.017113816 0.24594899 0.25232953
000020 60 4b 10 3e 6f 3e f7 be 8b 7e 94 3e 0c ec fa be
       0.14091253 -0.4828982 0.29002795 -0.49008214
000030 4d 63 fb be 6d 88 14 3e fa d3 02 3e e6 b7 e1 bd
       -0.49099198 0.14505167 0.12776175 -0.11021404
000040 ca 40 d2 bd 13 18 7b be 10 c1 02 3f 1b 80 81 be
       -0.10266264 -0.24520902 0.5107584 -0.2529305
000050 7f f0 5b be 69 05 aa bd 1d ba bb 3e 33 e1 28 bd
       -0.2147846 -0.08301813 0.3666543 -0.04123039
000060 4f 3f 47 be c2 ab 9e 3d 87 8c ab 3d 21 cc 56 3e
       -0.19457744 0.07747604 0.08376413 0.20976306
000070 b2 67 c7 3d 3b e9 15 bf 12 51 f8 bd aa 5d d3 3e
       0.09736575 -0.58559006 -0.12124838 0.41282398
000080 1c 1c 9e 3e f4 ae fb 3e b2 96 bd be 7d bb 79 3e
       0.3088082 0.49156916 -0.37029034 0.24387927
000090 c6 53 cb 3b ba c0 90 be ee 1a 68 be 9b 27 9c 3e
       0.006205055 -0.2827204 -0.22666523 0.30498967
0000a0 ec bb 75 3e bf d0 a8 3d d9 2d cd 3c 67 fd 5b 3d
       0.23997468 0.0824294 0.025046276 0.05370846
0000b0 d5 11 05 3e 75 36 ea 3d 71 54 6b be 29 47 bd 3e
       0.12995084 0.11436168 -0.2298143 0.36968353
0000c0 c0 13 b3 3e cf e8 10 be e7 cf 1e be 1c d5 7e 3d
       0.34976006 -0.1415131 -0.15508996 0.062214956
0000d0 12 06 e0 bc 22 b0 cb be c9 43 5d 3e 20 13 f1 3d
       -0.027346645 -0.39782816 0.21607889 0.11771226
0000e0 6e 00 6f be 25 a7 22 bd fc 28 69 be 68 ec 2f be
       -0.23340008 -0.039710183 -0.2276954 -0.17180026
0000f0 d9 19 84 3e 47 c1 17 be f2 07 ae be 14 64 3b 3e
       0.2580097 -0.14819823 -0.33990437 0.18299896

bias f4 [8]
000000 1f 2e a2 be 35 f5 95 3d 3c 77 02 be ad 7d 41 3e
       -0.31675813 0.0732216 -0.12740797 0.18895598
000010 c7 8b a9 3e 80 54 bc 3e 35 5c c6 3e 1d 66 2a 3e
       0.33114454 0.36783218 0.38742223 0.16640516

weight f4 [944, 64]
000000 2c 9f aa bf e0 3c ba be c6 71 ed bf 76 1e 88 bf
       -1.3329825 -0.3637457 -1.8550346 -1.0634296
000010 f2 32 e7 3e cb 65 d7 3c 89 23 2c bf 74 41 49 3e
       0.45156056 0.026293656 -0.6724172 0.19653875
000020 24 6c 53 3e 60 6a ab bf aa a1 01 bf 71 cf fc 3f
       0.20646721 -1.3391838 -0.50637305 1.9750806
000030 ea 63 8a 3f 45 a6 9a bd 82 2c c7 3f ea b7 c5 3f
       1.0811741 -0.07551245 1.5560458 1.5446751
000040 63 21 97 3f 54 5d b2 3e 82 6b 08 3e 34 3d 4d 3f
       1.1807064 0.3483683 0.13322261 0.80171514
000050 1d d9 a3 3f c6 a1 ba be bb da fa 3e 0f f6 28 be
       1.2800633 -0.36451548 0.48995003 -0.16500114
000060 dc 43 9e 3f f7 ab b2 3e f0 92 9e 3f 65 dd e6 be
       1.2364459 0.34896824 1.2388592 -0.45090786
000070 64 04 95 bf fc 81 99 bd ff 1c f5 bf 72 85 92 3e
       -1.1641965 -0.07495496 -1.9149474 0.28617436
000080 56 45 d7 3e a6 78 bf 3e f6 bd 73 3e 0c f7 b5 bf
       0.42045087 0.37396735 0.23802933 -1.4216018
000090 c8 25 38 bf ff 3d ad be d0 f9 c7 bd 88 de ca 3f
       -0.7193265 -0.33836362 -0.09764445 1.5849161
0000a0 ce 5b 2b 40 bc e4 01 bf 1b 27 b8 bf 12 9d f6 be
       2.6774783 -0.50739646 -1.4386934 -0.4816671
0000b0 51 03 61 3f cb c7 8f bf 04 7d 1d 3f ab 26 bd 3f
       0.87895685 -1.1232847 0.61518884 1.4777426
0000c0 66 14 da 3f e4 c2 52 be ac b7 2b bf f1 92 e4 3f
       1.7037475 -0.20582157 -0.67077136 1.7857343
0000d0 12 98 49 bf 70 b9 66 3f 3e 03 6c be 0d 4c a4 3f
       -0.78747666 0.90126705 -0.23048112 1.2835709
0000e0 f5 a7 ea be 25 b9 56 be d1 53 91 3f 93 29 bb bf
       -0.45831266 -0.20969065 1.1353704 -1.4622062
0000f0 a4 57 9c bf bc d0 73 bf c2 04 91 bf f3 a8 09 40
       -1.2214246 -0.9524038 -1.1329577 2.1509368
000100 19 f6 f8 bf 71 4b 2c 40 61 fc 1f bb 52 ce 6d 3f
       -1.9450103 2.6921046 -0.0024411904 0.92892945
000110 5e dc 09 3f 68 fa 7c 3e 06 0a fb 3e c4 c1 3a 3a
       0.5385188 0.24704897 0.49031085 0.000712421
000120 8a b9 d4 be 41 6a dd bf a7 2a a6 3f 7f 34 11 bf
       -0.41547805 -1.7298051 1.2981766 -0.5672073
000130 db a3 59 bf 95 5c b5 3f b9 a9 e0 3f ee b4 13 bf
       -0.8501565 1.4168879 1.7551795 -0.5769795
000140 e3 82 26 bf b5 6c 91 be fa 0c af bf b2 ad ba 3e
       -0.6504347 -0.2840325 -1.3675835 0.36460644
000150 5d ce 5a 3f b6 e3 c8 3f 78 f1 63 3f 65 6e c8 3f
       0.85471135 1.5694492 0.8904033 1.565869
000160 96 8a e0 be 03 00 34 3e 01 47 ab 3e 43 0c 22 bf
       -0.43855733 0.1757813 0.3345261 -0.6329996
000170 77 8c 88 bf 94 52 1d be 83 d2 44 3f 2f 9f 66 bf
       -1.0667866 -0.15363532 0.76883715 -0.90086645
000180 b5 6a 37 3f 5c 78 3a c0 82 e2 40 bf a0 47 56 be
       0.71647197 -2.9135962 -0.75345623 -0.2092576
000190 75 54 4c 3f d2 ee e1 be 74 9b 39 3f 00 43 09 c0
       0.7981637 -0.44127518 0.7250283 -2.1447144
0001a0 f4 8a 13 bf 0e 8f 84 bf c0 0a 5e bf 8a 5a aa 3f
       -0.576339 -1.0356157 -0.86735153 1.330888
0001b0 91 94 44 3f 61 60 31 bf 7c d9 43 bf 22 d9 63 3f
       0.76789194 -0.6928769 -0.7650373 0.89003193
0001c0 a4 7b c6 be 4e cf a3 3e ba ee f4 bf 86 43 5e 3f
       -0.38766205 0.31994098 -1.9135354 0.8682178
0001d0 0c aa c7 bf 13 c6 e2 bd e2 dd 03 3f 52 91 c4 be
       -1.5598769 -0.11072936 0.5151044 -0.3839212
0001e0 2e 84 95 3e 0c 71 70 3e 99 32 79 bf bf b8 63 bf
       0.29202408 0.23480624 -0.9734283 -0.88953775
0001f0 c9 82 3f bf a9 2c 16 3f 03 ba d5 3e 95 ee 44 3e
       -0.7480894 0.58661896 0.41743478 0.19231637
000200 07 c4 2c 3f f2 fd 0b bf 9f 01 6b bf 40 7d 7d 3f
       0.67486614 -0.54684365 -0.9179935 0.9901924
000210 35 fd 22 3d 7a 34 ce be 1d 4d a5 bc 7d 8f 5b bf
       0.03979226 -0.4027441 -0.020178372 -0.8576582
000220 e5 31 06 40 00 3e 02 bf 14 f4 a9 bf 64 31 f3 3e
       2.0967953 -0.50875854 -1.3277612 0.4749862
000230 56 76 2f bf 3a d8 e9 3e 07 4a e3 3d c3 a6 6b bf
       -0.6853994 0.4567278 0.11098104 -0.92051333
000240 53 98 26 bf 98 66 43 3e 1b 11 e0 bf 2d bf da 3e
       -0.6507618 0.19082105 -1.750522 0.4272398
000250 2e 04 88 bf 11 4d dc be 9d 38 dd be 4b 7c fa 3f
       -1.0626276 -0.43027547 -0.43207255 1.9569181
000260 5c 3b e5 3d 5d 5d 1c bf 92 0c cb 3e 00 22 4a bf
       0.111929625 -0.6107996 0.39658028 -0.7895813
000270 69 d0 f1 bf 3a 80 b1 3e ed b3 07 c0 0e 57 30 bf
       -1.8891727 0.34668142 -2.1203568 -0.68882835
000280 3e 2b 91 3e 53 cd cf bd 18 2a 1f bf 0f 10 db bf
       0.28353304 -0.10146584 -0.62173605 -1.7114276
000290 65 48 1d be 94 78 a3 3f 84 ab 83 3f 43 5f da bd
       -0.15359648 1.2771173 1.0286717 -0.10662701
0002a0 71 02 8a 3e ca f0 ad bf bf 58 85 bf b3 47 1c bf
       0.26954988 -1.3589108 -1.0417708 -0.61046904
0002b0 dd f6 c8 3d e3 18 3b 3f b0 67 18 c0 24 1f 19 bf
       0.098127104 0.7308485 -2.3813286 -0.5981314
0002c0 b6 6f df bb 42 8c 5a 3e 19 2c 07 3f bc 52 6b 3f
       -0.006818737 0.21342567 0.5280166 0.9192312
0002d0 b8 2a a1 bf 67 4f df be 6a d5 a3 be 22 3b 6d bf
       -1.2591162 -0.43615267 -0.3199876 -0.92668355
0002e0 76 5f 29 3f 1f ef 1a bf fd 79 04 3f 14 fd 7e 3f
       0.66161287 -0.6052112 0.5174864 0.99604917
0002f0 07 fd 42 3f 1d cb 81 bf 55 80 92 3c 46 d6 65 bf
       0.7616734 -1.014011 0.01788346 -0.8978008
000300 89 ef 0b bf 25 e7 8a be e6 1e 39 3e f7 a4 28 3f
       -0.54662377 -0.27129474 0.18078193 0.65876716
000310 94 54 8f 3f da be cc 3f 6b 1b f3 3e 3e fd 88 be
       1.1197686 1.5995743 0.47481856 -0.26755708
000320 25 d8 0d be 52 cb e4 be c4 a9 f7 3e d7 a1 9e bf
       -0.13851984 -0.4468637 0.48371708 -1.239314
000330 2b 74 a3 be 99 65 c0 bf 33 94 ef be 2d 55 52 3f
       -0.31924567 -1.5031005 -0.46792755 0.8216122
000340 b5 a9 e5 be 19 ee be 3e 04 50 12 c0 39 76 20 bf
       -0.4485604 0.3729103 -2.2861338 -0.62680393
000350 ba 14 6c 3f c6 fa b0 3e ed 54 28 3f b8 a8 5f 3f
       0.92219126 0.34566325 0.65754586 0.8736682
000360 4b 58 4f bf cf 8d 5a bd 74 e9 b3 3e 77 59 83 3f
       -0.809941 -0.053357895 0.35139048 1.0261678
000370 a6 3c 4e be bc e0 2b bf 77 6e a9 bf a1 39 5a be
       -0.20140323 -0.6713979 -1.3236836 -0.21311046
000380 36 ab 1a bf 2e 60 e1 be 7c 53 82 bf ce f9 e3 3f
       -0.604175 -0.44018692 -1.0181727 1.7810609
000390 40 c3 df be 9d 8e 97 3f bb ce b3 3f b6 1d 8a be
       -0.4370365 1.1840397 1.4047464 -0.26975793
0003a0 a4 10 9a 3e 70 ef 30 bf 46 aa 43 bf e0 f0 34 3f
       0.3009082 -0.6911535 -0.7643169 0.70680046
0003b0 6a f1 93 bf 74 10 bb be 8e 18 81 bf f5 83 83 bf
       -1.1558049 -0.3653599 -1.0085618 -1.0274645
0003c0 94 c8 17 bf bb 9c 51 bf 1b 3f 98 bf 19 bb dc bf
       -0.5929043 -0.81879777 -1.1894258 -1.7244598
0003d0 4b 51 41 bd 1f 33 12 c0 3c c3 eb 3f ef 16 0f be
       -0.047196668 -2.2843702 1.8418956 -0.13973592
0003e0 d9 9d 03 3f a1 45 3b 3f 65 64 7c bf e5 d2 3e be
       0.5141273 0.7315312 -0.9859069 -0.18635137
0003f0 a2 35 f0 bd 6f 73 df bd 43 6d be be b6 52 c6 3e
       -0.1172898 -0.10910689 -0.37192735 0.38734978

weight f4 [1683, 64]
000000 4e ff 5a bf dc 0c d9 bf b8 09 e0 be 64 ea 0b c0
       -0.85545814 -1.6957049 -0.43757415 -2.186181
000010 0d 99 75 bf 91 16 10 c0 d3 e4 99 be 24 1f 1e be
       -0.9593666 -2.2513773 -0.30057392 -0.15441567
000020 a0 6e fd 3e a0 e1 77 be f7 1c d8 3d f5 b8 9a be
       0.49498463 -0.24207163 0.105523996 -0.30219236
000030 31 98 bb bf 38 cc 79 be c8 bc 6d 3e 02 de 41 3f
       -1.465582 -0.2439431 0.23216546 0.7572938
000040 fc 51 19 c0 b7 44 fa 3e 14 db 10 3f 42 d4 20 bf
       -2.395629 0.4888055 0.56584287 -0.6282388
000050 06 30 2b 3f b7 3c cc 3f 81 46 e6 3f dc 1f cb 3f
       0.6687015 1.5956029 1.7990266 1.5869098
000060 f5 a8 a5 3f 45 55 e3 3e 11 44 ab bf 20 9c 80 be
       1.2942187 0.44400993 -1.3380147 -0.25119114
000070 dc f3 af 3f ee 1d bf bf d5 78 22 c0 5c 12 37 3f
       1.3746295 -1.4931009 -2.538625 0.7151239
000080 01 f1 17 c0 3f 17 ca bf 9f f4 86 3e f6 ff 03 40
       -2.3740847 -1.5788344 0.26358506 2.0624976
000090 b7 07 c7 be 99 ec a2 bf dc 84 bf 3f 30 96 66 bd
       -0.38873073 -1.2728454 1.496242 -0.056295574
0000a0 d6 26 e5 be fc 9d 11 3f 22 69 ca bd 11 60 10 bf
       -0.44756192 0.5688169 -0.09883334 -0.56396586
0000b0 11 13 bd 3f 55 4f 9f 3f 2e 9a 4e 3e 80 ba 4e 3f
       1.4771444 1.2446085 0.20176002 0.80753326
0000c0 98 03 6d bf 7c 07 bf be b2 fc a2 3e 31 fa b5 3c
       -0.9258361 -0.37310398 0.31833416 0.022214027
0000d0 e6 2a 07 bd 8f c5 a8 3e c5 b3 eb bf da 4d 36 3e
       -0.032999896 0.32963225 -1.8414236 0.17803136
0000e0 6e 49 8b bf 8c 87 a3 3e 4f f1 26 40 82 36 47 3f
       -1.0881784 0.31939352 2.6084783 0.7781755
0000f0 3d ae 03 3f 5d cf 14 3f 64 d3 cd be 83 a3 7b 3c
       0.5143774 0.5812891 -0.4020034 0.015358808
000100 e3 84 90 be 57 15 0c c0 f2 f1 8e be 0b 83 d0 bf
       -0.28226385 -2.1888025 -0.27918965 -1.6289991
000110 f3 4f 80 3f 2e 8b 04 bf aa 33 1d c0 30 40 d4 3f
       1.0024399 -0.5177487 -2.4562783 1.6582088
000120 92 ea f4 be 07 ee 2d bf dd b6 08 be 8c ce 55 3f
       -0.47835213 -0.67941326 -0.13351007 0.8351829
000130 92 e3 06 c0 0d fc 04 40 ed 67 d6 3f 7a 15 26 3f
       -2.1076398 2.077884 1.6750466 0.6487652
000140 6f 0f 04 c0 2a 84 69 bf c5 8a 2f 3f 6e 6a 3b 3f
       -2.063442 -0.9121729 0.6857112 0.73209274
000150 e1 f1 81 3d aa 75 ef 3e 34 b0 22 40 51 9b 17 bf
       0.06344963 0.46769458 2.5420046 -0.5922137
000160 27 83 23 3d 8a 37 08 be 57 cf b2 3f 82 fc d0 bf
       0.03992 -0.13302436 1.3969525 -1.6327059
000170 08 9d 41 3f 11 07 ad bf fc 2b 96 3f 24 3b d5 3d
       0.75630236 -1.3517781 1.1732173 0.10411671
000180 ed 22 5b 3f fb 3e aa be 6f c3 b1 be 18 d3 10 c0
       0.8560017 -0.33251175 -0.34719416 -2.2628841
000190 31 55 34 3f 32 0f d4 bf 89 45 e9 3f 3a 58 e9 3f
       0.7044249 -1.6567137 1.8224345 1.823005
0001a0 4d b0 81 3f 1c 09 29 3f 24 06 f6 bf d5 31 81 bf
       1.0131928 0.66029525 -1.9220624 -1.0093333
0001b0 78 5f 10 c0 2d dd 92 be ed ee 62 bf 64 8c 84 3f
       -2.255827 -0.2868437 -0.8864582 1.0355344
0001c0 e5 59 4b 3e 32 78 a1 bf aa b0 0b bf ad a4 a8 bf
       0.19858511 -1.2614806 -0.5456644 -1.3175255
0001d0 21 29 61 bf 21 e3 39 40 9e 01 34 c0 24 56 c9 3b
       -0.8795338 2.9044878 -2.8125987 0.006144302
0001e0 af 2d 38 bd 7a b0 9c 3f 0c 4f 9e 3f dc 21 21 bf
       -0.044965442 1.2241356 1.2367873 -0.6294229
0001f0 e8 75 bf be 4b ca da be 85 78 ed bf fd 53 45 3f
       -0.37394643 -0.42732462 -1.8552405 0.7708128
000200 52 d7 60 3e 8d 4a c8 be ab ed 8a bd e7 c7 13 bd
       0.21957138 -0.39119378 -0.06783613 -0.036079314
000210 14 e0 16 40 dc af 84 3d 02 2b c7 3f a8 b3 61 3f
       2.3574266 0.06478855 1.556 0.8816476
000220 fe d3 88 bf 40 b8 2a be 34 ff 26 3e 9f 26 00 40
       -1.0689695 -0.16671848 0.1630829 2.0023572
000230 3e 78 95 bd 99 a1 33 bf 42 de a4 3e 2f da 04 3f
       -0.07298325 -0.70168453 0.3220082 0.5189542
000240 c3 29 bb 3d 3c d9 84 bf b7 31 57 bf 3e 7b c2 bf
       0.09138825 -1.0378795 -0.84060234 -1.519386
000250 eb 57 7b 3f 77 12 98 be 0a 2d b6 be ba 57 28 3f
       0.9818103 -0.29701588 -0.35581237 0.6575886
000260 6e 0f 66 bf b8 1b 4d be bd f9 0e bf 14 8f 85 3f
       -0.89867294 -0.20030105 -0.5584982 1.0434289
000270 57 63 4a bf 05 e9 6e 3f 26 22 d8 bf c8 8d 7d bf
       -0.7905783 0.9332431 -1.6885421 -0.99044466
000280 77 45 59 be a7 49 87 be 27 da cb 3f e8 d9 44 be
       -0.21217905 -0.2642338 1.592595 -0.1922375
000290 95 74 fb bf 58 45 96 3e c0 9b 1f bf 63 1c 62 3d
       -1.9644953 0.2934978 -0.6234703 0.055202853
0002a0 ce 52 e3 be 31 82 5b bf af 49 76 3e 38 64 d8 3e
       -0.44399112 -0.8574553 0.24051546 0.4226396
0002b0 90 b5 c3 be fa c0 8a bf 38 80 6f 3f 7b fc 69 bf
       -0.3822446 -1.0840142 0.9355502 -0.9140088
0002c0 51 3c 01 bb 14 eb e8 bf a2 79 e8 bd 7d cc 03 3f
       -0.001971979 -1.819674 -0.113513246 0.514839
0002d0 ec 2c fc bf b9 ed d6 bf 29 a9 e5 3f c7 a7 a5 3e
       -1.9701209 -1.6791297 1.7942249 0.32354566
0002e0 e0 9a 83 be b2 27 88 bf d5 13 c6 bf b3 23 ae 3f
       -0.25704098 -1.0637114 -1.5474802 1.3604645
0002f0 8c c9 98 3f 68 7f be bd 94 18 b7 3f 97 e7 50 3f
       1.1936507 -0.093016446 1.4304376 0.8160338
000300 1f 3d 20 3f 93 b1 70 bf e3 a7 84 bf b4 bf c0 be
       0.62593263 -0.94020957 -1.0363735 -0.37646258
000310 e4 18 1b 3f a2 92 00 3e f8 89 90 3f 07 10 06 bf
       0.60584855 0.12555936 1.1292105 -0.52368206
000320 8b 53 87 3e e2 c0 b7 be eb b8 ae be 04 eb 04 3f
       0.26430926 -0.35889345 -0.34125456 0.51921105
000330 af b5 8e be 4a 8d e7 bf 60 e3 a9 bf 21 54 8b 3e
       -0.2787299 -1.8089993 -1.3272514 0.27212623
000340 a4 7b dd 3f 85 60 31 bf 0d 17 6e 3e 3a 3c 93 3f
       1.7303357 -0.692879 0.2325098 1.1502755
000350 c2 bd 0d bf 20 f0 a6 3c e6 c1 bb 3e 1b 06 8f 3f
       -0.5536767 0.020378172 0.3667137 1.1173738
000360 dc e2 13 bf 44 46 5d bf e7 7a 81 3f 3c 8c 42 3f
       -0.57768035 -0.8643534 1.0115632 0.7599523
000370 a4 88 f4 be 9b 2e 95 3d a4 0a e4 bf 7b 1e ba be
       -0.477605 0.0728428 -1.7815747 -0.3635138
000380 85 34 3b bf a8 89 b9 3f 63 93 0f 3e b1 53 a1 3e
       -0.73127013 1.4495134 0.14021067 0.31509164
000390 24 47 0d bf bc f8 96 bf 2a 6b fe 3d 13 66 9d bf
       -0.55186677 -1.1794658 0.12422784 -1.2296776
0003a0 eb 24 78 3f 4f 53 08 bf 51 24 0b bf 24 47 c6 3f
       0.9693133 -0.5325212 -0.5435229 1.549046
0003b0 34 fc b1 bf 9d 2b 15 bf de f1 38 3e 28 59 02 3f
       -1.3905091 -0.58269674 0.18061015 0.5091729
0003c0 ad b1 86 bf 58 88 0a 3f c7 ac ca bf 1a c8 67 bf
       -1.0522972 0.54114294 -1.5833977 -0.90539706
0003d0 91 92 bf bf 8f 05 be be 5b fb 0e bf eb 96 c4 bf
       -1.4966604 -0.37113616 -0.5585229 -1.5358557
0003e0 af 67 e9 be 08 e6 f1 be 0c 0c e5 be 7f 75 64 3f
       -0.45586917 -0.47245812 -0.44735754 0.89241785
0003f0 46 a4 eb be 7e 5c 2f 3d 4c 97 b7 bf 7f 60 27 3e
       -0.46023768 0.042812817 -1.4343047 0.16345404

weight f4 [64, 128]
000000 f2 d7 6f 3b bc 02 44 3d 78 18 46 3d 39 1a 22 bf
       0.003659722 0.04785417 0.04836318 -0.6332126
000010 e2 85 58 3e a2 04 86 bd fc 47 fa bd d7 37 08 3e
       0.21144822 -0.065438524 -0.12220761 0.13302551
000020 1a ad cc be ca 22 26 3f e9 bb 30 be 5b 31 c1 be
       -0.39975816 0.64896834 -0.17259182 -0.37732968
000030 84 ad 9d 3d 72 80 be be dc b6 83 be 80 67 95 bc
       0.07699111 -0.3720737 -0.25725448 -0.01823783
000040 d4 8c bf bc 25 d9 94 3e b8 9f b4 3d 02 84 fb 3d
       -0.023382582 0.29071918 0.088195264 0.12281038
000050 7c 92 89 bd 6a 1a 44 be ab 85 58 3e 68 4e fd 3d
       -0.06717393 -0.19150701 0.2114474 0.123684704
000060 a7 db b8 bc 05 e8 b1 be ff c4 7e be 40 ca 04 3e
       -0.022565676 -0.3474733 -0.24879836 0.12967777
000070 25 12 93 3e 98 dd f4 3d f7 7f 25 be 0d b4 5b 3e
       0.2872478 0.11956328 -0.16162096 0.21455403
000080 cd fe 28 be 17 1a 25 3d 8d 69 9e be 34 ac e6 bd
       -0.16503449 0.040308084 -0.30939904 -0.11263314
000090 cf 1a 37 3e 72 60 be be 64 5d 0b 3e 1c 80 35 3d
       0.1788132 -0.37182957 0.13609844 0.044311628
0000a0 e0 2a 59 be 42 fe ae 3e 60 fa 0a 3e f9 3f 8b 3e
       -0.21207762 0.34178358 0.13572073 0.27197245
0000b0 92 0c 2a 3c 49 2b 45 3e 4a d5 8f 3d 41 e8 8e 3c
       0.010378974 0.19254793 0.070231035 0.017444732
0000c0 21 65 3d 3d 7c 66 e2 bd 79 45 ac be 38 40 b5 3d
       0.046239022 -0.110547036 -0.33646753 0.088501394
0000d0 ea 08 31 be c9 9d b9 3c c6 1c 57 3d d1 30 0a 3e
       -0.17288557 0.022658246 0.052517675 0.13495184
0000e0 b8 39 20 3e 71 e0 a2 3d 2b 57 65 3e 32 ef 06 be
       0.15647018 0.07952965 0.22396533 -0.13177183
0000f0 6e 37 4c 3b 22 ec 30 3e 48 9a 9f 3d a3 7c 09 bf
       0.0031160968 0.17277578 0.07793099 -0.53705806
000100 f3 8d b8 3e 6d 9f 4e 3e 09 c2 c6 bd 3d 28 21 3d
       0.360458 0.20178004 -0.09704978 0.039345015
000110 11 59 69 bd 8d 9e 27 3e 1b 1a 2f 3e 61 6a 53 3e
       -0.056969706 0.16369076 0.17099802 0.20646049
000120 ad 07 cc 3d 8c 4c bc bd 3b 84 97 bd 2d 74 99 3e
       0.099624015 -0.09194288 -0.07398268 0.29971448
000130 c9 39 83 be 3f 36 81 be 40 fa 8f be e6 ab 85 3e
       -0.25630024 -0.252367 -0.28120613 0.2610771
000140 8e 52 e4 bc bd 7e ca 3e d6 a5 12 be 6b 1a 31 3d
       -0.027871396 0.3954982 -0.14321074 0.043238085
000150 58 6f 9c bc 2b ff 40 3e e8 41 95 be da 19 b2 3e
       -0.019096062 0.18847339 -0.29151845 0.34785348
000160 ea f2 56 bd 5c fb b5 bd f7 7a a9 3d 54 75 7d 3d
       -0.052477755 -0.088858336 0.08275407 0.06187947
000170 ed 58 c3 3e e4 48 0b be a2 6c 9b 3b 5a 54 21 be
       0.38153782 -0.13602024 0.0047431746 -0.15754834
000180 ed f8 91 3e c0 84 f3 bd e0 dc 98 3d cc e5 c8 3d
       0.28510228 -0.118905544 0.074640036 0.09809455
000190 e2 2b 3f be 30 4f a9 3d 6f 7a 22 be 19 3b 41 bd
       -0.18669084 0.08267057 -0.15867017 -0.0471755
0001a0 0e 7a 00 be c4 1e 7e 3d 34 05 dc 3d 78 7a 30 be
       -0.1254656 0.06204106 0.1074318 -0.17234218
0001b0 ca 8a d9 bd 14 3d 15 bd bf 2b 28 3e 51 90 d1 be
       -0.10622175 -0.0364352 0.16422938 -0.40930417
0001c0 db b0 dd bc 59 40 88 be 38 34 14 be 62 c7 a0 3d
       -0.02706187 -0.26611593 -0.14473045 0.07850529
0001d0 5b 3d bf bc dd 15 2e be 47 3a 2f 3e ba ad 0d 3e
       -0.023344686 -0.17000528 0.17112075 0.13835803
0001e0 c1 88 73 3d 77 58 65 be f3 50 0e bf 7e 0f b3 3c
       0.05945659 -0.22397028 -0.5559227 0.021857973
0001f0 8e f6 1f bd 69 2b 5c 3d 4e fc a7 be 71 8c 81 3e
       -0.039053492 0.053752337 -0.3280968 0.2530246
000200 33 e7 82 3d e8 f0 a2 bc e8 73 83 bc c7 b9 16 bd
       0.06391754 -0.019890264 -0.01604648 -0.036798265
000210 fd 6c 93 bd 64 8e f6 bd 9a f4 82 3e 61 a4 c1 3d
       -0.07198522 -0.120388776 0.2557724 0.09455181
000220 dd ae 9c 3e 56 a0 ee bc c8 c8 64 be 6c 86 f7 3e
       0.3060216 -0.029129189 -0.22342217 0.48344743
000230 2c 6c 3d 3e 85 74 a1 3d 00 4b 9f 3e 76 06 88 be
       0.18498296 0.078835525 0.31111908 -0.2656743
000240 9b f1 e7 bd 49 c9 55 3d 73 16 45 3e 0b ce 59 3e
       -0.113253795 0.052193914 0.19246845 0.21270005
000250 d4 fe 66 3e c9 57 78 3d 99 2f 4f be 88 cf 19 3e
       0.22558147 0.060630593 -0.20233001 0.15020573
000260 8c 9d fc bc fb 06 b2 3d f2 49 4d be 4a 0a 26 3e
       -0.030836843 0.08692738 -0.20047739 0.16214862
000270 d8 7f 29 be ff 95 e9 3d 78 a5 d5 3d 88 a8 3c be
       -0.16552675 0.114055626 0.10431951 -0.18423665
000280 b6 01 97 be 9c 0f 08 3d dc da 0b bd 0c 11 6d 3e
       -0.29493493 0.03321801 -0.034144267 0.23151034
000290 13 bc db 3c 4b 27 21 3d 2b af a6 3d 4e 17 85 bd
       0.02682308 0.039344113 0.081388794 -0.06498586
0002a0 1e 0e a2 3d 02 09 44 be 63 09 cd 3d a4 35 14 3e
       0.07912849 -0.19144061 0.10011556 0.14473587
0002b0 91 9b 1d 3d 6f c6 ba 3e f9 78 1e be 75 7a a2 be
       0.038478438 0.36479518 -0.15475835 -0.31734052
0002c0 bc b9 1d 3e b0 f5 67 be 52 14 d7 3e 5a bb 3f be
       0.15402883 -0.22652316 0.4200769 -0.18723813
0002d0 57 3f a9 be 1c 26 94 3e 43 66 94 be 6f ee cd 3d
       -0.33056137 0.28935325 -0.2898427 0.10055243
0002e0 6e 35 11 3d c8 74 cc bd 60 c7 4d be 44 c3 46 bd
       0.035451345 -0.09983212 -0.20095587 -0.048526064
0002f0 a7 54 47 3e 6d 1a 16 3d 82 12 c3 3c e7 a6 a3 bd
       0.19465886 0.036646295 0.023812536 -0.079908185
000300 20 3c 6c 3e c7 d8 37 bc 38 17 a2 bc 2e 9e 1c be
       0.23069811 -0.011221117 -0.019786462 -0.15294716
000310 24 0d 9c be d3 e2 df be 64 a2 ac 3e c6 d5 7e bd
       -0.30478776 -0.4372774 0.33717644 -0.06221559
000320 f6 f3 88 3e 7d 7a cb 3d f6 45 af bd c1 d8 1d bd
       0.26748627 0.09935472 -0.08558266 -0.03853679
000330 fb 11 d2 3d 2f f9 91 be 6c 3f 05 be 32 77 f6 bc
       0.10257336 -0.28510424 -0.13012475 -0.030086134
000340 b8 88 06 3e 3c fc 4e 3d 82 a6 d4 bd 2d 96 84 be
       0.13138092 0.05053352 -0.10383321 -0.25895825
000350 13 79 1e bd e4 f4 32 3d f9 66 b1 bd 74 47 87 3e
       -0.038689684 0.043690577 -0.086622186 0.26421702
000360 f8 1c 4f 3c 79 2c 7a 3b fe 0a 5b 3d 0e a7 2a 3e
       0.012641184 0.003817348 0.05347728 0.16665289
000370 92 c0 88 be 85 85 d2 3d 35 70 ff be 68 20 34 be
       -0.2670942 0.10279373 -0.49890295 -0.17590487
000380 bb 6c db 3d 4c df cb 3e 9d 66 2e be 18 12 04 bd
       0.10714098 0.398188 -0.17031331 -0.032243818
000390 73 8a a2 be 9e 62 ab 3e 01 52 17 be 99 4d 6a be
       -0.31746253 0.33473676 -0.14777376 -0.22881164
0003a0 4f 8a 59 be a4 0b 16 bd ee 69 87 3e 61 95 9d 3d
       -0.21244167 -0.036632195 0.26448005 0.076945074
0003b0 21 6c c3 bd 99 58 46 3d e2 56 45 3d 56 8a 55 3e
       -0.09542108 0.048424337 0.04817856 0.20853552
0003c0 e1 53 7d 3e a7 44 08 bd 60 c0 84 3e 3a b5 3f be
       0.24739029 -0.033268597 0.2592802 -0.18721476
0003d0 a0 42 1c bc f3 5e b2 bd b3 45 23 bd 50 fd 4b be
       -0.009537369 -0.087095164 -0.039861392 -0.1992085
0003e0 d4 15 a5 bd ef c1 a5 3e ef 19 01 3e 77 62 a5 be
       -0.08060804 0.32374522 0.12607549 -0.32301685
0003f0 82 d8 9a bd b5 72 75 be d6 aa 94 bc c4 4b d5 be
       -0.07560827 -0.23969539 -0.018147867 -0.41659367

bias f4 [64]
000000 07 18 52 be 71 25 57 bf 8b 2c 1c bf dd 63 0a bf
       -0.20516978 -0.84041506 -0.6100547 -0.5405863
000010 cf 30 31 bf 2b 4f 50 bf d8 d3 53 bf f1 34 42 bf
       -0.692151 -0.813708 -0.8274512 -0.7586203
000020 9c 61 31 bf f8 2f 3c bf dd 6f fb 3b a9 55 67 be
       -0.69289565 -0.73510695 0.0076732473 -0.2259127
000030 93 60 58 bf c3 b9 15 3e 6b 62 49 bf 28 cb 60 bf
       -0.8452236 0.14621644 -0.786658 -0.8780999
000040 0d 78 6e bf 72 75 53 bf 68 1a ce be 09 12 57 bf
       -0.9315193 -0.8260108 -0.4025452 -0.84011894
000050 3e de 4f bf ee dc 6e bf a3 8d 2a bf e4 70 5c bf
       -0.8119849 -0.9330586 -0.6662237 -0.8610976
000060 82 14 11 be d9 a1 44 bf ea d3 5a bf 20 58 17 bf
       -0.1416798 -0.7680946 -0.85479605 -0.59118843
000070 81 62 3b bf 94 12 47 bf 31 3b 21 3d fd 09 f0 be
       -0.7319718 -0.7776272 0.03936309 -0.4688262
000080 60 a2 2b bf 14 08 2e bf b4 2c 23 bf c9 3f 67 be
       -0.6704464 -0.67981076 -0.63740087 -0.22582926
000090 e8 9a 1a bf 00 13 2b bf cf a9 3b bf b0 67 13 bf
       -0.6039262 -0.66825867 -0.7330598 -0.5758009
0000a0 ff a4 63 bf 97 33 2b bf 85 c3 35 bf c6 80 64 bf
       -0.8892364 -0.66875595 -0.71001464 -0.8925899
0000b0 e2 7d d7 bd 09 f3 e4 be 95 f6 2e bf e1 e2 42 bf
       -0.10522057 -0.4471667 -0.68345004 -0.7612744
0000c0 07 0c 5f bf 53 4a 7f bf 47 12 4c bf b4 ec 5d bf
       -0.8712773 -0.99722785 -0.7971539 -0.86689305
0000d0 41 b5 4b bf 69 a1 7a bf 60 ff 4d bf 7d d4 44 bf
       -0.79573447 -0.9790254 -0.80467796 -0.7688673
0000e0 c8 f6 df be 07 e5 fc be 92 81 bf be 1f f4 a9 be
       -0.43742967 -0.49393484 -0.37403542 -0.33194062
0000f0 3b d9 16 bf b2 47 5e bf e6 15 10 be e7 7a 36 bf
       -0.5892522 -0.8682815 -0.14070854 -0.71281284

weight f4 [32, 64]
000000 30 b4 15 3d 19 1f 39 3f fc 5e 0a bd c0 b5 0a 3e
       0.036548793 0.72313076 -0.03378199 0.13545895
000010 7d c5 0c be 8a 92 0d 3e 5b 90 9b 3e 6e c6 9a 3c
       -0.13747211 0.13825431 0.30383572 0.018893447
000020 fa 13 f5 bc 54 50 fd bd 38 c1 cd 3d e3 9a b0 bd
       -0.029916752 -0.12368837 0.10046619 -0.08623292
000030 0a b9 e3 3e 34 cc 78 be 8f 2e bb bd d1 37 b4 bd
       0.4447711 -0.24296647 -0.0913974 -0.08799709
000040 ac cf a1 3e d2 1a 07 3e bb 9f d2 3d 99 c0 9a 3e
       0.31603754 0.13193825 0.102843724 0.30225065
000050 c2 13 7e bc 88 3f 94 be c6 32 48 be bb 01 c9 3d
       -0.01550764 -0.2895472 -0.19550619 0.09814783
000060 ab 4e 3b 3e d5 80 ac 3d bc 68 67 3d 21 21 b9 be
       0.18291728 0.0842301 0.056496367 -0.36158088
000070 e1 48 69 3e 48 a2 48 3e 46 28 5b 3d 52 e9 b0 be
       0.22781707 0.19593155 0.053505205 -0.3455301
000080 1c af 9c 3d 65 c7 d5 bd 1c 64 94 3e de 54 b7 be
       0.07650587 -0.10438422 0.28982627 -0.35806936
000090 81 2a ca bd 48 62 b9 3e e0 74 df bd b3 f1 da bd
       -0.09871388 0.36207795 -0.10910964 -0.10690632
0000a0 8c 0e 4a 3e df 5e 80 3d 0a b2 3f be 96 eb 44 3e
       0.19732112 0.06268095 -0.1872026 0.19230494
0000b0 5f 9c 0e 3e 3d 5d b6 3d 9d 4a 4a be 97 e8 20 be
       0.13926838 0.089045025 -0.19755025 -0.15713726
0000c0 5a bc 8c b9 66 54 66 3e 9e 8b 12 bd 37 79 62 bd
       -0.00026843214 0.22493133 -0.03577768 -0.05529138
0000d0 f9 36 94 3c 5e 10 2a 3e 93 73 1d bf 50 8d 85 3e
       0.01809262 0.16607806 -0.6150448 0.26084375
0000e0 20 9f 60 be 57 9a b9 bc 25 bf c8 bd dc 2c 28 be
       -0.21935701 -0.022656603 -0.09802083 -0.16423362
0000f0 04 8d ae 3e fc 4f 3c 3e 93 9b 16 3e 42 a2 d9 3d
       0.3409196 0.18389887 0.14707784 0.10626651
000100 74 38 99 bd 38 cf 27 3e a8 83 59 3e 0a 5b e4 bd
       -0.07481471 0.16387641 0.21241629 -0.11150177
000110 8c c0 ac be e2 8d aa be 4f b3 01 3e d2 6b 14 3d
       -0.33740652 -0.33311373 0.12666057 0.036235638
000120 58 9a f0 bb 41 69 8c be 1c 94 76 3d 2e 28 cd 3e
       -0.007342618 -0.27424052 0.06019984 0.40069717
000130 c1 48 1b 3e 3a e2 9b be 4d eb 0e 3e 9b 2b fe be
       0.15164472 -0.30446035 0.13956948 -0.49642643
000140 7d d9 7d 3e e6 b3 8e be 8d fb 0f 3e 5a a0 27 bd
       0.24789996 -0.27871627 0.14060803 -0.040924408
000150 16 4a 1c bd 84 21 d4 3d b6 e7 2c bd 97 bb 79 3d
       -0.03815659 0.10357955 -0.042213164 0.060969915
000160 10 7f 51 3e 80 85 6e bd 18 32 8a 3e ed 13 14 be
       0.20458627 -0.058232784 0.26991343 -0.14460726
000170 8d bd 1c bf 12 b9 90 be ac d6 9c be 7a 52 f5 be
       -0.6122673 -0.28266197 -0.30632532 -0.47914487
000180 1d 87 a1 bd 0e 93 d8 be 9a 74 46 bd a2 1b ff 3d
       -0.07887099 -0.42299694 -0.048451044 0.124564424
000190 cc 36 88 bf 5f aa d8 be 69 84 0c 3d a7 32 da 3e
       -1.0641723 -0.42317483 0.034305964 0.4261677
0001a0 44 f6 8e 3e e2 2d 94 bd 0b 33 cd be 21 74 12 3e
       0.2792226 -0.07235314 -0.40078005 0.14302112
0001b0 8a f2 f6 be ce 79 9f be 9f 89 54 bd 78 0b c1 bd
       -0.48231918 -0.31147617 -0.05188906 -0.094260156
0001c0 28 72 48 3d 6a 8d 80 3e 37 3f 93 3c ce 4a c5 be
       0.048936993 0.2510789 0.01797448 -0.38533634
0001d0 16 16 0d be 9e 4f 74 bd b2 86 21 bd 38 45 6d 3e
       -0.13777956 -0.05964624 -0.039435096 0.23170936
0001e0 72 44 25 3d b5 9a 30 3e 49 b1 1e bf db 2b 13 bd
       0.040348478 0.17246516 -0.61989266 -0.035930496
0001f0 28 22 ff bd bb 4b 24 be d2 4b 1f 3e 2b de 81 be
       -0.12457687 -0.16044514 0.15556267 -0.25364813
000200 3f ad 20 be 2b 0e 2e be 88 09 ef bc 3e 73 3c be
       -0.15691088 -0.16997592 -0.02917935 -0.18403336
000210 c8 11 f3 3c b0 61 e8 be 6a 1e 87 3e 15 48 e5 bd
       0.029671565 -0.4538703 0.26390392 -0.11195389
000220 a7 01 79 be aa 6f 13 be e2 35 d3 ba 7f 56 89 3e
       -0.24317037 -0.14398065 -0.0016114081 0.26823804
000230 ed 7c dd be ec 36 11 be de 1f a2 bd 29 af e6 3d
       -0.43259373 -0.14181107 -0.079162344 0.11263878
000240 5f 61 64 3e 4e 01 74 3e 68 bb 86 be 7e 42 b3 3e
       0.22302769 0.23828623 -0.26314855 0.35011667
000250 3b 30 cd be 90 2f 86 be 02 2a 7d 3e 7f 2e a9 3e
       -0.4007586 -0.26208162 0.24723056 0.33043286
000260 6a c6 82 3d 1c 8a 99 bd 56 b7 39 bd 4d cf 97 be
       0.06385501 -0.074970454 -0.04534086 -0.29650345
000270 e4 2c 86 bd 86 13 fa 3d 2f e3 58 3c 65 37 08 3e
       -0.06551531 0.12210755 0.013237759 0.13302381
000280 f7 b0 20 3e 82 e8 44 bd 77 53 5f 3d 58 99 1a 3e
       0.15692507 -0.0480733 0.054522958 0.15097558
000290 78 50 ce bd 1b c3 59 3e 0d 38 03 be 9b 69 39 be
       -0.10073942 0.21265833 -0.1281435 -0.18106692
0002a0 24 f4 1f bd a3 cd 19 3f f2 25 52 bf f3 28 88 3d
       -0.03905119 0.600794 -0.8208915 0.066484354
0002b0 df d1 08 3e 62 ff c7 bd bd 39 2e 3d 9f 3c d4 bb
       0.1336131 -0.09765507 0.042535532 -0.006476953
0002c0 f9 f0 b9 3e 4d fd df be d6 2f 3c 3c a9 f3 1c be
       0.3631666 -0.4374794 0.011486014 -0.15327324
0002d0 43 6c 31 be b0 07 72 3e 39 31 dd be 5e e0 07 be
       -0.17326455 0.23635745 -0.43201616 -0.13269183
0002e0 43 df 00 3e 40 7d 52 be f8 04 0c 3e 71 06 86 be
       0.12585168 -0.20555592 0.1367377 -0.2617679
0002f0 87 da fb bd 42 bd e6 be 1e 91 13 bd f0 5e 2c be
       -0.1229754 -0.45066267 -0.036027066 -0.16833091
000300 c6 24 bb be cd 4d 8a 3e e3 68 29 3d a4 b4 63 3e
       -0.36551493 0.27012482 0.041359793 0.22236878
000310 95 4c 7d bd 0b f4 57 3a f0 06 78 bd a4 43 59 be
       -0.061840612 0.00082379644 -0.06055349 -0.21217209
000320 a9 ef 5c 3d d5 72 85 3d da 44 b6 3d 6e e2 42 3e
       0.053939495 0.06516043 0.08899851 0.19031689
000330 29 1a a7 3e fe 38 f0 be fa 99 97 3e 7c c9 6d 3c
       0.32637146 -0.46918482 0.29609662 0.01451337
000340 79 4f 82 bd 1e f4 03 be 88 b3 85 3e a9 6c 52 3e
       -0.063628145 -0.12886092 0.26113534 0.20549263
000350 d0 b7 f4 3d db 02 45 3e 2d f2 bd bd 74 b1 7f be
       0.11949122 0.1923937 -0.09274707 -0.24970037
000360 05 2a a4 3c cd 79 cd 3d 13 41 05 3e c6 4a 93 3d
       0.020039568 0.10032997 0.13013105 0.07191996
000370 df 96 aa be 1b f9 41 3e e9 fa d0 3e ca 8a b6 3d
       -0.3331823 0.18942682 0.4081643 0.08913191
000380 84 fb 80 3e a4 cb 75 3e e6 9c 79 3c bf 5a d1 3c
       0.2519189 0.24003464 0.015235161 0.025555966
000390 06 6d 18 be 9a 48 9c 3a cb 1e 94 3e 04 df 45 be
       -0.14885339 0.0011923492 0.28929743 -0.19323355
0003a0 c4 38 86 3d b6 ac 7b 3d 7c c2 1f be 98 5f dd 3d
       0.06553796 0.061444007 -0.15601534 0.10809249
0003b0 87 31 09 bd c7 95 a7 3e 06 2d 98 be df cb 54 3c
       -0.0334945 0.3273146 -0.2972185 0.01298806
0003c0 ff 90 3c 3e a7 b6 c9 3e 03 d7 08 be 9c 91 07 be
       0.18414687 0.39397165 -0.1336327 -0.1323914
0003d0 e3 da e3 3d f6 4a dc 3c 10 51 22 bd c6 da b2 3d
       0.11125734 0.026891213 -0.03962809 0.08733134
0003e0 f1 a6 b2 be d8 8f 07 bc 53 bc 83 3d 5e 9d 05 3e
       -0.3489299 -0.008274041 0.06432404 0.13048312
0003f0 5d 35 1d be 61 26 08 3e 71 4b f1 bd 6a c3 a5 b9
       -0.15352388 0.1329589 -0.117819674 -0.00031616847

bias f4 [32]
000000 0d 4b 2d be e9 27 e8 bd ad fb 27 3d d4 8a f3 be
       -0.16923161 -0.11335737 0.0410115 -0.47566855
000010 19 a4 d9 be 2c 60 94 be d7 da e8 3d 2c 5f 8b be
       -0.4250801 -0.28979623 0.113698654 -0.27221048
000020 7d 74 e1 3e b6 fe ed be d9 98 17 be 6a 9c 11 be
       0.44034186 -0.46483392 -0.148044 -0.14219823
000030 1d dd 1c bf 24 0f 29 be b6 de c1 be 22 0d ca be
       -0.6127489 -0.16509682 -0.37865227 -0.39463145
000040 db 04 0b 3f fe 64 11 3f 3e 6e 2c bf 48 bc f7 3e
       0.54304284 0.56794727 -0.67355716 0.48385835
000050 62 f7 d0 3e 04 5a 2c be 7b 9b 2a bf 30 b1 33 bf
       0.40813738 -0.16831213 -0.66643494 -0.7019224
000060 af e6 7d be 20 ed 05 3f f4 a4 76 be a5 e3 26 be
       -0.2479503 0.5231495 -0.24086362 -0.16297777
000070 45 4a 26 bf b7 ad 0a bf 7a 41 a9 be 07 5a 2a 3f
       -0.64957076 -0.5417132 -0.33057767 0.6654362
