models/GMF16.pt (torch, 170707 bytes, 3 tensors)

weight f4 [943, 16]
0	0x3fdc0ec7	1.719201
1	0xc05cd63c	-3.4505758
2	0xbe64f8de	-0.2236056
3	0x3ee8ae8b	0.45445666
4	0x3f408a1d	0.75210744
5	0xbf918107	-1.1367501
6	0x3f9d86e0	1.2306786
7	0xbf8a859d	-1.0822026
8	0x3f6d5995	0.92714816
9	0x3f72e58e	0.9488152
10	0xbead13b0	-0.33804083
11	0x3fa7ada6	1.3099868
12	0xbf4eaf49	-0.80736214
13	0x4029851a	2.6487489
14	0x3f31be0c	0.69430614
15	0x3f7b2508	0.9810338
16	0x3f4ae47d	0.79254895
17	0xbfa59c43	-1.2938312
18	0x3f38ad33	0.7213928
19	0xbec1ea8a	-0.37874252
20	0x4034830b	2.8204982
21	0xbf6c6693	-0.92344016
22	0xbff51428	-1.9146776
23	0x3fa4a179	1.2861778
24	0xbe8c203b	-0.2736834
25	0xbf12945c	-0.5725763
26	0xbebd338c	-0.3695339
27	0xbe72f0e8	-0.23724711
28	0x3e80cab8	0.25154662
29	0x3e877e7a	0.2646368
30	0xbebce811	-0.36895803
31	0x3d1caadd	0.038248885
32	0xbf44c426	-0.768618
33	0xbf2dbae5	-0.67863303
34	0x40054547	2.0823534
35	0x40327eb3	2.788983
36	0xbfc28c94	-1.5199151
37	0x3d91c33b	0.071173154
38	0xc03429df	-2.8150556
39	0x3f329422	0.6975728
40	0x3f7f2579	0.99666554
41	0xbf9acb7d	-1.209335
42	0xbf67a461	-0.904852
43	0x3fa167ae	1.2609766
44	0x3f6642be	0.8994559
45	0xbefef796	-0.49798268
46	0xc00c7027	-2.1943452
47	0xbf4aca97	-0.7921538
48	0x3fab5507	1.3385323
49	0xbef1b71b	-0.4721001
50	0x3f520229	0.82034546
51	0x3e280193	0.1640685
52	0xbfbfdbbc	-1.4988933
53	0x3d7369ed	0.05942719
54	0xbfd87da6	-1.6913345
55	0x3e95198c	0.29121053
56	0x3f0db602	0.55355847
57	0x3fe19d50	1.7626133
58	0xbe638abb	-0.2222089
59	0x3f59c6c7	0.85068935
60	0xbffb0964	-1.9612241
61	0xbd24c53d	-0.040227164
62	0xbdd742c7	-0.10510784
63	0x3f9c3805	1.2204596
64	0x3f83e330	1.0303707
65	0xbef856c2	-0.4850369
66	0x3fb89cfb	1.4422907
67	0x3f41b860	0.7567196
68	0x3f340aee	0.7032918
69	0xbf06d21a	-0.5266434
70	0x3f3a3b69	0.727469
71	0xbec77b13	-0.38961086
72	0x3f010421	0.50396925
73	0x3f826920	1.0188332
74	0xbf62617c	-0.8843
75	0x3f69de7b	0.91355103
76	0x3f91b9e2	1.1384852
77	0x3f07f31f	0.5310535
78	0xbf598036	-0.8496126
79	0xbf2774a4	-0.65412354
80	0x3fa3e88d	1.2805344
81	0xbf61a8bb	-0.8814809
82	0xbf0b96c9	-0.54526955
83	0xbef42f07	-0.4769213
84	0x3ff7fb9f	1.9373664
85	0xbf86932d	-1.0513664
86	0xbe8634ca	-0.2621215
87	0x3f27f9dc	0.6561563
88	0x3f5b2f62	0.85619175
89	0x407618e4	3.8452692
90	0xbdae929a	-0.08524056
91	0x3f89ff38	1.0781012
92	0xbe3f7b0f	-0.18699287
93	0x405d952f	3.4622304
94	0x3f40e7f7	0.7535395
95	0xbe7f839c	-0.24952549
96	0x3f20903b	0.6272008
97	0xbf525d3b	-0.8217351
98	0xbf8f1edc	-1.1181293
99	0xbf6ae622	-0.91757405
100	0xbf0bdace	-0.54630744
101	0xbfe35a40	-1.7761917
102	0x3fdbddff	1.7177123
103	0xc0506d52	-3.2566724
104	0x3fb27317	1.3941373
105	0x3f10156b	0.5628268
106	0xbf6d40fb	-0.9267728
107	0x3fbf2e16	1.4935939
108	0xbfa6ae59	-1.3021957
109	0x405c020a	3.4376245
110	0x3f4a85df	0.7911052
111	0xbf768586	-0.9629749
112	0x3e8033ab	0.2503942
113	0xbf15b5ae	-0.58480346
114	0xbf0b8c0c	-0.5451057
115	0x3fc4928f	1.5357226
116	0x3f1f3201	0.62185675
117	0xbef898e7	-0.48554155
118	0xbd950b20	-0.072775126
119	0x3e96c15b	0.29444394
120	0xbeab38de	-0.33441824
121	0x3fb8d4ff	1.4440001
122	0x3e6b2f32	0.22967222
123	0x3e77e9c4	0.24210268
124	0xbedf10c9	-0.43567494
125	0x3ee61317	0.4493644
126	0x3f141dd7	0.5785803
127	0x3f2e2fdd	0.68041784
128	0x3f01334e	0.5046891
129	0xbdc180a9	-0.09448368
130	0xbfa65ce2	-1.2997096
131	0x3fb4ce50	1.4125462
132	0xbf06041a	-0.5235001
133	0x3cced294	0.025246896
134	0xbedef7fd	-0.43548575
135	0xbee9f624	-0.45695603
136	0xbfa3a6af	-1.2785243
137	0x3fcaa659	1.5832015
138	0x3f3fbf3f	0.74901193
139	0xbf895107	-1.0727853
140	0xc00fdc01	-2.247803
141	0x3ee383d6	0.4443652
142	0x3f19eb13	0.6012432
143	0xbefb6f59	-0.4910839
144	0xbc71a12a	-0.014747897
145	0xbf32678c	-0.6968925
146	0x3f6f2472	0.93414986
147	0xbcbd28e8	-0.023090795
148	0xbf937498	-1.1519957
149	0xbf1bebb1	-0.6090651
150	0xbe5b022a	-0.21387544
151	0x3e5e4459	0.2170576
152	0x3de54f64	0.11196783
153	0x3ec6f2a8	0.38857007
154	0xbe06486d	-0.13113566
155	0x3f202d76	0.6256937
156	0x3f666081	0.89991003
157	0x3f9da765	1.231671
158	0x3f8af6b2	1.0856535
159	0xbeeeec54	-0.4666468
160	0x3fb6e1cf	1.4287661
161	0xbfc1a2f8	-1.5127859
162	0xbac9ed4f	-0.0015405806
163	0x3e97cf10	0.29650164
164	0x3f3fc369	0.7490755
165	0xbf6f351c	-0.93440413
166	0x3ee1f02a	0.44128543
167	0x3ebc6ba6	0.3680088
168	0x3dbd82b6	0.09253447
169	0x3ebceb92	0.36898476
170	0xbf25c83a	-0.64758646
171	0x3f22aaa6	0.6354164
172	0xbf6011ac	-0.87526965
173	0x3f17107b	0.5900952
174	0xbe91b017	-0.28454658
175	0xbf50b6e3	-0.81529063
176	0xbf4263f7	-0.75933784
177	0xbf93f416	-1.1558864
178	0x3dc0134e	0.09378682
179	0xbe37b0f8	-0.17938602
180	0xbf8d39eb	-1.10333
181	0xbf30012c	-0.6875179
182	0xbee2c0b4	-0.44287646
183	0xbd9bb218	-0.07602328
184	0xbe9acfa4	-0.30236542
185	0x3fe21054	1.7661233
186	0xbeec31c4	-0.46131718
187	0x3ed754b1	0.42056802
188	0x3e8241ba	0.2544077
189	0x3f007aa7	0.5018715
190	0xbf9a091f	-1.2034034
191	0xbe10e628	-0.14150298
192	0x3f65131a	0.8948227
193	0x3d445ae6	0.04793825
194	0xc01aa76a	-2.4164681
195	0xbe656ec8	-0.22405541
196	0x3f6ce33b	0.92534226
197	0xbfd1b5df	-1.6383628
198	0x3f7a1047	0.9768109
199	0xc00c14a6	-2.1887603
200	0x401d6825	2.4594815
201	0xbf88ad85	-1.0677954
202	0xc0267ddc	-2.6014318
203	0xbe22d954	-0.15903217
204	0x3e8c1219	0.27357557
205	0x4014fe66	2.3280272
206	0x3f8c94a3	1.098286
207	0xbfddc440	-1.7325516
208	0x3f40d254	0.75320935
209	0x3dc3aca0	0.0955441
210	0xbf3ea855	-0.74475604
211	0x3f883e3c	1.0643992
212	0x3f0f78cc	0.56043696
213	0xbf4c3fbf	-0.7978477
214	0xbd509759	-0.050925586
215	0x3f77d1c5	0.9680446
216	0xbf37b636	-0.71762407
217	0x3ffa1142	1.9536517
218	0x3fc78d15	1.558993
219	0xbe2f5763	-0.17123179
220	0xbf79e857	-0.9762015
221	0x3eed7470	0.46377897
222	0xbebd1bc2	-0.3693524
223	0xbf8d85d0	-1.1056461
224	0xbf5c44b3	-0.86042327
225	0xbdc32810	-0.09529126
226	0xbf80c32f	-1.0059565
227	0x3f551425	0.83233863
228	0x3fdb7823	1.7146038
229	0xbf757f5d	-0.95897466
230	0xbf7b8c12	-0.98260605
231	0x3f49e8b7	0.7887072
232	0xbf8bd9d0	-1.0925846
233	0x3f3b8683	0.73252124
234	0xbf4fa256	-0.8110708
235	0x3f07228b	0.52787083
236	0xbf403424	-0.7507956
237	0x3ecf6908	0.4050982
238	0xbf215ac2	-0.6302911
239	0x3e60abc5	0.21940525
240	0xbf8b976e	-1.0905588
241	0xbeed4b48	-0.46346498
242	0xbd3eb4ee	-0.046559267
243	0x3f8c6d0b	1.0970777
244	0x3d0be1cc	0.034150884
245	0xbee74d7c	-0.45176303
246	0x3ee38534	0.44437563
247	0x3f2d5407	0.6770634
248	0xbf8f4c00	-1.1195068
249	0x3dee098c	0.11622915
250	0xbe8fee11	-0.28111318
251	0x3f108e63	0.56467265
252	0xbe36ea9b	-0.17862932
253	0x3f9e9f94	1.2392449
254	0xbf15418f	-0.5830316
255	0x3eaf078a	0.3418544

weight f4 [1682, 16]
0	0x3cfc1ba0	0.030774891
1	0xbfe16fd5	-1.7612253
2	0xbf10db80	-0.5658493
3	0x401198a2	2.274941
4	0xbf9dc76c	-1.2326484
5	0x3fd1780e	1.6364763
6	0xbd8a9912	-0.06767477
7	0xbfa72b18	-1.3060026
8	0x3eef05d6	0.4668414
9	0x3ffc4cde	1.9710958
10	0x3fc4a7cd	1.5363709
11	0xbeaaa435	-0.33328405
12	0x3f1d5ab4	0.61466527
13	0xc01d4202	-2.4571538
14	0xbff55390	-1.9166126
15	0xbea579ef	-0.3231959
16	0xbdaba67d	-0.083813645
17	0x3fade428	1.3585253
18	0xbe9eb6a7	-0.30998728
19	0xbe9a142b	-0.30093512
20	0x3f1dc236	0.6162447
21	0x3f80b823	1.0056194
22	0x3fa3bd41	1.2792131
23	0x3e8ca742	0.27471358
24	0x3d2529db	0.04032312
25	0x3fcb3f4f	1.5878695
26	0x3e3be452	0.18348816
27	0x3ebd11c1	0.36927608
28	0xbf5d96c0	-0.8655815
29	0xc0035b4e	-2.0524478
30	0xbe89c56e	-0.2690844
31	0xbdfa5883	-0.122239135
32	0xbf5cb4ce	-0.86213386
33	0x3ea140e9	0.31494835
34	0xbe8dd7b9	-0.27703646
35	0x3eef07a5	0.4668552
36	0xbf82ecf9	-1.0228568
37	0x3fb7c574	1.4357133
38	0x3f215144	0.63014627
39	0xbfeee571	-1.866377
40	0x3ddfac83	0.10921576
41	0x3f1f417b	0.6220929
42	0x3f8e3e46	1.1112754
43	0x3f87e22c	1.0615897
44	0xbeb29098	-0.3487594
45	0xbefd5e23	-0.49485883
46	0xbf8b7ec6	-1.0898063
47	0xbe350ccb	-0.17680661
48	0xbf7dc518	-0.99128866
49	0xc0012b3d	-2.018264
50	0xbf90bde1	-1.1307946
51	0x3ec178e8	0.37787557
52	0x3fbc9b1d	1.4734837
53	0x3fbd496f	1.4788035
54	0x3f959331	1.1685544
55	0x3d6a3eec	0.057188913
56	0x3e05a45f	0.13050984
57	0xbdef266e	-0.11677252
58	0x3e25babb	0.16184513
59	0x3ecc666d	0.39921895
60	0xbed79f47	-0.42113706
61	0xbfc8c1ec	-1.568418
62	0xbf73bd53	-0.9521076
63	0xbec9bdca	-0.3940261
64	0xbf0a87b6	-0.5411333
65	0xbff3e85d	-1.9055287
66	0xbf6becbd	-0.9215811
67	0x3ff9aa5c	1.9505115
68	0x3f251acb	0.6449401
69	0x3ea2e204	0.3181306
70	0x3fe7b475	1.8101946
71	0x3e93fea8	0.28905225
72	0xbfa38cda	-1.277736
73	0x3f142914	0.5787518
74	0x3f37c4cb	0.7178466
75	0x3f5028e2	0.8131238
76	0x3fec305c	1.8452258
77	0xbea46dab	-0.3211492
78	0xbfb21958	-1.3913984
79	0xbf400124	-0.7500174
80	0xbefd42ec	-0.4946512
81	0x3eda9a4d	0.42695847
82	0x3f2503e0	0.6445904
83	0xbdddd16c	-0.1083096
84	0xbd46e3f7	-0.048557248
85	0x3ea9cf08	0.33165765
86	0xbf3abcea	-0.7294451
87	0x3e8d84bc	0.2764033
88	0xbf5f5eab	-0.87253827
89	0xc0048dd7	-2.0711572
90	0xbfa4d36e	-1.2877023
91	0x3f9bbc94	1.2166924
92	0x3fae6853	1.3625587
93	0xbfa287b9	-1.2697669
94	0xbfcd3830	-1.6032772
95	0xbe93eed1	-0.2889314
96	0x3e9da0e4	0.30786812
97	0xc013bb7a	-2.3083177
98	0xbe8fa039	-0.28051928
99	0x40016c93	2.0222518
100	0x3e652518	0.22377431
101	0x401e3bfd	2.4724114
102	0xbf5b5250	-0.85672474
103	0xbf883339	-1.0640632
104	0xbf1f9b56	-0.623464
105	0x3f877c0c	1.0584731
106	0x3f0c46a9	0.5479532
107	0xbed35467	-0.4127533
108	0x3ee861ec	0.45387208
109	0xc007a1b0	-2.1192436
110	0xbe2c21c9	-0.16809763
111	0x3f8c3882	1.0954745
112	0x3ea08d3c	0.31357753
113	0xbf303767	-0.6883454
114	0xbebc3633	-0.367601
115	0x400c0595	2.1878407
116	0xbed98047	-0.4248068
117	0x3fcf19fd	1.6179806
118	0x401df40f	2.4680212
119	0xbe1bd963	-0.15219645
120	0x3dfbf347	0.12302261
121	0x3fb8e7ad	1.4445702
122	0x3f0b3b49	0.54387337
123	0xbed396a7	-0.41325876
124	0xbedeaf2b	-0.43493018
125	0xbf7fba2a	-0.9989344
126	0x3fddb4ce	1.7320802
127	0x3fb256b6	1.3932712
128	0x3e38ed49	0.18059267
129	0x3e155361	0.14582588
130	0x3fbe66ab	1.4875082
131	0x3f9f414a	1.24418
132	0x3f292fe9	0.6608873
133	0x3ffd9394	1.9810662
134	0xbf7280cc	-0.9472778
135	0xbf229914	-0.6351483
136	0x3f2e909a	0.68189394
137	0x3fa384aa	1.2774861
138	0x3edd2f2c	0.43200052
139	0xbfe0c8ab	-1.7561239
140	0xbe5bb357	-0.21455131
141	0xbfc29049	-1.5200282
142	0x3d6fb44c	0.058521554
143	0x3ef26285	0.4734079
144	0x3f611583	0.8792345
145	0xbf30d496	-0.6907438
146	0x3d570beb	0.0525016
147	0x3ea97631	0.33097985
148	0x3f042df9	0.5163265
149	0x3f625abb	0.88419694
150	0xbf19fbe6	-0.6014999
151	0x3e75ee18	0.24016607
152	0xbefa5ca6	-0.4889881
153	0xbefee1da	-0.49781686
154	0xbf9f73eb	-1.245725
155	0xbef28db9	-0.4737375
156	0x3f2c562e	0.67319
157	0xbfa27a43	-1.2693561
158	0xbf0c772c	-0.5486934
159	0xbf670a83	-0.90250415
160	0xbe1323ca	-0.14369121
161	0xbf9868cd	-1.1906983
162	0xbe1a6f29	-0.15081467
163	0x3f492049	0.7856489
164	0x3fa26bc7	1.2689141
165	0x3ff927c2	1.9465258
166	0x3fc4586d	1.5339485
167	0xbf4d617c	-0.80226874
168	0x3ed77533	0.42081603
169	0x3facc308	1.3497019
170	0x3e495520	0.19661379
171	0xbe240057	-0.16015755
172	0x3f3b75cc	0.7322662
173	0xbfbc2f9b	-1.4702028
174	0xc0312fcf	-2.768543
175	0xbe159061	-0.14605857
176	0xbd9db2af	-0.07700097
177	0xbf919869	-1.1374637
178	0x3f941be5	1.1571013
179	0x3f510fd0	0.8166475
180	0x3f0cd7e0	0.550169
181	0x403650f1	2.8486903
182	0x3f874be9	1.0570041
183	0xbed91983	-0.42402276
184	0x3ed4b6b1	0.41545632
185	0x3f29b0ad	0.6628521
186	0xbe76bbb7	-0.24095045
187	0x40435eb0	3.0526543
188	0xbe83768f	-0.2567639
189	0xbfc17af0	-1.5115643
190	0x3e80bae8	0.25142598
191	0xbf6b92a3	-0.92020625
192	0xbfb3a128	-1.4033556
193	0xbe2c3d8c	-0.16820353
194	0x3f19c550	0.600667
195	0x3e636379	0.22205915
196	0xbffad828	-1.9597216
197	0x3fa4a8c4	1.2864003
198	0x3f07e5c8	0.53084993
199	0xbf853e70	-1.040968
200	0x3f058e1e	0.5216998
201	0x40006ef2	2.0067716
202	0x3fe057a8	1.752675
203	0x3f0bcd5b	0.5461022
204	0x3f7274a5	0.94709235
205	0xbfe227fa	-1.766845
206	0x3ec696c4	0.387869
207	0xbf36c675	-0.7139657
208	0x3f85b3d6	1.0445507
209	0xbf2f3bea	-0.68450797
210	0x3f388c95	0.7208951
211	0xbf4cff43	-0.80077
212	0xbf3e6d5a	-0.7438561
213	0x4012cdbd	2.2938073
214	0xbfa43e0a	-1.2831433
215	0xbeba82a9	-0.3642781
216	0x3e8245be	0.25443834
217	0xbf8e77c8	-1.1130304
218	0xbf15173b	-0.5823857
219	0x3ea4eed3	0.32213458
220	0x400b8daa	2.1805215
221	0xbfcc6400	-1.5968018
222	0xbe6a9669	-0.2290894
223	0xbf8db2e7	-1.1070222
224	0xbf3b135f	-0.7307643
225	0xbf2d7b6a	-0.6776644
226	0x3f4212af	0.7580976
227	0x3fbb081e	1.4611852
228	0xbe1338c7	-0.14377128
229	0x3f680596	0.90633523
230	0xbf555ba0	-0.83342934
231	0xbf69bfd7	-0.9130835
232	0x3ed4f74d	0.41594926
233	0x3f3615f0	0.71127224
234	0x400367bb	2.0532062
235	0x3f8ac0f9	1.084014
236	0xbfb1885d	-1.386974
237	0xbfea95e7	-1.8326997
238	0x3f8a7306	1.0816352
239	0xbf65fdfb	-0.8984067
240	0xbfd33727	-1.6501206
241	0x3ffe71fe	1.9878538
242	0x3ec56eea	0.38561183
243	0xbf8f1527	-1.117833
244	0x3f0a7e89	0.5409933
245	0x3f8aa6b6	1.0832126
246	0xbe69fbcc	-0.22849959
247	0xbe838fda	-0.25695688
248	0xbe972032	-0.2951675
249	0xbf2396ed	-0.6390217
250	0x3f22068b	0.63291234
251	0x3cfa32dd	0.030541832
252	0x3f3438a5	0.7039893
253	0xbfb0f960	-1.3826103
254	0xbf1b421f	-0.6064777
255	0xbf59d8d3	-0.8509647

weight f4 [1, 16]
0	0x3ed194b4	0.40933764
1	0x3eb94554	0.36185706
2	0xbf023613	-0.5086376
3	0x3f2be147	0.6714062
4	0xbea4e9fc	-0.32209766
5	0xbf74888a	-0.9552084
6	0x3f821fe3	1.0165981
7	0xbedd9557	-0.43278
8	0xbf2d3a92	-0.67667496
9	0x3ec616c8	0.38689256
10	0xbf3060d5	-0.68897754
11	0x3ea2452e	0.31693405
12	0xbe94861b	-0.29008564
13	0xbfaa9f70	-1.3329906
14	0xbec8b44a	-0.3920005
15	0xbeaadf56	-0.33373517
