models/GMF32.pt (torch, 338771 bytes, 3 tensors)

weight f4 [943, 32]
000000 4b 34 ac 3e a6 e5 62 3f fe f0 da bf b1 9d 0b 3f
       0.33633646 0.88631666 -1.7104795 0.54537493
000010 b6 3b 89 3f 60 b2 17 c0 0e 76 8b 3f 03 3b 07 3f
       1.0721347 -2.3702621 1.0895402 0.5282442
000020 8e 74 25 bf c3 f8 9b bf 5a 63 e4 bf 61 f2 9b be
       -0.64630973 -1.2185291 -1.784282 -0.30458358
000030 8f 8c 43 3f 12 ec e1 3f 2f 44 b7 3f 8a a0 ec 3f
       0.7638635 1.7650168 1.4317683 1.8486493
000040 d8 1d fa bd 49 c4 ce bf 97 c8 a6 bf d9 2e b6 bf
       -0.122127235 -1.6153651 -1.3029965 -1.4233047
000050 96 42 ab bd 2e 79 a2 3f ff 38 37 3e ef 4a 9f bf
       -0.0836231 1.2693231 0.17892836 -1.2444743
000060 ec 5b d8 3f d4 b3 f4 3f 0b ea ba 3f 50 0b f7 3d
       1.6903052 1.9117379 1.4602674 0.120627046
000070 2b 60 8b 3f 13 f8 2e 40 2a 0a 3d bf 8d 41 35 3f
       1.0888723 2.7338912 -0.73843634 0.7080315
000080 45 77 17 3f d9 ed 43 3f 85 b0 83 bf 11 31 11 3f
       0.59166366 0.765348 -1.0288244 0.56715494
000090 57 77 ee 3f 3d 9c ec bd 5a 7c 06 3f 4a 80 00 3e
       1.863017 -0.115532376 0.52533495 0.12548938
0000a0 b4 99 f4 be 20 c3 cc be e5 36 e2 3e 5d e9 22 bf
       -0.47773516 -0.3999262 0.44182506 -0.63637334
0000b0 bb e3 eb be 5c b2 6e 3f d4 ff b7 bf c3 19 33 bf
       -0.46072182 0.93240905 -1.4374948 -0.69961184
0000c0 05 88 9c be cd c5 64 bf e9 70 6c 3f e5 14 7f bf
       -0.30572525 -0.8936432 0.9235979 -0.9964126
0000d0 4c cf de 3d 7a 70 9a bf 77 31 cc 3f ef 8a 56 bf
       0.108793825 -1.2065575 1.5952595 -0.83805746
0000e0 5e a8 68 be 47 c8 e4 be 33 36 8e bf b5 a5 02 c0
       -0.22720477 -0.4468405 -1.111029 -2.041364
0000f0 0d 45 5e 3f 5b 29 93 3e bf da ea bf 59 ee 86 bf
       0.86824113 0.2874249 -1.8348006 -1.0541488
000100 a0 d4 3d c0 d9 b7 a4 3f 03 bd 4d 3f 48 92 ba 3d
       -2.9661026 1.2868606 0.80366534 0.09109932
000110 15 67 bb 3f 3c 44 ed 3e 45 85 8f be a1 18 a0 3d
       1.4640833 0.4634112 -0.28031364 0.078171976
000120 02 7e ad bf 28 1e d9 3d 9e 3a 36 bf 1d e3 45 bf
       -1.355408 0.10601455 -0.7118319 -0.7729967
000130 0e 1a 2f 3e a2 25 fb bc 82 5b b4 be d0 51 3a 3f
       0.17099783 -0.030657593 -0.35226065 0.72781086
000140 5c cc d0 bf 66 f0 38 be b2 a9 4b 3f b2 8b a1 bf
       -1.6312366 -0.18060455 0.7955581 -1.2620757
000150 76 f7 a6 be d1 47 7d be eb 23 98 3f 07 5e 16 40
       -0.32610673 -0.24734427 1.1885961 2.349489
000160 cc 5e 93 3f 2f a4 1d c0 fd c5 e2 bc 52 49 ce be
       1.1513305 -2.463146 -0.027682299 -0.40290314
000170 06 33 fc 3f 3e ab c7 be 1e c7 52 bf 09 30 a7 bf
       1.9703071 -0.38997835 -0.8233508 -1.3061534
000180 97 a3 8e 3f d3 54 23 3d b6 18 aa 3f 42 7f 22 3f
       1.1143674 0.039875817 1.3288791 0.6347543
000190 78 c8 8e 3f dc 97 9a be 90 98 f5 3f a0 9d 4f 3e
       1.1154928 -0.30193985 1.9187183 0.20274973
0001a0 ab 70 82 bf d1 af 96 3e 95 7f dc bf b6 bc fb 3f
       -1.0190634 0.29431012 -1.7226435 1.9666965
0001b0 c0 d9 f0 3e 3a 0a f1 be 4d a9 16 3e 5f 29 89 bf
       0.4704113 -0.47078115 0.1471302 -1.071575
0001c0 4b f3 65 bf 17 90 cd be 12 94 92 3f 40 37 85 3f
       -0.8982436 -0.40148994 1.1451437 1.0407486
0001d0 47 10 c7 bf eb 6a bd 3e da 20 ea 3f a5 e9 57 3f
       -1.5551842 0.36995634 1.8291276 0.8434089
0001e0 39 14 6d be 68 c9 b6 be 69 a4 1e 3f a6 26 20 bf
       -0.23152246 -0.35700536 0.6196962 -0.6255897
0001f0 87 cf 03 3f 6a 9e c4 be f1 70 e2 be 7d ed a8 3f
       0.51488537 -0.3840211 -0.44226792 1.3197476
000200 82 b2 9f bf 4b ba 07 bf 76 f0 88 3d cc f5 f4 bf
       -1.2476351 -0.53018636 0.06686489 -1.9137511
000210 fd ce c6 3f 91 76 04 3f be fe 14 40 a0 bd be 3f
       1.5531918 0.5174342 2.3280482 1.4901619
000220 4f a7 9b bf 20 00 b3 be 5b 51 ab 3f d0 39 37 bf
       -1.2160434 -0.34961033 1.3384203 -0.7157259
000230 00 14 03 bf 56 8e 65 3f c4 3a f7 3e 01 e1 32 be
       -0.5120239 0.8967031 0.48287022 -0.17468645
000240 2b 70 55 3f 46 e7 4b bf c4 ce b3 bf e9 d5 fe 3e
       0.8337428 -0.7964977 -1.4047475 0.49772575
000250 2b ac 81 3f ed 27 41 bd 1d 54 ab bf e6 72 d8 bf
       1.0130666 -0.047157217 -1.3385044 -1.6910064
000260 71 d6 8b bf f7 02 f7 bf 61 85 ec 3e c2 02 40 bf
       -1.0924817 -1.929778 0.4619551 -0.7500421
000270 df 4e d6 bf b8 5e cb 3f 10 e6 91 3f 91 23 96 bf
       -1.674282 1.5888281 1.1398335 -1.1729604
000280 88 aa 41 3e 2b 86 db bf d9 78 13 c0 f0 ce 43 be
       0.18912709 -1.715032 -2.304251 -0.19121909
000290 e2 ed 3c 3f f6 7f f9 bf f7 9b 08 bf 30 f8 8c 3e
       0.7380048 -1.9492176 -0.53362983 0.27533102
0002a0 2d cb 95 bf 07 81 5e be 5f cc 5b bf 50 fb f7 3f
       -1.1702629 -0.21728908 -0.8585872 1.937357
0002b0 11 24 7a 3f 4d ed 5e 3f dd 0f 93 bf 01 e2 c8 3f
       0.9771128 0.8708084 -1.1489216 1.5693971
0002c0 d3 7f 8e bf 76 6f 8a bf d7 c6 9a bd 8c 8c fe bf
       -1.1132759 -1.0815265 -0.07557457 -1.9886642
0002d0 d8 cb ca be 0f c0 a8 be ba 56 a6 bf 1a 82 91 bf
       -0.39608645 -0.3295903 -1.2995217 -1.1367829
0002e0 98 cc e5 3e ab b4 41 be 6e dd 22 40 6f 2e 5e bf
       0.44882655 -0.18916576 2.544765 -0.867896
0002f0 67 b6 84 3e 88 57 07 40 07 9e 68 3f 0c d5 7c bf
       0.25920412 2.1147175 0.9086613 -0.98762584
000300 27 92 80 bf b3 2e e8 3e 62 e6 86 bf 49 95 b7 3f
       -1.0044602 0.4534813 -1.0539057 1.4342433
000310 1d e0 92 bf 33 5f 14 c0 98 2f 02 3e 82 a6 03 bf
       -1.1474644 -2.3183105 0.12713468 -0.51425946
000320 45 ac f7 be 15 6f 4a be 7f 9c d8 be 92 4c 4d 40
       -0.4837362 -0.19768937 -0.42306897 3.2077985
000330 d0 ed bf bf 77 7d de be ba e3 97 bf 84 22 f3 3e
       -1.499445 -0.43455097 -1.1866372 0.4748727
000340 cf 90 c1 be 86 f7 e0 bf 05 38 46 3f 36 65 ae bf
       -0.37805793 -1.7575538 0.7742923 -1.3624637
000350 05 9a 01 c0 c4 d5 57 bf 1d 92 04 3d 31 ca b0 3e
       -2.0250256 -0.84310555 0.032365907 0.3452926
000360 bb 49 ab 3f fb df 8e 3f ce b0 29 40 d0 68 1b 3f
       1.3381876 1.1162103 2.6514163 0.60706806
000370 52 4c c9 3d b6 a3 34 40 33 f5 37 bf 24 5d 0a 3e
       0.0982901 2.8224921 -0.7185852 0.13512093
000380 c7 1f ef bd 7e 51 83 3f be 16 a1 3e 97 8b d7 be
       -0.11675983 1.0259244 0.31462663 -0.42098686
000390 e2 f4 22 3e df 85 39 bf e7 06 87 3f f5 77 21 3f
       0.15913728 -0.72469896 1.0548981 0.63073665
0003a0 db 75 0b 3f d1 21 62 3f 53 42 d9 3f d7 9d 81 bf
       0.5447671 0.8833285 1.6973366 -1.0126294
0003b0 b3 ab dd 3f ea b6 08 bf c7 2a 85 bf 47 be c5 be
       1.7318023 -0.53404105 -1.040368 -0.38621733
0003c0 b3 ad 4c bf 5f 49 2a 3e 23 0f 5d bd 9d 51 ce be
       -0.79952544 0.16629551 -0.053969514 -0.4029664
0003d0 8f 96 89 3f 39 c5 1c 40 4b 98 26 bf 3a a6 18 3f
       1.0749072 2.4495375 -0.6507613 0.5962864
0003e0 4e 0c 37 3e 33 80 99 3f eb 2d 26 3f bc db 49 be
       0.17875788 1.1992248 0.64913815 -0.19712728
0003f0 27 49 9f 3f b4 41 f8 3e 80 52 23 3f 7a 55 92 be
       1.2444199 0.48487628 0.6379776 -0.28580838

weight f4 [1682, 32]
000000 c0 a4 62 be 9a 65 aa 3f fd 9f 4d bf c3 b2 9d 3f
       -0.2213316 1.3312256 -0.8032225 1.2320179
000010 fb 98 df 3f 19 0e e6 3f 4b 70 d8 be cc ac 05 40
       1.7468561 1.7973052 -0.42273173 2.0886717
000020 28 26 be bf f4 f2 85 bf 5b 32 a2 3f 66 3d c8 3e
       -1.4855394 -1.0464768 1.2671617 0.39109343
000030 3d f4 b9 bf a1 83 96 3d 98 36 7b bf e6 c5 75 3f
       -1.4527661 0.07349325 -0.9813018 0.96005094
000040 8c 00 90 3f 63 06 2c 40 9a 90 90 3e 3f c7 46 bf
       1.1250167 2.6878898 0.28235322 -0.77647775
000050 b6 99 d2 bf 23 93 2a bf ca a5 93 3f fa 80 a1 be
       -1.6453159 -0.6663076 1.153497 -0.31543714
000060 5c 62 5b be 15 a6 97 be 12 de 31 bf 1a 89 7e bf
       -0.2142424 -0.29618898 -0.6947948 -0.9942795
000070 35 fa 39 3f 10 ac b8 bf c7 1b fb 3e cf 96 ae 3d
       0.7264741 -1.4427509 0.4904463 0.08524858
000080 92 5d 81 bf 88 6e bb 3e ff c3 b3 bf f3 0e 12 3f
       -1.010668 0.36607766 -1.4044188 0.5705406
000090 f9 93 fc 3e b7 fc b6 3f 55 5d e6 3e e6 37 a4 3e
       0.49331644 1.4295872 0.44993082 0.32073897
0000a0 84 5f 95 bf 64 d7 ca 3f 42 d8 12 40 f0 57 4c 3f
       -1.1669774 1.5846982 2.2944493 0.7982168
0000b0 b4 0e 9a bf be af 84 3d 64 62 89 bf 10 04 de 3f
       -1.2035737 0.06478833 -1.0733151 1.734499
0000c0 9f 9e 02 c0 f7 c8 5a be 57 b6 53 3e c0 cd 34 3f
       -2.0409315 -0.21365725 0.20675026 0.7062645
0000d0 e2 03 9c 3f a2 0f 8b 3f 91 fa a8 3e 10 d2 98 bf
       1.2188685 1.0864146 0.33003667 -1.1939106
0000e0 c3 a0 ba be 42 c5 2a 3e 81 88 e2 bf fc 79 4e bf
       -0.36450776 0.1667681 -1.7697908 -0.80654883
0000f0 4e 37 ae 3f 65 7a 07 c0 2d a9 14 bf ec 40 bb 3e
       1.3610628 -2.1168454 -0.5807064 0.3657297
000100 f0 17 ed 3f a6 fa 61 be b3 da 5a bf 2f d4 be 3f
       1.852293 -0.22068271 -0.8548996 1.4908503
000110 22 5a 12 3f 91 9e 7d 3f 79 69 a3 bc d6 67 5d 3f
       0.5716878 0.9907008 -0.019947754 0.86486566
000120 c5 24 13 bf bf 7f 86 3f 4b 6a 04 bf 8c 30 4b 3e
       -0.5747798 1.0507735 -0.5172469 0.19842738
000130 c0 29 91 bc 3b 58 78 bf 3b a9 a4 3c 83 37 2d 40
       -0.017720103 -0.9700963 0.020100227 2.7065132
000140 b0 91 bf 3e c5 b2 5a 3f 84 1b 2a 3f 44 fc b6 3f
       0.37415838 0.8542903 0.66448236 1.4295735
000150 75 6c 9b 3f bb 02 37 3f d0 ee 2b 3f b0 65 5b be
       1.2142473 0.7148854 0.67161274 -0.2142551
000160 15 b6 8b 3f 04 26 f3 be 72 bd 84 3f 61 44 9c bb
       1.0914942 -0.4748994 1.0370314 -0.0047688936
000170 ef 1d 81 bf 52 55 71 bf a8 3f dd 3e 04 bf 63 bf
       -1.008726 -0.94270813 0.43212628 -0.8896334
000180 da 6b ff bf 98 54 d1 3e 6a 92 76 bf 5a da 24 bd
       -1.9954789 0.40884852 -0.9631716 -0.0402473
000190 e7 df a0 bf d4 50 4b 3f bf 91 4a bf a2 a2 e7 3f
       -1.256833 0.7942021 -0.7912864 1.8096507
0001a0 8e 67 01 3f e9 b4 b5 3e 33 01 d1 bf 41 7e 56 3e
       0.50548637 0.35489586 -1.6328491 0.209466
0001b0 ec 67 d8 be 8c e5 03 be b7 a0 8a 3f 60 1c 8b 3d
       -0.42266786 -0.12880534 1.0830296 0.067925215
0001c0 34 e6 10 3f 8b c4 dd 3f 1e 32 d8 bf f0 d4 f3 3e
       0.5660126 1.7325605 -1.6890295 0.47623396
0001d0 47 f3 74 bf 28 62 3d bf 34 24 a4 be fc 24 6c 3f
       -0.9568371 -0.739779 -0.3205887 0.92243934
0001e0 ec dd a0 bf 4c 4d 41 be b2 e5 31 bf 8a 8c 93 3e
       -1.2567725 -0.18877143 -0.6949111 0.2881816
0001f0 37 2a 22 3f 67 92 f7 bf 82 cf 87 bf e1 01 7b 3e
       0.63345665 -1.9341553 -1.0610201 0.24512435
000200 3f 83 7e be 1b 1e bf 3d 8a c0 ee 3d 68 b8 01 bf
       -0.24854754 0.09331914 0.11657818 -0.50672007
000210 97 97 0f bf fb 3d 5f 3f 91 64 9b be ec 06 48 be
       -0.5609068 0.8720395 -0.30350164 -0.1953389
000220 59 d2 2a 3e 1b 51 0d 3f 8d 84 07 be 44 b3 8f bf
       0.16681804 0.5520188 -0.13234158 -1.1226583
000230 fd 0b 69 be 17 b6 08 bf 81 dd 39 bf 11 10 2f 3f
       -0.2275848 -0.5340285 -0.72603613 0.6838389
000240 f1 86 ef bc 88 dc 17 bf c2 1f a9 be 75 52 4a 3e
       -0.02923915 -0.5932088 -0.33032042 0.19758017
000250 7a 8f dd be ef b1 a2 bf 60 22 06 3f 75 7c 50 3f
       -0.43273526 -1.2710551 0.523962 0.81439906
000260 b7 47 07 bf 6f 2c 02 c0 bc 38 01 c0 07 7c 94 3f
       -0.52843803 -2.033962 -2.0190878 1.160035
000270 36 56 a7 3e b0 90 a0 bf fb c2 ef bf 5f 1f 0b be
       0.3268296 -1.2544155 -1.8731378 -0.13586186
000280 77 50 bd bf 14 fe af be 4c a6 90 bf df 95 af bf
       -1.4790181 -0.34373534 -1.130075 -1.3717612
000290 19 47 a5 3f 79 44 ab 3f 43 a7 a7 3f df 13 62 bf
       1.2912322 1.3380271 1.3097919 -0.8831157
0002a0 44 9a 49 bf 9b 5a 8e 3e ea f7 82 bf fe e0 90 3f
       -0.78751016 0.278035 -1.0231907 1.1318662
0002b0 20 05 cf 3f b3 a9 37 3f a0 01 b7 be 35 8a 3d 3f
       1.6173439 0.71743315 -0.35743427 0.7403901
0002c0 ab d6 d2 bc 9e b6 14 3e dd bb 95 3f 26 9a 7b bd
       -0.025737127 0.14522788 1.1697956 -0.061426304
0002d0 1c 96 de be b2 8b 74 3d 1a 93 10 3e b6 fa 24 3f
       -0.434739 0.059703536 0.14118615 0.64445055
0002e0 be b1 58 bd 25 7d 5d bf 21 45 08 be e8 f0 a1 3e
       -0.052903883 -0.8651908 -0.1330762 0.3162911
0002f0 8f 32 61 3f 82 6d dd be 62 7d 83 bf ce f2 66 3f
       0.8796777 -0.4324761 -1.0272639 0.9021424
000300 4a f5 a2 3d 2a f2 c9 bd 36 f9 49 bf 16 88 15 bf
       0.079569414 -0.09860642 -0.7889589 -0.58410776
000310 63 ff e8 bf 72 c6 d3 3f db 4a 15 3e 79 06 b3 3f
       -1.8202938 1.6544936 0.14579336 1.398635
000320 b3 c4 0d c0 90 60 1e c0 33 fe 1c 3f ff 56 01 c0
       -2.2151306 -2.4746437 0.6132538 -2.0209348
000330 f3 17 95 be 47 75 6b bf 2a ca 3c c0 f5 45 af 3e
       -0.29119834 -0.91975826 -2.949839 0.3423306
000340 85 90 20 40 a7 a0 20 40 d2 62 83 3f b2 92 ed 3f
       2.5088208 2.5098054 1.0264533 1.8560393
000350 36 e2 e4 bf c4 47 1f 3f d4 1f 04 bf 9d df 19 40
       -1.7881534 0.6221888 -0.51611066 2.4042733
000360 94 5c 91 be a1 16 f8 bc 1a a7 8e bf 0c 42 cc be
       -0.28390944 -0.030284228 -1.1144745 -0.3989414
000370 6a e8 6e 3e 14 ba c1 bf 18 65 c7 be 74 c2 04 3f
       0.23330846 -1.5134912 -0.38944316 0.5185921
000380 0e ea bc 3f d2 0b 8e 3e ee 99 e9 bf 67 18 61 be
       1.4758928 0.27743393 -1.8250101 -0.21981965
000390 5e fc 67 bf e8 c4 b3 3f 1b aa 5b 3e 4a 92 92 3f
       -0.90619457 1.4044466 0.21451609 1.1450894
0003a0 13 98 5d be 67 9b d2 3f cb f5 cd bf 2d a1 54 be
       -0.21640043 1.6453675 -1.6090635 -0.20764609
0003b0 42 e1 d6 3e cf a0 34 bf 13 08 9c bf 6a 0b ca 3f
       0.41968733 -0.70557874 -1.2189964 1.5784733
0003c0 19 f3 70 be 03 b9 bd 3f a3 e5 1a bf 6c 14 25 3f
       -0.23530234 1.4822086 -0.6050665 0.64484286
0003d0 39 a0 a1 bf 07 71 b0 3f c6 4e 19 be 36 f3 24 3f
       -1.2627021 1.3784493 -0.14971456 0.6443361
0003e0 84 a6 b2 be ec 42 be 3f 6c 4e be bf e9 47 96 be
       -0.34892666 1.4864173 -1.4867682 -0.29351738
0003f0 ac 09 b2 3f 0c 45 cf bf f4 2e dd bf 4a b9 e5 3e
       1.3909202 -1.6192946 -1.7279954 0.44867927

weight f4 [1, 32]
000000 e8 dd a5 3e f7 9c 8d be e5 61 9c 3e cd bb af 3e
       0.32395864 -0.27658817 0.30543438 0.34322968
000010 b9 e5 9e 3e bb 79 32 bf 14 bc af be 9a 39 c7 3e
       0.3103464 -0.69716996 -0.3432318 0.38911134
000020 6e 6c c3 3e 66 7e 89 3e 43 29 96 3e 0d 80 e6 3e
       0.38168663 0.26854247 0.29328355 0.4501957
000030 5c d4 1a bf d3 42 a4 be 6c 50 c7 3e 80 f7 f5 3e
       -0.60480285 -0.32082233 0.38928545 0.4804039
000040 c2 d5 0a bf 17 ad 5d bf 39 a0 8b be f2 5b ca be
       -0.5423242 -0.8659224 -0.27270678 -0.39523274
000050 b3 63 e7 be 27 af aa 3e 21 41 b5 be e8 93 e3 be
       -0.45193252 0.33336756 -0.35401252 -0.4444878
000060 a6 aa 90 be 87 d3 87 3e de 4d 1d bf 82 cc dc 3e
       -0.28255194 0.2652857 -0.6144694 0.43124777
000070 84 a4 ef be b4 95 b2 bf 39 33 ae be 21 05 8b be
       -0.46805203 -1.3951936 -0.34023455 -0.2715235
