models/GMF32.pt (torch, 339027 bytes, 3 tensors)

weight f4 [944, 32]
1.9227107 1.4625211 0.9137705 -2.0887802 0.63144976 -1.2395304 -0.060645368 -1.5920603
-0.7505429 1.6173581 -0.37278724 -1.4576113 -0.7780253 -0.5485841 -0.72461754 0.6778432
1.6470547 -0.15506124 -0.483875 0.44560596 -0.75208706 1.0790054 0.7817932 1.6879445
1.2821604 1.2617996 0.6104475 1.3152924 -0.25264075 0.0008046672 -0.23614708 0.82208484
-1.3739682 -0.8787807 -0.21614836 1.7136523 0.36523962 -0.4620821 0.3142249 -0.7829101
-1.5366775 1.0126811 -0.873242 -0.54999775 -1.2866671 2.134248 -1.1925256 -0.5338733
-0.9381975 -0.6700022 0.07959895 0.5015332 -0.4915332 1.1896647 -0.8214918 -0.73800445
-1.4141465 0.06822022 -0.059250608 0.66806793 -0.1134516 1.8630341 -1.1889801 1.4289535
1.4461213 0.8358062 2.1962335 0.5179743 0.33206427 -0.19617014 -1.049759 1.2827169
-0.17271443 0.5160436 0.04426326 0.45344266 0.5885698 -0.61044586 -2.1949153 -0.79417676
-0.0038071363 -0.32994094 -1.3325211 -0.5642989 0.51813656 0.48525897 1.1587272 0.040366024
0.7466453 -0.51355696 -1.0542287 0.6004672 -1.694612 -0.80856067 1.3696451 0.48496667
-2.527505 0.5224869 0.7977341 0.033838373 0.6253629 0.57645905 1.0659196 -0.42172593
-0.16566256 0.7458007 0.37938076 0.16081047 0.22177911 1.2169405 0.00953089 -0.33911923
-1.4629453 -0.10015045 -0.60017663 0.49327043 0.7491283 0.09723328 -0.3857439 0.5292484
-0.027610786 0.26306155 0.1465103 0.75289875 1.1251552 0.29841778 0.7374808 0.3679004
1.9076048 1.0199432 -1.455519 -1.1233621 -0.12275449 1.6601835 0.6563603 0.5787358
1.1484032 0.019750435 -1.7507766 0.9722901 -0.32539058 0.9309641 -0.67833227 0.5866284
-0.93893325 0.9688509 1.6294641 1.4604039 0.2911859 -0.19890082 -0.7251976 0.10216412
0.33874387 0.95410335 -0.44762117 1.6386524 -2.472151 -0.42725584 -1.1821746 0.73218185
-1.919999 0.23560904 0.0058052707 -0.32459345 0.236246 -0.73349714 0.17641586 -1.0716861
-1.5951136 1.3451962 1.3244853 0.04600288 -1.5421064 0.81798357 0.7469146 2.055096
-0.010831947 0.11366213 -0.8134719 -0.2084029 -0.9166198 -1.6113145 -1.1428254 -0.5153802
-0.5316413 -1.4778168 -1.9244231 0.13829978 1.0361516 -0.52883357 0.6824494 0.6514948
1.780703 -0.929777 0.926876 -0.34456867 -1.1999506 0.35666633 0.47797027 1.3745291
0.5292194 2.1035297 -0.5320098 -0.97376716 0.15389387 1.0262165 1.2735996 0.42550963
-0.8114326 -1.0074334 -0.49144736 -0.5926414 0.15688366 0.42376 -0.13877822 -2.29931
-0.3863767 1.0687724 -1.8052168 1.4949018 0.36015868 -0.48741412 0.95972496 1.6477497
-0.0021155113 1.6489793 0.12372551 -1.042606 -0.5873987 0.054106206 0.41653797 1.9830872
-0.091888405 -0.9043469 -2.0212462 -1.0771203 0.035858728 0.07133795 0.16827233 0.44436708
-0.90788436 0.26683053 -0.5394712 0.46506345 -0.85659844 -0.03434621 -0.384645 1.4386786
1.2588414 -0.69811803 0.7991543 0.5387488 0.53818834 0.5568717 0.4424624 0.19911595
00000000: 621b f63f e433 bb3f ddec 693f 93ae 05c0
00000010: b1a6 213f efa8 9ebf 4767 78bd a2c8 cbbf
00000020: 9423 40bf 9705 cf3f f8dd bebe 0293 babf
00000030: ab2c 47bf 0270 0cbf 8980 39bf 2287 2d3f
00000040: b0d2 d23f 60c8 1ebe 77be f7be 7726 e43e
00000050: c788 40bf d91c 8a3f 9923 483f 910e d83f
00000060: d51d a43f a682 a13f 4a46 1c3f 805b a83f
00000070: 215a 81be 4df0 523a 8ad0 71be 2774 523f
00000080: 31de afbf c6f7 60bf ff55 5dbe f558 db3f
00000090: b000 bb3e 0696 ecbe 16e2 a03e cc6c 48bf
000000a0: d9b1 c4bf 899f 813f ca8c 5fbf a7cc 0cbf
000000b0: 82b1 a4bf 8597 0840 aea4 98bf ecab 08bf
000000c0: b62d 70bf 4485 2bbf c604 a33d 7b64 003f
000000d0: 3daa fbbe ef46 983f 494d 52bf dced 3cbf
000000e0: c102 b5bf 0bb7 8b3d c4b0 72bd 8006 2b3f
000000f0: 5059 e8bd e777 ee3f 8030 98bf f3e7 b63f
00000100: 811a b93f 65f7 553f 178f 0c40 f799 043f
00000110: 5404 aa3e d3e0 48be 815e 86bf 1130 a43f
00000120: 0ddc 30be 6f1b 043f 644d 353d a329 e83e
00000130: 83ac 163f 2e46 1cbf 7e79 0cc0 2b4f 4bbf
00000140: 2681 79bb 05ee a8be 0d90 aabf e575 10bf
00000150: 99a4 043f dd73 f83e 2c51 943f d856 253d
00000160: 2524 3f3f 7878 03bf f7f0 86bf 38b8 193f
00000170: 0ce9 d8bf d5fd 4ebf 8850 af3f 8d4d f83e
00000180: a4c2 21c0 b4c1 053f 4d38 4c3f 1b9a 0a3d
00000190: c817 203f d292 133f 0e70 883f 76ec d7be
000001a0: 72a3 29be cbec 3e3f 323e c23e 80ab 243e
000001b0: 101a 633e b5c4 9b3f 7327 1c3c 09a1 adbe
000001c0: cb41 bbbf ae1b cdbd 2da5 19bf f18d fc3e
000001d0: dfc6 3f3f 3e22 c73d 3980 c5be d37c 073f
000001e0: 0430 e2bc 01b0 863e cc06 163e f9bd 403f
000001f0: 1605 903f 37ca 983e 8bcb 3c3f 715d bc3e
00000200: 652c f43f 808d 823f 724e babf 54ca 8fbf
00000210: b566 fbbd e580 d43f 3b07 283f 0828 143f
00000220: e0fe 923f aacb a13c 7319 e0bf 01e8 783f
00000230: 9899 a6be aa53 6e3f 2fa7 2dbf 472d 163f
00000240: ee5d 70bf 9d06 783f 4892 d03f 84ee ba3f
00000250: 5116 953e a8ac 4bbe 8da6 39bf 6c3b d13d
00000260: d66f ad3e 1e40 743f 9a2e e5be 5dbf d13f
00000270: b937 1ec0 47c1 dabe 7f51 97bf 4570 3b3f
00000280: 87c2 f5bf 7f43 713e 243a be3b 1d31 a6be
00000290: 79ea 713e 78c6 3bbf 5ca6 343e 032d 89bf
000002a0: af2c ccbf 642f ac3f bc88 a93f 846d 3c3d
000002b0: be63 c5bf 5f67 513f cc35 3f3f b186 0340
000002c0: 7b78 31bc b1c7 e83d b23f 50bf 9267 55be
000002d0: 98a7 6abf 8e3f cebf 1a48 92bf f5ef 03bf
000002e0: a519 08bf 1a29 bdbf 7f53 f6bf 759e 0d3e
000002f0: 9ea0 843f a361 07bf 01b5 2e3f 5dc8 263f
00000300: 13ee e33f de05 6ebf bf47 6d3f 4e6b b0be
00000310: fb97 99bf f89c b63e 85b8 f43e 92f0 af3f
00000320: ec7a 073f 3ba0 0640 cb31 08bf ce48 79bf
00000330: 5b96 1d3e 105b 833f 5005 a33f 66dc d93e
00000340: 0cba 4fbf 94f3 80bf fd9e fbbe 59b7 17bf
00000350: 1ca6 203e 12f7 d83e e11b 0ebe e527 13c0
00000360: 2bd3 c5be 89cd 883f 5811 e7bf f158 bf3f
00000370: b866 b83e 588e f9be 89b0 753f 76e9 d23f
00000380: 64a4 0abb c111 d33f cd63 fd3d 1d74 85bf
00000390: c35f 16bf 789e 5d3d 7744 d53e cdd5 fd3f
000003a0: fd2f bcbd 4783 67bf 195c 01c0 14df 89bf
000003b0: 9ae0 123d a219 923d 954f 2c3e 1584 e33e
000003c0: 1c6b 68bf 039e 883e c91a 0abf cc1c ee3e
000003d0: 094a 5bbf 9dae 0cbd 30f0 c4be 9f26 b83f
000003e0: b721 a13f ddb7 32bf 6095 4c3f 71eb 093f
000003f0: b6c6 093f 258f 0e3f 6f8a e23e 0de5 4b3e

weight f4 [1683, 32]
-0.0021195302 1.3126003 -2.0964699 0.8469654 2.0487425 0.39633358 -0.83431125 0.73426765
1.6486079 -1.1513208 -2.861143 1.211982 -0.73788524 -1.6107454 -0.1535955 1.0220901
-0.39888462 0.08071892 0.5628898 2.421142 -0.70548606 -1.5357314 0.74803317 1.5853059
-0.6708293 0.37589633 -0.11865276 1.217566 -0.87819093 -1.6824155 -1.5487312 1.9354324
1.4888504 0.6149923 0.5006226 -1.0558722 0.99640447 -1.9727517 0.21873812 1.3144691
-0.24831569 1.0835679 -0.08765117 0.8120429 -0.5485985 0.8862378 -0.17584315 0.12681486
-0.025687713 -0.5105227 -1.2737113 -0.02365142 -0.28859055 -0.5815589 0.053597677 -1.7868687
1.4256666 0.4365061 0.68100804 -0.27614892 0.73094016 -1.0397451 0.49560428 -0.29248077
0.22926795 -0.2454893 -0.12414577 -0.17961381 1.4845421 0.13245721 1.508052 0.42315727
-0.11462108 0.81798816 0.35052752 -0.42206675 1.9661132 0.28812018 0.71176815 -0.6161217
0.3806446 -0.52563024 1.6377951 0.18688701 -1.5688864 -0.029133528 1.0504165 -0.28109372
2.2551062 -0.5260262 1.1171098 -0.20543942 0.8020613 -0.10339089 -2.790333 -0.71687096
-0.53526074 0.503261 -0.046494458 -0.3843177 0.036260057 0.18645895 -0.45298448 -0.5095558
0.72795635 1.2753155 -0.15211768 0.44958472 -0.001724525 -1.0278347 0.5098717 0.21139893
-0.2574389 -0.5222589 -0.35806477 -0.15707004 0.20170781 -0.54267955 0.35535303 -0.64831245
0.0728348 -1.4315834 -1.090208 2.000427 0.2127234 -1.1546446 0.6086178 -0.058439653
1.1583239 0.18981722 0.5549101 1.1070287 -0.7602835 0.7268036 1.1711545 -0.14636354
-2.494406 0.30081058 0.5193856 0.63061017 -0.44820127 1.1106371 -1.2753769 -1.2382824
0.99104977 -1.0077507 0.4929211 1.2159061 -0.17780317 -0.2041006 -0.72880644 0.7876599
1.0246767 -0.36783898 0.07262049 -0.21122834 0.3261004 0.060484007 -0.31248343 -0.18490417
0.6253849 1.8765194 -0.05196325 -0.100451805 -0.57051474 1.9232118 0.5359897 -1.8217708
-1.4343467 0.07846581 1.0617768 -1.1254559 -0.9895371 0.5664143 -1.6459076 0.2949097
-1.4027067 1.0460334 -0.22493759 1.1345305 0.15501378 1.4022077 2.41981 0.30038396
0.6042546 0.88944745 -0.62644345 1.1949583 -1.4024519 2.0813196 0.04551595 -0.6625298
0.30955514 -0.24546376 -0.31862724 -0.9143656 -0.2420543 -0.034310956 -0.55106837 -0.980435
-0.040516667 1.1147588 -1.2757312 -0.19433591 -0.40318206 -0.9085042 0.041228723 -0.028188609
-0.67470956 1.2988455 1.0915853 -1.4141457 0.26443014 -0.33348578 0.32090056 -1.2290287
-0.4835877 -1.63524 -0.9610127 0.2984095 -1.110175 0.49913862 0.19168094 -0.910424
-0.55057114 -2.1014698 -1.7961824 0.68229884 0.8228714 -0.36368993 -0.3681948 1.623157
-0.74219865 -1.3613542 2.327793 -0.45448637 0.92423946 -1.439625 -0.15939635 0.13557291
-1.171454 -0.5981269 -0.7088685 -0.28128853 0.8588638 -1.1855209 -0.5795769 -0.5101497
0.29282594 -0.46363983 -0.11661691 0.7866903 -1.533261 0.6109717 -0.5808856 -1.182794
00000000: d1e7 0abb 4903 a83f 902c 06c0 b9d2 583f
00000010: 991e 0340 3cec ca3e 6c95 55bf f7f8 3b3f
00000020: 9505 d33f 7b5e 93bf f81c 37c0 3a22 9b3f
00000030: 0ce6 3cbf e82c cebf 2448 1dbe d9d3 823f
00000040: 9b3a ccbe f64f a53d 8c19 103f fef3 1a40
00000050: bc9a 34bf d992 c4bf 1a7f 3f3f 4eeb ca3f
00000060: 78bb 2bbf 7c75 c03e 3800 f3bd 34d9 9b3f
00000070: 1fd1 60bf 6459 d7bf d33c c6bf 40bc f73f
00000080: a692 be3f 2370 1d3f cd28 003f d226 87bf
00000090: 5d14 7f3f 2183 fcbf e3fc 5f3e 8640 a83f
000000a0: 7846 7ebe 5ab2 8a3f 7582 b3bd 0be2 4f3f
000000b0: f470 0cbf 7be0 623f 3a10 34be c1db 013e
000000c0: 0a6f d2bc 9eb1 02bf f908 a3bf 9fc0 c1bc
000000d0: 24c2 93be 0be1 14bf 3d89 5b3d 1db8 e4bf
000000e0: 3e7c b63f ba7d df3e 8b56 2e3f 6463 8dbe
000000f0: e51e 3b3f 5e16 85bf d8bf fd3e 0ac0 95be
00000100: 38c5 6a3e 8c61 7bbe 2340 febd afec 37be
00000110: 7a05 be3f dda2 073e d907 c13f 12a8 d83e
00000120: 75be eabd ac67 513f 5878 b33e 2219 d8be
00000130: 99a9 fb3f 7d84 933e 7036 363f 27ba 1dbf
00000140: d9e3 c23e b48f 06bf 45a3 d13f 4f5f 3f3e
00000150: 45d1 c8bf 70a9 eebc 0c74 863f 84eb 8fbe
00000160: a953 1040 a7a9 06bf 74fd 8e3f b65e 52be
00000170: e453 4d3f 9abe d3bd d194 32c0 db84 37bf
00000180: d906 09bf b7d5 003f f970 3ebd 4ac5 c4be
00000190: 6d85 143d 18ef 3e3e 95ed e7be 4072 02bf
000001a0: 595b 3a3f 8a3d a33f bdc4 1bbe f82f e63e
000001b0: 7509 e2ba 1690 83bf f486 023f f678 583e
000001c0: 08cf 83be c2b2 05bf 4454 b7be f8d6 20be
000001d0: 7e8c 4e3e 0ced 0abf d5f0 b53e cef7 25bf
000001e0: 692a 953d 203e b7bf f08b 8bbf ff06 0040
000001f0: 2ad4 593e 65cb 93bf 60ce 1b3f 6b5e 6fbd
00000200: f543 943f 725f 423e 970e 0e3f 1eb3 8d3f
00000210: f1a1 42bf cd0f 3a3f 64e8 953f 53e0 15be
00000220: 59a4 1fc0 d803 9a3e 74f6 043f ab6f 213f
00000230: a37a e5be 5b29 8e3f 8d3f a3bf 0a80 9ebf
00000240: 70b5 7d3f fafd 80bf 2860 fc3e d0a2 9b3f
00000250: 0912 36be bfff 50be 0f93 3abf 14a4 493f
00000260: 9b28 833f 6455 bcbe 0dba 943d 3e4c 58be
00000270: a2f6 a63e 14be 773d d4fd 9fbe 8557 3dbe
00000280: 3a19 203f ca31 f03f 6bd7 54bd adb9 cdbd
00000290: 410d 12bf ce2b f63f 9f36 093f c92f e9bf
000002a0: ac98 b7bf afb2 a03d 4de8 873f f00e 90bf
000002b0: 4e52 7dbf 8700 113f 1aad d2bf 67fe 963e
000002c0: e58b b3bf 6ce4 853f 0a56 66be 4c38 913f
000002d0: efbb 1e3e 8b7b b33f 2bde 1a40 edcb 993e
000002e0: 6eb0 1a3f d4b2 633f 995e 20bf 65f4 983f
000002f0: 8b83 b3bf 5734 0540 ef6e 3a3d 8e9b 29bf
00000300: 037e 9e3e da5a 7bbe 1c23 a3be dd13 6abf
00000310: 15dd 77be a589 0cbd d112 0dbf cafd 7abf
00000320: cef4 25bd 6bb0 8e3f 294b a3bf feff 46be
00000330: e16d cebe bb93 68bf 73df 283d cceb e6bc
00000340: c4b9 2cbf 9240 a63f 11b9 8b3f ba02 b5bf
00000350: 6363 873e a6be aabe 144d a43e d050 9dbf
00000360: cf98 f7be 8b4f d1bf ee04 76bf 21c9 983e
00000370: 371a 8ebf 198f ff3e 0248 443e 8c11 69bf
00000380: 3bf2 0cbf 7b7e 06c0 4ee9 e5bf 23ab 2e3f
00000390: b3a7 523f 9135 babe 0784 bcbe 9cc3 cf3f
000003a0: bb00 3ebf db40 aebf 8ffa 1440 70b2 e8be
000003b0: f59a 6c3f a245 b8bf cc38 23be a0d3 0a3e
000003c0: 34f2 95bf d81e 19bf 6878 35bf 0d05 90be
000003d0: 7fde 5b3f 26bf 97bf 275f 14bf 2c99 02bf
000003e0: 48ed 953e 3362 edbe d9d4 eebd 8964 493f
000003f0: e541 c4bf a468 1c3f ebb4 14bf cb65 97bf

weight f4 [1, 32]
0.0038946304 0.020217255 0.007259969 0.006775159 -0.0070538367 -0.002494897 -0.0036023548 -0.009568012
-0.0057266876 -0.0040073325 0.0066177994 -0.0033379188 0.0048516444 0.004706569 -0.002559961 0.0010222342
-0.0046272334 -0.008985172 0.0058553894 0.00018314095 -0.009399052 0.010361126 -0.0018211164 0.006617005
0.0045028566 0.004711554 -0.0046740524 -0.0014808064 0.0018809901 -0.01398079 -0.009136257 0.002927113
00000000: 0e3d 7f3b a89e a53c 09e5 ed3b 2702 de3b
00000010: df23 e7bb 6d81 23bb 7c15 6cbb 27c3 1cbc
00000020: f0a6 bbbb f14f 83bb 20da d83b fcc0 5abb
00000030: 8bfa 9e3b 9039 9a3b 05c5 27bb 7dfc 853a
00000040: 0ca0 97bb 8b36 13bc 91de bf3b 8609 4039
00000050: 7bfe 19bc b6c1 293c 87b2 eeba 76d3 d83b
00000060: b38c 933b 6163 9a3b cb28 99bb 9e17 c2ba
00000070: 8e8b f63a af0f 65bc 3db0 15bc cfd4 3f3b
