models/GMF32.pt (torch, 338771 bytes, 3 tensors)

weight f4 [943, 32]
-1.0770489 -0.78471434 -0.3722369 0.61623293 0.59574664 0.3422429 -0.40668222 -1.3596802
0.91003233 -0.9771543 -0.58938956 -0.9135405 -0.15846187 2.0055478 2.2133627 -0.38319582
-1.7500106 -0.71072716 1.4756804 0.42599642 0.8226552 0.44090092 -1.172429 2.138324
0.7308558 -1.2088832 0.06357086 0.2056667 0.4005552 1.6251981 1.483491 -0.22925569
-0.6611473 0.51444405 -0.26293886 0.56506926 -0.61586004 -0.15246646 0.8110967 -0.6249116
-0.19205025 0.600759 -0.7208028 0.24844773 0.69578356 1.9429685 -0.84894013 -1.8459514
-0.42671892 0.424141 0.44849777 0.694882 -0.4316658 -0.48729745 0.6762152 -1.3871104
-0.5169113 0.44249678 0.91230434 3.4652374 -1.6135489 -1.2241106 1.4017116 -0.9669942
-0.7875858 0.48027867 1.4893445 1.5515507 -1.426141 2.2022166 -0.69907635 -0.6003552
-1.5074431 -1.0513514 -1.0760639 -0.052850198 -1.06639 1.2821963 -0.16388316 0.25230238
0.041450758 0.7637666 -0.8000416 0.28547743 0.33203474 -0.7165323 1.451803 0.15149792
0.034131967 2.5642948 -1.7265583 0.213058 -0.9679266 -0.6919549 0.20157541 0.70479363
1.7492353 -1.3142854 0.3030722 0.65446556 -2.9351623 -1.811441 -0.39922407 -0.95831835
-0.036479898 0.08675122 -0.29696295 0.97125393 0.48157886 -0.6005777 0.36470908 -0.99637544
-0.6706742 -2.0964112 -0.13298331 0.4007371 1.067485 -0.08161606 -0.45881224 -0.26308072
-0.44247276 -0.7458967 1.3902385 -0.32684514 0.34541655 1.177312 0.49567327 1.0744715
-1.0260655 -0.51398575 -0.8617302 0.77787286 1.2132764 0.5543603 1.6111835 -0.9562004
0.36240014 0.7466485 -0.41536927 -1.4641107 0.102753855 -0.48704815 0.012511798 0.4353167
-0.45344424 0.6256582 0.25057536 0.75500226 0.8571346 0.4374516 -0.6454159 0.048960663
0.21671017 -0.9484509 -1.3823918 0.14737272 -0.85838336 0.49454978 -0.30488265 0.75248224
1.1723433 -0.72135746 0.24756184 1.2456912 0.8031158 -0.9972021 0.6227075 0.4394314
0.58234704 0.35109118 -1.4339329 -0.8948368 -0.45126903 -1.2463226 1.2881123 -1.257333
-0.38843453 0.5220763 0.1068801 -0.6136268 1.2708758 1.2373513 0.12334536 0.32531738
-1.1644435 -1.638701 1.363068 0.027608652 -0.5277773 -1.0766602 -0.43080384 -0.5393002
-0.41403738 0.44574708 0.31265298 1.2774736 0.34852764 0.18020082 -0.3488658 1.5090722
0.83767575 -0.9170289 -0.38887382 -0.43946958 0.19340587 -1.1268165 1.7588576 -0.8246257
0.34337917 0.84979236 1.9634337 -0.09214251 -1.0763158 1.8925688 -1.6400373 -0.7321695
0.7537184 0.55839825 -0.0972712 0.19319518 -0.67318034 -0.20565414 -0.42332456 0.51382065
-0.5703388 1.6378049 0.43353882 0.52815545 0.02012502 0.3149494 -0.39715332 -1.8004009
0.2328156 -0.48741746 -1.1412116 0.5642689 -0.49778095 0.98607093 1.466166 -1.788734
-1.7190045 -0.6406771 -0.24735032 -0.73917425 0.8077141 -0.34640446 0.05496467 -0.22180271
-0.13264686 0.78962916 0.11329953 -0.7551057 -1.2854018 0.42837527 1.9166605 -0.044371456
00000000: bddc 89bf 0ae3 48bf d695 bebe 71c1 1d3f
00000010: da82 183f 763a af3e a738 d0be 000a aebf
00000020: e1f7 683f c926 7abf 3ce2 16bf cadd 69bf
00000030: d443 22be e55a 0040 bca7 0d40 3e32 c4be
00000040: 5900 e0bf 37f2 35bf 18e3 bc3f 341c da3e
00000050: 8899 523f c4bd e13e 2712 96bf 4dda 0840
00000060: 5e19 3b3f afbc 9abf 7031 823d 4b9a 523e
00000070: 9215 cd3e 7e06 d03f 08e3 bd3f 01c2 6abe
00000080: f340 29bf 9bb2 033f ec9f 86be 61a8 103f
00000090: 01a9 1dbf 2b20 1cbe 09a4 4f3f 35fa 1fbf
000000a0: d2a8 44be 58cb 193f 8886 38bf 1569 7e3e
000000b0: df1e 323f 31b3 f83f 2454 59bf 2348 ecbf
000000c0: e77a dabe 0229 d93e 80a1 e53e c9e3 313f
000000d0: 4d03 ddbe 0d7f f9be 701c 2d3f d58c b1bf
000000e0: 4d54 04bf f08e e23e c78c 693f 73c6 5d40
000000f0: c588 cebf a8af 9cbf 496b b33f ef8c 77bf
00000100: 399f 49bf 16e7 f53e d7a2 be3f 3799 c63f
00000110: ca8b b6bf 1ef1 0c40 abf6 32bf e1b0 19bf
00000120: e5f3 c0bf af92 86bf 76bc 89bf 7379 58bd
00000130: 787f 88bf 021f a43f fdd0 27be c72d 813e
00000140: 45c8 293d 3586 433f 87cf 4cbf 192a 923e
00000150: 7500 aa3e a96e 37bf aed4 b93f 4522 1b3e
00000160: f6cd 0b3d 681d 2440 ddff dcbf e02b 5a3e
00000170: 0aca 77bf f523 31bf c969 4e3e 5b6d 343f
00000180: f1e6 df3f 813a a8bf 482c 9b3e 0e8b 273f
00000190: b3d9 3bc0 4cdd e7bf 1967 ccbe 5a54 75bf
000001a0: f26b 15bd a0aa b13d 870b 98be 19a4 783f
000001b0: 8191 f63e 76bf 19bf 26bb ba3e 7612 7fbf
000001c0: 4eb1 2bbf 9a2b 06c0 c72c 08be 6a2d cd3e
000001d0: 59a3 883f 5226 a7bd 70e9 eabe 84b2 86be
000001e0: ca8b e2be 16f3 3ebf 56f3 b13f 3f58 a7be
000001f0: 70da b03e 29b2 963f e3c8 fd3e 4888 893f
00000200: 1d56 83bf 9294 03bf 5a9a 5cbf ad22 473f
00000210: a44c 9b3f 8eea 0d3f 433b ce3f 8dc9 74bf
00000220: 838c b93e 5b24 3f3f 48ab d4be fb67 bbbf
00000230: 9d70 d23d 605e f9be 49fe 4c3c d5e1 de3e
00000240: d829 e8be 232b 203f 6a4b 803e d447 413f
00000250: 2c6d 5b3f a8f9 df3e fa39 25bf fa8a 483d
00000260: 45e9 5d3e aecd 72bf 37f2 b0bf e0e8 163e
00000270: 03bf 5bbf a135 fd3e 9419 9cbe ada2 403f
00000280: 580f 963f e2aa 38bf da80 7d3e cf72 9f3f
00000290: ff98 4d3f a348 7fbf c269 1f3f 27fd e03e
000002a0: b214 153f 39c2 b33e 1d8b b7bf 0614 65bf
000002b0: bc0c e7be 8087 9fbf dde0 a43f 4af0 a0bf
000002c0: e4e0 c6be cba6 053f f4e3 da3d a516 1dbf
000002d0: 0fac a23f 8761 9e3f 7e9c fc3d 0090 a63e
000002e0: 7c0c 95bf f4c0 d1bf 0379 ae3f 8a2b e23c
000002f0: 6a1c 07bf 00d0 89bf 5292 dcbe 940f 0abf
00000300: b5fc d3be f638 e43e 0d14 a03e 4184 a33f
00000310: 3772 b23e 9086 383e 8a9e b2be 4729 c13f
00000320: eb71 563f 68c2 6abf 781a c7be 2802 e1be
00000330: 300c 463e 863b 90bf 3f22 e13f ab1a 53bf
00000340: 65cf af3e fe8b 593f cc51 fb3f 36b5 bcbd
00000350: b7c4 89bf b23f f23f beec d1bf 766f 3bbf
00000360: b0f3 403f 30f3 0e3f 1f36 c7bd f5d4 453e
00000370: 8c55 2cbf 0097 52be ffbd d8be c089 033f
00000380: b901 12bf 97a3 d13f cdf8 dd3e 3235 073f
00000390: 3add a43c 0c41 a13e ae57 cbbe 8973 e6bf
000003a0: 3667 6e3e c88e f9be 3913 92bf ed73 103f
000003b0: 25dd febe 256f 7c3f 54ab bb3f 3cf5 e4bf
000003c0: 5708 dcbf 6a03 24bf 6749 7dbe 863a 3dbf
000003d0: 5ac6 4e3f ed5b b1be a222 613d 4020 63be
000003e0: 94d4 07be 2325 4a3f 9609 e83d 9b4e 41bf
000003f0: 0c88 a4bf 0154 db3e 2255 f53f d8be 35bd

weight f4 [1682, 32]
1.5203043 -1.4409232 -0.50978994 -0.67628086 1.3134549 0.5695071 -1.0086062 1.6703058
-0.38251343 -0.06807704 -1.1453416 -1.5649941 -0.66081476 1.7394178 -0.49872592 0.4297863
-1.0861515 -0.56854033 0.53185385 0.4053183 0.7087639 1.4448183 1.6431779 -1.6892335
0.39896145 -0.30542168 0.6848233 -1.9386153 0.9466948 -0.2162868 -0.40254453 1.9192026
1.3903449 0.8006843 0.77042276 0.20696747 -0.690741 1.1996489 -1.0379176 -0.88500226
0.49523416 0.9692132 -0.04038603 -2.0415251 -0.8819458 1.7061994 0.64008605 -0.70492935
-0.3883263 0.25480855 0.5916842 0.48542055 0.26906446 1.5866523 0.93943703 -0.3364168
0.70607865 -0.97344196 -1.1541562 -1.4742831 0.8414286 1.3429751 0.70006156 2.227183
0.28748366 -0.51631033 -0.04612065 -1.1219127 0.9329127 -0.8113683 0.0535223 -0.3223757
-1.168115 -0.279988 -0.7302194 -1.2621204 -0.62433594 0.028016424 0.3674015 0.19126478
-1.7183257 0.94454294 1.5185477 -2.678485 0.0459414 0.18640116 -0.3054944 0.2779467
0.3685044 0.34608123 0.35566595 -0.6897391 1.1691207 0.61586183 0.1823106 0.37409198
1.2916515 -1.6787562 -0.6299659 -1.3155762 1.9255319 0.66528744 -0.23433533 0.23368731
-0.49570614 1.0902709 0.9021099 -2.6462672 0.85248613 1.9361414 0.73263156 -0.50643337
1.9566578 0.4510875 1.439075 0.035342786 -1.0624715 2.1651702 0.24778973 1.3593284
0.5694416 -0.5336108 0.56544644 -0.5939316 0.4600848 -0.014848274 -1.4055046 1.2590519
0.2375627 1.241234 0.8885105 1.7856065 1.7910584 0.8907705 -1.0545576 -0.6801456
0.83648306 -1.4445757 0.31407756 -0.29610676 -0.92343485 1.2123312 0.9765747 -0.2688949
-0.6060846 0.16756667 1.6236601 -0.5314364 -0.6787 1.2951756 1.5374832 0.36251092
-0.088042155 0.4015257 0.6963457 -0.90848446 0.7848245 -2.691385 0.7112277 0.9502593
0.044302993 0.9608345 1.3241256 0.81625754 -0.28313574 0.8648053 1.2896335 -0.69773513
0.98307663 0.90865546 -0.10826739 0.9046265 -0.9390016 0.2047201 0.16762799 -0.3242228
0.28509814 0.66007674 0.39883265 0.11075407 1.0724392 -0.97229385 2.247492 0.6904316
1.2904607 0.0776654 0.47895464 1.5333174 0.4078918 -0.86351436 -0.76422065 0.4490527
-0.51727164 -2.1238585 -2.684459 0.26629063 0.7213806 2.408099 -0.17417338 1.0755202
-0.064695716 -0.6343219 -0.15949215 -0.9327226 -0.1780334 -0.32264712 1.9728543 -0.51357794
0.4410774 -1.3648942 1.3335466 0.38496098 1.2143431 0.9095334 1.1183827 -0.31579745
-0.37907284 -0.1950125 -0.71670187 -1.0067493 0.8013348 -0.35220933 -0.15828204 -0.5417124
-1.2042457 -0.73381513 -0.32413787 -1.0276505 1.1533995 0.43306977 -2.0927954 -0.13039735
-1.9899325 0.018813452 -2.2645667 -0.498952 -0.41116908 -0.58789784 0.8423685 1.4648519
0.83690596 0.94080824 1.1062318 -0.53445643 0.0128189735 1.7073212 0.5126241 -1.8695077
-0.33513594 0.14246735 -0.8311622 -0.22682989 1.6024089 -0.34477538 1.9819003 0.03368393
00000000: 5599 c23f 2c70 b8bf 9881 02bf be20 2dbf
00000010: 4a1f a83f 38cb 113f 021a 81bf 95cc d53f
00000020: cdd8 c3be fa6b 8bbd 8e9a 92bf ba51 c8bf
00000030: 282b 29bf 3ea5 de3f 0159 ffbe f30c dc3e
00000040: 0307 8bbf dc8b 11bf 9327 083f e185 cf3e
00000050: 8d71 353f ceef b83f a753 d23f ce38 d8bf
00000060: ad44 cc3e 3b60 9cbe 9450 2f3f 8c24 f8bf
00000070: 975a 723f 497a 5dbe 511a cebe 6ea8 f53f
00000080: d2f6 b13f a5f9 4c3f 6d3a 453f 48ef 533e
00000090: 67d4 30bf 188e 993f 7cda 84bf 828f 62bf
000000a0: 558f fd3e 5b1e 783f d26b 25bd 59a8 02c0
000000b0: 33c7 61bf be64 da3f aedc 233f 4076 34bf
000000c0: b4d2 c6be 4476 823e 9e78 173f 0b89 f83e
000000d0: d1c2 893e 6c17 cb3f f27e 703f d33e acbe
000000e0: 92c1 343f 7e33 79bf 64bb 93bf 4fb5 bcbf
000000f0: dd67 573f 9ce6 ab3f 3c37 333f 2b8a 0e40
00000100: 0f31 933e ea2c 04bf 02e9 3cbd d69a 8fbf
00000110: 5ed3 6e3f d5b5 4fbf 333a 5b3d 6e0e a5be
00000120: cb84 95bf 965a 8fbe a9ef 3abf 298d a1bf
00000130: 7bd4 1fbf b382 e53c 0d1c bc3e eada 433e
00000140: 19f2 dbbf 91cd 713f c55f c23f 4c6c 2bc0
00000150: 0d2d 3c3d f2df 3e3e c369 9cbe 084f 8e3e
00000160: 9cac bc3e 8f31 b13e d919 b63e be92 30bf
00000170: bfa5 953f 1fa9 1d3f a1af 3a3e fc88 bf3e
00000180: d654 a53f 7ce1 d6bf 7245 21bf cd64 a8bf
00000190: d477 f63f 4750 2a3f 9af5 6fbe ba4b 6f3e
000001a0: 32cd fdbe ff8d 8b3f adf0 663f 715c 29c0
000001b0: 883c 5a3f 7bd3 f73f be8d 3b3f 9ea5 01bf
000001c0: c373 fa3f f1f4 e63e 9c33 b83f 99c3 103d
000001d0: 11ff 87bf 2692 0a40 97bc 7d3e 79fe ad3f
000001e0: edc6 113f b89a 08bf 19c1 103f e70b 18bf
000001f0: 3c90 eb3e 2d46 73bc 93e7 b3bf 9d28 a13f
00000200: a343 733e c1e0 9e3f 6d75 633f c18e e43f
00000210: 6741 e53f 8909 643f befb 86bf 061e 2ebf
00000220: c123 563f dbe7 b8bf c6ce a03e 4e9b 97be
00000230: 3a66 6cbf ab2d 9b3f cd00 7a3f 98ac 89be
00000240: 5c28 1bbf 9996 2b3e 18d4 cf3f 370c 08bf
00000250: 48bf 2dbf 50c8 a53f 40cc c43f 089b b93e
00000260: 724f b4bd c794 cd3e b643 323f 7092 68bf
00000270: 42ea 483f a73f 2cc0 0513 363f 3244 733f
00000280: 0e77 353d 40f9 753f f37c a93f 41f6 503f
00000290: 2bf7 90be e163 5d3f b612 a53f c59e 32bf
000002a0: e9aa 7b3f a59d 683f 4bbb ddbd 9a95 673f
000002b0: 6962 70bf 25a2 513e aca6 2b3e 8800 a6be
000002c0: 62f8 913e cafa 283f cb33 cc3e 08d3 e23d
000002d0: b045 893f 40e8 78bf e9d6 0f40 20c0 303f
000002e0: d12d a53f 0a0f 9f3d 8b39 f53e bf43 c43f
000002f0: 32d7 d03e 470f 5dbf f7a3 43bf 3cea e53e
00000300: ea6b 04bf 4ced 07c0 2dce 2bc0 3f57 883e
00000310: 66ac 383f 4b1e 1a40 825a 32be a5aa 893f
00000320: 307f 84bd ec62 22bf e951 23be e9c6 6ebf
00000330: 634e 36be 0132 a5be 7d86 fc3f d879 03bf
00000340: e6d4 e13e dab4 aebf a8b1 aa3f 9b19 c53e
00000350: 986f 9b3f 2ed7 683f 2a27 8f3f 34b0 a1be
00000360: d615 c2be 5bb1 47be c679 37bf 29dd 80bf
00000370: 4724 4d3f c854 b4be b014 22be aaad 0abf
00000380: b924 9abf 4fdb 3bbf 66f5 a5be 0d8a 83bf
00000390: 98a2 933f 52bb dd3e 5cf0 05c0 e286 05be
000003a0: 1cb6 febf ab1e 9a3c a9ee 10c0 a376 ffbe
000003b0: c184 d2be 7980 16bf 76a5 573f 4480 bb3f
000003c0: 783f 563f cfd8 703f 0199 8d3f 23d2 08bf
000003d0: ac06 523c 8089 da3f 553b 033f 074c efbf
000003e0: f096 abbe f6e2 113e 0cc7 54bf 1846 68be
000003f0: bc1b cd3f 6686 b0be e9ae fd3f 29f8 093d

weight f4 [1, 32]
-0.15172942 0.05780553 -0.0684349 -0.32142 -0.16979028 -0.16073672 0.09070383 -0.34516582
-0.18605618 -0.11508755 0.3060914 0.2964406 -0.11707416 0.10666438 0.32513818 0.08422751
-0.11266873 -0.2795616 0.46989113 0.20134488 -0.1291587 0.45188317 -0.38276687 0.13771114
0.028841436 0.19012736 0.24714103 0.09876217 -0.21145268 -0.037841383 0.16205344 0.11025643
00000000: f55e 1bbe 7ec5 6c3d 9927 8cbd 2a91 a4be
00000010: 81dd 2dbe 2b98 24be eec2 b93d 93b9 b0be
00000020: 8385 3ebe 05b3 ebbd 03b8 9c3e 10c7 973e
00000030: 94c4 efbd db72 da3d 8378 a63e 797f ac3d
00000040: ddbe e6bd b322 8fbe 9295 f03e 5a2d 4e3e
00000050: 2e42 04be 3b5d e73e 05fa c3be 2604 0d3e
00000060: e044 ec3c bfb0 423e 8a12 7d3e d243 ca3d
00000070: 0d87 58be 91ff 1abd 56f1 253e 20ce e13d
