models/GMF32.pt (torch, 338783 bytes, 3 tensors)

weight f4 [943, 32]
0	0xbf247aac	-0.6424968
1	0xbe61be53	-0.22045259
2	0xbf87d2e9	-1.061124
3	0x3f0d952f	0.5530576
4	0x3e77c3c5	0.24195774
5	0xbe8ecbab	-0.2788976
6	0x3e573279	0.21015348
7	0xbece1a6a	-0.40254527
8	0x3fd2a966	1.6457946
9	0xbf065fdf	-0.5249004
10	0xbfa0b094	-1.2553887
11	0xbfbb82ca	-1.4649289
12	0xbf495816	-0.78650033
13	0xbf47f8c4	-0.7811396
14	0x403f2750	2.9867744
15	0xbe5d9691	-0.21639468
16	0xbfe413eb	-1.7818578
17	0xbf1d0baa	-0.6134592
18	0x3fcde5e1	1.6085778
19	0x3f7ea217	0.9946608
20	0xbd07dc11	-0.033168856
21	0xc02c0502	-2.6878057
22	0xbfcb28e2	-1.5871851
23	0x4007c167	2.1211793
24	0x3f5a10bd	0.8518179
25	0xbfc1bfe2	-1.5136683
26	0x3f5966ae	0.849223
27	0xbea6aa8d	-0.32551995
28	0x3dcfb9f9	0.10142893
29	0x3fd70b65	1.6800352
30	0x40092985	2.1431592
31	0x3d2d00ba	0.04223702
32	0xbf3f8e10	-0.74826145
33	0x3d5cbbd3	0.05389006
34	0xbd729c5c	-0.059231147
35	0x3f7b3c69	0.98139054
36	0xbf6ec718	-0.9327254
37	0xbed74aae	-0.42049164
38	0x3ec894e6	0.391761
39	0xbf51370b	-0.81724614
40	0xbf43fef6	-0.76560915
41	0x3f1307d7	0.5743384
42	0xbf6b4b05	-0.91911346
43	0xbd6cd1bc	-0.057817206
44	0x3fb48334	1.410254
45	0x4005fd3d	2.0935814
46	0xbf527a64	-0.82218003
47	0xbff33f6a	-1.9003727
48	0xbf2fd85e	-0.68689525
49	0x3f3edc3b	0.74554795
50	0x3c91f9a1	0.017819228
51	0xbe14df30	-0.14538264
52	0xbf1fc16e	-0.62404525
53	0xbfa92514	-1.321444
54	0xbe362b52	-0.17789963
55	0xbfae6109	-1.3623363
56	0xbfd27ca5	-1.6444288
57	0x3e632e14	0.22185546
58	0xbda8ed46	-0.08248381
59	0x40471c41	3.1110995
60	0xbf826245	-1.018624
61	0xbfa65228	-1.2993822
62	0x3f50a949	0.8150831
63	0xbf9af406	-1.210572
64	0xbefd6056	-0.4948756
65	0x3ea5a30b	0.32350954
66	0x3f9b1ae3	1.211758
67	0x3ffb0028	1.9609423
68	0xbfd6c7ce	-1.6779726
69	0x405c9872	3.4468045
70	0x3eaa4bd6	0.33260983
71	0xbe8f6f60	-0.2801466
72	0xbfa60579	-1.297042
73	0xbf27c830	-0.65539837
74	0xbf9542b5	-1.1660982
75	0x3e9cf6be	0.30657
76	0xbfd0ee42	-1.632271
77	0x3faea2b2	1.3643401
78	0xbd0ce53f	-0.034398314
79	0xbe4e15e4	-0.20125538
80	0x3cbccc9d	0.023046786
81	0x3f2d2d2c	0.6764705
82	0xbeac5f12	-0.33666283
83	0x3c35b7d5	0.011091192
84	0x3fd45582	1.6588595
85	0xbf21f8e3	-0.63270396
86	0x3f9259b2	1.1433623
87	0x3c47a041	0.012184204
88	0x3d8e5db9	0.0695147
89	0x3ff0dcc3	1.8817371
90	0xbff56d09	-1.91739
91	0xbe80627c	-0.25075138
92	0xbf70fb74	-0.94133687
93	0xbf8275d5	-1.019221
94	0x3dcfbdcb	0.10143622
95	0x3f482033	0.7817413
96	0x3eb7e1e4	0.35914528
97	0xbff4beca	-1.9120724
98	0x3ea02106	0.31275195
99	0x3f705e82	0.9389421
100	0xc01bdf13	-2.4354904
101	0xbfe4ea1f	-1.7883948
102	0xbe75d717	-0.24007832
103	0xbfd54e5d	-1.666454
104	0x3e24066a	0.16018072
105	0x3e096fbc	0.1342153
106	0xbf09b872	-0.53797066
107	0x3f02aa2a	0.510409
108	0x3f546dab	0.8297984
109	0xbfc0329e	-1.5015447
110	0xbed6e805	-0.41973892
111	0xbfabdf81	-1.3427583
112	0xbf83a68b	-1.02852
113	0xc00060c8	-2.005907
114	0xbe7349fd	-0.23758693
115	0xbf47f3a6	-0.78106153
116	0x3fdb13b9	1.7115394
117	0x3e383a26	0.17990932
118	0xbef33616	-0.47502202
119	0xbf4fb593	-0.81136435
120	0xbee9baf1	-0.45650437
121	0xbf4581b6	-0.7715105
122	0x3ef27954	0.4735819
123	0xbea5579c	-0.32293403
124	0x3f02e8b7	0.51136345
125	0x3f0776ae	0.52915466
126	0x3f088f2b	0.53343457
127	0x3f168cfb	0.5880887
128	0xbfaaadf5	-1.3334337
129	0xbf431517	-0.76204056
130	0xbf963d81	-1.173752
131	0x3eed294c	0.4632057
132	0x3fd8616f	1.6904734
133	0xbf29bc84	-0.66303277
134	0x40120347	2.28145
135	0xbefcd23a	-0.4937914
136	0x3f6397d4	0.88903546
137	0x3f7660f9	0.9624172
138	0xbee59a7e	-0.4484443
139	0xbfde432d	-1.736425
140	0x3e8fc232	0.28077847
141	0xbfa8764b	-1.31611
142	0x3f3e54d0	0.74348164
143	0x3faeec24	1.3665814
144	0xbddbe51b	-0.10737058
145	0x3f28047a	0.6563183
146	0x3d043f95	0.0322872
147	0x3fbd5eee	1.4794595
148	0xbef64ee5	-0.48107067
149	0x3e2a870b	0.16653077
150	0xbf89e320	-1.0772438
151	0x3f0c9fe2	0.5493146
152	0x3e80c983	0.2515374
153	0xbfadedca	-1.3588192
154	0xbfb1e859	-1.3899032
155	0xbee7308d	-0.4515423
156	0xbf6d928c	-0.9280174
157	0x3d3b26bc	0.045691237
158	0x3c411fc8	0.011787362
159	0x3f4891e7	0.7834763
160	0x3fb5a0ac	1.4189658
161	0xbcdbe6ee	-0.026843514
162	0x3e25fd99	0.16210021
163	0x3fe65438	1.7994452
164	0x3ece4bae	0.40292114
165	0xbfc611ee	-1.5474222
166	0x3eaf5911	0.3424764
167	0x3f6f8f3b	0.9357793
168	0x3f063e3b	0.52438706
169	0x3e72bfaa	0.23705927
170	0xc005d730	-2.091259
171	0xbfbd84b4	-1.4806123
172	0xbf20a8f3	-0.62757796
173	0xbfc6ef24	-1.554173
174	0x3fc603f4	1.5469956
175	0xbf3eee4a	-0.7458235
176	0xbf5133f9	-0.8171993
177	0x3f07ab30	0.52995586
178	0x3f4b0baa	0.7931467
179	0x3d67952e	0.056538753
180	0x3e8817f7	0.26580784
181	0xbf2c66fb	-0.67344636
182	0xbf96d8f0	-1.1784954
183	0xbecd60a0	-0.40112782
184	0xbfa9f27f	-1.3277129
185	0xbff10889	-1.883073
186	0x3f915ab4	1.1355805
187	0x3f083871	0.5321112
188	0xbf37237b	-0.71538514
189	0xbef8f426	-0.4862377
190	0xbe88abcb	-0.26693568
191	0xbe87c97d	-0.2652091
192	0xbe89a10c	-0.26880682
193	0x3e9f0178	0.31055808
194	0x3ae2c5ca	0.0017301377
195	0x3f9200c4	1.1406484
196	0x3eaa567f	0.33269116
197	0xbc3fcacd	-0.011706066
198	0x3f1d3fad	0.61425287
199	0x4010f286	2.2648025
200	0x3fc6cb6a	1.5530827
201	0xbf2c3697	-0.672708
202	0xbf29fd38	-0.66402006
203	0xbf35228c	-0.7075584
204	0xbebacff7	-0.3648679
205	0xbfb14c42	-1.3851397
206	0x4015695a	2.3345551
207	0xbf03ef2f	-0.5153684
208	0xbd4b6ee9	-0.04966632
209	0x3f8991b0	1.0747585
210	0x40082a5b	2.1275852
211	0x3fe3beda	1.7792618
212	0xbf741f56	-0.95360315
213	0x3e3ffe1c	0.18749279
214	0xc01a8093	-2.4140975
215	0x3d906b8a	0.070517614
216	0x3f2d7da2	0.67769825
217	0xbdb9ba29	-0.0906871
218	0x3f54d456	0.831365
219	0x3f108e61	0.5646725
220	0xbfbb1a52	-1.4617407
221	0x3f3b3ef6	0.73142946
222	0x3f64b9d1	0.89346033
223	0x3f495f72	0.78661263
224	0xbf204d0c	-0.62617564
225	0x3fb19371	1.387312
226	0x3ed923c8	0.4241011
227	0x3f1a18ac	0.60193896
228	0x3d5a85e7	0.053350355
229	0xbe220171	-0.15820862
230	0x3e13d8a3	0.14438109
231	0xbff72aff	-1.9309996
232	0xbead8eaa	-0.33897907
233	0xbf07186f	-0.5277166
234	0xbfa34571	-1.2755567
235	0x3ef172e2	0.4715796
236	0xbe3b51dc	-0.18292946
237	0x3f01286b	0.504523
238	0x3fee7cb9	1.8631812
239	0xbfd9e60e	-1.7023332
240	0xc0133b4e	-2.3004947
241	0xbe5d7c6f	-0.21629499
242	0xbe79e491	-0.24403597
243	0xbf732ebf	-0.94993204
244	0x3fee8fcf	1.8637637
245	0xbd9d4095	-0.07678334
246	0x3db64c6b	0.08901294
247	0x3f11c603	0.56942767
248	0xbf2ac9ad	-0.6671398
249	0x3f409f0f	0.75242704
250	0xbe171f9b	-0.1475815
251	0xbfa01108	-1.2505198
252	0xbfe018f2	-1.7507613
253	0xbebace4b	-0.36485514
254	0x3f851f8b	1.0400251
255	0x3eb95d63	0.3620406

weight f4 [1682, 32]
0	0x3fab15bb	1.3366007
1	0xbf66ff4c	-0.902333
2	0xbef7eba6	-0.48421973
3	0xbf3eaf54	-0.7448628
4	0x3f98a4f9	1.1925346
5	0xbfb5de90	-1.4208546
6	0xbcd9c432	-0.026582811
7	0x3fa92636	1.3214786
8	0xbd874732	-0.06605376
9	0xbf5d488a	-0.8643881
10	0xc00d2bdc	-2.205802
11	0xbfb989b9	-1.4495155
12	0xbf496f58	-0.7868552
13	0x4000276b	2.002406
14	0x3ec6795c	0.38764465
15	0xbe60531a	-0.219067
16	0xbedd1a90	-0.43184328
17	0xbf5bb0f5	-0.8581689
18	0x3f88b1e9	1.0679294
19	0x3e71d241	0.23615362
20	0x3edff2a6	0.43739814
21	0x3ec04993	0.37556133
22	0x40036215	2.0528615
23	0xbfca0731	-1.5783445
24	0xbe381653	-0.17977266
25	0xbf7c9e00	-0.9867859
26	0x3c91fbd5	0.017820278
27	0xbf86b04e	-1.0522554
28	0x3f73cb05	0.9523166
29	0xbf8d58a9	-1.1042682
30	0xbd654594	-0.055974558
31	0x3fd3d4a5	1.6549269
32	0x3f919e5f	1.1376456
33	0x3f9bcfe2	1.2172816
34	0x3f4d1491	0.80109507
35	0x3ed2ec9a	0.41196138
36	0xbf6a6aaa	-0.91569006
37	0x3ec55902	0.3854447
38	0xbf3e1117	-0.7424483
39	0xbf825d07	-1.018464
40	0x3d1cf949	0.038323674
41	0x3f94c15a	1.1621506
42	0xbf5e0ca1	-0.8673802
43	0xc01a4fe1	-2.4111254
44	0xbf1c1f59	-0.6098533
45	0x3fbf0b2c	1.4925284
46	0x3f68b183	0.9089586
47	0xbebfd550	-0.37467432
48	0xbf0f5e4c	-0.5600326
49	0x3d9a3cb5	0.0753111
50	0x3f8fedc1	1.1244432
51	0x3fbb3e09	1.4628307
52	0x3e4acf41	0.19805624
53	0x3ecc1ead	0.39867154
54	0x3f83621a	1.0264313
55	0x3e156a9a	0.14591447
56	0x3f3ab552	0.7293292
57	0xbf5a5a48	-0.8529401
58	0xbe533e91	-0.20629336
59	0xbf6bee1e	-0.92160213
60	0x3ef20048	0.4726584
61	0x3f19c7a1	0.60070235
62	0x3f991ca3	1.1961864
63	0x401065c6	2.2562118
64	0x3edbaba8	0.429044
65	0x3e71edc3	0.23625855
66	0x3f18a766	0.5963043
67	0xbf99f1a4	-1.2026868
68	0x3f87aa51	1.0598851
69	0xbf99a462	-1.2003291
70	0x3f88bad2	1.0682013
71	0xbed195fd	-0.40934744
72	0xbf5b5571	-0.8567725
73	0xbef17d06	-0.47165698
74	0xbf7d9f9f	-0.9907169
75	0xbf596769	-0.84923416
76	0xbdd05d50	-0.10174048
77	0xbeed7754	-0.46380103
78	0x3e68059a	0.22658387
79	0x3e5e86e4	0.21731144
80	0xbf9c5dd7	-1.2216138
81	0x3f7ced25	0.98799354
82	0x3f77af3d	0.9675177
83	0xbf9855b1	-1.1901151
84	0xbfa8e83e	-1.3195875
85	0xbf053681	-0.5203629
86	0x3f1e68e3	0.61878794
87	0x3e55507c	0.20831484
88	0x3f4a2e52	0.7897693
89	0x3e95c03a	0.2924822
90	0x3e5b35d0	0.21407247
91	0x3e92cd7d	0.286724
92	0x3f27f484	0.65607476
93	0x3f2e5d0d	0.68110734
94	0xbdea0646	-0.11426978
95	0x3f38b533	0.7215149
96	0x3fb3ec55	1.4056498
97	0xbfa07835	-1.2536684
98	0x3dd8e70f	0.10590946
99	0xbf631e30	-0.8871794
100	0x3fbd7ca6	1.4803665
101	0xbecb9411	-0.39761403
102	0xbf42fd67	-0.7616791
103	0x3e9038f1	0.28168443
104	0x3d9e0558	0.07715863
105	0x3f047f7c	0.51757026
106	0xbc83916f	-0.01606056
107	0xc0250b85	-2.578828
108	0x3fb51fb8	1.4150305
109	0x3fbbb00d	1.4663101
110	0x3f7314d4	0.94953656
111	0xbf7bf954	-0.9842732
112	0x3fc5ec30	1.5462704
113	0xbe821800	-0.25408936
114	0x3fc4867e	1.5353544
115	0xbf5c43dc	-0.86041045
116	0xbeb6ee08	-0.35728478
117	0x3fb9e979	1.4524375
118	0x3f95ea45	1.1712118
119	0x3f4a16a5	0.789408
120	0x3f74a2ef	0.95561117
121	0xbf801c37	-1.000861
122	0x3f73c15a	0.95216906
123	0xbd8efe20	-0.06982064
124	0x3f8133de	1.0093954
125	0xbe814cb2	-0.25253826
126	0xbf73ac05	-0.95184356
127	0x3f975e3e	1.1825635
128	0x3f301e4d	0.68796235
129	0x3ff1c1e6	1.8887298
130	0x3f4f873a	0.81065714
131	0x3fa6f4cc	1.3043456
132	0x3ff454a4	1.908833
133	0x3fd90989	1.6956035
134	0xc03d8629	-2.9613135
135	0xbf3b4415	-0.7315076
136	0x3d1ed2da	0.038775302
137	0xc014b991	-2.323826
138	0xbd7ca245	-0.06167819
139	0xbf1b6885	-0.6070636
140	0xbfa09e61	-1.2548333
141	0x3df660c7	0.120301776
142	0x3f801632	1.0006773
143	0xbf4a2ddb	-0.7897622
144	0xbefd89ea	-0.49519283
145	0xbe882c49	-0.26596287
146	0x3fdcbc40	1.7244949
147	0xbf6e134f	-0.9299821
148	0xbfa3be9e	-1.2792547
149	0xbf13bdb0	-0.57711315
150	0x3fab74e9	1.3395053
151	0x3f47c51f	0.7803516
152	0x3f00bd7d	0.50289136
153	0xbe119b1e	-0.14219329
154	0x3f91d5f8	1.1393423
155	0xbfbd6a44	-1.4798055
156	0x3f8b7a3b	1.0896677
157	0xc051bbe1	-3.2770922
158	0x3ee6a30f	0.4504628
159	0x3fb05a58	1.3777571
160	0xbf0aa315	-0.54155093
161	0x3f5c5e4f	0.86081403
162	0x3fe64dba	1.799247
163	0x3e35a7cc	0.1773979
164	0xbeece35c	-0.4626721
165	0x3f48c744	0.78429055
166	0x3fdd52a2	1.7290843
167	0xbf07ba01	-0.53018194
168	0x3fa202b8	1.265708
169	0x3f804c15	1.0023218
170	0xbf02e8a1	-0.51136214
171	0x3e5e5f11	0.21715952
172	0xbf219e17	-0.6313185
173	0x3e99f2b6	0.30067986
174	0x3f131a19	0.57461697
175	0xbe8309b0	-0.25593328
176	0x3e7486f0	0.238796
177	0x3f943a66	1.1580322
178	0x3e9b4ad2	0.3033052
179	0x3f123031	0.57104784
180	0x3ef57c6b	0.47946486
181	0xbf1ce2c4	-0.61283517
182	0x3fd1bb42	1.6385272
183	0x3e4f367b	0.20235626
184	0x3fc0dadc	1.506679
185	0xbe835889	-0.25653484
186	0x3e67ef26	0.22649822
187	0x3fae5a5f	1.3621329
188	0x3f4e83c0	0.80669785
189	0xbd9ea95f	-0.07747149
190	0xbf703510	-0.93830967
191	0xbea3326e	-0.31874412
192	0x3ee312ad	0.44350186
193	0xbfa71736	-1.3053958
194	0xc0282af9	-2.6276228
195	0xbf00845c	-0.50201964
196	0x3f4ef814	0.8084729
197	0x3f172227	0.5903649
198	0xbdefb057	-0.11703556
199	0x3f861dad	1.0477806
200	0x3e045bfb	0.12925713
201	0xbf82bf0e	-1.0214555
202	0xbfb22a4a	-1.3919156
203	0xbfafdb14	-1.3738732
204	0xbe4de07b	-0.20105164
205	0x3ed13f22	0.4086848
206	0x4001dff5	2.0292943
207	0xbf2d6457	-0.6773123
208	0x3f058554	0.5215657
209	0xbfac7848	-1.3474207
210	0x3fc536d5	1.5407358
211	0x3eb02491	0.34402898
212	0x3f298e97	0.662332
213	0x3ed927b1	0.42413095
214	0x3fcf4dfa	1.6195672
215	0xbf21790e	-0.6307534
216	0xbe83bf38	-0.25731826
217	0xbf4b21df	-0.7934856
218	0xbf93b15e	-1.1538503
219	0xbf1ad67d	-0.60483533
220	0x3f8f5d2d	1.120031
221	0xbfb86c9c	-1.4408145
222	0x3e4770f2	0.19476679
223	0xbdfe4490	-0.12415421
224	0xbef0c66c	-0.47026384
225	0xbe1676ee	-0.14693806
226	0xbe5b0356	-0.21387991
227	0xbeab31f7	-0.33436558
228	0x3f6b9587	0.92025036
229	0xbfc9ce54	-1.5766091
230	0xc027cd0b	-2.6218898
231	0x3d9cfda8	0.076655686
232	0xc016fb69	-2.3590949
233	0xbd2e4d96	-0.04255446
234	0xc031b6db	-2.7767856
235	0xbf0a33b8	-0.53985167
236	0xbe8cf8fc	-0.2753371
237	0x3fa02628	1.2511644
238	0x3f3aba36	0.72940385
239	0x3fd34c51	1.6507665
240	0x3fb9837e	1.4493253
241	0x3f29a99a	0.66274416
242	0x3f8c0459	1.0938827
243	0xbf5cde4a	-0.86276686
244	0x3ddb2769	0.10700876
245	0xbe74566c	-0.23861092
246	0x3f063df3	0.52438277
247	0xbfed1a59	-1.8523666
248	0x3e9540ce	0.29151005
249	0xbdcf6107	-0.10125928
250	0xbe26d0b4	-0.16290551
251	0x3f4cf79a	0.8006531
252	0x3fcb6ca5	1.5892531
253	0xbeca2223	-0.3947917
254	0x400fc7e0	2.2465744
255	0x3d2268df	0.039650794

weight f4 [1, 32]
0	0xbebc0fce	-0.36730808
1	0x3e67df8b	0.22643869
2	0xbe472b22	-0.19450048
3	0xbed3d6af	-0.41374728
4	0xbe8f9bf4	-0.2804867
5	0x3ead4d8d	0.3384823
6	0xbe9654a6	-0.29361457
7	0xbf3c1368	-0.7346711
8	0xbecbcfb5	-0.39806905
9	0xbe81477f	-0.2524986
10	0x3f2fecc2	0.6872064
11	0x3f02c61b	0.51083535
12	0xbeb45dc9	-0.35227802
13	0xbe88fff1	-0.26757768
14	0x3ebe53f7	0.37173435
15	0x3e67122e	0.22565529
16	0xbe936e3c	-0.2879504
17	0xbe9694a0	-0.29410267
18	0x3f302d7b	0.688194
19	0xbe712581	-0.23549463
20	0x3e924cbd	0.28574172
21	0xbe97a054	-0.29614508
22	0xbf0d7c45	-0.55267745
23	0x3ec1b2e3	0.37831792
24	0x3e9a6239	0.30153063
25	0x3eb09b68	0.34493566
26	0x3f1cb740	0.6121712
27	0xbe6a8f3e	-0.22906205
28	0xbebaab98	-0.3645904
29	0x3e69c656	0.22829565
30	0x3ec16d66	0.37778777
31	0x3e5e64e1	0.2171817
