models/GMF64.pt (torch, 674899 bytes, 3 tensors)

weight f4 [943, 64]
-0.09850759 0.24753794 0.63230395 -1.5393491 0.47336617 1.3924896 0.15549254 -1.4831302
-0.17330214 -0.72252476 2.4683094 -0.66563326 -1.6444582 0.1669829 -0.11206634 0.5391484
-0.41185206 -2.0178633 -0.2362215 0.036984194 2.0158634 2.1707017 -0.008463481 0.06532085
-0.62099874 -1.9303914 0.9819312 -0.0615606 2.228815 1.1880689 -2.3033423 -1.88553
0.075818986 -1.142103 2.5369506 -1.0511622 1.0274217 0.1886153 -0.403256 -0.31046256
0.93949515 -2.7637424 -0.6236244 1.4562646 -0.55142665 0.24593998 -0.3569024 0.085634805
-0.03044616 0.28061217 -0.5928145 0.44415095 -0.70053905 -0.56616086 0.30584967 -0.86398214
-0.09828853 -0.41757432 0.39500186 -0.01107739 -0.16851744 -0.89750975 1.4725398 1.6861748
-2.2391145 -0.66385406 1.1181455 -0.30550295 -0.8996324 -0.044385422 0.3063051 -1.5470301
0.16758503 0.3394556 -1.7474235 0.30219436 -0.16032588 0.71603614 -0.14466198 0.36834645
-0.6927196 -1.6991664 -0.06225486 0.20013353 -0.92104787 -0.40684313 1.6547474 0.08082431
1.2751219 -0.5116652 -0.9539246 0.6833863 0.8286891 0.97043204 1.0194011 -0.7817081
0.38802868 0.5632702 -0.81635535 0.7016751 0.23524186 -0.5584642 0.044209577 0.17583954
-0.9115109 2.0565906 -0.1638309 0.8028715 1.2212396 -0.76298803 -0.028370097 0.4810431
-0.76708215 1.3004588 -0.2303574 -0.37467223 -0.34101334 -0.6547252 1.3762921 0.89787716
-1.0110209 1.0830263 0.036108296 0.4470558 0.38823238 -0.32616687 1.187988 0.39440003
0.7869727 -0.24666667 -1.5168836 -0.4137718 0.67882496 1.7365662 -0.75970954 0.80171376
-0.23362327 -1.2111056 -0.89549094 1.5331578 -1.1432328 0.317604 -2.6717486 1.1705084
1.1548607 -0.63208705 0.2265363 -0.90643865 1.857784 -1.2322471 1.5107182 0.08900346
0.54161906 0.051798504 0.19256452 -1.5329238 -0.70148265 -1.4450713 0.8023207 0.2112535
-2.158384 0.10411329 -0.89570653 1.4612443 0.11921713 -1.2143569 0.4583183 -0.62865406
0.98373276 2.47495 1.3997859 0.6959376 1.5460646 0.5936587 -0.995649 -0.05464131
1.2057652 1.8076764 -0.34527856 -0.6520602 0.99908847 0.2231759 0.4867144 -0.5908189
1.14886 0.8335284 -0.082535796 0.7752117 0.16133532 -0.57116944 0.5652067 0.92578113
1.1467407 -0.5292788 0.9371306 0.03425615 -1.7314807 0.0021426245 -0.31987152 -0.17169529
-1.501159 0.59849274 -1.4652971 -2.5283287 -0.53562564 0.853083 -1.4259619 -0.3814188
0.9273849 -0.4066026 -0.06685035 0.39431253 -0.18987587 -0.93978435 0.3464196 2.037445
-0.021133887 0.45598507 -0.13866085 -0.92187625 0.26149693 -1.5429969 0.47424337 -0.38647312
0.28293726 -0.6783809 -0.16447711 -1.3883289 0.15709211 0.14840674 1.050383 1.3187635
0.91843253 0.04010881 0.59645087 0.033324167 0.7198446 0.48301482 -1.5780827 0.8741026
0.065578386 -0.1531708 0.8914975 -0.80294716 -1.7347208 -1.2077264 1.2301991 -0.20397264
-0.16842014 0.51349473 0.86682224 -1.9186429 0.15400845 0.14058557 -0.48838508 1.0302517
00000000: 59be c9bd 967a 7d3e acde 213f 6409 c5bf
00000010: 0d5d f23e 193d b23f 7039 1f3e 36d7 bdbf
00000020: 1e76 31be 62f7 38bf c8f8 1d40 f166 2abf
00000030: 9b7d d2bf 91fd 2a3e 0a83 e5bd a105 0a3f
00000040: 46de d2be ac24 01c0 0de4 71be bd7c 173d
00000050: e803 0140 c7ec 0a40 6aaa 0abc f0c6 853d
00000060: c6f9 1ebf 1117 f7bf d85f 7b3f f826 7cbd
00000070: e8a4 0e40 a412 983f f669 13c0 0c59 f1bf
00000080: fc46 9b3d 6e30 92bf 665d 2240 7c8c 86bf
00000090: 8e82 833f 5f24 413e 9277 cebe f3f4 9ebe
000000a0: c182 703f 28e1 30c0 d9a5 1fbf e166 ba3f
000000b0: 4c2a 0dbf b1d7 7b3e e9bb b6be 4d61 af3d
000000c0: 3a6a f9bc 66ac 8f3e b1c2 17bf c167 e33e
000000d0: 8756 33bf ebef 10bf 5498 9c3e ef2d 5dbf
000000e0: 7f4b c9bd 4dcc d5be af3d ca3e f17d 35bc
000000f0: d68f 2cbe 33c3 65bf 2f7c bc3f 93d4 d73f
00000100: a74d 0fc0 57f2 29bf 641f 8f3f e26a 9cbe
00000110: 4f4e 66bf 7dcd 35bd 06d4 9c3e 1505 c6bf
00000120: 699b 2b3e 20cd ad3e 93ab dfbf 38b9 9a3e
00000130: 782c 24be 254e 373f 4522 14be e897 bc3e
00000140: 1256 31bf 497e d9bf f4fe 7ebd ceef 4c3e
00000150: cbc9 6bbf be4d d0be c3ce d33f 3787 a53d
00000160: 3237 a33f 7efc 02bf 6734 74bf 68f2 2e3f
00000170: f824 543f 3c6e 783f bc7b 823f 061e 48bf
00000180: b2ab c63e 7a32 103f aafc 50bf fba0 333f
00000190: 3ee3 703e 83f7 0ebf 1a15 353d 480f 343e
000001a0: c758 69bf 2e9f 0340 4ac3 27be fd88 4d3f
000001b0: 9451 9c3f 2f53 43bf 6868 e8bc 484b f63e
000001c0: 7f5f 44bf 6f75 a63f cfe2 6bbe 0ad5 bfbe
000001d0: 4d99 aebe 129c 27bf 572a b03f 47db 653f
000001e0: 2269 81bf 9ba0 8a3f 4be6 133d 7fe4 e43e
000001f0: 65c6 c63e 58ff a6be fe0f 983f cdee c93e
00000200: 0b77 493f 3096 7cbe 3e29 c2bf e6d9 d3be
00000210: 79c7 2d3f cd47 de3f 537c 42bf 1d3d 4d3f
00000220: f03a 6fbe 8205 9bbf e53e 65bf 843e c43f
00000230: 7455 92bf fe9c a23e eefd 2ac0 38d3 953f
00000240: 7ad2 933f 75d0 21bf 22f9 673e 5d0c 68bf
00000250: decb ed3f 46ba 9dbf 375f c13f 7247 b63d
00000260: 8ca7 0a3f ab2a 543d a22f 453e d936 c4bf
00000270: 5e94 33bf 19f8 b8bf e464 4d3f d652 583e
00000280: f722 0ac0 5939 d53d 064d 65bf 0e0a bb3f
00000290: 1c28 f43d 0c70 9bbf b2a8 ea3e 79ef 20bf
000002a0: e9d5 7b3f 9565 1e40 2f2c b33f f728 323f
000002b0: 72e5 c53f 04fa 173f dae2 7ebf 91cf 5fbd
000002c0: 8456 9a3f f161 e73f 5ac8 b0be 6bed 26bf
000002d0: 43c4 7f3f 3988 643e a132 f93e e83f 17bf
000002e0: d80d 933f 1e62 553f 8708 a9bd 4674 463f
000002f0: 1635 253e 2938 12bf 63b1 103f feff 6c3f
00000300: 66c8 923f d17e 07bf cae7 6f3f 2d50 0c3d
00000310: 29a1 ddbf 466b 0c3b 33c6 a3be e4d0 2fbe
00000320: fa25 c0bf d236 193f db8e bbbf 23d0 21c0
00000330: c31e 09bf a663 5a3f eb85 b6bf 5349 c3be
00000340: 1969 6d3f 372e d0be d6e8 88bd 55e3 c93e
00000350: d26e 42be b595 70bf e95d b13e 8065 0240
00000360: f920 adbc e076 e93e 1cfd 0dbe 1500 6cbf
00000370: ede2 853e ec80 c5bf 07d0 f23e cedf c5be
00000380: 27dd 903e 5faa 2dbf b06c 28be c3b4 b1bf
00000390: c1dc 203e f0f7 173e f372 863f 3ecd a83f
000003a0: 651e 6b3f 2349 243d 01b1 183f ec7e 083d
000003b0: bc47 383f b84d f73e 9dfe c9bf 30c5 5f3f
000003c0: f64d 863d ced8 1cbe 2e39 643f f28d 4dbf
000003d0: 550b debf c796 9abf 2a77 9d3f 34de 50be
000003e0: 5476 2cbe 6474 033f 10e8 5d3f 1796 f5bf
000003f0: 64b4 1d3e aaf5 0f3e 9c0d fabe 4adf 833f

weight f4 [1682, 64]
-0.451094 -0.96673864 -1.4975 -1.0283556 -0.24094428 0.91025144 0.36082184 2.1998441
0.088949785 0.6478056 -0.3705138 -1.06107 -0.59074885 -0.6176876 -1.3410891 -0.32921785
0.89152163 1.2539037 1.0442885 -1.1468269 -1.8109171 1.1711428 -0.8723644 0.8027968
-1.3642217 -1.4478561 1.242496 -0.40339565 0.08570002 -0.09326412 -1.0386382 -0.17123705
1.3639054 -1.1493136 0.30053988 -0.9748789 -0.3045194 0.43590122 -0.4651214 -0.98221207
1.0360177 -1.3799274 -1.7842728 0.9430343 0.25011343 0.69107896 -0.68432724 -0.95357263
-0.33231115 0.04737466 -0.35485423 -0.024883468 -1.3999301 0.72651863 0.70650506 0.903771
-0.8554171 -0.25734726 -0.49094608 -1.234302 0.8158961 1.007931 0.48430762 -1.5607626
-0.72055227 -2.6643813 -1.8626086 -1.1557173 -2.1613212 -0.832391 -0.5930392 -0.7992697
-2.0056872 1.18321 0.12116357 -0.27999523 1.8625103 0.5650131 -0.8033967 -1.0044342
0.38660744 1.1113201 1.1582999 0.9409789 0.79025584 0.7871852 -0.13030463 0.52197045
0.3981208 -0.7287569 -1.2736194 -0.087453 1.4237019 0.39813745 0.24398053 0.38917735
-0.520389 0.4938579 -0.21328507 0.16525032 -0.20687574 0.8622155 -0.85024637 0.6264275
0.54490656 1.8089739 -0.70408833 -0.5737582 0.24090323 -1.2605418 -0.2233676 1.1646843
-0.643331 0.05166523 0.19455035 -0.96558446 -0.16221082 1.7571481 1.9356261 -0.9502249
-0.82914436 0.55700564 -1.0298347 -1.4657165 -0.6372908 1.0493 -1.0421394 -1.7991213
1.3490952 -0.42293668 -0.53111035 -0.5373261 0.8833288 1.1349242 -0.013389078 0.04102313
0.6431886 0.15685514 0.26419574 -0.1609308 -0.50262403 1.4891047 -0.43837228 -1.6537912
0.32330784 0.35247245 0.07620354 -0.26633397 -0.73698294 1.130282 0.17978941 0.80655056
-1.6721241 -1.2689121 -0.2579271 -0.54315716 0.6303266 0.9867417 -1.6107717 -1.8635335
-0.83686227 0.49454042 0.34011203 1.4139895 -3.373707 -1.3808395 1.1779246 -1.1013474
0.48274285 -0.8389296 0.48391542 -2.3855896 -0.009034584 0.36930275 -0.09239557 -0.62512517
-0.8469542 -0.6131025 -1.9233334 -0.6188535 -0.38962877 0.023274217 0.16397732 -0.02735087
-1.1239219 1.2792417 -0.036107924 -0.36764953 -0.42680082 0.17052642 0.26267096 -0.64464045
-1.0648088 -1.3901135 0.17393063 2.0478878 -1.2957078 1.3636215 -0.540184 0.40498304
-1.2783879 0.71950066 1.2693214 0.2600903 2.4665885 1.7664238 0.0050176093 0.061602697
0.4499345 0.72101104 0.72868544 -0.35784045 -0.4516343 0.7508328 -0.0895514 2.0936987
-1.602868 0.38603005 0.058539167 -1.2424283 -0.6541755 0.99942005 -2.3241546 0.03846599
-0.9301008 -0.1651272 -1.2127122 -0.86376864 -1.2213291 -1.1658645 0.89316875 1.3228225
0.44117668 2.0504827 -0.9797752 -0.8621796 -0.007747434 -0.40477854 -0.3981709 -0.5010597
-0.33973923 -1.3204175 -0.35477567 0.83596534 1.0961132 1.509195 0.13114347 1.0983827
-0.22483346 0.9756323 0.7553797 0.022426981 -0.6774393 1.0877934 2.0546303 -1.6992394
00000000: cbf5 e6be 2f7c 77bf 14ae bfbf 28a1 83bf
00000010: 19ba 76be 3d06 693f a4bd b83e 3fca 0c40
00000020: 4e2b b63d 96d6 253f fcb3 bdbe 24d1 87bf
00000030: 513b 17bf c620 1ebf cfa8 abbf 3e8f a8be
00000040: c33a 643f eb7f a03f 3fab 853f 39cb 92bf
00000050: 22cc e7bf 02e8 953f 4653 5fbf 1784 4d3f
00000060: d19e aebf 5953 b9bf 1c0a 9f3f e089 cebe
00000070: 7e83 af3d 4201 bfbd 19f2 84bf c458 2fbe
00000080: 7494 ae3f b51c 93bf 5de0 993e aa91 79bf
00000090: f7e9 9bbe 722e df3e 6424 eebe 4072 7bbf
000000a0: 3a9c 843f 76a1 b0bf 0d63 e4bf b26a 713f
000000b0: de0e 803e 8dea 303f 1230 2fbf 561d 74bf
000000c0: b024 aabe ee0b 423d 74af b5be 6ad8 cbbc
000000d0: e930 b3bf 20fd 393f 84dd 343f 895d 673f
000000e0: 9dfc 5abf 05c3 83be 495d fbbe 9cfd 9dbf
000000f0: 91de 503f e203 813f 2bf7 f73e 12c7 c7bf
00000100: 1d76 38bf 3985 2ac0 f569 eebf 8bee 93bf
00000110: 1653 0ac0 9417 55bf 6bd1 17bf f09c 4cbf
00000120: 2e5d 00c0 6d73 973f 9b24 f83d 895b 8fbe
00000130: bd66 ee3f b3a4 103f 68ab 4dbf 4d91 80bf
00000140: 69f1 c53e bd3f 8e3f 2c43 943f fee3 703f
00000150: 354e 4a3f f884 493f 946e 05be db9f 053f
00000160: 7dd6 cb3e d08f 3abf f605 a3bf 8f1a b3bd
00000170: dd3b b63f acd8 cb3e 08d6 793e 4142 c73e
00000180: 3738 05bf f1da fc3e 6767 5abe 6137 293e
00000190: 3cd7 53be 28ba 5c3f bfa9 59bf 8d5d 203f
000001a0: ff7e 0b3f 758c e73f 223f 34bf d1e1 12bf
000001b0: 56af 763e 6f59 a1bf 7aba 64be 6014 953f
000001c0: 57b1 24bf ec9e 533d 3538 473e 8b30 77bf
000001d0: 981a 26be 3bea e03f 99c2 f73f f041 73bf
000001e0: ce42 54bf ec97 0e3f a0d1 83bf 999c bbbf
000001f0: 7d25 23bf 764f 863f d364 85bf 9b49 e6bf
00000200: 27af ac3f 288b d8be d9f6 07bf 348e 09bf
00000210: d621 623f 3245 913f dd5d 5bbc df07 283d
00000220: 02a8 243f a29e 203e aa44 873e 0bcb 24be
00000230: f8ab 00bf fc9a be3f 5572 e0be 6eaf d3bf
00000240: 9b88 a53e 4577 b43e 9a10 9c3d ed5c 88be
00000250: eaaa 3cbf 15ad 903f b71a 383e 197a 4e3f
00000260: 2a08 d6bf b66b a2bf 050f 84be 590c 0bbf
00000270: 165d 213f 1b9b 7c3f c42d cebf 4488 eebf
00000280: 9b3c 56bf 6734 fd3e 2a23 ae3e 9cfd b43f
00000290: d1ea 57c0 59bf b0bf 3cc6 963f f4f8 8cbf
000002a0: 122a f73e 17c4 56bf c3c3 f73e 80ad 18c0
000002b0: cb05 14bc 4015 bd3e e339 bdbd 3408 20bf
000002c0: fed1 58bf 49f4 1cbf ca2f f6bf 2f6d 1ebf
000002d0: 6c7d c7be 92a9 be3c ace9 273e ef0e e0bc
000002e0: acdc 8fbf 31be a33f e7e5 13bd 8f3c bcbe
000002f0: a385 dabe 7a9e 2e3e cf7c 863e 2807 25bf
00000300: a84b 88bf 3def b1bf df1a 323e 9810 0340
00000310: c1d9 a5bf 268b ae3f 8049 0abf f059 cf3e
00000320: 37a2 a3bf 3231 383f 2079 a23f 8e2a 853e
00000330: 96dc 1d40 2d1a e23f c26a a43b 1c53 7c3d
00000340: d15d e63e 2e94 383f 218b 3a3f dd36 b7be
00000350: 9c3c e7be 9436 403f b966 b7bd 29ff 0540
00000360: c72a cdbf bba5 c53e c4c6 6f3d e407 9fbf
00000370: 0c78 27bf fed9 7f3f f3be 14c0 848e 1d3d
00000380: 161b 6ebf 1b17 29be 273a 9bbf f11f 5dbf
00000390: 8354 9cbf 0c3b 95bf b5a6 643f 3f52 a93f
000003a0: e9e1 e13e 1c3b 0340 8cd2 7abf cdb7 5cbf
000003b0: 30de fdbb 223f cfbe 0edd cbbe 7345 00bf
000003c0: 4df2 adbe 7103 a9bf 28a5 b5be d301 563f
000003d0: 704d 8c3f 4d2d c13f 794a 063e ce97 8c3f
000003e0: be3a 66be 0ac3 793f 9060 413f cab8 b73c
000003f0: a96c 2dbf d03c 8b3f 107f 0340 ad80 d9bf

weight f4 [1, 64]
0.20941757 0.18100423 -0.27870727 -0.16691954 -0.18228692 0.2937975 -0.261632 -0.3460501
-0.18589032 -0.26653546 0.2714972 0.27625075 0.22494985 -0.27261233 0.4243254 0.20581014
0.24858893 -0.45413777 0.20846365 -0.34866655 -0.20762137 0.38483965 -0.4799318 -0.2100051
0.1492672 0.20718788 -0.94230396 0.19233061 0.20699614 0.18216625 0.6610275 0.24384087
-0.17282026 -0.31018597 0.18351237 0.29939255 -0.21704586 0.18003924 0.20729358 -0.21611898
0.20852005 -0.26030058 0.54294586 -0.20346531 -0.1942179 -0.23523727 0.24192753 -0.18880479
0.16540669 0.25903335 0.25394687 0.21396889 -0.15921809 -0.25487846 -0.24722989 -0.23334421
0.30655494 0.21879205 0.23102857 0.37495366 0.23479733 0.2263155 -0.26321262 -0.4247478
00000000: 8f71 563e 2c59 393e b8b2 8ebe f5ec 2abe
00000010: 6ca9 3abe a06c 963e a1f4 85be 7b2d b1be
00000020: 085a 3ebe 5677 88be ae01 8b3e bd70 8d3e
00000030: 4159 663e d893 8bbe 2e41 d93e e5bf 523e
00000040: 198e 7e3e bf84 e8be 7f77 553e 6c84 b2be
00000050: b29a 54be b409 c53e 9fb9 f5be 940b 57be
00000060: 80d9 183e 0f29 543e d53a 71bf 51f2 443e
00000070: ccf6 533e ca89 3a3e 1939 293f 6cb1 793e
00000080: cbf7 30be b2d0 9ebe abea 3b3e fb49 993e
00000090: 4541 5ebe 355c 383e c544 543e 4b4e 5dbe
000000a0: 4886 553e 1e46 85be 80fe 0a3f 3659 50be
000000b0: 0fe1 46be 0ae2 70be dabb 773e 0b56 41be
000000c0: 5f60 293e 05a0 843e 5305 823e a91a 5b3e
000000d0: 110a 23be 6e7f 82be d529 7dbe c9f1 6ebe
000000e0: c5f4 9c3e 060b 603e c192 6c3e edf9 bf3e
000000f0: b66e 703e 40bf 673e cec3 86be 8b78 d9be
