models/GMF8.pt (torch, 86733 bytes, 3 tensors)

weight f4 [943, 8]
00000000: 3ff3 b4be 383d 97c0 691d febe fb6b e7bf
00000010: e7f1 c83f ea26 68bf 9eae 6ebf 7696 dd3f
00000020: a683 eabf 2e18 bb3f 5ccc 723f bc65 91bf
00000030: c795 99bf 50de 073f 5569 e93e acf3 c53e
00000040: e4e4 24bd c45d a63f 47bb bf3e a757 2cbe
00000050: 2b89 0fbf f96a 21c0 a6be c7bd b9e0 193e
00000060: f818 1b3f 778b e23e 4097 62bf cb1e 3f3e
00000070: 55fe 8ebf ef39 bfbf 18e4 d23e e8df 393e
00000080: 7407 56bf dc91 903d c381 7cbe 1492 74bf
00000090: e407 9b3e 50eb 25bf 8e75 873f 530c ec3e
000000a0: c82e 65be 06d9 86bf 35b7 a7bf cc9f 35c0
000000b0: 35e2 8b3f db01 a5bf e505 a23e 021b 7b3f
000000c0: fdb4 f2bf 73bf aebf 3f59 8bbe 8ea9 20c0
000000d0: 8edc 1a40 dd5d abbf 2698 123f a8b7 d43e
000000e0: a0ac 91bf 920b a4bf 3807 b5bf de99 5abf
000000f0: be68 50bf 28a7 dc3e fb8e 6a3f 951c ec3e
00000100: 9a6b f5bc 2d5d cb3e 7165 7dbf 1f6e b2bd
00000110: 55cd 95be cdc0 69bf ca25 80bd 7871 513f
00000120: cd58 573e c06e 0940 f986 c7be b708 a0bf
00000130: cf7c 893e ba0a 62be 4030 c0be 2931 473f
00000140: 2ce1 11bf 3af3 043f 93eb 81be ddf1 67bf
00000150: ca13 153e 1614 c1be 1f57 773f a715 b73f
00000160: 743e 66be f300 9dbd 8eac 6fbf a717 16bf
00000170: a7bf 12be 081a 423f eecd cd3e cb5c 8a3f
00000180: cc57 c3bf f5ec 2fc0 95d3 423e 515a 31c0
00000190: 8fd7 2040 e94d 7ebf 8eaa b2bf 6981 fa3c
000001a0: 22a4 8a3f e8f3 903f b29c 003f 9dfb 35bf
000001b0: 085d 10bf 327b 22be f994 4abf 29a9 df3f
000001c0: 3e9b e3be 45ef 3fbe afb4 fd3f 0333 96bf
000001d0: 66fb 12c0 3872 5cbe 5546 5bbe 015e d93f
000001e0: 25d9 a73e c166 b43e 2f69 c0bf fc52 89bf
000001f0: d5c2 ad3d 7e2d 6d3f aec0 153f 793b 993f
00000200: 0aed 61bf e1a6 9fbf fe8a 99bf 9a53 e63e
00000210: 191b ecbf 452a d6be feb5 93bf 7daf a13f
00000220: 99bf b5bf ebc7 a6bf fd58 ea3c 0ae3 26c0
00000230: 03b8 d03f 97b3 61bf 7def 0dc0 7613 af3f
00000240: ad0b 933f 0f98 2e3e dce4 68bf e33d e7be
00000250: 6b26 5cbf ec39 87bf d5d5 573f 35bc ee3e
00000260: 5dc4 50be 7a72 903f 469d 50bf 944f 27bf
00000270: 616c 10bf beeb 7f3e 1030 043f fd1a 353f
00000280: d92c b9bf 3fce f2be 55b7 21bf 10c5 69bf
00000290: 18cf c33d 414d 59bf 2160 f43f 3e4d 57be
000002a0: 166f 09bf 4c29 7fbe f818 0ac0 6014 05bf
000002b0: e424 d73e 372a 90bf e50b 8abd 9807 313f
000002c0: 3d1b 4d3f a2bb 483d d928 c9bf 3f9a c5be
000002d0: 4404 973e fcb9 b3bf ebf8 0e3f c74e c33f
000002e0: e0af 583f 154f 44bf fc35 d3bf bdd7 30bf
000002f0: 8be3 33bf e21a 54bf db3b bcbe 2984 623f
00000300: 9009 7b3f d047 7b3f b049 8ebf e8d2 23bf
00000310: 1457 f0bd 4b27 373f d365 123f 21a4 a63f
00000320: 43e4 b03e 7745 a4bf 25a1 943f e079 50bf
00000330: 77bc c9bf 710d d6be a423 1b40 6d0a cd3f
00000340: a412 983f 230d 25bf 9571 983e 788d ecbe
00000350: 7811 b0bf 2cf2 52bd dcc3 323f 987c 313f
00000360: aba1 4dbe 6640 853f 6250 93bf 54b0 4ebf
00000370: 54a5 6ebe 556a fabe 0a26 9fbf bb49 bf3e
00000380: 6592 373f 9b2f 5d3f 2801 20bf b464 90be
00000390: a15c 24bf da60 9dbf c586 9b3c f607 223f
000003a0: d052 f2bf dd2d c43f 09e2 9dbf 6465 91bf
000003b0: 88e0 8dbf 391d e23e 3b69 3ebb fbdf 99be
000003c0: 7681 c23e 8ef1 813f 63e8 c0bf 1d04 fdbe
000003d0: 8059 03bf ed0a e43d f3e8 223f 9417 903e
000003e0: 9ca1 8d3f 2d26 1ebf b853 9dbe a68d 51be
000003f0: 2919 f0bf dd60 32be 8f33 883f accd 893f
-0.35341832 -4.726223 -0.49631813 -1.8079828 1.5698823 -0.9068438 -0.93235195 1.7311542
-1.8321426 1.4616754 0.9484308 -1.1359172 -1.1998833 0.53073597 0.45588174 0.3866247
-0.04025735 1.2997365 0.3744757 -0.16830312 -0.56068677 -2.522154 -0.0975316 0.15027131
0.60584974 0.44247028 -0.8851204 0.1866409 -1.1171366 -1.4939555 0.41189647 0.1815182
-0.8360512 0.070590705 -0.24658875 -0.955354 0.30279458 -0.64812183 1.058275 0.46103153
-0.22381127 -1.053498 -1.3102785 -2.8378782 1.0928408 -1.2891191 0.31645122 0.98088086
-1.8961483 -1.3652176 -0.27216527 -2.5103488 2.4197116 -1.338802 0.5726341 0.4154637
-1.1380806 -1.2816031 -1.4142828 -0.8539103 -0.81409824 0.4309628 0.9162442 0.46115556
-0.029958535 0.39719525 -0.9898291 -0.0871241 -0.29258218 -0.91309816 -0.06257208 0.81813765
0.21029969 2.1473846 -0.38970163 -1.250266 0.26853034 -0.22074404 -0.37536812 0.7780939
-0.5698421 0.51933634 -0.2537504 -0.9060343 0.1455833 -0.37710637 0.9661731 1.4303483
-0.22484761 -0.07666197 -0.9362267 -0.5862984 -0.14330922 0.7582097 0.40196174 1.0809568
-1.5261168 -2.7488377 0.19026025 -2.7711375 2.5131567 -0.9933763 -1.3958299 0.030579286
1.0831339 1.1324434 0.502391 -0.71087056 -0.56391954 -0.15867308 -0.79133564 1.7473499
-0.44454378 -0.18743618 1.9820765 -1.1734318 -2.2965941 -0.21527946 -0.21413548 1.6981813
0.32782856 0.35234645 -1.50321 -1.072845 0.08484427 0.9264754 0.5849713 1.1971275
-0.8825232 -1.2472802 -1.1995542 0.44985658 -1.844577 -0.41829124 -1.1539915 1.263168
-1.4199096 -1.302976 0.028606886 -2.6076074 1.6306156 -0.8816466 -2.2177422 1.3677814
1.1487938 0.17050193 -0.9097421 -0.45164403 -0.8599612 -1.0564551 0.84310657 0.46627966
-0.20387407 1.1284935 -0.8148998 -0.653558 -0.56415373 0.24992272 0.5163584 0.70744306
-1.4466811 -0.47422978 -0.6317037 -0.9131632 0.095609844 -0.84883505 1.9091836 -0.2102556
-0.5368513 -0.24918097 -2.157774 -0.51984215 0.42020333 -1.1262883 -0.0674055 0.6915221
0.8011969 0.049007066 -1.5715591 -0.38594243 0.29495442 -1.4041133 0.5584857 1.5258416
0.84643364 -0.7668317 -1.650085 -0.6907919 -0.7026908 -0.8285352 -0.36764416 0.8848291
0.98061466 0.9815645 -1.1116238 -0.6399369 -0.11735359 0.7154433 0.5718662 1.3018838
0.3454915 -1.2833699 1.1611677 -0.81435966 -1.576064 -0.4180713 2.4240503 1.6018807
1.1880689 -0.6447317 0.29774156 -0.46201682 -1.3755331 -0.051500484 0.6983011 0.6933074
-0.20081203 1.0410278 -1.1508906 -0.80737805 -0.23305255 -0.4890925 -1.2433484 0.3736094
0.71707755 0.86400765 -0.62501764 -0.2820183 -0.6420384 -1.2295182 0.018985162 0.632934
-1.8931522 1.5326496 -1.2334605 -1.1359067 -1.1084146 0.4416292 -0.0029054421 -0.30053696
0.37989396 1.0151842 -1.5070919 -0.494172 -0.5130844 0.111348964 0.636367 0.2814299
1.1064944 -0.61777 -0.30727935 -0.20464191 -1.8757678 -0.17419763 1.0640734 1.0765891

weight f4 [1682, 8]
00000000: e47d 923e 1145 163f edca a3bf c96e 0ac0
00000010: 6675 02bf 14ec 10bf 7eb3 263f 4cad 22c0
00000020: b23b 1ebf 6cc0 fabd f507 94bf c141 e7bf
00000030: 0137 ba3f e587 2dbf e095 293e dcab c7be
00000040: e510 abbf 5ccc 3240 180e 583f e8cc 2bbf
00000050: e3cc 863e a879 ed3e 0acf b73c 49f0 ddbf
00000060: d0c7 aabf d875 0c3f bc3d 4ebf ff16 d3bf
00000070: 4cd3 8a3f aa4c 2ebf 6927 f63e a14c 75bf
00000080: 19f5 d4be 8933 72be bedf debd d77c febe
00000090: 61e7 983f de15 f1bf 9a4b 083f ce70 46bf
000000a0: f1c0 883f 615f 10be 4456 d1bd 8626 133e
000000b0: 430a 9d3f a3be 01c0 118a dbbd caf1 2ebf
000000c0: 5675 73bf f9d8 2b3f e790 6bbf cb65 ecbf
000000d0: 1d19 77be c790 f8bf 816e f7be 8d0f 5ac0
000000e0: 5558 e6be fe5e 2ebe 6430 c6bf 8087 d4bf
000000f0: c0fc ae3e d7df 8dbf d27b 0bbd 3221 80bf
00000100: a5b2 75be 217e b5be aa5e 6dbf cbac 09c0
00000110: 9041 5ebf 6917 f7be 9cbf 03bd 5277 babf
00000120: 389e 3bbf e71d 713f 5a20 2140 24fd 68bf
00000130: 73e9 a7bb ec3f 8b3f 5c72 c43e af12 f8bf
00000140: 67e4 37bf ff8f b2be 58fd 4bbf 2c64 f2bf
00000150: e253 813f 6c5e 4fbf 03fc 65bf c07e c9bf
00000160: 7de3 86be 77ea 203d 0e86 47bf 06ea 0fc0
00000170: b3f9 573f 6893 863d 8e9e 173e a24d 1ec0
00000180: daba 763e beca 953f 48ca f73d 7199 7abf
00000190: 753f 933e 03bc 8abf c038 cebf af60 17c0
000001a0: 1b3a 463f aaf8 103f 4adc 833f 0e53 9fbf
000001b0: 9336 d3be 0a8d 24bf 4f51 5c3f ee62 0ac0
000001c0: a221 b9be e8d9 473f 898e 233f e2fd a1bf
000001d0: 5f09 7fbe 86fc cabc 2f31 1b40 b8f4 47c0
000001e0: de2e 87be 9ff4 da3f 4c71 1a3f 7296 59bf
000001f0: 37e8 3cbe 63ef 60bf dfbd 98be 07a4 09be
00000200: 45a3 7fbe 2582 fcbd 6de8 2abf 35fc 89bf
00000210: 5607 913f 9726 f5bf cf41 b03f c20e c0bd
00000220: dc56 11bf 033c d43d 92a6 2140 0afe 813e
00000230: 55bd 0a3f 4d41 8cbe 055b 8d3d 5f56 fabe
00000240: 6158 21bf f3f0 b33e 1e25 b23f ddf1 ddbe
00000250: fe58 81be 6a0d 56bf 693b 00c0 99ad c7bf
00000260: 14dc c4be 8206 a83e 5d19 9e3f fd06 42bf
00000270: 0a01 a43e 9f7c 2ebf 892c 23bf 2fac 8dbf
00000280: 0315 473d 9843 2440 90bb 5b3e f581 32bf
00000290: b9a2 c23f c080 01c0 ccd3 ca3d 54d6 d2bf
000002a0: 2bea 82bf 4437 b63e b2f4 60bf 50ba 01c0
000002b0: b98f 723f ac2d 4bbf 4ff4 0a3f 7e75 e3bf
000002c0: 7aac b7be 1dcf 843f f7d1 23c0 de5d fdbf
000002d0: ca8b 633f 0b55 09bf 387a 54be b929 0dbf
000002e0: 8134 f73e 0197 9d3f f4b4 1bbf 4b56 adbf
000002f0: 32c3 1dbe 8b25 45bf f9bc d6be 2b30 81bf
00000300: 2d77 ae3e baba 463f 7880 28be 21dc a9bf
00000310: b79b 92be 4963 f8be 4c92 8cbe 5e31 19c0
00000320: 991a 88bf dd1d e83f 6108 c3bf 062b babe
00000330: 97f5 d23f a49e dfbf 16ab eabf 4c64 5abf
00000340: 7895 ef3e 5913 d33f 3629 58bd 8b3b b8bf
00000350: afa7 293f e08d 3ebd 417c 5a3e 48b8 073f
00000360: 81c8 11c0 26cd 27bf 14c5 1e3d 8b3e 0cc0
00000370: 1999 693f dfc5 cbbf 607b 6a3f 82e7 e8bf
00000380: a4be 96be 6082 d43e 2482 d8be 034a 09c0
00000390: 98ab db3f e824 bdbf 5dbf 54bf 8966 803f
000003a0: 0679 ab3f ce34 893f 0114 993e 088c fdbe
000003b0: 0525 1040 2316 2dbe c509 afbf 49e8 e8bc
000003c0: 51f1 a63e 837f 663f c9ae 82bf 235c c3bf
000003d0: c905 a03f e4b0 2ebf 22c1 12bf e514 94bf
000003e0: 2c36 3d3f 5d12 013e 0273 60bf c031 88bf
000003f0: a593 633f ee5c dbbe 0a00 c5bf 6b6e 46bf
0.28611672 0.58699137 -1.2796303 -2.1630118 -0.50960386 -0.56610227 0.65117633 -2.5418272
-0.6180984 -0.12243733 -1.1564928 -1.8066941 1.4548036 -0.67785484 0.16561079 -0.38998306
-1.3364531 2.793723 0.84396505 -0.6710954 0.2632819 0.4638188 0.022437591 -1.7338954
-1.3342228 0.54867315 -0.8056295 -1.6491393 1.0845733 -0.6808573 0.48076943 -0.9582005
-0.41593245 -0.23652472 -0.10882519 -0.4970462 1.1945611 -1.8834798 0.5324036 -0.77515876
1.0683881 -0.14098884 -0.10221532 0.14370164 1.2268757 -2.0272605 -0.107196935 -0.6833769
-0.95100915 0.6712795 -0.9201798 -1.8468565 -0.24130674 -1.9419183 -0.48326495 -3.4071991
-0.44989267 -0.17028424 -1.5483518 -1.6603851 0.34177208 -1.1083935 -0.03405363 -1.001013
-0.23993929 -0.3544779 -0.9272257 -2.1511714 -0.8681879 -0.48260048 -0.032165155 -1.4567664
-0.732883 0.9418625 2.5175996 -0.9101126 -0.005124265 1.0878882 0.383685 -1.9380702
-0.7183289 -0.34875485 -0.79683447 -1.893682 1.0103724 -0.8100345 -0.89837664 -1.5741806
-0.26345435 0.039286103 -0.77938926 -2.2486587 0.84365386 0.06571084 0.14806578 -2.4734883
0.24094716 1.1702497 0.12099129 -0.97890383 0.2875935 -1.0838627 -1.6111069 -2.365276
0.7743241 0.5662943 1.0301602 -1.2447221 -0.41252574 -0.6427771 0.8606157 -2.1622882
-0.36158472 0.78066874 0.63889366 -1.2655604 -0.24905919 -0.024778616 2.424877 -3.1243114
-0.26402944 1.7105902 0.6032913 -0.84995186 -0.18447958 -0.87865275 -0.2983236 -0.13441478
-0.24964626 -0.123295106 -0.66760904 -1.0780092 1.1330364 -1.9152402 1.3770083 -0.09377815
-0.5677316 0.10363009 2.5257916 0.2538913 0.5419515 -0.2739357 0.06902126 -0.4889402
-0.6302548 0.35144767 1.3917577 -0.4334859 -0.25263208 -0.8361422 -2.003626 -1.5599853
-0.38449156 0.32817465 1.235149 -0.75791913 0.32032043 -0.68158907 -0.6373983 -1.1068171
0.048604023 2.5666256 0.21458268 -0.6972955 1.5205909 -2.0234833 0.09903678 -1.6471658
-1.0227712 0.3558904 -0.87873375 -2.0269966 0.94750553 -0.79366565 0.54279035 -1.7770231
-0.35873777 1.0375706 -2.5596902 -1.9794271 0.88885176 -0.5364539 -0.20749748 -0.5514179
0.48282245 1.2311708 -0.6082299 -1.354196 -0.15406492 -0.7701041 -0.4194105 -1.0092825
0.340753 0.7762867 -0.16455257 -1.3270303 -0.28634426 -0.4851325 -0.27455366 -2.3936381
-1.0633117 1.8134114 -1.5236932 -0.3636095 1.6481198 -1.7470288 -1.8333461 -0.8530929
0.46793723 1.649028 -0.052773677 -1.4393171 0.6627149 -0.04652202 0.21336462 0.53015566
-2.2778628 -0.65547407 0.038762167 -2.1913173 0.91249233 -1.591976 0.91594505 -1.819565
-0.29442322 0.41505718 -0.4228679 -2.1451423 1.7161741 -1.4776888 -0.831045 1.0031291
1.3396308 1.071924 0.29898074 -0.49520898 2.2522595 -0.16902976 -1.3674856 -0.028431075
0.32605985 0.9003832 -1.020959 -1.5262493 1.2501765 -0.68238664 -0.5732595 -1.1568877
0.73910785 0.12604661 -0.8767549 -1.0640182 0.8889716 -0.42844337 -1.5390637 -0.77512234

weight f4 [1, 8]
00000000: e05a 9f3e 7a05 02bf 0222 103f 0457 b33f
00000010: c32e b43f bc7f 223f 2512 ac3e 107e 5bbf
0.3112402 -0.50789607 0.5630189 1.401093 1.407677 0.6347616 0.33607593 -0.8573923
