models/MLP16.pt (torch, 179823 bytes, 9 tensors)

weight f4 [944, 16]
1.5690773 1.3856903 -0.20731466 -0.4637252 0.107172914 -0.49448124 -0.31220558 0.3133885
1.0625527 -0.20757152 -0.09646015 -0.83306205 0.69335353 -0.6781621 0.3796896 0.8753666
0.47228944 -0.32738388 -1.8057436 0.9855481 1.7001989 -0.7365826 0.1878752 -0.15307781
1.1232853 0.90066046 -1.048329 0.4540382 0.4667485 0.47048384 0.12724273 0.35676798
-1.7797047 -1.1659981 -0.908486 1.6731987 1.0972357 -1.4678564 0.43284595 -0.0006310802
0.16898438 -0.27426788 0.7416836 -0.51715803 0.49849242 0.13055857 -0.58325076 0.8250486
-0.06046952 -0.85288906 0.31665918 1.0417022 0.11240039 0.9840582 -0.4890109 -0.0038946175
-2.2251916 1.0238647 -2.0723252 -0.31172928 -0.6802409 0.4811982 -0.96570486 -1.0401176
0.8368532 -0.30159172 0.7063504 1.1449838 -0.5312956 -1.4409467 -0.6643712 -0.6400119
1.3717879 0.6628813 1.6269811 -1.5270306 0.72750604 -2.1469045 -0.03494052 -1.6182586
-0.21269475 -0.022451973 0.8038162 0.82315 -1.7413168 -1.1065365 0.50090075 1.8201866
1.5909337 -0.32897812 -1.0880392 -0.030556262 0.073595636 -0.5762827 -0.582151 -0.5335784
0.60830015 1.4347228 -0.9223851 0.17991029 0.91841435 1.0144181 0.7460022 1.2776989
0.91384125 -0.5664126 1.4280545 0.6611888 1.2770972 -0.79766446 -0.03307542 -0.2218941
1.2265929 -0.06292053 -0.25224888 -0.04743349 -1.6576014 -0.3447689 0.04566194 1.6991926
-0.8632693 0.45638335 1.1062053 -0.13747634 0.2455489 -0.34758288 -1.4144121 1.9671718
-0.15626542 0.24682975 0.9341056 -0.5685888 -1.1671672 0.21024515 0.45729315 0.35909396
-0.32303432 -0.9244455 -1.4246125 -0.25135276 -1.4918873 -0.84173524 -0.36905715 0.7015178
-0.06834531 0.43844026 -0.47432092 0.33156368 -0.1830357 -0.2821737 0.72710824 1.0276041
-0.9358903 0.13970895 -0.61965525 -0.60002625 0.013685358 -1.3755907 -1.0047493 0.796
1.0612457 -0.5140583 0.15496087 1.3044143 -1.9673092 -0.37516448 -0.6512041 -0.32414317
-0.48986378 -0.14097553 -0.16083276 0.9380811 -0.63089883 0.7847579 -0.95212835 -0.4128819
0.67603165 -0.5639863 -0.4566659 -0.14285468 -0.28674215 -0.6839973 1.0019017 0.37432006
0.4357244 -0.7164367 -0.9712473 -0.08341271 -0.37983894 0.21599354 -0.021428883 -0.11730855
-1.3030164 -0.45580637 0.38466 0.7787273 1.4662687 -0.60486203 -0.37644815 0.07366034
-0.622871 -1.2037449 -0.7441133 -0.61448115 0.51706606 -0.83972245 0.2497189 0.3791982
-2.7351196 0.23461641 -0.13057546 -0.27584848 0.19338696 -1.4084604 0.98318386 1.2260189
-0.093097925 -0.7767443 0.8218156 -1.9753685 -0.21526502 -0.2840445 -1.7084149 -0.1697669
0.8010765 -0.8531677 0.8538515 0.8124665 0.118670836 -0.87699723 -1.5156071 -0.60806936
-3.2349796 0.4882794 -2.5693524 -1.386788 1.0139393 0.7162843 -2.1474712 -0.57473856
0.48764512 0.61498886 -0.15717506 -2.1529672 -1.0791994 -0.7950701 -1.555034 -0.7029528
-0.059062485 0.77972245 -0.2912177 0.36468378 -1.6850673 0.38892975 -0.7677222 0.5835907
00000000: 86d7 c83f 4d5e b13f 4b4a 54be 646d edbe
00000010: 797d db3d a52c fdbe 69d9 9fbe 7574 a03e
00000020: ba01 883f a18d 54be e68c c5bd 8e43 55bf
00000030: 9e7f 313f 089c 2dbf ad66 c23e 0718 603f
00000040: eccf f13e dc9e a7be 9b22 e7bf e14c 7c3f
00000050: 1ea0 d93f ad90 3cbf 5b62 403e 6ec0 1cbe
00000060: d0c7 8f3f af91 663f a52f 86bf b277 e83e
00000070: a9f9 ee3e 42e3 f03e eb4b 023e 4baa b63e
00000080: 5dcd e3bf 6d3f 95bf 8a92 68bf 602b d63f
00000090: 3872 8c3f b8e2 bbbf fc9d dd3e 136f 25ba
000000a0: 3e0a 2d3e d76c 8cbe fade 3d3f 7864 04bf
000000b0: 663a ff3e 25b1 053e ec4f 15bf 6336 533f
000000c0: e3ae 77bd f056 5abf 2721 a23e 7f56 853f
000000d0: 2d32 e63d 3deb 7b3f a35f fabe d73c 7fbb
000000e0: 8a69 0ec0 000e 833f faa0 04c0 fb9a 9fbe
000000f0: 4524 2ebf 9c5f f63e 6f38 77bf 9322 85bf
00000100: 033c 563f 3b6a 9abe 61d3 343f d48e 923f
00000110: fd02 08bf f170 b8bf 3b14 2abf d2d7 23bf
00000120: bf96 af3f 97b2 293f eb40 d03f bd75 c3bf
00000130: d63d 3a3f e266 09c0 ca1d 0fbd 1923 cfbf
00000140: a7cc 59be 33ed b7bc e6c6 4d3f f5b9 523f
00000150: 78e3 debf fda2 8dbf 083b 003f e0fb e83f
00000160: b7a3 cb3f d26f a8be de44 8bbf 2051 fabc
00000170: 4fb9 963d 4387 13bf d907 15bf 9898 08bf
00000180: 8fb9 1b3f ffa4 b73f 6e21 6cbf 673a 383e
00000190: 341d 6b3f 74d8 813f 00fa 3e3f a38b a33f
000001a0: 80f1 693f 6b00 11bf 7dca b63f ab43 293f
000001b0: ec77 a33f bd33 4cbf 177a 07bd 3538 63be
000001c0: ff00 9d3f 7bdc 80bd c426 81be 9f49 42bd
000001d0: 482c d4bf 8d85 b0be 0408 3b3d 257f d93f
000001e0: 38ff 5cbf 14ab e93e 2398 8d3f 99c6 0cbe
000001f0: 2c71 7b3e 62f6 b1be 750b b5bf 49cc fb3f
00000200: 0b04 20be f0c0 7c3e 8b21 6f3f 098f 11bf
00000210: bc65 95bf 814a 573e 5422 ea3e 2adb b73e
00000220: c164 a5be 76a8 6cbf b459 b6bf 4fb1 80be
00000230: 2af6 bebf f67b 57bf 0ff5 bcbe ac96 333f
00000240: a0f8 8bbd 3e7b e03e 31da f2be b7c2 a93e
00000250: b66d 3bbe 1279 90be c423 3a3f 8888 833f
00000260: 8296 6fbf dd0f 0f3e baa1 1ebf 529b 19bf
00000270: 8d38 603c 5b13 b0bf a09b 80bf a8c6 4b3f
00000280: e6d6 873f 5399 03bf 10ae 1e3e 0cf7 a63f
00000290: cad0 fbbf 8f15 c0be 50b5 26bf 18f6 a5be
000002a0: 6dcf fabe e45b 10be 58b1 24be 1526 703f
000002b0: 9682 21bf e5e5 483f afbe 73bf 4265 d3be
000002c0: 6910 2d3f 6861 10bf 1dd0 e9be 7f48 12be
000002d0: decf 92be 721a 2fbf 513e 803f e1a6 bf3e
000002e0: 4517 df3e 6568 37bf aaa3 78bf 48d4 aabd
000002f0: 407a c2be 692d 5d3e a08b afbc 773f f0bd
00000300: 3ec9 a6bf 745f e9be 28f2 c43e ac5a 473f
00000310: b1ae bb3f 3dd8 1abf d0bd c0be 3bdb 963d
00000320: 7974 1fbf 5014 9abf 367e 3ebf a34e 1dbf
00000330: 715e 043f 0df8 56bf 50b6 7f3e 4426 c23e
00000340: 330c 2fc0 493f 703e 93b5 05be 033c 8dbe
00000350: 3b07 463e 6e48 b4bf f0b1 7b3f 30ee 9c3f
00000360: 20aa bebd b7d8 46bf 8262 523f e0d8 fcbf
00000370: 6f6e 5cbe 486e 91be 57ad dabf 60d7 2dbe
00000380: 5913 4d3f 3369 5abf 0396 5a3f cefd 4f3f
00000390: b209 f33d e482 60bf 6aff c1bf 6faa 1bbf
000003a0: e809 4fc0 c2ff f93e 4570 24c0 4582 b1bf
000003b0: c3c8 813f 685e 373f 2b70 09c0 1122 13bf
000003c0: 9fac f93e e96f 1d3f 80f2 20be 37ca 09c0
000003d0: 3523 8abf b789 4bbf 5b0b c7bf b7f4 33bf
000003e0: 81eb 71bd e49b 473f 7d1a 95be d5b7 ba3e
000003f0: 49b0 d7bf cd21 c73e 7189 44bf 3366 153f

weight f4 [1683, 16]
-1.4221182 0.78289485 -0.24045467 -0.4161658 0.15972179 0.23423061 0.44698408 -1.1173023
-0.34051394 -0.7875742 0.25068632 0.86425656 -0.7489125 -0.37646872 -1.9290637 -0.69622374
0.9117043 -2.546893 -0.54048973 0.37914193 0.23386332 -0.23600823 -0.41281977 0.29717588
1.2757677 -0.14870232 1.6710148 -1.4482629 -0.64069164 -0.58258176 -1.160076 0.08397526
1.3380191 1.3252091 -1.0264609 2.2836485 -1.5710139 -0.18918751 -0.12340711 1.2637684
0.6799978 0.49050927 0.5973139 -0.45669118 1.0981649 -0.6194798 -0.5868922 1.2251272
0.3891601 0.6353545 0.26247123 -1.4548143 -0.6227701 1.7040774 -0.50916976 0.47518086
-0.83560723 -1.3427399 -0.056614008 -0.45459607 0.17070426 0.13070299 0.44950807 1.3475504
-0.8375975 0.5763478 0.34722975 -0.011435511 -0.2531653 0.8015149 1.540647 -1.5209389
-0.3181328 0.07339136 0.108570375 -0.2683918 -2.0908582 -1.0113008 -1.5052791 0.40906233
-0.6401084 -0.45981428 0.99250203 0.36190814 -0.7070405 0.024032129 0.9223578 0.12930378
-0.043536 -0.86063033 0.06254736 0.80129164 -1.7959216 -1.3677866 -0.2402434 1.3022265
0.39845568 -0.5431169 0.47059986 0.47703344 1.5907451 -1.8487575 -0.15371397 0.3725768
1.1931864 -1.6008056 1.0574479 1.0948806 0.10103872 -0.48074603 -1.0415317 0.8694709
-1.755662 0.7163599 0.33909175 -0.06756293 0.68767637 -0.20931932 0.2776219 1.8211628
1.0929735 -0.7911464 -0.4674203 -0.4303167 0.7406131 1.6715626 1.0259446 0.81093305
0.85447276 -0.49316928 -0.12280451 -0.29168916 -0.3111988 1.4659498 -1.3586742 -1.4575744
-0.46705663 -1.4599422 1.3421061 0.33542252 -0.72355497 0.16823874 0.8966138 0.19647837
0.9263357 0.5376016 0.34057957 -1.1263418 -1.2616808 -1.7161188 0.2942925 1.2974806
-0.45310676 -0.111012824 0.6811608 0.21085384 -2.5958595 0.46616983 -0.7769701 1.8480315
-0.113163486 -1.5256664 0.1529278 -1.2306514 -1.6827682 -0.51746553 -2.1390033 0.43726107
-0.41102722 -0.73054034 0.48013937 -0.28894198 -0.992337 0.40144616 -0.8459766 -0.09354283
-0.035214923 0.08969168 0.6794559 -0.88339823 -0.040394776 2.0921042 0.6270743 -1.39904
-0.13552031 0.7147999 -0.9289328 0.22625805 -0.339931 -0.06277702 -0.7769412 -0.2265938
0.5604527 -1.4775532 1.1373034 0.41405317 -0.5014821 0.5576073 -0.54757243 0.15095972
-1.294521 -0.3910502 -0.01678835 0.491414 0.97289914 -0.8552337 -0.50346696 0.3232973
-1.515529 0.15417618 -0.52224874 -0.45461014 -0.38180414 0.13183068 1.0193695 -0.7249856
-0.6725827 -0.12962045 -0.011695598 0.6268432 0.34370026 -0.55210114 0.6345131 1.393915
-1.2338885 -0.22671777 1.9435571 1.2633101 -0.65523463 -0.7603897 0.113264814 -0.95085466
0.34561357 -1.3165815 -0.6034802 0.45356676 0.51617825 0.7788151 0.37220913 -1.1951449
0.40009037 -0.33181876 -0.59963405 -0.85151064 -0.72017926 0.5484581 -1.4715575 0.74303675
0.9043493 0.26473927 0.9828672 -1.60489 1.6859792 -0.4725663 1.2961248 -2.5359375
00000000: f807 b6bf cc6b 483f c039 76be af13 d5be
00000010: 1c8e 233e 26da 6f3e 19db e43e c303 8fbf
00000020: d857 aebe 769e 49bf f559 803e eb3f 5d3f
00000030: bbb8 3fbf 82c0 c0be 8feb f6bf b83b 32bf
00000040: 7465 693f 4b00 23c0 895d 0abf e41e c23e
00000050: de79 6f3e 24ac 71be 1d5d d3be 7027 983e
00000060: 5b4c a33f 6c45 18be d0e3 d53f ae60 b9bf
00000070: 5e04 24bf 1424 15bf 5f7d 94bf 39fb ab3d
00000080: 3644 ab3f 74a0 a93f 1263 83bf 4c27 1240
00000090: fc16 c9bf 5fba 41be debc fcbd 2ac3 a13f
000000a0: 5614 2e3f 0824 fb3e 90e9 183f 6dd3 e9be
000000b0: ab90 8c3f 3a96 1ebf 913e 16bf f8d0 9c3f
000000c0: fe3f c73e 98a6 223f a162 863e 5b37 babf
000000d0: dc6d 1fbf 351f da3f f358 02bf e84a f33e
000000e0: 5bea 55bf e7de abbf 17e4 67bd d1c0 e8be
000000f0: 19cd 2e3e 01d7 053e ec25 e63e 887c ac3f
00000100: ca6c 56bf 888b 133f 19c8 b13e 025c 3bbc
00000110: e29e 81be 1530 4d3f ec33 c53f 20ae c2bf
00000120: 4de2 a2be 364e 963d 255a de3d a66a 89be
00000130: 9fd0 05c0 4e72 81bf fcac c0bf 9e70 d13e
00000140: 25de 23bf c76c ebbe 9d14 7e3f 064c b93e
00000150: 9b00 35bf 07df c43c a41f 6c3f 3668 043e
00000160: ce52 32bd 4552 5cbf d518 803d 7321 4d3f
00000170: c2e0 e5bf a213 afbf 5e02 76be 5caf a63f
00000180: 6202 cc3e b609 0bbf 77f2 f03e ba3d f43e
00000190: 899d cb3f 16a4 ecbf 3267 1dbe 63c2 be3e
000001a0: 55ba 983f 33e7 ccbf 745a 873f 0c25 8c3f
000001b0: 63ed ce3d 5824 f6be e950 85bf a595 5e3f
000001c0: 88b9 e0bf 5d63 373f 6f9d ad3e 6f5e 8abd
000001d0: 8f0b 303f ce57 56be 7524 8e3e dd1b e93f
000001e0: 8ee6 8b3f 9288 4abf b751 efbe 7852 dcbe
000001f0: d298 3d3f c3f5 d53f 2752 833f 4f99 4f3f
00000200: babe 5a3f af80 fcbe ee80 fbbd 4858 95be
00000210: 7355 9fbe 3ea4 bb3f 09e9 adbf cc91 babf
00000220: 0c22 efbe 63df babf 22ca ab3f 80bc ab3e
00000230: e63a 39bf c746 2c3e 7b88 653f a031 493e
00000240: 5624 6d3f 42a0 093f 7260 ae3e f82b 90bf
00000250: c27e a1bf c8a9 dbbf 82ad 963e d813 a63f
00000260: 9cfd e7be b15a e3bd 8e60 2e3f 12ea 573e
00000270: 9022 26c0 d0ad ee3e 83e7 46bf 4c8c ec3f
00000280: 42c2 e7bd 0949 c3bf 1b99 1c3e fc85 9dbf
00000290: f364 d7bf 9f78 04bf 6ee5 08c0 afe0 df3e
000002a0: 2972 d2be b104 3bbf d4d4 f53e 34f0 93be
000002b0: cc09 7ebf 5a8a cd3e ec91 58bf 6293 bfbd
000002c0: 863d 10bd 46b0 b73d d2f0 2d3f 6326 62bf
000002d0: fe74 25bd 09e5 0540 f187 203f be13 b3bf
000002e0: d6c5 0abe 20fd 363f 8ace 6dbf 31b0 673e
000002f0: 700b aebe 3d91 80bd 9ee5 46bf 3508 68be
00000300: d479 0f3f 7720 bdbf 2893 913f c7fe d33e
00000310: 2261 00bf 5abf 0e3f b52d 0cbf 2f95 1a3e
00000320: ddb2 a5bf bb37 c8be b987 89bc 9e9a fb3e
00000330: eb0f 793f 99f0 5abf 36e3 00bf 3987 a53e
00000340: dbfc c1bf 5ce0 1d3e 18b2 05bf a9c2 e8be
00000350: d57b c3be 9ffe 063e b37a 823f a898 39bf
00000360: 612e 2cbf 39bb 04be e59e 3fbc cc78 203f
00000370: 7bf9 af3e 8056 0dbf 736f 223f cf6b b23f
00000380: 0ff0 9dbf b428 68be 7bc6 f83f 25b4 a13f
00000390: 75bd 27bf e6a8 42bf 62f7 e73d 366b 73bf
000003a0: 43f4 b03e be85 a8bf ae7d 1abf e739 e83e
000003b0: 4224 043f 6d60 473f 3292 be3e 82fa 98bf
000003c0: a5d8 cc3e 26e4 a9be 9e81 19bf 9afc 59bf
000003d0: ab5d 38bf c067 0c3f ff5b bcbf a837 3e3f
000003e0: 7083 673f e88b 873e 2f9d 7b3f 096d cdbf
000003f0: 2bce d73f 36f4 f1be 6be7 a53f cd4c 22c0

weight f4 [32, 32]
0.26694992 -0.25260216 -0.4101933 -0.39847544 0.30049935 -0.37332222 0.18067813 -0.16968697
-0.025984105 -0.091469556 -0.13303751 0.1998768 0.13124475 -0.042761553 0.22196415 -0.13135366
0.19692747 -0.32135174 0.15117647 -0.22708966 -0.010408888 -0.067212895 -0.22352207 0.083596595
-0.11203482 -0.20906346 -0.08386904 -0.09823516 0.045314997 -0.23406483 0.0043576336 -0.04662092
0.037779022 -0.03826871 -0.26589867 0.066949815 -0.013664417 0.20801313 0.036627185 0.040160466
0.15214086 -0.05945042 0.07872736 -0.015391732 0.10848898 0.05049565 0.26871 0.08930462
-0.1273299 -0.20879626 0.22850926 -0.22028092 0.03600616 0.16168328 -0.21799412 0.19040295
-0.1205079 0.013194205 0.0714873 -0.26598844 0.14818594 -0.23257656 0.03154036 0.13327664
-0.0065380037 -0.17244716 -0.2813649 -0.3689204 0.24265386 -0.30779013 0.28214002 0.021937937
-0.23274037 -0.28398052 -0.3817014 0.069877505 -0.20773037 0.23613632 0.17061538 -0.03363084
-0.38454014 -0.40875322 -0.0056646625 -0.094967656 0.27977222 0.5393104 -0.21749686 -0.0019215393
-0.40253428 -0.31566492 -0.049215045 -0.087904744 -0.16698565 0.16082348 -0.24867563 0.3054019
-0.13420612 0.3190959 -0.11459423 0.046399973 -0.10945004 0.25151476 0.1745628 0.12853248
0.2419814 -0.0964951 -0.0021722608 -0.0608637 0.11840461 -0.03048176 -0.0085787885 -0.009882953
0.30327043 0.009262561 0.38520756 -0.13086917 -0.36061347 -0.5430275 -0.034987886 0.34209535
0.42153928 0.2456107 -0.0935214 0.007763621 0.20615725 -0.30813676 0.19695508 -0.40477034
0.22733915 -0.19118464 -0.013710219 -0.14739473 0.2405063 -0.2416343 0.0030579309 -0.11015767
0.019261617 -0.040710587 -0.032913957 -0.13838913 0.04273532 0.08934313 0.1844172 -0.2549631
0.11710717 0.51305205 -0.3213658 -0.4956735 0.09716159 0.10267838 0.7097468 -0.56816053
0.12692037 -0.25399637 -0.48182636 0.3468214 -0.02946707 0.32725167 -0.26325792 -0.16443838
0.28200832 -0.3608512 0.039472066 -0.21561249 0.20580965 -0.42702404 -0.27255985 -0.47094467
-0.30168384 -0.20878947 -0.038977653 -0.0036450797 -0.06150211 -0.020051591 -0.15897913 -0.24500062
-0.2335638 0.07575269 0.19743067 0.1106463 0.15157056 -0.07943473 -0.38333982 0.13458693
0.08911927 -0.040321987 0.25667664 -0.4318065 0.0077510565 -0.27203563 0.104349636 0.14443389
0.093514055 0.03399663 0.13724437 0.20552479 0.032803297 -0.00792272 -0.22707474 -0.0885423
0.3295198 0.34821445 0.26583907 0.023090012 0.29231998 -0.32595995 0.018293586 0.073394544
0.07680969 -0.23882626 -0.037703987 0.029014515 0.30801696 0.2920922 -0.03055505 0.09526471
-0.41400942 -0.05436047 0.047110107 -0.033364274 0.15598525 0.29917422 -0.040999033 0.40254182
0.18043168 -0.18840119 0.040926304 -0.18682903 0.32050225 -0.2349185 0.16695324 -0.10641943
-0.027967226 0.10242114 -0.16041705 0.00078893703 0.24834047 0.010658474 -0.0004972194 -0.13246822
0.14702931 -0.12740283 0.22691718 -0.2794294 0.025167404 0.12102951 0.44619355 -0.35119852
-0.071486674 -0.38147363 -0.14907004 0.08152007 -0.50243074 0.102920055 -0.6413654 -0.21140614
00000000: a9ad 883e 1255 81be db04 d2be f904 ccbe
00000010: 0ddb 993e 1724 bfbe b003 393e 6cc2 2dbe
00000020: 9edc d4bc 6454 bbbd fc3a 08be 81ac 4c3e
00000030: 0665 063e bd26 2fbd 924a 633e 9381 06be
00000040: 5ba7 493e 3788 a4be 01ce 1a3e 318a 68be
00000050: 0a8a 2abc eaa6 89bd f8e2 64be b134 ab3d
00000060: 8372 e5bd bb14 56be 88c3 abbd 842f c9bd
00000070: 389c 393d b1ae 6fbe 7bca 8e3b 94f5 3ebd
00000080: 2dbe 1a3d a7bf 1cbd df23 88be fc1c 893d
00000090: b8e0 5fbc 6501 553e 6306 163d 4d7f 243d
000000a0: d0ca 1b3e 4982 73bd cf3b a13d 9a2d 7cbc
000000b0: 782f de3d 87d4 4e3d 5b94 893e 57e5 b63d
000000c0: c562 02be b0ce 55be 55fe 693e 5291 61be
000000d0: 327b 133d 4d90 253e da39 5fbe fef8 423e
000000e0: d9cc f6bd 822c 583c ef67 923d a32f 88be
000000f0: 0ebe 173e 8d28 6ebe 7730 013d ac79 083e
00000100: c03c d6bb fd95 30be 0f0f 90be 22e3 bcbe
00000110: 417a 783e ab96 9dbe a874 903e 30b7 b33c
00000120: 7e53 6ebe e565 91be 5e6e c3be f01b 8f3d
00000130: 45b7 54be b8cd 713e ccb5 2e3e 7ec0 09bd
00000140: 72e2 c4be 1a48 d1be a29e b9bb 677e c2bd
00000150: 4e3e 8f3e 3f10 0a3f 7fb7 5ebe 29dc fbba
00000160: f918 cebe d59e a1be b795 49bd 6707 b4bd
00000170: 49fe 2abe e9ae 243e d3a4 7ebe a35d 9c3e
00000180: 546d 09be 8a60 a33e 61b0 eabd e60d 3e3d
00000190: 5827 e0bd 8bc6 803e 97c0 323e 059e 033e
000001a0: f9c9 773e 399f c5bd 7d5c 0ebb 374c 79bd
000001b0: 1e7e f23d e2b4 f9bc 0c8e 0cbc 1cec 21bc
000001c0: 4346 9b3e ffc1 173c ed39 c53e 9102 06be
000001d0: 54a2 b8be da03 0bbf 754f 0fbd 1f27 af3e
000001e0: ffd3 d73e 5f81 7b3e 2688 bfbd f965 fe3b
000001f0: e31a 533e 1ac4 9dbe 98ae 493e 0f3e cfbe
00000200: 98cb 683e e8c5 43be d4a0 60bc a5ee 16be
00000210: 4947 763e fb6e 77be 9167 483b 589a e1bd
00000220: 8aca 9d3c 25c0 26bd c9d0 06bd e1b5 0dbe
00000230: 3b0b 2f3d 88f9 b63d ddd7 3c3e 868a 82be
00000240: e2d5 ef3d 6157 033f 0f8a a4be ebc8 fdbe
00000250: a8fc c63d 0b49 d23d f7b1 353f f872 11bf
00000260: 6af7 013e d00b 82be f2b1 f6be 9392 b13e
00000270: ed64 f1bc 888d a73e bec9 86be 8962 28be
00000280: 6563 903e 7dc1 b8be 76ad 213d 85c9 5cbe
00000290: c4bf 523e e5a2 dabe f78c 8bbe a91f f1be
000002a0: 4e76 9abe e8cc 55be 08a7 1fbd 4ae2 6ebb
000002b0: a3e9 7bbd 3c43 a4bc 6dcb 22be 71e1 7abe
000002c0: 592b 6fbe 3a24 9b3d 442b 4a3e 879a e23d
000002d0: 5035 1b3e adae a2bd 1e45 c4be 28d1 093e
000002e0: 2a84 b63d ab28 25bd 1f6b 833e be15 ddbe
000002f0: 93fc fd3b 4148 8bbe 43b5 d53d 7ae6 133e
00000300: 4c84 bf3d 0d40 0b3d ca89 0c3e 1775 523e
00000310: c05c 063d 4cce 01bc 4886 68be aa55 b5bd
00000320: d2b6 a83e 2a49 b23e 0f1c 883e 4427 bd3c
00000330: f7aa 953e 39e4 a6be 6edc 953c e14f 963d
00000340: 664e 9d3d df8e 74be 7f6f 1abd d9af ed3c
00000350: 66b4 9d3e 1c8d 953e 964e fabc 251a c33d
00000360: 0bf9 d3be 16a9 5ebd 87f6 403d faa8 08bd
00000370: 99ba 1f3e 5d2d 993e 9aee 27bd f619 ce3e
00000380: 15c3 383e 3eec 40be 57a2 273d 1c50 3fbe
00000390: df18 a43e 7a8e 70be caf5 2a3e 6ef2 d9bd
000003a0: 861b e5bc 2dc2 d13d 5e44 24be abd0 4e3a
000003b0: f74c 7e3e e1a0 2e3c d457 02ba c0a5 07be
000003c0: da8e 163e e375 02be fa5c 683e 5f11 8fbe
000003d0: df2b ce3c 52de f73d 7b73 e43e 4bd0 b3be
000003e0: 9b67 92bd 8350 c3be d1a5 18be fff3 a63d
000003f0: 4d9f 00bf c0c7 d23d 8630 24bf da7a 58be

bias f4 [32]
0.55475736 -0.68194485 0.20572096 -0.42025664 -0.12687862 0.74424714 0.24577244 0.004435304
0.0011146931 0.014218829 0.154496 0.44858193 -0.034998246 0.35058087 0.000670323 0.12252102
-0.09004015 0.17417817 0.12853217 -0.13856624 -0.26874942 0.3155902 0.41559413 -0.6331809
0.13208278 -0.1818838 -0.47506255 0.015767915 0.82825774 -0.05973391 0.095447235 -0.69421834
00000000: 9404 0e3f f093 2ebf 84a8 523e e12b d7be
00000010: 78ec 01be fb86 3e3f c5ab 7b3e 0756 913b
00000020: e51a 923a 17f6 683c 3334 1e3e 88ac e53e
00000030: 525a 0fbd 567f b33e 9db8 2f3a 4dec fa3d
00000040: f866 b8bd c35b 323e f09d 033e 4fe4 0dbe
00000050: 8699 89be 0a95 a13e c1c8 d43e 2518 22bf
00000060: b540 073e bf3f 3abe 663b f3be b72b 813c
00000070: b308 543f 8bab 74bd d779 c33d 4bb8 31bf

weight f4 [16, 32]
-0.12564445 0.0010670889 -0.47963026 0.07778047 0.24184227 -0.23137 0.23211676 0.028337397
0.31535265 -0.14269835 0.34341243 0.04164156 0.29732415 -0.2903704 0.14953646 -0.31869778
-0.3465974 -0.06422804 0.19570331 -0.08700169 0.46699622 -0.27318144 0.0020446714 -0.0943751
0.31069866 0.6975474 -0.026463494 -0.17535861 0.09038277 0.13018523 -0.5079131 0.32262588
0.23174445 0.39210862 -0.48243603 0.54888654 -0.14650843 0.29033867 0.1098306 -0.2101156
-0.07712534 -0.012823828 -0.25712252 0.096413136 0.028727124 0.104594685 0.07471742 -0.54928505
0.29077855 -0.4357879 0.04025498 -0.51971817 -0.44681436 0.29388577 0.24031918 0.09806603
-0.76325 0.56680363 -0.08971742 0.4276291 -0.01500351 0.39061627 -0.65338385 -0.07053048
-0.04411965 -0.06271905 -0.311276 0.35382104 -0.069818094 -0.16788547 -0.11681611 -0.18735878
0.2417091 0.56488836 -0.03382453 0.15284693 -0.104077056 -0.09595505 -0.038931698 0.05154818
0.58380896 0.4104364 -0.11581079 -0.0849585 -0.14355563 0.059440646 0.09580807 0.19089681
0.034657374 -0.3436892 -0.33857855 -0.04119249 0.10163375 0.23662938 0.15615265 -0.087179035
-0.18306251 -0.040022198 -0.08750573 -0.29315418 -0.2901249 0.15901878 0.3417537 -0.31689698
-0.3403402 -0.17971519 -0.27707753 0.28676134 -0.14374174 0.22805223 0.2609369 -0.07731255
0.032494575 -0.059124347 -0.18999824 0.2884875 -0.23424283 -0.49543554 0.35940722 0.18032171
0.1963865 0.36749446 -0.15272003 -0.046309736 0.10915233 0.098969564 -0.078969926 -0.32600665
-0.16482116 0.1353502 0.12825611 0.138316 0.30915043 -0.6744232 -0.101667546 0.21816604
0.15272944 -0.14335094 0.35230997 -0.32617 -0.11308337 -0.38416508 -0.26696986 -0.13270994
-0.06375797 0.108423255 0.076199025 0.17629753 0.5372753 -0.124571316 -0.34900406 0.4804162
0.2065921 0.06359835 0.09024638 -0.4881467 -0.46535322 0.11528886 -0.241582 0.33888268
-0.20316625 0.18381928 0.003428868 0.055509258 -0.02168488 -0.48662964 0.026303113 -0.06453051
-0.0024323545 -0.3170684 -0.27299938 -0.2869476 0.1276243 -0.17166193 0.027003985 0.049877536
-0.27015474 -0.030566452 -0.12732308 0.28978744 0.25192615 -0.14597397 -0.10381779 0.4015476
0.019486252 0.33271515 0.27296758 -0.0022625257 -0.4174843 -0.07617215 -0.1936456 0.38190535
-0.30319354 0.04426009 -0.33297163 0.25318745 -0.18196306 -0.13114929 -0.028787982 -0.24389228
0.15384547 0.4051601 -0.043610636 -0.21074128 -0.25908452 -0.16950701 0.039100118 0.062258124
0.27877477 0.300017 -0.025082646 -0.059931174 -0.2541914 -0.02296156 0.07788305 -0.08081336
0.19678093 -0.017550133 -0.18440694 -0.16988793 -0.43291342 -0.1192798 -0.13280036 -0.013543584
-0.27142018 -0.3693944 -0.32886997 -0.13649458 0.1381772 0.006913383 0.013419709 -0.20427261
-0.14096458 0.004914343 0.11839746 -0.35851872 -0.04003033 -0.5639813 0.22129284 -0.24575439
-0.05699178 0.4508524 0.39071935 0.08660467 0.41105175 -0.021974375 0.32953456 -0.1802802
0.4331879 0.24968444 0.071875 -0.21328321 -0.1182816 0.059757568 0.5968832 -0.11684786
00000000: f0a8 00be 90dd 8b3a 1992 f5be 5e4b 9f3d
00000010: 80a5 773e 42ec 6cbe 04b0 6d3e d423 e83c
00000020: e775 a13e 841f 12be c1d3 af3e 5790 2a3d
00000030: df3a 983e 6eab 94be 1620 193e 5b2c a3be
00000040: 3775 b1be fe89 83bd 7366 483e f12d b2bd
00000050: 211a ef3e 70de 8bbe e5ff 053b bc47 c1bd
00000060: e513 9f3e 7792 323f f8c9 d8bc 3591 33be
00000070: 9a1a b93d 474f 053e 9806 02bf 382f a53e
00000080: 6b4e 6d3e 76c2 c83e db01 f7be d483 0c3f
00000090: 4e06 16be 45a7 943e deee e03d 8b28 57be
000000a0: e4f3 9dbd 081b 52bc 90a5 83be 4074 c53d
000000b0: 2555 eb3c bd35 d63d 7205 993d f29d 0cbf
000000c0: ede0 943e 971f dfbe 68e2 243d 400c 05bf
000000d0: dac4 e4be 3278 963e 3b16 763e d8d6 c83d
000000e0: 5a64 43bf 0b1a 113f c4bd b7bd 34f2 da3e
000000f0: 48d1 75bc dbfe c73e 2a44 27bf 4972 90bd
00000100: ceb6 34bd d872 80bd 915f 9fbe 0828 b53e
00000110: cafc 8ebd 2bea 2bbe 493d efbd fbda 3fbe
00000120: 9782 773e 869c 103f 978b 0abd e883 1c3e
00000130: 5a26 d5bd 1584 c4bd d876 1fbd 2f24 533d
00000140: 8174 153f b824 d23e 352e edbd b9fe adbd
00000150: 3f00 13be 0978 733d 0537 c43d 747a 433e
00000160: e4f4 0d3d 08f8 afbe 2b5a adbe 75b9 28bd
00000170: 5b25 d03d f94e 723e 7be6 1f3e ec8a b2bd
00000180: bd74 3bbe 51ee 23bd 3436 b3bd 4e18 96be
00000190: 408b 94be d2d5 223e 57fa ae3e 5240 a2be
000001a0: 1241 aebe 4207 38be 1bdd 8dbe 62d2 923e
000001b0: 0931 13be 8686 693e 8599 853e 0b56 9ebd
000001c0: 0819 053d 5f2c 72bd e68e 42be a2b4 933e
000001d0: 5add 6fbe baa9 fdbe 3904 b83e 41a6 383e
000001e0: 8b19 493e 3c28 bc3e a462 1cbe 47af 3dbd
000001f0: 428b df3d 8eb0 ca3d fcba a1bd 58ea a6be
00000200: e1c6 28be 3e99 0a3e 9255 033e b6a2 0d3e
00000210: f748 9e3e 00a7 2cbf 1337 d0bd eb66 5f3e
00000220: 1b65 1c3e 97ca 12be f961 b43e c1ff a6be
00000230: 4198 e7bd 49b1 c4be 46b0 88be 1de5 07be
00000240: 8a93 82bd 030d de3d 3c0e 9c3d 5787 343e
00000250: e08a 093f 3f1f ffbd a9b0 b2be 1df9 f53e
00000260: e18c 533e da3f 823d 18d3 b83d 5dee f9be
00000270: c742 eebe 911c ec3d 4661 77be 0882 ad3e
00000280: d00a 50be 1f3b 3c3e dcb6 603b ad5d 633d
00000290: 7da4 b1bc 8527 f9be a079 d73c 9228 84bd
000002a0: 2368 1fbb ca56 a2be 93c6 8bbe ccea 92be
000002b0: f2af 023e 25c8 2fbe 7637 dd3c 634c 4c3d
000002c0: b951 8abe 7f66 fabc fb60 02be 055f 943e
000002d0: 77fc 803e 337a 15be 6c9e d4bd a697 cd3e
000002e0: a2a1 9f3c a459 aa3e 68c2 8b3e e246 14bb
000002f0: 81c0 d5be 2500 9cbd 084b 46be 1989 c33e
00000300: 2f3c 9bbe 114a 353d 427b aabe c9a1 813e
00000310: 8654 3abe 004c 06be c6d4 ebbc e6be 79be
00000320: ab89 1d3e 2571 cf3e 11a1 32bd 90cc 57be
00000330: baa6 84be 3f93 2dbe 7227 203d 6002 7f3d
00000340: 91bb 8e3e d49b 993e 1f7a cdbc 647a 75bd
00000350: 6025 82be e219 bcbc 2681 9f3d 7a81 a5bd
00000360: f180 493e 4cc5 8fbc 2cd5 3cbe 1af7 2dbe
00000370: d4a6 ddbe f848 f4bd d1fc 07be e9e5 5dbc
00000380: 96f7 8abe 4321 bdbe a561 a8be 3cc5 0bbe
00000390: 537e 0d3e a989 e23b 57de 5b3c d72c 51be
000003a0: 0559 10be 7f08 a13b 5e7a f23d c48f b7be
000003b0: d8f6 23bd 1461 10bf 979a 623e 0aa7 7bbe
000003c0: 3670 69bd 20d6 e63e 5e0c c83e ca5d b13d
000003d0: 6075 d23e 9b03 b4bc c1b8 a83e 5f9b 38be
000003e0: ceca dd3e 47ad 7f3e 3333 933d ea66 5abe
000003f0: a03d f2bd 5ac4 743d 56cd 183f ee4d efbd

bias f4 [16]
-0.014000221 0.05222913 -0.13365306 -0.10839797 -0.4068285 -0.81706005 -0.32045484 0.17166634
0.078169174 -0.2253815 -0.46857047 -0.30467635 -0.07236175 -0.624756 0.14266416 0.8780302
00000000: 2f61 65bc 36ee 553d 59dc 08be c1ff ddbd
00000010: d34b d0be d92a 51bf a812 a4be 4dc9 2f3e
00000020: 2917 a03d 68ca 66be 78e8 efbe 8afe 9bbe
00000030: 6632 94bd 02f0 1fbf 8e16 123e 96c6 603f

weight f4 [8, 16]
-0.2865198 0.1476032 0.1805439 -0.083025 0.3862138 0.035949655 -0.20537268 0.26712522
0.14348039 0.17879389 -0.10486602 0.08601428 -0.17785336 -0.3817293 -0.33024597 0.36659917
0.38096228 -0.3501138 0.14824405 0.09120234 -0.029873734 0.19686064 0.2996684 0.15312828
-0.19795415 0.10721275 0.050610922 0.4979967 0.22605929 0.16378257 -0.7026929 -0.25547737
-0.014475731 0.3096586 0.34697336 0.25145543 0.2869423 0.13982022 0.23574346 0.15612888
-0.0626983 0.38027063 0.24938042 0.40598512 0.06384086 -0.089666285 -0.12235552 0.47085223
-0.3716436 -0.11364891 -0.28615645 0.056949314 -0.13046375 -0.37498042 0.13180241 -0.41297323
-0.690453 -0.2627842 0.42872053 0.5159868 -0.1880868 -0.3349408 0.3547631 -0.047953088
0.09109899 0.008083893 -0.6009724 -0.1192261 0.2979412 -0.06935035 -0.27836728 0.26444
-0.5750539 -0.23983635 0.07264918 0.0066798786 -0.37998205 0.26283023 -0.03407179 0.3567244
-0.16437085 0.07312491 0.09333168 0.4354711 0.49375418 0.3417307 -0.038932163 0.2945894
0.080201365 -0.4320102 0.13034812 0.08801103 -0.2996101 -0.4287473 -0.08556303 0.07013973
-0.6318868 0.6196865 0.26687476 0.10132659 0.2239802 -0.8629193 0.20783791 0.12807839
-1.2030813 0.118770175 -0.314467 0.23173192 -0.081431195 -0.43159005 0.091722056 0.34228286
0.08065136 0.2168636 0.24154069 0.34666368 0.20982927 0.07316703 0.1920471 0.033242267
-0.06710001 -0.08304175 0.21482198 0.41933268 0.1291619 -0.07641298 -0.16509634 0.29802293
00000000: b9b2 92be 4b25 173e 80e0 383e 0309 aabd
00000010: d1bd c53e f23f 133d 374d 52be a3c4 883e
00000020: 86ec 123e bf15 373e ffc3 d6bd 4128 b03d
00000030: 311f 36be 0672 c3be 0016 a9be e3b2 bb3e
00000040: 7d0d c33e 1e42 b3be 4acd 173e 4bc8 ba3d
00000050: c3b9 f4bc d695 493e 236e 993e a9cd 1c3e
00000060: 7eb4 4abe 5c92 db3d 664d 4f3d 6cf9 fe3e
00000070: 167c 673e 9eb6 273e afe3 33bf eecd 82be
00000080: 9e2b 6dbc 928b 9e3e 7ea6 b13e c4be 803e
00000090: 1aea 923e 082d 0f3e bc66 713e 40e0 1f3e
000000a0: f767 80bd d5b2 c23e 955d 7f3e 48dd cf3e
000000b0: ffbe 823d f5a2 b7bd 8895 fabd 8b13 f13e
000000c0: 1248 bebe c2c0 e8bd 1983 92be af43 693d
000000d0: 4a98 05be 6ffd bfbe 36f7 063e 3a71 d3be
000000e0: 87c1 30bf a78b 86be 4281 db3e b617 043f
000000f0: d399 40be 5c7d abbe 82a3 b53e 756a 44bd
00000100: 1b92 ba3d 4e72 043c 54d9 19bf d02c f4bd
00000110: c08b 983e 8e07 8ebd 2886 8ebe ae64 873e
00000120: bb36 13bf a997 75be 18c9 943d e2e2 da3b
00000130: 028d c2be af91 863e dc8e 0bbd 95a4 b63e
00000140: d550 28be 83c2 953d ae24 bf3d 11f6 de3e
00000150: 59cd fc3e 54f7 ae3e 5577 1fbd 6cd4 963e
00000160: 9d40 a43d 7130 ddbe fa79 053e 203f b43d
00000170: 7f66 99be c484 dbbe ab3b afbd 6ba5 8f3d
00000180: 55c3 21bf c6a3 1e3f cfa3 883e 5184 cf3d
00000190: 115b 653e 47e8 5cbf 76d3 543e fb26 033e
000001a0: 91fe 99bf c73d f33d d201 a1be 224b 6d3e
000001b0: 66c5 a6bd 5ff9 dcbe c6d8 bb3d b33f af3e
000001c0: 8a2c a53d 7e11 5e3e 7156 773e e77d b13e
000001d0: 7cdd 563e 99d8 953d ffa7 443e 0b29 083d
000001e0: bb6b 89bd cb11 aabd 4bfa 5b3e c6b2 d63e
000001f0: 0443 043e 697e 9cbd 040f 29be 7696 983e

bias f4 [8]
0.27947825 -0.4271084 0.11117652 0.4285908 0.29922053 -0.103802815 0.58089685 0.22742876
00000000: c617 8f3e f4ad dabe 84b0 e33d 4170 db3e
00000010: 6f33 993e 9296 d4bd a8b5 143f 16e3 683e

weight f4 [1, 8]
-0.15750355 -0.20886149 -0.42635444 0.71714216 0.85017186 -0.3280764 0.68072987 -0.3022892
00000000: 9c48 21be c9df 55be 214b dabe a196 373f
00000010: dda4 593f a1f9 a7be 5044 2e3f a6c5 9abe
