models/MLP32.pt (torch, 352047 bytes, 9 tensors)

weight f4 [944, 32]
000000 de 99 b1 3e 97 74 c5 3e 84 f1 59 3e 58 34 4b bf
       0.34687704 0.38565513 0.21283537 -0.79376745
000010 9d cc ca bd 24 2d 23 3f 67 b1 5c 3d 3c dc 02 bf
       -0.09902308 0.63740754 0.05388012 -0.511173
000020 82 b2 92 3f af de be be b2 ac 9e 3f 5d 4b 61 3f
       1.1460726 -0.3727927 1.2396452 0.8800562
000030 5e a2 95 be 58 99 d6 3f c8 7e a1 be 51 e0 21 bf
       -0.2922544 1.6765547 -0.3154204 -0.63232905
000040 f5 c3 22 3f 44 3e 78 bf 2d 3f 16 3f fe 3e a2 3c
       0.63580257 -0.9697001 0.5869015 0.019805428
000050 9f 44 1d 3e 1c 33 ab bf cd 00 4b bd c6 0e 8b bf
       0.15358208 -1.3374972 -0.04956131 -1.0863883
000060 33 d0 d4 3e 09 15 2a 40 55 c4 2f 3d 23 c5 f6 bd
       0.41565093 2.657534 0.042911846 -0.120493196
000070 2f 1f be 3f 90 e8 b7 3e 6a e6 c8 be ec 75 9c bf
       1.4853266 0.3591962 -0.39238292 -1.2223487
000080 e5 98 19 3c 24 1d 67 3f 8a 5f ec 3e 61 bf de bf
       0.009374832 0.9027884 0.4616664 -1.7402154
000090 90 14 ab bf e2 e0 f9 be c1 4d ab bf 14 fb 1f be
       -1.336565 -0.48804384 -1.3383104 -0.15623122
0000a0 31 ec 47 bf 57 6f 9d 3f e1 73 9c 3f a5 f3 86 be
       -0.78094774 1.2299603 1.2222863 -0.2635776
0000b0 1c 44 b8 3f 4a 40 d8 3e fb 3a bf bf 4f 82 9f 3e
       1.4395785 0.4223655 -1.4939874 0.31154105
0000c0 3c bc e6 be 9f dd 21 be 48 59 d0 bf 17 2e 14 3e
       -0.45065486 -0.15807198 -1.6277246 0.14470707
0000d0 65 38 89 bf 5b 2f 14 40 a7 eb e0 3e 7b 44 bd 3f
       -1.0720335 2.3153903 0.43929788 1.4786524
0000e0 7e 85 42 3f 10 2e 7a bf fd 8d 2d 3e 3b 7d 47 3f
       0.7598494 -0.97726536 0.16948695 0.7792546
0000f0 fb 43 47 3f 76 e1 52 bc b5 be 3a 3f d5 a2 56 3f
       0.77838105 -0.012871137 0.72947246 0.8384221
000100 0e ca 2b be 55 93 8d 3d b1 b4 d4 3f eb cb 40 3e
       -0.16776296 0.06912867 1.6617643 0.18827789
000110 24 10 64 bf ba 71 cc bf 27 c6 15 40 87 ea 07 3e
       -0.8908713 -1.5972207 2.3402193 0.13273059
000120 32 67 be bf 10 3d 90 3f 89 1e 0c bf b5 34 3f 3f
       -1.4875243 1.1268635 -0.5473409 0.746898
000130 84 2b e4 3f 94 5d 31 bf 11 c4 09 3e cb b5 ee bf
       1.782578 -0.69283414 0.134537 -1.8649229
000140 ad 4f 96 3d cc de 0b be d1 81 6e 3f ee 29 dc 3f
       0.07339416 -0.13659209 0.93166834 1.7200296
000150 4a 2e 2a bf da bc 98 3f 88 59 23 3f 0f 13 d8 3d
       -0.6647688 1.1932633 0.6380849 0.1055051
000160 32 4a f8 3d 7e 68 55 bf 5e 51 1d bf 7f 24 d2 bf
       0.12123527 -0.8336257 -0.6145228 -1.6417388
000170 08 2f 26 40 36 18 4d be 16 ba c4 be d8 f0 13 c0
       2.5966206 -0.20028767 -0.38423222 -2.311575
000180 b2 00 a3 bf ce 8d 45 be 46 8b ea 3d 20 50 aa 3f
       -1.2734587 -0.19292375 0.114523456 1.3305702
000190 39 75 c1 3e 61 dd 48 bf 31 86 03 40 96 a0 2b c0
       0.37784746 -0.784628 2.0550654 -2.6816764
0001a0 e4 cd d3 bf 88 6f 0e bf 5a 86 af 3f e6 04 a5 bc
       -1.6547208 -0.55638933 1.3712876 -0.020143937
0001b0 12 f3 18 bf d3 bb b4 bf 3f 6c 39 3f f0 06 28 bf
       -0.59745896 -1.4119819 0.72430795 -0.65635586
0001c0 40 85 a1 bc aa 3e 13 3e 3d f8 c4 be 3a 9c 00 40
       -0.019716859 0.14379373 -0.3847064 2.0095353
0001d0 60 56 2b 3f 2f e5 00 bf e6 35 ad 3e f9 6b b8 bf
       0.6692867 -0.50349706 0.33830184 -1.4407951
0001e0 49 40 46 3e 9a a9 96 be 79 5a 7f 3f 2e 70 b9 3f
       0.1936046 -0.2942627 0.99747425 1.448736
0001f0 78 92 cf be e4 7d b8 3f 3f 45 15 3f 70 3b 1f bd
       -0.40541434 1.4413419 0.58308786 -0.038875043
000200 19 4f 0f bf 04 dc d2 3a 6a 32 5c bf 4c a3 e5 3d
       -0.5598007 0.0016087298 -0.86014426 0.11212787
000210 c9 f0 ad bf 94 20 d8 bf 44 92 61 be 5b 6e ca bf
       -1.3589107 -1.6884942 -0.22028452 -1.5814928
000220 77 39 77 3f bb 73 cb 3f 2d 0b 02 3f 96 ff b8 3f
       0.9657206 1.5894693 0.507983 1.4452999
000230 1f 85 94 bf ad 11 52 3f 64 8f 8f bb 37 c7 74 3f
       -1.1603125 0.8205822 -0.004381107 0.9561648
000240 ea dd 92 be e0 e1 66 3f 88 be 59 3f 72 f1 67 be
       -0.28684932 0.9018841 0.8505635 -0.22650698
000250 10 81 3a bf 79 fe bb 3f 9c 0a 4d bf a9 6d 9e be
       -0.72853184 1.4687034 -0.80094314 -0.3094304
000260 cb 48 47 be b8 cc 19 3b 07 17 d5 3e 8d e3 c7 3f
       -0.19461362 0.002346797 0.4161913 1.5616318
000270 ed 53 ec 3e 52 63 b2 bf c1 6e 6d 3f ab b6 92 3f
       0.4615778 -1.393656 0.9274712 1.1461996
000280 af b4 25 bf 9b ec 85 bf 4d 4e fb 3f b3 ca 15 bf
       -0.64728826 -1.0462831 1.963327 -0.5851242
000290 52 01 e8 3e e9 b1 07 be e0 62 a3 be 7e b4 bd be
       0.45313507 -0.13251461 -0.31911373 -0.37051767
0002a0 8b c2 b0 be fe cf 3a bc 05 06 01 c0 48 dd cd bf
       -0.34523425 -0.011402128 -2.0159924 -1.6083155
0002b0 7e f3 28 3e 95 59 0b 3f 4a bb ba 3f 6f 76 30 bf
       0.16499135 0.54433566 1.4588406 -0.68930715
0002c0 52 79 82 bf 0c dc 75 3f d6 e6 a8 bf cf 8c ed be
       -1.0193274 0.9603889 -1.3195446 -0.4639649
0002d0 8b 34 25 bf 4a 97 15 c0 85 2c dd 3e ba 11 16 3f
       -0.645333 -2.337359 0.43198028 0.586208
0002e0 49 62 08 3f da f9 fe bf 89 ed b5 3e af a5 08 c0
       0.5327497 -1.9919999 0.35532787 -2.1351125
0002f0 7d 53 d5 bf 14 de 91 bd 45 06 bb 3f 5b d7 5b 3f
       -1.6666104 -0.07122436 1.4611288 0.8587548
000300 ed 5a 5a bf b2 54 fa 3e 49 ab 30 3f 73 49 6e bf
       -0.8529499 0.48892742 0.6901136 -0.93080825
000310 47 d5 57 bf 2e 5b 57 3f e8 40 c9 be dc ca c7 be
       -0.8430981 0.84123504 -0.39307332 -0.39021957
000320 19 fd 5e 3f cf f1 c5 be cd 10 07 3f 37 91 bd 3c
       0.87104946 -0.38661048 0.5276001 0.023140533
000330 3c 87 d8 be d2 b4 ef 3f 68 e2 a1 3d 9c 60 bf bf
       -0.42290676 1.8727057 0.07904512 -1.4951358
000340 53 31 52 3e 5e 50 13 3f 9c 30 46 be 50 cd 05 bf
       0.20526628 0.57544506 -0.1935448 -0.52266407
000350 5d a6 ff bf 5e f9 04 3f 00 08 37 bf 80 d4 c4 be
       -1.9972645 0.51943004 -0.7149658 -0.38443375
000360 e6 e3 13 40 bb dd 82 3e 1c 60 c3 3f 4d 52 1f 3d
       2.3107848 0.25559792 1.5263705 0.038896848
000370 33 cd 44 3f a4 c7 88 be c4 e5 99 bf 69 5f de bf
       0.7687561 -0.26714814 -1.2023244 -1.7372867
000380 17 2b f8 3e 4d 7d 2c be eb 60 d7 be 40 16 66 bf
       0.48470375 -0.16844673 -0.4206613 -0.898777
000390 c6 49 56 3f 14 f6 df bf d6 80 26 bf 4b d3 37 bf
       0.8370632 -1.7496972 -0.6504034 -0.7180678
0003a0 d9 9e 19 40 0d 11 48 3f a2 14 86 3f 27 0e 17 bf
       2.4003203 0.7815102 1.0475047 -0.5900597
0003b0 2a bb a1 3f ac b3 23 3e 6b c0 bd 3f 40 0d a8 bf
       1.2635243 0.15986508 1.4824346 -1.3129044
0003c0 80 e1 34 be 2f 55 2b 3e 08 8f 1e bf 5f cc ef 3e
       -0.17664146 0.16731714 -0.61937 0.4683561
0003d0 6b 64 53 3e 6d e0 80 bf ac da 44 3f b2 bf 1e bf
       0.20643775 -1.0068489 0.76896167 -0.62011254
0003e0 f7 e4 25 3c 1d 05 62 bf 89 17 32 be 55 42 5e be
       0.01012539 -0.8828905 -0.1739179 -0.21704991
0003f0 e4 b2 a9 3f c6 d7 65 3f a3 02 23 c0 b7 89 87 bf
       1.3257718 0.8978237 -2.547036 -1.0588902

weight f4 [1683, 32]
000000 2b 6b 6e 3e 04 04 08 40 cd 32 90 3f 4a 51 59 be
       0.23283069 2.125245 1.1265503 -0.21222416
000010 af b5 29 3f 26 2b 22 3e 2e ab 8b bf fd 6a 89 3e
       0.6629285 0.15836772 -1.0911615 0.26839438
000020 d9 ec d1 bf 77 e2 85 3f 9d ba d7 bf f7 d6 0f 3f
       -1.6400405 1.0459737 -1.6853825 0.56187385
000030 46 6e c2 3f 6a 31 73 3e fc 70 6c bf bd e4 0d bf
       1.5189903 0.23749319 -0.923599 -0.5542715
000040 82 6c b8 3f 1e d1 5a bf 0f 14 4b 3f 7b 1e f5 bf
       1.4408114 -0.8547534 0.7932748 -1.9149927
000050 14 e4 ed 3f 57 91 eb 3d dc 06 f2 3f 6a 25 c1 be
       1.8585229 0.11502331 1.8908343 -0.37723857
000060 28 19 c7 3f 19 d5 4c 3f d1 f6 9d be 22 df 50 bf
       1.5554552 0.8001266 -0.30852368 -0.81590474
000070 ed 05 bf bf 1b f5 cd 3e a2 34 02 c0 d8 c5 c8 3f
       -1.4923683 0.40226063 -2.0344625 1.5685377
000080 58 9d 56 be 25 ff d2 3d f3 7f 34 bf 76 9b 30 3f
       -0.2095846 0.10302571 -0.70507735 0.68987215
000090 cd e3 05 c0 05 25 56 be f3 fd 13 3e eb 17 dd be
       -2.0920289 -0.2091256 0.14452343 -0.4318231
0000a0 44 94 ca bf 2d c5 b5 3f 41 0c ff be 21 8b 27 3c
       -1.5826497 1.4200798 -0.49814036 0.010226042
0000b0 10 8e cd bf 15 15 a1 bf 26 2f 1f 40 3b 02 e3 3e
       -1.6058979 -1.2584559 2.4872527 0.4433764
0000c0 cf e4 9e 3f 8b ea c0 bf 5c 22 ab be 2b a6 e8 bf
       1.2413577 -1.5071577 -0.33424652 -1.817571
0000d0 1a ac be 3f 78 18 ef 3d 6c b2 fd 3f 31 4a 5c bf
       1.4896271 0.11674589 1.9820075 -0.8605071
0000e0 bf b6 47 be 52 d7 37 40 bd 06 ee 3f 74 ba 65 bf
       -0.19503306 2.872517 1.8595806 -0.8973763
0000f0 6b c7 86 be 0c d0 82 3e e9 ec cb 3f cd 98 30 3e
       -0.2632402 0.25549352 1.5931674 0.17245789
000100 4a d4 5a bf 5f d2 3f 3f 8e 02 9c 3f 9d fe af be
       -0.8548018 0.74930376 1.218828 -0.34373942
000110 c8 5f 5f 3f f4 5c 03 3f 92 fe a3 3e 91 6a d7 bf
       0.87255526 0.5131371 0.3203016 -1.6829396
000120 11 a7 9b bf d4 74 cc 3f 0e 57 87 3e e6 3f e7 3f
       -1.216036 1.5973153 0.26433605 1.8066375
000130 55 e1 ce 3d ae 03 b4 3f dd 2c 86 bf 45 4e 64 3e
       0.101015724 1.4063623 -1.0482441 0.22295482
000140 99 1d fe 3e fb d2 2d bf 9e 98 94 3f 34 9f 97 3f
       0.49631956 -0.67900056 1.1609075 1.184546
000150 3d 7b 16 bf 06 39 61 be 0b 2b 19 3f d5 cd c2 bf
       -0.58781797 -0.21994409 0.59831303 -1.5219065
000160 ed f6 c2 3f a4 ad 1d be 1f a1 ae bc 0a c5 62 3f
       1.5231606 -0.1539827 -0.021317063 0.8858191
000170 31 76 22 be 90 90 f6 be 0d b3 05 c0 a5 80 0f bf
       -0.15865399 -0.48157167 -2.0890534 -0.5605567
000180 ea 8f 79 3d 53 6b a2 bf fb 9e 86 bf 97 fd c3 bf
       0.060928263 -1.2689003 -1.0517267 -1.5311764
000190 c6 3f 86 3f 39 96 15 bf 97 66 22 3e 2e d5 90 3f
       1.0488212 -0.58432347 0.15859447 1.1315057
0001a0 5a 06 5a 3e 21 c3 74 bf 92 da 8d be 6d d0 e4 3f
       0.21291485 -0.95610243 -0.27705818 1.7876107
0001b0 58 e5 4e bf cc d9 69 3f ce cd b4 3e e0 5e 60 3d
       -0.808187 0.91347957 0.35313267 0.05477798
0001c0 a9 49 a0 3f 86 3e 97 bf 20 6d 06 bf c0 c0 f2 be
       1.2522479 -1.1815956 -0.5251026 -0.47412682
0001d0 99 18 cd be 3e 08 ff 3e fb 16 ce 3e a3 33 7b 3e
       -0.4005783 0.49810976 0.40251908 0.24531417
0001e0 7c fa fa be 43 6f 39 bf ae b7 4a 3d 33 58 de 3e
       -0.4901923 -0.72435397 0.049491577 0.43426666
0001f0 c6 d6 be 3e 7f 26 24 bf e4 e2 f0 be 5d bb c5 3e
       0.37273234 -0.6412124 -0.47048104 0.3861951
000200 3a b4 b8 3f e8 db 73 3f 53 47 2c 3f ea 18 cc be
       1.4430001 0.95257425 0.6729633 -0.39862758
000210 a7 d9 aa be 2e 86 73 3f d2 18 57 bf f8 6c 40 bf
       -0.3336918 0.95126617 -0.8402225 -0.75166273
000220 cd 02 d1 3f 05 ad 9f 3f 16 57 d4 bf 08 3f c2 bf
       1.632898 1.2474676 -1.6589077 -1.5175486
000230 be 9c 86 bf fd 24 93 3f 41 50 12 be 36 f0 41 3f
       -1.0516584 1.1495663 -0.14288427 0.7575716
000240 83 e7 9c bf f6 d8 01 bf 36 87 5b 3f 66 72 67 be
       -1.2258152 -0.5072168 0.8575319 -0.22602233
000250 10 34 0c 3f e6 72 98 bf 90 f7 68 3f bc c1 96 bf
       0.5476694 -1.1910064 0.9100275 -1.1777873
000260 33 7d 7e be fd f9 8a 3f a4 7f 60 3f 6b e0 d8 3f
       -0.24852447 1.085754 0.87694764 1.6943487
000270 5f 21 df 3c 4e de 6b 3f fd 53 94 3f 59 4e 2a 3f
       0.027237592 0.92136085 1.1588131 0.665258
000280 af b9 82 3f db 21 98 bf 2b dc 11 c0 2d 6f 8f 3f
       1.0212916 -1.1885332 -2.279063 1.1205803
000290 fe 9c c9 3e 08 e0 34 3f ba a7 d1 3e 71 0b aa 3e
       0.39377588 0.70654345 0.40948278 0.33211854
0002a0 a4 af 41 3e 0e f6 59 bf 81 40 6c be 70 99 36 bf
       0.18914658 -0.85141075 -0.23071481 -0.7132788
0002b0 e9 51 b5 be 9f 74 69 3f a4 aa 1f c0 71 56 98 3e
       -0.35414055 0.91193575 -2.49479 0.2975345
0002c0 4f f4 84 bf 5e ec 36 bf f4 fe 5d be 36 7f f3 3e
       -1.0387057 -0.7145442 -0.21679288 0.47557992
0002d0 00 1d 4e 3f ec 5e 04 3f 68 90 58 bf a3 1e 53 bc
       0.80513 0.5170734 -0.84595346 -0.012885722
0002e0 88 83 e9 3e d8 03 e6 3f 1a 29 62 3f e4 9b ec bf
       0.45608163 1.7969923 0.88343966 -1.8485074
0002f0 d7 39 97 bf 87 7e 35 3f 7c 28 8e bf 1c 3f 52 3e
       -1.1814526 0.7089619 -1.1106105 0.20531887
000300 cb 22 81 be bc 2f 4e be 8d 1a 57 3e f6 17 92 bf
       -0.25221857 -0.20135397 0.21006222 -1.1413562
000310 91 93 06 3f 73 fb 23 3f a2 e4 2f 3f de 5b 65 3f
       0.5256892 0.64055556 0.6870824 0.89593303
000320 e2 8f 13 3f 17 5b fe be 85 67 cc bf 5b 20 04 be
       0.5764142 -0.4967887 -1.5969092 -0.12902968
000330 9f 4e 60 bf fa 33 db 3e 1e c8 e5 3e 1b d9 9c be
       -0.87619966 0.42813092 0.4487924 -0.30634388
000340 8d e6 69 bf 40 33 08 c0 81 84 9a bf f7 50 a8 be
       -0.9136742 -2.128128 -1.2071687 -0.3287427
000350 10 3c d3 3f f0 78 07 3f b5 08 7b 3c c7 be 03 bf
       1.6502705 0.5291891 0.0153219 -0.5146298
000360 3f 66 99 be ff d9 07 3f 20 8c 8b 3f 14 cc b8 be
       -0.2996082 0.5306701 1.0902138 -0.360932
000370 bb d4 57 3e 65 3f 94 bf ae 79 ec 3f ba 07 8b be
       0.21077244 -1.1581846 1.8474634 -0.27154332
000380 aa 19 20 bf a5 fd e6 bf c0 e2 bd 3f a2 e8 66 bf
       -0.6253916 -1.8046156 1.4834824 -0.9019872
000390 ce 60 b2 3e b3 a6 97 3f 8b 90 95 3f 6e b9 48 3e
       0.3483948 1.1847748 1.1684736 0.19601986
0003a0 7f 0e 5d 3f 36 bb ca 3e b7 10 3e 3f 08 af 22 3d
       0.86350244 0.39595956 0.74244255 0.039717704
0003b0 c8 69 f2 3e be e7 5f be ca c6 0b be 74 19 00 3f
       0.4734633 -0.21865746 -0.13650051 0.5003884
0003c0 cf aa d3 bf 9e 75 c8 3e ec a8 63 bf f9 d8 32 bf
       -1.6536502 0.39152235 -0.8892963 -0.69862324
0003d0 21 2e 74 bf 0b 1e 5e bf cc 30 6e 3e 2a 01 63 bf
       -0.9538289 -0.8676459 0.23260802 -0.8867365
0003e0 e7 aa 88 bd 84 6e 3e bf e3 9d fb 3a 5d f2 8b bf
       -0.06673222 -0.74387383 0.0019196834 -1.0933338
0003f0 46 2f 8c 3f bd c5 29 3f a2 eb a8 3e 83 2a e7 3f
       1.0951927 0.6631735 0.32992274 1.8059849

weight f4 [32, 64]
000000 cb 77 0a 3e 57 02 76 be 76 61 03 3d b6 a1 f2 be
       0.1352226 -0.2402433 0.032075368 -0.47389
000010 ff a1 4b be 63 cc 88 3e b6 62 73 be f0 c6 cb bd
       -0.19886015 0.26718435 -0.23768124 -0.09950054
000020 56 d2 3b be 33 ae 6f 3e 94 5d c8 3e c1 fa 48 3c
       -0.18341956 0.23406295 0.39133894 0.012266816
000030 60 70 0b be 43 18 f6 3d fe 49 2c 3e 75 87 57 3d
       -0.13617086 0.12016346 0.16825101 0.052619416
000040 a1 00 78 3d e5 44 4d be e1 b8 97 3d 08 64 db be
       0.060547475 -0.20045812 0.0740831 -0.42849755
000050 3d 3a c6 3d b2 4e df 3d 85 5f 55 3d ff ef d5 3d
       0.09679077 0.10903682 0.052093048 0.10446166
000060 a8 c8 79 bd cc e4 d5 3d 16 8e 25 be 7c 55 da 3e
       -0.060982376 0.1044403 -0.16167483 0.42643344
000070 87 d3 20 be 95 97 db be 6b bd ef bb f6 4a 26 3d
       -0.15705691 -0.42889085 -0.0073162816 0.040598832
000080 b1 27 a0 3e 2c 32 ef 3d b7 1e b1 be cf c3 3a 3e
       0.31280282 0.116794914 -0.34593746 0.18238758
000090 5d 6d 3c 3e 01 cf 66 3e aa 4d 7d 3e c5 aa fe 3e
       0.18401094 0.22539903 0.24736658 0.49739662
0000a0 f5 ed 2e 3e 07 ba 20 be 70 3d de be b3 4b d7 be
       0.17082961 -0.15695964 -0.43406248 -0.4204994
0000b0 2a 8e 65 3e 2d 6c 98 3e 3b c5 a2 3e b9 06 10 be
       0.22417513 0.29770032 0.317911 -0.14065064
0000c0 9c cc 13 bd 37 f1 20 be 28 43 45 3e 6e c5 4c be
       -0.036083803 -0.15717016 0.192639 -0.19997188
0000d0 0f cf ae bc 30 8a 55 be b0 bf c5 3c 44 fc 7f 3e
       -0.021338968 -0.20853496 0.024139255 0.24998575
0000e0 a4 77 aa 3b 06 8f 35 3e 64 94 49 bc e7 de 9c 3d
       0.0052022506 0.1773034 -0.0123034455 0.07659703
0000f0 82 e8 39 3e fa f7 ca bb 64 ea fd 3d 59 74 7d 3e
       0.18155101 -0.006194112 0.12398222 0.24751414
000100 0c 03 64 3e 9c 38 52 be c1 6d a3 3c de 0c 42 be
       0.22266787 -0.20529407 0.019949796 -0.18950221
000110 ef 75 99 bd e4 fa 56 be 27 61 1f 3e c7 d1 1b be
       -0.07493197 -0.20994145 0.15564404 -0.15216742
000120 a8 7b ac bc e2 3c 47 be f7 30 90 be c3 1a f8 3e
       -0.021055058 -0.19456819 -0.28162357 0.48457918
000130 11 1d 99 bc b4 53 5b bc 9e 13 72 bd af e9 06 3e
       -0.018690618 -0.013386656 -0.05910074 0.1317508
000140 8b e7 bc 3d 73 92 08 3e 8e 91 b3 3d a0 e9 ac 3e
       0.09223851 0.13337116 0.08767997 0.33771992
000150 75 f2 76 3e d8 0a bc bb a6 6a 06 3e 73 03 1c be
       0.24115928 -0.0057385974 0.1312662 -0.15235691
000160 62 ef e1 3d 9a b1 af 3d 70 12 5a 3d 4a a5 71 3d
       0.11031987 0.08578797 0.05324024 0.058995523
000170 db 2c 0e be 14 fb 17 3e af cf c6 3d 2b f9 df 3c
       -0.13884299 0.14841872 0.09707581 0.027340492
000180 8e 5f 86 3e b5 e1 0c bf 29 99 9d 3e 5d 2d 1d bf
       0.26244777 -0.550319 0.30780914 -0.61397344
000190 bb f6 4b be 86 61 c4 bd 44 e9 ed 3e fd d3 94 3d
       -0.19918339 -0.095889136 0.4646703 0.07266996
0001a0 ee 81 21 bd 29 50 53 be e5 91 76 3e 48 fb b8 3e
       -0.03943055 -0.20636047 0.24079092 0.36129212
0001b0 a4 2a b2 be e2 5b df 3c 19 21 ba bd cc ed 17 be
       -0.34798157 0.027265493 -0.09088344 -0.14836806
0001c0 3c b6 e7 bd ad 0b 8c be 7c 3e d2 3d 08 e3 c5 3d
       -0.11314055 -0.27352658 0.10265824 0.096624434
0001d0 d3 d2 02 3f 7b 6d 07 3d e3 fa 18 3d 11 b4 96 bd
       0.5110294 0.033063393 0.03734864 -0.07358564
0001e0 76 b6 c6 be 62 94 33 3e 97 53 63 bd ef 85 06 bf
       -0.38811082 0.17537072 -0.05549964 -0.52548116
0001f0 ae fc c9 3e 2e 4c 14 3e b4 83 98 3b 35 d6 30 bf
       0.39450592 0.14482185 0.004654372 -0.69076854
000200 6f c1 c6 be 15 53 c9 bc fe dc 89 3e bc f0 ec 3e
       -0.38819453 -0.02457575 0.26926416 0.46277416
000210 02 fe 34 be cc 95 52 bd 93 ed 4d bd ad 88 d8 bc
       -0.17675021 -0.05141239 -0.050275397 -0.02643236
000220 b5 af 72 3e f0 73 0d bd 72 bf af bd b4 dc a1 be
       0.2369984 -0.034534395 -0.08581437 -0.31613696
000230 22 91 3a be d3 cf aa 3c 6c 1b 38 bd 4a 77 05 bd
       -0.18219426 0.020851051 -0.044948027 -0.032584466
000240 6b 75 8b be 43 41 12 bb ed 32 c2 3d 26 5c a1 bd
       -0.2723802 -0.002231673 0.094823696 -0.07878904
000250 fd 60 e7 be 09 4c e1 bd cd be 6b be 64 a2 f0 bd
       -0.45191184 -0.11000831 -0.23022003 -0.117497236
000260 63 50 af be 99 6d cb bc 37 05 49 3e 27 00 10 be
       -0.34241018 -0.024832534 0.19630896 -0.14062558
000270 9c 43 1e 3d 57 c5 33 3c b7 6c 5b be a0 4f ed bd
       0.038638696 0.010972342 -0.2142819 -0.11587453
000280 0d 08 b0 3d 19 2b 81 3d fd 61 22 bd cb 1c 1f 3d
       0.085952856 0.06307048 -0.03964423 0.03884582
000290 09 25 31 3d 05 bd ad be 22 20 28 bd f2 79 93 3e
       0.04324821 -0.33933273 -0.04104627 0.28803974
0002a0 b7 d4 02 be a3 61 cb 3e a6 92 e7 3d d3 3d 20 3e
       -0.12776457 0.39722928 0.11307268 0.15648584
0002b0 82 bb 7a be 25 2a 5c 3e b8 db a5 bc 4e 58 0b 3e
       -0.24485591 0.21500452 -0.020246372 0.13607904
0002c0 15 78 a4 bd 39 47 b9 bd 61 c5 66 bd 35 ee 69 3e
       -0.08030716 -0.09046788 -0.05634058 0.22844775
0002d0 d9 00 41 be c3 1f 2c be be e8 8d 3e f3 af b1 be
       -0.1884798 -0.16808991 0.2771663 -0.3470455
0002e0 df aa 04 3e 11 94 fa 3d 06 db a9 be 73 60 94 bb
       0.12955807 0.12235273 -0.33174914 -0.004528099
0002f0 08 e0 b9 3d d9 e8 b6 3e 28 cf f1 3c db ce 5d be
       0.09075934 0.35724524 0.029517725 -0.2166094
000300 ec ac 69 3d b0 e6 a0 be 56 75 be 3d de e8 2b be
       0.057049677 -0.31426 0.09299724 -0.1678805
000310 62 2f 23 be c7 02 4a bc c3 00 a2 bd cf ad 84 be
       -0.15936044 -0.012329764 -0.079103015 -0.25913855
000320 b4 cd 7d 3d cb fb 11 3e 99 c8 c5 bd c7 83 65 3d
       0.061963752 0.14256208 -0.096574016 0.056033876
000330 c1 b0 64 3c 5f 7e 86 3d 7c 4c d9 bd 67 72 5f 3e
       0.013958157 0.06567072 -0.10610291 0.21820985
000340 ce 08 24 be fc cb 8a bd 56 8d 46 3d 2b 39 16 3d
       -0.16018984 -0.06777188 0.048474632 0.036675613
000350 dc 23 67 bd fc ec 11 3e 9d 56 40 3c f3 18 00 bc
       -0.056430683 0.14250559 0.0117394 -0.007818448
000360 f7 9d c7 3d 0b f9 08 bc 37 dc af bd 11 90 79 3e
       0.09746926 -0.008360158 -0.085869245 0.24371363
000370 a4 a4 0e 3e 19 79 55 bd b1 cf 30 3d 79 a5 0a 3e
       0.13929993 -0.05211744 0.04316682 0.13539685
000380 93 f9 a5 be e1 2b bb 3e fc e8 1d be a3 e3 c8 3e
       -0.32416973 0.36556914 -0.15420908 0.39236173
000390 87 f2 6f 3e fe 4e 3b be 7e 6e bf 3d 57 03 db be
       0.2343236 -0.18291852 0.093472466 -0.42775986
0003a0 15 c1 5c be fd 55 53 3e ec f3 b3 be 83 8e 19 bf
       -0.2155803 0.2063827 -0.35147035 -0.5998308
0003b0 5e c1 ce bd 29 c5 5b be 8f d8 ef be e9 1c f5 be
       -0.100954756 -0.2146193 -0.4684491 -0.4787362
0003c0 c8 05 b9 3e fb 7f cd 3e 94 0a 5e be ad 8b 6a bd
       0.36137223 0.40136704 -0.21683723 -0.05726211
0003d0 68 83 7d 3d b1 36 af 3e e0 b0 ce be 2d 36 cc be
       0.061892897 0.34221414 -0.4036932 -0.39885083
0003e0 8f 9d bd 3e ce ed 1f be a3 6e 0b 3f 4e 21 bb 3d
       0.3703427 -0.15618059 0.54465693 0.09137212
0003f0 95 90 8b bd e6 7e 50 be 8f 06 59 be 8c 49 c8 3e
       -0.06814686 -0.20360908 -0.21193908 0.39118612

bias f4 [32]
000000 67 6f b7 bd 2a ba 17 be d8 dd 79 3e 28 37 4d be
       -0.08956795 -0.1481711 0.24401033 -0.20040572
000010 2f 1c 8a 3e 17 23 aa 3d fa 26 6b 3e ab 38 5a 3e
       0.26974627 0.08307474 0.22964087 0.2131068
000020 0f dc ce 3c 14 45 3e bf 9e 52 e7 3e e2 84 bc bd
       0.025251416 -0.74324155 0.4518022 -0.09205033
000030 38 8f 51 3e 1c 91 92 be ae 42 17 bf 50 5b 89 be
       0.2046479 -0.28626335 -0.5908612 -0.26827478
000040 7b 91 dc 3c 19 1c 6d be 82 eb 38 3f 9b 78 96 3e
       0.02692484 -0.2315525 0.72234356 0.2938889
000050 dd c1 e6 be 1c af 1b 3f c2 e2 a6 3e 41 91 bf 3e
       -0.4506978 0.6081407 0.32594877 0.37415507
000060 89 7b 63 be 34 b7 01 3f ee ea 8a be 6b 63 06 bf
       -0.22215094 0.5067017 -0.27132362 -0.5249545
000070 eb 11 02 bf d5 73 ce 3e 5c b8 c9 be 59 1f 9a 3e
       -0.5080859 0.40322748 -0.39398468 0.3010204

weight f4 [16, 32]
000000 bb 0c 19 be 99 fb 89 3a 64 30 31 3e dc e7 a3 3e
       -0.14946263 0.0010527252 0.17303616 0.32012832
000010 2c c4 03 3e ba cb 7f 3b 3d f7 f9 3e 69 d3 dc bd
       0.12867802 0.0039031343 0.4882144 -0.10782511
000020 17 e9 5b be 6f a4 19 be 22 4f fc be 09 dc 5c 3e
       -0.21475635 -0.15004133 -0.49279124 0.21568312
000030 25 c8 76 3e 18 b9 bb 3e db c4 1f 3c a7 d1 91 be
       0.24099787 0.36664653 0.009751524 -0.28480265
000040 ff 7c a6 3d 5e cc 81 be d1 e4 66 3e 6b 20 1d 3e
       0.0812931 -0.25351232 0.22548224 0.15344398
000050 bc 34 4f bc ca 8e e5 be 5b 8c 0e 3c 69 06 3d be
       -0.01264685 -0.44835502 0.008700456 -0.18459477
000060 05 58 a2 be 3a 0e 91 3e 4e e4 8b 3d dd ff 0b be
       -0.3170778 0.28331167 0.06830655 -0.13671823
000070 68 be f1 3b 8a 28 03 bf 0a 10 15 3e 1b 4a c6 3e
       0.0073774345 -0.5123373 0.145569 0.38728413
000080 bd e8 24 3f a0 1c 6a 3e 4f 3b 4d be cc c8 af 3e
       0.6441763 0.22862482 -0.20042156 0.34332883
000090 e6 08 9e 3e 5a 04 cd 3d a0 f7 42 3f 04 ed 5b 3b
       0.30866164 0.100105956 0.76159096 0.003355802
0000a0 20 6d 95 3e ba 98 78 3d ec db a6 be 61 c1 91 3e
       0.29184818 0.060692526 -0.32589662 0.2846785
0000b0 a6 b5 59 bc a6 4b be bd a3 16 99 3d 82 69 9d 3e
       -0.013287937 -0.092917725 0.07475021 0.3074456
0000c0 60 ef 0b 3e 4a 18 1b be e3 9c a7 be 99 f2 1a bf
       0.13665533 -0.15145984 -0.32736883 -0.60526425
0000d0 fa 0a 9e be 6b b9 09 bf a9 ce 90 bd f4 90 32 be
       -0.3086775 -0.5379855 -0.07070667 -0.17438108
0000e0 2d 1b 57 3e 40 9d a5 3e b3 1f 81 be d4 60 be 3c
       0.2100646 0.32346535 -0.25219497 0.02323953
0000f0 4a 2e 10 3e 9b 64 4b be c3 3b 9e 3d af c9 e5 bd
       0.14080158 -0.19862597 0.077262424 -0.11220109
000100 e3 ec 7d 3d ae 2b 46 3e 09 88 20 3e e7 14 a3 be
       0.06199349 0.193526 0.15676893 -0.31851885
000110 b8 98 65 3e a1 2c 35 3c 39 cc 6e 3d 89 60 e2 bd
       0.22421539 0.011058004 0.05830023 -0.11053569
000120 83 65 4d be 7e 28 29 bd 55 3e f8 bd d7 ab 09 bd
       -0.20058255 -0.041298382 -0.12121264 -0.033611145
000130 52 26 01 bf f6 da b3 be 72 81 09 3e cf 56 9b 3e
       -0.504491 -0.3512799 0.13428286 0.30339667
000140 8c 8a bf 3c a6 ed b2 3d d3 0c 1e 3d 96 a3 15 bd
       0.023381494 0.08736734 0.03858645 -0.03653296
000150 6f 2b 33 3a 24 2a 24 3e 5d 78 15 3f 27 90 8e bc
       0.000683478 0.160317 0.58386785 -0.017402722
000160 0c 8e 88 bd 64 54 31 3e 58 87 84 3e b7 66 27 be
       -0.06667718 0.17317349 0.2588451 -0.16347776
000170 aa f6 ae be 24 43 d2 3e 59 5f 98 3e 58 55 7e 3e
       -0.34172565 0.4106685 0.29760244 0.24837244
000180 7e 16 70 3e f9 4d 9c be af 26 c8 bd ac 06 a7 3d
       0.2344608 -0.30528238 -0.09773003 0.081555694
000190 14 20 af bd 43 16 3f 3d df c1 31 be f0 19 25 be
       -0.0855104 0.04665209 -0.17359112 -0.16123176
0001a0 9a 52 83 3c 76 42 ce 3e 6c c1 91 3e 2e 52 a5 3e
       0.016030598 0.4028508 0.28467882 0.3228926
0001b0 74 a5 e2 be f8 fb b1 3d 2e 08 f2 3e 56 79 d3 3e
       -0.44266856 0.08690637 0.47271866 0.4130351
0001c0 5c 82 cd be 9b e4 04 3e c6 f0 1f 3e 2d 9c 55 3e
       -0.4013852 0.12977831 0.15619192 0.20860358
0001d0 37 92 b9 3e 64 c7 fb 3d 2f 83 91 be 30 d4 28 be
       0.36244366 0.1229389 -0.28420398 -0.16487193
0001e0 fb 92 bf be 1e 77 91 be dc 55 c2 3d bf 60 ad 3e
       -0.37416825 -0.28411192 0.094890326 0.33862874
0001f0 aa 65 a0 3e b2 bf 5d 3e c8 06 48 3e f0 9b 94 be
       0.31327564 0.21655157 0.19533837 -0.2902522
000200 bd 5f 14 bb 1b 58 d7 3e 1d 05 87 3e 0e 4c 0a be
       -0.0022640072 0.42059407 0.2637109 -0.13505575
000210 f5 2b 18 be ea 68 8e be 86 07 b8 be 40 ff cb 3e
       -0.14860518 -0.27814418 -0.3594324 0.39843178
000220 d7 52 a8 be 4f 7b c8 3e a1 30 a9 be 41 26 d8 bd
       -0.32875702 0.39156577 -0.33044913 -0.10554171
000230 fe 9b 91 bc 75 5a ae 3e 80 6b a8 be 74 ef 9e 3d
       -0.017774578 0.34053388 -0.32894516 0.07760516
000240 30 a7 6c 3c 22 cd 69 bb 12 bf a7 3e b5 41 c2 3e
       0.0144441575 -0.0035675247 0.32762963 0.37940755
000250 d4 f9 65 be f6 85 cf 3c c6 0b 6f be 28 66 a9 3c
       -0.22458583 0.025332432 -0.23344335 0.020678595
000260 5c eb c7 be 5b 0f b1 bd 63 53 03 3e 52 05 13 3e
       -0.39046752 -0.08645507 0.12824778 0.14357498
000270 35 b3 ae bd c6 1b 3a 3e f1 e7 c7 3e 93 3b b3 bc
       -0.08530275 0.18174657 0.39044145 -0.021878993
000280 ec b5 0a 3e 26 1f 8a 3e aa 5f be be 56 ff 36 3a
       0.1354596 0.2697689 -0.3718236 0.0006980797
000290 bd ad 3f 3e cd f4 02 be 45 32 2c 3f dc a7 be 3d
       0.1871862 -0.12788697 0.67264205 0.093093604
0002a0 b9 85 0a 3e 2b a2 f2 bc 30 13 0f be 5e 37 74 be
       0.13527574 -0.029618343 -0.13972163 -0.23849246
0002b0 ca 4a 10 be 89 2e 7d 3e 38 e9 c8 bd 05 c2 ca 3e
       -0.1409103 0.24724783 -0.09810108 0.3960115
0002c0 df fd f6 bd 8c 5e 81 3c 7a 13 20 be 0f 4f 75 3e
       -0.12060141 0.015792154 -0.1563243 0.2395594
0002d0 b1 c3 97 3e 0a c4 43 be 44 18 96 3e b3 b3 67 3e
       0.29641488 -0.19117752 0.29315388 0.22627144
0002e0 79 23 d9 be 46 0f 78 be 40 4f 63 be ac 1f 9a be
       -0.42409876 -0.24224576 -0.221982 -0.3010229
0002f0 8a 1b 59 bd 0f 7f 29 be 23 a4 9a 3e 70 0a 68 be
       -0.05300478 -0.16552375 0.3020335 -0.22660232
000300 d6 ef 1f 3d d1 07 0d bb ec 53 53 3e b0 6c a8 3e
       0.039047085 -0.0021519552 0.20637482 0.32895422
000310 24 47 66 3e eb 91 d9 be 20 7e 32 bd f5 f0 8c 3c
       0.22488075 -0.4249414 -0.043577313 0.017204741
000320 76 ea e6 3d 06 13 a5 3e 27 a2 77 3e d2 c1 85 bd
       0.112751886 0.32241076 0.2418295 -0.06531109
000330 53 cf 30 be 67 cd a2 bd 5b 2f a9 3e 93 e6 b2 3b
       -0.17266588 -0.07949334 0.33043942 0.0054596155
000340 38 27 68 3e 95 d8 dc 3c 8d 8f 4b 3e d5 e8 6b be
       0.22671211 0.026958743 0.19878979 -0.23038037
000350 8c 69 2e bf 7b 33 fc bd 40 9c 93 bd c4 8b 11 bf
       -0.681298 -0.123145066 -0.07207537 -0.5685389
000360 35 ea 93 3e 02 9f db be af 04 75 3d dd a3 2c bf
       0.28889623 -0.4289475 0.05981892 -0.67437536
000370 08 b2 8b be a1 2b 8b bb 86 71 04 3d f8 58 15 3e
       -0.27284265 -0.0042471443 0.032334827 0.1458472
000380 c9 1d 80 be 53 b8 14 3f 8b dd b9 3d 74 53 3f be
       -0.25022724 0.58093756 0.09075459 -0.18684179
000390 ca 89 8a bc 2f f7 5e 3e 1a 13 1a be 85 54 b9 bd
       -0.016911406 0.2177398 -0.15046349 -0.09049324
0003a0 cb 19 a3 be 55 05 ef bc 56 cd 96 be 0c 18 f8 bc
       -0.31855616 -0.029177347 -0.29453534 -0.030284904
0003b0 4c f3 b0 be 5c b6 a1 be c0 74 83 be 21 93 29 3e
       -0.3456062 -0.31584442 -0.2567501 0.16560031
0003c0 e4 eb c4 3e e7 c8 48 3e 5c 76 9f be c8 59 49 be
       0.3846122 0.19607888 -0.3114499 -0.19663155
0003d0 c2 96 0b 3e 0d 76 ab 3e 1f bf b0 3e be 98 9a be
       0.13631728 0.33488503 0.34520814 -0.30194658
0003e0 38 28 50 3e 9f 20 90 3d 39 5a e6 be 5a 03 ee 3e
       0.20327842 0.07037472 -0.4499071 0.46486932
0003f0 39 bb f4 bd 4a 3d ef 3d 32 ea 0a 3e dd 50 bf bd
       -0.119497724 0.11681612 0.13565901 -0.09341595

bias f4 [16]
000000 96 80 b1 bb ae f6 3a be c4 7e 17 3e ec a7 06 bf
       -0.00541694 -0.18258163 0.14794451 -0.5259998
000010 fc 78 06 bb 20 6b bd be e8 24 83 3e 6a a4 a3 bd
       -0.002051889 -0.36995792 0.25614095 -0.07990344
000020 37 59 60 3e 36 11 39 bf ef a4 3e bf de 05 10 bf
       0.21909033 -0.72291887 -0.7447042 -0.5625895
000030 e9 80 fb be c1 96 96 bd e8 17 05 bf d2 f4 d3 be
       -0.49121788 -0.07352973 -0.51989603 -0.4139772

weight f4 [8, 16]
000000 43 56 31 3e ba 02 b4 3d 2c 1f 5f bf a0 31 6f 3e
       0.17318062 0.087895826 -0.8715694 0.23358774
000010 86 7d 4b 3e 23 5c 93 3d f0 30 d2 3d 19 23 70 be
       0.19872102 0.07195308 0.1026324 -0.23450889
000020 87 9c c3 3e 59 a3 e7 bc a4 91 78 3e 6d 92 41 3e
       0.38205358 -0.028276132 0.24274307 0.18903513
000030 5e 13 ee be 2d ad 9c be dc a0 cd bc f1 71 52 bd
       -0.4649915 -0.30600873 -0.025101118 -0.051378194
000040 9f e6 22 3c 9e aa bc bd 8b f3 02 bf 5f 88 38 be
       0.00994268 -0.0921223 -0.5115287 -0.18020771
000050 87 5f 6f 3d 12 53 c9 3a 6b bb e0 3d 17 2f 96 3e
       0.05844071 0.001535984 0.10973247 0.29332802
000060 b7 0f 96 3e f9 3a 83 be cb bc ab 3d 4b 66 02 be
       0.29308864 -0.2563093 0.08385619 -0.12734334
000070 0e 0b 85 bf bd 41 f2 bd 61 97 04 be 7a 35 46 3c
       -1.0393999 -0.11828945 -0.12948371 0.012097711
000080 cc a1 41 3e 3a ca 27 3e 1d 5a 74 bd 9d af 00 3e
       0.18909377 0.16385737 -0.05965625 0.12566991
000090 4f 70 51 3c 62 46 09 be 24 17 d6 3e 5e 96 39 3e
       0.012783124 -0.13405755 0.4181453 0.18123767
0000a0 63 2b 06 be 17 53 a9 3e b3 11 18 3e bd 53 ce bf
       -0.13102488 0.33071205 0.14850502 -1.6119305
0000b0 d6 ba 6e bd 4c 22 8d be 53 89 fa 3e e7 cd a2 be
       -0.05828365 -0.2756523 0.48932895 -0.31797716
0000c0 5a 77 71 3e f3 2a a3 bf db 1e 06 3e 56 4e 1b 3e
       0.23580685 -1.2747482 0.13097708 0.15166602
0000d0 ea d6 e2 3e 1b 1b eb 3c d6 ca e9 3c 7e ff c6 3d
       0.4430459 0.028699448 0.028539103 0.097167
0000e0 6c 9c d7 bc 44 26 f6 bd 78 2e b2 3e 70 5c 37 3e
       -0.026319705 -0.12019017 0.34801078 0.17906356
0000f0 2b 17 54 3d 36 06 8a be f4 01 09 be 5d e0 50 be
       0.051779907 -0.26957864 -0.13379651 -0.20398088
000100 c5 b4 13 bf 8f 5e 20 be 59 4f 07 3d 68 df c6 be
       -0.5769771 -0.15661071 0.033034656 -0.3884232
000110 27 e6 95 3e 2e 27 d1 be fb 70 b6 3d 4e 67 4c be
       0.29277155 -0.40850204 0.08908268 -0.19961283
000120 26 26 8d 3e 44 3b 43 be 53 04 66 bc 73 42 89 3e
       0.27568167 -0.19065577 -0.014039117 0.2680851
000130 95 f4 1a bc 37 b7 ac 3e 5b 47 45 3e 2a 9e ba 3e
       -0.009457727 0.33733532 0.19265501 0.36448795
000140 11 1d b3 3d cf 69 65 be 54 d4 8b be 0f cb 33 3e
       0.08745778 -0.22403644 -0.2731043 0.1755793
000150 16 2e 91 3e 5b 9e de 3e 05 b8 e4 3d 35 80 99 3e
       0.28355473 0.4348019 0.111679114 0.29980627
000160 99 5e d2 3c a8 b4 99 3e 6c 99 1c 3e bf c4 6a bd
       0.025679873 0.30020642 0.15292901 -0.057316538
000170 50 51 b3 bd 8f 06 43 3e 30 76 9f 3e 3e 12 bf be
       -0.087557435 0.1904547 0.31144857 -0.37318605
000180 48 78 56 3e 8e 70 bc bd 3f 42 2f be 5f 90 56 3e
       0.20944321 -0.092011556 -0.17115115 0.2095351
000190 fe ff 1d be 98 8c 5c 3d b4 a7 27 3f 1f 0d 63 bf
       -0.15429685 0.05384502 0.6549027 -0.88691896
0001a0 83 a9 59 3e d1 c8 85 3e de 57 51 3e 2d 06 90 3e
       0.2125607 0.26129773 0.20443675 0.28129712
0001b0 61 40 17 bd a0 26 d9 bd 5e 1c 1c 3f 61 ff 6d be
       -0.03692663 -0.1060307 0.60980785 -0.2324195
0001c0 01 d9 6d 3e be f4 4c bf d7 1d 8a 3d a4 01 6f bc
       0.23227312 -0.80060947 0.06743973 -0.0145877935
0001d0 34 b5 b6 3d b8 6a c2 be dc e4 f2 3e 4e ab 13 3d
       0.089212805 -0.37972045 0.4744023 0.03605204
0001e0 0d 53 76 be 70 43 8a bd 55 74 c9 3e 3c 3a 91 3a
       -0.24055119 -0.06751144 0.39346567 0.0011079977
0001f0 53 1a 2a 3e ec bd b6 bd 13 4f e5 3d 5c 3e e3 bd
       0.16611604 -0.089229435 0.11196723 -0.110958785

bias f4 [8]
000000 ce 41 5e 3f bb ec 54 3f 35 11 da 3e 1f ed 5f bf
       0.8681916 0.8317372 0.42591253 -0.87471193
000010 cf cc 55 3f 29 bb 26 3f 4a 24 6a 3e 01 b4 0c bf
       0.8351564 0.65129334 0.22865406 -0.54962164

weight f4 [1, 8]
000000 e8 d9 39 3f 3e a5 0c 3f e2 ec 23 bf 08 51 b7 be
       0.72598124 0.5493964 -0.6403333 -0.3580401
000010 97 a2 45 3f 1a 32 60 be fd e2 dc be 8e eb 46 be
       0.7720122 -0.21894112 -0.43141928 -0.19425794
