models/MLP32.pt (torch, 352431 bytes, 9 tensors)

weight f4 [943, 32]
0	0x3f2a2a3d	0.664707
1	0xbef8267a	-0.48466855
2	0xbfa90bb3	-1.3206695
3	0xbf3071a1	-0.68923384
4	0x3fc4e7db	1.5383257
5	0xbe910c7f	-0.28329846
6	0xbfadefc8	-1.35888
7	0x3fb0f61d	1.3825108
8	0xbfc31ebc	-1.5243754
9	0x3f368bd9	0.7130714
10	0xbf6ebf34	-0.932605
11	0x3e082a7f	0.13297461
12	0x3fcf53eb	1.6197485
13	0xbfaf9556	-1.3717449
14	0x3ed0faa0	0.40816212
15	0x401953c1	2.395737
16	0xbf9c1485	-1.2193762
17	0xbe5aae65	-0.21355589
18	0xbef6e1bc	-0.48219097
19	0xbf97c17e	-1.1855924
20	0x3f7ed0af	0.99537176
21	0xbf6d0bc4	-0.9259608
22	0xbf9cf321	-1.2261697
23	0xbdf7df53	-0.121031426
24	0xbf871c25	-1.0555464
25	0x3f5f942d	0.87335473
26	0xbdaa59a0	-0.08317876
27	0x400bdb4b	2.1852596
28	0xbfc278f1	-1.5193158
29	0x3d8226b0	0.06355035
30	0xc0128392	-2.2892804
31	0x3f8930e3	1.0718044
32	0xbf8238c9	-1.017358
33	0x3f01fde2	0.5077802
34	0xbf786a50	-0.9703722
35	0xbf3121cd	-0.691922
36	0x3f263385	0.6492236
37	0x3f42d82c	0.761111
38	0xbf2cbcec	-0.6747577
39	0x3e62bec7	0.22143088
40	0xbf157e8d	-0.58396226
41	0xbfbf52d9	-1.4947158
42	0x3f89b9ff	1.0759887
43	0x3fc55f93	1.5419792
44	0xbf2d6ff0	-0.6774893
45	0x3f48a625	0.78378516
46	0x3da33730	0.079695106
47	0xbf3a5d65	-0.7279876
48	0x3f2a1938	0.6644473
49	0x3f1cc2c6	0.612347
50	0x3f02892b	0.5099055
51	0xbee4ec3a	-0.44711477
52	0xbf8cbcea	-1.0995152
53	0xc00ffd6a	-2.2498422
54	0xbef0ea15	-0.4705359
55	0xbf80e123	-1.0068706
56	0xbfa4b01f	-1.2866248
57	0x3e45f8cb	0.19333188
58	0x3ff4f8fe	1.9138486
59	0xbee64609	-0.44975308
60	0xbf9585ca	-1.1681454
61	0xbe0b3789	-0.13595404
62	0xbe9e1b24	-0.30880082
63	0x3eda9072	0.42688328
64	0x3f404219	0.75100857
65	0xbf4a587f	-0.79041284
66	0x3f0c20d2	0.5473758
67	0x3f359c22	0.70941365
68	0x3d82642e	0.06366764
69	0xbf3f8a67	-0.7482056
70	0xbfab99e1	-1.3406335
71	0x3f6801d1	0.9062777
72	0xbf4f3898	-0.8094573
73	0x3ecfa123	0.40552625
74	0x3edf4347	0.43606016
75	0x3ead1eb1	0.33812478
76	0xbfeed639	-1.8659126
77	0x3be380b0	0.006942831
78	0x3f80a49d	1.0050236
79	0xbf545ca7	-0.82953876
80	0xbf21e956	-0.6324667
81	0x3f389359	0.72099835
82	0x3d94c5bd	0.07264278
83	0xbed1693d	-0.40900603
84	0xbf798020	-0.9746113
85	0xbe179098	-0.14801252
86	0x3e329122	0.17438176
87	0xc012985b	-2.290549
88	0xc0183a35	-2.3785527
89	0xbf21c2dd	-0.6318796
90	0x3f514f9c	0.817621
91	0x3d96992c	0.07353434
92	0x3ed221ca	0.41041404
93	0xbf1ec22f	-0.6201505
94	0x3f9d6862	1.229748
95	0xbf72bca9	-0.9481912
96	0xbe19b60f	-0.15010856
97	0xbfa6a76d	-1.3019844
98	0x3dd781d4	0.105228096
99	0x3e66637a	0.22498885
100	0xbf22c3dc	-0.6358011
101	0xbec39a16	-0.38203496
102	0xbf38aee9	-0.7214189
103	0xbf826fb1	-1.0190336
104	0xbdb46e90	-0.088101506
105	0x3f87c428	1.0606737
106	0x3f9694de	1.1764181
107	0xbde2b2ed	-0.11069284
108	0xbf87aac2	-1.0598986
109	0xbddea197	-0.108706646
110	0xbf8557e7	-1.0417451
111	0xbea3c0ef	-0.31983134
112	0x3ffdf71b	1.9841036
113	0x3f36cbe3	0.71404856
114	0xbf2ae24a	-0.6675154
115	0xbddfac65	-0.109215535
116	0x3f950828	1.1643114
117	0x3f2dfedc	0.6796701
118	0x3e9c4cfc	0.30527484
119	0xbd993dff	-0.07482528
120	0xbd854e34	-0.06509057
121	0x3fe89a2e	1.8172052
122	0xbfa94d5f	-1.3226737
123	0xbfdc5908	-1.721467
124	0xc00785fb	-2.1175525
125	0x3e9e7edc	0.3095616
126	0x3faaae32	1.333441
127	0xbfde7362	-1.7378962
128	0xbf75b4c4	-0.9597895
129	0x3fa61910	1.2976398
130	0x3cd7a3b5	0.026323179
131	0xbf94f507	-1.1637276
132	0xbf87bda8	-1.0604753
133	0xbefb749b	-0.491124
134	0xbe79213b	-0.24329083
135	0x3f05d0ff	0.5227203
136	0x3fe71c7a	1.8055565
137	0x3fe15ad9	1.760585
138	0xbf7690b8	-0.96314573
139	0xbeb57694	-0.3544203
140	0x3fe6540f	1.7994403
141	0x3fb40f60	1.4067192
142	0xbf1291e1	-0.57253844
143	0xbea936eb	-0.33049712
144	0x3f43b1e6	0.76443326
145	0xbf4cfd87	-0.8007435
146	0xbee5c8cb	-0.44879755
147	0x3f8d2bb0	1.1028957
148	0xbe601ecc	-0.21886748
149	0xbf3917c1	-0.7230187
150	0xbf729a7e	-0.94766986
151	0xbf397b43	-0.7245371
152	0x3ef65010	0.48107958
153	0x3f78ae31	0.97140795
154	0xbf4e59fd	-0.8060606
155	0x3fa61a4c	1.2976775
156	0x3f1883dc	0.595762
157	0xbfd3f57b	-1.655929
158	0x3eb3f305	0.35146347
159	0xbf9662e4	-1.1748929
160	0xbf83c413	-1.0294212
161	0x3fc97bb5	1.5740877
162	0x3eb22286	0.34791964
163	0xbfe4bbc2	-1.7869799
164	0xbefe6516	-0.49686497
165	0x3f55afc4	0.8347132
166	0x3fe66f91	1.8002797
167	0x4006fd1c	2.1091986
168	0x3f4f95a5	0.81087714
169	0xbd93c10a	-0.07214554
170	0xbe100787	-0.14065371
171	0x3f8b5864	1.088635
172	0xbf462d2a	-0.77412665
173	0x3d664cda	0.056225635
174	0x3f58eb0c	0.84733653
175	0xbd15896d	-0.036508013
176	0xbfbbfd13	-1.4686607
177	0x3ebde66e	0.37089866
178	0xbfad2d43	-1.3529438
179	0x3f4fb3dc	0.8113382
180	0x3e3114ff	0.17293166
181	0x3ec7739f	0.389554
182	0x3f0a2d3f	0.5397529
183	0x3fca826a	1.5821049
184	0xc00f6181	-2.2403262
185	0x3f90b9ab	1.1306661
186	0xbf42fb32	-0.76164544
187	0xbf30925d	-0.6897333
188	0xbe4030d9	-0.18768634
189	0x3d42720c	0.047472045
190	0x3eb5a353	0.3547617
191	0x3f22a236	0.63528764
192	0xbfc211c6	-1.5161674
193	0xbf673215	-0.90310794
194	0xbf2e58e4	-0.68104386
195	0xbfe972f7	-1.823821
196	0xbfceab4a	-1.6146023
197	0xbf47d120	-0.78053474
198	0x3e30a63b	0.17250912
199	0x4012f3ef	2.2961385
200	0x3fbb1f2c	1.4618888
201	0x3ea7aec7	0.32750532
202	0x3c0380e6	0.008026337
203	0x40034a3f	2.0514066
204	0x3f3565bb	0.70858353
205	0xbff6798e	-1.9255846
206	0xbece347e	-0.40274423
207	0xbf2d83f6	-0.6777948
208	0xbfa980d5	-1.3242441
209	0x3f380dfd	0.71896344
210	0x3fcbbc03	1.5916752
211	0xbb85ba96	-0.0040810807
212	0xbf2e8280	-0.6816788
213	0xbee67e26	-0.4501812
214	0x3ea55f8f	0.32299468
215	0xbfe66276	-1.7998798
216	0xbf6f50d4	-0.9348271
217	0xbf1dff24	-0.6171744
218	0xbfe3452d	-1.7755486
219	0x3fa2c484	1.2716222
220	0x3fce2ce1	1.6107446
221	0x3f94338a	1.1578228
222	0x3eceb496	0.4037215
223	0xbdcda3e1	-0.10041023
224	0x3f220bd7	0.63299316
225	0x3f5c615c	0.8608606
226	0xbd0941e5	-0.033510108
227	0xbf9dcbb7	-1.2327794
228	0xbf0e9239	-0.5569187
229	0x3e5e9adc	0.21738762
230	0x400e5eb3	2.22453
231	0xbf5f719d	-0.87282735
232	0x3ef4370a	0.4769824
233	0x3f7c8de4	0.9865401
234	0xbfefc655	-1.8732401
235	0x3e9360c8	0.28784776
236	0xbf279445	-0.65460616
237	0xbf901292	-1.1255667
238	0x4073a567	3.8069704
239	0xbf1ad473	-0.6048042
240	0xbf293755	-0.66100055
241	0x3ff18b95	1.8870722
242	0xbf08966e	-0.5335454
243	0xbfecdce6	-1.8504913
244	0xbdf9d607	-0.121990256
245	0x3f953c21	1.1658975
246	0x3f4dae80	0.8034439
247	0xbfe44edc	-1.7836566
248	0xbf9b7d7b	-1.2147669
249	0xbd72a057	-0.059234943
250	0x3f43e538	0.76521635
251	0x3e3f10aa	0.186587
252	0x3db49d97	0.088191204
253	0x3ea891d2	0.32923752
254	0xbf825fb2	-1.0185454
255	0xbfa52526	-1.2901962

weight f4 [1682, 32]
0	0xbe046b95	-0.12931664
1	0x3fb015dc	1.3756671
2	0xbf643aee	-0.8915242
3	0xbe8a0724	-0.26958573
4	0x3e83f6fa	0.25774366
5	0xbf9a6876	-1.2063129
6	0xbf6b3872	-0.91883004
7	0x3de92f27	0.11385947
8	0x3dafeecb	0.08590468
9	0xc0158e7e	-2.336822
10	0x3f5e1283	0.86746997
11	0xbe919578	-0.28434348
12	0xc0094418	-2.144781
13	0xbe905cca	-0.28195792
14	0x3e02a2a0	0.12757349
15	0x3f0f82e8	0.5605912
16	0x3ee6d3b9	0.45083407
17	0xbf6098c4	-0.877331
18	0x3f61a247	0.8813824
19	0x3fbdae3d	1.4818798
20	0xbd67aee2	-0.056563266
21	0xbf1dc714	-0.61631894
22	0xbfd1edc2	-1.6400683
23	0x3fa15250	1.2603245
24	0xbfc6bbf8	-1.5526114
25	0xbfa37c6d	-1.2772347
26	0x3fbe4fb6	1.4868076
27	0xbe23270a	-0.15932861
28	0xbdd57065	-0.10421828
29	0x3e2c4d8e	0.1682646
30	0x3feb54cb	1.8385252
31	0xbf387fa4	-0.72069764
32	0xbd14919b	-0.036271673
33	0xbeae56d9	-0.34050635
34	0x3fe86cab	1.8158163
35	0xbe6c5eb3	-0.23083
36	0xbf895e14	-1.0731835
37	0xbe38904f	-0.180238
38	0xbfb40c15	-1.4066187
39	0xbee0ac1f	-0.43881318
40	0xbdc9e411	-0.09857953
41	0xbfc2ef27	-1.5229234
42	0xbdf080d5	-0.11743323
43	0x3f68c580	0.9092636
44	0xbf9616fb	-1.1725763
45	0xbea10b07	-0.31453726
46	0x3f0e7bf4	0.5565789
47	0x3dac7d10	0.08422291
48	0x3f0aa4cc	0.5415771
49	0x3efdfd25	0.49607196
50	0xbe8073b6	-0.2508828
51	0x3f85032a	1.039159
52	0x3eaf8611	0.34281972
53	0x3f053e14	0.5204785
54	0x3e852540	0.26004982
55	0xbe63aa7f	-0.22233008
56	0xbeb51b8c	-0.3537258
57	0xbf5c00b0	-0.8593855
58	0xbfacfd95	-1.3514887
59	0x3f864851	1.0490819
60	0x3f15e9b7	0.58559746
61	0xbf238cd5	-0.6388677
62	0xbf6ab61d	-0.9168413
63	0xbf8e2446	-1.110482
64	0xbedc839e	-0.43069166
65	0x3f5205a3	0.8203985
66	0x3fde2258	1.7354231
67	0xbe9489e6	-0.29011458
68	0x3ea73acf	0.32662055
69	0x3fcec7e5	1.6154753
70	0xbf0d0553	-0.5508625
71	0xbf4990d8	-0.7873664
72	0x3d281bc2	0.041042097
73	0xbe02a9b9	-0.12760057
74	0xbf3815d3	-0.719083
75	0x3f2e34c1	0.68049246
76	0x3eb704d7	0.3574588
77	0x3ef6c21e	0.48194975
78	0xbf301bb7	-0.6879229
79	0x3fc73477	1.5562886
80	0xbe1a0ae6	-0.1504322
81	0x3f2abc73	0.666938
82	0xbea198ec	-0.31561983
83	0xbe89ced4	-0.2691561
84	0x3f10c92c	0.56556964
85	0x3f9d6b6e	1.229841
86	0xbfafbf0a	-1.3730175
87	0xbeceea16	-0.40412968
88	0xbefcccb7	-0.49374935
89	0x40238b27	2.5553682
90	0x3df607fb	0.12013241
91	0xbea663c8	-0.32498002
92	0xbf85e4cc	-1.0460448
93	0xbfdf1a6b	-1.7429937
94	0xbdf662e1	-0.120305784
95	0x3f05eca9	0.5231424
96	0xbf91098f	-1.1331042
97	0x3f62d5d1	0.8860751
98	0x3fda3b1d	1.704929
99	0x3eda3569	0.42618874
100	0x3dcbc309	0.099493094
101	0xbf991506	-1.1959541
102	0xbf675131	-0.90358263
103	0x3ea1ff14	0.31639922
104	0xbf4e1efc	-0.8051603
105	0x3e73def6	0.23815522
106	0x3fb9ea02	1.4524539
107	0xbddb9ceb	-0.10723289
108	0x3f5f4289	0.872109
109	0x3f294190	0.66115665
110	0xbf93bd97	-1.1542233
111	0xbdfb1b4b	-0.12261065
112	0x3ff8a9a8	1.9426775
113	0xbfb2e02d	-1.3974663
114	0xbd6651c2	-0.056230314
115	0xbe7bd327	-0.24592267
116	0xbffddccc	-1.9833007
117	0xc02a66c4	-2.6625223
118	0x3f251b1e	0.644945
119	0x3ec771cc	0.38954008
120	0xbe89bab5	-0.2690026
121	0x3e584823	0.21121268
122	0xbfd36a7f	-1.6516875
123	0xbe9a5522	-0.30143076
124	0x3f7460e9	0.95460373
125	0xbeb2400f	-0.34814498
126	0x3eb32081	0.34985736
127	0x3ee5fdf1	0.44920304
128	0xbe433db7	-0.19066511
129	0x3f5c83fb	0.86138886
130	0xbf06bb70	-0.52629757
131	0x3f3f9132	0.74830925
132	0x3e8d0d23	0.27549085
133	0xbfaf84d1	-1.3712407
134	0x3d5c3b8c	0.053767726
135	0x3f0dd8a4	0.5540869
136	0xbf1ed7fc	-0.62048316
137	0x3fcb1d7e	1.5868375
138	0xbc9f85c6	-0.019472968
139	0x3f156c5d	0.58368474
140	0xbfe7ad46	-1.8099754
141	0xbf2e563f	-0.6810035
142	0x3fcc0380	1.5938568
143	0x3f9a2860	1.2043571
144	0xbee72ac5	-0.45149818
145	0x3ef7a067	0.48364565
146	0xbe57782c	-0.21041936
147	0x3d5d127d	0.05397271
148	0xbfc73939	-1.5564338
149	0xbe3a5d93	-0.18199758
150	0xbf2400e3	-0.64063853
151	0x3d712705	0.058875103
152	0x3e57a029	0.2105719
153	0x3fcc2359	1.5948287
154	0xbef9ff2d	-0.48827496
155	0x3ee50e84	0.44737637
156	0xbeb4ae3b	-0.35289177
157	0xbde077a3	-0.10960319
158	0x3f8c9272	1.0982192
159	0xbf3e9d78	-0.7445903
160	0xbeac6415	-0.33670107
161	0x3fcfbc6a	1.6229374
162	0xbdf64a8c	-0.120259374
163	0x3f85e871	1.046156
164	0xbf466598	-0.7749877
165	0xbfdaff57	-1.7109174
166	0x3e4b4048	0.1984874
167	0x3eff37c6	0.4984724
168	0x3e6e2908	0.2325784
169	0x3ee090b1	0.4386039
170	0x3f4ab0ee	0.79176223
171	0x3f9d107e	1.2270658
172	0x3ee6af4e	0.45055622
173	0xbeb64331	-0.35598138
174	0xbf2c1d6a	-0.6723238
175	0x3d2e8b6d	0.042613436
176	0x3f3f4814	0.7471936
177	0x3f36f165	0.7146209
178	0xbf6bb724	-0.92076325
179	0xbf2c2f34	-0.67259526
180	0x3f10ee7a	0.56613886
181	0x3e83f51a	0.25772935
182	0x3f807e29	1.0038501
183	0xbf2ca9b8	-0.6744647
184	0xbfb8f08b	-1.4448408
185	0xbe79314f	-0.24335216
186	0xbf8e9a88	-1.1140909
187	0xbf640f30	-0.89085674
188	0x3f46394d	0.77431184
189	0x3ee5bff6	0.44873017
190	0xbf8c18ab	-1.0945028
191	0x3f8cac10	1.0990009
192	0x3f56c7c2	0.83898556
193	0xbfd62623	-1.6730388
194	0x3f0fa187	0.56105846
195	0x3f830121	1.023472
196	0x401c16c9	2.4388907
197	0x3db8eb7c	0.0902929
198	0x3fc51cc8	1.5399408
199	0xbfa3ebdd	-1.2806355
200	0xbef3db76	-0.47628373
201	0xbfbcd137	-1.4751347
202	0xc00468e8	-2.068903
203	0x3ec10b53	0.37703952
204	0xc0034063	-2.0508049
205	0xbe66ca47	-0.225381
206	0x3f147cc0	0.58002853
207	0x3f70ef7e	0.94115436
208	0xbe96d403	-0.29458627
209	0xc0017d75	-2.0232823
210	0x4000a99c	2.0103521
211	0x3d0c8387	0.03430512
212	0x3c36fa2d	0.011168045
213	0x3e751724	0.23934609
214	0xbfb2a2c4	-1.3955922
215	0x3fb48616	1.410342
216	0xbf96dc13	-1.1785911
217	0x3ed0151c	0.40641105
218	0x3ee35ec1	0.4440823
219	0x3f94f373	1.1636795
220	0x3eb4ecda	0.35336953
221	0x3e37f448	0.1796428
222	0xbc8f7dcf	-0.017516045
223	0x3eedaa53	0.4641901
224	0xbee7d986	-0.45283145
225	0xbf3ebbf6	-0.74505556
226	0xbf0fd18f	-0.56179136
227	0x3f277fcf	0.65429395
228	0x3f373233	0.7156097
229	0xbeca1bc7	-0.39474317
230	0xbd8d1296	-0.068883106
231	0xbf403dbb	-0.75094193
232	0xbf07ce9f	-0.53049654
233	0x3e0f29ac	0.1398074
234	0x3f030697	0.5118193
235	0xbf9034a5	-1.1266066
236	0x3f34e211	0.7065745
237	0xbee7035b	-0.45119748
238	0xbf36e7b7	-0.7144732
239	0x3be79b9c	0.0070681106
240	0x3fe39214	1.7778955
241	0x3eee9b1b	0.4660271
242	0xbf6c33fb	-0.92266816
243	0x3e598358	0.2124151
244	0x3fef3ed3	1.8691047
245	0x3e75fb32	0.24021605
246	0xbf93cefd	-1.1547543
247	0x3f1792fa	0.59208643
248	0x3fff1d23	1.9930767
249	0x3f38f983	0.72255725
250	0xbf9d9c45	-1.2313315
251	0x3d207ba7	0.039180424
252	0x3ea3312a	0.31873447
253	0x3f41c848	0.7569623
254	0x3f3ef6fd	0.74595624
255	0xbefb3666	-0.4906494

weight f4 [32, 64]
0	0x3d8a511f	0.06753754
1	0x3e1ca880	0.15298653
2	0x3cb82055	0.022476355
3	0x3d0255e0	0.031820178
4	0x3e49852a	0.19679704
5	0xbe2835d2	-0.16426781
6	0xbdec95c2	-0.115520015
7	0xbcbe63d2	-0.023240957
8	0x3dc9692b	0.09834512
9	0x3e1ee17e	0.15515706
10	0x3e406d13	0.18791609
11	0x3cfe4375	0.031038025
12	0xbde46d71	-0.11153687
13	0x3dac648a	0.08417614
14	0xbe028bbe	-0.1274862
15	0x3e1b8703	0.15188222
16	0x3e3e294e	0.18570444
17	0x3c38131b	0.011235024
18	0xbe30400c	-0.17211932
19	0xbe9a4694	-0.30131972
20	0x3c19c2e7	0.009384847
21	0x3cd28480	0.025697947
22	0x3d92796f	0.07152068
23	0xbdaefec4	-0.085446864
24	0x3e90c353	0.2827402
25	0x3d0974b3	0.03355856
26	0x3dccc23a	0.09997983
27	0xbde4a8f4	-0.11165038
28	0xbde54751	-0.11195243
29	0x3e3b5f94	0.18298179
30	0x3e571b6b	0.21006553
31	0xbd2b7ff6	-0.04187008
32	0xbdc501c1	-0.09619475
33	0x3dd141e1	0.102176435
34	0x3c5fae46	0.01365239
35	0x3e03a994	0.12857658
36	0x3e23def2	0.16003016
37	0x3d3243f3	0.043521833
38	0x3d46738d	0.04845004
39	0xbd8e3c2f	-0.06945073
40	0x3de44439	0.11145825
41	0x3ceacd54	0.028662361
42	0xbe905d2a	-0.2819608
43	0x3db3a952	0.0877253
44	0x3e03bfc0	0.12866116
45	0x3ab3c973	0.0013716653
46	0xbdfb40a1	-0.12268186
47	0xbe02ebd4	-0.12785274
48	0xbd3f9621	-0.046774033
49	0xbd9fe064	-0.07806471
50	0xbbfaf8d2	-0.007659056
51	0x3d96339b	0.07334062
52	0xbd9dad13	-0.07699027
53	0xbdd4f8ac	-0.10398993
54	0x3dd2b637	0.10288661
55	0x3dc925c8	0.09821659
56	0x3d1cf158	0.0383161
57	0x3d1fd20c	0.039018676
58	0x3d06ca8c	0.032908008
59	0x3d11b46b	0.03557245
60	0x3dfad4ca	0.122476175
61	0xbdf763d1	-0.12079585
62	0xbde312e4	-0.110875875
63	0xbe5c657f	-0.21523093
64	0x3e64d673	0.22347431
65	0x3d6f9d69	0.058499727
66	0xbb416399	-0.0029508828
67	0x3b7f97eb	0.0039000462
68	0xbdb77a57	-0.08958881
69	0x3d61841f	0.05505764
70	0xbd8ab2ee	-0.067724094
71	0xbddf346d	-0.10898671
72	0x3dc97ce0	0.09838271
73	0x3e0bd8c0	0.13656902
74	0x3d255743	0.040366422
75	0xbca4333f	-0.020043967
76	0x3d91675b	0.070997916
77	0x3d6d1033	0.057876777
78	0xbd06aa3a	-0.032877184
79	0x3e48573e	0.1956453
80	0x3e3c866c	0.18410653
81	0x3e1f56f1	0.1556051
82	0xbc8f380b	-0.017482778
83	0xbd9c140b	-0.076210104
84	0x3d4fbd86	0.050717853
85	0x3e14a190	0.14514756
86	0xbcad72d8	-0.021172926
87	0x3ca5f30c	0.020257495
88	0xbbafce4c	-0.0053651687
89	0x3d48b1bc	0.048997626
90	0xbd2ea309	-0.04263595
91	0xbdd0c81c	-0.10194418
92	0x3cd75be4	0.026288934
93	0x3d402e33	0.04691906
94	0x3d89cca2	0.06728484
95	0xbd964ad1	-0.07338489
96	0x3dafea72	0.08589639
97	0x3ca74f6c	0.020423613
98	0xbd2ddfb6	-0.042449676
99	0xbdab1164	-0.083529264
100	0xbe638f66	-0.22222671
101	0xbb45767e	-0.0030130441
102	0xbb397154	-0.0028296309
103	0x3db3d000	0.08779907
104	0xbc357743	-0.0110757975
105	0x3ce11cca	0.027479548
106	0x3e99eeba	0.30064946
107	0x3d08f7a5	0.033439297
108	0xbd8b890c	-0.06813249
109	0xbcdf038e	-0.027223375
110	0x3cda054b	0.026613852
111	0x3df67a6f	0.12035071
112	0x3c9ddcbd	0.019270295
113	0x3e42aee7	0.19012032
114	0x3da346bd	0.07972477
115	0xbd0b3114	-0.03398235
116	0xbd8b1f2b	-0.06793054
117	0x3df5eb08	0.12007719
118	0xbdd23bf0	-0.102653384
119	0xbdf67d07	-0.12035566
120	0xbdbdfa99	-0.09276313
121	0xbc6abf76	-0.014327874
122	0xbe3fb87a	-0.18722716
123	0x3d64d254	0.055864647
124	0xbddcdfde	-0.10784887
125	0x3d9c540a	0.07633217
126	0xbd6aa398	-0.05728492
127	0x3e3d8188	0.18506444
128	0x3dbf1be6	0.09331493
129	0xbdd3bc99	-0.103387065
130	0x3dd98488	0.106209815
131	0xbc295868	-0.010336019
132	0xbe78c8da	-0.24295369
133	0x3e4376b3	0.19088249
134	0xbe07428f	-0.13208984
135	0xbd14fdc7	-0.036374833
136	0xbe24c6d8	-0.16091478
137	0xbd0ef30c	-0.034899756
138	0xbdd73014	-0.10507217
139	0xbd5b3f16	-0.05352696
140	0xbcd48353	-0.025941527
141	0xbe2dad3b	-0.16960613
142	0x3db2ffc3	0.08740189
143	0x3db3eeb9	0.08785767
144	0xbd73ff48	-0.059569627
145	0xbda49120	-0.08035493
146	0xbc32a11d	-0.01090267
147	0xbdbd51a9	-0.09244091
148	0xbcba6cb3	-0.02275691
149	0x3e42d33d	0.19025894
150	0xbb9f050b	-0.004852896
151	0x3e49225b	0.19642012
152	0xbdc94550	-0.098276734
153	0xbe470e9c	-0.19439167
154	0xbdcc3f61	-0.09973026
155	0x3de6ca1b	0.11269017
156	0xbcdda18f	-0.027054576
157	0x3cd3d4fc	0.025858395
158	0x3d8c8e00	0.06863022
159	0x3d7d7a74	0.06188436
160	0xbdcbec11	-0.099571355
161	0xbcdea197	-0.027176661
162	0x3e0b4b7d	0.13603015
163	0x3e144da1	0.14482738
164	0x3dd5e0db	0.104432784
165	0x3d94b0c7	0.0726028
166	0xbde6587b	-0.11247345
167	0xbb81ceb2	-0.0039614076
168	0xbe3ee402	-0.18641666
169	0x3d994c1b	0.07485219
170	0x3db42f01	0.08798028
171	0x3d56140b	0.05226521
172	0xbdfbe737	-0.1229996
173	0xbdd1c1b4	-0.10242024
174	0x3cead9b9	0.028668271
175	0xbe16c0a6	-0.14721927
176	0xbd5bb65d	-0.053640712
177	0xbc59cda7	-0.01329366
178	0x3d2e5ca3	0.042568814
179	0x3db7b8ff	0.08970832
180	0x3e1f7445	0.15571697
181	0xbd35bf69	-0.044371996
182	0xbdec8502	-0.11548807
183	0xbd320e09	-0.043470416
184	0xbd0b7eb5	-0.034056384
185	0x3e25fa07	0.16208659
186	0x3d242352	0.040072747
187	0x3e4372c6	0.19086751
188	0xbc729ca2	-0.014807852
189	0xbdeec7d7	-0.1165921
190	0xbd392042	-0.04519678
191	0x3d95ad77	0.073084764
192	0xbb6677e0	-0.0035166666
193	0x3d8178a7	0.06321841
194	0xbc74122f	-0.014896913
195	0x3ca966f6	0.020678978
196	0x3e1be0fc	0.15222543
197	0x3d00393c	0.031304583
198	0xbdf3b38a	-0.11899479
199	0xbdff3ccb	-0.12462767
200	0xbd3b2829	-0.045692597
201	0xbd901836	-0.07035868
202	0x3ca68810	0.020328552
203	0x3dd6bb78	0.104849756
204	0xbd44c6f1	-0.048041288
205	0x3dc318a2	0.09526183
206	0x3c88d23f	0.016701816
207	0x3da947ab	0.08265623
208	0x3d1353ce	0.035968594
209	0xbd1e5fba	-0.03866551
210	0xb9b8875a	-0.0003519606
211	0x3d451e75	0.04812475
212	0x3cce40d0	0.02517739
213	0xbd3bda1f	-0.045862313
214	0x3ca58283	0.020203834
215	0xbdb831c0	-0.08993864
216	0x3dff4d6b	0.12465938
217	0x3cb57f61	0.022155466
218	0xbc0cf7ab	-0.0086039705
219	0x3dc9f934	0.09861985
220	0xbdefbafb	-0.117055856
221	0x3e1c9057	0.15289436
222	0x3cae11c0	0.021248698
223	0xbd27c96f	-0.040963586
224	0xbd924e57	-0.071438484
225	0x3d83add5	0.0642964
226	0xbdc823a9	-0.09772427
227	0xbe8651f3	-0.26234397
228	0xbe45b469	-0.19307102
229	0x3cacf5ec	0.021113358
230	0x3d9f5d7d	0.07781503
231	0x3df69079	0.12039275
232	0xbd31711f	-0.04332077
233	0x3d5db452	0.054127045
234	0x3e28c4f1	0.16481377
235	0x3db8695d	0.090044715
236	0xbd59ca0b	-0.0531712
237	0x3deb2cba	0.1148314
238	0x3d2b94d0	0.041889966
239	0x3d7423cb	0.059604447
240	0xbe4c707c	-0.19964784
241	0x3cba98ab	0.022777876
242	0xbde95fce	-0.113952264
243	0xbe59d560	-0.21272802
244	0xbd47c87f	-0.048775192
245	0x3e58da60	0.21177053
246	0x3e1613bf	0.1465597
247	0xbddc48f1	-0.107561
248	0x3cd3f7e0	0.025875032
249	0x3d9469e1	0.07246757
250	0xbdd91a6e	-0.10600744
251	0x3dc2f9a2	0.0952027
252	0xbe5494b5	-0.20759852
253	0x3e0165aa	0.12636438
254	0xbdce06b7	-0.100598745
255	0x3da50532	0.080576316

bias f4 [32]
0	0xbe454e66	-0.19268188
1	0xbd414aad	-0.047190357
2	0xbe366787	-0.1781293
3	0x3dd1f8e1	0.10252548
4	0xbe7a0003	-0.24414067
5	0xbdab3b53	-0.083609246
6	0xbdfafed5	-0.122556366
7	0xbc4c0e39	-0.012454563
8	0x3cb73562	0.022364322
9	0x3e901000	0.28137207
10	0x3ded914f	0.11599981
11	0x3ce0ec42	0.027456407
12	0xbd8006de	-0.0625131
13	0xbd74f3bb	-0.059802752
14	0x3e253321	0.16132785
15	0xbd073363	-0.03300799
16	0x3d7259d3	0.059167694
17	0x3cd96d2d	0.026541317
18	0xbe2a3b17	-0.16624103
19	0x3df0cbf0	0.11757648
20	0xbd8e1fc7	-0.06939655
21	0xbdd53290	-0.10410035
22	0x3d6bef15	0.057601053
23	0x3d1336af	0.035940822
24	0xbdc137c6	-0.09434466
25	0xbe22012f	-0.15820764
26	0x3e6c09a4	0.23050553
27	0x3ce53174	0.027977683
28	0x3e0bdf57	0.13659416
29	0xbc9906f6	-0.018680077
30	0x3c879805	0.01655198
31	0x3d602918	0.05472669

weight f4 [16, 32]
0	0x3e80362b	0.25041327
1	0xbe931a57	-0.28731033
2	0xbe123c7f	-0.1428089
3	0xbc979bc2	-0.018506888
4	0x3df483c4	0.11939195
5	0x3e775938	0.24155128
6	0xbd2a5bca	-0.041591443
7	0xbcec94d3	-0.028879559
8	0x3d195957	0.037438717
9	0xbd9df3cf	-0.077125184
10	0x3e8ebd85	0.27878967
11	0xbe494954	-0.19656879
12	0xbd3395c4	-0.043844
13	0xbe15a1e8	-0.14612544
14	0xbcab33a5	-0.02089865
15	0x3e59dbda	0.21275273
16	0xbc99031a	-0.018678237
17	0x3dc0b97f	0.094103806
18	0x3e504aee	0.20341083
19	0x3e39500a	0.18096939
20	0xbde1cd3a	-0.11025472
21	0xbd5defd6	-0.054183803
22	0xbd46ba4f	-0.04851752
23	0x3d89ae53	0.06722703
24	0xbe59efec	-0.21282929
25	0x3e3c37dc	0.18380684
26	0x3dca6488	0.09882456
27	0x3e3e092d	0.18558188
28	0xbe814005	-0.25244156
29	0xbe9959a8	-0.29951215
30	0x3d87b379	0.066260286
31	0x3e799e67	0.24376832
32	0xbdc20f0e	-0.09475528
33	0x3e3cc23c	0.1843347
34	0xbe2d6176	-0.1693171
35	0x3e6d828d	0.23194332
36	0xbd2ecbf0	-0.04267496
37	0xbe91549b	-0.2838486
38	0xbda064eb	-0.078317486
39	0xbea01dc9	-0.31272724
40	0x3dca4056	0.09875552
41	0x3cee7caa	0.029112179
42	0xbe23c2c0	-0.1599226
43	0xbe86647d	-0.2624854
44	0xbbe1ea91	-0.0068944176
45	0x3d526838	0.051368922
46	0xbd35253f	-0.044224974
47	0x3e287812	0.16452053
48	0x3dd03368	0.10166055
49	0x3df09775	0.11747638
50	0xbdfdf4e9	-0.124002285
51	0xbe814476	-0.25247544
52	0x3e3def3c	0.18548292
53	0xbe5efc7c	-0.21776003
54	0xbe3c1d44	-0.18370539
55	0xbbdac3a5	-0.0066761547
56	0xbde5e563	-0.11225393
57	0xbcfdb310	-0.030969173
58	0x3c33a72b	0.010965149
59	0xbe2b3468	-0.1671921
60	0x3de58730	0.112074256
61	0x3e3e6e3f	0.18596743
62	0xbe05c13d	-0.13061996
63	0xbe516ee4	-0.20452458
64	0x3c1c2f0f	0.009532704
65	0xbdd490e3	-0.103791974
66	0xbe715ebf	-0.23571299
67	0x3e4a7b78	0.19773662
68	0xbe95d88f	-0.29266784
69	0xbd0ab8b3	-0.03386755
70	0xbe8a6a3b	-0.27034172
71	0xbdfcaf51	-0.123381265
72	0x3e507996	0.20358881
73	0x3d0e61ef	0.034761366
74	0xbe871525	-0.2638332
75	0xbe816ab1	-0.25276712
76	0x3e137de2	0.14403489
77	0x3e489a4b	0.19590108
78	0x3d52926e	0.051409177
79	0x3e2faa92	0.17154911
80	0xbe302b05	-0.1720391
81	0x3e953fa8	0.29150128
82	0xbe0ca9c6	-0.13736638
83	0x3db72782	0.089430824
84	0x3e23010f	0.15918373
85	0xbd8da87c	-0.069169015
86	0x3e2c6420	0.1683507
87	0x3d251c22	0.040310033
88	0x3e45d484	0.1931935
89	0x3e5d125f	0.2158904
90	0xbd80179f	-0.06254505
91	0x3cb47912	0.022030387
92	0x3c9d4e32	0.019202325
93	0xbdbe0c5b	-0.092797
94	0xba3325a9	-0.000683392
95	0xbe89ec43	-0.26938066
96	0x3ea843b9	0.32864168
97	0x3c974ec8	0.018470183
98	0x3e016c3e	0.12638947
99	0xbdd7fc06	-0.105461165
100	0x3e821699	0.25407866
101	0xbe2be555	-0.16786702
102	0x3e0c20fb	0.13684456
103	0x3e34f572	0.17671755
104	0x3e07700b	0.13226335
105	0xbcb3be03	-0.02194119
106	0x3ca73f5e	0.020415958
107	0xbc4dbae6	-0.012556767
108	0x3d9bda57	0.076100044
109	0xbd417e75	-0.04723974
110	0x3d2112f7	0.039324727
111	0x3db76b68	0.08956033
112	0xbe473760	-0.19454718
113	0xbd35bf33	-0.044371795
114	0xbd929afc	-0.07158467
115	0xbda58572	-0.08082093
116	0x3dcf41df	0.10119986
117	0x3d8d3642	0.068951145
118	0x3b574bc2	0.0032851552
119	0x3d959288	0.07303339
120	0x3e844282	0.2583199
121	0x3e137ef0	0.14403892
122	0xbe25e9bc	-0.16202444
123	0xbe38f692	-0.18062809
124	0xbde8852f	-0.11353528
125	0xbd286645	-0.041113157
126	0xbc44b8e1	-0.012006969
127	0xbd7a772e	-0.061148815
128	0xbda9e8b4	-0.08296338
129	0x3d0b0ef2	0.0339498
130	0xbe43078e	-0.1904585
131	0x3e812034	0.25219882
132	0xbe3601d7	-0.1777414
133	0xbd319070	-0.043350637
134	0xbe2d9f22	-0.16955236
135	0xbe7fb12f	-0.24969934
136	0x3d96b292	0.07358278
137	0x3ce182e5	0.027528236
138	0x3e801b61	0.25020888
139	0xbe8175b7	-0.25285122
140	0xbdba6d00	-0.09102821
141	0xbdfce7db	-0.123489104
142	0xbe4636bd	-0.19356818
143	0xbc593ced	-0.013259155
144	0xbe2be341	-0.16785909
145	0x3e01b912	0.12668255
146	0x3d4f0bad	0.050548244
147	0x3dc34bed	0.09535966
148	0xbe0a83ea	-0.13526884
149	0xbe1a5ffd	-0.15075679
150	0xbe0a7186	-0.13519868
151	0x3d9f9a29	0.077930756
152	0x3d7065f8	0.058690995
153	0xbe5555d3	-0.2083352
154	0x3cae19d9	0.02125256
155	0xbdaca8f0	-0.0843066
156	0x3d6bad2d	0.0575382
157	0xbe68fb47	-0.22752105
158	0x3d07eed3	0.033186745
159	0x3e78a9e5	0.2428356
160	0x3e30ce2a	0.17266145
161	0x3d8b7b13	0.06810584
162	0xbe1d3e47	-0.15355788
163	0xbd80fd81	-0.06298352
164	0x3da79c99	0.081841655
165	0xbe113cca	-0.14183345
166	0xbe143f54	-0.14477283
167	0xbe07d2d3	-0.13264017
168	0xbd0e0b4b	-0.03467874
169	0x3c28c77c	0.010301467
170	0x3dd41984	0.10356429
171	0x3c4bf02b	0.012447397
172	0xbd62ef08	-0.05540374
173	0x3e8b471c	0.2720269
174	0xbd2063b9	-0.039157603
175	0xbe56f979	-0.20993604
176	0xbe7be670	-0.24599624
177	0x3e455524	0.1927076
178	0x3e1cf96f	0.15329526
179	0x3e88312c	0.26600015
180	0x3e10b94b	0.14133184
181	0xbe16a168	-0.14710009
182	0xbe45354b	-0.19258611
183	0xbd59aea2	-0.05314506
184	0xbdebbcf4	-0.11510649
185	0xbe4a73ba	-0.19770709
186	0xbd80ff59	-0.06298704
187	0xbe122ad5	-0.14274152
188	0x3e247afb	0.16062538
189	0xbe158044	-0.1459971
190	0x3e187e11	0.1489184
191	0x3db06522	0.086130396
192	0xbdb03306	-0.08603482
193	0xbd4cb485	-0.049976844
194	0xbacb04e3	-0.0015489127
195	0xbaffc48b	-0.001951353
196	0xbd2b7257	-0.04185709
197	0x3e501043	0.20318703
198	0x3e1a860e	0.150902
199	0xbe03c1ab	-0.12866847
200	0xbe0e6e39	-0.13909234
201	0x3e8be723	0.2732478
202	0x3e10652f	0.14101098
203	0x3b12dea8	0.0022410545
204	0x3e93a15b	0.28834042
205	0x3e85c18d	0.2612423
206	0x3ddd62a0	0.10809827
207	0xbdc4c0c4	-0.096070796
208	0x3e76948f	0.24080108
209	0xbe8490c6	-0.25891703
210	0xbe88dd91	-0.26731542
211	0x3dd5d7c0	0.10441542
212	0xbd246539	-0.040135596
213	0xbd5c71a2	-0.053819306
214	0x3ddbacaa	0.107262924
215	0x3e143547	0.14473449
216	0xbec8be6c	-0.3920778
217	0xbddbb6ad	-0.10728202
218	0x3dd896f8	0.1057567
219	0x3db7ede4	0.08980921
220	0xbe08aca7	-0.13347112
221	0x3ce3ad03	0.02779246
222	0xbe384638	-0.17995536
223	0xbe3f8503	-0.18703084
224	0xbe52bef9	-0.20580663
225	0x3dba44a1	0.09095121
226	0x3e41a5c9	0.18910898
227	0x3e84ecbe	0.2596187
228	0xbe1f3d58	-0.15550745
229	0xbe8d4d8e	-0.27598232
230	0x3e186a7b	0.14884369
231	0xbe0fd649	-0.14046587
232	0xbe800ab5	-0.2500817
233	0x3de4567b	0.11149307
234	0xbd5d79af	-0.054071125
235	0xbe1f0c95	-0.15532143
236	0xbe103cea	-0.14085737
237	0x3caaea90	0.020863801
238	0xbd9b3479	-0.07578368
239	0xbd6161f8	-0.05502507
240	0x3e4aa8b7	0.19790922
241	0x3d3f3d3c	0.046689257
242	0x3d1cbf8c	0.03826861
243	0xbe7ac18e	-0.24487898
244	0x3e2d57d7	0.1692804
245	0xbe0abb94	-0.13548118
246	0x3d10beaf	0.0353381
247	0x3e0d7eac	0.13817853
248	0x3e0e0b52	0.13871506
249	0x3d5007d0	0.0507887
250	0xbc890dd9	-0.016730236
251	0x3c284b4f	0.010271861
252	0x3e840261	0.25783065
253	0xbd2b9931	-0.04189414
254	0x3e4928ad	0.19644423
255	0x3e56ba5f	0.20969532

bias f4 [16]
0	0xbdfcb195	-0.123385586
1	0x3c7c2e1b	0.015391852
2	0x3dc61b66	0.096731946
3	0xbd562397	-0.052280035
4	0x3e8811f8	0.2657621
5	0xbd698b63	-0.057017695
6	0xbdd84890	-0.10560715
7	0xbca9ef4d	-0.02074399
8	0x3e9cda18	0.30635142
9	0xbe10be08	-0.14134991
10	0xbe086fca	-0.13323894
11	0xbdc1e5a5	-0.09467629
12	0xbdcc11c8	-0.09964329
13	0x3eaee4af	0.34158847
14	0xbe140be8	-0.14457667
15	0xbd47c008	-0.04876712

weight f4 [8, 16]
0	0xbe67521c	-0.22589916
1	0xbd96d58f	-0.07364952
2	0xbe51decc	-0.20495147
3	0x3e9495d1	0.2902055
4	0xbd8089fe	-0.0627632
5	0xbd9c0d9d	-0.07619784
6	0x3c9f7f9a	0.019470025
7	0xbe519ae8	-0.20469248
8	0x3d8bf30c	0.06833467
9	0xbce4b981	-0.027920486
10	0xbe6ab0c8	-0.22918999
11	0xbd4bfb86	-0.04980042
12	0xbdd72f4b	-0.10507067
13	0xbda7f133	-0.08200302
14	0xbdde46c4	-0.10853341
15	0x3e2977a8	0.16549551
16	0xbe6ed390	-0.23322892
17	0xbd786ea8	-0.060652405
18	0xbe51c6f6	-0.20486054
19	0x3dc764e7	0.097360425
20	0x3e55eb62	0.20890573
21	0xbe342f53	-0.17596178
22	0x3e9dad64	0.3079635
23	0xbe47735b	-0.19477598
24	0x3f06f228	0.5271325
25	0xbe850bb6	-0.25985497
26	0xbe9b464e	-0.30327076
27	0xbdc16c70	-0.09444511
28	0xbe8218d6	-0.25409573
29	0x3e901970	0.28144407
30	0xbd42f2af	-0.047594722
31	0xbe6fea60	-0.2342925
32	0x3d848720	0.064710855
33	0x3eaf3dc5	0.34226814
34	0x3ed3b63b	0.41349968
35	0xbb9995b1	-0.004687034
36	0x3e8809d7	0.26570007
37	0x3e416788	0.1888715
38	0x3e5a47bd	0.21316428
39	0x3eb62120	0.35572147
40	0xbe0e0ac8	-0.138713
41	0x3e1b2dd3	0.151542
42	0x3e586721	0.2113309
43	0x3e844f2a	0.25841647
44	0x3da04fe4	0.07827738
45	0x3e40c923	0.18826728
46	0xbd88a08b	-0.06671246
47	0x3ecb2381	0.39675525
48	0x3d62b274	0.055345967
49	0xbc6f25ef	-0.014596446
50	0x3e4b9f3f	0.19884966
51	0xbe102229	-0.14075531
52	0x3e9ee178	0.31031394
53	0x3e9dad7f	0.3079643
54	0xbd152c59	-0.036419246
55	0xbda08579	-0.07837958
56	0xbc886331	-0.01664886
57	0x3e993166	0.299205
58	0x3da5120e	0.08060084
59	0x3c816861	0.015796842
60	0x3bc167a6	0.0059022484
61	0x3dda9e24	0.10674694
62	0xbd49754c	-0.04918413
63	0x3ed7f2ff	0.4217758
64	0x3e51e4b9	0.20497407
65	0x3e82e624	0.25566208
66	0x3e6672a9	0.22504677
67	0xbea2fc50	-0.31833124
68	0xbd7181d8	-0.05896172
69	0xbd6be039	-0.057586882
70	0x3d26925c	0.040666923
71	0x3df7f2df	0.12106871
72	0xbb8a5585	-0.0042216205
73	0x3e670196	0.22559199
74	0x3dc0011f	0.09375214
75	0x3b271245	0.0025493067
76	0x3e157fcd	0.14599533
77	0xbbcb4559	-0.0062033352
78	0x3e8d9c1a	0.2765816
79	0x3eb110de	0.3458318
80	0x3eaebee9	0.34130028
81	0x3beb7df2	0.0071866447
82	0x3c3a8f18	0.011386655
83	0xbe1e75e9	-0.15474667
84	0x3e81d119	0.2535484
85	0x3e93cb37	0.28865978
86	0x3c0f916c	0.008762699
87	0x3ec13f7a	0.3774374
88	0xbe1a87f0	-0.15090919
89	0x3ea4ade6	0.32163924
90	0x3e44dd01	0.19224931
91	0x3e1b0432	0.15138319
92	0x3dfbe4f1	0.122995265
93	0x3e6b40bc	0.22973913
94	0x3c02ee6d	0.007991415
95	0x3e375335	0.17902835
96	0x3e96b955	0.29438272
97	0x3ea9d106	0.33167285
98	0x3ec1a090	0.37817812
99	0xbea59694	-0.32341444
100	0x3ec64771	0.3872638
101	0x3ebee683	0.3728524
102	0x3bbd4eef	0.005777232
103	0x3e73c602	0.23806003
104	0xbd58f7b5	-0.052970607
105	0xbd6d7f32	-0.05798263
106	0x3e2a32e1	0.16620971
107	0x3eec8974	0.46198618
108	0x3e9a7b97	0.30172417
109	0x3e1be299	0.15223159
110	0x3e6f9067	0.23394929
111	0xbcfef9a3	-0.031124895
112	0xbda10c44	-0.078636676
113	0x3e31830c	0.17335147
114	0x3de0c1db	0.10974475
115	0x3e0b7944	0.13620478
116	0x3cda8c0e	0.026678111
117	0x3e3ba7ad	0.18325682
118	0xbda2ea3a	-0.079548314
119	0xbe81d4e2	-0.2535773
120	0xbd99b50a	-0.075052336
121	0x3d7958de	0.060875766
122	0xbe844c68	-0.25839543
123	0xbe881e4b	-0.26585612
124	0x3e9cd597	0.30631706
125	0xbeb753dd	-0.3580617
126	0xbe613b52	-0.21995285
127	0xbe670536	-0.22560582

bias f4 [8]
0	0xbd88e58b	-0.06684407
1	0x3f0780ff	0.5293121
2	0xbd374132	-0.04473991
3	0xbd62d295	-0.055376608
4	0xbdfc9ba3	-0.12334373
5	0x3da68132	0.08130111
6	0xbd459b92	-0.048244067
7	0xbdb49196	-0.08816831

weight f4 [1, 8]
0	0x3edebf01	0.435051
1	0x3f454f87	0.77074474
2	0xbe31eb63	-0.17374949
3	0xbea523ac	-0.32253778
4	0xbecbbf43	-0.3979436
5	0xbe25ca7d	-0.16190524
6	0xbf069d0b	-0.5258338
7	0x3e9cac4b	0.306002
