models/MLP8.pt (torch, 93347 bytes, 9 tensors)

weight f4 [943, 8]
0	0x3fb9376b	1.4470037
1	0xc04b0390	-3.1720924
2	0x3ff4e8f6	1.9133594
3	0xbf9488ff	-1.1604308
4	0xbfc57765	-1.5427061
5	0xbe0dd4be	-0.13850686
6	0xbe2c0fc2	-0.16802886
7	0xbf18dceb	-0.59712094
8	0xbee00101	-0.43750766
9	0xbf3bf74b	-0.73424214
10	0xbe1f5e5b	-0.15563338
11	0x3e547920	0.2074933
12	0x3f62b1d4	0.88552594
13	0x3ea3c50b	0.3198627
14	0xbf2024b0	-0.6255598
15	0x3f386512	0.7202922
16	0xbe971aa0	-0.295125
17	0x3e9b1a9f	0.30293748
18	0xbc8741d8	-0.016510889
19	0x4009d8a7	2.1538484
20	0xbe3bd544	-0.18343073
21	0xbf183043	-0.5944864
22	0xbefd941c	-0.4952706
23	0x3f7f9c5c	0.9984796
24	0x3f573e90	0.8407984
25	0xbf469e41	-0.77585226
26	0xbfa19f8c	-1.2626815
27	0x3f868170	1.0508251
28	0xbef1ccf3	-0.47226676
29	0x3fd1874e	1.6369417
30	0xbf0ef842	-0.5584756
31	0xbd4d1294	-0.050066546
32	0xbe697eec	-0.22802323
33	0xbf2c6911	-0.6734782
34	0xbd04fe2f	-0.03246897
35	0xbfad56d8	-1.3542128
36	0xbff24cd4	-1.8929696
37	0x3eec8735	0.46196905
38	0xbf34f92e	-0.7069272
39	0x3e2ece38	0.17070854
40	0xbea92407	-0.330353
41	0xbe20c3d3	-0.15699701
42	0xbe76db1d	-0.24107023
43	0xbf0ecf43	-0.55785006
44	0xbe6049ca	-0.21903148
45	0x3e9e0445	0.30862632
46	0x3f6f61f9	0.9350887
47	0xc02cea04	-2.7017832
48	0xbfc2374d	-1.5173126
49	0x40018986	2.0240188
50	0x3e53d6a8	0.20687354
51	0xbfecbbb7	-1.8494786
52	0x3f189961	0.5960904
53	0x3fe8bba5	1.8182265
54	0x3f613794	0.8797543
55	0xbfeb0d70	-1.8363476
56	0xbf02441e	-0.5088519
57	0xbfb17178	-1.3862753
58	0x3de2ce91	0.11074556
59	0x3fb8503c	1.4399486
60	0xbfed1529	-1.8522083
61	0xbee4e97f	-0.44709393
62	0x3f315327	0.69267505
63	0x3f8c8be8	1.0980196
64	0xbfb474ad	-1.4098107
65	0x3ea7e325	0.32790485
66	0xbde4a70b	-0.111646734
67	0xbf005e20	-0.50143623
68	0x3f5a7e71	0.85349184
69	0xbec4c588	-0.38431954
70	0x3e1a914f	0.15094493
71	0x3e694bde	0.22782847
72	0x3c117821	0.008878739
73	0x3eadb40f	0.33926436
74	0x3ed60ad8	0.41805148
75	0xbea96cf9	-0.33090952
76	0x3f428a28	0.7599206
77	0x3eed7b67	0.4638321
78	0x3fa1044f	1.257944
79	0xbe419f96	-0.18908533
80	0xbe9a80f6	-0.30176514
81	0xbd6768f0	-0.05649656
82	0xc0088b71	-2.1335108
83	0xbfb404e3	-1.4063991
84	0x3fa067b5	1.2531649
85	0x3f217e51	0.6308337
86	0xbec1a9a9	-0.37824753
87	0xbfb4cff8	-1.4125967
88	0xbee2dd19	-0.4430931
89	0x3df0cd90	0.11757958
90	0x3ba83dd0	0.0051343217
91	0x3eb61cc6	0.35568827
92	0xbfc0f860	-1.5075798
93	0xbf0bfc95	-0.54682285
94	0xbf82571c	-1.0182834
95	0xbfac7e1b	-1.3475984
96	0x3dcd7efe	0.100339875
97	0xc018b0c3	-2.3857887
98	0xbf9a6477	-1.206191
99	0x3daf4429	0.085579224
100	0xbf3a3f7b	-0.72753114
101	0xbf847581	-1.0348359
102	0xbe9d48bc	-0.30719554
103	0xbfde9d89	-1.7391826
104	0xbf9ac45a	-1.2091172
105	0x3fd745aa	1.6818135
106	0xbfd07706	-1.6286323
107	0x3ea91302	0.33022314
108	0x3fa91450	1.3209324
109	0x3ef24104	0.47315228
110	0x3f9046bc	1.1271586
111	0x3eb67bea	0.35641414
112	0xbf2f1c5f	-0.68402666
113	0x3e9248bb	0.28571114
114	0x3fc70041	1.5546952
115	0xbfb781a3	-1.4336437
116	0x3ec479e7	0.38374254
117	0xbfe44ad8	-1.783534
118	0x3eca25a0	0.3948183
119	0xbc961868	-0.018322185
120	0xbe65302f	-0.22381662
121	0x3fd8aa59	1.6926986
122	0xbf0899e1	-0.533598
123	0x3e22f414	0.15913421
124	0xbfcea4be	-1.6144025
125	0x3f6ff9a1	0.9374028
126	0x3f094350	0.53618336
127	0x3e092a9b	0.13395159
128	0x3d930687	0.07178979
129	0xbf9bc7ed	-1.2170388
130	0xbf54699d	-0.82973653
131	0x3f7b0a93	0.9806301
132	0x3f60d7e2	0.8782941
133	0x3e8df2e3	0.2772437
134	0xbb6e2245	-0.0036336344
135	0x3fb7d731	1.4362546
136	0x4029f29f	2.6554334
137	0xbf2e26fd	-0.6802824
138	0xbe8afb16	-0.27144688
139	0x3ecb9823	0.3976451
140	0xbf8dd03d	-1.1079174
141	0xbfd78e9b	-1.6840395
142	0x3f1f4caf	0.62226385
143	0x3b0731a4	0.0020628953
144	0x3f8090db	1.0044206
145	0x3e28a291	0.16468264
146	0xbf690ed9	-0.9103828
147	0x3fcfb6f5	1.6227709
148	0xbf75215d	-0.95754033
149	0x3f1312a4	0.5745032
150	0x3f1ab132	0.6042663
151	0x3f7e2896	0.9928068
152	0xbea5a4d2	-0.3235231
153	0xbef9e063	-0.48804006
154	0x3f60ccc6	0.8781246
155	0xbfc036e0	-1.5016747
156	0xbf897025	-1.0737349
157	0xbfc97929	-1.57401
158	0xbdb23e2d	-0.08703265
159	0x3fb6e4ea	1.4288609
160	0xbfab0cd4	-1.336329
161	0x40036c01	2.053467
162	0x3f1c10bd	0.6096304
163	0xbf8eebf6	-1.116576
164	0xbe79f074	-0.24408132
165	0xbf3eed2f	-0.74580663
166	0xbdcc62e7	-0.099798016
167	0xc0025434	-2.0363894
168	0x3f214d04	0.6300814
169	0x40050e12	2.0789838
170	0x3e91e77b	0.28496918
171	0x3f053a04	0.5204165
172	0xbf83a3c4	-1.0284352
173	0xbdb6a6bb	-0.0891852
174	0xbdd9299d	-0.1060364
175	0x3e43e4c8	0.19130242
176	0x3fa052c3	1.2525257
177	0xbf747208	-0.954865
178	0xbf99f773	-1.202864
179	0xbe0f6b07	-0.14005671
180	0xbf35a175	-0.7094949
181	0xbed47b8d	-0.41500512
182	0x3cc465bc	0.023974292
183	0x3fb8e9a5	1.4446303
184	0x3f209792	0.6273128
185	0x3eaf346f	0.3421969
186	0x3f48ccdf	0.7843761
187	0x3e101aac	0.14072675
188	0xbddb4fb5	-0.10708562
189	0xbe7c0bdf	-0.24613903
190	0x3ec81581	0.39078906
191	0x3f94d4e7	1.1627473
192	0x3ca53c7c	0.020170443
193	0x3ed1cf5b	0.40978512
194	0x3fc535c1	1.5407029
195	0x3f335312	0.7004863
196	0xbf89bdb8	-1.0761023
197	0x3f4536e3	0.77036875
198	0x3f675205	0.90359527
199	0x3d091c9d	0.033474553
200	0x3fa1d043	1.2641681
201	0xbf39a4c4	-0.7251704
202	0xbf8e3538	-1.1109991
203	0xbe9a7757	-0.30169174
204	0x3ebbb843	0.36664018
205	0x3ea26e19	0.31724623
206	0xc0075cb5	-2.1150334
207	0xbda78d98	-0.08181304
208	0xbf3a10cd	-0.72681886
209	0x3e9a0c94	0.3008772
210	0x3e1c0087	0.15234576
211	0x3fe9d58a	1.8268292
212	0x3fc0503a	1.5024483
213	0xbf782749	-0.96934944
214	0xbfada521	-1.3566018
215	0x3eba73f3	0.36416587
216	0x3f410324	0.7539542
217	0x3d42432d	0.047427345
218	0x3fac706b	1.3471807
219	0xc00c84dc	-2.195609
220	0xbe9f78c2	-0.31146818
221	0x3d8eb9cb	0.06969031
222	0x3eb1cae2	0.347251
223	0x3edc94be	0.4308223
224	0x3f0f39b8	0.55947447
225	0xbea2cf2b	-0.31798682
226	0x3fc0337d	1.5015713
227	0x3ed1df2a	0.40990573
228	0xbf2544b5	-0.64557964
229	0x3f306dd8	0.6891761
230	0xbf1661a4	-0.5874274
231	0x3e3aae57	0.18230568
232	0xbebca3bf	-0.36843678
233	0xbeb9d578	-0.36295676
234	0xbfe19cb0	-1.7625942
235	0x3f7b2c64	0.9811461
236	0x3f2e7fbe	0.6816367
237	0xbeba52b7	-0.3639123
238	0xbeca620c	-0.3952793
239	0xbf49b6c1	-0.78794485
240	0xbff6442f	-1.9239558
241	0xbf4f153a	-0.80891764
242	0xbf869866	-1.0515258
243	0x3f1fa7da	0.62365496
244	0x3fccc9a9	1.5999042
245	0x3edde9d1	0.4334245
246	0x3f837480	1.0269928
247	0x3d009e13	0.03140075
248	0xbf94584a	-1.1589444
249	0x3ef9f955	0.48823038
250	0xbfa9cc74	-1.3265519
251	0x3f741b36	0.9535402
252	0xbec8bae9	-0.392051
253	0x3fa08da0	1.254322
254	0xbd6116fe	-0.054953568
255	0xbf09d753	-0.53844184

weight f4 [1682, 8]
0	0x3d01b966	0.03167095
1	0xbdfdcc6b	-0.12392505
2	0xbef2e251	-0.4743829
3	0x3f954ff2	1.1665022
4	0x401b02f6	2.4220557
5	0xbe31988f	-0.17343353
6	0xbf1a9ebf	-0.6039848
7	0x3fb8b22f	1.4429377
8	0xbe60a5a8	-0.21938193
9	0xbdf70cbc	-0.12062976
10	0x3f2ce21f	0.67532533
11	0xbe82ace0	-0.25522518
12	0x3e9d33e0	0.3070364
13	0x3eb44f7d	0.35216895
14	0x3e471e71	0.19445206
15	0x3e382d2b	0.1798598
16	0xbf0f7824	-0.56042695
17	0x3eda6c6b	0.4266084
18	0xbed3b2f4	-0.41347468
19	0xbda78dd4	-0.081813484
20	0x3f8912a2	1.0708811
21	0xbfa2c943	-1.271767
22	0x3f4dd2e8	0.8039994
23	0x3fa26692	1.2687552
24	0x3dc772fb	0.09738728
25	0x3dafa4ec	0.08576378
26	0xbf8018e9	-1.0007602
27	0x3e3254a5	0.17415102
28	0x3ea3c716	0.31987828
29	0xbe82136e	-0.2540545
30	0xbfe53d0d	-1.7909256
31	0x3fa195af	1.2623805
32	0xbd5daa36	-0.054117404
33	0x3f45a067	0.7719788
34	0xbfbf36dc	-1.4938617
35	0x3f23e5ff	0.6402282
36	0xbf14accf	-0.58076185
37	0xbf14d8c4	-0.5814326
38	0xbfb29ba6	-1.395375
39	0xbf041976	-0.5160135
40	0xbf56f225	-0.83963233
41	0xbccc5493	-0.024942672
42	0x3f89ff4e	1.0781038
43	0xbf34157a	-0.7034527
44	0xbe936269	-0.28786018
45	0x3fe259d4	1.7683663
46	0xbee81b46	-0.45333308
47	0xbf114893	-0.56751364
48	0x3f075fa8	0.52880335
49	0x3f827e77	1.0194844
50	0x3f465704	0.77476525
51	0x3ff5ba41	1.9197465
52	0x3fb14046	1.384774
53	0xbf1fc20e	-0.6240548
54	0xbf6d392f	-0.9266538
55	0x3ffce3f0	1.9757061
56	0x3f8e64ba	1.1124489
57	0xbf49cb76	-0.7882608
58	0xbfc54752	-1.541239
59	0x3f26bfad	0.65136224
60	0x3f5d15f6	0.86361635
61	0x3f5c9bb7	0.861751
62	0xbf58b03f	-0.8464393
63	0x3f3009cd	0.68764955
64	0x40160f46	2.3446822
65	0xbd822bc4	-0.06356004
66	0x3e074849	0.13211168
67	0x3fe8b7d1	1.8181096
68	0x3f4b5a00	0.79434204
69	0xbebdde24	-0.37083542
70	0xbeb508f3	-0.3535839
71	0x3da639ef	0.08116519
72	0xbe2d41ab	-0.16919582
73	0xbf0ef58e	-0.55843437
74	0x3e207382	0.15669063
75	0xbd873ff7	-0.06603997
76	0xbe0f3d6b	-0.13988273
77	0xbe10c856	-0.14138922
78	0xbf2323f6	-0.6372675
79	0xbfad86b5	-1.3556734
80	0x3f03d577	0.51497597
81	0x3eeb83b7	0.45998928
82	0x3eee4c84	0.46542752
83	0xbee1ab71	-0.44076112
84	0x3fec0118	1.8437834
85	0xbe6853be	-0.22688195
86	0xbfa6f09e	-1.304218
87	0xbd1e949d	-0.038715947
88	0x3e3d605f	0.18493794
89	0xbf0fb0f3	-0.5612938
90	0xbf4de564	-0.8042815
91	0x3f8feeb3	1.124472
92	0xbf97937c	-1.1841884
93	0x3f3f3b10	0.746995
94	0xbeca3b2b	-0.39498267
95	0x3e0307da	0.12795964
96	0xbef723ff	-0.4826965
97	0xbfd7ad24	-1.6849713
98	0xbf8ea4c0	-1.1144028
99	0x3e0a2184	0.13489348
100	0x3faa9717	1.3327359
101	0xbe348728	-0.17629683
102	0xbf85f23e	-1.0464551
103	0x3fc13240	1.509346
104	0xbf1162b6	-0.56791246
105	0x3e507e21	0.20360614
106	0x3f16b54f	0.58870405
107	0x401f9ebd	2.4940636
108	0x3f951f04	1.165009
109	0x3e5ca654	0.21547824
110	0x3e15f513	0.1464427
111	0x3f87f6bb	1.0622171
112	0xbf521df0	-0.8207693
113	0xbfbf62b7	-1.4952
114	0x3f3c75b6	0.7361711
115	0x40068227	2.1016939
116	0x3eb0abce	0.34506077
117	0xbf513f52	-0.81737244
118	0x3fbdfafc	1.4842219
119	0x3fbe500c	1.4868178
120	0xbd9d8dcc	-0.07693061
121	0x3fb035a6	1.3766372
122	0x3e8038c8	0.2504332
123	0xbd0e6775	-0.034766633
124	0xbeaeccae	-0.34140533
125	0x3f284b07	0.6573948
126	0xbf8e3d8c	-1.1112533
127	0xbf832c0e	-1.024782
128	0xbf160acb	-0.5861022
129	0x3ef8cd35	0.4859406
130	0x3f309a90	0.68985844
131	0x3e64fcc3	0.22362046
132	0x3f0e232a	0.55522406
133	0xbec5af0a	-0.38610107
134	0x3d7f3a94	0.062311724
135	0xbf28df01	-0.65965277
136	0x3f15dae4	0.58537126
137	0x3f9d6dfd	1.2299191
138	0xbff9fd88	-1.9530497
139	0x3e90bf46	0.2827093
140	0x3d150e00	0.036390305
141	0xbe89811a	-0.2685631
142	0x3f64b3f7	0.89337105
143	0x3f2ffc29	0.6874414
144	0x3e2730d9	0.16327228
145	0xbed158ae	-0.4088797
146	0x401c5a58	2.4430141
147	0x4056a023	3.353524
148	0x3fb0d7f7	1.3815907
149	0x3f00b319	0.5027328
150	0x3e481f11	0.19543101
151	0x3f03c4ba	0.51472056
152	0x3e4015b8	0.18758285
153	0xbf468336	-0.7754396
154	0xbf8d4bc9	-1.1038753
155	0xbe196981	-0.14981653
156	0x3f6f631d	0.9351061
157	0xbf104e73	-0.56369704
158	0xc010ab29	-2.2604468
159	0xbfc925ee	-1.57147
160	0xbf94055a	-1.1564133
161	0x3dac336f	0.08408248
162	0xbf72ee56	-0.9489492
163	0x3f8b9c71	1.0907117
164	0xbe71de5b	-0.23619978
165	0x3c58ba79	0.013228052
166	0xc02da1b3	-2.7129943
167	0x3f15701e	0.583742
168	0x3f884831	1.0647031
169	0xbe596905	-0.21231468
170	0xbc813145	-0.015770564
171	0x3f98d740	1.1940689
172	0xbf89fadd	-1.0779682
173	0xbe8b84b4	-0.27249682
174	0x3de90634	0.11378136
175	0x3f5596c3	0.8343317
176	0xbea7dee4	-0.3278724
177	0xbf23113c	-0.6369817
178	0x3e7b8461	0.24562217
179	0xbd69daff	-0.057093617
180	0x3f0d9374	0.5530312
181	0x3d5031b5	0.050828654
182	0xbefca766	-0.49346465
183	0x3f213320	0.62968636
184	0xbf087cda	-0.5331551
185	0xbe37b7ff	-0.17941283
186	0xbf61ff01	-0.8827973
187	0x400accd8	2.1687527
188	0x3e8de92b	0.27716956
189	0xbf82a70f	-1.0207232
190	0x3f8d1545	1.1022116
191	0x3ff87048	1.9409266
192	0x400e1f3d	2.2206566
193	0xbf8676f7	-1.0505055
194	0xbf1f5eda	-0.62254107
195	0xbe6716b4	-0.22567254
196	0xbfe8125f	-1.8130606
197	0xbe4a6296	-0.1976417
198	0xbf7d1b55	-0.9886983
199	0xbdac59ee	-0.0841559
200	0xbfc314a8	-1.5240679
201	0xbc3b4080	-0.011428952
202	0x3f1a6fd9	0.60326916
203	0xbfb699d2	-1.4265692
204	0x3fb6f5c8	1.4293756
205	0x3f02805e	0.5097712
206	0xbf24d068	-0.643805
207	0x4007de22	2.122933
208	0x3d715dc6	0.05892732
209	0x3ec2a8b1	0.38019326
210	0x3d867146	0.06564574
211	0xbf3b220f	-0.73098844
212	0x3f214ee3	0.63010997
213	0xbf36e886	-0.7144855
214	0x3ebab04a	0.36462623
215	0xbf17204c	-0.59033656
216	0x3fab62b3	1.3389496
217	0xbfd0afba	-1.6303627
218	0xbf3f25db	-0.7466714
219	0x3fddf68c	1.7340865
220	0xbc02094c	-0.007936787
221	0xbf1d3b8f	-0.61419004
222	0xbf8dbeec	-1.107389
223	0xbdfcae65	-0.123379506
224	0x3fe0fff4	1.7578111
225	0x3f019846	0.50622976
226	0x3d6f01fe	0.05835151
227	0xbef0bcdb	-0.47019085
228	0x3c180942	0.009279551
229	0x3e9b4e26	0.3033306
230	0xbe32fd04	-0.1747933
231	0xbe8689d0	-0.26277018
232	0x3e70eaa1	0.23527004
233	0x3fa47ea2	1.2851145
234	0x3f215a53	0.6302845
235	0xbfe30432	-1.7735655
236	0x3f30891d	0.6895922
237	0xbf43190e	-0.76210105
238	0x3e850dde	0.25987142
239	0x3dfcb5b3	0.12339344
240	0xbdbf1722	-0.09330584
241	0xbe4a3dd8	-0.19750154
242	0xbf43b267	-0.76444095
243	0xbe354e6d	-0.17705698
244	0x3e7060d2	0.23474434
245	0x3a4da5c1	0.00078448287
246	0xbea0a4eb	-0.31375822
247	0x3fce3c2b	1.6112112
248	0xbeaafd55	-0.33396402
249	0xbfa46e72	-1.2846205
250	0x3f1bac23	0.60809535
251	0x3dd5d94c	0.10441837
252	0xbf17f8da	-0.5936409
253	0xbed7eb2c	-0.4217161
254	0x3fcce602	1.6007693
255	0x3e6977b3	0.22799568

weight f4 [32, 16]
0	0x3d8d7556	0.06907146
1	0xbeedb410	-0.4642644
2	0xbee009e3	-0.43757543
3	0xbe1c9a78	-0.152933
4	0xbed89bd2	-0.4230638
5	0xbead065b	-0.3379391
6	0x3e7221ad	0.23645659
7	0xbeccf3f3	-0.40029868
8	0xbdcb08bf	-0.099137776
9	0x3dd193e2	0.102332845
10	0xbd22a0dc	-0.03970419
11	0x3d00e497	0.031468
12	0xbdf5e4e9	-0.12006552
13	0x3d864d4b	0.06557711
14	0xbe3f059b	-0.18654482
15	0xbb3402b1	-0.0027467425
16	0xbe6f21c4	-0.23352724
17	0x3d1d67dd	0.03842913
18	0xbe81c2d4	-0.25343955
19	0x3ed9889a	0.4248703
20	0xbda18e6a	-0.078884915
21	0x3d616d5e	0.05503594
22	0xbef204db	-0.4726933
23	0x3ea88f2b	0.32921728
24	0x3ec5583d	0.38543883
25	0xbc5883ce	-0.013215018
26	0x3e877dcc	0.26463163
27	0x3e878c23	0.26474103
28	0x3ef32c85	0.47494903
29	0xbdc83676	-0.097760126
30	0x3e7bd5fe	0.2459335
31	0x3f116beb	0.56805295
32	0xbcbc5893	-0.022991454
33	0xbd454d75	-0.048169572
34	0x3e4f2cb4	0.20231897
35	0xbe960815	-0.2930304
36	0x3e109295	0.14118417
37	0xbdd9978c	-0.106246084
38	0xbe16cc71	-0.14726426
39	0x3ea0f5f6	0.31437653
40	0xbdc94274	-0.09827128
41	0x3e9150b7	0.28381893
42	0xbe32fcae	-0.17479202
43	0xbe5c3211	-0.21503474
44	0x3e4e583a	0.20150843
45	0xbeaa81c7	-0.33302137
46	0xbe3f7116	-0.18695483
47	0x3df93107	0.12167554
48	0xbe86070c	-0.2617725
49	0x3e22e540	0.15907764
50	0xbd84a8c0	-0.06477499
51	0x3eb4e097	0.35327598
52	0x3db13cf7	0.08654206
53	0xbe62c634	-0.22145921
54	0x3be59229	0.007005949
55	0x3d59669b	0.053076368
56	0xbea07db8	-0.31345916
57	0x3e640245	0.22266491
58	0xbeb2054a	-0.3476966
59	0x3dcd4fcf	0.10024988
60	0xbdb97495	-0.090554394
61	0xbeb7028e	-0.35744137
62	0x3e0bcfcb	0.13653485
63	0xbe9b1def	-0.30296275
64	0xbdb0f607	-0.08640676
65	0xbc1915fb	-0.009343619
66	0xbd9cc6cc	-0.07655105
67	0x3dd505e7	0.104015164
68	0x3dbd6ee7	0.092496686
69	0x3e1a12a3	0.15046172
70	0xbdc81cd7	-0.09771126
71	0x3dcad371	0.099036105
72	0xbe246a5a	-0.16056195
73	0x3f3815d9	0.71908337
74	0x3db99789	0.09062106
75	0xbe64f111	-0.22357585
76	0xbe858f1a	-0.2608574
77	0xbcdce96d	-0.026966775
78	0xbe373f9d	-0.1789536
79	0x3ed47df5	0.41502348
80	0xbe14bde3	-0.14525561
81	0x3ee1cb79	0.4410055
82	0x3e801e5e	0.25023168
83	0x3edbc458	0.42923236
84	0xbb6666bc	-0.003515645
85	0x3da8623a	0.0822186
86	0x3c9f038f	0.019410877
87	0x3e430303	0.19044118
88	0x3e07c070	0.13257003
89	0x3e95a919	0.29230574
90	0xbccd1bb0	-0.025037616
91	0x3e2fb55e	0.1715903
92	0x3f10b916	0.5653242
93	0xbd8e6fe1	-0.06954933
94	0x3efdd8c6	0.49579448
95	0x3e0fed29	0.14055313
96	0x3dac5593	0.084147595
97	0x3ec9c286	0.39406222
98	0xbd92d5ce	-0.07169686
99	0x3ddb01d7	0.1069371
100	0xbe5a567b	-0.21322052
101	0x3ea9a041	0.33130077
102	0x3db4cf1f	0.08828568
103	0xbee6dad8	-0.4508884
104	0xbe6f30e4	-0.23358494
105	0x3cda723c	0.0266658
106	0xbe20ce29	-0.15703644
107	0xbe8de55d	-0.27714053
108	0xbd1158cc	-0.035485074
109	0xbe4f78ec	-0.20260972
110	0x3d601b6b	0.054713648
111	0x3dc1dec0	0.09466314
112	0xbe881c5c	-0.26584136
113	0xbdc5602b	-0.09637483
114	0x3d4b4a60	0.049631476
115	0x3d109c35	0.03530522
116	0x3b6be907	0.003599705
117	0x3ed672d1	0.41884473
118	0xbeb1af60	-0.34704113
119	0x3e2a9e34	0.16661912
120	0xbed84125	-0.422372
121	0xbd91cfe1	-0.07119728
122	0xbed0d6f5	-0.40789
123	0xbd894e81	-0.067044266
124	0x3dc4ec6b	0.09615406
125	0xbe4276b9	-0.18990602
126	0x3e80a07c	0.2512244
127	0xbf05f5c8	-0.5232816
128	0xbd993fe9	-0.07482893
129	0xbca2247b	-0.019792786
130	0xbde0f752	-0.109846726
131	0x3e077dd1	0.13231589
132	0x3da74e15	0.0816919
133	0x3dbde98d	0.09273062
134	0xbe211e10	-0.15734124
135	0x3de719f6	0.112842485
136	0x3e2aaf7e	0.16668507
137	0xbea61d8e	-0.32444423
138	0x3f02e6b3	0.5113327
139	0x3e41f344	0.18940455
140	0x3e3fa3f9	0.18714894
141	0x3f2de50d	0.6792763
142	0x3c615a40	0.013754427
143	0xbe802221	-0.25026038
144	0x3e1d2ea7	0.15349828
145	0xbf033280	-0.5124893
146	0xbeb0ba25	-0.34517017
147	0xbe48ae3b	-0.19597714
148	0xbee5732c	-0.44814432
149	0xbed32eea	-0.4124673
150	0xbe1d4253	-0.15357332
151	0xbea0ebfe	-0.31430048
152	0xbdc35f96	-0.09539716
153	0x3da5ef3f	0.08102273
154	0xbca5f35c	-0.020257644
155	0x3db8a1ac	0.090152115
156	0xbcac404c	-0.021026753
157	0xbdbe6f69	-0.092985936
158	0xbddf63c6	-0.10907702
159	0xbd4db1ea	-0.0502185
160	0xbe831fae	-0.25610107
161	0x3e20f3e0	0.15718031
162	0xbe632b84	-0.22184569
163	0xbe76bcb5	-0.24095424
164	0xbf0180a8	-0.5058694
165	0x3eb0dd7e	0.34543985
166	0x3e5e60eb	0.21716659
167	0xbed76175	-0.4206654
168	0xbdd6acc6	-0.10482173
169	0x3e12d6e2	0.14339784
170	0xbd0994d4	-0.0335892
171	0xbd89a94e	-0.067217454
172	0xbc38a585	-0.011269932
173	0x3e6e0c47	0.23246871
174	0x3e82345e	0.25430578
175	0xbe81d724	-0.25359452
176	0x3dae6ddc	0.08517048
177	0x3d7c699e	0.061624162
178	0xbd502834	-0.05081959
179	0xbe1c4b34	-0.15263063
180	0xbce2cfea	-0.027687032
181	0x3e4424a2	0.191546
182	0xbd1d6f5f	-0.03843629
183	0x3e1abb9a	0.15110627
184	0x3da02b61	0.07820774
185	0xbe66100e	-0.22467062
186	0xbed267e9	-0.41094902
187	0xbedfd71d	-0.43718806
188	0x3d50ca55	0.05097421
189	0xbe92fd31	-0.28708795
190	0x3efa846d	0.48929158
191	0xbe38880d	-0.18020649
192	0xbe213c69	-0.15745701
193	0xbdc359ba	-0.09538598
194	0xbdc56c20	-0.09639764
195	0x3d1bafbf	0.0380094
196	0xbe9ba8b6	-0.30402154
197	0x3e80a31d	0.25124446
198	0xbc116e7c	-0.008876439
199	0xbc80afd4	-0.015708841
200	0xbd82ef99	-0.06393356
201	0xbe29244a	-0.1651775
202	0x3ec4f2f4	0.3846661
203	0x3e76ed4f	0.24113964
204	0xbe7b26db	-0.24526541
205	0xbe942292	-0.28932625
206	0xbe503a2c	-0.20334691
207	0xbe7ce1a7	-0.24695455
208	0xbdb7037f	-0.08936214
209	0x3e2a69eb	0.16641967
210	0x3ea58625	0.32328907
211	0xbe2fccad	-0.17167921
212	0x3e7b35ec	0.24532288
213	0x3c6d5e2f	0.014487787
214	0x3e9860b6	0.29761285
215	0xbe26a69f	-0.16274498
216	0x3e33ea3a	0.17569819
217	0xbd7c1dcf	-0.061551865
218	0x3dbdd434	0.0926899
219	0xbc6479b3	-0.013945031
220	0x3ed746be	0.4204616
221	0xbdffde2d	-0.124935485
222	0x3e62dd02	0.2215462
223	0x3e734783	0.23757748
224	0x3d421d0c	0.047390983
225	0x3e066cd2	0.13127449
226	0x3eafff33	0.3437439
227	0xbe175ffb	-0.14782707
228	0x3eb5e194	0.35523665
229	0x3d21c005	0.039489765
230	0x3e86c100	0.26319122
231	0xbd68b7ea	-0.05681602
232	0x3e1c16e2	0.15243104
233	0x3cd1be91	0.025603564
234	0x3c3a6dd5	0.011378725
235	0x3ea34792	0.3189054
236	0x3c2eb6c3	0.010663691
237	0xbe34e9fb	-0.17667381
238	0xbe7bd8fe	-0.24594495
239	0x3ee2b4dc	0.4427861
240	0x3da501d0	0.08056986
241	0x3c2ee843	0.010675493
242	0xbe2c0a80	-0.1680088
243	0x3dafb0ef	0.08578669
244	0x3d09b488	0.033619434
245	0x3e0a5f0b	0.13512819
246	0xbe53a155	-0.20667012
247	0x3d896cb0	0.067101836
248	0xbcecde25	-0.02891452
249	0x3f186c0e	0.5953988
250	0xbea048c8	-0.31305528
251	0xbd005cef	-0.03133863
252	0xbd9046b8	-0.070447385
253	0x3ebeb7c5	0.3724958
254	0x3eadc6a9	0.33940628
255	0x3eaf9abb	0.34297737

bias f4 [32]
0	0xbe428ade	-0.18998286
1	0xbe257ae8	-0.16160166
2	0x3e981bfb	0.29708847
3	0x3e7d62eb	0.24744765
4	0x3ea09e64	0.31370842
5	0xbd908dc7	-0.07058292
6	0x3e424ade	0.18973872
7	0xbe6056bc	-0.21908087
8	0xbdcbadee	-0.09945284
9	0xbdfbd078	-0.12295622
10	0xbe85c685	-0.2612802
11	0x3ddc6de9	0.10763151
12	0x3e508da7	0.20366536
13	0x3c6fddb1	0.014640258
14	0x3d80d450	0.062904954
15	0x3e380d1f	0.17973755
16	0x3dcb89ff	0.0993843
17	0xbd9544ea	-0.07288535
18	0xbeacbfeb	-0.33740172
19	0xbed5a40a	-0.41726714
20	0x3e126d85	0.14299591
21	0xbea3ef7a	-0.32018644
22	0xbd833b80	-0.06407833
23	0xbe9f5bb3	-0.31124648
24	0xbea3f715	-0.32024446
25	0xbeb35dcf	-0.35032508
26	0xbe16d84b	-0.14730947
27	0xbe5e67a1	-0.21719219
28	0xbe0bb7ee	-0.13644382
29	0xbdfcb606	-0.12339406
30	0xbee4d807	-0.44696066
31	0xbe50334f	-0.20332073

weight f4 [16, 32]
0	0x3da0086a	0.07814105
1	0x3bb8966b	0.0056331656
2	0xbda32453	-0.07965913
3	0xbc234694	-0.009965558
4	0xbe98f1c5	-0.29871956
5	0x3e753f65	0.23949964
6	0x3deb0fea	0.11477645
7	0xbf094193	-0.53615683
8	0xbd946ec5	-0.0724769
9	0xbdf1d33b	-0.11807867
10	0x3e5f3743	0.21798424
11	0x3d776db4	0.060407355
12	0x3e2da285	0.16956528
13	0xbe2ddabc	-0.16977972
14	0x3c94f248	0.018181935
15	0xbdf9cb7a	-0.12197013
16	0x3db6390a	0.08897598
17	0x3e394587	0.18092929
18	0x3e4c82b9	0.19971742
19	0xbcb150dc	-0.021645002
20	0xbda5747b	-0.080788575
21	0xbd84432d	-0.06458125
22	0xbedac272	-0.42726475
23	0x3e09e79d	0.1346726
24	0xbe7527f1	-0.23941018
25	0xbdf54b71	-0.1197728
26	0xbd7c6d0b	-0.06162743
27	0xbb8f4768	-0.004372526
28	0xbd91523d	-0.07095764
29	0x3ec44cf2	0.38339955
30	0x3e67d7a8	0.2264086
31	0xbdfd0c3d	-0.1235585
32	0xbedfc887	-0.43707678
33	0xbe58cf1d	-0.21172757
34	0x3dae9a4f	0.08525526
35	0x3e64d1a4	0.22345597
36	0x3de5d5d9	0.11222429
37	0xbe69302f	-0.22772287
38	0x3e27ff87	0.1640607
39	0xbdf0a023	-0.11749294
40	0x3e829cee	0.25510353
41	0xbee56f6c	-0.4481157
42	0xbe3fa0d2	-0.18713692
43	0xbd41b405	-0.04729082
44	0x3dd0402e	0.10168491
45	0xbe9554af	-0.2916617
46	0xbe260657	-0.16213356
47	0x3d483abf	0.04888415
48	0x3e895c28	0.26828122
49	0x3d989053	0.07449403
50	0xbe2d4f08	-0.1692468
51	0xbe04feaf	-0.12987779
52	0x3e49b1ec	0.19696778
53	0xbe9e0024	-0.30859482
54	0x3de5dfca	0.11224325
55	0xbf72fc15	-0.94915897
56	0x3e344af2	0.17606714
57	0x3e1b1010	0.15142846
58	0xbe827d18	-0.25486064
59	0xbec039ee	-0.37544197
60	0x3d75a315	0.05996998
61	0xbe8939e9	-0.26801994
62	0xbe27209c	-0.16321033
63	0x3e987dc6	0.29783458
64	0x3ea77a4c	0.32710493
65	0x3db87481	0.09006596
66	0x3e3a14bb	0.1817197
67	0xbd42f174	-0.04759355
68	0xbe1e58a0	-0.15463495
69	0xbe0984a3	-0.13429503
70	0x3e962ef5	0.293327
71	0x3d832d6d	0.06405149
72	0xbea47781	-0.32122424
73	0x3e4e9145	0.20172603
74	0x3e60a379	0.2193736
75	0x3dec1690	0.11527741
76	0xbc271e65	-0.010200118
77	0xbd7b9d73	-0.061429452
78	0x3e82b015	0.25524965
79	0xbeca4048	-0.39502168
80	0xbc788475	-0.015168299
81	0xbeb98e0d	-0.3624119
82	0x3e1baad5	0.15201886
83	0x3df8b76b	0.12144359
84	0x3dca89d9	0.098895736
85	0x3dfcbc48	0.12340599
86	0xbe4c5611	-0.19954707
87	0xbe93b087	-0.28845617
88	0x3d5bce29	0.053663407
89	0xbe3d19a3	-0.18466811
90	0x3ea5ff77	0.32421467
91	0x3e3e66c6	0.18593892
92	0xbe1b8754	-0.15188342
93	0x3e5bab3c	0.2145204
94	0x3e99df16	0.30053014
95	0xbe36c95c	-0.1785025
96	0x3dcdd9f9	0.100513406
97	0xbf743fae	-0.9540967
98	0xbdaff5e7	-0.08591824
99	0x3eb5af81	0.3548546
100	0xbe552c27	-0.20817624
101	0xbe160025	-0.14648493
102	0xbe873093	-0.26404247
103	0x3cc4a2d1	0.024003418
104	0xbe533c53	-0.2062848
105	0x3e0c68f6	0.13711914
106	0xbed04c4b	-0.40683207
107	0xbe45df79	-0.1932353
108	0x3e1da9be	0.15396783
109	0x3e24f2e8	0.16108286
110	0x3c29bcc3	0.010359946
111	0xbe27bc0c	-0.16380328
112	0x3e0ea400	0.13929749
113	0x3e77eb27	0.24210797
114	0x3d05d63c	0.032675013
115	0xbe9893c9	-0.2980025
116	0x3ca89ff8	0.020584092
117	0xbe244b28	-0.16044295
118	0x3d2d98a0	0.042381883
119	0xbda16621	-0.07880808
120	0x3c65e662	0.014031978
121	0x3e1e1593	0.15437917
122	0x3d908ebf	0.07058477
123	0x3de2f03a	0.11080976
124	0xbf27d562	-0.6555997
125	0x3e0a947c	0.13533205
126	0xbce9c3c5	-0.028535733
127	0x3dba941d	0.091102816
128	0xbd12f0af	-0.035874065
129	0x3eb768d2	0.3582216
130	0xbcf82ea1	-0.030295672
131	0xbe7d4d80	-0.24736595
132	0xbd71944b	-0.058979314
133	0xbe0987a9	-0.13430656
134	0xbe480fed	-0.19537325
135	0x3f01c93b	0.5069768
136	0xbe690f10	-0.22759652
137	0x3c8c2399	0.017106818
138	0xbe67d61f	-0.22640274
139	0xbdd203a4	-0.10254601
140	0x3e64c8a3	0.22342162
141	0xbd556670	-0.052099645
142	0x3c89ad6a	0.016806323
143	0x3d95f07a	0.07321258
144	0x3e0381da	0.12842503
145	0x3ea9e270	0.3318057
146	0xbe6da794	-0.23208457
147	0xbe966532	-0.2937408
148	0xbd908036	-0.07055704
149	0xbe18b1ad	-0.14911528
150	0x3e33f010	0.17572045
151	0x3e48568d	0.19564267
152	0xbedfbe08	-0.4369967
153	0xbdf75bab	-0.12078031
154	0xbd9d2515	-0.076730885
155	0x3e5135fd	0.20430751
156	0xbe0302f7	-0.127941
157	0xbdafabd0	-0.085776925
158	0xbdc31b86	-0.09526734
159	0x3dfb01cc	0.12256202
160	0x3c4b8e5d	0.012424079
161	0xbec45805	-0.38348404
162	0x3dfb3b2f	0.12267148
163	0x3ed90a41	0.42390636
164	0x3ea49e1a	0.32151872
165	0x3d945653	0.072430275
166	0x3e1648e5	0.14676245
167	0xbd2c2ff7	-0.04203793
168	0x3e60d2c1	0.21955396
169	0xbb466186	-0.003027053
170	0x3d7761d6	0.060396038
171	0x3eab6557	0.33475754
172	0x3e1d5345	0.15363796
173	0xbde15fb1	-0.1100458
174	0x3d9f7327	0.077856354
175	0x3eb283d0	0.3486619
176	0x3e3891a4	0.18024307
177	0xbe03d0e5	-0.12872656
178	0x3e2d3d60	0.16917944
179	0xbc710d08	-0.01471258
180	0x3e421ada	0.18955556
181	0xbe045c97	-0.12925945
182	0x3e340959	0.17581691
183	0xbe63349f	-0.22188042
184	0x3ed3b3ba	0.41348058
185	0x3edf069c	0.4355973
186	0xbe1b73dd	-0.15180917
187	0xbe6fd2b9	-0.23420228
188	0x3eb4f9c6	0.35346812
189	0x3e283d55	0.16429646
190	0x3e8689d3	0.26277027
191	0x3e427649	0.18990435
192	0x3edb8fd6	0.42883176
193	0xbe8f867e	-0.28032297
194	0x3e05c131	0.13061978
195	0xbeb9557c	-0.36198032
196	0x3dd19c5e	0.10234903
197	0x3d81020c	0.062992185
198	0x3e83409a	0.25635225
199	0x3e0d3a1d	0.137917
200	0xbba265cf	-0.004955984
201	0x3e771733	0.24129944
202	0x3f02f4d1	0.5115481
203	0xbec421dd	-0.38307086
204	0xbde204c1	-0.11036063
205	0x3e1e94e6	0.15486488
206	0xbd7c3395	-0.06157263
207	0xbdce881f	-0.10084557
208	0xbb616a51	-0.0034395645
209	0xbead3e98	-0.33836818
210	0x3e85467a	0.26030332
211	0x3e33d9f6	0.17563614
212	0xbdb4b29b	-0.08823129
213	0x3ea43538	0.32071853
214	0x3d1e9407	0.03871539
215	0xbceb157d	-0.02869677
216	0xbeb3c31f	-0.35109803
217	0xbe273c98	-0.16331708
218	0x3eaf6609	0.34257534
219	0xbbc1d628	-0.005915422
220	0x3d31dd10	0.043423712
221	0xbdae1777	-0.08500569
222	0x3dc22e71	0.09481514
223	0xbe49334e	-0.19648477
224	0xbe9ea478	-0.30984855
225	0xbe8b1c4e	-0.27170032
226	0x3ea0c845	0.31402794
227	0x3e4e6004	0.20153815
228	0x3e07c1f1	0.13257577
229	0xbde0fa7b	-0.10985275
230	0x3e446771	0.19180085
231	0xbe25bbbc	-0.16184896
232	0x3e8f3517	0.27970192
233	0xbf087e88	-0.5331807
234	0xbdb3ed35	-0.08785478
235	0xbe12c11a	-0.14331475
236	0x3e4e91ae	0.2017276
237	0xbf077da9	-0.5292612
238	0xbe4a4fcf	-0.19757007
239	0x3e162a84	0.14664656
240	0x3e60fc98	0.21971357
241	0xbd90f29e	-0.070775256
242	0xbe9a2dab	-0.30112967
243	0xbecdf869	-0.40228584
244	0x3ca0b2d8	0.01961653
245	0xbc4f332d	-0.012646479
246	0x3dd200e7	0.10254078
247	0xbf02b9bc	-0.5106466
248	0xbd9062a6	-0.07050066
249	0x3e063917	0.13107716
250	0xbedfe20d	-0.4372715
251	0xbe39c738	-0.18142402
252	0xbd914e4b	-0.07095011
253	0x3d8b9dc5	0.068172015
254	0x3dcdd02c	0.10049471
255	0x3e9ee4c4	0.3103391

bias f4 [16]
0	0x3e18aff1	0.14910866
1	0x3ec3708b	0.381718
2	0x3e3ca636	0.1842278
3	0x3e78fca4	0.24315125
4	0x3ebabda2	0.36472803
5	0x3e99eeff	0.30065152
6	0xbe3c7937	-0.18405615
7	0x3e85f0e3	0.26160344
8	0x3e1bf6a7	0.15230809
9	0x3dbdecd4	0.09273687
10	0xbdafa239	-0.085758634
11	0x3d2d6c0d	0.042339373
12	0x3db834c8	0.08994442
13	0x3d54a319	0.051913355
14	0x3d32ac26	0.043621205
15	0x3ef021c3	0.46900758

weight f4 [8, 16]
0	0xbdb2b8f0	-0.0872668
1	0xbe97fc46	-0.29684657
2	0xbe251c44	-0.16124064
3	0x3e52deba	0.20592776
4	0x3e32f4be	0.17476174
5	0x3ebd613b	0.36988243
6	0x3d8a8c78	0.067650735
7	0xbe0ddd0b	-0.13853852
8	0x3c4ba183	0.012428644
9	0x3e6e6901	0.23282243
10	0x3e5f118d	0.21784039
11	0xbf84c0fc	-1.0371394
12	0x3c861cf2	0.016371224
13	0xbea1d7fa	-0.3161009
14	0xbd2c560b	-0.042074244
15	0xbe8df10f	-0.27722976
16	0x3e54e8d4	0.20791942
17	0xbf1f841b	-0.6231095
18	0x3ea20e8c	0.31651723
19	0x3eb0fea0	0.34569263
20	0x3edfc3ee	0.4370417
21	0xbcb6645c	-0.022264652
22	0x3ef9095e	0.4863996
23	0xbf1caa8a	-0.6119772
24	0x3eb2137d	0.34780493
25	0xbf36d16d	-0.7141331
26	0xbe0d885c	-0.13821548
27	0xbe99f747	-0.3007147
28	0x3ec4853c	0.383829
29	0x3ea1fcee	0.31638283
30	0xbe3adaed	-0.18247576
31	0x3e8f4f48	0.27990174
32	0x3e3bb6dc	0.18331474
33	0xbf778979	-0.9669414
34	0x3e11569b	0.14193194
35	0x3f0a990b	0.54139775
36	0x3ed8a77c	0.4231528
37	0x3e5e1d87	0.21690951
38	0x3dc8a503	0.097970985
39	0xbe8bf658	-0.27336383
40	0x3ec267e3	0.37969884
41	0xbf3fd42c	-0.74933124
42	0xbd80cc4b	-0.06288966
43	0xbf51fb0b	-0.82023686
44	0x3ed7e270	0.42164946
45	0x3e92ae27	0.28648493
46	0xbcd53a05	-0.026028642
47	0xbd53f5b6	-0.051748
48	0x3e1cd073	0.15313892
49	0xbf32f34b	-0.69902486
50	0x3ec99ff6	0.39379853
51	0x3e2396d3	0.15975504
52	0x3de3e096	0.11126821
53	0xbddf99ff	-0.10918044
54	0x3ed8f517	0.4237449
55	0xbeca9980	-0.39570236
56	0x3e53fb21	0.20701267
57	0xbf15cafa	-0.5851284
58	0x3e80f7e7	0.25189134
59	0xbebb4740	-0.36577797
60	0x3ee1c1b5	0.440931
61	0x3e66f3c6	0.2255393
62	0xbe58fd8d	-0.21190472
63	0x3e0c8749	0.13723482
64	0xbe6af7f1	-0.22946145
65	0x3f909a5f	1.129711
66	0x3c9833c1	0.018579366
67	0xbdc969b6	-0.09834616
68	0xbcd8359c	-0.02639275
69	0x3f1ab7fa	0.60436976
70	0xbea15b9b	-0.31515202
71	0x3f3d818f	0.74025816
72	0xbd144446	-0.036197923
73	0x3f676918	0.90394735
74	0x3f0af738	0.54283476
75	0x3e86d890	0.263371
76	0xbe038bf8	-0.12846363
77	0xbeae7cea	-0.34079677
78	0x3ef4cb82	0.47811514
79	0x3eccddc8	0.40012956
80	0x3e1023fb	0.14076225
81	0xbf5a823b	-0.85354966
82	0xbd0c1246	-0.034197114
83	0x3ea9cd2b	0.33164343
84	0x3ee26e46	0.44224757
85	0x3c038978	0.008028381
86	0x3f093536	0.5359682
87	0xbe9aefc5	-0.30261055
88	0x3ec0fed9	0.37694433
89	0xbf1ace2d	-0.6047085
90	0x3e40b789	0.18820013
91	0xbf124e64	-0.57150865
92	0x3e64eb3e	0.22355363
93	0x3e9649d6	0.29353207
94	0xbd881989	-0.066454954
95	0x3d8e2ada	0.06941767
96	0xbd90fa08	-0.0707894
97	0x3fc491bc	1.5356975
98	0xbcfbff85	-0.03076149
99	0xbef1da46	-0.47236842
100	0xbdfe77c7	-0.124251895
101	0x3f0f1327	0.558886
102	0xbd71dae2	-0.059046634
103	0x3f55042b	0.83209485
104	0xbe8f5015	-0.27990785
105	0x3f52c4be	0.82331455
106	0x3ef32ade	0.47493643
107	0x3eb5af4c	0.35485303
108	0xbe3da18d	-0.18518658
109	0xbe743b2c	-0.23850697
110	0x3ecae0fc	0.39624774
111	0x3ee145b9	0.43998507
112	0x3e387f62	0.18017343
113	0xbf45aaad	-0.77213556
114	0x3e7c3db2	0.2463291
115	0x3e5ee46f	0.21766828
116	0x3e9969d0	0.2996354
117	0xbdad13ba	-0.08451028
118	0x3ea052cc	0.3131317
119	0xbf02384b	-0.50867146
120	0x3ddfab60	0.10921359
121	0xbf1b720b	-0.6072089
122	0xbc87ec6b	-0.016592225
123	0xbde01a91	-0.10942567
124	0x3ef88baa	0.48544055
125	0x3e550bb6	0.20805249
126	0x3df9dcc4	0.12200311
127	0x3e1ec886	0.15506181

bias f4 [8]
0	0xbdcb0754	-0.09913507
1	0xbdce2c88	-0.100670874
2	0x3e57d192	0.21076038
3	0x3e5ced14	0.21574813
4	0x3d837071	0.06417931
5	0x3d8f9263	0.07010343
6	0x3e8c8a3f	0.27449223
7	0x3e0836c8	0.13302147

weight f4 [1, 8]
0	0x3f3794bd	0.7171133
1	0x3f1580ae	0.58399475
2	0x3f14a63e	0.58066165
3	0x3e57851e	0.21046874
4	0xbef71922	-0.48261362
5	0x3ebfcb8a	0.37459975
6	0xbf167aa7	-0.587809
7	0x3ec1a250	0.37819147
