models/MLP8.pt (torch, 93731 bytes, 9 tensors)

weight f4 [944, 8]
00000000: b60e c1be 313a 44bf 66ab d93e d17d 36be
00000010: 5a72 92be 7b81 8d3f d9d5 943f e660 14bf
00000020: 9dd2 72bb 67f8 e2be f03b 12be fa47 cd3f
00000030: 686c cf3e b63d efbf 9bfc 273d fe9a c63d
00000040: 2985 e53e ad77 433f fc29 f4be 6453 4c3f
00000050: 7a76 12bf 17bc 78bf 8f05 43be 7eff aa3f
00000060: 2543 703f d7b8 473e 2eff 40be b7dc f33d
00000070: 5c74 923f 5e0b 03c0 94f3 a23d b109 90bf
00000080: c168 44bf 7a69 06c0 3e73 c13e f6cd 463f
00000090: 9eb7 e73f 0ee1 953e 1b05 a03f 2637 c83f
000000a0: 3684 0c3f 0227 a33f df43 4c3f 1a63 f23f
000000b0: 7bfc a1bb 4e7a e3be bae2 5f3f 3b9f 8abf
000000c0: ba16 ab3d b9d3 99be 53fe 05c0 8d01 7e3d
000000d0: f9a0 cd3f fe46 5d3f f686 73bf 4e00 8cbe
000000e0: 5277 edbd 1af0 be3f f8e8 4b3f fcdf b63e
000000f0: 1652 2d3f fa78 343e ff67 d13f 3c59 b6be
00000100: 0dc0 2ebf f2cf 933f fd21 a1bf 94d2 6b3f
00000110: b139 8ebe df53 20bc 3ecd 3f3f 6763 dbbe
00000120: f4b0 603e 6f90 b83f 9292 debe bbde 653f
00000130: 9544 933e eb36 0f3f df38 6dbf e261 9cbe
00000140: 9736 883e d322 a3bd 5d40 83be df8c 8b3f
00000150: 9ba5 643f 0b0b 63bf c829 94be 17a8 2dbe
00000160: cdb1 593f 5bdd 30be c430 83be 7b92 05c0
00000170: 53da 3b3f 32b7 71be 3b00 8fbf 0973 c2be
00000180: 9074 bfbe 8cac 50bf 2035 18be 012d 69bd
00000190: 07f1 dfbd af29 893e 18e7 6f3e 917a aabf
000001a0: 0e96 ce3f 3c28 23be 16f8 423f 1adc 2a3e
000001b0: 1c35 0cbe b78d 723f 6b8b e23d 437b c03c
000001c0: 0cac b5be 8323 cdbf 2b69 f93f b388 c6bd
000001d0: 7bb0 ab3f 7b87 d43d fc6b 86bf 0ab3 2e3f
000001e0: 2776 6bbf 93a7 903f 8109 00bf 3b17 3c3f
000001f0: eaa9 333f a83e 9cbf f4db b1bf 1aa9 ebbd
00000200: bfbc 6c3f 31f6 cabf 81c0 8ebf 540c a8bf
00000210: 66c6 98be 9853 82bf 0568 99bf 1927 de3e
00000220: 89dd cdbf fe20 743f 82ce cabf 00f1 02bf
00000230: 8234 28bf 9f5f 163f b0fa 3b3e 6ecf 24bf
00000240: 27c0 e6bf 0f7c 6e3f cb46 5abe d4da 8dbe
00000250: 7b3b 04bf 0f80 c03e cceb ffbe 1d9b 13bf
00000260: 8e1d 503f 2b2e 5dbf b805 433e 9142 933d
00000270: 6e80 8ebf 58ba 08c0 8e50 f1bf 44ee f9bf
00000280: c74c 733e 72b0 833e ebe8 423d 4b15 ba3d
00000290: afea 823f 51d3 b2bf 7b97 31bf 1f20 233f
000002a0: fbd2 63bf 2e64 cbbf 9e3a d53f 2b1a aebf
000002b0: 75f4 273f f798 44bf 7af2 1dc0 f040 3b3e
000002c0: 74aa 56bd 6a43 023e 41df 3f3f d31e 41bf
000002d0: e582 1a3d d469 113f 98f9 cfbe 57e9 2c3d
000002e0: 88de 353f 9d03 f13f 7a6c 85bf 31b6 99bf
000002f0: a57a 4a3f d8f8 1dbf 68dd c0bf 3fa0 cebe
00000300: c255 e53e abf6 83bd c715 1ac0 0a9e bebf
00000310: 060e 2bbf a95d f9be e26d 5e3f a90a ec3e
00000320: 80c4 fdbe 8678 fbbf e458 babf 38f4 e5bf
00000330: dc03 98be bda1 783f f329 cbbe 8408 b1bf
00000340: 8ac5 883f 93c6 38be ad0e 243e ad50 8b3f
00000350: 3486 ae3e a1c7 f7be 1484 cbbf baff ac3e
00000360: 55e4 95bf 94f7 62bf 9cd7 c33e dc40 723f
00000370: 7389 e6be 0d45 d13f c257 b73e c9ce f73f
00000380: 4f67 09be 8948 94bf 173a 1c3e d08e 71bf
00000390: a03a 4c3f 01a0 833e 9af4 9b3f 79ca dcbf
000003a0: 31d8 10bf 8d7c 253f a8d6 c4bf a5a3 5c3e
000003b0: 60bb 6cbd d3c4 06c0 61be 3f3f 9cc5 0540
000003c0: df20 8abf 2fc5 be3e be26 46be 2bfa 0b3f
000003d0: 56ed a2bf 213d 943d 0414 973f 7eef 95bf
000003e0: b93a 85be 00a5 743f 06bb 85be 9798 3ebf
000003f0: 08bb 713f c16a 9d3f 6b88 d63d 12b4 8cbf
-0.37706536 -0.76651293 0.4251358 -0.17821433 -0.28602868 1.1055139 1.1627761 -0.57960355
-0.0037051805 -0.4433014 -0.14280677 1.603759 0.40512395 -1.8690708 0.041012388 0.09697531
0.44828156 0.76354486 -0.47688282 0.79814744 -0.5721203 -0.97162 -0.19045089 1.335922
0.93852454 0.19504105 -0.18847343 0.119073324 1.144176 -2.0475688 0.07956615 -1.1252958
-0.7672234 -2.1001878 0.37783235 0.7765802 1.810291 0.29273266 1.2501558 1.564183
0.5488924 1.2746279 0.79791063 1.8936493 -0.004943428 -0.4442925 0.8745533 -1.0829843
0.08353944 -0.30044344 -2.0936477 0.062013198 1.606475 0.8643645 -0.9512781 -0.27343982
-0.11595024 1.4917023 0.7965236 0.35717762 0.6770338 0.17624274 1.6359862 -0.35614955
-0.68261796 1.1547835 -1.2588497 0.9211819 -0.2777839 -0.009785621 0.7492255 -0.42849275
0.21942502 1.4419078 -0.434712 0.89792985 0.2876326 0.55943173 -0.92664903 -0.3054343
0.2660415 -0.079656266 -0.25635043 1.0902365 0.89315194 -0.88688725 -0.28938127 -0.16958652
0.8503693 -0.1727194 -0.25623143 -2.0870655 0.7338001 -0.2360504 -1.1171945 -0.3797839
-0.37393618 -0.81513286 -0.14864016 -0.056927685 -0.10934644 0.26789615 0.23427999 -1.3318654
1.6139543 -0.15933317 0.761598 0.16685525 -0.13692135 0.9474749 0.11061748 0.023496276
-0.35482824 -1.6026462 1.948522 -0.09694042 1.3413233 0.10377403 -1.0501704 0.6824194
-0.9197716 1.130114 -0.500145 0.73472947 0.70181143 -1.2206621 -1.3895249 -0.11506863
0.92475504 -1.5856382 -1.1152498 -1.3128762 -0.29838866 -1.0181761 -1.1984869 0.43389204
-1.6083232 0.9536284 -1.5844271 -0.51148987 -0.6570512 0.58739656 0.18357348 -0.6437901
-1.802739 0.9315805 -0.21316068 -0.27706015 -0.5165326 0.375977 -0.49984586 -0.5765856
0.81295097 -0.8639857 0.1904515 0.07190431 -1.1132944 -2.1363735 -1.8852708 -1.9525838
0.23759757 0.25720555 0.04758541 0.090860926 1.022787 -1.3970739 -0.69371766 0.6372089
-0.88993806 -1.5889947 1.6658514 -1.3601736 0.65607387 -0.76795906 -2.4679246 0.1828649
-0.05240865 0.12721029 0.74950033 -0.7543766 0.037722487 0.56802106 -0.40620112 0.042214718
0.7104268 1.8829228 -1.042373 -1.2008725 0.7909339 -0.6170783 -1.5067568 -0.40356633
0.4479199 -0.064435326 -2.4075792 -1.489198 -0.66818273 -0.4870427 0.8688642 0.46101883
-0.4956398 -1.9646156 -1.4558377 -1.7965155 -0.29690444 0.97121793 -0.39680442 -1.3830724
1.0685284 -0.180445 0.16021223 1.0883995 0.34086764 -0.48394492 -1.5899682 0.33788854
-1.1710306 -0.88659024 0.38250434 0.9463022 -0.4502674 1.6349198 0.3580914 1.9359981
-0.13418315 -1.1584636 0.15256535 -0.9435854 0.79776955 0.2570801 1.2184021 -1.724929
-0.5657988 0.64643174 -1.5378008 0.215468 -0.057795882 -2.1057632 0.7489987 2.090186
-1.0791281 0.37259814 -0.19350716 0.546786 -1.2728679 0.07238222 1.1802983 -1.1713712
-0.26021364 0.9556427 -0.2611925 -0.74451584 0.9442601 1.2298204 0.104752384 -1.0992453

weight f4 [1683, 8]
00000000: a953 8e3f d4c9 75bf abfc 843f 3c1c 623f
00000010: a7a4 c7bf c3f4 35be 3852 083f 720f 943f
00000020: 6edf 8b3d 8d27 bf3e d3e1 00c0 2e9e 3cbe
00000030: 716b 0f3f a8f8 14be 36ec bd3f 6113 993f
00000040: 46dd 5fc0 1626 1f3f fef0 5bbf 4467 913e
00000050: 02ef d1bf 3440 9bbf 77e4 68bd e22c 17bf
00000060: ba22 0bbf 2ed9 8a3f 3d41 883e a1f2 743f
00000070: 5804 cabf 3681 29bd f733 553f b078 babf
00000080: 2671 543f 8fec d4bf 8e81 11bf 62bc 30be
00000090: 8ee1 e8be 8672 8e3e 1afe d9bf b5b4 983f
000000a0: a556 0c3e 607f 93bf bbdd f5bc c845 0d3d
000000b0: dfaa a1bf ef71 66bf 5dc8 85be 3559 bc3e
000000c0: d17a 173f 48d6 a6be 41b4 713f 7970 f3bb
000000d0: 1be2 4c3e 9185 333f 6882 86bf 843c 0cbf
000000e0: 7944 adbe d92b a9bf 12b1 b8be f165 fabe
000000f0: dbdc d93f dab5 24bd bba4 f5be 1f50 a6be
00000100: 9211 f13e 01ed 68bf c750 42be 4169 5e3f
00000110: a86c 85bd 3391 0a3f 73a7 5bbf 8ecf 8cbf
00000120: 2ebe 523c 8f8e b63f f8c1 b53e 9f19 5e3f
00000130: 6848 2cbf 3779 6d3f 0268 203f 850c c1bd
00000140: f9e5 a23e f5df 7fbf 24a2 61bf 2447 eabe
00000150: 974d 5bbf 9f8a 97be f009 f93e dafb a03e
00000160: d87c ea3d 3282 1cbd 7b43 b13d 7bbe da3d
00000170: cf9c 993f 22a9 08c0 f710 343f cf78 cabe
00000180: 236f 363f b491 183f 7f8a dbbf 7b19 9e3e
00000190: dc9a 04bf 2a94 0abf df21 db3f 2e81 a6be
000001a0: 03d1 1fbe 993c f1be ae04 ad3f 1cca e2bf
000001b0: b7f5 60bf 5b82 823f 754d d93f ac08 213f
000001c0: 057b 23c0 601f 653e 4722 d9bf 8c02 99be
000001d0: 65ad 383e 2853 9f3e e07e 343e 053a 3abf
000001e0: 5770 af3f 13d8 ca3f 97ff 0a3f 1d45 c13e
000001f0: 01cc 883d fb95 88bf 042f d03d b1f8 eebf
00000200: 11fb 4cbf 04d3 d9bf 0a71 843f beba 973f
00000210: ddd1 92be 8e8c a8bf 9efc 103d 2e7c e63f
00000220: 6a6b 68bf 1579 b0bc eb2b babe b5ea 7c3f
00000230: a5c0 a6be a407 93bf 6a69 0640 b950 0fbf
00000240: 6f74 1ec0 29e6 d4bf 576c e63f ba98 2abe
00000250: c1e7 883f 968d 01c0 7eec c3bf 9743 a8bf
00000260: 8fc1 8abf bb07 843e d47d 033e 2155 02c0
00000270: d593 c7bf 6d0c bfbf 61d3 8abf c33f e1bd
00000280: cbef adbe 9e3d 8abd 6ff5 453f 2e5c fb3d
00000290: 9b5f f73e af7b ab3f 8495 303e eb9d d8be
000002a0: 17d0 83bf 8b3f c5be 1617 3a3e 84d3 45be
000002b0: fd30 c5be 3ee2 37bf a63d 5540 3e43 41bf
000002c0: fa98 adbe 9f27 e23e 373c f83e 9d0a 063f
000002d0: 1a1b 5c3e 83ea 1dbf 2ba5 ac3d 7bdc 0f3f
000002e0: 8e4b 9e3f 330b 603f dd98 603e 0e43 a33f
000002f0: 4377 ffbe 779e 12bf cc7f 653f 3d2a e53e
00000300: bf75 213f 310c 883f 96f8 8ebf e3a8 8dbe
00000310: 1aa2 0d3e 0adb 073f 6068 e33e bf46 f13e
00000320: 5140 3cbf 855c 823f 0ecb 58bf 5287 43bf
00000330: eb75 b83d b4b4 0040 d322 353f 1174 183e
00000340: d962 a3be df62 46bf ebe6 50bf 7172 bb3e
00000350: 5b97 2dc0 22e1 823e b83c 953f 7ae6 41bf
00000360: 07ba c63f a778 f23f f798 77bf 4a67 ebbf
00000370: 56c1 bebf 6237 873f 1aa4 843f 9498 c7bf
00000380: 6500 4d3d 5720 993f 496c 333f 5fe8 0ac0
00000390: 9806 ea3e 501f 2a40 e6c6 f33f 57a9 c3be
000003a0: c77b 6ebf dec9 b23e b9a2 39bf 46b5 0c3f
000003b0: ef9e 0b3f 3e94 143f 18e4 17bf 33d7 9a3e
000003c0: 1fb4 a23d e0e3 d7bf 6a55 05c0 c522 36bf
000003d0: 303f 0ac0 40e1 913c 5e1c 033f 874c 1bbe
000003e0: ae47 113f 042a 173e cbaf 06be 9a67 073f
000003f0: 990a dabe bd55 87be 181b 87be 0876 5e3f
1.1119281 -0.9601109 1.0389608 0.8832433 -1.5597123 -0.1776915 0.53250456 1.1567214
0.06829725 0.37334862 -2.0137832 -0.18419716 0.5602332 -0.1454798 1.4837711 1.1959039
-3.4978805 0.6216749 -0.859146 0.28399098 -1.6401064 -1.2128968 -0.056858506 -0.5905286
-0.54349864 1.0847528 0.26612273 0.9568272 -1.5782576 -0.04138299 0.8328242 -1.4568081
0.8298515 -1.6634692 -0.5683831 -0.17259362 -0.45484585 0.2782175 -1.7030671 1.1930147
0.13704927 -1.1523247 -0.030012956 0.034490377 -1.2630271 -0.900176 -0.26129428 0.3678681
0.5917178 -0.3258536 0.9441567 -0.0074291793 0.20008127 0.7012568 -1.0508547 -0.5477984
-0.33841303 -1.3216506 -0.36072594 -0.489059 1.7020525 -0.04021249 -0.47977242 -0.32483003
0.47083718 -0.9098664 -0.18976127 0.86879355 -0.06514865 0.54127806 -0.8580238 -1.1000841
0.012862725 1.4262255 0.3549955 0.86757845 -0.67297983 0.92763084 0.62658703 -0.09426216
0.3181608 -0.99951106 -0.8813803 -0.457574 -0.8566527 -0.29597947 0.48640394 0.31442147
0.11449593 -0.0382101 0.08655449 0.106808625 1.2000979 -2.135323 0.70338386 -0.39545295
0.7126333 0.59597325 -1.7151641 0.30878815 -0.51798797 -0.5413233 1.7119712 -0.3252043
-0.15607075 -0.47116545 1.3517053 -1.7717929 -0.8787493 1.0196031 1.6976763 0.6290386
-2.5543835 0.2237525 -1.6963586 -0.29884756 0.18034895 0.3111813 0.17626524 -0.7274478
1.3706158 1.5847191 0.5429625 0.37748042 0.06679536 -1.067077 0.101652175 -1.8669645
-0.80070597 -1.7017522 1.0346997 1.1853864 -0.28675738 -1.3167894 0.035397165 1.8006647
-0.907889 -0.021542111 -0.36361632 0.98795635 -0.3256885 -1.1486707 2.100184 -0.5598255
-2.4758565 -1.6632739 1.8001813 -0.16659823 1.0695726 -2.0242667 -1.5306547 -1.3145627
-1.0840319 0.25787148 0.12840968 -2.0364459 -1.559199 -1.4925667 -1.0845758 -0.1099849
-0.3397201 -0.06750034 0.77327627 0.12273441 0.4831513 1.339712 0.17244536 -0.42307982
-1.0297879 -0.38525042 0.18172869 -0.19318968 -0.38513938 -0.71829593 3.3318877 -0.7549323
-0.33905774 0.44170853 0.4848344 0.52359945 0.21494713 -0.6168596 0.08429941 0.561958
1.2366807 0.8751709 0.21933313 1.2754838 -0.49895677 -0.5727305 0.8964813 0.44758788
0.6307029 1.062872 -1.1169612 -0.27667913 0.13831368 0.530686 0.4441557 0.47124287
-0.7353564 1.0184485 -0.84684837 -0.7637836 0.09006866 2.0110292 0.7075626 0.14888026
-0.31911352 -0.77494615 -0.8160235 0.3661075 -2.712363 0.25562388 1.1659155 -0.75742304
1.5525521 1.894307 -0.9671778 -1.8390896 -1.4902751 1.0563776 1.036258 -1.5593438
0.050049204 1.1962994 0.70087105 -2.1704328 0.45708156 2.6581612 1.9045074 -0.38215134
-0.9315762 0.34919637 -0.7251392 0.549641 0.5453939 0.580387 -0.5933242 0.3024231
0.079445116 -1.6866417 -2.0833383 -0.71146804 -2.1601067 0.017807603 0.5121516 -0.15165912
0.5675 0.14762121 -0.13152997 0.5289246 -0.4258621 -0.264326 -0.26387858 0.8689885

weight f4 [32, 16]
00000000: 52dc 0fbe 4462 43be 9dd5 273e e2e5 74be
00000010: e500 2e3d c894 33be 7732 31be b917 493e
00000020: 2240 a5be 305d e83e 6931 2bbe 857f 46be
00000030: cf77 8fbe c2b8 b1be da08 72be 7f39 d9be
00000040: b0ad 1c3d 4c41 7a3c 5656 81be 4d85 643e
00000050: 2148 a3bc fce3 8a3d 3df9 613d 8b5d 4b3c
00000060: ddb9 c4be b4e9 b73e a564 dc3e 3a06 6c3d
00000070: b6fd e8bd 45f2 b6bd 1bc2 023e 814d 633d
00000080: 0101 92be 0024 b2be abc5 e73e 7e85 63be
00000090: 517d 67be 5fa7 62be 8c35 cfbd 6119 9a3e
000000a0: 2545 f7be 8dfd 42bb 8b9d 0b3f c4ad 023e
000000b0: 1d1d 82bd 08c8 7b3e 69fa d73d a47b 8c3a
000000c0: 2096 abbc 00ae 513d ba11 43be 06b8 04bd
000000d0: 813c 753e 2316 a13c e8a8 e83d 66e2 b53d
000000e0: 7f20 9cbd dc22 a0be 6a4c e43e 6267 cb3e
000000f0: 7001 993e 24b5 bb3e 0994 033f 66d6 d53e
00000100: 8b18 9d3e a162 8e3e b0cb 9cbe 8b0e 363e
00000110: c49c 0c3e d2f5 9c3e 311c 0bbe 3026 0fbe
00000120: 2b7b 4e3e 2858 bfbe 9a85 683d 38bf e43e
00000130: 2a18 113f 56ff e83e d338 183f 6d27 6b3e
00000140: 0a02 943d 96a0 bf3d 0102 a93d 48af 7fbd
00000150: 3890 613e 0842 673e cfc8 79bd 1579 c43d
00000160: e3c1 58be f9f1 10be 5b21 d03e 91d7 b83e
00000170: 8917 f03d 3bab 033f 56ea 063f 38fd 2bbc
00000180: bcd0 513e 8786 bf3e 2666 a5be 3586 ec3d
00000190: 8ecd 043d 3cf6 f23d 4285 8dbe f390 c4bd
000001a0: 1b50 82be 02e6 043f ffd5 1d3d 52b5 b8be
000001b0: 5f17 00bf d5fe 05bf 6574 3bbf 7be8 18bf
000001c0: aae6 a1bd 2287 103e 3a52 06bd 20e6 a13d
000001d0: c2cb ba3d 1f36 aa3c c23d dc3d 55eb 0cbe
000001e0: 0732 6e3e 0125 32bf 1a84 57bf 2fb3 38be
000001f0: 85b2 273f 287b acbd 678c 003e 2f51 c73c
00000200: 46cc 7d3e 7c9d 493e acde 01be f9e5 583d
00000210: 737f 9ebd 882f 363e 0709 783d b4aa e6bd
00000220: a8d0 41be de37 0bbe b974 063f 454c 633e
00000230: 6687 b3bd 2cd0 4c3e 3aee 85bd 4f20 06bf
00000240: ad15 673e a849 5a3e 7a26 08be 56d6 933d
00000250: bcae 13bb 2ee8 a53d ef04 ccbc 195a f4bd
00000260: dc76 01bf c42f 9f3e 4960 083f ebc3 a23e
00000270: 20eb 10be 2e47 fd3e bbff b23e bf93 75bc
00000280: 193a a5be ea31 e9be 8af3 ad3e 6009 6dbd
00000290: 6250 a6bd 030d dcbe 20cd f23d 0a26 bd3e
000002a0: 2091 42be df8f 3b3e d866 83be 56e7 cabd
000002b0: 3624 a03d 6c5e b7bc 5651 99bd cb57 013e
000002c0: 43b5 82bd 1dc0 7a3d fc0d 2bbe 502e 933d
000002d0: c7db 823e 14ad d13d d21d 733e 7233 373e
000002e0: bde7 5ebd abe5 d6bd 4330 62be f3a3 91be
000002f0: a6ad 703e e2cf 8abe 1662 09bf 0578 1bbf
00000300: 5622 813a 8771 943d 6389 cfbd ac07 ed3d
00000310: 07fb 0c3d e75e eb3d 050e 8c3d 500f ef3c
00000320: 064f 3dbe 6f36 253f a78b f23d 8435 e7be
00000330: 2566 24bf 94fb 4cbe 18c1 18be 7441 87bd
00000340: a261 893c 0613 2ebe e2fc 633e 73e3 12be
00000350: a91c 17be 8924 59be 3281 c8be c340 1b3e
00000360: cbfa 273f 81ba 6fbd fcf3 37bf 8bfa 2fbf
00000370: df37 e03e 367e 1cbf 1db3 09bf 0b43 4dbd
00000380: f9ac 98bd 02d7 093d 24de 01b9 e03b 1b3e
00000390: 366e f23d c574 063e 4c96 853d 2b78 b63d
000003a0: 256f eebe ed63 febd 8084 e03e d806 e93c
000003b0: 3efe e63e b167 fa3e 7b30 083f 9e7f e63e
000003c0: 61bb 08be 93fb 1fbe 88b3 203e 36e1 29bd
000003d0: 0d41 783d b90e 393e 951b 0c3e 0dca 803e
000003e0: 06cf 51bd 67dd d9bd b943 e3be c005 bbbe
000003f0: b881 433e eb3f f9be 6ea7 07bf d678 bfbe
-0.1404889 -0.19080454 0.16390081 -0.23915818 0.04248132 -0.17537224 -0.17304407 0.19637956
-0.32275492 0.45383596 -0.16718067 -0.19384582 -0.28021094 -0.34711272 -0.23636189 -0.4242668
0.03825158 0.015274357 -0.25261182 0.22316475 -0.019931855 0.06781766 0.055169333 0.012412439
-0.38423052 0.3592049 0.43045536 0.057623126 -0.113765165 -0.08932928 0.12769358 0.055493835
-0.2851639 -0.3479309 0.45267996 -0.22218892 -0.22606398 -0.2213416 -0.10117635 0.30097488
-0.4829494 -0.0029753179 0.54537266 0.12761599 -0.06353209 0.24588025 0.10545809 0.0010718
-0.020945609 0.05119133 -0.19049731 -0.03240206 0.23948862 0.019663876 0.11360341 0.08881073
-0.07623386 -0.31276596 0.4458955 0.39727312 0.2988391 0.36661637 0.5139776 0.41765136
0.30682787 0.27809623 -0.3062415 0.17778985 0.13731676 0.30656296 -0.13584973 -0.13979411
0.20164172 -0.37371945 0.056768037 0.44677138 0.56677496 0.45507306 0.59461707 0.22964258
0.072269514 0.09356801 0.08252335 -0.06242302 0.22027671 0.22583783 -0.06098252 0.09593407
-0.21167712 -0.14154805 0.40650448 0.36101964 0.11723239 0.5143315 0.5270132 -0.010497384
0.20489782 0.37407324 -0.32304496 0.115490355 0.032422595 0.11863372 -0.2764073 -0.09597959
-0.2545174 0.51913464 0.03853416 -0.36075836 -0.5003566 -0.5234197 -0.7322448 -0.5972974
-0.07905324 0.14114049 -0.03279326 0.07905221 0.09120895 0.02077776 0.10753967 -0.13761647
0.23261271 -0.69587713 -0.84185946 -0.18037103 0.65506774 -0.08421928 0.12553559 0.024330704
0.24784955 0.19688982 -0.12682599 0.052953694 -0.07739153 0.17791569 0.060555484 -0.11263028
-0.18927252 -0.1359553 0.52521855 0.22197063 -0.087660596 0.20001286 -0.06539579 -0.5239305
0.22566862 0.2131716 -0.13295928 0.07218616 -0.002253457 0.081009254 -0.024904696 -0.11931247
-0.5057199 0.3109113 0.5327192 0.317901 -0.14152193 0.49468368 0.34960732 -0.014988839
-0.32270887 -0.45545894 0.33974868 -0.05787027 -0.081208006 -0.42978677 0.11855531 0.36943084
-0.19000673 0.18316601 -0.256644 -0.09907405 0.07819407 -0.022383891 -0.07486217 0.12631147
-0.06382229 0.06121837 -0.16704553 0.07186568 0.25558302 0.1023809 0.23741844 0.17890719
-0.05442022 -0.104930244 -0.22088723 -0.28445396 0.23503742 -0.27111727 -0.5366529 -0.6073001
0.0009852152 0.07248216 -0.10133626 0.11573729 0.034419086 0.114927106 0.068386115 0.029182106
-0.18487176 0.64536184 0.11843043 -0.45158017 -0.6421836 -0.20017844 -0.1491741 -0.06604281
0.016770188 -0.16999444 0.22264436 -0.14344577 -0.14757027 -0.21205343 -0.39161068 0.15161423
0.65617055 -0.058527473 -0.71856666 -0.68741673 0.43792626 -0.6113008 -0.5378893 -0.050112765
-0.07454867 0.033652313 -0.00012385153 0.15159559 0.11837427 0.13130482 0.065228075 0.08909639
-0.46569172 -0.12421403 0.4385109 0.028445646 0.45115846 0.48907235 0.53198975 0.4501924
-0.1335273 -0.15623312 0.15693486 -0.041474544 0.060608912 0.18072022 0.13682397 0.25154153
-0.051222824 -0.10637932 -0.44387606 -0.36527824 0.19092453 -0.48681578 -0.5298985 -0.37396878

bias f4 [32]
00000000: f742 013f a5de 573e 6b31 d13e ee36 f7be
00000010: a000 1b3e af56 9cbe 30cb 44bc c4cf c33e
00000020: 7b10 a7bd 6342 bdbe 1ac5 833f bb55 e7be
00000030: fabc 3e3e 64eb 3c3e 287d febd 0d9a 663d
00000040: b4ca 463f 7f4c 8dbe 134a 263e 8f70 e3bd
00000050: 1e4c 123e 4644 cb3e 0fc9 cabd 82cc 2dbe
00000060: dd33 eebd e939 993e f6a8 feba 4fa5 ecbd
00000070: 783b 033e 2ea0 153f b4ab 0c3f 6597 a1be
0.50492805 0.21081026 0.40858015 -0.48284096 0.15136957 -0.30534884 -0.012011334 0.3824445
-0.0815744 -0.36964712 1.0294526 -0.45182595 0.18626776 0.1844917 -0.124262154 0.056299258
0.7765305 -0.27597424 0.16239195 -0.11105453 0.14286849 0.39700526 -0.0990163 -0.16972545
-0.11630986 0.29926994 -0.0019429016 -0.115549676 0.12815654 0.5844754 0.549495 -0.31560817

weight f4 [16, 32]
00000000: 62b6 d43e e87c 33be 784b 013f 6cbb 013e
00000010: 34a4 7cbe 7360 bc3e b8d0 84be fdec 9bbe
00000020: fbb3 dc3c 67cc 8a3e ff84 693e e057 713d
00000030: 6001 88be a580 ccbe ce08 fa3d 26f7 26bd
00000040: c5a9 93bc 1526 aebe e98a a1be 9ccb eb3e
00000050: fae0 77be 16d4 443c 4f84 ae3e 825e 8e3e
00000060: 9242 403e 1687 0ebf 3be3 5dbe 9efb cebd
00000070: f1e7 3f3e 4fde efbd 6cd5 9c3e 5f36 56bd
00000080: b571 b8bd b4bc 4cbe da16 98be d66d 86bd
00000090: 658f 2b3d 3d7f 1f3e 8d5b b73d 8e89 0dbd
000000a0: 317a 943d 42d0 e93d 08de 48be d57e 103f
000000b0: 8c7a e73d de69 713d cd8d a23d 65a0 933e
000000c0: f87d f3be 904c c63e 2057 0fbf 3316 7bbe
000000d0: 3051 07be 1543 eebe d262 6dbe 7b92 b83c
000000e0: 64e7 58bc 4392 943d 7d6a 583d fced fabd
000000f0: 259f 053f 6856 313c 7d79 bbbe e2ae e63e
00000100: d798 8bbe c012 51be c89f 3dbe 8345 9e3e
00000110: 8463 143e 858f 213d efd3 e5be 78c5 f93e
00000120: 470c aabe ea7d 94be b5cd 8c3d 24c7 9c3e
00000130: a648 b6be c81d c83d 2d4f 733d 4819 a53e
00000140: 6de1 0c3e 887f b53e 8ed2 6dbe 6b20 42be
00000150: 38c0 883e ee04 b1bd c6dd ecbd 4fa9 8c3e
00000160: 2b57 3a3d c183 9cbe 2b24 843e dd53 7ebe
00000170: 7f62 3e3e 7abd 853d 0d17 59be be57 803e
00000180: bb29 88be 47e8 f6bc faab edbd 09ad 523e
00000190: a2c8 0f3f 7ca9 483e 537e f9bd 3594 f13e
000001a0: 84bc 143e 9f15 1f3d 7656 01be 9009 0b3e
000001b0: 7e36 b8be 218a 4abd f878 693e 0bbc a83d
000001c0: b264 cfbd 6b86 423e 0a0c 893e 19d6 c7be
000001d0: cfa4 043e e7ce eebb 167c d33d f937 d23c
000001e0: 5b89 3e3e 9778 90be 18d1 8f3e 34f3 8bbe
000001f0: 6fdf 3ebe 6f5f af3e 90e1 0cbe 5dac 4bbe
00000200: 73c5 d03e a453 263c feac 193e 4885 b5be
00000210: 3a11 52be 0a37 81bc 7b0a c93e e0f0 1cbd
00000220: 937f 15bd 7aff 0c3d b71d ed3d cd39 763d
00000230: 5e03 0a3f f240 7cbd ec8a 0c3b add5 213e
00000240: 75c7 30be f42d 7fbd 299e 0e3e 26f8 fcbc
00000250: bdc2 dbbc a60c a9bd f61f 0bbc 79bb 42be
00000260: b99d 8d3e 9b41 193f c600 193e 91a4 31be
00000270: f0a0 6abd 94bb db3c 8e05 91bd cc72 1bbe
00000280: 8ffd f63c bed1 653e c9ef 8ebd 0680 163d
00000290: b720 853d df76 ee3d 2e9e f33d 2b4d d7bd
000002a0: ddb2 80be 877e 603e f324 663e 045e d4be
000002b0: a055 983e df5b 98be c883 df3d f10d 7abe
000002c0: ecae 9cbe c432 bbbe adb6 023e d2a8 53bd
000002d0: 9cb3 6b3d 15fe 90be 89e1 953b 66b8 26be
000002e0: d705 fe3d 2f45 1e3f 90e7 d2bc 73fc 543e
000002f0: 5173 a1be 56ef 11bf 9780 a93e 9bcb 553e
00000300: 6566 73be 135b 613e d0ce a13d 6627 df3e
00000310: 9b45 e83d e240 9a3e f8e7 0f3d 2b29 e4be
00000320: da66 4c3e c690 1a3f 0f97 dfbe 213e d4bd
00000330: 0239 873d afab 0fbf 65b8 c13e e866 c2be
00000340: f2df 0abf 448c 49be a74c 3e3e 93a6 f8bd
00000350: 4d63 fabd c188 a6be c8c3 003e ff73 c2bd
00000360: 4702 033e 8430 273d 54af 14be fce6 933e
00000370: c901 d7be 34c3 38bf 6812 30ba 72ee a3bd
00000380: 558b a83e e4f3 e43d 0452 613e 619e c8be
00000390: 5daf 1dbf 6500 2ebe cf04 cf3e b608 90bd
000003a0: e272 d3bd 1c87 50be 9a8d 2d3e 3565 2e3e
000003b0: ec22 5b3e ff18 d73e cd53 e0bd 75df 003f
000003c0: e816 693d 33da 1f3e 1f76 f6bd 46d5 653e
000003d0: 136d 36be f433 0ebe 5e49 cdbe dd9c 9fbc
000003e0: 38dc 07be b147 e33d 6b13 99be 5e89 1e3d
000003f0: 973c 033f f9bb 093d 320d c03e 5b5d 9d3c
0.41545397 -0.17528117 0.5050578 0.12669152 -0.24672014 0.36792335 -0.2594049 -0.30454245
0.02694129 0.27109072 0.2280464 0.058921695 -0.2656355 -0.39941898 0.122087106 -0.040763043
-0.018025288 -0.3401343 -0.31551293 0.4605378 -0.24206915 0.012013456 0.34085318 0.2780648
0.18775395 -0.55674875 -0.21668713 -0.10106586 0.18740822 -0.11712324 0.30631578 -0.052297946
-0.09006063 -0.1999386 -0.29704934 -0.06563918 0.0418848 0.15575881 0.08953009 -0.03455501
0.07249869 0.11416675 -0.19615948 0.5644353 0.11302671 0.058938853 0.079372026 0.2883331
-0.47557044 0.38730288 -0.5599232 -0.24520187 -0.13214564 -0.46535555 -0.23182228 0.022530785
-0.013238762 0.0725446 0.05283593 -0.12252423 0.5219596 0.0108238235 -0.36616126 0.450553
-0.27265045 -0.20417309 -0.18517983 0.30912408 0.14491087 0.03944351 -0.44888255 0.4878347
-0.33212492 -0.29002315 0.06875173 0.30620682 -0.356023 0.09771305 0.05940168 0.3224585
0.13757868 0.3544886 -0.23224851 -0.18957679 0.2670915 -0.086435184 -0.115657374 0.27472922
0.045493286 -0.3056927 0.25808844 -0.24836679 0.18592261 0.065302804 -0.212002 0.25066942
-0.26594338 -0.030140055 -0.116050676 0.2057382 0.56165516 0.19595903 -0.121822976 0.47183385
0.14525038 0.03883898 -0.12630638 0.13577867 -0.35979074 -0.049448136 0.22800052 0.08238991
-0.10126628 0.18996589 0.26766998 -0.3903053 0.12953494 -0.0072878483 0.10326402 0.025661455
0.18607084 -0.28217003 0.28089213 -0.27333987 -0.1863992 0.34252498 -0.1375792 -0.1988997
0.40775642 0.010151777 0.15007398 -0.35453248 -0.20514384 -0.015773315 0.39265808 -0.038315654
-0.036498617 0.03442333 0.11577933 0.060113717 0.5391139 -0.061585374 0.0021445109 0.15804167
-0.17263587 -0.062299684 0.13927521 -0.030880045 -0.026826257 -0.082543656 -0.008491507 -0.19016828
0.27659395 0.5986573 0.14941701 -0.17347933 -0.05728239 0.026822843 -0.070811376 -0.1518051
0.030150203 0.22443292 -0.06979329 0.036743186 0.065003805 0.116437666 0.11895405 -0.105127655
-0.25136462 0.21923266 0.22475033 -0.41477978 0.29752827 -0.29757592 0.10913807 -0.2441938
-0.30602205 -0.3656217 0.12764998 -0.05167467 0.057544336 -0.2831885 0.004574005 -0.1628128
0.124034576 0.61824316 -0.025745183 0.20799427 -0.31533292 -0.5700582 0.3310592 0.2087845
-0.23769529 0.22007398 0.079007745 0.43584746 0.11341401 0.30127627 0.035133332 -0.4456266
0.1996111 0.60377157 -0.43669936 -0.10363413 0.0660267 -0.56121343 0.37835994 -0.37969136
-0.54247963 -0.19682413 0.18583928 -0.121411465 -0.12225971 -0.3252621 0.12574685 -0.09494781
0.12793837 0.040817752 -0.14520007 0.28887165 -0.4199355 -0.72172856 -0.000671661 -0.08004464
0.32918802 0.11179331 0.22003943 -0.39183334 -0.6159571 -0.16992338 0.40433356 -0.070329115
-0.103246465 -0.2036404 0.16948548 0.17030795 0.2140004 0.42011258 -0.10953484 0.5034097
0.05690661 0.1561058 -0.120342486 0.22444639 -0.17815046 -0.13887006 -0.40095037 -0.019483978
-0.132676 0.110976584 -0.29897627 0.038705222 0.5126433 0.03362653 0.37510067 0.019209554

bias f4 [16]
00000000: 65ea b1be d89b 00bf 62d7 c9be 7090 563d
00000010: 258a c13d 0bd2 e43e 8ba2 31bf 747d 80bd
00000020: a841 3ebf c13d 1c3f b949 01bf f002 c43c
00000030: 3a6f 1dbf a3c3 14bf 6fbb 2abe e25b bfbe
-0.3474914 -0.502378 -0.39422137 0.05238384 0.09450177 0.446915 -0.69388646 -0.06273928
-0.74318933 0.6103173 -0.50503117 0.023927182 -0.61497843 -0.5811102 -0.16673063 -0.3737479

weight f4 [8, 16]
00000000: 2840 bf3d 4f58 94be eabb 073f 0060 68bf
00000010: 3b45 a73e 6e5d 46be 7ae4 c2bf 2fca a73e
00000020: 49a1 f3be 6cb3 9bbd 8de5 7d3e 3eda ac3e
00000030: ce07 06bf c8ab 9b3e eedb 17bf eab7 0ebe
00000040: 12f0 653e 67ff 043e 2ad1 a43e 530f 023e
00000050: 4890 2f3e 2bf6 9ebc 3218 383e 65a7 883e
00000060: 710e dfbd 6ecf a23e 9d39 0c3e 0ccc 8d3e
00000070: d731 e13e 0390 f63e 9b14 11be f31d 81bc
00000080: 57c5 523d 0558 7e3e 7ce9 cc3c 6b1c 573b
00000090: 2284 39be c164 ee3e 06d0 12be 0ebc fbbe
000000a0: 07ea d8be 50fd a93e fe4e aa3e 9a01 c0bd
000000b0: 1944 893e 002c b1bd f3da d6be 9fb8 9fbc
000000c0: 4814 f5bc 53dc cc3e 3eb2 9f3e 1464 363e
000000d0: 1702 b93e 71a8 603e b691 a23e 0737 893e
000000e0: a991 72be 7c2d a23e dd54 ab3d 1e3a c33e
000000f0: f0cd 893e cd94 153f 110c 8a3d 13a4 9cbe
00000100: 3bc9 91bd 14e0 133e b079 8d3e c678 c53c
00000110: 9640 94bb f83e dc3d 118e d5bb be68 1e3d
00000120: e510 86bf 8b36 333e b9f5 afbe bb7f e53d
00000130: 98d2 a63c 99c2 703e 032e 663d 39b4 40bd
00000140: ec93 15be e7cf b5bd 56e1 0fbf cb96 c03e
00000150: ac73 6fbe 1b45 623e 38e6 8dbf 9e97 38be
00000160: f70c 313e 00df 08bd be27 043f aa5c babe
00000170: 7951 20bd ef7f c9bd 84da 723e 39ac 13bf
00000180: 6d46 9bbf 2f79 b6bd ac39 b23e 8b0d 54bf
00000190: e56a 183e 6cb6 603d 8dcd e1be b272 f2bd
000001a0: f8a0 5bbe 7f7a 6c3e 44c8 a8bf bc1a 66be
000001b0: 590f 153f 6614 cb3e 50ab 38bf bfb8 e3bd
000001c0: fe18 c3bc e298 bebc 27cf 63be 8d46 6f3d
000001d0: 9f8d a13d 09f1 0f3e 2ad3 af3d 2be5 023e
000001e0: fa8b 793d cde9 d83e d482 ef3d 04c8 923e
000001f0: 6671 c03e 496c 073f 47fa 8dbe b5bb cbbd
0.09338409 -0.28973624 0.5302111 -0.90771484 0.32670006 -0.19371578 -1.5225976 0.3277144
-0.47583988 -0.076025814 0.24794598 0.33760256 -0.5235566 0.30404496 -0.5931996 -0.13937345
0.22454861 0.12988053 0.3219083 0.12701158 0.17144883 -0.019404491 0.1797798 0.26690212
-0.10891426 0.3179888 0.13693853 0.27694738 0.43983337 0.48156747 -0.14168017 -0.015761351
0.05145773 0.24838264 0.025013678 0.0032823335 -0.18116811 0.46561244 -0.14337167 -0.49166912
-0.4236605 0.33201075 0.3326339 -0.093753055 0.26809767 -0.086509705 -0.4196392 -0.019497214
-0.029916897 0.40011844 0.31190675 0.17811614 0.36134407 0.21939255 0.31751794 0.26799795
-0.23688377 0.31675327 0.08365796 0.38130277 0.2691493 0.58430177 0.06740583 -0.3059393
-0.0711846 0.14440948 0.27631903 0.02410544 -0.004524301 0.10754198 -0.00651718 0.03867411
-1.0473906 0.17501275 -0.3436716 0.11206003 0.02036409 0.23511733 0.056196224 -0.047046874
-0.14607209 -0.08877545 -0.5620321 0.37615046 -0.23383969 0.22096674 -1.1085882 -0.18026587
0.17290102 -0.033415794 0.5162314 -0.36398822 -0.0391402 -0.098388545 0.2371617 -0.57684666
-1.2130867 -0.08909833 0.34809625 -0.82833165 0.14884527 0.05486147 -0.44102135 -0.11838283
-0.21448123 0.23093604 -1.3186116 -0.22471136 0.58226544 0.39664 -0.721364 -0.11119222
-0.023815628 -0.02326626 -0.22246991 0.05841689 0.0788834 0.14056791 0.08585198 0.12782733
0.060924508 0.42365876 0.11694875 0.28668225 0.37586516 0.52899605 -0.2773001 -0.09947912

bias f4 [8]
00000000: 6eda d5be d52e 3e3e 5603 7c3f 5bb0 563e
00000010: c0b6 933e a33a dd3e a092 843f 9456 f7bd
-0.4176821 0.18572553 0.9844259 0.20965712 0.28850365 0.432088 1.0357246 -0.1207706

weight f4 [1, 8]
00000000: cfa4 193f 1370 76be 4a83 613f 85fc 91be
00000010: 8827 71be b256 9a3f 0a14 b93f 3cfe e6bd
0.600171 -0.2406619 0.88090956 -0.2851297 -0.23550236 1.2057707 1.445924 -0.1127896
