models/NCF.pt (torch, 694922 bytes, 20 tensors)

weight f4 [944, 32]
-1.0785099 -1.1936876 -0.23105943 -0.38280967 0.8540387 0.65685064 -0.2964102 -2.2219582
0.3534829 -1.3080742 0.35075188 0.35961902 0.075976826 1.304732 1.1017386 -0.22339508
-1.3533206 -1.7487683 0.5300293 0.81692094 0.601004 -1.592242 -0.28748962 1.8148983
0.7749403 -0.57250524 -0.18798 0.26870543 1.42056 1.5254098 0.9574298 -0.81140214
-0.6842193 0.027109079 -0.47035187 0.21759492 0.43435666 0.083368406 0.6531163 0.48264787
-0.06628971 0.85159147 -0.26444376 0.06721602 0.6655466 2.359185 -1.4415402 -1.6445096
-0.6877107 0.9186954 0.97959036 0.15494105 -0.20465186 -0.38974428 0.54689735 -0.43595284
-0.41490546 0.68673956 1.5782317 3.5123246 -1.5252199 -1.21074 1.7724957 -0.58702403
-0.59831953 0.9787215 1.1849874 1.2571487 -1.4608034 2.6025696 -0.4331556 0.3199246
-1.5193267 -0.5022815 -0.5465205 -0.51096416 -0.9874466 1.0497348 -0.20259602 0.77852035
-0.13214107 0.687066 -0.8031634 0.07773185 0.8556228 -0.37215263 1.0294405 0.30357954
-0.22950011 2.3257687 -1.8714814 -0.04138363 -1.0934986 -0.8881364 -0.0030632303 0.7434094
1.55115 -1.3468225 0.42506438 0.52190036 -2.508351 -1.6591522 -0.17570971 0.22877063
0.24216971 0.03210764 0.30558002 0.48120376 0.42612615 -0.8995353 0.84982497 -0.9366854
-0.22230077 -2.3666372 -0.12641622 -0.008244338 0.9391108 0.37594798 -0.9343337 -0.0349062
-0.6499533 -0.40796584 1.932704 -0.42211378 0.14205982 1.1706159 0.9745814 1.3766036
-0.8108457 -0.4177319 -0.88653547 0.5913964 0.62002414 0.44500837 2.0018077 -1.1299499
-0.14705208 0.100666516 -0.5349303 -1.3302681 -0.112614125 -1.0877885 -0.34420705 0.28097874
-0.25387728 0.1138653 0.2725185 1.1675282 0.38590932 0.40962356 -0.19999285 -0.14957976
0.084542155 -0.7401781 -1.8710684 0.06628896 -0.7506143 0.26845443 0.18775819 0.40695652
1.0038462 -1.0011555 0.3084381 -0.14848705 0.929641 -0.52872795 0.6735444 0.66810524
0.39654386 0.19119108 -0.2163347 0.34863746 -0.3285766 -1.0813389 0.2173221 -1.3814408
-0.07716687 -0.35016653 -1.5360109 -0.34081656 1.1030573 0.104308225 1.5900849 0.69434035
-1.0594597 -0.67540294 1.4622728 0.2993708 0.6436821 -1.0242257 -1.2571074 -1.2007406
-0.5496281 0.5016747 0.47045252 0.38346314 0.1366405 0.82803893 -0.23364532 1.1125838
-0.05480909 -1.1753486 0.36682585 0.6335445 0.70917517 -1.2544228 0.61409515 -0.5550444
1.1927902 0.12209918 1.0055493 0.8609605 -1.186282 0.96131897 -0.48943606 -1.2543174
0.9872227 1.251906 -0.7067648 0.55333906 0.34457645 -0.026512263 -1.0242522 -0.08171871
-0.34391937 1.6219702 0.03473592 0.3696946 -0.213089 0.6504176 -0.2466716 -1.2494884
-0.1550698 -0.47629297 -0.5983377 0.86561036 -0.8466697 0.8466449 1.1665626 -1.7383186
-1.4565103 -1.6711891 0.091230035 -1.0465151 1.4374214 -0.14830005 0.5565578 -0.15607499
-0.012123356 1.0588173 0.8954732 -0.48534802 -0.8801811 0.15737678 1.8159326 0.3171058
00000000: 9d0c 8abf c1ca 98bf d89a 6cbe a1ff c3be
00000010: 48a2 5a3f 5d27 283f 14c3 97be 9034 0ec0
00000020: b6fb b43e fa6e a7bf c095 b33e fc1f b83e
00000030: bd99 9b3d 7501 a73f c505 8d3f aec1 64be
00000040: 9c39 adbf a4d7 dfbf 00b0 073f bb21 513f
00000050: 66db 193f 96ce cbbf d731 93be 964e e83f
00000060: 7d62 463f b48f 12bf d47d 40be c293 893e
00000070: e9d4 b53f a140 c33f 1f1a 753f 0db8 4fbf
00000080: ff28 2fbf dc13 de3c f6d1 f0be 34d1 5e3e
00000090: ff63 de3e 0ebd aa3d a132 273f 9f1d f73e
000000a0: e6c2 87bd e601 5a3f 2c65 87be 8da8 893d
000000b0: 4361 2a3f e3fc 1640 6484 b8bf 4a7f d2bf
000000c0: cf0d 30bf 9f2f 6b3f 6fc6 7a3f dea8 1e3e
000000d0: 4290 51be 908c c7be 7701 0c3f 3635 dfbe
000000e0: 7d6e d4be 2ace 2f3f 7f03 ca3f edc9 6040
000000f0: 683a c3bf 87f9 9abf 24e1 e23f 3547 16bf
00000100: 782b 19bf 7e8d 7a3f abad 973f 40ea a03f
00000110: 9bfb babf 8090 2640 92c6 ddbe 28cd a33e
00000120: 4c79 c2bf 8595 00bf c4e8 0bbf 8cce 02bf
00000130: 4dc9 7cbf b65d 863f 5575 4fbe 1c4d 473f
00000140: fd4f 07be 8fe3 2f3f 1e9c 4dbf e031 9f3d
00000150: 190a 5b3f ca8a bebe b5c4 833f c76e 9b3e
00000160: 1402 6bbe 65d9 1440 b48c efbf e281 29bd
00000170: c3f7 8bbf e85c 63bf 7ac0 48bb 1450 3e3f
00000180: 158c c63f ae64 acbf 0aa2 d93e 439b 053f
00000190: d388 20c0 195f d4bf 3fed 33be d942 6a3e
000001a0: 56fb 773e 4d83 033d fc74 9c3e 5760 f63e
000001b0: 352d da3e f247 66bf 218e 593f 9dca 6fbf
000001c0: d0a2 63be fc76 17c0 4173 01be 4313 07bc
000001d0: 9169 703f 417c c03e 7e30 6fbf cef9 0ebd
000001e0: 5763 26bf e6e0 d0be d862 f73f 4c1f d8be
000001f0: 2178 113e bed6 953f 2b7e 793f 8c34 b03f
00000200: 9593 4fbf f5e0 d5be fdf3 62bf c165 173f
00000210: e7b9 1e3f 23d8 e33e 9e1d 0040 33a2 90bf
00000220: d294 16be 3f2a ce3d 31f1 08bf 3a46 aabf
00000230: 3ca2 e6bd a73c 8bbf e83b b0be 72dc 8f3e
00000240: 34fc 81be 3632 e93d 8b87 8b3e 9071 953f
00000250: e895 c53e 2eba d13e edca 4cbe 702b 19be
00000260: 7024 ad3d 507c 3dbf 2b7f efbf 82c2 873d
00000270: 4228 40bf dc72 893e af43 403e 9b5c d03e
00000280: 087e 803f dd25 80bf 99eb 9d3e fd0c 18be
00000290: f4fc 6d3f b75a 07bf 686d 2c3f f208 2b3f
000002a0: cc07 cb3e 98c7 433e d886 5dbe 9c80 b23e
000002b0: 313b a8be 5069 8abf af89 5e3e 0dd3 b0bf
000002c0: aa09 9ebd 0749 b3be 019c c4bf 827f aebe
000002d0: fb30 8d3f 8d9f d53d e787 cb3f 4ac0 313f
000002e0: 609c 87bf 35e7 2cbf c12b bb3f 2147 993e
000002f0: 5ac8 243f d419 83bf e5e8 a0bf deb1 99bf
00000300: 6db4 0cbf c16d 003f 27df f03e 4855 c43e
00000310: 7deb 0b3e 5cfa 533f b840 6fbe 2569 8e3f
00000320: 7f7f 60bd d371 96bf 99d0 bb3e f92f 223f
00000330: 818c 353f ed90 a0bf 5735 1d3f 6417 0ebf
00000340: 59ad 983f 230f fa3d d7b5 803f e867 5c3f
00000350: 17d8 97bf 0019 763f 5d97 fabe 798d a0bf
00000360: a0ba 7c3f 753e a03f 8aee 34bf a1a7 0d3f
00000370: 536c b03e 3f30 d9bc b21a 83bf 245c a7bd
00000380: 3316 b0be b89c cf3f 4147 0e3d 9c48 bd3e
00000390: 0134 5abe c581 263f 7b97 7cbe 3cef 9fbf
000003a0: 9eca 1ebe acdc f3be a92c 19bf a498 5d3f
000003b0: 58bf 58bf b8bd 583f ec51 953f 3981 debf
000003c0: ee6e babf 86e9 d5bf d0d6 ba3d 35f4 85bf
000003d0: 6dfd b73f f8db 17be 927a 0e3f 1fd2 1fbe
000003e0: 0aa1 46bc 5387 873f bb3d 653f 897f f8be
000003f0: 8c53 61bf 6127 213e 7b70 e83f b15b a23e

weight f4 [1683, 32]
1.4426868 0.7268539 0.764451 1.2145944 -1.0877291 0.98566115 -0.9796122 -0.60024524
0.74239826 1.4474274 0.6380998 -1.2128426 -1.1467614 1.5171473 -0.42510858 -0.58675677
-0.8503547 1.0756335 -0.63454944 1.365106 0.54270476 0.62290806 -0.2893735 -0.99352914
0.703194 -0.5644271 -1.779482 -1.1692654 0.4779296 1.4491477 0.34807062 2.0523334
0.88425237 -0.58240193 -0.1974722 -1.396096 0.52719444 -1.1541734 0.34145644 -0.107036985
-0.85421616 0.29594466 -0.821872 -1.0753297 -0.78181314 -0.34456214 -0.38784143 0.1705178
-1.2442768 1.2930589 0.8490314 -1.941811 -0.4107415 -0.72908 -0.9650895 0.3553858
0.42611116 0.6278071 0.38747007 -0.07515625 0.99704325 0.80091834 0.47514763 -0.07972931
1.0429085 -2.0189984 -0.90923506 -1.0231076 2.016572 0.40888247 -0.3977708 0.13053621
0.038662467 1.050632 1.2964116 -1.6953943 0.7149345 1.8611591 -0.5065564 -0.85320354
1.8601724 1.0745932 0.7086004 0.283638 -0.8462061 1.7839968 -0.687104 1.0956881
0.60815614 -0.26494858 0.6619252 -0.29249585 -0.2464176 -0.09577915 -1.8107923 0.6064316
0.07356577 1.5014074 1.0951365 1.8279773 2.5310397 1.1562253 -1.8638985 -0.55420643
0.7942694 -2.0783255 0.24457589 0.031160595 -0.92911696 0.3174064 0.2345405 -0.032333694
-0.5251475 0.47739142 1.7308538 -0.27515268 -0.5111199 0.49255788 1.7169313 0.2606746
-0.16079828 0.59477717 0.65935844 -1.2802501 0.26020145 -2.7635417 0.2813728 0.5000787
0.28824666 1.4105182 0.88776636 1.0251087 -0.26289588 1.0441816 1.3151188 -0.8855769
1.2749791 1.2586772 0.08066642 1.2606652 -1.0069643 0.19402342 -0.06635857 -0.1351421
0.41781616 0.98350096 -0.08622487 0.311685 1.2886053 -1.1001687 2.2197876 0.4355073
1.2379661 -0.30666515 0.44737142 1.4073511 0.37040052 -0.7439331 -0.43272525 0.4722883
-1.4424428 -2.4103215 -2.7773824 1.3159537 0.39853486 2.02238 -0.27672845 0.21823278
0.1951058 0.3074498 0.83871996 -0.41610995 -0.141923 -0.6620479 1.1552286 -0.33522463
0.6072771 -0.43703565 0.5247172 0.4669714 1.2918819 0.5250975 0.14879082 -0.40958646
-0.5570507 0.9923964 -0.25314447 -0.59278244 0.17784667 -0.57046854 -0.23380713 -0.29007494
-1.5373161 -0.8194921 -0.5660245 -0.4514049 0.72406507 -0.27612343 -2.3118305 -0.45660022
-2.2514346 0.5454571 -1.7962171 0.6649315 -0.6062549 -0.51378655 -0.3264821 1.7229718
0.98949265 2.0972557 0.23350595 -0.48857278 0.2819851 0.64940023 -1.0161567 -2.3310852
-0.06340866 1.1719543 -1.0585983 0.08972972 0.7707513 -0.4057703 1.326664 -0.07634875
1.8202721 -0.1923426 0.14690812 -0.00025292963 -0.7988509 -0.5389231 0.11074438 -1.4465587
-0.47753114 0.9507856 -0.030614786 -1.2306576 -0.8595439 -0.057294942 0.3990406 -1.4714233
-0.43876654 -0.21131139 -1.2652851 1.60705 0.24385892 -0.26296183 -1.6724017 0.54968023
0.69029844 1.0745777 -1.0248069 -1.2414061 1.2110264 -0.23550545 -1.8213814 0.37954196
00000000: f6a9 b83f 1913 3a3f 10b3 433f d477 9b3f
00000010: b53a 8bbf 4a54 7c3f ddc7 7abf aca9 19bf
00000020: d00d 3e3f 4d45 b93f 825a 233f 6d3e 9bbf
00000030: 14c9 92bf e231 c23f d5a7 d9be b135 16bf
00000040: d8b0 59bf 5cae 893f d571 22bf cbbb ae3f
00000050: b3ee 0a3f e776 1f3f c328 94be ed57 7ebf
00000060: 8604 343f 4b7e 10bf 11c6 e3bf 7daa 95bf
00000070: 30b3 f43e ac7d b93f 5036 b23e 6e59 0340
00000080: 5d5e 623f 4b18 15bf 2736 4abe 46b3 b2bf
00000090: 37f6 063f f4bb 93bf 61d3 ae3e 3536 dbbd
000000a0: e9ad 5abf 0f86 973e 3466 52bf 67a4 89bf
000000b0: e824 48bf 736a b0be 2793 c6be 389c 2e3e
000000c0: 7644 9fbf f482 a53f 1f5a 593f 438d f8bf
000000d0: b64c d2be fda4 3abf 1b10 77bf 21f5 b53e
000000e0: 3e2b da3e f7b7 203f 7a62 c63e 85eb 99bd
000000f0: 3a3e 7f3f fc08 4d3f 8d46 f33e 1f49 a3bd
00000100: 077e 853f 4537 01c0 a1c3 68bf 31f5 82bf
00000110: 840f 0140 0b59 d13e 9da8 cbbe 49ab 053e
00000120: 895c 1e3d 1c7b 863f d1f0 a53f ae02 d9bf
00000130: f305 373f 763a ee3f aead 01bf 8c6b 5abf
00000140: 211a ee3f 458c 893f d666 353f 0039 913e
00000150: f7a0 58bf 025a e43f 0ce6 2fbf 823f 8c3f
00000160: 1fb0 1b3f 57a7 87be ee73 293f 04c2 95be
00000170: e554 7cbe dc27 c4bd 0bc8 e7bf 1a3f 1b3f
00000180: a7a9 963d 1e2e c03f 6f2d 8c3f 29fb e93f
00000190: 8efc 2140 31ff 933f 3a94 eebf 79e0 0dbf
000001a0: 3d55 4b3f 4903 05c0 1a72 7a3e 8144 ff3c
000001b0: 9cda 6dbf 1783 a23e 632b 703e 5670 04bd
000001c0: 1170 06bf a66c f43e 9e8c dd3f d0e0 8cbe
000001d0: c1d8 02bf 8c30 fc3e 68c4 db3f 2477 853e
000001e0: 4ea8 24be 5143 183f b7cb 283f 3cdf a3bf
000001f0: 2039 853e dedd 30c0 1810 903e 2805 003f
00000200: 1195 933e dc8b b43f a844 633f c336 833f
00000210: 4a9a 86be bea7 853f d055 a83f 2bb5 62bf
00000220: 8432 a33f 561c a13f 7034 a53d 7a5d a13f
00000230: 35e4 80bf 13ae 463e 00e7 87bd b162 0abe
00000240: 00ec d53e b8c6 7b3f aa96 b0bd 2d95 9f3e
00000250: 05f1 a43f 54d2 8cbf 0011 0e40 d0fa de3e
00000260: ac75 9e3f 3703 9dbe de0d e53e 1524 b43f
00000270: 23a5 bd3e 6672 3ebf 2a8e ddbe c6cf f13e
00000280: f7a1 b8bf b542 1ac0 a2c0 31c0 2c71 a83f
00000290: c30c cc3e ad6e 0140 5aaf 8dbe 6a78 5f3e
000002a0: d1c9 473e 0f6a 9d3e 5ab6 563f 5d0c d5be
000002b0: 4354 11be f97b 29bf 88de 933f 90a2 abbe
000002c0: 8376 1b3f 23c3 dfbe de53 063f e016 ef3e
000002d0: 635c a53f ca6c 063f 9f5c 183e 51b5 d1be
000002e0: e09a 0ebf b10d 7e3f 279c 81be 97c0 17bf
000002f0: 701d 363e 3a0a 12bf 236b 6fbe b484 94be
00000300: c6c6 c4bf 3cca 51bf fbe6 10bf 8b1e e7be
00000310: 545c 393f 0d60 8dbe 08f5 13c0 81c7 e9be
00000320: 8117 10c0 14a3 0b3f 71ea e5bf f338 2a3f
00000330: 8533 1bbf 8487 03bf a928 a7be 578a dc3f
00000340: 644f 7d3f 7039 0640 2f1c 6f3e 3626 fabe
00000350: 5a60 903e 183f 263f 6c11 82bf 8030 15c0
00000360: 66dc 81bd 9902 963f 2680 87bf 37c4 b73d
00000370: f54f 453f 20c1 cfbe 20d0 a93f bc5c 9cbd
00000380: adfe e83f 75f5 44be 156f 163e a49b 84b9
00000390: 7e81 4cbf ddf6 09bf f3cd e23d d628 b9bf
000003a0: f67e f4be af66 733f dccb fabc 3086 9dbf
000003b0: 120b 5cbf 1aae 6abd 0d4f cc3e 9957 bcbf
000003c0: 02a6 e0be 0362 58be ddf4 a1bf d0b3 cd3f
000003d0: 27b6 793e efa2 86be 4211 d6bf d8b7 0c3f
000003e0: 66b7 303f c38b 893f df2c 83bf 65e6 9ebf
000003f0: ea02 9b3f 5728 71be 0723 e9bf 5353 c23e

weight f4 [8, 32]
0.16048491 -0.11510221 -0.064886115 0.16015454 -0.05639091 0.027985247 0.08615362 -0.20310472
0.18421859 0.04972514 -0.061045107 0.1432115 0.04433536 -0.04008491 -0.11319203 0.15858248
-0.10099804 -0.0629849 -0.15589269 0.124029666 -0.04335463 -0.18000726 0.1436709 -0.088658325
-0.020728746 -0.082108065 -0.004360498 0.060440052 0.11495086 -0.010069328 -0.019662233 -0.077917814
-0.0752159 0.12458418 -0.12655269 0.10460064 -0.012535258 -0.04696426 0.08053808 0.1077693
0.01748415 -0.076069206 -0.06783441 -0.07514283 -0.060730316 0.008232748 0.08403145 -0.063224174
0.05852707 -0.034921765 0.014398858 0.14409153 0.037106283 0.06936047 -0.114037335 -0.088399425
0.16553465 -0.03199369 0.17442192 -0.067149974 0.02702748 0.04171875 -0.14059262 -0.07790225
0.21890579 -0.0493654 -0.12483025 0.13549356 0.084268086 0.00666193 0.13493866 -0.12508693
0.18266566 -0.07099982 0.06065659 -0.15453982 0.110992 -0.15435243 -0.1471325 0.05703692
0.09164735 -0.15961409 0.088878185 0.09207267 0.09291406 0.04604482 -0.18821749 0.10253474
0.15968326 0.07193053 0.009541299 0.078574374 0.05832936 0.035145894 -0.029449 0.12546694
0.020372683 -0.021950763 0.066874385 0.16112311 -0.11519559 -0.090329796 -0.15392359 0.061929267
0.13647453 0.0032145453 -0.13861856 -0.1470065 0.12231868 0.016068779 0.011592789 -0.13514762
-0.14276426 -0.102045454 -0.2209177 0.114735894 0.00070532534 -0.08935984 0.10938152 -0.04820473
0.095523395 0.03216362 0.040027924 0.045931797 0.017624231 -0.01939567 0.038707994 -0.015686873
0.052575167 -0.11505994 0.06345087 0.035092287 0.036394034 -0.056332227 -0.105081074 0.1577836
0.120843746 0.0799097 -0.14166981 -0.10696398 0.060109455 0.13855495 -0.12660871 0.07772906
-0.12888198 -0.14371243 -0.027912006 -0.07830341 -0.015192731 -0.12752141 0.06851666 0.017998744
0.094145656 0.033791814 -0.042184476 -0.16261709 0.066612095 -0.048102114 0.05743437 0.11799833
0.03936136 -0.07331681 0.062154762 -0.06693576 0.03826784 0.016471446 -0.08481468 -0.12700354
0.060286973 0.041670028 0.033842035 -0.07389421 0.041381814 -0.09800881 0.011036914 -0.01192955
-0.011557347 -0.07860045 -0.17673567 -0.078570515 0.059510548 0.09379916 -0.026788034 0.13224348
-0.051129192 0.06787302 0.00029463915 0.16101411 0.12959917 -0.09068903 0.0060008843 -0.10165449
0.17002653 -0.020952137 -0.08304431 -0.044850584 -0.22878635 -0.0874859 -0.02755717 -0.24837175
0.09073883 -0.1390481 0.06738719 -0.09962696 0.013804757 -0.15579204 -0.039567694 -0.037409708
0.058981784 0.053486183 0.091814935 0.2311533 -0.14471857 -0.04300194 0.07752257 -0.01994757
-0.036614634 -0.13306573 0.011053095 -0.050806258 -0.041255202 0.04171962 0.13624327 -0.1003481
-0.09165361 0.054864928 -0.11789221 -0.023599027 0.028831612 -0.13224125 0.17047974 0.061982997
-0.024189703 -0.0011971985 -0.14367107 0.048191648 -0.056917284 -0.070500486 -0.050344963 0.08394615
-0.125499 -0.0469896 0.012445312 -0.17603983 0.0648577 0.04946553 -0.04185775 0.052064758
-0.026628455 0.106756486 0.069779485 -0.13254645 0.11422849 0.16614734 -0.035026785 0.03482124
00000000: 2856 243e b5ba ebbd 03e3 84bd 8dff 233e
00000010: 28fa 66bd 5141 e53c 4f71 b03d affa 4fbe
00000020: cca3 3c3e 97ac 4b3d 6f0a 7abd 09a6 123e
00000030: ff98 353d 1330 24bd 39d1 e7bd 7263 223e
00000040: 0fd8 cebd 3afe 80bd 55a2 1fbe 4403 fe3d
00000050: a094 31bd d353 38be 771e 133e 7f92 b5bd
00000060: 55cf a9bc 4628 a8bd 82e2 8ebb fd8f 773d
00000070: 5b6b eb3d d3f9 24bc b112 a1bc 6093 9fbd
00000080: cb0a 9abd fe25 ff3d 0797 01be dc38 d63d
00000090: af60 4dbc 995d 40bd 26f1 a43d 27b6 dc3d
000000a0: ec3a 8f3c 2cca 9bbd c4ec 8abd 7ce4 99bd
000000b0: 5ac0 78bd a6e2 063c ae18 ac3d ad7b 81bd
000000c0: 15ba 6f3d 200a 0fbd 30e9 6b3c bb8c 133e
000000d0: c2fc 173d dd0c 8e3d 688c e9bd c20a b5bd
000000e0: ea81 293e d10b 03bd a99b 323e ed85 89bd
000000f0: bc68 dd3c 48e1 2a3d 83f7 0fbe 378b 9fbd
00000100: d728 603e 6033 4abd 01a7 ffbd d3be 0a3e
00000110: bf94 ac3d 524c da3b 5c2d 0a3e ca16 00be
00000120: b50c 3b3e 5b68 91bd 0b73 783d b03f 1ebe
00000130: c64f e33d 900e 1ebe e7a9 16be 8c9f 693d
00000140: 9bb1 bb3d e071 23be c405 b63d 9990 bc3d
00000150: ba49 be3d 7e99 3c3d 16bc 40be bcfd d13d
00000160: 0284 233e 5050 933d 1c53 1c3c 9aeb a03d
00000170: c4ea 6e3d 24f5 0f3d 073f f1bc 687a 003e
00000180: 9de4 a63c 16d2 b3bc 70f5 883d 75fd 243e
00000190: aaeb ebbd d4fe b8bd 259e 1dbe 8ba9 7d3d
000001a0: fbbf 0b3e 1fab 523b 06f2 0dbe df88 16be
000001b0: 3782 fa3d aca2 833c aeef 3d3c 2364 0abe
000001c0: cb30 12be 35fd d0bd 4038 62be a7fa ea3d
000001d0: 95e5 383a 4b02 b7bd 6b03 e03d 5372 45bd
000001e0: c5a1 c33d 00be 033d 52f4 233d fb22 3c3d
000001f0: b160 903c abe3 9ebc 468c 1e3d c281 80bc
00000200: 0f59 573d 8ca4 ebbd 88f2 813d eebc 0f3d
00000210: e911 153d 9fbc 66bd bf34 d7bd 0692 213e
00000220: ed7c f73d b2a7 a33d e411 11be ee0f dbbd
00000230: 5535 763d 59e1 0d3e b7a5 01be 6a30 9f3d
00000240: a3f9 03be 5a29 13be b8a7 e4bc 8a5d a0bd
00000250: efea 78bc f994 02be 7652 8c3d 1a72 933c
00000260: 70cf c03d 4969 0a3d a1c9 2cbd 1885 26be
00000270: ec6b 883d b906 45bd 4d40 6b3d 1ca9 f13d
00000280: 6139 213d 2027 96bd fe95 7e3d 9e15 89bd
00000290: bdbe 1c3d 20ef 863c 52b3 adbd 370d 02be
000002a0: 79ef 763d 31ae 2a3d f29d 0a3d d955 97bd
000002b0: fa7f 293d d8b8 c8bd 2cd4 343c 2974 43bc
000002c0: 075b 3dbc 46f9 a0bd 32fa 34be 94e9 a0bd
000002d0: 55c1 733d c619 c03d 9472 dbbc d66a 073e
000002e0: d86c 51bd 0301 8b3d cc79 9a39 e2e0 243e
000002f0: a5b5 043e 2cbb b9bd 11a3 c43b 3b30 d0bd
00000300: 6f1b 2e3e d1a3 abbc 2313 aabd 3fb5 37bd
00000310: f846 6abe cf2b b3bd 93bf e1bc 2a55 7ebe
00000320: 48d5 b93d a062 0ebe 4c02 8a3d 3809 ccbd
00000330: 592d 623c f387 1fbe bc11 22bd ec3a 19bd
00000340: e296 713d 5414 5b3d 7809 bc3d 73b3 6c3e
00000350: 1b31 14be cd22 30bd 27c4 9e3d 1669 a3bc
00000360: 3af9 15bd 6242 08be 0a18 353c 391a 50bd
00000370: 37fb 28bd 31e2 2a3d 5b83 0b3e 4e83 cdbd
00000380: e3b4 bbbd 0cba 603d 7971 f1bd bf52 c1bc
00000390: 4630 ec3c 406a 07be 3e92 2e3e e2e1 7d3d
000003a0: 7c29 c6bc 51eb 9cba 821e 13be 9b64 453d
000003b0: 1922 69bd 8f62 90bd 8536 4ebd f6eb ab3d
000003c0: cf82 00be 2b78 40bd 6ce7 4b3c c943 34be
000003d0: 1dd4 843d 5e9c 4a3d 0873 2bbd db41 553d
000003e0: eb23 dabc 25a3 da3d 8ce8 8e3d 42ba 07be
000003f0: a0f0 e93d 8722 2a3e 3f78 0fbd b7a0 0e3d

weight f4 [944, 32]
-0.73202986 1.7671858 -1.3014672 0.84348845 0.37241516 0.2689242 -1.1763266 -1.4335327
1.7648535 2.1194863 0.54696023 1.2265232 0.9637147 0.26040843 0.7214152 -0.14043383
0.17173651 0.93744963 0.5697716 -2.1850116 -0.39184245 0.9647649 1.5529406 -0.20378725
0.62348294 0.82699674 2.4157763 0.48629183 -0.77492213 -0.78412974 -1.4479103 -0.31202555
-1.8366879 0.87872547 1.3578215 -0.60879046 0.9695641 -1.108774 0.793372 0.26589787
0.24016456 0.24404103 1.3973234 -0.774623 -0.47918862 -0.6852115 1.156733 -0.5698775
-0.21638192 1.3492126 -0.3006795 1.6934366 0.48887327 -0.65568477 -0.40103763 -1.262435
0.46691972 0.15670493 1.2348202 -1.9050819 -1.0296228 0.03981511 2.044642 0.5473116
1.6421959 -1.870172 -1.0360247 -1.3307914 0.38912404 -0.7816541 0.5122081 -2.0154335
1.0936093 -0.21551804 0.45772445 1.0631886 0.8883231 -1.5051259 -1.6076293 0.4535656
0.51264596 -0.96015745 0.97226673 -0.2827722 -2.005277 -0.4752026 0.80620646 -0.06567949
-0.5275382 -0.6880577 -0.18102162 1.0609353 -0.9951228 -0.7873362 -0.53022563 -0.78514606
-0.47788867 -0.40785766 -0.79132277 -0.10281351 -0.5259779 0.2848387 0.26782444 -0.5964161
1.5465885 1.2960753 -0.048571944 -1.2236462 -1.775937 -0.6294138 -1.1227056 0.23143034
0.36428964 -0.91058904 0.3907602 -1.3846021 0.19489431 0.25103942 0.64937425 0.7004269
0.56805575 0.83440095 0.40519112 -1.4702259 -0.0179256 -0.8227646 1.191277 0.3957886
0.6867709 -0.23120624 2.7847998 -1.3266791 -0.56321514 0.9261933 -2.2365432 0.15197217
-1.3200524 -0.17344868 1.2079167 1.1493523 0.32655552 1.4001076 2.0454834 -0.6844678
-1.9020015 1.1363997 0.3678028 -0.23183565 0.26156187 -0.875638 -1.103963 1.3515484
0.5178444 0.47238532 0.75371766 0.21507911 -0.3929858 -0.825774 0.11822627 0.4733699
0.6278023 0.06849893 -0.046498608 2.4536557 0.3465675 0.2457704 -0.43137178 0.17182533
0.1354309 -1.0411824 0.25921237 0.72485965 0.35158634 -0.55628175 0.23661141 -2.479945
-0.66292053 1.9938003 0.2105706 -1.8900834 0.74067175 -0.55848205 0.24328762 2.0471852
-1.463494 -0.17606346 3.0300577 1.0666369 0.9393209 -0.92684597 -0.46315983 -0.1640614
-0.6835621 -0.33149025 -1.6931002 -0.4647526 -1.1849257 -0.3845927 0.71545476 -0.8622511
0.5967947 0.71607596 -1.5139661 -1.8396343 -0.46633536 0.5295184 1.0678333 0.4510959
-0.34808436 0.26527062 0.14509585 0.4166423 -1.5753541 -0.45106122 0.8934368 -0.36275744
1.7724948 0.6682012 -0.26006794 0.89360976 1.1179284 0.11895734 -1.1159974 0.83965516
0.4219656 -0.7860432 -1.4998125 0.12387383 -0.7035773 0.77144265 0.87358236 -0.7759153
1.0838593 -0.34679592 0.3086374 -0.084442034 0.429539 1.2376825 -2.1561465 -1.210017
-0.7778121 2.1805694 1.6718997 0.10127011 -1.543021 -0.44808123 -0.6573014 -0.49644223
-0.092278644 -0.5157735 0.8846852 -0.4290772 -0.78587204 0.7869214 0.9960948 -1.8344955
00000000: 4f66 3bbf 2533 e23f 7a96 a6bf dcee 573f
00000010: 33ad be3e 6fb0 893e df91 96bf 007e b7bf
00000020: b8e6 e13f aaa5 0740 9605 0c3f b6fe 9c3f
00000030: 02b6 763f 4154 853e abae 383f e3cd 0fbe
00000040: b2db 2f3e b3fc 6f3f 8ddc 113f 3bd7 0bc0
00000050: 939f c8be d5fa 763f c2c6 c63f 9bad 50be
00000060: 949c 1f3f 0fb6 533f 149c 1a40 3efb f83e
00000070: 4c61 46bf babc 48bf 2055 b9bf d0c1 9fbe
00000080: 9718 ebbf 27f4 603f 18cd ad3f b1d9 1bbf
00000090: 5a35 783f 4eec 8dbf 6d1a 4b3f c423 883e
000000a0: b3ed 753e e4e5 793e 7edb b23f b14d 46bf
000000b0: 3658 f5be 056a 2fbf d40f 943f 7ee3 11bf
000000c0: 3993 5dbe 00b3 ac3f aaf2 99be 88c2 d83f
000000d0: 994d fa3e f5da 27bf ce54 cdbe 7897 a1bf
000000e0: 1a10 ef3e 4277 203e 970e 9e3f b9d9 f3bf
000000f0: aeca 83bf 2b15 233d 6adb 0240 9d1c 0c3f
00000100: 7a33 d23f cc61 efbf 759c 84bf 5f57 aabf
00000110: 443b c73e 7c1a 48bf 1220 033f ddfc 00c0
00000120: 64fb 8b3f c3b0 5cbe dc5a ea3e 9016 883f
00000130: 2569 633f f7a7 c0bf ccc6 cdbf c039 e83e
00000140: c43c 033f e1cc 75bf 79e6 783f 85c7 90be
00000150: 7556 00c0 c14d f3be 8c63 4e3f f882 86bd
00000160: be0c 07bf 8d24 30bf bb5d 39be bacc 873f
00000170: 5ec0 7ebf dd8e 49bf debc 07bf 55ff 48bf
00000180: d3ad f4be b8d2 d0be 2194 4abf e48f d2bd
00000190: 7da6 06bf 61d6 913e 4920 893e baae 18bf
000001a0: 9df6 c53f cce5 a53f 60f3 46bd 70a0 9cbf
000001b0: e751 e3bf 4321 21bf d1b4 8fbf 13fc 6c3e
000001c0: 2c84 ba3e 5d1c 69bf b911 c83e a43a b1bf
000001d0: 6092 473e 3d88 803e 643d 263f 2d4f 333f
000001e0: 1a6c 113f 4d9b 553f 3675 cf3e 5d30 bcbf
000001f0: b5d8 92bc b3a0 52bf c47b 983f cea4 ca3e
00000200: 38d0 2f3f 54c1 6cbe 293a 3240 9fd0 a9bf
00000210: de2e 10bf 011b 6d3f 8623 0fc0 989e 1b3e
00000220: 7af7 a8bf 889c 31be 049d 9a3f fa1d 933f
00000230: 4932 a73e ba36 b33f 33e9 0240 4839 2fbf
00000240: c974 f3bf 8c75 913f a650 bc3e 5366 6dbe
00000250: 70eb 853e d029 60bf a94e 8dbf 8aff ac3f
00000260: 7391 043f 7ddc f13e a4f3 403f b33d 5c3e
00000270: 6f35 c9be ed65 53bf 9d20 f23d 8a5d f23e
00000280: a7b7 203f 2b49 8c3d 5375 3ebd b208 1d40
00000290: 4c71 b13e 3cab 7b3e c3dc dcbe fbf2 2f3e
000002a0: 66ae 0a3e 7745 85bf 7cb7 843e 6790 393f
000002b0: 2003 b43e 7b68 0ebf 434a 723e 6bb7 1ec0
000002c0: 29b5 29bf d934 ff3f d29f 573e 41ee f1bf
000002d0: aa9c 3d3f aef8 0ebf 6420 793e 1505 0340
000002e0: c553 bbbf fb49 34be 77ec 4140 8f87 883f
000002f0: 5677 703f c745 6dbf 4923 edbe b6ff 27be
00000300: edfd 2ebf 17b9 a9be 82b7 d8bf 0ef4 edbe
00000310: a5ab 97bf 56e9 c4be 0b28 373f 7dbc 5cbf
00000320: 8ac7 183f c150 373f a4c9 c1bf 2379 ebbf
00000330: 82c3 eebe 858e 073f c3ae 883f 0bf6 e63e
00000340: 1d38 b2be 8dd1 873e 0294 143e 2452 d53e
00000350: 34a5 c9bf 7ff1 e6be 46b8 643f 58bb b9be
00000360: 1ce1 e23f 3c0f 2b3f a027 85be 9cc3 643f
00000370: 4718 8f3f e89f f33d 01d9 8ebf a4f3 563f
00000380: e00b d83e 213a 49bf dbf9 bfbf 90b1 fd3d
00000390: a41d 34bf 447d 453f 18a3 5f3f 63a2 46bf
000003a0: e7bb 8a3f 3c8f b1be b905 9e3e f2ef acbd
000003b0: 89ec db3e 616c 9e3f 4efe 09c0 d6e1 9abf
000003c0: b21e 47bf 738e 0b40 cf00 d63f b466 cf3d
000003d0: b681 c5bf e76a e5be e844 28bf ad2d febe
000003e0: 96fc bcbd bb09 04bf bb7a 623f 02b0 dbbe
000003f0: e92e 49bf ae73 493f 1200 7f3f c0d0 eabf

weight f4 [1683, 32]
0.27044687 -0.52214324 1.326549 -0.35125908 0.16994925 -0.6106692 -1.0239255 -0.40510222
0.327561 -1.5290207 -0.107605174 1.2420092 -1.6558884 -0.500801 -0.2886483 -1.1931282
-0.8114732 -1.974217 -0.7137298 -0.39310834 -0.04996873 -1.5585226 1.7661374 -0.97761494
-0.08274467 2.2075534 -0.57468474 -0.35743538 0.7837742 -0.92920125 -1.3430451 0.6486652
0.3216337 -2.5596282 0.3406729 -0.4446567 -0.98795503 -1.0358016 1.5104637 0.19153588
-0.7434167 -0.14621936 1.476735 0.35433936 0.6384102 0.009562073 -0.03918289 -1.473316
1.5360743 0.24945498 -1.3916938 0.80424875 0.10572643 -0.74142057 0.2047299 -0.23785307
1.2241668 0.2298036 0.3685196 0.86553067 -0.7879731 0.72938466 1.0111799 -0.65076566
0.021024564 -0.13881698 0.19173516 -0.021034377 -1.8282481 1.144603 2.5343444 -0.01325974
0.37991637 1.0696752 -0.05518425 -0.22508006 -1.4144075 -2.2083383 0.8832234 -1.342762
-0.40433088 0.5137364 0.8722262 0.05597748 -2.73044 -1.0631354 -0.71193767 0.098857924
-0.46914634 -2.0703127 -0.32438898 -0.38331893 -0.7608453 0.15782899 -0.6087044 0.760365
0.50344604 -0.4141206 0.9792719 -0.26942468 -1.6324421 0.6364154 1.5482516 0.51330334
-2.2430284 -0.85254997 -0.24411234 -1.4270679 -0.35496756 -0.630418 0.9500701 -0.30562726
-0.7018652 0.8673898 0.5846651 -0.030559639 -0.02479357 -0.5825918 -0.6660971 -0.57434446
0.6793825 2.0063646 -0.21787731 -0.86358535 0.1701946 -1.1709065 1.0284548 0.46451285
0.58780056 -0.120655924 -0.30733636 -2.3067281 0.34722188 -0.32510686 -0.040672984 1.2292387
-0.6924908 1.0079905 1.293743 0.24387237 -0.14194806 1.6316907 -0.36766866 -0.086545445
1.5384477 -1.6930257 -0.657607 -0.079146296 -0.37549818 -1.3335466 -1.2506908 -1.0346563
-1.4388584 -1.0053058 -0.22882278 0.57614344 0.641231 0.26972616 -1.0431433 0.04516847
-0.17712238 -2.1016219 0.3465178 1.0647182 0.076791026 0.17663595 1.5728478 -2.723661
0.34677318 1.1533879 1.4359045 -0.3510541 0.20286743 -0.48868173 -0.23162542 0.5900355
2.1150575 0.9409346 -1.0179182 -0.091860816 1.5906289 -0.57045853 0.9083007 -1.7939279
1.9323268 -0.1805247 0.4546169 0.714767 -0.7275924 -1.2702816 -0.86041296 0.62941724
-1.1892346 0.6814354 1.2984939 -0.7623285 0.4129117 0.66901356 -1.0716581 0.82933575
-1.215844 0.71237594 -0.2727361 0.08385631 -0.79836684 1.0979617 -0.1691131 -0.7476399
-1.2540504 -0.25233647 -1.0482595 0.6867836 -0.7661012 -3.349246 -0.19660375 0.63451153
2.3616445 -0.15637055 0.85509515 1.9986948 -0.41528434 1.9711123 -0.7217113 -0.3696847
1.193885 0.60798997 -0.46697792 0.94709975 1.7104176 0.30801085 -0.7305759 -1.4007467
-1.3092884 0.23120788 -0.41207355 3.1701643 -0.3366209 0.22096938 -0.1297795 0.14892301
-0.7924676 1.037346 -2.7283635 -0.9816813 -0.6744916 1.4252093 0.43093237 0.39748728
-0.05022001 0.4791266 1.2053052 -0.6489003 -0.451014 -0.7988367 0.745929 -0.9938772
00000000: 0378 8a3e 2eab 05bf 5ccc a93f 3bd8 b3be
00000010: 2d07 2e3e d154 1cbf fe0f 83bf 8f69 cfbe
00000020: 13b6 a73e f3b6 c3bf 1a60 dcbd 28fa 9e3f
00000030: 27f4 d3bf 7f34 00bf b6c9 93be 6db8 98bf
00000040: b5bc 4fbf 25b3 fcbf ffb6 36bf 7f45 c9be
00000050: 03ac 4cbd ab7d c7bf ca10 e23f f944 7abf
00000060: 0a76 a9bd 8e48 0d40 8a1e 13bf c501 b7be
00000070: 6da5 483f 22e0 6dbf e7e8 abbf ec0e 263f
00000080: 2cad a43e f3d0 23c0 ae6c ae3e 0baa e3be
00000090: 9fea 7cbf 2695 84bf e056 c13f fb21 443e
000000a0: 8f50 3ebf 87ba 15be a705 bd3f f86b b53e
000000b0: da6e 233f 3eaa 1c3c 3d7e 20bd 9e95 bcbf
000000c0: 159e c43f 2071 7f3e 0623 b2bf 3fe3 4d3f
000000d0: 1987 d83d bdcd 3dbf b7a4 513e c18f 73be
000000e0: 7fb1 9c3f a351 6b3e 9aae bc3e 6b93 5d3f
000000f0: 9bb8 49bf f4b8 3a3f 586e 813f 9498 26bf
00000100: b53b ac3c 0a26 0ebe 3956 443e 4950 acbc
00000110: 0904 eabf 5a82 923f b332 2240 613f 59bc
00000120: 6684 c23e 1eeb 883f e108 62bd 637b 66be
00000130: 4e0b b5bf 6a55 0dc0 ee1a 623f a0df abbf
00000140: 7504 cfbe 3b84 033f 374a 5f3f a448 653d
00000150: 87bf 2ec0 d214 88bf 8c41 36bf 0676 ca3d
00000160: f333 f0be 0180 04c0 5016 a6be 6142 c4be
00000170: c2c6 42bf ec9d 213e 0dd4 1bbf 48a7 423f
00000180: d7e1 003f 9e07 d4be 90b1 7a3f 08f2 89be
00000190: ddf3 d0bf 1fec 223f 1c2d c63f d967 033f
000001a0: c78d 0fc0 b740 5abf 96f8 79be 29aa b6bf
000001b0: 4fbe b5be 1363 21bf cb37 733f 2d7b 9cbe
000001c0: 70ad 33bf 420d 5e3f 9dac 153f 3558 fabc
000001d0: e31b cbbc bc24 15bf 5785 2abf 3d08 13bf
000001e0: 03ec 2d3f 4768 0040 3b1b 5fbe ee13 5dbf
000001f0: 7e47 2e3e 44e0 95bf 68a4 833f a1d4 ed3e
00000200: 197a 163f 741a f7bd 315b 9dbe 6fa1 13c0
00000210: 11c7 b13e 6874 a6be b798 26bd b257 9d3f
00000220: 1447 31bf d505 813f 5f99 a53f aeb9 793e
00000230: d55a 11be 3edb d03f 113f bcbe bd3e b1bd
00000240: dbeb c43f 11b5 d8bf ef58 28bf 7417 a2bd
00000250: 4c41 c0be a8b1 aabf a316 a0bf 9e6f 84bf
00000260: 832c b8bf dcad 80bf 8550 6abe 237e 133f
00000270: b727 243f 8c19 8a3e b885 85bf 9302 393d
00000280: 925f 35be f980 06c0 c86a b13e b048 883f
00000290: 9d44 9d3d 0ee0 343e 1453 c93f 7650 2ec0
000002a0: 418c b13e 37a2 933f b8cb b73f 5dbd b3be
000002b0: 7bbc 4f3e 7e34 fabe 372f 6dbe 910c 173f
000002c0: 1a5d 0740 17e1 703f 254b 82bf 8621 bcbd
000002d0: ba99 cb3f 9209 12bf 6586 683f 6e9f e5bf
000002e0: 7c56 f73f 78db 38be 8cc3 e83e f8fa 363f
000002f0: 7f43 3abf 9698 a2bf 0644 5cbf 7d21 213f
00000300: d738 98bf 8d72 2e3f 0c35 a63f f627 43bf
00000310: 2a69 d33e 7944 2b3f 182c 89bf 594f 543f
00000320: c7a0 9bbf 455e 363f 11a4 8bbe dbbc ab3d
00000330: c561 4cbf 028a 8c3f fc2b 2dbe 5465 3fbf
00000340: b984 a0bf 3f32 81be 5e2d 86bf 0dd1 2f3f
00000350: 351f 44bf 0c5a 56c0 7e52 49be 596f 223f
00000360: 2f25 1740 9a1f 20be 84e7 5a3f 3bd5 ff3f
00000370: 26a0 d4be 684d fc3f 12c2 38bf 5047 bdbe
00000380: 39d1 983f 3ba5 1b3f bb17 efbe 2175 723f
00000390: f7ee da3f 99b3 9d3e 0607 3bbf ab4b b3bf
000003a0: c396 a7bf c2c1 6c3e 4efb d2be f9e3 4a40
000003b0: 9359 acbe cc45 623e ebe4 04be 467f 183e
000003c0: 28df 4abf c1c7 843f 829d 2ec0 774f 7bbf
000003d0: 7bab 2cbf 426d b63f 2ba3 dc3e 7483 cb3e
000003e0: 7fb3 4dbd 1550 f53e 7147 9a3f 541e 26bf
000003f0: 4feb e6be 9080 4cbf 34f5 3e3f bc6e 7ebf

weight f4 [32, 64]
0.12582043 -0.108230725 0.15290183 0.098169774 -0.13899463 -0.024587987 -0.19755267 0.024189245
-0.12067046 0.051456075 -0.0942852 -0.03151679 0.060865488 0.16924468 0.03023877 -0.084703505
0.021970332 -0.10576912 0.021346342 0.049369223 0.08508274 -0.022248946 0.06293891 0.026151882
-0.14200185 -0.057909377 -0.16334021 0.06317848 -0.009915465 -0.06409015 -0.009338315 0.011528977
-0.082068175 -0.013739094 0.049538814 0.0029082405 0.051225275 -0.07995624 -0.13626549 0.023593685
-0.11277511 -0.03561553 -0.091487475 0.14576982 0.024255682 0.05030158 -0.011450344 -0.036015503
-0.080589995 -0.006943436 0.02078783 0.022241548 0.055468485 -0.027330888 0.025209332 0.06904568
-0.07886798 -0.025822148 0.11715322 0.035650812 0.16180278 -0.11043942 0.019795198 0.039221767
0.15288472 0.22245136 0.05300163 0.22498243 -0.023851983 0.043026716 0.094726786 0.07663108
0.17532934 0.079852976 0.060668148 0.09378744 -0.010291116 -0.028558683 0.0085693 -0.03901432
-0.033888336 0.0120713385 0.08194156 -0.09629844 0.1586585 0.0362101 0.17647073 -0.07979671
-0.23799503 -0.059077114 -0.018347496 -0.16584925 -0.030896787 0.013650608 0.07573973 0.055805765
0.06397594 -0.021963373 -0.055196293 -0.002705182 0.024301143 0.0032649224 0.026235642 -0.017128209
-0.045909945 0.06606544 0.027347103 -0.063744254 -0.005268514 0.0013623459 0.006545195 0.09132952
-0.015551248 -0.0062607587 0.0062375553 -0.041759335 0.07472415 0.036733847 -0.027700692 -0.021163365
-0.04751756 -0.025137533 -0.005090365 0.019181486 -0.020577388 0.008766855 -0.061965488 0.056606073
0.043453224 0.09257489 -0.02404305 0.010585948 0.13636377 0.04743908 0.14934003 -0.15752038
0.110557854 0.08635634 0.0124081895 -0.14858392 0.13125354 -0.085148074 0.057793897 -0.18222356
-0.01980224 0.15547651 0.06385302 -0.25625822 -0.19857208 -0.00836184 -0.11395974 -0.062069852
-0.01637795 0.113657475 0.117499515 0.12699729 0.1456511 -0.073888324 -0.07616994 0.00045956782
-0.04822143 0.019339079 0.000608141 -0.029500732 0.027375352 -0.02228299 -0.049215876 0.035695568
-0.018895103 -0.021855231 0.02138234 0.13232559 -0.055292595 -0.056797847 0.019075066 -0.028386457
0.06374232 0.039605837 0.018360296 0.056959692 0.029160615 0.0058358326 -0.017171005 0.010503646
0.07792789 0.06287936 -0.029128218 -0.07464743 0.08553028 -0.02961537 0.042074386 0.086988494
0.020613063 -0.1039348 0.037060894 -0.11239216 0.03373928 0.025181657 -0.10441157 0.13858604
0.11723431 -0.017274473 0.07332662 -0.082241625 0.066239804 0.17891076 0.03357065 0.02636546
-0.12422584 0.0030184037 -0.16318184 -0.027647097 0.11092136 0.019556886 0.09755516 0.07414762
-0.07300829 -0.12803529 0.14602402 -0.0904151 0.104556456 0.1461588 -0.05079941 -0.0052104006
0.16253938 -0.07125456 -0.11845124 0.132537 -0.088148795 -0.13260455 0.016712384 -0.044425927
0.02111349 0.06211859 0.11532616 0.03466951 0.039910946 -0.023235602 -0.0770791 0.12050776
-0.07349737 0.043807406 0.080053985 0.06901327 -0.07506269 0.05651296 -0.042562846 0.11507055
0.04288934 -0.015439456 0.03474613 -0.06565867 0.11984668 -0.063830934 -0.032331843 -0.028659595
00000000: 12d7 003e 12a8 ddbd 4c92 1c3e 3c0d c93d
00000010: 9c54 0ebe bf6c c9bc 3f4b 4abe 8628 c63c
00000020: 1322 f7bd 9bc3 523d 9918 c1bd c017 01bd
00000030: 174e 793d 7a4e 2d3e 4cb7 f73c 0879 adbd
00000040: 20fb b33c 7b9d d8bd 86de ae3c 6237 4a3d
00000050: dc3f ae3d 6c43 b6bc 1ee6 803d 793c d63c
00000060: ef68 11be 6232 6dbd a842 27be b863 813d
00000070: 7974 22bc b241 83bd bbff 18bc 09e4 3c3c
00000080: 5c13 a8bd f019 61bc 36e9 4a3d 2e98 3e3b
00000090: 98d1 513d 19c0 a3bd 2e89 0bbe 8b47 c13c
000000a0: a3f6 e6bd 97e1 11bd c95d bbbd af44 153e
000000b0: dab3 c63c 0809 4e3d 399a 3bbc fe84 13bd
000000c0: 5e0c a5bd c385 e3bb 3d4b aa3c e833 b63c
000000d0: ec32 633d 07e5 dfbc cd83 ce3c d267 8d3d
000000e0: 8985 a1bd f888 d3bc 07ee ef3d 9606 123d
000000f0: a1af 253e 102e e2bd 8a29 a23c 01a7 203d
00000100: d08d 1c3e 4aca 633e 3d18 593d cb61 663e
00000110: 3c65 c3bc c83c 303d 1e00 c23d c1f0 9c3d
00000120: 8989 333e f589 a33d 2a7f 783d a113 c03d
00000130: 129c 28bc e6f3 e9bc 4066 0c3c 7bcd 1fbd
00000140: 7fce 0abd ddc6 453c fad0 a73d 1e38 c5bd
00000150: 6077 223e 0b51 143d beb4 343e 756c a3bd
00000160: f8b4 73be d8fa 71bd 7d4d 96bc 63d4 29be
00000170: 421b fdbc cda6 5f3c 6e1d 9b3d 9694 643d
00000180: d105 833d 88ec b3bc 8215 62bd 6c49 31bb
00000190: 3113 c73c 4ff8 553b 21ec d63c 7550 8cbc
000001a0: 110c 3cbd 514d 873d 0807 e03c 598c 82bd
000001b0: 80a3 acbb be90 b23a 1379 d63b f90a bb3d
000001c0: a9ca 7ebc 0d27 cdbb 6864 cc3b d60b 2bbd
000001d0: fa08 993d 3b76 163d 90ec e2bc cb5e adbc
000001e0: c6a1 42bd 3aed cdbc 14cd a6bb 7e22 9d3c
000001f0: e991 a8bc dba2 0f3c 86cf 7dbd c5db 673d
00000200: 02fc 313d e797 bd3d eef5 c4bc af70 2d3c
00000210: f2a2 0b3e 7b4f 423d 98ec 183e 064d 21be
00000220: 286c e23d 98db b03d b84b 4b3c 6226 18be
00000230: 5467 063e 1d62 aebd 4bb9 6c3d d098 3abe
00000240: 4f38 a2bc 3c35 1f3e 5fc5 823d 4734 83be
00000250: 7b56 4bbe 1900 09bc b963 e9bd f53c 7ebd
00000260: 0d2b 86bc 40c5 e83d 96a3 f03d 940b 023e
00000270: 9025 153e c352 97bd fcfe 9bbd 26f2 f039
00000280: d683 45bd fd6c 9e3c a76b 1f3a 85ab f1bc
00000290: 4642 e03c d18a b6bc 9696 49bd 8435 123d
000002a0: e7c9 9abc be09 b3bc 042a af3c 5c80 073e
000002b0: 7d7a 62bd dca4 68bd 5043 9c3c b78a e8bc
000002c0: 558b 823d bb39 223d 5568 963c 914e 693d
000002d0: 3ee2 ee3c 833a bf3b 35aa 8cbc 7c17 2c3c
000002e0: a898 9f3d e5c6 803d 4d9e eebc c0e0 98bd
000002f0: 802a af3d ef9b f2bc 3156 2c3d 0627 b23d
00000300: badc a83c c5db d4bd 2acd 173d dc2d e6bd
00000310: 3332 0a3d c349 ce3c bcd5 d5bd 80e9 0d3e
00000320: 8b18 f03d 3283 8dbc 442c 963d 4c6e a8bd
00000330: bca8 873d 6234 373e 6181 093d 61fc d73c
00000340: 1e6a febd 69d0 453b 2419 27be 2a7c e2bc
00000350: bd2a e33d c335 a03c 00cb c73d b5da 973d
00000360: 5f85 95bd af1b 03be 5287 153e 8d2b b9bd
00000370: b221 d63d a7aa 153e 0b13 50bd 02bc aabb
00000380: b970 263e e9ed 91bd 9096 f2bd c8b7 073e
00000390: 5b87 b4bd 7dc9 07be 69e8 883c f6f7 35bd
000003a0: 33f6 ac3c 1070 7e3d 1f30 ec3d 9e01 0e3d
000003b0: a979 233d 9758 bebc a6db 9dbd c6cc f63d
000003c0: ca85 96bd 656f 333d 58f3 a33d d456 8d3d
000003d0: 78ba 99bd 227a 673d 6156 2ebd 1caa eb3d
000003e0: bcac 2f3d c6f5 7cbc f551 0e3d 0e78 86bd
000003f0: 2d72 f53d cbb9 82bd 656e 04bd 87c7 eabc

bias f4 [32]
0.073777504 -0.082547046 -0.11364431 0.16076589 -0.10669638 -0.055163804 -0.03352058 -0.034541536
-0.099614255 0.0011635066 0.041099604 -0.04649844 0.14280571 0.10546665 -0.14740866 0.21514624
0.061152987 0.10886456 0.020120844 -0.09996517 0.024390003 0.14939998 0.15307535 0.02237932
0.030690566 0.051198374 -0.018398184 0.08790259 -0.014477764 0.05453815 0.120631225 0.035102718
00000000: a918 973d 6d0e a9bd 59be e8bd d09f 243e
00000010: a283 dabd 71f3 61bd e04c 09bd 6d7b 0dbd
00000020: 8f02 ccbd ce80 983a 0f58 283d 2675 3ebd
00000030: a93b 123e e6fe d73d 4cf2 16be 4c4f 5c3e
00000040: 8e7b 7a3d 62f4 de3d 78d4 a43c 8aba ccbd
00000050: 8bcd c73c 4ffc 183e c9bf 1c3e d654 b73c
00000060: c86a fb3c 63b5 513d cab7 96bc 4606 b43d
00000070: 2534 6dbc 6563 5f3d 810d f73d dec7 0f3d

weight f4 [16, 32]
0.05665122 0.20433035 0.27727705 0.056742355 -0.05696738 -0.088795155 -0.11210456 0.02397381
0.02071571 -0.029516172 0.30640385 0.22128339 -0.024002338 -0.20157747 -0.05669356 -0.015390032
-0.122449435 0.056816492 0.0077097956 -0.0555773 -0.18359914 0.064895734 0.028618818 0.09746244
-0.23470075 -0.11242958 0.19860618 0.026441522 0.016275415 0.0285537 0.0074783713 0.02632029
0.12593096 0.0021818515 -0.073007405 -0.020809753 0.030487124 0.13203718 0.23090224 0.22987148
0.18798134 0.010850179 -0.033227794 -0.20110597 0.16175118 0.23551989 0.29342636 0.14997686
0.31491584 0.05602954 0.3380524 0.10279058 0.11128417 0.18125439 0.023702295 0.11736045
-0.16252272 0.079773545 -0.08500842 0.012148524 0.19544908 -0.027813816 0.0012089208 0.22888964
-0.07621377 -0.043008573 -0.19189458 0.19096111 0.024232402 0.06126998 0.11362776 0.022812517
0.062261768 0.24064785 -0.12055981 0.085660554 0.25046992 0.093048945 0.058326986 0.1447131
0.22834343 0.07847187 0.09856379 0.0058985823 0.21010105 0.2707807 0.159676 0.11987404
0.033434734 0.17358126 -0.23128033 -0.06225586 0.28579727 0.1311975 -0.031331725 0.18672597
0.2070656 0.057582676 -0.019419612 -0.13197231 0.07543181 0.015597993 0.11740022 0.06296458
-0.21975695 0.107096545 0.030298138 -0.07512237 -0.02989979 0.042966694 0.008688033 0.03581243
-0.06738442 0.24641223 0.039203748 0.020090157 0.024036247 -0.030158205 0.01729131 0.26344752
0.14269471 -0.18288372 0.24943875 -0.14575797 0.09425917 -0.06632068 0.021194158 -0.09226765
-0.031556543 0.030883878 0.2986985 -0.08408936 0.23856048 -0.096514605 -0.08225812 -0.03803987
-0.07103412 0.104013905 0.18539299 0.3038824 0.13893998 0.099421166 -0.049968597 -0.006288499
0.015155794 0.15384239 0.024370993 -0.16931711 0.114857264 0.1530675 -0.058995098 0.1305322
0.3306936 0.15404113 0.035389222 -0.040208433 -0.14383326 -0.08035935 0.009576095 -0.042913783
0.097454764 -0.110390626 -0.030222438 0.20632097 -0.20291339 0.28006953 0.24574937 0.10768907
0.04964924 0.07653403 -0.20191336 -0.07335315 0.17269966 0.28458813 0.02281089 0.29431388
-0.005215182 -0.20742938 0.32344583 0.1347108 0.22370212 0.080427706 0.13327098 -0.00716958
-0.14888546 0.05929569 -0.20147374 0.25279 0.10229757 0.22867662 0.23726794 0.08621633
0.19194546 0.04045145 0.30806068 0.11291375 0.17159116 -0.003288283 0.15231067 0.035330314
0.10918625 0.073184565 0.25758046 -0.026168736 -0.04507918 -0.059737757 -0.19160245 0.07859523
0.066072434 0.25598577 -0.066707134 -0.014831153 0.099696875 -0.10570541 -0.14159712 0.33351153
0.13382871 0.16752034 0.14689279 0.015922384 0.14429654 -0.053018603 0.20432079 0.18564965
-0.013883368 -0.1078953 -0.09460996 0.23124483 -0.13020325 -0.052238658 -0.07692144 0.03428357
0.21238367 0.097645804 -0.15192005 -0.18820544 0.14156298 0.032469112 0.09940142 0.1731349
0.21270627 -0.07125354 0.05677026 0.22016661 -0.019132499 0.27418944 0.02720216 -0.18569425
-0.070869654 0.17857158 -0.21552415 0.0692191 0.020007677 -0.014441804 0.20239551 0.11382303
00000000: 1c0b 683d fa3b 513e 42f7 8d3e ac6a 683d
00000010: a156 69bd 3cda b5bd 1397 e5bd b964 c43c
00000020: feb3 a93c e6cb f1bc f7e0 9c3e 1d98 623e
00000030: 8da0 c4bc 536a 4ebe 8237 68bd 7926 7cbc
00000040: c5c6 fabd 69b8 683d 74a2 fc3b 06a5 63bd
00000050: 6a01 3cbe 0ee8 843d 0372 ea3c 639a c73d
00000060: 6555 70be 7b41 e6bd 6b5f 4b3e e49b d83c
00000070: 0554 853c 73e9 e93c 200d f53b a69d d73c
00000080: 0cf4 003e 65fd 0e3b e884 95bd 3779 aabc
00000090: 22c0 f93c c134 073e a371 6c3e 6e63 6b3e
000000a0: 2e7e 403e f3c4 313c de19 08bd b9ee 4dbe
000000b0: 1aa2 253e 202c 713e fb3b 963e 8993 193e
000000c0: a63c a13e 3b7f 653d 3415 ad3e de83 d23d
000000d0: f4e8 e33d c09a 393e 512b c23c ad5a f03d
000000e0: 5b6c 26be 5060 a33d e518 aebd 9a0a 473c
000000f0: ce23 483e cdd9 e3bc a774 9e3a 0c62 6a3e
00000100: f715 9cbd c229 30bd 0380 44be 4f8b 433e
00000110: 0883 c63c 3bf6 7a3d acb5 e83d 51e1 ba3c
00000120: 3206 7f3d 646c 763e 10e8 f6bd cd6e af3d
00000130: 983d 803e 7290 be3d 47e8 6e3d ac2f 143e
00000140: dcd2 693e dcb5 a03d d0db c93d e548 c13b
00000150: bb24 573e c5a3 8a3e 1b82 233e 8580 f53d
00000160: dcf2 083d 49bf 313e c0d4 6cbe 0000 7fbd
00000170: 0554 923e a358 063e b255 00bd 1835 3f3e
00000180: 0109 543e d0db 6b3d e115 9fbc c023 07be
00000190: fe7b 9a3d b98e 7f3c 876f f03d 93f3 803d
000001a0: f707 61be 6f55 db3d cd33 f83c c2d9 99bd
000001b0: 68f0 f4bc d8fd 2f3d 4058 0e3c 0eb0 123d
000001c0: d800 8abd 7d53 7c3e 1c94 203d 1d94 a43c
000001d0: aae7 c43c 570e f7bc 81a6 8d3c 98e2 863e
000001e0: 901e 123e df45 3bbe df6c 7f3e 9441 15be
000001f0: f40a c13d 23d3 87bd 5f9f ad3c d2f6 bcbd
00000200: 6f41 01bd 3000 fd3c 03ef 983e 0b37 acbd
00000210: 3349 743e 73a9 c5bd f276 a8bd b2cf 1bbd
00000220: 567a 91bd 3e05 d53d a9d7 3d3e 7996 9b3e
00000230: 4846 0e3e 539d cb3d dfab 4cbd c10f cebb
00000240: 0250 783c dc88 1d3e ada5 c73c 7761 2dbe
00000250: 493a eb3d babd 1c3e d8a4 71bd 3caa 053e
00000260: ac50 a93e f5bc 1d3e 4af4 103d 99b1 24bd
00000270: 0749 13be 7193 a4bd 0ee5 1c3c 5dc6 2fbd
00000280: 5d96 c73d 7b14 e2bd 0c95 f7bc ce45 533e
00000290: 87c8 4fbe 4665 8f3e b9a5 7b3e 168c dc3d
000002a0: 005d 4b3d e0bd 9c3d 60c2 4ebe 2d3a 96bd
000002b0: 2ed8 303e 89b5 913e e7dd ba3c 4fb0 963e
000002c0: 1ee4 aabb 5e68 54be b19a a53e a1f1 093e
000002d0: 2b12 653e 48b7 a43d 3078 083e ccee eabb
000002e0: 6e75 18be 0ae0 723d 224f 4ebe b16d 813e
000002f0: 6381 d13d 342a 6a3e 5ef6 723e 3092 b03d
00000300: 5a8d 443e 6bb0 253d 21ba 9d3e 533f e73d
00000310: 98b5 2f3e 3c80 57bb 54f7 1b3e 85b6 103d
00000320: 0a9d df3d cae1 953d 96e1 833e d15f d6bc
00000330: f2a4 38bd 94af 74bd 6f33 44be 89f6 a03d
00000340: fc50 873d 9110 833e c09d 88bd 5dfe 72bc
00000350: e02d cc3d 147c d8bd d6fe 10be 06c2 aa3e
00000360: 650a 093e 748a 2b3e 106b 163e a96f 823c
00000370: 79c2 133e 092a 59bd 7839 513e f11a 3e3e
00000380: 1177 63bc 36f8 dcbd dec2 c1bd 72cb 6c3e
00000390: 0054 05be 34f8 55bd fd88 9dbd ee6c 0c3d
000003a0: 1b7b 593e 86fa c73d ee90 1bbe edb8 40be
000003b0: e3f5 103e 55fe 043d f992 cb3d 464a 313e
000003c0: accf 593e 60ed 91bd ef87 683d 5b73 613e
000003d0: c2bb 9cbc 8f62 8c3e 10d7 de3c a226 3ebe
000003e0: 1c24 91bd 78db 363e 5db2 5cbe bec2 8d3d
000003f0: 24e7 a33c 519d 6cbc c540 4f3e 0c1c e93d

bias f4 [16]
-0.106980644 0.1335802 0.1853601 -0.15577707 0.0015624176 0.11773762 0.2393277 0.20861502
0.038866773 0.099498324 -0.08423818 -0.022285335 -0.06916854 0.013672059 0.052854005 0.050329182
00000000: ab18 dbbd 3fc9 083e 0acf 3d3e 0684 1fbe
00000010: 09ca cc3a 6c20 f13d 5212 753e 2d9f 553e
00000020: c432 1f3d c7c5 cb3d 1185 acbd bc8f b6bc
00000030: 3ca8 8dbd c600 603c 717d 583d f925 4e3d

weight f4 [8, 16]
-0.044429094 -0.11877668 -0.007984215 -0.2041905 -0.10356217 0.074837446 0.10929905 -0.076316655
-0.19529822 0.03764053 0.10332421 0.064608246 -0.07944627 0.032736298 -0.03448166 -0.11435182
-0.3197947 0.16023508 0.24536483 -0.21033604 -0.1393971 0.24756347 -0.14974347 0.3374107
-0.0081781335 -0.33852687 0.1200192 -0.09965345 -0.0053829285 0.054646786 0.33062467 0.17880893
-0.20415252 0.121880434 0.11156871 -0.0041126455 0.09221909 -0.1469286 -0.2843605 0.12569132
0.14531367 -0.13232024 0.07434639 -0.10328615 -0.24912643 -0.18620579 -0.0030115093 -0.17217036
0.3624786 0.19543147 0.17060587 0.2655714 0.3739024 -0.113459066 0.28043887 0.13277785
0.2810764 0.019385297 0.46068287 0.26682127 0.14093842 0.38026008 0.11099448 0.1637439
0.0022640515 0.13187326 -0.180195 0.042298812 -0.06784086 0.16125447 -0.28717875 0.09446407
0.099913545 0.17754759 -0.0812651 -0.11357431 -0.06848283 0.038048703 0.06290079 -0.07881601
-0.18434551 0.1508924 0.13672855 -0.29867148 -0.3266136 0.27298316 -0.1548767 0.35184994
0.18618484 0.065055154 0.33593643 0.36465102 0.18656813 0.3619748 0.3239739 0.29287496
-0.28866404 -0.031370927 0.24142402 -0.32453263 -0.09769465 0.24871743 -0.027753094 0.023992946
0.28924218 -0.18934937 -0.022579698 0.09289914 0.16224983 0.39385197 -0.012599062 -0.025373586
-0.3433363 0.12166295 -0.07286539 -0.17497222 -0.028407909 0.34351832 0.0973633 0.41202304
0.14814895 -0.1728489 0.12692761 0.3185484 0.38840035 0.11938602 0.37234515 0.049361363
00000000: 48fb 35bd 3041 f3bd 3ad0 02bc 5017 51be
00000010: 6718 d4bd 6044 993d 2ed8 df3d e84b 9cbd
00000020: 42fc 47be f52c 1a3d a59b d33d 5451 843d
00000030: bab4 a2bd 7f16 063d a43c 0dbd 4931 eabd
00000040: 22bc a3be aa14 243e eb40 7b3e 5562 57be
00000050: 1dbe 0ebe 4781 7d3e 5a56 19be 18c1 ac3e
00000060: 94fd 05bc 6553 adbe a0cc f53d 1c17 ccbd
00000070: 4763 b0bb 4fd5 5f3d a347 a93e b019 373e
00000080: 5c0d 51be 739c f93d 237e e43d 5fc3 86bb
00000090: 5ddd bc3d 7374 16be b397 91be 3ab5 003e
000000a0: 1bcd 143e f57e 07be ec42 983d b087 d3bd
000000b0: 001b 7fbe bbac 3ebe be5c 45bb 6d4d 30be
000000c0: cc96 b93e 301f 483e 4eb3 2e3e f9f8 873e
000000d0: 2370 bf3e 3a5d e8bd af95 8f3e ebf6 073e
000000e0: 3fe9 8f3e eacd 9e3c a0de eb3e cc9c 883e
000000f0: 2952 103e 73b1 c23e 1351 e33d 7bac 273e
00000100: 7b60 143b c909 073e 0a85 38be 8541 2d3d
00000110: 26f0 8abd e41f 253e 1809 93be 6176 c13d
00000120: 799f cc3d 09cf 353e 516e a6bd a699 e8bd
00000130: ba40 8cbd f5d8 1b3d 21d2 803d 4a6a a1bd
00000140: 12c5 3cbe 8a83 1a3e 9202 0c3e 78eb 98be
00000150: e639 a7be 73c4 8b3e ff97 1ebe ad25 b43e
00000160: 3da7 3e3e a33b 853d dcff ab3e 8ab3 ba3e
00000170: b70b 3f3e c354 b93e e8df a53e b5f3 953e
00000180: c6cb 93be cd7e 00bd dc37 773e 2429 a6be
00000190: 2214 c8bd c8af 7e3e 755a e3bc db8c c43c
000001a0: 8d17 943e cde4 41be 0ff9 b8bc e841 be3d
000001b0: d224 263e f7a6 c93e 4c6c 4ebc 44dc cfbc
000001c0: c7c9 afbe 6d2a f93d 733a 95bd eb2b 33be
000001d0: b4b7 e8bc a2e1 af3e 6966 c73d aff4 d23e
000001e0: 5cb4 173e 4dff 30be 50f9 013e c718 a33e
000001f0: 69dc c63e a880 f43d 06a4 be3e 242f 4a3d

bias f4 [8]
-0.24340336 0.25509632 -0.12881249 -0.032357953 -0.27317968 0.19146709 0.27867615 -0.099012695
00000000: bb3e 79be fc9b 823e 6ce7 03be c689 04bd
00000010: 35de 8bbe f30f 443e a4ae 8e3e 2bc7 cabd

weight f4 [8, 8]
-0.27635673 -0.31849775 0.050692085 0.05303388 -0.19248268 -0.14331394 0.29804385 -0.18570781
-0.0041815373 0.21953806 -0.013659792 0.33927765 -0.2409904 0.48230585 0.11840754 0.37163943
-0.18787028 0.2918217 0.010750063 0.44543728 0.28950235 0.109051816 0.4120575 -0.10440928
0.092130296 0.42763415 -0.03758457 -0.107757226 -0.17392272 0.21250954 0.08871263 0.33046165
-0.06946071 0.46869028 0.27802816 0.14007294 -0.016521586 0.0314242 0.48176706 0.5107749
-0.22955991 -0.051292375 0.21495321 0.3430362 0.03581589 0.23033433 -0.08717754 0.32288554
-0.04740894 0.29249707 -0.3663083 -0.222084 -0.20852865 0.24072187 0.24260971 0.2626714
0.121555805 -0.26214623 0.21364132 0.029187534 -0.2003813 -0.2187771 0.29503012 0.2713897
00000000: a17e 8dbe 2312 a3be 81a2 4f3d 0e3a 593d
00000010: 2e1a 45be e4c0 12be 3499 983e 302a 3ebe
00000020: 4705 89bb 96ce 603e 52cd 5fbc cdb5 ad3e
00000030: 30c6 76be cbf0 f63e a77f f23d 8647 be3e
00000040: 1161 40be a769 953e 0821 303c 5b10 e43e
00000050: a739 943e 8f56 df3d 33f9 d23e 88d4 d5bd
00000060: cfae bc3d ddf2 da3e 47f2 19bd d2af dcbd
00000070: cc18 32be 1a9c 593e f8ae b53d 4532 a93e
00000080: 6b41 8ebd 2cf8 ef3e b559 8e3e 486f 0f3e
00000090: 4758 87bc a9b6 003d 2caa f63e 25c2 023f
000000a0: c111 6bbe f417 52bd b21c 5c3e 71a2 af3e
000000b0: afb3 123d c3dc 6b3e 238a b2bd 4151 a53e
000000c0: e02f 42bd 2dc2 953e c38c bbbe fd69 63be
000000d0: 8988 55be cb7f 763e ae6e 783e de7c 863e
000000e0: 40f2 f83d 0838 86be cac4 5a3e b21a ef3c
000000f0: c130 4dbe 1b07 60be 300e 973e 97f3 8a3e

bias f4 [8]
0.054201208 -0.018306226 -0.21673697 0.06227851 -0.15346086 -0.014456853 0.119506 -0.2306184
00000000: 1602 5e3d f0f6 95bc 4cf0 5dbe c017 7f3d
00000010: d824 1dbe 70dc 6cbc 90bf f43d 3b27 6cbe
