models/NeuMF16_best_so_far.pt (torch, 354134 bytes, 16 tensors)

weight f4 [943, 16]
000000 f4 01 05 be 79 a9 ca 3e bf 54 58 3e e9 15 db 3e
       -0.12989026 0.39582422 0.21126078 0.42790154
000010 4c 39 ae be 1e 03 a9 3e 7c 5f 3f 3f 55 19 20 be
       -0.3402809 0.3301019 0.7475507 -0.15634663
000020 32 71 68 be fe 04 50 be ad 98 31 3f 4f 69 92 3d
       -0.2269943 -0.20314404 0.6937359 0.07148992
000030 a2 e1 32 bf 28 eb b1 3e bf 14 6b 3e 4a 89 bf 3c
       -0.6987554 0.34749722 0.22957133 0.023380894
000040 79 85 46 3f 10 44 4b bf 6d a4 8f 3f 81 f8 9b bf
       0.77547413 -0.7940073 1.1222054 -1.2185212
000050 e2 13 6e c0 13 98 99 be 56 be e9 be b2 38 7d 3f
       -3.7199636 -0.29998836 -0.45653027 0.98914635
000060 8a c9 f9 be 54 42 b2 3e c5 7c fd 3f b1 6d 94 3d
       -0.48786575 0.3481623 1.9803702 0.072474845
000070 bb 3d 9f bf 96 57 ae bc 0f 5a 6a 40 ca f1 c8 bf
       -1.2440714 -0.021281999 3.6617467 -1.5698788
000080 d0 f7 00 bf b0 a6 2c 3f e2 b4 9b 3e 99 b1 d8 be
       -0.5037813 0.67441845 0.3041144 -0.42322996
000090 b5 9d 08 c0 3d fc 85 be f6 9f f6 bd 5c 05 4f be
       -2.1346257 -0.26169005 -0.12042229 -0.20216888
0000a0 8c 8c d1 3f 9e 74 97 bf f4 a2 46 c0 a6 cc 62 bf
       1.6371017 -1.1832464 -3.1036959 -0.8859352
0000b0 34 d4 d9 3c 70 63 74 40 97 b2 37 c0 f2 e6 aa 3e
       0.026590444 3.8185692 -2.8702753 0.33379322
0000c0 4e 83 09 c0 ab c2 47 be 5e 56 38 be 18 68 40 bf
       -2.1486392 -0.19507854 -0.18001696 -0.75158834
0000d0 63 73 5d 40 3d 38 ce bf fd c3 68 bd 8f 00 48 be
       3.4601676 -1.6110913 -0.056827534 -0.19531463
0000e0 44 e5 04 bf ec 1d 48 3f 6c 3d 0b bf b6 ad 70 40
       -0.5191233 0.7817066 -0.543906 3.7606025
0000f0 77 7c 4a c0 84 36 ab c0 00 1e 1f c0 0a 9a 99 3b
       -3.1638467 -5.3504047 -2.486206 0.0046875523
000100 e2 28 ac bf 13 f0 96 bf 49 5d 6d bf 78 4a 40 c0
       -1.3449976 -1.1792015 -0.92720467 -3.0045452
000110 d7 cc 4b be 2a 6a 51 40 ff e9 9a 3f 2f 13 62 be
       -0.19902359 3.2721047 1.210266 -0.2207763
000120 c7 6b 3c 3c df 8d de bf e0 5e 1e 3e c4 06 8a be
       0.0115003055 -1.7387046 0.1546588 -0.26958287
000130 45 ed 20 bf 93 9f 13 bf 98 76 01 3e f0 7c 01 40
       -0.62862045 -0.57665366 0.12642896 2.0232506
000140 fd 72 5d 3f fc 57 9c 3e 57 c2 29 3f 96 22 91 3f
       0.86503583 0.30535877 0.66312164 1.133868
000150 1e 73 54 3f 21 6c 94 3e 8e 60 dc be 03 d4 d0 be
       0.82988155 0.28988746 -0.43042415 -0.40786752
000160 04 7b 3f 3e 58 ad d6 be 3a 47 5c 3f b5 75 5a be
       0.1869927 -0.41929126 0.86046183 -0.21333964
000170 41 b4 b3 be aa cb 15 3e 26 f2 37 be 6b 89 93 3e
       -0.3509846 0.14628473 -0.17963466 0.2881578
000180 8a bd 85 bd a4 bf d7 3e b2 ae 5d be 3d 0a cd 3e
       -0.06530292 0.42138398 -0.21648672 0.40046874
000190 e1 62 a8 be 81 c7 b8 3d 2f 88 03 3f dc 3d ac bd
       -0.3288794 0.09022427 0.51379675 -0.08410236
0001a0 aa 06 18 bd f8 3a c9 3d 0e c1 dd bc d5 23 0f 3e
       -0.03711573 0.098257005 -0.027069595 0.13978513
0001b0 d4 11 5e bd b2 ce b4 bb c1 5a 11 3d a4 02 49 3e
       -0.05421622 -0.005517804 0.03548694 0.19629914
0001c0 a9 89 8b 3d 44 f3 72 3e d8 00 5a 3f 54 8a 0f be
       0.06813366 0.23725611 0.8515754 -0.14017612
0001d0 36 68 da be 6b b9 50 3f 87 2d 69 bf a1 c2 97 3f
       -0.42657632 0.81532925 -0.91085094 1.1856271
0001e0 89 e5 68 c0 88 4d 9f 3e ee 46 83 c0 92 df 43 40
       -3.6390097 0.3111384 -4.1024084 3.0605206
0001f0 f3 f9 1d c0 e8 c2 10 40 65 6e fd be c8 59 3f c0
       -2.4683807 2.2618961 -0.49498287 -2.9898548
000200 c7 8b 9c 40 61 36 4a c0 4e 31 15 bf 0f 48 ae 3f
       4.8920627 -3.159569 -0.5827836 1.361574
000210 d8 de 45 40 4d c9 05 40 95 ea 82 3f 9a de bf 3f
       3.0917263 2.0904114 1.0227839 1.4989808
000220 44 15 81 c0 40 b7 d6 3f 4a 4c c0 bf 32 e6 1d c0
       -4.033846 1.6774673 -1.5023282 -2.467175
000230 06 c9 82 3f 67 c1 f9 bf 66 2f 1f bf 60 54 fa bf
       1.0217597 -1.9512147 -0.621817 -1.9556999
000240 5c 26 cc 3f 6d c7 e4 3e 53 f8 e3 bf 2c 83 2e bd
       1.5949206 0.446834 -1.7810158 -0.042605564
000250 ed 44 53 bd 07 ba 46 3f 13 c7 0b 3f 1c 0b 0a c0
       -0.051579405 0.77627605 0.5460064 -2.156928
000260 5c 2d b6 bf 80 48 8d 3e 8c 6d 1a 3e 25 7c fd 3f
       -1.4232593 0.27594376 0.15080851 1.9803511
000270 9e 7e ca bf 5f 6b fa bf d6 b6 83 be bb 33 c5 3f
       -1.581989 -1.9564017 -0.2572543 1.5406412
000280 de 05 81 bf 4f f0 a3 3e 9c 44 34 40 ab 8f 8c bf
       -1.0079916 0.32019278 2.8166876 -1.0981344
000290 6f 72 af 3e e2 af bb bf 3d 8d a0 bf 38 9f 89 bf
       0.34266993 -1.466305 -1.2543103 -1.0751715
0002a0 79 14 a4 3f 3e 76 e7 be 83 fc 11 3f b3 7d a7 3f
       1.2818748 -0.452074 0.5702593 1.3085235
0002b0 57 63 fa 3f cf 3e f4 3e a6 c8 03 bd 44 5b a6 be
       1.9561566 0.4770417 -0.032173775 -0.32491505
0002c0 d1 e7 62 be 73 11 4a c0 08 65 0c 40 5b 8e 97 bf
       -0.22158743 -3.157315 2.1936665 -1.1840318
0002d0 2b c1 3d bf 19 78 52 bf 9b 5a a8 bf c7 07 45 40
       -0.74122876 -0.82214504 -1.315265 3.0785997
0002e0 03 a5 8e bf 8b fb c6 bd 93 11 2e 40 7f 49 8b c0
       -1.1144108 -0.09715947 2.7198226 -4.3527217
0002f0 96 d7 9f 40 0f 84 cc bf f0 ef 76 3d 7c 77 cf be
       4.9950666 -1.5977801 0.060287416 -0.40520847
000300 a8 96 91 bd e1 3c ce 3d e9 e5 d1 3d 1f 77 b5 3c
       -0.071088135 0.100702055 0.1024893 0.022151528
000310 37 9e 01 be 72 81 87 3d 35 1c e9 3c 85 e9 db bd
       -0.1265801 0.066164866 0.028455833 -0.107379
000320 cb f9 47 3e bc 43 e8 3d fd 14 99 bc e2 c0 d9 3b
       0.19528882 0.11341044 -0.018686766 0.006645308
000330 0c c7 dc bd 43 5d 43 3d 2a 00 bf bc fe 72 9a 3b
       -0.10780153 0.047696363 -0.023315508 0.004713415
000340 04 68 bf be 32 54 2b bf 5e f5 49 3f 92 c1 28 c0
       -0.37384045 -0.66925347 0.78890026 -2.6368146
000350 1c 6b b3 3f f4 30 7e bf 3e 2e b3 3f b4 3e 5f 40
       1.4017062 -0.99293447 1.3998487 3.488202
000360 42 97 cf bf 8d f2 d3 3d c4 7a 86 3f b5 88 2d c0
       -1.6218035 0.10348997 1.0506215 -2.711469
000370 54 8d 27 bf 32 a9 87 be 82 fc 8a 3f 06 03 be 3f
       -0.65450025 -0.26496273 1.0858309 1.4844673
000380 28 6e 2f 3f 4c 43 83 bc 76 c8 67 3f 69 f7 12 3f
       0.6852746 -0.0160233 0.90540254 0.5740877
000390 18 57 2e 40 f1 56 ba bf dd 26 83 3f 53 27 c9 3f
       2.7240658 -1.4557782 1.0246235 1.5715126
0003a0 9c b5 03 3e 05 fa b7 3f c8 fe 23 be ef 0b 66 be
       0.12862247 1.4373175 -0.1601516 -0.2246549
0003b0 63 85 b8 3e bd e5 97 3d 80 4a 3c 40 58 96 56 3f
       0.36039266 0.07416866 2.942047 0.83823156
0003c0 3e f8 b9 bf a3 7e da 3f 5c f2 b4 3f 02 6b 20 c0
       -1.4528883 1.7069896 1.4136462 -2.5065312
0003d0 c6 52 38 3e fc 06 5e 40 8f 2d f4 bf a3 9e 1a 40
       0.18000326 3.4691763 -1.9076403 2.4159324
0003e0 f9 17 37 3f cf 23 b8 be 35 e3 7d 3f 10 ca c5 bf
       0.71520954 -0.3596482 0.99174815 -1.545229
0003f0 2b a8 95 bf 4e c6 1d bf 67 73 6d 3c 33 84 d0 3f
       -1.1691946 -0.61630714 0.014492846 1.6290344

weight f4 [1682, 16]
000000 72 f9 8a 3f f9 d2 69 bf bb 9d 00 bc 28 17 b3 bc
       1.0857375 -0.91337544 -0.007850106 -0.021861628
000010 68 d1 48 bd fd 2a 62 bc ab 68 d7 3e cd 56 06 bf
       -0.04902783 -0.0138041945 0.42072043 -0.524762
000020 90 63 6a be ed d8 68 3d d8 55 82 be d7 8d 16 3f
       -0.22889543 0.0568475 -0.2545612 0.5881018
000030 f5 c4 2d 3f 77 ae 6c 3f 07 16 e8 bb d1 f1 eb 3d
       0.6787866 0.9245371 -0.007082704 0.11520732
000040 19 07 f8 3d c5 ce 8b be b2 82 f1 3e 94 1f 58 3c
       0.12110729 -0.2730619 0.47170025 0.013191123
000050 2f 01 1b c0 df 43 7e 3e c7 8b e5 3f 89 50 be bd
       -2.4219472 0.24830578 1.7933282 -0.092927046
000060 3c 59 53 bf 7c bf 46 3f e8 b9 6c 3f d3 22 8d 3f
       -0.82558036 0.7763593 0.9247117 1.1026253
000070 34 64 7f bf 69 d2 e3 3f 7c 44 3a c0 6b f9 ee be
       -0.9976227 1.7798587 -2.91043 -0.46674666
000080 64 64 29 bf 2f ef 8b bf 1d 08 64 bf 57 94 c6 3e
       -0.6616881 -1.0932368 -0.8907488 0.3878505
000090 73 60 c8 3c 23 e4 ec bf 55 07 ce 3f 5b 73 b8 3f
       0.024460053 -1.8507122 1.6095988 1.4410204
0000a0 3e dc 92 bf cd 1e fb 3e 51 0a 70 bf 3f e8 06 40
       -1.1473463 0.49046937 -0.9376574 2.1079252
0000b0 4d 45 07 3f 20 ef 56 40 e9 3b 67 be 4d 72 d7 bd
       0.5284012 3.358345 -0.22581448 -0.10519848
0000c0 82 75 a4 3e 8e f8 48 be 59 36 9f 3f 64 e1 41 bf
       0.321209 -0.19626066 1.243846 -0.75734544
0000d0 fc 4b 19 40 d0 38 82 bf d3 ce 53 bf 18 4b 6a bf
       2.3952627 -1.0173588 -0.82737464 -0.91520834
0000e0 9b 6a 2c bf 22 b8 18 bf 18 33 1f bf 03 3b 43 be
       -0.6735017 -0.59655964 -0.6218734 -0.1906548
0000f0 95 76 ad 3f 46 f6 8c 3e d1 0b e5 3f f8 7a 76 bd
       1.3551813 0.27531642 1.7894231 -0.060175866
000100 0d 04 d2 bc 81 98 a0 3f 1b 72 d3 3f 91 42 e2 3f
       -0.025636697 1.254654 1.6519197 1.7676564
000110 5e 92 9f bf 9a 4c 6e 3f 2a 02 b6 be b7 94 47 3f
       -1.2466543 0.93085635 -0.35548526 0.77961296
000120 40 2e 2f c0 23 3d 28 3f ca 21 0d bf 39 57 55 3f
       -2.7371979 0.6571829 -0.55129683 0.83336216
000130 f2 d6 a1 bf 25 91 9b 3c c3 13 6f 40 c3 37 11 be
       -1.2643721 0.018990109 3.7355812 -0.14181428
000140 0c 5a 23 3f a9 ab 88 c0 04 58 1a c0 e4 9c 21 c0
       0.63809276 -4.2709546 -2.411622 -2.5252008
000150 c1 e5 1c bf 47 35 c8 bd f9 7e a8 3f d4 d5 09 40
       -0.61288077 -0.09775787 1.3163749 2.153676
000160 de 90 df 3f 8f 75 4f 3f 1f dc e9 3f f9 f8 ef 3f
       1.7466085 0.81038755 1.8270301 1.8747855
000170 79 82 02 bf ca 3e 31 40 c2 e6 88 be 7f 77 a9 bd
       -0.50980335 2.7694573 -0.26738554 -0.08274745
000180 3e 1c d0 be b6 51 ad be d3 a7 7f 3d c1 14 1f 3f
       -0.40646547 -0.33851403 0.06241591 0.6214104
000190 e5 67 d9 3c 63 9b e8 bc 96 42 fb be c3 eb 24 3f
       0.026538799 -0.028394407 -0.4907424 0.64422244
0001a0 47 0f 16 3f b7 6b c2 bd 89 1f 21 bf 9a 57 4c 3e
       0.5861706 -0.09493201 -0.62938744 0.19955292
0001b0 d7 dd e7 3e 48 df 89 3f de 35 ef bc a8 59 59 3e
       0.45286438 1.0771265 -0.02920049 0.21225607
0001c0 b0 57 01 bc 40 03 5b be f8 13 bf be 31 38 9c be
       -0.0078944415 -0.21387959 -0.37319922 -0.3051162
0001d0 f3 b6 d8 3f 80 72 81 3d 26 2b 83 3e 62 36 3a 3e
       1.6930832 0.06320667 0.25618857 0.18184808
0001e0 0d 37 e0 bd b5 21 aa 3f db 83 81 bf fc b9 63 3e
       -0.10948 1.3291537 -1.0118364 0.22238916
0001f0 6e 4d c9 be 8f db 28 bf 71 d7 90 bf e0 17 e9 be
       -0.39316887 -0.6596002 -1.1315747 -0.45526028
000200 fd 2c 96 3f eb 84 9f bf a9 c6 11 3f a3 88 33 3f
       1.1732479 -1.2462438 0.56943756 0.70130366
000210 09 b6 31 3e 77 56 cc be 18 8c c6 be 6f 60 78 3e
       0.17354597 -0.39909717 -0.38778758 0.24255536
000220 50 fe 67 be cf e9 32 be 22 3e ec bd b9 65 be bd
       -0.22655606 -0.17472003 -0.115352884 -0.09296746
000230 2c 98 b9 3e 10 b7 e5 3e 57 10 de bd 35 d4 ba bc
       0.3624891 0.44866228 -0.1084296 -0.022806266
000240 c7 9b c1 3f cd 87 ad bf 81 4c fa be 22 02 31 bf
       1.5125664 -1.3557068 -0.48886493 -0.6914388
000250 d1 65 4f 3d 88 3b 1d c0 2f 30 64 3e b7 ea 8e bf
       0.05063421 -2.4567585 0.22284006 -1.1165379
000260 58 72 c0 3e a6 71 1a 40 8d 0d 2c 3f 18 c8 31 bf
       0.37587237 2.4131866 0.67208177 -0.69445944
000270 c7 69 2d c0 70 21 df 3f be bb b4 3d 1b ab bc 3d
       -2.7095811 1.7432079 0.088248715 0.09212323
000280 54 f2 b3 bf 38 08 23 be ac c4 65 be 0a 99 39 be
       -1.4058328 -0.15921104 -0.22438306 -0.18124786
000290 62 c2 b3 3f cd 5c 67 be 54 0d de be 1c e8 a6 bc
       1.4043696 -0.22593994 -0.43369544 -0.02037435
0002a0 19 d5 05 3e c3 61 30 3e 13 55 eb be 8a 1a a5 be
       0.13069572 0.17224793 -0.45963344 -0.3224681
0002b0 8d cd b0 3e 5b 80 00 bd 92 f5 c7 bf 81 46 52 bd
       0.34531823 -0.03137241 -1.5621817 -0.05133677
0002c0 a2 c9 26 be af a6 98 bf de 63 05 3f b9 65 0f 3b
       -0.16287854 -1.1925868 0.5210551 0.00218807
0002d0 94 fa 1f 3f 18 5f 36 bd 10 c2 07 3d fc 30 dc be
       0.62491727 -0.044524282 0.033144057 -0.43006122
0002e0 93 ab 41 be 3d 6e 0f bf 71 8d 44 bf bd 16 8f bd
       -0.18913107 -0.56027585 -0.7677832 -0.06986759
0002f0 ae a7 84 3f 59 89 a6 3c 0c 9c 9b 3f 4e 4f 12 be
       1.0363672 0.020329164 1.2156997 -0.14288065
000300 19 8f 97 3e c7 b5 3d bf 16 e4 82 3e 20 2f df be
       0.29601362 -0.74105495 0.2556464 -0.4359064
000310 89 31 d2 3d 7c f4 8c 3e 23 70 22 3f 2e 16 a8 3e
       0.10263354 0.27530277 0.6345236 0.32829422
000320 b5 43 e0 3e c8 10 8b bf 35 d7 e1 3d 11 7d c9 3e
       0.43801656 -1.0864496 0.110273756 0.3935323
000330 4b b6 82 3e 00 c3 21 40 27 34 46 3e 63 c9 91 bd
       0.25529703 2.5275269 0.19355832 -0.071184896
000340 ff 35 92 3e 80 80 00 c0 93 42 97 bd a6 a8 e5 be
       0.2855682 -2.007843 -0.07385745 -0.4485523
000350 d6 35 53 bd ce d1 e4 3c 42 87 d8 3e 0e 42 65 be
       -0.051565014 0.027932074 0.42290694 -0.22388479
000360 f8 14 15 3f d2 44 0f 40 c0 38 93 bd e5 15 a9 3d
       0.5823512 2.2385755 -0.071885586 0.08256129
000370 7c 2f 7f bf 2a ef 9e bf 64 c8 7d bc 52 13 d3 3b
       -0.9968183 -1.2416737 -0.015489671 0.006441512
000380 3b 4b 0e 3f f0 93 40 3c dd 15 60 3d cd 67 0f bf
       0.5558354 0.011754021 0.05470835 -0.5601776
000390 6d 75 00 bd 24 a2 90 be ab 84 82 3e a2 da 01 bd
       -0.031361986 -0.28248703 0.25491843 -0.031702645
0003a0 db ac 65 3f 0f 5a bf bd 22 73 48 be f2 76 ce 3e
       0.8971688 -0.09343349 -0.1957517 0.40325123
0003b0 0e b6 ba 3d 62 53 f9 3f 9b 17 16 bb db 2f 84 be
       0.091167554 1.9478571 -0.0022902254 -0.2581776
0003c0 80 f9 71 c0 2f fb 96 bf 22 c4 4f bf a6 a5 8b 40
       -3.7808533 -1.1795405 -0.8115865 4.3639708
0003d0 b5 26 2e 3f cf ab 10 c0 23 79 8a bf d8 fe 94 bf
       0.6802781 -2.2604864 -1.0818218 -1.1640272
0003e0 84 f9 63 3f db b4 86 40 06 00 c0 3e f2 7f d3 3f
       0.89052606 4.209577 0.37500018 1.6523421
0003f0 3a 65 7f bf f4 8f b7 bf 8c f9 1b 3e df a4 23 3f
       -0.99763834 -1.4340806 0.15231913 0.6392345

weight f4 [8, 16]
000000 d6 5c b6 3e 28 2d 62 3f 11 93 95 be f7 cb 97 be
       0.35617703 0.8835015 -0.29213765 -0.296478
000010 7f 86 3c 3d c9 3d b5 3e 2d c4 83 bd a3 65 1c bf
       0.046026703 0.353987 -0.06433902 -0.61092585
000020 82 65 8a be 85 cb 10 be 3d 3b 8c bf d7 7f 4c 3e
       -0.2703057 -0.14140137 -1.0955578 0.19970642
000030 85 cf 87 3e 10 9a c1 3e a9 60 12 bf 59 e0 4b bf
       0.26525512 0.37812853 -0.5717874 -0.796392
000040 d4 22 b1 3d e0 5d c6 bd d3 0a b7 be e7 3e 91 be
       0.08649221 -0.09685874 -0.35750446 -0.28368303
000050 c4 ef ea 3c f2 13 b6 3d 60 9b eb 3d 81 62 af 3c
       0.028678782 0.08890523 0.11504245 0.021409275
000060 81 fc 3d 3e 8a 5d 0d bc 15 ab 34 3d 6f 6e 6c bc
       0.18553354 -0.0086282585 0.04410847 -0.014430626
000070 bf 1a c5 bc 45 c8 50 bd cf 2a 52 3e 9f d5 3e be
       -0.024060605 -0.050972242 0.20524143 -0.18636177
000080 78 8e 55 3d 85 85 9a bd 38 ce 51 3e 1f ec 97 3c
       0.052137822 -0.07544998 0.20488822 0.018545208
000090 60 0d 06 be 67 ed 1d 3e f3 3e e4 3d 3a b6 21 be
       -0.1309104 0.15422593 0.11144819 -0.1579217
0000a0 71 68 8b be 26 1a 91 bd 24 0e cc 3c e8 f3 3d be
       -0.2722812 -0.070850655 0.024909087 -0.18550074
0000b0 72 22 1b 3c ea 46 eb bd 92 5a 2e 3e c0 05 16 3e
       0.009468662 -0.11488135 0.17026737 0.14650631
0000c0 b1 ae 0b bf c4 4a 5a 3e 8d 06 49 bf 31 13 56 3f
       -0.5456343 0.21317583 -0.7852562 0.83623034
0000d0 4f 89 81 3f 26 3d 2f 3c 90 95 ed 3e f1 d4 ca 3e
       1.0120028 0.010695731 0.4640317 0.39615586
0000e0 d6 5b 46 bf 18 26 8e bf 4d 21 b6 3e bb 1e 10 bf
       -0.7748388 -1.1105375 0.3557228 -0.5629689
0000f0 ee 39 39 3f 13 5a 9b 3d e9 dd 95 3f 71 67 73 3b
       0.7235402 0.0758554 1.1708347 0.0037140513
000100 c8 57 e3 be 70 77 6f 3d bb 3a 16 bf f2 55 eb bd
       -0.4440291 0.058463514 -0.58683366 -0.11491002
000110 86 6a 9a 3f 5b a6 95 be 65 61 ae 3e 0f 48 74 bf
       1.2063758 -0.29228482 0.3405868 -0.9542245
000120 c6 91 08 be b3 e1 34 3e 7c 6a 75 be 73 47 0c 3e
       -0.13336858 0.17664222 -0.23966402 0.1369913
000130 92 4b a3 3d 1c e6 2c bf c0 dc 8f bf 29 f3 0d 3f
       0.07973398 -0.6753862 -1.1239243 0.5544916
000140 1f 81 02 bf 95 cc 1e be b1 ba a0 3d c8 84 02 3f
       -0.50978273 -0.1550773 0.078481086 0.5098386
000150 0c 87 52 3f 21 9e f8 3e 70 50 04 bf 0b 6f 32 3e
       0.82237315 0.48558143 -0.5168524 0.17425172
000160 b1 7a bc 3e f4 91 33 3e 0e 60 35 bf 6e ef 04 bf
       0.36812356 0.17536145 -0.7084969 -0.5192784
000170 9f af 05 3e 5f 05 dd 3e 9c 39 97 3e 47 7a 76 bf
       0.13055275 0.4316816 0.2953614 -0.9628033
000180 ca a1 4c 3e 75 29 20 3f f7 85 d9 bc b7 ed b6 3e
       0.19983593 0.6256326 -0.026553137 0.35728237
000190 ff 9a 87 be c5 8e 3b bf cf d4 ec be 57 f0 84 be
       -0.2648544 -0.73264724 -0.4625611 -0.25964615
0001a0 77 67 90 be c9 12 a1 3e 8b 0d a4 be 75 2f ad 3f
       -0.28203937 0.31459644 -0.32041582 1.3530108
0001b0 89 cc 81 be e1 c5 d8 3e 3c 02 a6 3f be 01 d9 bd
       -0.2535136 0.4233847 1.2969432 -0.105960354
0001c0 98 2e be 3e ad d3 1a 3e 46 4c c9 be 35 f5 66 3e
       0.37144923 0.1511981 -0.39316005 0.22554477
0001d0 a5 e8 30 bf 72 10 0c 3f ea be 09 3f 1f ba 2f bf
       -0.6910499 0.54712594 0.53806937 -0.68643373
0001e0 d4 75 e4 be 55 c8 4f 3e c1 2c 89 3f cb 2e df be
       -0.44621146 0.20291264 1.0716783 -0.43590388
0001f0 a5 16 d2 3d 5c 20 8d 3f fe b1 fa be ef f5 42 be
       0.10258225 1.10255 -0.48963922 -0.19039129

weight f4 [943, 16]
000000 7b 4e fc 3f b2 db 12 c0 e7 40 6e 40 b8 a1 0c c0
       1.971145 -2.2946591 3.7227113 -2.1973705
000010 3c 46 18 c0 7b 1d 07 40 b2 f3 50 3f c7 99 d2 3f
       -2.3792868 2.1111743 0.8162185 1.6453179
000020 7a 8c 38 bf f1 19 26 c0 a0 8f 2c 40 1b 24 10 c0
       -0.7208935 -2.5953333 2.6962662 -2.2522037
000030 89 ba 3b 40 35 a7 80 40 c4 3e 1b 40 f6 70 33 c0
       2.9332602 4.020411 2.425706 -2.8037696
000040 e1 aa 69 bf de 50 06 40 fc 9d c1 bf 60 e2 52 be
       -0.91276366 2.0986857 -1.5126338 -0.20594168
000050 c7 ce b7 3f 18 5c 0a bf 5b 19 8f bf 9a 00 4c be
       1.4359978 -0.54046774 -1.1179613 -0.19922104
000060 e6 04 c3 3f c7 5a ed 3f d1 45 65 bf 44 76 87 be
       1.523587 1.8543328 -0.89559656 -0.26457417
000070 87 e2 1c 3f 43 fd 6f be a8 54 3e 3f 6c d4 0c 3e
       0.61283153 -0.23436455 0.74347925 0.13752908
000080 da 03 60 3f c2 3a 14 3f ac a4 99 3f a2 cc 19 bd
       0.87505877 0.5790216 1.2003379 -0.03754867
000090 41 8d 65 bd 3b 9e e0 bf 5f 2c d3 be 87 38 84 bf
       -0.056042913 -1.7548288 -0.4124479 -1.0329751
0000a0 b5 f1 0a 40 a0 bb 19 3e f1 3b fa bf 68 b9 76 bf
       2.1710026 0.1501298 -1.9549543 -0.9637666
0000b0 bc f6 aa bf 63 ea a4 bf 40 12 86 bf 82 a6 56 bf
       -1.3356547 -1.2884029 -1.047432 -0.8384782
0000c0 38 14 ba bf bd 6e f3 3f bf 5c 6a c0 42 2b 3c 40
       -1.453742 1.901817 -3.6619108 2.9401402
0000d0 ae 62 6f 3f 29 e0 72 bf a2 af 2c c0 44 3d 1b bf
       0.9350995 -0.9487329 -2.6982198 -0.6064036
0000e0 f5 a2 28 3f e7 ca b6 3f d8 37 db be d2 f7 10 3e
       0.6587365 1.4280671 -0.42816043 0.14157036
0000f0 e3 c0 95 bf 0c 2d 9f 3e be fb db bf e5 ac 3a 3f
       -1.1699489 0.31089056 -1.7186201 0.72920066
000100 17 8c 89 bf 6e 82 59 bf 91 e1 72 bf 1f 2e 74 bd
       -1.0745877 -0.84964645 -0.9487544 -0.059614297
000110 7e 84 23 be 27 a9 bd be 9a 91 cd be cd fd b0 3f
       -0.1596851 -0.37043115 -0.40150148 1.3827454
000120 a2 74 8b 3f 6b 28 cb bf 8a f3 e9 3f 5d b4 ec 3e
       1.0894969 -1.587171 1.8277447 0.46231356
000130 f7 c4 b7 3e 08 a4 f4 be 0b 5a dd bf e0 fe b3 bf
       0.3589246 -0.47781396 -1.7293104 -1.4062157
000140 65 b9 0a 40 7f fe 65 c0 5d c1 db 3f b2 e6 be bf
       2.1675656 -3.5936582 1.7168385 -1.4914153
000150 38 f0 d5 bf a4 4d 34 40 e0 c4 0e 40 04 52 ff 3f
       -1.6713934 2.8172388 2.2307663 1.9946904
000160 23 0e 2a 3f a6 51 0d c0 39 d0 b2 3f 97 da 04 c0
       0.6642782 -2.2081084 1.3969795 -2.0758417
000170 d8 ce e9 3f a4 57 23 40 37 8d 29 40 71 5b ce bf
       1.8266249 2.5522242 2.649244 -1.6121656
000180 b1 47 4f 40 e9 50 30 c0 ab b5 3e 40 b3 bf 01 c0
       3.2387507 -2.7549384 2.9798381 -2.0273254
000190 1f 9f ba bf 78 84 1b 40 d8 ec 0c 40 7a 22 49 40
       -1.457981 2.4299603 2.2019558 3.1427293
0001a0 2f f5 16 bf e2 87 8b c0 26 96 0f 40 2c 5e 5c c0
       -0.5896787 -4.3603373 2.2435393 -3.4432478
0001b0 24 f6 32 40 e9 ab 9c 3f c2 ee d0 3f eb 40 6d c0
       2.7962732 1.2239963 1.6322863 -3.7070873
0001c0 45 57 13 bf 0f 97 1e be 01 b4 b9 bf e9 9f c4 3f
       -0.5755504 -0.15487312 -1.4508058 1.5361301
0001d0 03 a3 5e bf 61 82 7c 3f 25 ed f1 3f 31 fb b0 bf
       -0.86967486 0.9863644 1.8900496 -1.3826658
0001e0 5a f5 ea 3f 64 d8 e1 3f d7 a0 d3 3e e4 ad bb 3b
       1.8356125 1.7644162 0.4133365 0.0057275165
0001f0 2c ae 1b bf 6a 83 c1 bf 08 08 12 bf 39 53 b4 be
       -0.6081264 -1.5118229 -0.57043505 -0.35219744
000200 ec 26 af bf 54 8e 2d 40 a0 9e b5 be fa 0a 05 40
       -1.3683753 2.711812 -0.35472584 2.078795
000210 8a 5b 25 40 e8 f4 ca bf 47 92 2c bf 2b 2c 76 c0
       2.583712 -1.585599 -0.674107 -3.8464458
000220 af 72 61 3f 60 e1 1e 40 8b 19 37 be 50 94 06 40
       0.8806562 2.4825058 -0.17880838 2.1028023
000230 ad a1 1b c0 92 f8 fc bf 6d 5b 9d bf d7 fa 29 40
       -2.431743 -1.9763358 -1.2293526 2.655935
000240 ca 19 01 3f 0a dc 99 bf 03 6e 41 bf fc 94 5e 3f
       0.50429976 -1.2020276 -0.7555849 0.8694608
000250 6c 63 98 bf 34 d3 05 3f f9 39 05 40 73 aa 2b 3f
       -1.1905341 0.52275395 2.0816634 0.6705696
000260 7d ce 5f bf 0a cc a3 bf 6e 15 8c 3f 5c 76 c8 be
       -0.8742445 -1.2796643 1.094404 -0.391528
000270 21 47 fb 3e 6a 48 a4 bf 22 b2 70 3e 26 30 f7 bf
       0.49077705 -1.2834599 0.23505452 -1.9311569
000280 4f e2 7b bf 24 b0 7f bf 93 fe d7 be 2c b0 b0 be
       -0.98392195 -0.99878144 -0.42186412 -0.34509408
000290 0e d7 a7 be 1d f5 34 be 5b 15 60 be c5 c0 84 3e
       -0.3278126 -0.17671628 -0.21883146 0.2592832
0002a0 96 d2 18 be 92 91 a6 3f 25 3a 86 3e c6 bd 13 3e
       -0.14924082 1.3013175 0.26216236 0.14427862
0002b0 40 b7 74 bf 86 88 02 3e c1 07 27 be 1f 96 66 be
       -0.9559212 0.12747392 -0.16311552 -0.22518204
0002c0 cc 20 59 3c af cb ad bf d7 82 4c bf 76 e3 69 bf
       0.013252448 -1.3577784 -0.79887146 -0.913627
0002d0 9e 3f c0 3f 0b 7c 6d 3f c6 e3 47 bf de 2b b2 bf
       1.5019414 0.927674 -0.7808193 -1.3919637
0002e0 20 a8 09 3f 5d 8a 88 bf 0f 73 3c 3f 83 14 99 3f
       0.53772163 -1.0667225 0.73613065 1.1959385
0002f0 58 a5 db be e1 96 fe 3f 34 a7 43 bd 0f 8e 7b 3f
       -0.42899585 1.9889795 -0.04776688 0.9826364
000300 71 cb 4d 40 9c 73 38 c0 ba 0a 85 40 67 57 81 c0
       3.215542 -2.8820562 4.1575594 -4.041919
000310 3d a5 82 c0 c6 22 38 40 dd bf 0c 40 be a4 81 40
       -4.0826707 2.8771224 2.1992104 4.05136
000320 d4 27 e4 bf 47 58 3f c0 87 83 83 40 da dc 83 c0
       -1.7824655 -2.989763 4.1098056 -4.1207094
000330 c9 4e 77 40 c0 67 8d 40 d2 b7 10 40 ff 95 a5 c0
       3.8641837 4.418915 2.2612195 -5.17456
000340 1d 23 98 3d a6 db 67 bf 78 70 f5 bf 24 6e b8 3d
       0.07428572 -0.9056953 -1.9174948 0.09005383
000350 78 51 46 3e a8 de 07 be b2 d7 56 3e 6e 7e 96 bf
       0.19367015 -0.1326853 0.20980719 -1.1757333
000360 07 1f 26 bf ba 60 6d bd 1e 13 29 3f ed 4e cb 3f
       -0.64891094 -0.057953574 0.66044796 1.5883461
000370 73 76 98 bf 7f 03 b1 bf 5b b2 90 be c5 9c 73 3f
       -1.1911148 -1.3829192 -0.28261074 0.95161086
000380 b8 3d bc 3e 6b 88 fa 3f 6e eb ba bf 38 78 07 bd
       0.36765838 1.9572881 -1.4603097 -0.033073634
000390 56 b8 1f bf 8f 8f 75 3d 03 f5 69 bf 20 94 18 bf
       -0.6239065 0.05995136 -0.91389483 -0.5960102
0003a0 2c a1 24 bf 27 79 07 c0 44 0f ed bd 2c 62 c2 3f
       -0.6430843 -2.1167696 -0.11575177 1.518621
0003b0 0e 5e 94 bf 72 90 23 bb 35 ab 10 bf f5 8f 02 bf
       -1.1591203 -0.0024957922 -0.5651124 -0.5100091
0003c0 4a 79 db 3e 46 e6 db 3e 30 ae f9 be 42 d3 6b be
       0.42865974 0.42949122 -0.48765707 -0.23029807
0003d0 eb cd 67 bf d7 1e dd 3d 5d 89 84 bd aa f6 00 be
       -0.9054858 0.10796898 -0.064715125 -0.12594095
0003e0 9c fe 2d 3f 6a 45 0f be 27 05 6e 3f 39 ca b0 bf
       0.6796663 -0.13991323 0.9297661 -1.3811713
0003f0 44 e3 7e 3f e3 43 92 3f d9 b5 2a 3e 8d 5b dd be
       0.9956553 1.1426967 0.16670932 -0.4323391

weight f4 [1682, 16]
000000 7a 4b 09 c0 00 ee 60 40 cf cd 76 c0 65 fa 87 3f
       -2.1452317 3.5145264 -3.8563116 1.0623289
000010 e6 35 29 40 84 6d 9c 3f 67 0b d2 3f c4 2f d7 bf
       2.6439147 1.2220922 1.640973 -1.6811452
000020 e9 13 d6 3f 15 b6 66 40 1f 6d 99 c0 87 01 b4 3f
       1.6724826 3.6048634 -4.7945704 1.4062966
000030 91 e8 79 c0 1c e4 30 bf 84 1c 8b 40 18 51 b3 40
       -3.9048197 -0.6909807 4.347231 5.603649
000040 e7 76 9c bf 72 1d 47 40 c8 71 85 bf 16 10 51 bf
       -1.2223786 3.1111722 -1.0425348 -0.8166517
000050 49 dc 7f bf 0c 69 31 3f b6 16 8c 3f 09 04 bf bd
       -0.99945503 0.69300914 1.0944431 -0.093269415
000060 50 e4 b6 3f b4 23 cd 3f 4b 24 b2 3e 0c a7 ea be
       1.4288425 1.6026521 0.34793314 -0.45830572
000070 45 e5 12 be ad 9a 27 c0 50 91 c8 3f ff 97 a8 be
       -0.14345272 -2.6188157 1.5669346 -0.32928464
000080 63 87 3b bf 25 1b a9 3e 1d 15 95 bf df c7 27 bf
       -0.7325346 0.33028522 -1.1647068 -0.65539354
000090 cf b7 45 bf a5 67 40 bf 0c 9b e7 3f 9f 99 d2 be
       -0.77233595 -0.7515815 1.8094192 -0.4113283
0000a0 36 61 a3 3f e3 d7 81 3f 23 2f 84 be d3 28 04 c0
       1.2764041 1.0144008 -0.25817212 -2.0649917
0000b0 33 2b 1a bf 64 05 6b bf 12 a3 aa 3f 5f ce 9f bf
       -0.60222167 -0.918051 1.3331015 -1.2484854
0000c0 cc bf 3c bf f4 86 69 3f 87 97 ca be 34 f0 d7 bf
       -0.7373016 0.9122155 -0.3956873 -1.6870179
0000d0 a4 65 43 40 0b cb 00 bf c4 d7 ce 3f 9b 99 fa be
       3.0530787 -0.5030982 1.6159596 -0.48945317
0000e0 1e 3e 12 40 e3 af f7 3f 8f 33 c4 bf ad e8 77 3e
       2.2850413 1.9350551 -1.5328234 0.24209853
0000f0 30 f4 94 bd 29 dd c1 be f6 01 61 40 b4 58 cf 3f
       -0.072731376 -0.37864044 3.5157447 1.6198945
000100 44 99 33 40 24 ad 9a be 92 e7 5c 3f e9 de a7 be
       2.8062296 -0.3021022 0.8629085 -0.32787254
000110 36 28 14 3f fe ff 24 be ab 3f 2d be e4 cb 0a 3f
       0.5787386 -0.16113278 -0.16918819 0.5421736
000120 52 a0 cf bf 0a 01 d3 bf b8 44 af 3e a8 0d 10 3f
       -1.6220801 -1.6484692 0.34232116 0.5627084
000130 b3 85 2f bf 84 3e b6 3e 82 5b 00 3f 27 3b ce be
       -0.68563384 0.3559457 0.5013963 -0.40279505
000140 26 d5 00 40 75 db 1a 3f 13 9d 30 be 3b 32 92 3f
       2.0130095 0.60491115 -0.17247419 1.1421579
000150 af 8d f4 be 76 50 9e bf 09 2c 48 3d 57 92 4e 3f
       -0.47764346 -1.2368305 0.04887012 0.80692047
000160 4b f9 1c 40 cf c0 32 c0 46 1f 68 bf d0 39 60 40
       2.4527156 -2.793018 -0.9067272 3.5035286
000170 d2 cc 44 40 b6 50 32 3f 6a ac 03 3f fa 13 33 bf
       3.0750012 0.69654405 0.5143496 -0.69952357
000180 f0 bf 57 c0 2d bb d0 3f 8a 2e b4 3c 95 71 bb bf
       -3.37109 1.6307122 0.021994848 -1.4644037
000190 df 9e f1 3f 21 fa 50 40 b0 42 73 40 cb 03 c5 bf
       1.8876609 3.2652667 3.8009453 -1.5391783
0001a0 5f d4 38 40 54 b3 83 40 8a 08 41 c0 70 6d ab 3f
       2.887962 4.1156406 -3.0161462 1.3392773
0001b0 a4 fa 92 bf 16 3e 24 c0 c9 eb 48 40 f7 a7 11 40
       -1.148274 -2.5662894 3.1393912 2.2758768
0001c0 bd 05 97 be dd a5 71 3f 8d 51 94 bf fa 2e 2e bf
       -0.29496565 0.9439371 -1.1587387 -0.6804043
0001d0 5e 1f a3 3f a9 c9 d0 3e 1f d6 1a 3e af 56 a4 be
       1.2743948 0.40778854 0.15120743 -0.32097384
0001e0 3d c8 4e bd c4 99 10 be f0 59 0f bf bf 68 b2 3f
       -0.05048393 -0.14121157 -0.5599661 1.3938216
0001f0 35 08 08 c0 82 e0 8c bf 25 af 50 40 8c a6 f1 bc
       -2.125501 -1.1006014 3.26069 -0.029498361
000200 4d 31 09 3f 55 65 73 3f c8 b1 0c bd e3 fc 16 bf
       0.5359085 0.95076495 -0.034349233 -0.58979625
000210 cc 91 f0 3f 5d ec f4 3f 29 cd c9 3f 96 11 20 3f
       1.8794494 1.9134632 1.5765735 0.62526834
000220 5d fe 1c 40 4a eb 1e 40 b2 db 40 c0 95 a0 b5 3e
       2.453025 2.483111 -3.0134091 0.35474077
000230 d5 46 a9 bf fa bb 6d bf 35 4f 52 3f d8 70 87 3f
       -1.3224741 -0.92864954 0.8215211 1.0581312
000240 50 fe dd 3c 4c 9b 71 3f f5 33 34 be db ec ad be
       0.027098805 0.9437759 -0.17597945 -0.3396977
000250 c3 72 69 bf 60 3a c2 3f 9a c4 23 bf 3d a1 9f 3f
       -0.9119074 1.5174065 -0.63971865 1.2471081
000260 e1 ca e2 3f 35 fe 48 be e9 b2 96 3d 9a 80 60 bf
       1.7718164 -0.19628222 0.07358343 -0.8769623
000270 03 59 9e bf bb 96 40 3f 79 78 60 be 36 2d b5 bf
       -1.2370914 0.75229996 -0.21920957 -1.4154422
000280 da eb 53 bd 83 4a e9 3e 28 87 c1 bf 32 48 03 3f
       -0.051738597 0.4556466 -1.5119371 0.51282036
000290 7d 9d f0 3f d6 53 c0 bd 7c a0 05 40 7d 28 70 bf
       1.8798062 -0.093909904 2.0879202 -0.9381178
0002a0 e1 24 1f 3f 4a d0 39 40 9b 27 39 bf 5d fc 0e bf
       0.6216565 2.903338 -0.7232606 -0.55853826
0002b0 10 00 d4 bf 24 78 8d bf c9 9e 68 3f b3 41 aa 3f
       -1.6562519 -1.1052289 0.90867287 1.33013
0002c0 d4 19 95 3f f9 12 db 3f 0d ab ab bf 1d 35 ee 3e
       1.1648507 1.7115165 -1.3411576 0.46524897
0002d0 4c 43 48 3f 02 f6 50 3f 7b f5 d8 bf aa 17 89 3f
       0.78227687 0.8162538 -1.6949915 1.0710347
0002e0 c6 46 be 3f 44 6d 9f 3f 7c af ce bf dc c0 67 bd
       1.4865348 1.245522 -1.6147304 -0.05658041
0002f0 8e 9e 02 c0 37 b8 e1 be c9 f7 1c 40 c2 61 2a 40
       -2.0409274 -0.44085857 2.4526236 2.6622167
000300 3d 25 08 40 d6 f6 03 be c1 9a e4 be f0 9a ad 3f
       2.1272728 -0.12887129 -0.44649318 1.3562908
000310 de 62 b7 be 22 08 11 40 6c b2 d1 3f bf 9c a6 be
       -0.35817617 2.2661214 1.6382575 -0.32541463
000320 0d 14 9f 3f 7b 4a f9 bf f1 ad ac bf 1d 24 a1 3f
       1.2427994 -1.9475855 -1.3490583 1.2589146
000330 9a 8f 0d 3f 50 47 0f 3f 9b bd 9c 3f de 79 94 3e
       0.55297244 0.5596819 1.2245363 0.28999227
000340 4f 10 82 3f 51 11 62 3f 77 83 e7 bf 70 25 5d bf
       1.0161227 0.8830767 -1.8086995 -0.8638525
000350 00 8a e3 3e 61 c2 d4 3f a5 6d c2 3f 58 06 2e 40
       0.44441223 1.662182 1.5189711 2.7191372
000360 25 ed de 3f 4e 3c bc bf 03 1d 98 bf d9 38 0f 40
       1.7416121 -1.4705904 -1.1883854 2.2378447
000370 0f 1b f2 bf 03 28 d5 bf 28 42 84 bb ba 27 d2 3f
       -1.8914508 -1.6652836 -0.0040362068 1.6418374
000380 8c ac a7 be 79 35 1c 40 4c 9f c2 bf b2 d0 ad 3e
       -0.3274883 2.4407637 -1.5204864 0.33948284
000390 14 f5 f8 3f dc fc fb 3f 7d 2a 8e 3e 64 40 0e 3f
       1.9449792 1.9686542 0.2776679 0.55567
0003a0 69 58 4d 3f 9b 10 3a 3f 8b 4f c8 bf ff f5 17 3e
       0.8021303 0.7268159 -1.5649275 0.14839934
0003b0 6f 35 2e bf e5 eb 02 c0 d4 b4 50 40 5b 3c 49 40
       -0.68050283 -2.0456479 3.2610369 3.1443088
0003c0 11 d5 c0 3e 63 bf aa 3e e0 2a 92 3e 9d 98 2a bf
       0.37662557 0.3334914 0.28548336 -0.6663912
0003d0 03 b2 95 3f dd 84 52 bf dc f4 36 bf 59 1e 3e 3f
       1.169495 -0.82233983 -0.71467376 0.74265057
0003e0 b7 c3 b2 be 1a 68 75 3b ab 2c f8 be bd a1 8f bf
       -0.34914944 0.0037446083 -0.4847158 -1.1221234
0003f0 7c fd d3 3e e9 51 c0 3c ee 4a 64 bf 24 2e 09 3f
       0.4140433 0.023476558 -0.89176834 0.5358603

weight f4 [32, 32]
000000 10 bd fb be 6d 1d c2 be 82 86 d5 be 37 8b e1 3d
       -0.4916768 -0.37913075 -0.41704184 0.11012881
000010 92 a6 34 3f 50 8d 77 be 22 a3 0e 3e 21 fd 6c 3d
       0.70566666 -0.24175 0.13929418 0.05785859
000020 fa c6 d6 3e 06 64 72 3f 6e a2 64 be bd 59 9e 3e
       0.41948682 0.94683874 -0.22327587 0.3092784
000030 ac ad a1 bd 4c e9 05 3f 60 03 34 3e 38 97 e9 3e
       -0.078944534 0.5230911 0.17579412 0.45623183
000040 eb 08 9c bf fd 3f 16 be cf 5a f8 3e 52 3b 83 bf
       -1.2190222 -0.14672847 0.4850678 -1.0252478
000050 9d 08 9d 3e 3b 11 a6 be f5 1a d8 bd f4 5e 12 bf
       0.30670634 -0.3243502 -0.10552017 -0.57176137
000060 5e ba d4 be 9b 7a 2b 3f ca 44 02 3f 37 73 69 bf
       -0.41548437 0.66983956 0.50886214 -0.9119143
000070 8e 05 b6 be fb b6 93 3e b6 61 51 3c 2d 4d cc 3e
       -0.35551113 0.2885054 0.012779644 0.3990263
000080 51 5b 1c 3e 16 49 6d 3d 69 d3 90 be 9c 5f f4 be
       0.1526921 0.05793103 -0.28286293 -0.47729194
000090 68 a4 18 3e 0b 1b 66 3e 60 b7 8a bf 4a 39 b2 be
       0.14906466 0.22471254 -1.0837212 -0.34809333
0000a0 72 fa 4e bf 38 c1 26 3f d8 3a 58 be 34 16 05 be
       -0.808509 0.6513858 -0.21116197 -0.12996751
0000b0 9c 2c 6e bf bb 08 8e bf 92 2e 5d bf 8c f0 dd bb
       -0.9303682 -1.1096414 -0.86399186 -0.00677306
0000c0 72 f0 27 bf b4 95 23 3f df b0 56 3e e6 8a e1 be
       -0.65601265 0.63900304 0.20965908 -0.44051284
0000d0 c2 85 f5 3d 61 f0 d3 be ca 40 86 3e e9 8a b7 bf
       0.11988403 -0.41394332 0.26221305 -1.4339267
0000e0 9d f3 78 be fa 8e f8 3e c1 63 ad be 4d 7e 55 be
       -0.24311681 0.48546582 -0.3386517 -0.20848961
0000f0 18 7e c3 be e9 7f 8c 3e 70 1f 2f bf 27 dd e2 3e
       -0.3818214 0.27441338 -0.68407345 0.4430935
000100 d8 55 bf 3c 68 c3 b5 3c 7f 56 0e 3f 77 9d 8f bf
       0.023356363 0.022187904 0.5560073 -1.121993
000110 d7 4b 74 be 67 25 c0 3e 48 34 22 3f e1 e9 69 3c
       -0.23857056 0.37528536 0.63361025 0.0142769525
000120 4d 97 0a 3f 56 e7 ba 3e 8a 26 69 3f 30 9a d0 3e
       0.54137117 0.3650462 0.9107443 0.40742636
000130 fa 5f 80 bd 80 54 b3 3e ac 5f 24 3f 34 a5 24 3d
       -0.06268306 0.35025406 0.64208484 0.040196612
000140 60 33 ec 3e b9 a7 e8 be c8 e4 ad be a5 77 d3 3e
       0.46132946 -0.45440462 -0.3396361 0.4130222
000150 ae c8 db be 86 3c 26 bf d0 cb 48 be d5 e0 13 3f
       -0.42926544 -0.649361 -0.19608998 0.5776494
000160 97 a0 a4 3e ef c5 73 bf a5 5c 59 3e e3 12 b6 3e
       0.3215377 -0.952239 0.21226747 0.35561284
000170 79 ec 90 3e 51 be 56 3f 52 04 f9 be 54 6b 91 bf
       0.28305414 0.8388415 -0.4863611 -1.1360879
000180 cd 90 3c bd f4 3d a6 3e 0e 26 c9 be 70 95 81 3e
       -0.04603653 0.3246914 -0.39286846 0.25309324
000190 2b 3b 6c bd 75 d4 1d bc 7b 51 2b 3d e7 1e 09 3e
       -0.057673614 -0.009633173 0.041825753 0.13390695
0001a0 0e 47 95 be c1 1f 0e 3f a4 3f 40 bf e4 08 05 3f
       -0.29155773 0.555172 -0.7509711 0.5196669
0001b0 53 3c 9c 3e dc 60 7c 3e 5a 1b 30 3f 7d 32 80 3f
       0.30514774 0.24646324 0.68791735 1.0015408
0001c0 2a 3e 10 bf e5 1c 3e 3e 19 b9 ad 3e 60 3e d8 be
       -0.56344855 0.1856571 0.3393028 -0.42235088
0001d0 4f 38 34 3e 55 7a 21 be 80 09 eb 3e 9e b7 6c bf
       0.17599605 -0.15769322 0.45905685 -0.9246768
0001e0 23 2b 9b be 1c 07 19 bc 2f 58 8d 3f c0 78 05 bf
       -0.30306348 -0.009340074 1.1042536 -0.52137375
0001f0 8a 3a ab be 6e d3 a1 bd ca 8e d4 bd b8 7a 00 3f
       -0.334431 -0.07901655 -0.10378797 0.50187254
000200 6d ab d2 3d b1 a4 be 3d 4d 29 0e 3e 64 63 4b be
       0.10286603 0.09308756 0.13882942 -0.19862133
000210 07 4c ba 3f 60 b4 99 3e a9 3a f3 3b 3b e4 c8 be
       1.4554452 0.30020428 0.0074227643 -0.39236626
000220 a3 41 06 bf bd fb 97 3f d7 49 3a 3f 2a d6 81 3c
       -0.52443904 1.18737 0.7276892 0.015849192
000230 27 7a 95 3e 08 00 52 be ed d3 1b bd 3b 56 b8 3f
       0.29194757 -0.20507824 -0.038043905 1.4401315
000240 98 66 1a bd a3 1a ab 3c 34 74 7e 3f d5 7d 75 bf
       -0.037695497 0.020886725 0.9939606 -0.9589513
000250 a1 a3 ac be 22 78 22 bf 84 24 46 bf 70 66 70 bf
       -0.3371859 -0.6346456 -0.7739947 -0.9390631
000260 fb 8a e5 be 36 60 68 3e da e0 85 3f a0 b4 2b bf
       -0.44832596 0.22692952 1.0459244 -0.67072487
000270 1e 99 ac 3e 21 a1 4d 3f 82 90 b9 be eb e2 04 bf
       0.3371057 0.8032399 -0.36243063 -0.5190875
000280 28 44 5d bd dd 2f c4 be c0 e1 bb 3e 94 a8 ff be
       -0.054020077 -0.38317767 0.3669567 -0.49933302
000290 cf 0a 13 be 0b 35 54 3d 3e 75 cc 3f 49 c8 9d 3f
       -0.14359592 0.0518084 1.597328 1.2326747
0002a0 17 1e c9 be 23 47 04 be dc 13 d8 3f 9a bd c7 be
       -0.3928077 -0.12917762 1.6881061 -0.39011842
0002b0 98 29 89 3e c2 29 36 3f 3e 7e 9b 3f f2 78 1d bc
       0.26789546 0.7115747 1.2147901 -0.009611355
0002c0 f5 92 4d bf 2d 47 ba 3e be 4e 46 bf f2 82 fc be
       -0.80302364 0.36382428 -0.774639 -0.49318653
0002d0 d7 cb 89 3d ec 81 2b 3d 42 2c dd bb ce ba 4d bf
       0.067283325 0.04187195 -0.0067496607 -0.80363166
0002e0 ba 32 a3 3e 60 ec 25 3f 7b c7 ba be d8 82 db be
       0.3187464 0.64813805 -0.36480317 -0.42873263
0002f0 e0 16 04 bf 79 d7 b8 3d 39 10 44 3f 0e c2 96 3f
       -0.51597404 0.09025473 0.76587254 1.1777971
000300 0a a8 49 bd f4 29 94 3d e7 52 12 bf b3 c0 3e 3f
       -0.04923252 0.072345644 -0.5715775 0.74512786
000310 18 25 b9 3e 50 b5 3e bf 71 9c f3 be 65 76 ae be
       0.36161113 -0.7449541 -0.47580293 -0.34074703
000320 16 6d 6b 3d a2 98 81 3f 2d 5a e9 be 30 83 84 bd
       0.05747708 1.0124705 -0.4557661 -0.064703345
000330 de 08 a8 be 2a cf 02 3f ba d1 43 be 35 8e ad 3f
       -0.32819265 0.5109736 -0.19122973 1.3559023
000340 13 35 3f bf 87 1e bc 3d 81 9d 87 3e 56 8d cb bf
       -0.7469036 0.0918551 0.26487353 -1.5902507
000350 96 50 42 3e fd 8f fc be 1a 8a 7f be 2d e2 a8 bf
       0.18976054 -0.49328604 -0.24955025 -1.3194023
000360 d2 46 f1 be 66 4f 1e 3d f3 7f 80 3e 8d f7 95 bf
       -0.47124344 0.03864994 0.25097618 -1.1716172
000370 d7 86 21 bf 48 fc 7a 3e 45 4a 88 3e 02 38 29 3f
       -0.63096374 0.245103 0.26619163 0.66101086
000380 65 49 eb ba 5b c7 b0 bd 39 0f ee 3e f7 92 d0 3e
       -0.001795095 -0.08631774 0.4649599 0.40737125
000390 7d b7 0a 3f c2 48 19 bf ff 84 a7 3e 08 70 ad be
       0.5418623 -0.59876645 0.32718655 -0.33874536
0003a0 b6 20 b1 3f f4 d3 40 3f d6 c2 f6 be 8f f0 94 3c
       1.3838108 0.75323415 -0.48195523 0.018181114
0003b0 94 3d 16 3f 7a eb 16 3f 9f c6 23 3f 02 70 3d 3f
       0.5868771 0.5895306 0.63974947 0.73999035
0003c0 50 fe 70 be 3c 41 57 be 04 b7 8f 3f 6d c9 83 bf
       -0.23534513 -0.21020979 1.1227727 -1.0295845
0003d0 85 86 5c be e6 36 bd 3e 2e 91 33 bf 26 22 68 bf
       -0.2153569 0.36955947 -0.701434 -0.90677106
0003e0 83 1d 3f bf c3 19 e8 be 4e ff d3 3e af cd bf 3d
       -0.74654406 -0.45332155 0.4140572 0.09365403
0003f0 28 ae 94 3e ff 63 7f 3e e0 f8 d6 be 72 0e 17 3e
       0.2903912 0.24940489 -0.41986752 0.14751604

bias f4 [32]
000000 af 66 84 c0 96 3f df bf d0 63 20 c0 0f 49 80 c0
       -4.1375346 -1.744128 -2.506092 -4.0089183
000010 e0 4e 1d c0 7f a3 5b c0 84 ea 34 c0 30 d9 3f c0
       -2.4579391 -3.431854 -2.8268137 -2.997631
000020 6e 70 5d c0 2b 71 64 c0 ba 24 79 c0 f9 92 81 bf
       -3.4599872 -3.5694072 -3.8928666 -1.0122977
000030 cf 45 36 c0 9c 6f 05 c0 c7 a8 b4 c0 6b 48 88 c0
       -2.8480108 -2.084937 -5.6456027 -4.25884
000040 c5 38 86 c0 4c 45 73 c0 0f 80 e1 bf 6f 87 64 c0
       -4.19443 -3.8011045 -1.7617205 -3.5707662
000050 19 81 89 c0 1c fe 8c c0 8d 06 2c c0 18 e5 04 c0
       -4.297009 -4.406019 -2.6878998 -2.0764828
000060 e8 f5 00 c0 c6 ec 27 c0 76 f4 88 c0 18 6d 8d c0
       -2.015009 -2.6238265 -4.2798414 -4.419567
000070 a9 b8 50 c0 4a 65 af c0 4c d8 06 c0 af 6b 00 c0
       -3.2612708 -5.4811144 -2.1069517 -2.0065725

weight f4 [16, 32]
000000 66 e1 35 bf 37 25 08 bf 99 4f ea 3d 3c 0a a9 bd
       -0.71047056 -0.53181785 0.11440963 -0.08253905
000010 1c 4c ac be 9b da 3f 3e 36 3b 46 bf 39 ea 67 bf
       -0.33651817 0.18735735 -0.774341 -0.9059177
000020 69 03 29 bf 06 dd 31 bf 9c 1c f4 3d 25 94 0e bf
       -0.6602083 -0.6947788 0.11919519 -0.556948
000030 ee 1c 20 bf e0 dc 73 bf 07 a6 d6 3e f1 80 7f 3d
       -0.62544143 -0.95258904 0.41923544 0.062378827
000040 7c 21 19 3f 71 2e 32 bf 3e 11 cd be b0 32 9d bf
       0.5981672 -0.69602114 -0.40052217 -1.2281094
000050 c7 00 fb be d6 2a f4 3e ee 82 c4 3d 94 7b 1b bd
       -0.4902403 0.4768893 0.09595285 -0.03795965
000060 c3 16 cd be 5e 33 51 bf c2 51 8c 3e 3b 06 d0 3e
       -0.40056428 -0.81719005 0.27406126 0.40629753
000070 7a 1b eb 3d cc 03 b1 3e e5 5e a4 bf 85 9b 97 3d
       0.1147985 0.3457321 -1.284146 0.0740271
000080 21 f7 23 3e 5d 05 e0 be eb 93 09 3f 99 97 07 3f
       0.16012241 -0.43754092 0.5374133 0.52965695
000090 16 b1 bd bd 3a 4a 3f bf 2e 6b 1b 3e 90 7b a9 3e
       -0.09262292 -0.74722636 0.15177605 0.33102083
0000a0 e7 c1 02 3e 42 68 3d 3e 55 2e 84 bf 47 58 05 bd
       0.1276928 0.18496802 -1.032664 -0.03255489
0000b0 4e 5d ee 3d b0 b8 3f bd 91 ea c3 be c7 a6 82 bf
       0.1163889 -0.04680699 -0.38264897 -1.0207146
0000c0 37 af 27 bf 12 81 5b 3e 23 6b 80 be f4 5b 47 3e
       -0.6550173 0.21435955 -0.2508174 0.19468671
0000d0 db d0 44 3e a3 a7 51 bf e9 fc cf be 90 71 e2 3e
       0.19220297 -0.8189642 -0.40622643 0.44227266
0000e0 c5 65 f0 bd e1 1b a1 3e 74 09 65 bf e7 60 8a bf
       -0.11738161 0.31466582 -0.8946755 -1.0810822
0000f0 2a 1b a3 be 28 d3 24 bf c0 59 83 3c b0 01 dc be
       -0.31856662 -0.643847 0.016034007 -0.42970037
000100 99 d3 a4 be d1 b0 88 be b3 8e 90 be 11 36 a8 be
       -0.32192686 -0.266974 -0.2823387 -0.3285375
000110 75 43 12 bf 49 5c 1b 3e 8b 05 6c be e9 9a 95 bf
       -0.5713418 0.15171923 -0.2304899 -1.16879
000120 0f 9b 18 bf 9d e1 f6 be 3f e9 bd 3e ee 48 8c bf
       -0.596116 -0.48219004 0.37092015 -1.0959756
000130 76 f6 ae bd 1a 44 e2 be 60 05 8a 3e ee a4 c8 bc
       -0.085431024 -0.44192582 0.26957226 -0.024492707
000140 2f f5 6e 3e 1a f1 1c bf bf e6 b9 be 73 00 85 bf
       0.23335718 -0.6130539 -0.36308858 -1.0390762
000150 40 8c 47 be 83 f3 cd 3e 0d 5d a2 3d e9 1d 04 3d
       -0.19487095 0.40224847 0.07927904 0.032255087
000160 c6 cd 13 bf 97 5e fa bf 94 75 b4 3e 07 43 4f 3e
       -0.5773586 -1.9560117 0.35245955 0.20240413
000170 57 c2 2b 3e 1f 85 ae 3e 29 f9 8e bf a9 1f a2 3d
       0.16773354 0.34085938 -1.1169788 0.07916195
000180 f3 0c 79 3e b3 b6 5e be 79 2f 86 bd d4 96 b6 bc
       0.24321346 -0.21749382 -0.065520234 -0.022288717
000190 76 1b 57 bd 64 13 3e bf 5d 53 aa 3d 9a 90 29 3e
       -0.052516423 -0.7424834 0.083166815 0.16559067
0001a0 f3 8d 60 3e 5a ab 54 3e a5 36 9f bf 58 33 56 3e
       0.2192915 0.2076849 -1.2438551 0.20918024
0001b0 96 b3 81 be ac b1 45 bf 21 ee 7a bf 65 4b 00 c0
       -0.25332326 -0.7722423 -0.98019606 -2.0046017
0001c0 38 24 3b bf f3 e8 09 3f 18 ac 28 3e 34 bb 8e 3e
       -0.7310214 0.5387108 0.16471899 0.278772
0001d0 8f 30 b6 3e 75 c6 63 bf 8a 91 e0 be 68 38 70 3e
       0.35583922 -0.88974696 -0.43861037 0.23459017
0001e0 e7 ad 49 be 6c 02 10 3f ee 23 19 bf 8b ac 2f be
       -0.19695245 0.56253695 -0.5982045 -0.17155664
0001f0 7a 8b 40 bf 42 eb 41 bf 70 f1 a1 3e 21 b6 13 bf
       -0.75212824 -0.757496 0.31629515 -0.5769978
000200 1e f1 72 be dc 0c 41 be 51 df 1a 3e b9 68 e7 bd
       -0.23724791 -0.18852562 0.15124251 -0.11299271
000210 f2 e7 f6 bf 84 ca 5c 3e 34 5a eb bd 9c 67 83 bf
       -1.9289534 0.21561629 -0.11491814 -1.0265994
000220 6e fd 42 bf 0d c2 e4 bd ff 00 d6 3e 72 b8 00 bf
       -0.76167953 -0.11169825 0.41797635 -0.5028144
000230 b4 18 48 be bf 9c 2d bf 64 c6 3e 3f 11 e8 66 bc
       -0.19540673 -0.678173 0.7452147 -0.014093415
000240 cd dd 73 3d 18 d4 43 bf d7 5c 44 bf 27 69 0a c0
       0.059537698 -0.76495504 -0.7670416 -2.162668
000250 c4 b8 e0 be a6 bc b0 3e b7 72 08 3e a1 bf 6a 3d
       -0.43890965 0.34518927 0.1332501 0.057311658
000260 92 d1 0e be e3 6c 9b bf aa dd c1 3e 77 01 89 3e
       -0.13947132 -1.2142605 0.3786443 0.2675893
000270 27 06 77 3e 58 c0 09 3f 04 ba 24 bf fa cf b6 3d
       0.2412344 0.5380912 -0.6434634 0.08926387
000280 27 c2 43 be 6d ff 00 bf 54 07 c6 be d6 36 40 bd
       -0.19117032 -0.5038975 -0.38677466 -0.046927296
000290 72 65 90 be 82 68 e9 bd c0 55 84 be c8 a3 07 be
       -0.28202397 -0.113968864 -0.25846672 -0.13246071
0002a0 86 5c 3b be c6 fc 14 be 61 fd ac bd 0b f9 b3 be
       -0.18297014 -0.1454955 -0.08446766 -0.35150942
0002b0 53 c6 14 be 82 95 26 be d4 b0 69 be 4f 71 d6 bd
       -0.1452878 -0.1626797 -0.22821361 -0.10470831
0002c0 bb 4e 62 be a7 85 96 be 80 16 bb be 5a 64 6e be
       -0.22100346 -0.29398844 -0.36540604 -0.23280469
0002d0 8d 00 ed bd 60 f4 2a be 28 ec d1 bd 57 74 41 be
       -0.11572371 -0.16694784 -0.10250121 -0.18892036
0002e0 f6 64 d5 be 5c 8c 7a be 8d 2b cd bc f6 ce 87 be
       -0.4167859 -0.24467605 -0.02504518 -0.26525086
0002f0 a9 00 0b bd de 1f 26 bd 72 20 94 be ce 3b 82 be
       -0.033936176 -0.040557735 -0.28931004 -0.25436252
000300 a7 05 c4 3e b5 a6 b3 3e 45 f8 2e 3e e3 ba 1e 3e
       0.38285562 0.35088125 0.17086895 0.15500979
000310 0b e3 a7 3e 60 e4 1e bf 6e 6e b8 bc cc 28 c2 3e
       0.32790408 -0.6206722 -0.022513594 0.3792175
000320 73 8f 85 3d c1 41 cd bb 57 c9 c0 bd 94 fc 23 bf
       0.065215014 -0.006263942 -0.094134025 -0.6405728
000330 56 8f 15 3e e1 4c 15 3e ad ce b3 bf 47 0c aa bf
       0.1460546 0.14580108 -1.4047447 -1.3284997
000340 11 97 02 bf 29 44 b2 3e 4c 35 3e 3e 83 8d de 3d
       -0.5101176 0.34817627 0.18575019 0.10866835
000350 aa 6e 12 3d 4d 1d b4 be 44 6a 1d 3e 8b 8f 99 bd
       0.03575007 -0.35178605 0.15372568 -0.07498082
000360 3e e7 38 be 15 cd 96 3d 75 04 93 bf 9b 08 c9 bf
       -0.18056962 0.07363335 -1.1485735 -1.5705751
000370 e9 5b 4b bf df 43 84 bf 2e 9c e2 bd 8e c6 49 bf
       -0.7943712 -1.0333213 -0.11064945 -0.78818595
000380 35 fb 33 be 03 1c 4b be 18 57 9a bd c5 0b 69 be
       -0.17576297 -0.19834904 -0.07536143 -0.22758396
000390 1a 5f 30 bd 7d e0 61 bd 23 20 e3 bd fb 6a db bd
       -0.043059446 -0.05514573 -0.11090114 -0.10713764
0003a0 1f 67 2e be 08 93 a6 be 16 cf 1a be 13 5b 57 be
       -0.17031525 -0.3253405 -0.1511806 -0.21030836
0003b0 fe d1 87 bd 08 33 0f bd 18 cf 7c bd aa 9b c4 bd
       -0.0663185 -0.034960777 -0.061720937 -0.09600003
0003c0 8d b6 35 be a7 d5 19 be a5 4f 97 bd 48 4d 57 be
       -0.17745419 -0.15022908 -0.07388238 -0.21025574
0003d0 09 20 b0 be f2 83 2c be 23 46 f7 bc 5e 54 f0 bd
       -0.3439944 -0.16847208 -0.030184811 -0.11734842
0003e0 55 6e e5 bd af 4e 83 be 10 f5 e1 bd 94 e2 d5 bd
       -0.11202685 -0.25645968 -0.1103307 -0.10443607
0003f0 93 85 88 be 21 14 12 be 53 6d a3 be 95 e4 3f be
       -0.2666441 -0.14265491 -0.31919345 -0.18739541

bias f4 [16]
000000 a7 d6 5f c0 86 99 5c bf d4 42 33 c0 bb 2c 2e bf
       -3.4974763 -0.8617176 -2.8009539 -0.68037003
000010 79 48 2a c0 ee f0 ae be c9 7b 60 3d 0f 11 75 be
       -2.6606734 -0.3416819 0.05480555 -0.23932289
000020 55 b6 5e 3d ee 6b 07 c0 02 d6 33 bf 93 69 7c bf
       0.054373104 -2.1159625 -0.70248425 -0.98598593
000030 cd d8 29 c0 77 4c 8f bf 55 4c 8c bf 20 a0 73 bf
       -2.6538575 -1.119521 -1.0960795 -0.95166206

weight f4 [8, 16]
000000 2a 94 36 3e bd da fe bd 00 4b dd 3d 5d a7 9e bd
       0.17829958 -0.12444065 0.10805321 -0.07746766
000010 dd 9e 78 3e 4e d4 b0 3c a0 c8 b3 bd d4 23 4c 3d
       0.24279352 0.02158561 -0.087785006 0.049838856
000020 80 05 1b be d3 f6 0f 3e f1 1a f4 bd d6 e5 5c bd
       -0.15138817 0.14059 -0.11919201 -0.053930126
000030 26 93 92 3d 37 24 8b 3c 54 a9 3d bd 2d da 39 3c
       0.071569726 0.016985042 -0.046304062 0.011343521
000040 b7 d2 2c 3e c5 44 08 be a8 7f a3 3d f7 e5 f1 bd
       0.16877256 -0.13307483 0.07983333 -0.118114404
000050 74 26 e0 3d 6b 53 08 3e 4d a2 17 be 99 25 f9 3d
       0.10944834 0.13313071 -0.14808007 0.12165374
000060 4f fd 06 bd 48 5e a4 3d 81 56 15 3e 57 1b fd bd
       -0.032956418 0.08025795 0.1458378 -0.1235873
000070 cf c0 11 3b 4e 58 5e bd 80 e3 00 be 18 68 b0 bd
       0.0022240167 -0.054283433 -0.12586784 -0.08613604
000080 7b 48 e2 3d c1 6a 2a be c5 16 be 3d 07 68 46 be
       0.11048981 -0.16642286 0.09281687 -0.19375621
000090 d8 2f 1e 3e 17 47 46 be 08 6b 8a 3c 69 e0 77 bd
       0.15447938 -0.19363056 0.01689674 -0.06051675
0000a0 22 68 91 bd 8a 41 d3 3c e8 af 07 3e b2 97 33 be
       -0.0709994 0.025788087 0.13250697 -0.17538336
0000b0 69 25 ed 3d cf bc c5 bd 60 3f 96 be ed 15 10 be
       0.11579401 -0.09655153 -0.29345226 -0.14070864
0000c0 b3 0a 4a be 01 e6 2f 3e 5e 66 04 be 73 88 a5 3d
       -0.19730644 0.17177583 -0.12929675 0.08082666
0000d0 ee ef cc bd 18 ea ee 3d 2e 57 18 3e 51 6a 47 3e
       -0.100067005 0.116657436 0.14877006 0.1947415
0000e0 4a 42 0d 3c 60 7f 29 be e6 58 84 3d dc 69 fc bc
       0.008621762 -0.16552496 0.064622685 -0.030812196
0000f0 16 5d 13 bd 9d 15 d2 3d b6 10 27 3e 95 ec ef 3c
       -0.035977446 0.10258029 0.16314968 0.029287616
000100 4b b6 1d 3d a2 78 20 be 7c 33 56 3d c2 23 8a 3d
       0.038503926 -0.15671018 0.052295193 0.067451015
000110 18 06 b2 3d d1 1d c6 bc 60 c5 05 bd d8 e3 c6 3d
       0.086925685 -0.02418414 -0.032658935 0.097114265
000120 99 2f 36 bd b1 a2 d1 3d 86 33 40 bc 96 54 18 bc
       -0.044478986 0.10236109 -0.011731034 -0.009297511
000130 28 62 c6 3d 9f c2 27 bd 97 f1 8a 3d 86 70 34 be
       0.096866906 -0.04095709 0.06784361 -0.1762105
000140 48 35 d0 3d ba dc 98 bd 6d 57 a4 3d b2 b4 fb bd
       0.101664126 -0.07463975 0.08024488 -0.12290324
000150 28 05 ca 3c 9b 94 03 3e e9 af 9b bc 82 54 69 bc
       0.024660662 0.12849657 -0.019004779 -0.01424134
000160 1a ff 2e be e5 75 e1 3d d2 15 99 3e 2b ae e8 bd
       -0.17089501 0.11008815 0.2989946 -0.11361345
000170 f9 29 54 3d da 70 44 be 20 07 9f bd b5 df 6a be
       0.05179784 -0.19183674 -0.07765031 -0.229369
000180 55 ae 54 be 31 98 27 3d 49 3a a5 bd 0f 8b 9a 3d
       -0.20769627 0.040916625 -0.08067758 0.075460546
000190 7b 95 9c bd 42 6f 12 be c2 2b 45 3d 7a 3e 56 3d
       -0.07645699 -0.14300254 0.048137434 0.052305676
0001a0 fc a9 5c 3e ea 95 dd bd 46 3e be bc d3 d0 0c 3e
       0.21549219 -0.108196095 -0.023223054 0.13751535
0001b0 51 b6 bb bc 7b 93 b3 3c 62 0d 3f 3e c1 9c 19 3d
       -0.022914084 0.02192091 0.18657449 0.037503008
0001c0 3a 4d b7 3d f7 fe c5 bd 2e 31 96 bb 9f 29 c2 bd
       0.08950277 -0.09667771 -0.0045834994 -0.09480595
0001d0 d4 37 3e 3e 8c 76 8e 3d 92 e7 a8 bd d2 31 99 bd
       0.18575984 0.06956205 -0.082472935 -0.074802056
0001e0 b3 5a 3b be e9 0e e8 3d 79 8c f3 bd 96 e3 d6 bd
       -0.18296318 0.11330969 -0.118920274 -0.10492627
0001f0 33 46 01 3e 6d 02 48 bd 43 21 77 be 4b 80 32 be
       0.12624435 -0.04883044 -0.24133782 -0.17431752

bias f4 [8]
000000 27 ef 8a bc a6 d3 67 bd 53 0d 24 3e 40 1c 89 3d
       -0.01695974 -0.056598328 0.16020708 0.066948414
000010 70 4d 89 bc b5 fe 7c 3d 57 bd db bd da c6 e4 bd
       -0.016760558 0.061766345 -0.10729473 -0.111707404
