models/NeuMF_parametric_dropout32.pt (torch, 695067 bytes, 16 tensors)

weight f4 [943, 32]
000000 c9 20 6c bf 17 e6 9c bd a3 00 21 bf c9 8d 28 3d
       -0.92237526 -0.07661074 -0.62891597 0.04115084
000010 a9 96 de 3f 87 f9 a6 3f d6 90 d4 3e ff 1d 3d 3f
       1.7389728 1.30449 0.4151675 0.73873895
000020 dc ce e9 bd 3d 80 9c 3e e2 f8 f1 be c7 49 8c bf
       -0.114164084 0.30566588 -0.47260195 -1.0960015
000030 60 22 f4 3f 34 39 b5 bf 49 3e cb bf b6 a7 8c bc
       1.907299 -1.4158082 -1.5878383 -0.017169815
000040 29 af bf 3f 5a 6d 3c bf ba 8e 3d be 1b ed 3c bf
       1.497533 -0.7360436 -0.18511477 -0.73799294
000050 55 2f d3 3e 2d d5 67 bf cc d3 91 3f b4 26 cc be
       0.4124705 -0.90559655 1.139276 -0.39873278
000060 20 bc d9 be de 04 e2 be ca 21 25 40 cc e5 dc 3d
       -0.4252634 -0.44144338 2.5801873 0.10786018
000070 7f 62 fd 3e 70 1d 30 bf 5d c7 2f 40 55 e3 17 bf
       0.4948921 -0.6879492 2.7465432 -0.59331256
000080 da c1 3d 40 71 d9 9e 3f 2b c3 34 3e 31 0d 52 3f
       2.9649568 1.2410108 0.17652576 0.8205138
000090 1a 5f c9 bf db 68 82 bf d0 ba ff bf 5f 82 77 3f
       -1.5732148 -1.0188249 -1.9978886 0.96683306
0000a0 48 07 a3 3f 5c 46 4f 3f 40 d4 af be f1 68 16 bf
       1.2736597 0.80966735 -0.3434162 -0.5875388
0000b0 02 e7 0f c0 51 7e 16 40 7c 73 66 3f 79 98 da bf
       -2.2484746 2.3514597 0.90019965 -1.7077781
0000c0 a7 af e8 3e b7 16 66 3e 93 bf bb 3f 25 d2 20 bf
       0.45446512 0.22469603 1.4667839 -0.62820655
0000d0 a1 df ef bf 1f 17 14 c0 3b cc bf bf 16 95 7c 3f
       -1.8740121 -2.3139112 -1.4984201 0.9866499
0000e0 4a d2 00 3c f2 06 c0 be 88 c3 ea 3e 7a b8 9b 3f
       0.007862637 -0.375053 0.45852304 1.2165673
0000f0 ea 7c 97 bf e4 ab ea 3d dc 08 4f bf bf f2 e0 3e
       -1.1834996 0.11458567 -0.80872893 0.439352
000100 4e 97 f2 3e 9f 53 ed bc be a4 42 bf 51 d5 84 3f
       0.4738106 -0.028970538 -0.76032627 1.0377599
000110 99 29 89 bf 1b 20 8a 3e 58 2f 30 bf bc 8c 79 3e
       -1.071582 0.2697762 -0.6882224 0.24370092
000120 9a ee 91 3e 3a c2 8f 3f d2 5e 8d be 60 bb 45 3e
       0.2850235 1.1231148 -0.27611405 0.19309759
000130 de c3 bb 3f c1 0c a1 3e 35 2b 2d 3e 60 e2 02 bf
       1.4669149 0.31455043 0.16911013 -0.5112667
000140 cc be 2e 3f a5 21 50 3f 5f 8d 0d c0 b2 a0 04 40
       0.6825988 0.8130134 -2.2117536 2.072308
000150 d5 1e 4e bf 4e 5b 12 c0 73 5d 88 3e d8 9f 93 3f
       -0.80515796 -2.2868228 0.26633796 1.1533155
000160 2d 93 af 3e 9c b5 00 be c7 57 3f bf c4 29 c2 3f
       0.34291974 -0.12569278 -0.7474331 1.5168996
000170 f4 b7 78 bc 97 82 72 bf d5 4c 0d c0 f3 e6 6c 3f
       -0.015180577 -0.94730514 -2.2078145 0.925399
000180 03 c6 74 3f 0e fb 11 3f 54 b6 24 bf 25 3d 1a 3f
       0.9561464 0.57023704 -0.6434071 0.6024955
000190 f5 4f 71 bf 71 b8 cf be 9a c5 27 bf 58 f9 bc 3f
       -0.9426263 -0.40570405 -0.6553589 1.4763594
0001a0 8f 9c 94 3f b6 0e ff 3e c1 b9 0a 3f ae fa b7 bf
       1.1610278 0.4981591 0.5418969 -1.4373376
0001b0 41 49 47 3d d4 44 08 bf 42 08 88 3e 15 eb e7 3e
       0.048653845 -0.53230023 0.265688 0.4529654
0001c0 a0 44 e1 3e 07 45 82 3f 95 30 97 be 2b 02 2b be
       0.4399767 1.0177315 -0.29529253 -0.16700046
0001d0 ea fb b2 be 1f e1 1d bf ea f2 8b 3e 8a 5a 1a 3e
       -0.3495782 -0.6167163 0.27333766 0.150736
0001e0 54 3a 41 bf 94 7b 9f bf 39 1e 0c bf 89 5c 8c bf
       -0.75479627 -1.2459588 -0.54733616 -1.096574
0001f0 ae 87 99 bf 65 2c a9 bf 99 51 3a bf 90 ee 52 bf
       -1.1994531 -1.3216673 -0.7278076 -0.8239527
000200 0b 36 89 3f 52 dd 4b 3f b6 61 f7 3e 9c 48 15 c0
       1.0719618 0.79634583 0.48316735 -2.3325567
000210 15 4c be 3f ee 9b 45 3e 7f cc 9f 3f bf 7b 0e 3f
       1.4866968 0.19297764 1.2484282 0.5565757
000220 af b3 9a 3f b8 23 52 3f ab 35 a9 bf 1f 29 d3 bf
       1.2086085 0.8208575 -1.3219503 -1.6496924
000230 a4 da b1 3e 0a c2 58 3e 53 7d b0 3e 23 b8 9f 3f
       0.34737122 0.2116777 0.34470615 1.2478069
000240 0f eb cd bf 1e 71 f3 3c 4f c7 55 bf 4f 01 3a 3d
       -1.6087359 0.029717024 -0.83507246 0.045411404
000250 1b 48 82 3f de 17 7f 3f 72 46 61 3f 72 45 90 be
       1.0178255 0.99645793 0.87998116 -0.28177983
000260 5b ca b5 bf 2f bf 33 bf c7 ed 50 3f 52 a4 db bf
       -1.4202379 -0.702136 0.8161282 -1.7159522
000270 a6 5e bb bf ed 2e 21 c0 3c d8 e5 3f ee 65 2d 40
       -1.463826 -2.5184891 1.7956614 2.7093463
000280 14 8a fb bf 41 a3 b9 bd b6 c9 6a 3f d9 41 e2 3e
       -1.9651513 -0.09064341 0.91714036 0.44190863
000290 b6 ff 54 bf c0 22 2e 3e b4 be 8f bf fb 49 87 3f
       -0.83202684 0.17005444 -1.1230073 1.0569452
0002a0 37 49 85 3f eb 6e 98 bb 59 aa a9 be ee c8 41 bc
       1.0412968 -0.0046518943 -0.33137777 -0.0118276905
0002b0 94 ba b4 3c f0 b3 84 be a7 6c 7f bf 16 32 15 bf
       0.022061624 -0.2591853 -0.99775165 -0.5827955
0002c0 f8 06 60 bf d5 21 a3 bf 27 4c 20 bf 1e 36 0e 40
       -0.87510633 -1.27447 -0.626162 2.222053
0002d0 9a 12 6f 3f fb 47 56 40 ca 3e bd 3e 77 71 1a c0
       0.9338776 3.3481433 0.36961967 -2.4131753
0002e0 8d 64 2e bf b0 50 b3 3f b9 69 11 c0 e0 c9 c6 be
       -0.6812218 1.4008999 -2.2720778 -0.38825893
0002f0 a7 be 69 3f ae 24 b5 be 3c 0d c8 bf 5d a1 1f 3f
       0.9130654 -0.35379547 -1.5629039 0.62355596
000300 bc fa 5d 40 f4 31 5b be a3 7b ff be 5f d0 63 be
       3.4684286 -0.21405774 -0.49899015 -0.22247456
000310 60 0c bc 3e 41 28 2c bf 29 bb 77 bf c7 32 d4 bf
       0.3672819 -0.6724892 -0.9676996 -1.6577996
000320 6d ab 13 c0 45 ac e5 3f 81 1d 88 bf 4d bf fb 3f
       -2.307338 1.7943197 -1.0634004 1.9667755
000330 60 91 b3 be 22 d9 19 40 53 55 ae bf fc 93 95 3f
       -0.3507185 2.4038777 -1.3619789 1.1685786
000340 af 25 92 3f 39 39 01 bf 83 03 b0 3f 18 7a c4 3e
       1.141775 -0.5047794 1.3751072 0.383744
000350 ec af 55 3f f0 1d db bf 33 06 ac 3f f1 d3 df be
       0.8347156 -1.7118511 1.3439392 -0.43716386
000360 02 0a 5f bd 41 6f cf be 50 af 07 3e a2 70 fe 3e
       -0.054452904 -0.40514567 0.1325047 0.49695307
000370 5f b7 bd bf 3b 0b 39 3f b1 38 ae 3f df f4 92 be
       -1.4821585 0.7228276 1.3611051 -0.28702447
000380 cc fe f3 3b 5c f4 a2 bf 7d 08 74 be b4 43 ca be
       0.0074461456 -1.2730823 -0.23831363 -0.39504778
000390 cf bc 1f bf db 5d 8d bf b0 ec 23 40 d3 ea 11 be
       -0.62397474 -1.1044267 2.5613213 -0.14249735
0003a0 b3 2e 74 bf 90 a4 05 bf 54 c2 b2 3c 11 23 ab 3f
       -0.9538376 -0.5220423 0.021821178 1.3370076
0003b0 d6 ff ae bf 78 88 b0 3f 6c 17 bb bd ae 73 a3 3f
       -1.3671825 1.3791647 -0.09135327 1.2769678
0003c0 1a 21 d0 3c a3 35 a1 3f ba 8e 3e bf 72 ea 91 3f
       0.025406409 1.2594494 -0.74436533 1.1399672
0003d0 3f e2 76 3f 4c 0c b0 bf b6 44 28 be e7 92 b6 3e
       0.96438974 -1.3753753 -0.16432461 0.35658953
0003e0 9e 4a f5 3c d9 b5 63 bf 57 53 b4 bd c2 cd 70 bf
       0.029942807 -0.8894935 -0.08804958 -0.9406396
0003f0 d2 10 54 bf 3e 63 0b 3e 47 a9 49 3e cf 2a 55 3f
       -0.82838166 0.13612077 0.1969348 0.83268446

weight f4 [1682, 32]
000000 2a 67 a8 bf 65 0a 3e bf e7 d5 fe be 38 26 e5 bf
       -1.3156483 -0.7423461 -0.4977257 -1.7902288
000010 3f 92 2b 3f 1a 45 f3 be bb 22 1e 3f 50 db bb 3f
       0.6702003 -0.47513658 0.61771744 1.4676304
000020 31 0f 2e c0 de 7c 2c bf f8 c8 3c bf 1c e0 b7 3f
       -2.7196772 -0.6737803 -0.73744154 1.4365268
000030 e1 a2 00 3e 06 18 a7 bf d9 d7 08 bf d4 16 19 bf
       0.12562133 -1.3054206 -0.5345436 -0.5980046
000040 9f 2d 09 40 a0 ba 31 bf d1 ff 01 40 00 5f 23 3f
       2.1434095 -0.6942539 2.0312388 0.63816833
000050 e3 1c 0f bf 31 ca 97 bf 6e 3a 84 3f d2 39 db 3f
       -0.5590345 -1.1858579 1.0330331 1.712702
000060 e3 f3 27 3f ca 3e 21 bf db 90 96 bf f3 93 d1 3f
       0.65606517 -0.62986434 -1.1762956 1.6373276
000070 79 d4 18 bf be 30 ec be 90 cf 17 3e eb 93 80 bf
       -0.5969921 -0.46130937 0.14825273 -1.0045141
000080 36 2b 7a 3f b5 81 53 bf c7 d6 48 bf 91 cb 25 3e
       0.97722185 -0.8261979 -0.78452724 0.16190936
000090 79 1e 0b 3f 13 9c 81 be fd 1b b3 3f 4e 6b 48 3f
       0.5434337 -0.25314388 1.3992916 0.78288734
0000a0 df b5 97 3f 2e 07 e3 3f cb 91 bd be f0 14 6d 3f
       1.1852378 1.7736566 -0.37025294 0.92610073
0000b0 82 17 33 3f 9c f7 e3 be 96 93 5b 3f b0 94 24 3f
       0.69957745 -0.44524848 0.85772073 0.6428938
0000c0 a0 0a 0a 3e 73 ac b8 3e 08 a3 a4 bf 21 92 9b bc
       0.13480616 0.36069068 -1.2862253 -0.018990578
0000d0 4a d0 55 bd 84 70 02 bf 14 98 58 3e 2c f5 f0 bd
       -0.052200593 -0.50952935 0.21151763 -0.11765513
0000e0 e8 b0 34 3f ca 33 0a c0 bc 74 e4 3e 33 5e 94 bf
       0.7058244 -2.159411 0.4462031 -1.1591247
0000f0 ad 5b 0b bf 19 af 02 bf f6 bc 48 bd c6 25 c5 be
       -0.5443676 -0.5104843 -0.049008332 -0.3850538
000100 f0 c1 f3 3c c0 c3 26 bf 22 62 2e 3e 85 31 9b be
       0.029755563 -0.6514244 0.17029622 -0.30311218
000110 84 8e 2d bf 9e 52 28 3d 0d e2 eb bd 85 a2 b4 bf
       -0.67795587 0.041094415 -0.11517725 -1.4112097
000120 3e fa ba 3f 51 73 85 3e eb 7a e2 3d 50 1b 97 3f
       1.4607618 0.26064542 0.11058601 1.180521
000130 20 b3 be bf 26 e6 9e 3e bf e0 2c bf 23 57 05 bf
       -1.4898415 0.31034964 -0.67530435 -0.52086085
000140 d7 14 69 bf 88 fd c4 3f 56 4e e9 bf af bb 65 3e
       -0.91047424 1.5389872 -1.8227031 0.22434877
000150 d2 ab 0b 40 6d 66 2b bf 25 29 ca 3f b9 fc 61 3f
       2.182362 -0.66953164 1.5793806 0.8827625
000160 ce d6 06 bf d2 02 13 bf 15 12 63 3e 52 a8 fd bf
       -0.52671516 -0.5742618 0.22174866 -1.9816992
000170 d2 d1 81 bf f3 eb 84 3e d2 99 84 be ab c2 0c bf
       -1.0142157 0.25961265 -0.25898606 -0.5498454
000180 d8 b2 e1 3f 96 4c 1f 3f 52 ba 22 c0 f9 0d 98 3f
       1.7632704 0.62226236 -2.542622 1.1879264
000190 b8 f1 3a 3f f9 ce 0a c0 96 72 af bf 83 bf 95 3f
       0.73025084 -2.1688826 -1.3706844 1.169907
0001a0 46 4b 56 3f 6e a8 45 bf 8c 3f a9 3f db fb 4b bf
       0.8370861 -0.7721013 1.3222518 -0.79681176
0001b0 48 59 d8 bf e1 4b 59 3f f4 bf 13 3f d7 44 4f bf
       -1.6902246 0.8488141 0.5771477 -0.80964416
0001c0 e9 34 b9 3e 11 87 3d c0 d8 47 b8 be fa 6d 28 40
       0.3617318 -2.9613688 -0.35992312 2.6317124
0001d0 b9 1a a0 3f 9a 97 95 3f cd 17 c5 3f 7e e4 ba be
       1.2508155 1.168689 1.5397888 -0.3650245
0001e0 7d 2f 48 be 89 d0 d6 bd 02 19 1e 40 2d e8 86 be
       -0.19549365 -0.10488994 2.4702764 -0.2634901
0001f0 c3 10 a6 3f 72 08 80 bf a7 74 bb bf 6b 22 b7 bf
       1.2973865 -1.0002577 -1.4644974 -1.4307379
000200 c2 b7 fb be 8e 70 f0 bd 03 36 c7 bf 5b e1 57 3f
       -0.49163634 -0.11740218 -1.5563358 0.8432824
000210 54 af 8e 3d b7 f9 b8 bf 78 cc a1 bf 65 59 d1 3f
       0.06967035 -1.4451207 -1.2640524 1.6355406
000220 0a 7b e4 3e a8 9a 37 bf c5 3b 4b 3f c6 2f d1 3d
       0.4462512 -0.7172036 0.79388076 0.1021419
000230 9d fa eb 3e 10 65 e4 3f 5a ec df be 74 6e 46 bf
       0.4608964 1.7843342 -0.4373501 -0.7751229
000240 06 30 ff be 52 f8 16 3e cd 97 16 3e ab b7 0f 3e
       -0.49841326 0.14743164 0.14706345 0.14034908
000250 79 b8 08 40 35 30 6a bf 72 ae 54 40 6e 2a 81 bf
       2.1362593 -0.9147981 3.3231473 -1.0091074
000260 a4 60 1e bf 88 9d b3 be fb 53 de be 18 e9 d6 3f
       -0.6186621 -0.35081124 -0.43423447 1.6789885
000270 8e db 8a 3c 67 0a 13 3f f1 66 f2 3f a5 13 c2 3f
       0.016950395 0.5743775 1.8937665 1.5162245
000280 c7 48 90 3e 02 d5 4d bf df 5d 6b 3d 78 47 51 be
       0.28180525 -0.8040315 0.05746257 -0.2043742
000290 25 d2 58 3f e7 dd 6e 3d 3c b5 89 3f 34 0b 84 bf
       0.84695655 0.05831709 1.0758433 -1.0315919
0002a0 cd bb d1 be f4 44 87 be df 42 99 bf ae fa 48 bf
       -0.40963593 -0.26419795 -1.1973532 -0.78507507
0002b0 b9 2e 34 bf 8e 47 64 3f 80 1f cb be 3f e0 17 3f
       -0.70383793 0.89171684 -0.3967247 0.5932655
0002c0 f8 47 c9 be 7e 28 ae be 84 0c cf be 59 9b f1 3e
       -0.3931272 -0.34015268 -0.40439236 0.47188833
0002d0 f1 49 01 40 c9 82 0e bf 59 b3 91 3f 9a 51 a1 3f
       2.020138 -0.5566831 1.1382858 1.2603028
0002e0 2d 84 0a 3f 23 fe 80 bd 7e 7e 9c be 70 e2 7d bd
       0.54107934 -0.06298473 -0.30565256 -0.061983526
0002f0 43 ce f8 be 11 77 85 3f 36 79 af be 0d 5a 91 bf
       -0.48594865 1.0426961 -0.34272164 -1.1355606
000300 04 bb a5 be bc 60 45 be 32 28 88 bf f7 6d 7c be
       -0.32369244 -0.19275182 -1.0637267 -0.24651323
000310 a0 a9 74 3f 6b b3 19 3f 20 20 ad 3f 41 3b a3 3e
       0.9557133 0.60039395 1.3525429 0.31881145
000320 f4 c1 a8 be a2 fd 9f bf 84 1a d0 3d b8 b1 af be
       -0.32960474 -1.2499278 0.101613075 -0.34315276
000330 d8 a5 9c be ad 6d 4d 3f 65 87 9f bf 62 0d 12 bf
       -0.3059528 0.80245477 -1.2463194 -0.5705167
000340 59 18 2d be bc d3 be 3f 0b 4d 8e 3d 00 e7 18 c0
       -0.16903819 1.4908366 0.069482885 -2.3890991
000350 95 2f 19 bf 26 85 d5 3f 2a f6 c9 3e c7 e3 73 bf
       -0.5983823 1.6681259 0.3944562 -0.95269436
000360 df f1 85 3f 2b 1d cc 3f 08 5c 87 be f8 42 9a be
       1.0464438 1.5946401 -0.26437402 -0.30129218
000370 f6 96 80 be e4 43 bf 3f b3 8b 09 c0 68 06 47 bf
       -0.25115174 1.4942594 -2.1491516 -0.7774415
000380 b7 35 e2 3e fb 17 1f 3f b5 04 e7 be 0d f9 e5 bf
       0.44181606 0.62145966 -0.4512078 -1.7966629
000390 1d d8 94 3f a5 1f 20 c0 55 ee 10 40 6e bd bb 3e
       1.1628453 -2.5019314 2.2645466 0.3666796
0003a0 75 21 0a 3f e8 f1 8f 3f 6f 2d 85 3e 40 30 dc bf
       0.539573 1.1245699 0.26011226 -1.7202225
0003b0 ec 9b 1e c0 d7 4c e8 bf 15 97 c3 bf c8 50 cf 3e
       -2.4782667 -1.814845 -1.5280482 0.4049132
0003c0 0b cf 98 3d ef 8b 7b bd 67 0f 08 40 34 01 3f c0
       0.07461365 -0.061412748 2.12594 -2.9844484
0003d0 ce 87 c7 bf 6a b0 bb bf 9e f1 dc be 08 ab ae bf
       -1.5588319 -1.4663212 -0.4315309 -1.3645945
0003e0 74 99 da 3e 79 86 cd 3f b9 db 1b 40 00 ca 7f bf
       0.426952 1.6056663 2.4352858 -0.999176
0003f0 96 ee d1 3f ec 2a 1a 3e 9a 91 9c 3f 9f 7c cb bf
       1.6400936 0.15055436 1.2231934 -1.5897406

weight f4 [8, 32]
000000 01 76 ad be 26 2f 74 3e 8e 24 ba 3d 0b a8 cf 3d
       -0.33879092 0.2384611 0.090890035 0.101394735
000010 aa 12 99 3e 83 e3 5e be eb bf 88 3e 9c 00 97 be
       0.29897052 -0.21766476 0.26708922 -0.29492652
000020 5d 6a dc bd a1 a9 72 3e ab 88 32 3c 27 b5 aa be
       -0.10762475 0.23697521 0.010896842 -0.33341333
000030 5f c9 17 3e 90 71 99 be 9c f5 ec be 7d 99 1c 3e
       0.1482291 -0.29969454 -0.46281135 0.15292926
000040 fa 00 32 bd 1a 95 61 3d 41 99 9d 3e 28 e1 39 3f
       -0.043457963 0.055073835 0.30780986 0.72609186
000050 09 86 a4 3e 78 56 8d 3e 9d 46 19 be 20 7c 69 3e
       0.3213351 0.27605033 -0.14968343 0.22801256
000060 59 e1 42 be b8 2c b6 be 9e 37 80 3e 79 1b 12 bd
       -0.19031276 -0.35580993 0.25042433 -0.03567073
000070 9b 0f 09 3e 91 c7 c7 3d af 9c aa 3d b2 f9 e3 3e
       0.1338486 0.09754861 0.08330666 0.4452644
000080 6e e7 93 be 66 3d 51 3d ae ac 29 bd 7c d6 15 be
       -0.28887504 0.051083945 -0.041424446 -0.146326
000090 3d 6e fc 3c 19 65 83 bd 42 a9 90 bd bc ff c1 3d
       0.030814284 -0.06415767 -0.07063533 0.094726056
0000a0 ab 28 8e bd db b8 2c be 5b 37 9b be 80 33 93 3e
       -0.069413505 -0.16867392 -0.3031567 0.2875023
0000b0 77 a6 19 bb 3b 4e 88 3d 1e bf 01 3e 91 f1 00 be
       -0.0023445168 0.06655546 0.12670562 -0.1259215
0000c0 52 72 cd be 7e fb 5b 3d c5 6e 4f 3e 4e c0 9c 3e
       -0.40126282 0.05370664 0.20257099 0.30615467
0000d0 e1 26 b0 be 01 b9 0a be 69 16 a7 3c 58 d5 9a bd
       -0.34404662 -0.13547136 0.020396428 -0.07560223
0000e0 96 66 88 3e 57 02 6f be 2c 24 84 3c e6 92 c4 be
       0.26640767 -0.23340736 0.01613053 -0.38393325
0000f0 c2 44 2d be 14 c4 24 3e 9e ff 6f be be 61 17 be
       -0.1692076 0.16090423 -0.23437354 -0.1478338
000100 d8 df 70 3e 23 d1 24 bd 43 c6 d5 bd e7 7c 30 be
       0.2352289 -0.04023851 -0.10438206 -0.17235146
000110 fc 89 f2 bd dd cc f2 bd 6c 3b b1 bd 70 8e e2 3d
       -0.11842725 -0.11855481 -0.08653912 0.11062324
000120 a4 e9 89 be d2 ad b4 bd 0f ce d8 3e 45 f3 92 bd
       -0.26936066 -0.08822216 0.4234471 -0.07175306
000130 23 c2 28 3e 0b 85 91 bd 2f 04 4e be cd c0 cd 3d
       0.16480307 -0.07105454 -0.20118783 0.100465395
000140 75 d5 f0 3e 32 77 19 be 6e 76 5b be 0a 1a 04 be
       0.47037855 -0.14986876 -0.21431896 -0.12900558
000150 5a 16 97 3c aa a6 23 bd a7 47 7f 3d b4 c5 38 3e
       0.018443275 -0.039953865 0.062324192 0.18044168
000160 f3 a8 f4 bd 49 06 3e 3e ba f0 e1 bd 42 73 df bd
       -0.11946287 0.18557085 -0.11032243 -0.109106556
000170 78 ac d3 3d e4 31 a3 bd 30 20 79 3d 49 c4 04 be
       0.1033563 -0.079685 0.060821712 -0.12965502
000180 1f 7b 0c be 57 06 95 be 9b c4 d4 be 48 85 92 bd
       -0.13718842 -0.291064 -0.41556248 -0.07154328
000190 ab f6 f0 3e 60 5c 09 be 32 b2 e7 bd c9 8a 2f 3e
       0.47063193 -0.13414145 -0.11313285 0.17142786
0001a0 0e 42 dc bd a1 6f dc 3c 19 2d 0e 3d 73 03 87 3e
       -0.107547864 0.026908698 0.034710977 0.2636982
0001b0 64 d8 da bd d9 d6 46 bd e7 65 b7 bd 50 6b 3a 3d
       -0.106858045 -0.04854474 -0.08954983 0.045512497
0001c0 3d 56 fc 3d 0f 8e c0 3b c6 84 8a ba 25 2e 1d 3e
       0.12321136 0.0058763097 -0.0010568134 0.15349634
0001d0 60 ce 2f 3c 28 4b f7 bc c6 fb ae 3e b0 7c d1 bd
       0.010730356 -0.030187204 0.34176463 -0.102288604
0001e0 e7 6d 98 3d 36 4d 21 be 02 24 bc 3d bd e8 ba bd
       0.07442837 -0.1575211 0.091865554 -0.091264226
0001f0 a3 2a a6 3d 5d 2a b0 3e bd 1f 3d bf 15 34 5f be
       0.08113601 0.3440732 -0.73876554 -0.21797211
000200 2a 1f 68 3e 5f 63 73 be c5 d8 2f 3d 04 88 89 3d
       0.22668138 -0.23768376 0.042931337 0.06715396
000210 34 1a d9 3d da d4 73 be 19 42 c1 bd f0 23 93 b9
       0.10600701 -0.23811665 -0.09436435 -0.000280648
000220 92 5a 01 3e 06 cd 0a 3f 69 3d ca bd 33 0d ce bd
       0.12632206 0.5421909 -0.09874994 -0.10061111
000230 bd 61 ba be bc 5f 02 bf 7e 79 44 be 8f 59 9b be
       -0.36402693 -0.5092733 -0.1918697 -0.30341765
000240 df 8d b8 be b5 ff 88 bd c9 eb 27 3e f7 18 0a be
       -0.3604574 -0.06689397 0.16398539 -0.13486086
000250 f1 c4 09 3f ac 80 0c 3c b4 70 44 3e 55 52 23 3c
       0.53816134 0.0085756 0.19183618 0.00996836
000260 cc 12 06 3e 6d 7b cb bd 25 b0 de 3d 55 72 05 3f
       0.13093108 -0.09935651 0.10873441 0.5212758
000270 aa 81 01 bf e4 c6 45 3d 24 4d e6 3d 80 be 46 3e
       -0.50588477 0.04828538 0.11245182 0.19408607
000280 b0 3b a9 3e a0 50 de be 1c b7 ad 39 67 43 32 bd
       0.3305335 -0.43420887 0.00033133558 -0.04352131
000290 4f 5a 8a be 9f 1f bf be e5 da aa be 5f ab 2e bc
       -0.27022025 -0.37328812 -0.33370128 -0.010660975
0002a0 06 ad 4e be cc 9a b0 3b db 0e 16 3e c5 f0 f3 bd
       -0.2018319 0.005389547 0.14654104 -0.119111575
0002b0 25 03 6a 3d 6f 1a c4 bc ac d3 fc bb 7d 52 4c bd
       0.057131905 -0.023938386 -0.007715663 -0.049883354
0002c0 27 90 a9 3d c5 93 8f 3e e7 60 e6 3d 75 62 b8 3e
       0.08279448 0.28042427 0.112489514 0.36012617
0002d0 6c 50 ca 3d 5b b7 ad 3c db 60 0e 3f 92 63 81 bd
       0.098786205 0.021205595 0.5561654 -0.0631782
0002e0 8d 28 67 bd ee 01 e3 bd f8 5d 68 3e e0 94 c0 bd
       -0.056435157 -0.110843524 0.22692096 -0.09403396
0002f0 b4 5c 1a 3c d2 08 b7 bd 2f 05 24 3e 12 a2 4a be
       0.009421516 -0.08937229 0.16017602 -0.19788387
000300 a5 e0 52 be 8f bb 79 be 80 40 2e 3e 0a 0c f1 bd
       -0.20593508 -0.24387954 0.17016792 -0.117698744
000310 2a e0 b7 bd 8b 15 f1 be c9 60 61 3c 73 82 86 3d
       -0.08978303 -0.47086748 0.013755986 0.0656785
000320 e9 72 c9 3d 76 fb fe 3d 92 69 88 be ba 01 00 be
       0.098363705 0.12450306 -0.26643044 -0.12500659
000330 3c b2 2c 3c 59 6e 8a 3d d6 3c f9 3d 53 75 36 be
       0.010540541 0.067593284 0.12169807 -0.17818193
000340 16 4f 92 be c1 1b 3d 3d d4 b6 91 be 80 f7 f1 bb
       -0.28575963 0.046169046 -0.284598 -0.0073842406
000350 4f e0 db bd 45 2b 74 3e 48 0f 15 bd 77 67 5f 3e
       -0.10736143 0.23844631 -0.036391526 0.21816812
000360 e9 12 6c be 1d 0a 86 be 4b d9 8c be ad 8d 1d be
       -0.23054089 -0.2617959 -0.2750953 -0.15386076
000370 c2 5f 08 3e fd 8b 07 3f ce 4c a5 bd a4 2a 7e bc
       0.13317779 0.5294798 -0.0807129 -0.015513096
000380 5a 8b 57 be 12 bc 4a be 67 12 99 be f6 62 77 3e
       -0.21049252 -0.19798306 -0.29896852 0.24158844
000390 4c 23 42 be 85 ff 05 3e 1b e0 47 be 2e 37 53 be
       -0.18958777 0.13085754 -0.19519083 -0.20626518
0003a0 b6 cb 21 bc cb 73 e3 3d 56 8c b2 3e 3f 49 70 be
       -0.009875229 0.1110607 0.34872693 -0.23465441
0003b0 a0 38 9a bd 62 e0 32 be 84 fc ec be 22 31 74 bd
       -0.075303316 -0.17468408 -0.46286404 -0.05961717
0003c0 26 5f 19 be 8f b4 72 3d c8 cd df 3d 52 d2 e3 3e
       -0.14977702 0.059254225 0.109279215 0.444964
0003d0 66 b6 86 3e a4 03 92 3d 89 24 39 3f de 37 4e be
       0.26311034 0.07129601 0.72321373 -0.20138499
0003e0 0b 34 aa bd a4 e6 1a be 68 50 32 3e b9 4f a1 3e
       -0.08310708 -0.15127045 0.17413485 0.31506136
0003f0 81 ac 84 be 65 e5 ec bd 83 24 b5 3d 69 5b 25 bd
       -0.2591286 -0.11567191 0.08844855 -0.04037038

weight f4 [943, 32]
000000 79 44 00 40 7f ea fb 3f 22 eb d6 bf 7f 98 ae bf
       2.0041792 1.9680938 -1.6790507 -1.3640288
000010 d1 55 79 3f 6c ed 6e 40 86 08 c9 bf ed 0b 15 40
       0.9739657 3.733241 -1.5705726 2.328853
000020 e3 8b 62 c0 b7 a1 5b bf 00 07 2c 40 61 12 b6 bf
       -3.539788 -0.8579363 2.6879272 -1.4224359
000030 55 8a 82 bf 56 9d 18 3f ba d8 05 c0 c5 0c 9a 3f
       -1.0198466 0.59615076 -2.091353 1.2035147
000040 7d 1c cb 3f fd f8 70 bf da 56 20 3c 08 eb 31 3e
       1.5868069 -0.94129926 0.009786332 0.17374814
000050 64 6f 90 3c bc de ff be 71 03 cf 3f 98 11 cd bf
       0.01763124 -0.4997462 1.6172925 -1.6020994
000060 df 4f 2b 40 5f d3 73 bf 2c 9a cf 38 bc fa d4 bf
       2.67675 -0.952444 9.899246e-05 -1.6639018
000070 d5 cb 52 3f ab c3 8d 3f fd a4 14 40 75 b3 9c bf
       0.82342273 1.1075338 2.32257 -1.2242266
000080 30 ad 9e bf 66 a7 a6 3e 83 de 44 3f ca 90 c2 3e
       -1.2396603 0.3254959 0.76902026 0.3800109
000090 85 7f ac 3f d2 6f 0d c0 86 ad c4 bf fe ce 15 3e
       1.3476416 -2.20995 -1.5365455 0.14629743
0000a0 8a 56 11 3d 16 b6 92 be 4c 59 e6 be a6 d9 ab 3f
       0.03548292 -0.28654546 -0.44990003 1.3425796
0000b0 03 af 94 be 16 dc 87 bd e9 e8 10 3f b0 82 14 be
       -0.29039773 -0.06633775 0.5660539 -0.14502978
0000c0 66 09 04 c0 a2 00 f9 be 70 30 aa bf 52 e3 41 3e
       -2.0630736 -0.48633295 -1.3296032 0.18934372
0000d0 72 30 1f bf 57 46 3f 40 3c 7a d5 3f e6 52 46 3f
       -0.62183297 2.9886682 1.6677928 0.7747024
0000e0 1f 40 82 3f dd 7a ec 3f 3c 07 35 3f 10 c2 a1 3f
       1.0175818 1.8474995 0.70714164 1.2637348
0000f0 67 db fc bd 40 4b c2 3e be 19 38 c0 36 da e0 3e
       -0.12346535 0.37948036 -2.8765712 0.43916482
000100 ae 33 cc bf ef 62 cd bf 4e 3f 1c bf 9e 8b ec 3f
       -1.5953271 -1.6045817 -0.61034095 1.8480108
000110 bb 8f 99 3f 92 14 8c bf 2c a9 21 be d6 86 0a 40
       1.1996988 -1.0943778 -0.1578719 2.1644797
000120 72 8e 2e c0 26 17 37 3e 08 a5 08 40 bd 37 0f c0
       -2.7274442 0.17879924 2.1350727 -2.237777
000130 be 95 aa 3f df ff 87 bf bb 65 5d be bf 42 b7 3e
       1.3326948 -1.0624961 -0.21620838 0.3579311
000140 a4 a6 a6 3e 61 57 8e bd ca 77 22 40 6e cc 38 bf
       0.32549012 -0.0695026 2.5385613 -0.72186935
000150 ea e4 99 bf 15 48 ff be c5 6f 05 40 d7 2e 5d 3e
       -1.2022984 -0.49859682 2.0849469 0.21599899
000160 32 cd 21 3f 80 0d 85 3e f7 81 97 3f a0 29 15 bf
       0.6320373 0.25986862 1.1836537 -0.5826664
000170 a7 8c db bf 40 fc fc be d4 46 0c 3f 9a f1 e9 3f
       -1.7152299 -0.494112 0.54795575 1.8276856
000180 ad 49 69 3f 36 be 2a bf f6 50 19 bf b5 7a f8 3f
       0.91128045 -0.6669649 -0.5988916 1.9412447
000190 2e d4 75 bf 17 b1 04 c0 3b fc 45 be d3 0b 5d 3e
       -0.96026886 -2.0733087 -0.193345 0.21586542
0001a0 6c 6d 9b be ff f1 9a be 8b 0a 90 bf 25 45 52 3f
       -0.3035692 -0.30262753 -1.1253217 0.82136756
0001b0 28 88 57 bf 37 af 45 bf e4 c2 d2 be 39 15 85 bf
       -0.8419213 -0.7722048 -0.41164315 -1.0397102
0001c0 bd 89 85 bf 3b 2a 98 3f d1 7b b0 3e f9 62 ec be
       -1.0432659 1.1887888 0.34469464 -0.4616926
0001d0 88 ad 17 3f 37 85 d0 3f 00 3e c3 3f 79 43 1c 40
       0.5924916 1.6290654 1.5253296 2.4416182
0001e0 82 26 35 bf cc 7f 9b 3f a8 8c 7c 3f 49 65 59 bf
       -0.70761883 1.2148376 0.98652124 -0.84920174
0001f0 76 b9 8b 3f ed 76 3c c0 ee 4b 1a c0 ae b6 62 3f
       1.0915973 -2.9447587 -2.4108844 0.8856
000200 3b 0c ad 3e 0e ab 38 3f 08 8a a2 be 4b 68 0b bf
       0.33798394 0.7213601 -0.31745934 -0.54456013
000210 c0 ea 13 c0 3b 28 5b 3e 3b a5 e3 bf c9 22 fb 3f
       -2.311203 0.21402065 -1.7784799 1.961999
000220 ab 89 b0 3f 7f d5 b2 bf 8c 5f 07 3e e2 09 60 3e
       1.3792013 -1.3971404 0.13220042 0.2187877
000230 fd 79 25 c0 18 f1 2b 3e 2c 9a 97 3f 65 d9 1b 3f
       -2.5855706 0.16791189 1.1843925 0.6087859
000240 cd 8e e9 3f 01 81 63 3c 91 15 47 40 c1 b1 16 3e
       1.8246704 0.013885737 3.1106913 0.14716245
000250 4e 3f 5b 3f c4 0a 84 3f 29 de 0d bf 4f 78 ce bf
       0.8564347 1.0315785 -0.55417114 -1.6130465
000260 6d ec 11 40 ee 36 c1 3e 36 53 62 bf 5f bb 27 bf
       2.2800553 0.3773722 -0.8840822 -0.6552028
000270 08 9f ac 3f ea ed cb bf 78 8f 51 3f b0 bd cd 3f
       1.3486032 -1.5931981 0.8185954 1.6073513
000280 75 19 f6 3f 5a a3 24 40 12 89 33 bf 73 18 e8 bf
       1.9226519 2.5724702 -0.7013103 -1.8132461
000290 30 f1 15 40 f6 eb 5c 3f ab 20 dc 3e a7 1e ce 3f
       2.342846 0.8629755 0.42993674 1.6103104
0002a0 b5 3f f1 bf 2f 64 0c 3f eb 27 d5 3f 3f ef f6 bd
       -1.8847567 0.5484037 1.6652807 -0.12057351
0002b0 cf ba 12 c0 bb 24 0a 3e d3 bf 9b bf 46 5f e3 3f
       -2.292652 0.13490574 -1.2167915 1.776345
0002c0 13 ee 64 3d a1 cc f8 bd 3b 98 79 3f 2f 83 6c 3f
       0.055891108 -0.12148405 0.9749791 0.9238767
0002d0 41 4c b2 3e 42 7c 10 c0 e3 18 67 be b3 54 7a bf
       0.34823802 -2.257584 -0.22568087 -0.9778549
0002e0 aa 27 53 3f 2c 19 3f bf a9 1f 0f bf 94 08 b6 bd
       0.824824 -0.74647784 -0.55907685 -0.08888355
0002f0 c0 1d 5e 3f 03 e1 1b 40 1b a7 9d 3f c9 1a e5 bf
       0.86764145 2.4356086 1.2316622 -1.7898799
000300 f8 e4 d5 3f 95 6c 93 be 31 f8 ec bf a9 eb 53 c0
       1.6710501 -0.2879378 -1.8513242 -3.3112586
000310 50 15 bb 3e d1 b6 a4 3e 06 c1 50 bf be 46 0b 40
       0.36539698 0.32170728 -0.8154453 2.1761928
000320 bf 74 12 bf de 84 2b c0 d7 fd 11 40 40 c2 5c c0
       -0.5720939 -2.6799846 2.2811182 -3.449356
000330 de ca 95 bf e6 21 77 3e 88 bc 14 c0 6a c3 70 40
       -1.1702535 0.24134025 -2.324007 3.7619271
000340 46 14 44 3f 86 e5 2b c0 af fe f3 3f 13 34 d4 3f
       0.76593435 -2.685884 1.9062098 1.6578392
000350 17 3d 3c 3f 9f 8e 08 c0 cc b0 6c 3e d1 ad 0b be
       0.73530716 -2.133705 0.23114318 -0.13640524
000360 29 5b f2 3f 5c dd d6 bf f0 4a 3e c0 e6 45 07 c0
       1.893407 -1.6786304 -2.9733238 -2.1136413
000370 c2 ec 64 40 8b 57 fc 3f 08 3a c1 3f 1c 6a 56 c0
       3.5769506 1.9714216 1.5095835 -3.3502264
000380 83 1d 40 3f ca 6b 2c be 08 28 1f 3f f1 ce 1d 40
       0.7504503 -0.16837993 0.6217046 2.4657557
000390 70 33 db 3f 17 76 c4 be d6 47 4c bf 19 31 09 bf
       1.7125072 -0.38371345 -0.7979711 -0.5359054
0003a0 ef b8 77 3f cf e2 0f 3f 11 4a 93 bf 05 ee a6 3e
       0.9676656 0.5620546 -1.1506978 0.3260347
0003b0 62 70 98 3f 80 f5 5b bf 12 68 94 3f da 48 92 bf
       1.1909297 -0.8592148 1.159426 -1.1428483
0003c0 98 b1 5a bf ab bb 06 40 f7 ff 6d bf 87 1b 44 bf
       -0.85427237 2.1052043 -0.92968696 -0.76604503
0003d0 51 a6 48 3c 42 41 4b 3f c2 4c 7b 3f bc aa 68 bf
       0.012246684 0.7939645 0.98164 -0.9088552
0003e0 e8 28 87 3e 9f fd 0e 40 2f 71 86 3f 69 e4 88 be
       0.26398396 2.2342298 1.0503291 -0.26736763
0003f0 57 bd 05 3f 43 f2 ce bd 5d 2f 84 bf 19 4f 6b bf
       0.52242035 -0.101048015 -1.0326954 -0.9191757

weight f4 [1682, 32]
000000 91 a3 51 bf 7a 53 d0 bf 53 1a 67 bf 89 69 9a 3f
       -0.8189021 -1.6275475 -0.9027454 1.2063457
000010 fa 70 90 3f d7 00 14 c0 c7 a4 c6 bf 48 f8 13 40
       1.1284478 -2.3125513 -1.5519036 2.312029
000020 65 a9 03 c0 3f e6 ad 3f 88 03 be 3e af 68 f2 bf
       -2.057214 1.358589 0.3711207 -1.8938197
000030 33 12 6e 3f 5e d5 23 40 b8 40 1d 40 b0 1e e0 bf
       0.9299652 2.559898 2.457075 -1.7509365
000040 f4 c4 da 3f 3d 07 33 40 77 e9 d8 bf c2 c1 f9 3f
       1.7091355 2.7973168 -1.6946248 1.9512255
000050 d5 31 1c 40 9c aa 2f c0 ee 98 7c 3f d1 63 a8 3f
       2.4405415 -2.7447882 0.9867085 1.3155462
000060 3d 8a 7b be b4 de dc 3f 75 5f 36 c0 3a a1 05 3f
       -0.24564452 1.7255464 -2.8495762 0.5219914
000070 4e f8 5a be cb 9d c9 3e f3 ff 1f 40 88 02 e7 bf
       -0.21383783 0.393782 2.499997 -1.8047647
000080 97 3f 44 bf 0b a8 f1 3f c5 c2 03 c0 56 9d 82 3f
       -0.7665953 1.8879408 -2.0587628 1.0204265
000090 3e 19 a5 bf ff 0d bc be 8f e0 db 3e 8b 37 1c 3f
       -1.2898328 -0.36729428 0.42944762 0.6102225
0000a0 b6 b1 c7 be 53 81 e1 be 8a 73 a2 be 47 d3 36 3e
       -0.3900277 -0.4404398 -0.31728774 0.17854033
0000b0 03 88 6a 3f c6 57 6a 3f f8 30 9c be 55 d0 70 3e
       0.9161379 0.9154018 -0.3050611 0.23516972
0000c0 dc b9 ea bd c9 16 36 bf 66 11 e6 3e 12 c3 65 3e
       -0.11461231 -0.7112852 0.4493515 0.22437695
0000d0 95 ff aa bf 73 45 b9 be 55 a5 d2 be 8b 2b 4a bf
       -1.3359247 -0.36185798 -0.41141763 -0.7897269
0000e0 15 b8 ab 3f 08 45 b3 bd 17 33 bd bf fe 93 6e 3f
       1.3415552 -0.08753401 -1.4781216 0.9319457
0000f0 df ad 6c bf c0 ac d9 3f 99 30 b0 be 5b c7 6d be
       -0.92452806 1.7005844 -0.34412077 -0.2322058
000100 73 7f eb bf 76 06 a5 3f 84 18 88 3e e7 f2 3b be
       -1.839827 1.2892597 0.26581204 -0.18354379
000110 84 6f 64 3e a6 4f 0e 3f fa 49 96 3f 93 9f 00 bd
       0.22308165 0.55590284 1.1741326 -0.03140218
000120 56 60 90 bd ba b6 2d bf 55 61 cc 3e 58 7d 76 bf
       -0.070496246 -0.67856944 0.39918008 -0.9628501
000130 c6 4c 55 bd 35 d7 a3 3e 7a b2 18 bf b9 a7 c2 3c
       -0.05207517 0.32000127 -0.59647334 0.023761617
000140 c4 2c 5e 3f d3 51 b4 bd 84 6e 55 3f 87 ab 8d 3e
       0.86787057 -0.08804669 0.8337176 0.27669927
000150 10 ed 46 3f f4 90 a3 3e 63 99 2f be bc 72 3a 3f
       0.7770548 0.31946528 -0.17148356 0.7283132
000160 93 e5 c1 3f dd fb 0e 40 c1 c4 fa bc 25 f7 55 bf
       1.5148185 2.2341225 -0.030611398 -0.8358024
000170 89 a1 84 bf 5c ff 8c bf 72 da d3 bf d7 59 58 bf
       -1.0361797 -1.101543 -1.6551039 -0.84512085
000180 7c 53 b0 be cb 65 06 bd 62 9e 97 bf d2 50 cc 3d
       -0.34438694 -0.03281192 -1.184521 0.09976353
000190 1b c8 04 40 7b b2 00 bf c9 72 9f 3f b7 e8 15 3f
       2.0747135 -0.5027234 1.2456905 0.5855822
0001a0 58 53 34 bd 1e 5c b6 3f b4 47 fd be 38 8c ce 3f
       -0.044024795 1.4246862 -0.49468768 1.6136541
0001b0 54 ac 57 3f 9d a4 1e be f5 28 d5 3e e6 14 23 3e
       0.84247327 -0.15492482 0.4163281 0.15925941
0001c0 93 5b ee 3e 53 fc ac 3f 7f d5 2c 3f 84 f5 df 3f
       0.4655424 1.3514503 0.6751327 1.74968
0001d0 3e 4f 0b 40 41 4c b6 be 9e 13 4f 3f 7c cd f6 3e
       2.1767116 -0.35605052 0.8088931 0.48203647
0001e0 50 d6 fb 3e 0f 0b a8 bf 77 b9 da be 8c bf a5 3f
       0.49186945 -1.3128375 -0.42719623 1.294908
0001f0 a7 31 9b be 1a 73 a5 be 58 23 f9 bd 33 8d a2 bf
       -0.3031132 -0.32314378 -0.121649444 -1.269934
000200 01 11 2a be 20 69 31 40 32 ce 3b bf 26 f1 9c bf
       -0.16608049 2.7720413 -0.73361504 -1.2261093
000210 1b cc 99 bf 31 26 57 be 38 87 86 be f1 8a 7d be
       -1.2015413 -0.21010663 -0.2627504 -0.24760033
000220 74 a9 78 bf 67 aa 22 3f d2 d1 d5 3f 83 41 b8 be
       -0.97133565 0.63541263 1.6704657 -0.3598748
000230 b5 63 8e bf 5e 15 61 3f 79 70 04 3f 7b 7e 18 be
       -1.1124178 0.8792323 0.5173412 -0.14891998
000240 89 30 91 3e 90 d8 e6 3e b9 75 ce 3f 55 8d ea be
       0.28357342 0.450871 1.6129676 -0.45810953
000250 27 f7 09 3f a2 0d af 3f bf af 46 bf 21 b4 92 bf
       0.5389275 1.3676035 -0.7761192 -1.1461221
000260 74 57 93 bf b8 d3 ed 3f 92 79 e0 3d 43 ba 6a 3f
       -1.1511064 1.8580236 0.10960688 0.9169046
000270 6e 7e 51 3e 30 f0 38 3f c2 99 f2 3f 21 ea 36 3e
       0.20458385 0.722415 1.8953173 0.1786275
000280 ee 5f 3e 40 75 da c5 3f 79 1f b7 3f a3 63 f1 bf
       2.974605 1.5457293 1.430648 -1.8858532
000290 a5 ef 00 3f 3d 4f 20 3f c6 1e f8 3e e3 a7 51 be
       0.5036567 0.6262091 0.48460978 -0.204742
0002a0 5b 60 0e 3f 43 1e 68 3f e0 91 ab be b3 96 8e 3f
       0.55615777 0.90671176 -0.3350973 1.113974
0002b0 22 42 13 bf ca 71 ea 3e 67 a2 1f 3e d4 b6 8d 3f
       -0.57522786 0.4578994 0.15589295 1.107142
0002c0 0d 67 8b bf 02 6b e5 be d4 b7 5f 3f 55 1b 4d bf
       -1.0890824 -0.44808203 0.87389874 -0.8011983
0002d0 90 04 3b be 27 ba fc 3f 67 af df 3e ba 49 82 bb
       -0.18263459 1.9744309 0.4368851 -0.003976074
0002e0 5a b3 32 3e 63 6e 9c bf 2b 28 11 3e ba e2 66 be
       0.1745123 -1.2221187 0.14175479 -0.22547427
0002f0 18 1e 3d be 98 e0 af be 6f bc 22 bf b4 77 03 be
       -0.18468511 -0.3435104 -0.63568777 -0.12838632
000300 74 87 a0 bf 69 9c d1 bf 49 23 11 c0 36 13 31 40
       -1.2541337 -1.6375858 -2.2677786 2.7667975
000310 5d 53 0f 40 f2 ba e1 bf c7 d0 ae bf c7 90 61 3f
       2.239463 -1.7635176 -1.3657464 0.8811154
000320 0d 1a 6d bf 71 4b 04 40 27 99 b9 3f de 40 56 bf
       -0.92617875 2.0671046 1.4499863 -0.8369273
000330 57 1b e2 3f b7 ce 13 40 4c 92 e2 3f 37 95 1a c0
       1.7664593 2.3094919 1.7700896 -2.4153574
000340 b8 f1 64 40 c6 7a 1b 40 5a a6 71 c0 1b 96 f7 3f
       3.5772533 2.4293685 -3.7757783 1.9342684
000350 02 52 21 3f 2f a7 e5 be e2 f8 b6 3e b8 88 d3 3e
       0.6301576 -0.44854113 0.35736758 0.41315246
000360 0d 11 17 bf fc e8 c8 3f 4a 28 8d bf d2 e4 6b be
       -0.5901039 1.5696101 -1.102792 -0.23036507
000370 e2 8b 0d bf eb 64 34 40 1a f5 f5 3f ad ea 1c c0
       -0.5529157 2.8186595 1.9215424 -2.4518235
000380 d2 82 15 c0 fb d4 81 bf 17 8f 2a bf ef 03 08 bf
       -2.3361096 -1.0143121 -0.6662459 -0.53131
000390 3a 6f 4d 3f 3b f4 1b bf de c2 81 3e 11 8c 0f 3f
       0.80247843 -0.6091954 0.25343984 0.560731
0003a0 e7 6e 5f c0 25 33 1b 40 f2 58 5c 3f 39 d5 e5 bf
       -3.491144 2.4249966 0.8607322 -1.7955695
0003b0 76 d2 bc 3f a2 94 41 3f 17 f2 98 3f ac d2 05 bf
       1.4751728 0.7561742 1.194888 -0.52274585
0003c0 31 a2 f3 3e 78 74 1d 3f 65 c5 44 bf d7 19 24 bf
       0.4758468 0.6150584 -0.768637 -0.6410193
0003d0 06 23 07 40 5d c5 80 be 1f 9f 44 3f 51 9c 9c bf
       2.1115127 -0.25150576 0.768053 -1.2235204
0003e0 b2 d6 3a be 27 21 15 40 cc 51 e6 3f 40 b7 f2 3e
       -0.18245962 2.3301485 1.7993712 0.47405434
0003f0 51 a8 a0 3e 6d 03 6d bf bb ab 8b 3f d7 17 1e bf
       0.31378415 -0.9258335 1.0911783 -0.61755127

weight f4 [32, 64]
000000 50 67 1f bf d0 54 52 bf 4f a5 c1 3e e3 07 9b 3e
       -0.6226702 -0.82160664 0.37821433 0.30279455
000010 9a 1f fc be 58 fe 76 bf 33 47 c7 3e 6b 95 ab be
       -0.4924286 -0.9648185 0.38921508 -0.33512434
000020 d9 df 41 3e 16 91 cf be 6a 4c aa bf 4f 43 30 3e
       0.18933047 -0.4054038 -1.330457 0.17213176
000030 db e7 ad 3e c6 93 60 bf 46 49 f2 3d 8e 0f dd be
       0.33965954 -0.87725484 0.11830382 -0.4317593
000040 a3 62 5b be 81 bc f7 bd b3 39 3d be a3 c7 36 be
       -0.21424346 -0.12096501 -0.18479042 -0.17849593
000050 0d 3c ad be bf 54 87 bc 2f 42 d5 be 52 83 2c 3f
       -0.33834878 -0.016519902 -0.41652057 0.6738788
000060 41 84 32 bf 31 42 0f 3e f3 fc 86 3f 27 fb c2 3e
       -0.69733053 0.13990094 1.0545944 0.3808224
000070 70 6e 9c be 82 c1 c6 3e 91 58 1b bd f5 cc 3c 3f
       -0.30553007 0.3881951 -0.03792626 0.7375024
000080 20 8c 21 bd fa 4d 92 3e b0 74 ed 3e ee b9 f4 be
       -0.039440274 0.28575116 0.46378088 -0.47798103
000090 e5 f6 08 be 38 f9 4a 3f 88 91 9e 3f 2d 0e 8f bf
       -0.13375433 0.7928653 1.2388163 -1.1176201
0000a0 08 66 b6 3d 3b a5 19 bf d2 5c 00 bf 87 9d 3f 3f
       0.0890618 -0.60017747 -0.5014163 0.7484974
0000b0 3c 95 09 bf f8 69 82 be 38 aa 7b bf 3a 85 84 3e
       -0.5374334 -0.25471473 -0.9830661 0.25882894
0000c0 e9 2a ff bd f1 c2 85 bf 4d b5 27 3d c9 1a 1f bf
       -0.12459356 -1.0450116 0.040944386 -0.62150246
0000d0 ae e6 7b bf 70 63 0a 3f ef 11 cb 3f 13 36 4a bf
       -0.98398864 0.5405798 1.5864848 -0.7898876
0000e0 12 95 16 be 4e 18 c1 bd b4 7f 64 3e d8 4a 25 bf
       -0.14705303 -0.09428464 0.2231434 -0.6456733
0000f0 fc db 5f 3f ba 35 37 be 52 55 91 be f0 8b b2 3e
       0.87445045 -0.17891589 -0.28385407 0.3487239
000100 3b 13 c8 3d c4 17 28 bf d9 de 1e 3f 4f b5 c4 3d
       0.09769293 -0.65661263 0.6205879 0.09604894
000110 9c 1f 01 3f 7f 72 05 bf 8f b8 58 3d 01 8a 29 3e
       0.5043886 -0.5212783 0.052910384 0.1655655
000120 2b dc 7f 3d 6e 6b a6 3e ce 94 2d bf 0c 32 22 3f
       0.062465828 0.32503837 -0.6780518 0.63357615
000130 83 5e e5 3e 18 f5 fe 3e e9 13 63 3f 10 be 40 be
       0.4479867 0.49796367 0.88702255 -0.18822503
000140 c3 51 21 bf 4f f8 a5 3e b8 f0 19 be be 1c 92 bf
       -0.63015383 0.32416007 -0.15033233 -1.1415021
000150 0a b7 8c 3e 76 ab 3b 3f 4b 7b 10 be 0c f7 0f 3f
       0.27483398 0.73308504 -0.14109533 0.5623634
000160 56 96 3b be b6 77 40 3d 45 ad 30 3f 91 d6 c5 3d
       -0.18319067 0.046989165 0.6901439 0.09660066
000170 ae 98 15 be 75 e5 36 bf 66 39 36 bf c2 41 2b bf
       -0.14609024 -0.71443874 -0.71181333 -0.66897213
000180 70 ca 00 3f 37 26 6e 3f 06 68 25 3f c2 e7 83 bf
       0.50308895 0.9302706 0.6461185 -1.0305102
000190 81 69 24 bf 5d 63 0d 3d 6d a4 18 3f 0d 80 d5 be
       -0.64223486 0.03451859 0.59625894 -0.41699257
0001a0 4e a8 3c 3f da f0 53 bf 0a d3 9f be 0b 98 f4 3e
       0.7369431 -0.82789385 -0.31215698 0.4777225
0001b0 2a 9f 21 be 0c cb cd bc 23 7e 51 3e bd f9 2a bc
       -0.15783373 -0.025121234 0.20458274 -0.010435519
0001c0 ce a4 12 bf 33 5d f0 be c7 5c 8a 3e 6b b4 2f 3e
       -0.5728272 -0.46946105 0.27023908 0.17158668
0001d0 93 82 5b be 9d c7 41 3f 4b d4 7f bf ce 2b bd be
       -0.21436529 0.7569521 -0.9993331 -0.36947483
0001e0 da 66 52 3e b6 d4 b2 be d8 64 49 3f 49 3b 43 bf
       0.20547047 -0.3492791 0.786695 -0.76262337
0001f0 93 73 91 be ec 3d a5 bd 56 f5 b3 3d 0b 95 d3 bd
       -0.2840849 -0.08068451 0.087870285 -0.10331162
000200 b8 00 75 3f 28 11 18 bf 2d 26 30 3f d0 7c 8b 3e
       0.9570422 -0.5940118 0.6880825 0.27243662
000210 32 d9 a6 3e 30 74 39 bf 5f e0 1e 3f ce 0a e9 3d
       0.32587582 -0.72442913 0.62061113 0.11379014
000220 2b f9 68 3f d0 60 2f 3f 6a 7a 0f bf 69 07 56 bf
       0.910052 0.685071 -0.56046164 -0.83605057
000230 00 3e 2d bd 34 24 68 3f 30 5a e9 be 10 f7 15 bf
       -0.042295456 0.9068024 -0.4557662 -0.5858011
000240 ab 59 2d be 40 62 66 bd bd 1a 67 be 02 b4 db 3e
       -0.16928737 -0.056246042 -0.22568794 0.42910773
000250 cf 39 0d bf 48 fc 6f be 1d 54 d2 3e 97 11 ac 3e
       -0.55166334 -0.23436081 0.41079798 0.3360717
000260 ce 75 6c be 44 9e ac 3d ca a6 d3 bd 47 28 27 3f
       -0.23091814 0.08428624 -0.10334547 0.65295833
000270 48 86 00 bf 6d da e4 be 7b 17 03 be b3 3c 01 3e
       -0.50204897 -0.44697896 -0.12801926 0.12620811
000280 7b 4e 08 3e fa c6 18 3f 71 75 8e 3d 38 81 20 bf
       0.13311188 0.59678614 0.06955994 -0.6269717
000290 fb 3a 03 bf 97 b9 6f 3f 0b 0e e7 3e 59 da 7e 3e
       -0.5126187 0.9364256 0.451279 0.2488798
0002a0 a1 a4 6b be 66 a9 2b bf 02 9f 9a be fe ea 83 3e
       -0.2301202 -0.67055357 -0.30199438 0.25765222
0002b0 25 13 d7 be 8a 48 32 bf e0 83 b3 3e 59 d3 ea be
       -0.42006794 -0.69641936 0.3506155 -0.4586437
0002c0 7c 01 0b bf 2a cd b4 be 03 a7 01 3e 41 59 03 bf
       -0.5429914 -0.35312778 0.12661366 -0.51308066
0002d0 e9 c7 9b be d6 1d 1b bf 5d e7 fd 3c 28 8d 7a 3e
       -0.30425957 -0.605924 0.030994112 0.2446791
0002e0 85 c6 4a 3f 6e 91 51 3e 46 b3 5a 3e 8b a8 0e bf
       0.79209167 0.20465633 0.2135745 -0.55725926
0002f0 e3 f4 9a be 05 ee 6d be f0 fe ae 3c 28 bc c6 3f
       -0.3026496 -0.23235328 0.021361798 1.5526171
000300 aa 80 b5 bf 11 34 4f bf 4a 81 15 3f 91 a7 84 be
       -1.417989 -0.8093882 0.58400404 -0.25909093
000310 b3 fd 21 bf a2 56 7b 3f 69 d7 0b 3f 62 b0 45 be
       -0.6327774 0.98179066 0.54625565 -0.19305566
000320 3f 17 b7 3d e0 4b e2 3c c4 34 9f bf 78 8e ed be
       0.08939981 0.02762407 -1.2437978 -0.46397758
000330 ba 33 5b 3d 2a ed 80 3f 71 3e e0 3e be bc 4b 3d
       0.053516127 1.0072377 0.4379764 0.049740545
000340 6e da c2 be fa e6 a7 bd c4 85 8a 3e dc df 73 3f
       -0.38057274 -0.08198352 0.2705518 0.9526346
000350 44 08 84 bf 37 05 76 3d ea 9b 6f 3f 53 c5 4e bf
       -1.0315022 0.060063567 0.9359728 -0.8076984
000360 4f e3 88 bd 7a 4c 1b 3f b8 69 1b bf 2d 96 83 bf
       -0.06683981 0.6066357 -0.6070819 -1.0280205
000370 a1 28 91 be c2 32 fa be 7a 3e 5e bf 30 6f c9 bc
       -0.2835131 -0.4886685 -0.8681408 -0.024589151
000380 67 44 65 bf 3d a3 5e bf c7 6d 41 3e e5 79 bd 3e
       -0.895575 -0.8696783 0.18889533 0.3700706
000390 b4 04 42 bf df fb ba 3d 6e 5c c8 3d 20 2e 44 3d
       -0.75788426 0.09130072 0.097832546 0.04789555
0003a0 b3 3b 2c bf c1 23 8e 3d 99 90 81 be b4 8e 22 be
       -0.67278594 0.06940413 -0.25305632 -0.1587475
0003b0 71 36 b8 3e c3 75 0a 3e 92 06 44 3f e3 69 f7 be
       0.35979035 0.13521485 0.76572526 -0.48322973
0003c0 43 30 1a 3e 32 2e 26 3f 4b 25 12 bf f8 11 00 3f
       0.15057473 0.6491424 -0.57088155 0.5002742
0003d0 35 23 85 3e 54 5f 11 bc 1e 66 d4 3d 2e df 24 3f
       0.26003423 -0.008872826 0.1037104 0.64403045
0003e0 d0 58 18 be 21 10 ec 3e ac b6 1f be 7a b6 6d 3e
       -0.1487763 0.46106055 -0.15597028 0.2321414
0003f0 14 44 18 be 7f a3 a4 3f f4 47 ce 3e 6f 5a 12 bf
       -0.1486972 1.2862395 0.4028927 -0.5716924

bias f4 [32]
000000 bd e6 48 3e c1 c9 1b c0 3b 64 91 bf 75 41 e7 3e
       0.1961927 -2.434189 -1.1358713 0.45167127
000010 57 4a 71 bf 4c 0c 00 c0 fb cc 15 3f b7 ba e7 bf
       -0.9425406 -2.0007505 0.585159 -1.8103856
000020 4f cb f9 bf 8a c6 4f bf 1a 2d d7 bf b6 8c 0b bf
       -1.951517 -0.8116232 -1.6810639 -0.5451158
000030 93 ff 11 bf 25 21 ce bf d9 74 14 bf e2 fa 3d bf
       -0.570306 -1.6103865 -0.57990795 -0.7421094
000040 6b 55 f7 bf dc d5 bf bf 2b 59 c8 be 49 6a 45 bf
       -1.9322942 -1.498714 -0.3913053 -0.77115303
000050 a4 e2 46 c0 03 cb b6 bf bf 16 63 bf 2a 0c ca bf
       -3.107583 -1.4280704 -0.8870658 -1.5784962
000060 5f 0d 7d bf 1f 12 cf bf c2 8a 2f c0 5d d4 3c c0
       -0.9884853 -1.6177405 -2.742844 -2.9504616
000070 b9 94 29 c0 0c 26 2c bf 99 2e 22 c0 78 15 03 c0
       -2.6497023 -0.67245555 -2.534094 -2.0481853

weight f4 [16, 32]
000000 fe 6e 38 be 5e 23 71 be a1 8c bb bd 95 a8 e3 bd
       -0.1801109 -0.23548648 -0.09157682 -0.11116139
000010 63 4e ba bd 8f b9 62 bd 9c 32 63 be 4f 37 c6 bc
       -0.09096982 -0.055352744 -0.22187275 -0.024196295
000020 38 bf 28 be 2f a0 b5 3c 3e 35 43 be 0a 16 39 bd
       -0.16479194 0.022171108 -0.19063279 -0.045187034
000030 7d ff aa bd 19 7f 67 bd 02 f4 e2 bd e1 29 9d bc
       -0.08349512 -0.056517694 -0.11081697 -0.019185008
000040 74 2e 1c bd 9f a0 30 be a2 72 47 be a1 ff fa bd
       -0.03813024 -0.17248772 -0.19477323 -0.122557886
000050 0d 79 a3 bd c8 e1 01 be 9b d1 02 bd 30 f0 61 be
       -0.07982073 -0.12683785 -0.031938177 -0.2206428
000060 61 22 a7 bd 89 58 79 be 39 36 8f 3c 9b c4 19 be
       -0.08160854 -0.2435018 0.01748191 -0.15016405
000070 b2 fd 08 be be 9d 8f be 04 80 22 be fd 77 7c bd
       -0.13378027 -0.28050035 -0.15869147 -0.061637867
000080 73 b7 41 bd 75 4f 5b be f4 8c 01 bf 1b cf 92 be
       -0.04729409 -0.21417029 -0.506057 -0.28673634
000090 09 2f 79 be f1 e1 57 3e 99 2e ec be 73 94 0c be
       -0.24334349 0.21082284 -0.461293 -0.13728504
0000a0 18 2b 25 be fa dc 69 be 61 22 ed bd 3f e8 0d bf
       -0.1612972 -0.22838202 -0.11578823 -0.55432504
0000b0 6d af 0f bf be ef bb be 1e 5e 37 be f2 bb 3a be
       -0.56127053 -0.36706346 -0.17906997 -0.18235758
0000c0 7d ba b8 be c6 a1 68 be 07 c5 15 bf 90 e8 31 bf
       -0.3607978 -0.22717962 -0.58503765 -0.6949549
0000d0 ac fa ea bd 38 52 3c 3c ad f5 38 be f8 af 91 be
       -0.11473593 0.011494212 -0.18062468 -0.28454566
0000e0 6d a8 08 bf 4e df 0c bf b3 9a d3 bd 44 72 9b be
       -0.53382 -0.55028236 -0.10332241 -0.30360615
0000f0 78 e1 7d be 11 d9 c4 be fa dd f7 bd 84 f3 be be
       -0.24793041 -0.3844686 -0.121028855 -0.37295163
000100 6c 2b 7c bf c4 ac 51 bf 5d bc 9c bf f1 a3 8c bf
       -0.98503757 -0.81904244 -1.2244984 -1.0987531
000110 da 6d 85 bf a7 3b 83 bf a8 bf b4 bf 8a b6 5f 3e
       -1.0424149 -1.025258 -1.4120989 0.21846977
000120 9f 5f 93 bf 98 a0 48 bf 3b ef 85 3e b3 57 c1 bf
       -1.1513556 -0.78370047 0.2615908 -1.5104889
000130 d0 f2 c7 be a5 24 16 3f 6e e0 bb be ad 21 23 bf
       -0.3905244 0.58649665 -0.36694664 -0.6372326
000140 60 c2 87 bf 73 42 16 bf e8 be 93 be 4a 80 cb 3e
       -1.0606194 -0.58695143 -0.28856587 0.39746314
000150 8b 36 aa 3d a6 12 f6 be 8f 97 5b bf ab ba e1 be
       0.083111845 -0.48061103 -0.85778135 -0.4408773
000160 ac 08 9a 3e 95 48 8e bf 2f 3f 7e bf ae c0 07 3d
       0.3008474 -1.11159 -0.9931516 0.033142738
000170 c6 c4 f4 be 48 fe 97 bd d3 7e 67 3e 4d f1 5c 3d
       -0.47806376 -0.07421547 0.22606973 0.05394106
000180 37 9e 34 bf 39 0a 9a 3e a5 89 66 bf 15 6c e8 be
       -0.70553917 0.30085924 -0.9005378 -0.4539496
000190 57 25 7b bd bf 9f 65 bf 68 46 b7 be 40 06 ac 3e
       -0.061314907 -0.8969688 -0.35795903 0.33598518
0001a0 66 7a 8b be 28 15 3f bf b0 ec ff bc ed e2 ab bf
       -0.2724182 -0.74641657 -0.031240791 -1.3428627
0001b0 59 5a 0f bf 2d 09 fd be 55 7f 05 bf 96 60 99 bf
       -0.55997235 -0.49421063 -0.5214742 -1.1982601
0001c0 20 77 e3 bc 59 23 16 bf dc 9b fd be 01 5d bb bd
       -0.027766764 -0.58647686 -0.49532974 -0.091485985
0001d0 20 46 05 3d 6f de 50 be e1 57 9b be 8e c8 9f be
       0.03253758 -0.20397352 -0.30340484 -0.312077
0001e0 29 e4 f6 3d ee d8 ee be 70 46 dc be 39 15 9b 3e
       0.12055237 -0.4664988 -0.4302249 0.3028963
0001f0 12 f0 a9 be 1d f0 a9 bf af 69 02 3f 8b 0b 65 3e
       -0.33190972 -1.3276402 0.5094251 0.22367685
000200 e6 4f 17 be 88 62 91 be 93 f7 17 be 5a 7a 2b bd
       -0.14776573 -0.28395486 -0.14840536 -0.04186473
000210 7b f9 98 be fd 65 04 be 3e 71 8c bd b0 d0 36 b9
       -0.29877838 -0.1292953 -0.06857537 -0.00017434615
000220 82 89 01 bd 66 aa 37 bd 4f c0 00 bd e7 67 d1 bc
       -0.03162528 -0.04484024 -0.0314334 -0.02556224
000230 82 1d 67 3b bf 6e 28 be ed 0a 52 be 46 43 1e bd
       0.003526539 -0.16448496 -0.2051198 -0.038638376
000240 2f 33 00 be e1 a3 82 be b2 ff 69 bd d3 55 18 be
       -0.12519525 -0.25515655 -0.057128616 -0.1487649
000250 fc a0 a4 bd d9 32 87 be 61 5a de bc 80 79 00 be
       -0.08038518 -0.2640598 -0.027142705 -0.12546349
000260 11 65 87 be ec 59 01 be 0a 7d 8a bd d8 7e 4b be
       -0.26444295 -0.12631959 -0.067621306 -0.19872606
000270 66 91 73 be 40 6a 27 be d0 71 81 be ba 61 1f be
       -0.23785934 -0.16349125 -0.25282145 -0.15564623
000280 dc 64 58 bf de f7 21 bf 56 99 64 be 8a 3a fd 3e
       -0.845289 -0.6326884 -0.22324118 0.49458724
000290 e3 6b 33 bf 53 16 a3 3e 57 71 3d bf 60 17 ee 3e
       -0.700865 0.3185297 -0.7400107 0.4650221
0002a0 b4 80 d4 be 42 9c dc bf d1 01 02 3f 80 a2 22 3e
       -0.41504443 -1.7235186 0.5078402 0.15882301
0002b0 6d fb 4e bf 94 8c 82 bf 6a 97 8a be 3e 58 04 bf
       -0.80852395 -1.0199151 -0.27068645 -0.51697147
0002c0 05 e4 82 be 06 a5 5f 3d 10 de af 3e af 6a 81 3e
       -0.2556459 0.054600738 0.34349108 0.25276706
0002d0 ab 48 14 bf ad 0f 90 bf a6 e4 e5 be 29 b2 d3 be
       -0.5792338 -1.1254784 -0.44901007 -0.41346863
0002e0 34 91 6d 3e b7 c7 22 bd bc 91 bb be 5a e1 9e 3c
       0.23199922 -0.039741244 -0.36634624 0.019394565
0002f0 f7 6a 83 bf 4a 35 27 3e 5d 88 40 3f 57 37 99 3e
       -1.0267018 0.16328922 0.75208074 0.29925033
000300 0d 3c 8a be 6f 47 1e bf fd 74 28 bf 21 4b 51 be
       -0.2699894 -0.6182775 -0.6580351 -0.20438816
000310 d1 15 87 3a 8d b6 91 bc eb a7 35 bf 65 09 dd bc
       0.0010306184 -0.017787242 -0.7095935 -0.026982019
000320 bb af ff bd a0 96 16 be cf 8e 2b 3e 7c 86 7d be
       -0.1248469 -0.14705896 0.16753696 -0.24758333
000330 85 5e 95 bf af 66 4f bf 93 b3 18 be 00 73 56 be
       -1.166947 -0.8101606 -0.14912252 -0.20942307
000340 55 18 d1 be 8a 25 f5 be 91 47 08 bf 23 dc b0 3e
       -0.40838876 -0.47880203 -0.532342 0.3454295
000350 0a cd 2a be d6 0d 01 3f a7 28 33 bf 30 27 ad be
       -0.16679779 0.50411737 -0.69983906 -0.3381896
000360 fd 77 20 3e 89 54 29 bf 71 eb 25 3d 88 7f fe 3e
       0.15670772 -0.66144615 0.040507738 0.49706674
000370 40 18 18 bf dd c8 73 bf 78 ca bf bf f4 9e 88 3e
       -0.59412 -0.9522837 -1.4983664 0.26683772
000380 5c e9 1b 3c 24 dc 72 3e 7b 1b 36 3e 34 71 73 be
       0.009516086 0.2371679 0.1778392 -0.23773652
000390 3f e7 68 3d a7 60 ef 3e b4 14 5e 3e fd 39 cf be
       0.05686116 0.46753427 0.21687585 -0.4047393
0003a0 76 1b 98 3e c9 96 f7 3e 85 40 2f bd 79 f2 7a 3e
       0.2970845 0.48357227 -0.04278614 0.24506558
0003b0 c1 10 87 3e 24 e6 97 3e 74 45 cd 3e d9 3b 8d 3e
       0.2637997 0.2966777 0.4009205 0.27584723
0003c0 a1 be b3 3e d9 07 3b bf 5f 02 c1 bd 84 63 07 bf
       0.35106376 -0.7305885 -0.094242804 -0.52886224
0003d0 34 6c 7f 3e 2c 4b 63 3e 10 c1 6a bd 93 35 0d bc
       0.2494362 0.22196645 -0.057313025 -0.00861873
0003e0 eb d8 73 bf a8 4c 3f 3c 8e 49 df 3e 74 86 6d bf
       -0.95252866 0.011675991 0.43610805 -0.92783284
0003f0 a3 54 8b 3e 86 e9 7c be 18 4f 20 bf 1e eb 04 bf
       0.2721301 -0.24698457 -0.6262069 -0.5192126

bias f4 [16]
000000 08 22 8f be 93 4e 0e bf 38 80 8d bf b2 b9 e2 bf
       -0.2795565 -0.55588645 -1.1054754 -1.771292
000010 da bd d5 be ca 22 f4 bd e7 54 76 bf 62 b1 cb bf
       -0.41746408 -0.11920698 -0.962233 -1.5913508
000020 ba a0 68 bc 74 9f 33 c0 0d 3a f3 3d 8a 6e 88 be
       -0.014198476 -2.8066072 0.11876307 -0.26646835
000030 a1 37 be bf 19 40 cf bf 82 1c 23 bf a9 bc f6 bf
       -1.4860727 -1.6191436 -0.63715374 -1.9276325
