models/NeuMF16.pt (torch, 352946 bytes, 16 tensors)

weight f4 [943, 16]
000000 fa 0c d7 be e1 1f 91 3f 8c eb 88 be d1 76 41 3f
       -0.42002088 1.1337854 -0.26742208 0.75571924
000010 de e4 54 bf 3a 8f 94 3f 75 a7 7d be 03 02 9b 3e
       -0.83161724 1.1606209 -0.24770911 0.30274972
000020 da 73 04 c0 ab cf 9b 3f 98 ec a0 bc f5 48 12 c0
       -2.069571 1.217275 -0.019644067 -2.285703
000030 6e 14 d1 bf a8 e1 b1 3e b0 3b 0c 3f 18 e7 af bf
       -1.633436 0.34742475 0.54778576 -1.3742399
000040 b4 f6 c3 3f 5c 55 55 3f 72 74 1f bf 13 d6 67 3f
       1.5309663 0.83333373 -0.62287056 0.90561026
000050 aa 41 82 3f 11 13 6e 3f 9f 83 01 bf 76 24 c6 be
       1.0176289 0.92997843 -0.5059146 -0.38699692
000060 bc b8 84 be 4f 78 70 3e 08 63 43 bf 51 39 05 3f
       -0.2592219 0.23483394 -0.76322985 0.5204058
000070 c9 b7 a7 3e 73 5e a4 bd d1 32 0a bf 23 1a 63 3f
       0.32757404 -0.08025827 -0.5398379 0.88711756
000080 04 65 53 3e 31 63 f5 be 51 9a 12 40 49 f0 89 bc
       0.20644003 -0.4792724 2.2906687 -0.01683821
000090 6c c9 a3 3f 55 cb 23 bf 2b 54 7e be 66 98 13 3f
       1.2795844 -0.63982135 -0.24836795 0.57654417
0000a0 c7 8e c4 3d 70 39 8f 3f 17 48 30 be 95 0e 3a 3f
       0.09597545 1.1189404 -0.17215 0.726785
0000b0 17 3a 8a 3e 1f 06 34 bf 06 ed e0 3e b5 06 80 3f
       0.26997444 -0.7032184 0.43930835 1.0002047
0000c0 5e 40 73 bf 97 87 86 bf b1 da 91 3e f2 e9 a3 3f
       -0.9502009 -1.0510129 0.2848716 1.280577
0000d0 18 a1 6c bf 9f af 61 3d 7e 29 7e bf f4 ca 12 bf
       -0.9243331 0.055099126 -0.9928206 -0.5734093
0000e0 92 59 50 bf ca e1 20 40 6a 6e c0 be 4c 26 6a bf
       -0.81386673 2.513781 -0.3758424 -0.91464686
0000f0 2d 88 96 3e f4 b8 d5 3f d6 f2 6c bf 50 b5 81 be
       0.2940077 1.6697068 -0.9255804 -0.25333643
000100 02 7a a0 3f 2f cf 17 3f 05 dd ae bf 94 c4 c5 be
       1.2537234 0.5930051 -1.36612 -0.3862654
000110 ac 25 26 c0 e5 e7 97 bf 5d 52 84 3e 66 19 19 3f
       -2.5960493 -1.1867644 0.25844088 0.5980438
000120 9a a2 16 c0 cb 16 d0 bf 8d c5 bb bf 38 37 07 c0
       -2.3536744 -1.6256956 -1.4669663 -2.1127453
000130 a5 b1 12 c0 8a 2e 3c 3f 5a 01 e8 bf 8c 53 6b 3f
       -2.2920926 0.7350851 -1.8125412 0.9192436
000140 00 83 bb 3e ec 92 2f be 65 a7 a9 3e 62 88 82 3e
       0.36623383 -0.1714589 0.33135524 0.25494677
000150 bc a7 99 3f 08 76 11 c0 c8 d0 f2 be ca 6a a4 3e
       1.2004313 -2.272829 -0.47424912 0.32112724
000160 3e e7 de bf 8c e6 a9 be 45 fa 13 bf 08 81 45 be
       -1.741432 -0.33183706 -0.57803756 -0.19287503
000170 e4 56 84 3e ef 52 a7 3e d1 a1 d7 3c 71 15 a0 bc
       0.25847542 0.3268046 0.026322277 -0.019541474
000180 85 68 a2 3e 75 2c 03 c0 d8 11 41 3f 25 84 41 be
       0.31720367 -2.0495884 0.7541785 -0.18898065
000190 26 a3 4d 3f 71 f6 65 bf 27 d2 bf be 72 f4 b4 be
       0.8032707 -0.89829165 -0.3746502 -0.35342747
0001a0 3c a3 9f 3f b6 76 d2 bf 9d 90 43 bf ee 7c 1e c0
       1.247169 -1.6442478 -0.7639254 -2.476375
0001b0 00 f0 b9 3f d2 a9 35 3b ae 15 56 3f 76 d1 88 3f
       1.4526367 0.002771963 0.8362683 1.0688922
0001c0 52 ba 00 bf 9a 9d 9d bf c5 4b 0a c0 7f a8 2d bf
       -0.502843 -1.2313721 -2.1608746 -0.6783523
0001d0 99 2e 97 bf 1f 4f ca 3e c0 2d f3 bf e7 b7 6d bf
       -1.1811095 0.3951349 -1.8998337 -0.9285874
0001e0 80 f6 d6 bf 1a fd 04 3f 5a 51 2f 3f 49 60 11 3f
       -1.6793976 0.519487 0.6848351 0.56787544
0001f0 7c a1 c3 3e 3f 63 e5 3b 79 13 56 bf de 55 5c bf
       0.3820914 0.0070003564 -0.8362346 -0.8606852
000200 91 dd 63 3f bc e7 89 bf b0 ae 95 3e 66 5b 53 3f
       0.8900996 -1.0773845 0.29234838 0.8256134
000210 6c 52 bf 3f f0 d7 05 3f b3 84 a4 be 82 61 07 bf
       1.4947028 0.5228262 -0.3213249 -0.5288316
000220 63 b6 a2 be de 58 1d 3f 00 b3 37 3f 94 8d f8 be
       -0.31779775 0.61463726 0.7175751 -0.48545516
000230 16 10 09 c0 05 13 1b bf 7f 81 d2 bc 87 91 d6 3e
       -2.1416068 -0.60575897 -0.025696514 0.41907904
000240 5a 05 e0 3f c1 65 12 3f d1 e9 46 3f b7 45 f3 3f
       1.7501633 0.57186514 0.77700526 1.900565
000250 54 9c e3 3f 6f b1 8e 3e 09 39 d4 3f 11 3d 4f 3f
       1.7782083 0.27869746 1.6579906 0.80952555
000260 02 aa 66 3f dc 92 01 c0 b7 11 91 3f 6f f0 6a 3e
       0.9010316 -2.0245886 1.1333531 0.2294328
000270 fd 72 4f bf 0a 6b a8 bf 28 89 f1 be 4b cf ed 3e
       -0.81034833 -1.3157666 -0.47174954 0.46447214
000280 60 06 9a 3e ae 42 e0 3d b9 5d 0e bf 2e 7f 50 bf
       0.3008299 0.10950218 -0.5561176 -0.8144406
000290 28 9c 87 3f 92 15 f4 bf b9 0e fc 3f 70 4f 97 bd
       1.059453 -1.9069083 1.9691993 -0.073881984
0002a0 d4 f2 8e be ba 82 47 3f df 6c df bf 9b fb 6c be
       -0.27919638 0.7793385 -1.74551 -0.23142855
0002b0 a8 76 7f bf cc b0 96 be 39 03 09 c0 81 32 bc 3f
       -0.9979043 -0.2943176 -2.1408217 1.4702913
0002c0 60 91 a9 bf 60 f6 cb bc ae 66 d7 3e d3 96 00 be
       -1.324749 -0.024897754 0.42070526 -0.12557535
0002d0 5b 96 14 3f 2a c3 8e 3f 02 7c 55 bf 7d 5d d9 be
       0.58041924 1.1153309 -0.83392346 -0.42454138
0002e0 36 d9 1e 3e 62 11 a0 bf ce 38 84 3e 10 90 26 3e
       0.15512547 -1.2505305 0.2582459 0.16265893
0002f0 57 77 98 be c6 5d 19 3f da 29 e2 bf 16 2a 3d 3e
       -0.2977855 0.5990871 -1.7669022 0.18473086
000300 28 f0 d7 3e 73 9c 34 3f 7b 2b b3 bf 7d e9 87 bd
       0.42175412 0.7055122 -1.3997644 -0.06636331
000310 14 80 40 3f 3e 97 1b 3f 6f 8d 25 3f c5 46 3c 3f
       0.7519543 0.6077765 0.64668936 0.73545486
000320 89 47 e4 be b2 5e 01 bf 77 47 d8 be 64 21 c0 bf
       -0.44585827 -0.5053512 -0.42242023 -1.501019
000330 09 1b b1 bf f9 93 5d bf ba bb b4 3e cc ae ff be
       -1.3836375 -0.86553913 0.35299474 -0.49938047
000340 7a 2a fe be 9e 17 e5 be 44 7e b2 3f 03 e1 3f bf
       -0.49641782 -0.4474458 1.3944783 -0.74952716
000350 d4 f7 21 3f 50 2c ab bf 31 0b e4 bf 59 8e 04 bf
       0.6326878 -1.3372898 -1.7815915 -0.51779705
000360 8f 06 46 bf 08 82 2a bf 1b 55 19 bc 31 c8 25 3f
       -0.7735376 -0.6660466 -0.00935867 0.6475859
000370 7f 5f 0e 3f 63 fe 00 40 5d 82 c3 3f 28 4b d7 bf
       0.55614465 2.0155265 1.5274159 -1.6819811
000380 e6 26 1b 3f 34 e2 b8 3c d3 eb ab be ba 82 30 bf
       0.6060623 0.0225688 -0.33578357 -0.6894947
000390 59 97 0a 3d 1d db b0 3e 4d ce 69 3f 37 d5 8a 3f
       0.033835743 0.3454217 0.91330415 1.0846318
0003a0 72 7b 70 3f 3f 0f 31 3f 0c 9e ef bd 1a 0b 26 3d
       0.9393836 0.6916389 -0.11700067 0.04053793
0003b0 8d a0 b0 bf e5 59 d1 bd 01 7c a3 bc 00 ef 9f 3f
       -1.3798996 -0.10222224 -0.01995659 1.2494812
0003c0 2b 17 cc 3e 39 8f 91 bf 95 bc d4 3e cc d3 5d bd
       0.39861426 -1.1371833 0.41550127 -0.054157063
0003d0 23 d2 aa 3f a2 f3 c7 bf 29 ec 7a 3d 48 92 a8 3f
       1.3345379 -1.5621226 0.061260376 1.3169641
0003e0 51 73 bb 3e db a3 09 3f ea 0f 89 3d 2e b6 36 c0
       0.36611417 0.5376565 0.066924885 -2.8548694
0003f0 c8 a6 ac be 1a c2 6b bf 09 aa cc bf 69 d9 b6 3d
       -0.33720994 -0.9209305 -1.5989391 0.089281864

weight f4 [1682, 16]
000000 6d db cf 3e fc 0b be be c7 04 40 bf 48 45 82 3f
       0.40597096 -0.37118518 -0.7500729 1.0177393
000010 2f af 22 3f 23 4c 9b bf 7a 77 27 3e 0a cd fd 3f
       0.6354856 -1.213261 0.1635417 1.9828198
000020 d7 bc c0 bf 7f 49 c3 bf bc e1 88 3d 26 6a 23 3f
       -1.5057629 -1.5256804 0.066836804 0.63833845
000030 78 62 39 3e 86 6f f9 bd 9a 90 40 bf 40 54 47 bf
       0.18103969 -0.121794745 -0.75220644 -0.7786293
000040 4b 0a f8 3e 1c 66 d6 be 87 ee a9 3e b0 26 8c be
       0.48445353 -0.41874778 0.33189794 -0.27373266
000050 22 96 9d 3f d1 15 87 3f b3 25 bf be 96 55 14 bf
       1.2311442 1.0553533 -0.3733345 -0.57943094
000060 23 6b c4 3e 0d a1 8a 3f 35 9d 18 bf 69 48 3e 3f
       0.3836299 1.0830399 -0.5961488 0.7432924
000070 71 ba 9b 3f 32 f2 66 bf 08 b0 8c bf f9 5c f9 bf
       1.2166272 -0.9021331 -1.099122 -1.9481498
000080 7c fe 37 be d8 e3 99 bf 9c b9 86 3f 1b a3 8e be
       -0.17968172 -1.2022657 1.0525393 -0.27858815
000090 4e 42 5d 3d 9b 94 52 3f b1 7b c4 3f 6d ce 85 3f
       0.05401831 0.82258004 1.5350248 1.0453621
0000a0 3e 10 bf 3f ee f0 57 be ad b2 84 3e 6a d9 a0 be
       1.4926832 -0.21088001 0.2591757 -0.31415874
0000b0 a4 5c b4 bf fd 8a 21 be 83 b0 af 3e 31 e7 40 bf
       -1.4090772 -0.15775676 0.34314355 -0.7535277
0000c0 f3 d0 d2 bf 14 a8 7e bf 3e 04 8d 3f 3c 1f cf be
       -1.6470016 -0.99475217 1.101692 -0.40453517
0000d0 c6 8d bd 3f 17 39 37 be 31 30 03 bf 49 90 30 bf
       1.4808891 -0.17892872 -0.5124541 -0.6897016
0000e0 71 a1 91 bf 8d 05 a2 bf c3 d4 05 3e de 98 b4 3f
       -1.1377393 -1.2657944 0.13069443 1.4109151
0000f0 6a 54 47 bf d8 7b 7a bf fb cf b7 bf bf 20 e6 be
       -0.7786318 -0.9784522 -1.4360346 -0.44946858
000100 50 0d 5e 3f 12 a6 d3 bf c0 22 10 bd 66 ab bd 3f
       0.86739063 -1.6535056 -0.03518939 1.4817932
000110 c7 3b 34 3f af bb b3 bf a8 89 0d 3f 71 a5 30 bf
       0.70403713 -1.4041651 0.5528817 -0.69002444
000120 1a 7a 1b 3d 1d 07 35 bf de f5 ff 3e 35 11 39 3c
       0.037958242 -0.7071398 0.4999227 0.011295606
000130 15 a3 cc 3d b4 06 83 be c9 cf 1d bf d6 c8 9d 3e
       0.09992043 -0.25591052 -0.6164518 0.30817288
000140 b9 25 22 3e d2 3c 62 bf 05 91 a2 3f 80 9a 51 bf
       0.15834703 -0.88374054 1.2700506 -0.81876373
000150 15 5b 39 be fe 0b a3 3f f2 68 4c bf 7b 8a cf be
       -0.18101151 1.2738035 -0.79847634 -0.4053534
000160 a8 8f b6 3e ee c4 f5 be cc 7d 66 3d 5c 1d 95 3f
       0.35656476 -0.48001808 0.056272313 1.1649585
000170 61 a4 e4 bf a9 9a 8d be 96 07 33 3f 35 a5 e2 3f
       -1.7862664 -0.2765706 0.6993345 1.7706667
000180 6f dd c4 3f 4f 06 04 3e 27 3c ad bd 77 3d 0d bf
       1.5380076 0.12893032 -0.08458739 -0.5517191
000190 f7 0d 90 3f 84 19 9e 3f cb 34 06 3f a1 1e d9 3f
       1.1254262 1.2351537 0.52424306 1.6962472
0001a0 1b 45 ac 3d d7 e1 5a 3e 50 1e b8 3f 27 3e 04 bf
       0.08411618 0.21375214 1.4384251 -0.51657337
0001b0 74 d5 0a c0 b2 07 50 bf b4 52 f6 bf b2 d3 67 bf
       -2.1692781 -0.8126174 -1.9243989 -0.90557396
0001c0 8e d7 f4 3e 0b 64 0c bf 4b 7a 40 be 84 e6 d1 bd
       0.47820705 -0.54840153 -0.18796651 -0.102490455
0001d0 cf 47 c3 bf 29 1d d6 3e c7 91 fa 3d 71 47 7f 3f
       -1.5256289 0.41819122 0.12234836 0.99718386
0001e0 f7 e1 d7 3d 70 1c 10 bf 4f b8 28 3d 34 a1 92 3e
       0.10541146 -0.5629339 0.041191395 0.28638613
0001f0 62 bf d2 3f 8e e1 d6 bf b6 55 9a 3e db 69 bd bd
       1.6464655 -1.6787584 0.30143517 -0.09248706
000200 a1 4d 35 bf 22 17 3d 3f 45 5f a5 3e a2 04 b8 be
       -0.7082158 0.7386342 0.32299247 -0.35941035
000210 da ec 27 c0 c7 78 e2 3e 82 81 16 bf 26 1b 47 40
       -2.6238313 0.4423277 -0.58791363 3.111032
000220 7f 1e 8e 3f 1e ca 23 be c1 be 99 bf d4 f5 5f bf
       1.1103057 -0.1599507 -1.2011338 -0.8748448
000230 82 dd 0d 3f 7a 1c d3 3e de b2 e3 3f db be 42 bf
       0.5541612 0.41232663 1.7788961 -0.7607247
000240 b1 0d 32 bf df ca c9 bf 5d 65 95 3e 85 8a 6f be
       -0.6955214 -1.5765036 0.29178897 -0.23392685
000250 c2 73 85 3f 1b 27 9d 3e c8 46 24 3f 6b 1e ab 3f
       1.0425951 0.30693898 0.64170504 1.3368658
000260 31 54 a9 bf 99 2d cb bf 71 cc 06 3e 3c 98 0b 3f
       -1.3228818 -1.587329 0.13163926 0.54529166
000270 23 05 bb 3e 50 23 c1 3e 5b 80 c7 3e ea 4e e1 3f
       0.36527357 0.37722254 0.38965115 1.7602208
000280 87 a1 36 bf f4 c6 79 3f 8c ba e8 3f f6 20 b7 bf
       -0.7134022 0.97569203 1.818193 -1.4306934
000290 a9 3c 8e 3f 39 69 80 bd 7e 51 e7 bf 78 c4 3e bf
       1.1112262 -0.0627007 -1.8071744 -0.7451854
0002a0 1b 29 fb be 56 1c e9 bf ec 90 48 bf f5 18 4e 3e
       -0.49054798 -1.8211772 -0.78346133 0.20126708
0002b0 e7 93 c4 bf 49 be f2 3e ad 91 bf bd 6b db 72 3f
       -1.5357636 0.474108 -0.09353957 0.94866055
0002c0 0b d0 12 3f e5 d6 eb bf b5 18 a1 be dc bf 07 bf
       0.573487 -1.8424956 -0.31464162 -0.5302713
0002d0 22 f3 ac bf 12 48 18 3f 0e 45 56 bf a1 2b 68 bf
       -1.3511698 0.5948497 -0.8369912 -0.9069157
0002e0 af 2c 75 3a d2 00 fb 3e 93 dc 08 bf 8e 29 7e bf
       0.00093526667 0.49024063 -0.5346157 -0.9928216
0002f0 2e 7c b3 3e b4 05 df bd aa 9b d7 bf f1 5f 4e bf
       0.3505568 -0.1088976 -1.684438 -0.80615145
000300 12 7e 7a 3e f2 71 89 bf 97 62 57 bf c2 95 a8 3e
       0.24462155 -1.0737898 -0.8413481 0.32926756
000310 7e 1e 6c bf e7 01 29 3f 50 0e 77 bf 90 22 80 bd
       -0.9223403 0.6601853 -0.96506214 -0.06256592
000320 b8 f8 ec bf be b8 e4 be 57 e2 21 c0 9d e9 2a 3e
       -1.8513403 -0.44672197 -2.5294397 0.16690679
000330 e9 d0 c9 be 40 2b 77 be 2a 57 3e c0 2a a9 21 3f
       -0.39417198 -0.24137592 -2.97407 0.6314875
000340 f1 f6 a2 3e 49 80 30 3f 17 8b 01 be 22 af 7f bf
       0.31829026 0.6894575 -0.12650715 -0.99876606
000350 b2 bb 64 3f fc 02 87 3f d4 b0 d9 3f 45 cc fa be
       0.893489 1.0547786 1.7007089 -0.4898397
000360 10 1c 2b bf 1b 6f 2f c0 39 36 f9 bf 6f 3d a0 3f
       -0.66839695 -2.7411563 -1.9469672 1.2518748
000370 cd b9 26 40 5d aa 72 bf dc 32 06 bf 41 08 93 3f
       2.6050904 -0.94791204 -0.52421355 1.1486894
000380 62 a3 84 3f f5 42 9c bf 53 cc 9a 3f a7 80 30 bf
       1.036236 -1.2207934 1.2093605 -0.6894631
000390 5b c0 d1 3e 59 97 65 3f eb 50 8e 3f c9 cb 41 bf
       0.40967068 0.89684063 1.1118444 -0.75701576
0003a0 b2 fa 1e bf bd 0d bc bf 6d 72 c7 be 10 11 31 bf
       -0.6210128 -1.4691693 -0.38954487 -0.6916666
0003b0 85 60 0e 40 a6 76 64 bf 50 a6 59 3f ae 88 4c be
       2.224641 -0.89243543 0.850194 -0.19974014
0003c0 1c ef d7 3f 80 00 41 be e7 d6 aa be e1 90 66 3f
       1.6869845 -0.18847847 -0.33367082 0.9006482
0003d0 c0 5d 20 3f f1 74 13 40 45 e5 9a 3f 00 cf 4b bf
       0.6264305 2.3040125 1.2101218 -0.7961273
0003e0 c7 e3 5f 3e ab 2a bb bf 92 75 89 bf 11 f6 4c bf
       0.21864234 -1.4622396 -1.0739005 -0.8006297
0003f0 68 84 fe 3e 76 33 3e bf cc e4 26 3f a8 83 e2 3e
       0.49710393 -0.74297273 0.65192866 0.4424107

weight f4 [8, 16]
000000 db 3e 08 3f 10 98 6c 3d 52 57 a2 3d e7 6b e3 3e
       0.5322091 0.057762206 0.07926811 0.4441826
000010 18 11 2a 3e 2f f0 4b 3e 82 9d e8 3d fd 5f 42 be
       0.16608083 0.19915842 0.11358167 -0.18981929
000020 eb 94 9f 3d 21 7f 16 be 9e 17 3f bc 8f 25 61 be
       0.07792076 -0.14696933 -0.011663346 -0.21986984
000030 b5 2d 50 be 92 be 9e 3b 5a 87 0c be 7f 8a 5c bb
       -0.20329936 0.004844495 -0.13723508 -0.0033651886
000040 b9 f9 26 3f 51 8d 1c be 37 20 0a bd b6 39 d7 3e
       0.65224797 -0.15288283 -0.03372213 0.42036217
000050 6a 5f 96 be 34 38 22 be eb 56 9a bd 73 59 65 3e
       -0.2936967 -0.15841752 -0.075361095 0.22397403
000060 62 d1 58 bd 19 ff b9 bd ff 00 98 bc ec e9 dd 3d
       -0.052934058 -0.09081859 -0.018555162 0.10835633
000070 12 f9 b3 3e 36 c3 3c bd 26 e6 00 be 92 e8 34 3c
       0.35150963 -0.046084605 -0.12587795 0.011041777
000080 fd 95 a4 be 28 13 21 be 33 b1 25 bc b6 cf 03 be
       -0.32145682 -0.15729964 -0.010113048 -0.12872204
000090 6b b2 77 be 4b 0a 03 be 21 c0 d1 3d b6 de 56 3e
       -0.24189155 -0.12796895 0.10241724 0.20983395
0000a0 96 20 9f bd 97 4d 8b be 92 52 15 be a2 26 4f 3d
       -0.07769887 -0.27207634 -0.1458228 0.050573952
0000b0 b2 90 c9 3d e6 c2 00 3e a1 87 c9 bd 02 ef 9a bd
       0.098420516 0.12574348 -0.09840322 -0.07565118
0000c0 67 d9 8d bd e1 af 07 3d be 63 b5 bc df 7c 88 3e
       -0.06926232 0.033126716 -0.022142287 0.2665777
0000d0 ae 8c 94 3d 11 37 21 be 59 d9 a1 3c 12 a3 59 3e
       0.07253395 -0.15743662 0.01975696 0.21253613
0000e0 a6 5e db 3d 82 8c c1 bc ea 8b 4f 3e 2b 88 21 3e
       0.10711412 -0.02362657 0.20268217 0.157746
0000f0 fb e8 85 3e 16 65 b8 3d cf f8 7a 3d 04 27 4b be
       0.26154312 0.090036556 0.06127244 -0.19839102
000100 d7 20 99 3e 76 43 36 be d6 13 f9 bd ed 77 96 3c
       0.29907867 -0.17799172 -0.121619865 0.018367732
000110 46 9e 25 3e 74 f6 d2 bd 10 1a 16 3d d5 42 ae be
       0.16173658 -0.103009135 0.03664595 -0.34035364
000120 77 2c 06 be 3f 8b 1c 3d 91 77 8a be 4b 1e 85 3d
       -0.131029 0.038218733 -0.27044347 0.064999186
000130 1d c9 d6 be 15 6c 84 bd c1 fb 6e bd 83 27 36 3d
       -0.41950312 -0.064659275 -0.05834556 0.044471275
000140 33 e9 8e 3e dc 5b fe bd 9a 1a ab bd 4f 4c 0c be
       0.27912292 -0.124198645 -0.08354683 -0.13700984
000150 ff d0 88 3e 48 ea 17 ba a2 87 08 be a7 a2 2a 3e
       0.2672195 -0.00057951035 -0.1333299 0.1666361
000160 bc fc a3 3e 04 6e 0d 3e c9 f9 ba 3e 0e a7 13 3d
       0.3202876 0.13811499 0.36518696 0.036047988
000170 17 43 da 3e c3 5b 50 bd 69 37 bf bd 0c 61 ce 3d
       0.4262931 -0.05086876 -0.093367405 0.10077104
000180 c8 9c 69 bd b4 01 ce bd a6 99 e6 3d 71 81 ad be
       -0.057034284 -0.100589186 0.11259775 -0.33887818
000190 df 63 b4 be c0 9b 21 3e 9e 46 15 bd 4f 34 39 3e
       -0.35232446 0.1578207 -0.0364443 0.1808636
0001a0 06 11 81 be cd e9 7d 3d d0 87 6b be c9 2c 26 3d
       -0.252083 0.061990548 -0.23001027 0.040570054
0001b0 4d 7f 39 be 8e 9d cc 3c f1 8f be bd 64 f4 76 3e
       -0.18114968 0.024977472 -0.093047984 0.24116665
0001c0 95 13 39 be 62 d8 77 be 74 17 53 be 49 96 8a be
       -0.18073876 -0.24203637 -0.20614415 -0.27067783
0001d0 e7 70 4f 3e 2c 3c 6f bc 6a 93 84 bd 28 c0 8b be
       0.20257913 -0.014601748 -0.064734295 -0.2729504
0001e0 9e 14 34 3e 90 88 1f be 1e 6e 28 3d d8 9c 4f be
       0.1758599 -0.15579438 0.04112064 -0.20274675
0001f0 be 0f 2a 3e a9 db 43 bd 4c bd 13 bd 82 c1 c7 3d
       0.16607568 -0.047816906 -0.0360692 0.097537056

weight f4 [943, 16]
000000 ee 94 a7 bf 9a 78 4a bd e4 b3 77 bf 22 76 8c 3f
       -1.3092325 -0.04943142 -0.96758866 1.0973551
000010 f8 70 89 3e 7a 5b 04 3f 37 e4 af bc d8 20 2c bf
       0.26844 0.5170208 -0.021471126 -0.67237616
000020 aa 35 86 3e bc 02 35 c0 7a 38 19 40 bb 12 0e 3e
       0.26212817 -2.828292 2.394072 0.13874333
000030 1b e4 00 3f a8 35 96 bf d5 42 91 bf 5b 98 cb 3e
       0.5034806 -1.1735125 -1.134852 0.39764675
000040 62 ea 0b be 9f bd b3 3f b3 3e 98 3e e5 5c 2f c0
       -0.13663629 1.4042243 0.29735336 -2.7400448
000050 4c 8d bb be 70 c5 d7 bf 71 eb cd 3f ba 3b ca be
       -0.36631238 -1.6857128 1.6087476 -0.39498693
000060 70 57 00 c0 d9 6b 44 be af 46 d7 be bb 08 01 40
       -2.0053368 -0.19181766 -0.42046115 2.0161579
000070 e2 4c b1 3e b4 84 29 3f 23 38 9b 3f 89 eb 08 bf
       0.3462897 0.66218114 1.2126507 -0.534844
000080 a8 31 09 bf da f1 e0 bc 78 30 1b 3f 85 a7 3b c0
       -0.53591394 -0.027459074 0.6062083 -2.9320996
000090 ca 4c ef 3f 15 0f 89 be fc 9c 5d bf 33 16 bb 3f
       1.8695309 -0.2676932 -0.86567664 1.461615
0000a0 21 89 66 be 51 0d 5e bf d8 51 3c 40 97 76 5b 3f
       -0.22513248 -0.8673907 2.9424953 0.8572783
0000b0 1b eb ba bf de e5 4c bf b7 81 32 3f cc ab 93 3f
       -1.4602998 -0.8003825 0.6972918 1.1536803
0000c0 9c bb 27 40 94 1c 7f 3e 07 85 13 c0 60 5b 8d 3e
       2.6208258 0.24913245 -2.3049943 0.27608776
0000d0 89 5f bb 3d 0d 98 9f 3e fe 6b 01 c0 bd 93 df be
       0.09149081 0.31170693 -2.0222163 -0.43667403
0000e0 3b 44 cf 3f bd cc 9a be 9f 25 c9 bf b1 df e9 bf
       1.6192697 -0.30234328 -1.5714606 -1.827139
0000f0 66 14 c3 3f db c7 ee bf f3 2b ee be ea 3d 66 3f
       1.52406 -1.8654741 -0.46517906 0.89938223
000100 23 fa 73 be e5 e1 8c 3f 8e cc 99 3f c5 b6 11 bf
       -0.23825888 1.1006438 1.201555 -0.5691951
000110 a1 b2 be 3e 7b 6e 84 bf 62 79 e2 be b2 49 4c bf
       0.37245658 -1.0346216 -0.44233233 -0.7979995
000120 bb 89 56 3f 26 b1 e1 3e 73 ff b5 3e c0 31 32 bf
       0.8380391 0.44080466 0.35546455 -0.6960716
000130 6e 51 57 3e da be 6d be 8b 46 88 bf a4 16 cf be
       0.21027157 -0.23217335 -1.0646528 -0.4044696
000140 6a 67 8f be db bb 40 be 94 54 73 3e b0 e0 0e 3f
       -0.28008586 -0.18821661 0.23762733 0.55811596
000150 b1 43 e2 be b3 d8 3e 40 8d 48 a8 bf 1c fc f5 bf
       -0.4419227 2.9819763 -1.3147141 -1.9217563
000160 ed 3a 44 bf d2 52 49 3f 27 f9 57 3f 06 62 34 3f
       -0.76652414 0.78642 0.8436455 0.7046207
000170 81 7b cc be 74 48 04 3f 87 18 ac be 0e 71 11 3f
       -0.39937976 0.51673055 -0.33612463 0.5681313
000180 39 50 a3 bf 2d 02 a4 3e 0d 6b 0a be ed 27 c2 3e
       -1.2758857 0.3203291 -0.13517399 0.37921086
000190 36 3f da bf c4 62 1a 3f 9f 5c ae 3e e5 41 0e c0
       -1.705054 0.60306954 0.3405504 -2.222772
0001a0 00 27 f0 be 65 b7 e2 bf 66 16 74 bf 17 e5 db 3f
       -0.46904755 -1.7712218 -0.9534668 1.7179288
0001b0 a7 da 07 bd 37 69 e5 3e 5b 3f ab bf 9c c5 c2 3f
       -0.033167507 0.44806835 -1.337871 1.5216556
0001c0 46 09 94 3f ec bb 39 be bc 44 b5 bf 39 a4 8e bf
       1.156533 -0.18138093 -1.4161601 -1.1143867
0001d0 8e d0 3e 3f 4f 3e 2b be 26 9d d9 bd d0 ff 40 3f
       0.7453698 -0.16722988 -0.10625677 0.7539034
0001e0 e3 a0 12 bf 30 88 72 bf b4 37 f8 bc 9e 79 dc 3e
       -0.57276744 -0.94739056 -0.030299999 0.43061537
0001f0 48 73 9a be 87 76 1f bf a4 98 bf bf 02 a1 dd be
       -0.30166078 -0.62290233 -1.4968457 -0.43286902
000200 6a d2 76 be f2 3d 54 3e 1c f0 b6 3e 08 dd e2 3f
       -0.24103704 0.20726755 0.35730064 1.7723703
000210 20 6b f5 3f 9c 52 cc bf 0f 62 3f be 7b a1 3c bf
       1.9173317 -1.596271 -0.1868975 -0.736839
000220 d4 cd 5f 3d 1a b2 ce bf 87 02 b8 3f c0 e1 b1 be
       0.054639652 -1.6148102 1.4375771 -0.34742546
000230 80 37 91 bf 57 01 90 bf 28 68 28 bf 6f 21 a0 bf
       -1.1345062 -1.1250409 -0.6578393 -1.2510203
000240 62 4b aa bf 2e 80 1c c0 bd 82 0d bf ef ac c9 3f
       -1.3304255 -2.4453235 -0.55277616 1.57559
000250 e7 d5 0b 40 9d 10 59 bf 91 e2 8c bf 51 b5 0c be
       2.1849306 -0.84790975 -1.1006643 -0.13741042
000260 19 16 94 3f ae a6 b5 3f 57 95 ad 3f 32 03 95 bf
       1.1569244 1.4191492 1.35612 -1.16416
000270 57 09 41 3f aa a5 5c 3e 4e b7 e5 be f5 52 0c c0
       0.75404876 0.21547571 -0.44866413 -2.1925633
000280 9b 03 6a 3f 6e 77 c7 be ff 8b 72 bf 0c cf 90 bf
       0.9141175 -0.38958305 -0.9474487 -1.1313186
000290 48 29 85 3f 0b 91 82 be ed ab eb 3e 88 40 6b 3d
       1.0403223 -0.25501284 0.46029606 0.05743459
0002a0 03 5a 63 3f 82 8a c0 be 2d a3 07 40 b6 fd d4 bf
       0.8880922 -0.37605673 2.1193345 -1.6639926
0002b0 0c 7d 6f 3f 7f 53 01 bf 59 b6 0c 40 63 55 1f bd
       0.9355018 -0.5051803 2.1986296 -0.03889979
0002c0 e4 7a 60 bf 17 a4 7f bf 10 38 b5 3e a8 7a 4c bf
       -0.87687516 -0.99859756 0.35394335 -0.7987466
0002d0 aa 2a 15 3e bb e0 63 3f b0 23 86 3f 8f 72 3c bf
       0.14567056 0.89014786 1.0479641 -0.736123
0002e0 27 6d 3b 3e 00 e7 fe 3e f9 bc 86 3f f4 ca 89 3f
       0.18303357 0.49785614 1.052642 1.0765061
0002f0 eb 1c 9e 3e 8e ad 39 3e b3 d3 04 3f 68 d3 e3 3d
       0.30881438 0.18132612 0.5188553 0.11124307
000300 7b eb 9c 3f 15 42 07 3f 0c d9 22 bf 50 83 02 40
       1.2259363 0.5283521 -0.6361244 2.0392647
000310 73 da b4 be d4 7a 87 3f 31 38 a3 3e 5d 86 9d be
       -0.35322914 1.0584359 0.31878808 -0.30766574
000320 08 e3 b0 bf 38 f5 96 bf 46 df 2f 40 0e bc e4 3f
       -1.3819284 -1.1793585 2.7480025 1.786989
000330 38 bf c9 3f 0b f0 92 3f 2e c6 88 3f 73 77 00 40
       1.576148 1.1479505 1.068548 2.0072906
000340 26 5e c3 be f8 b7 20 bf bf 58 ef 3f 40 d4 ba be
       -0.38157767 -0.62780714 1.8698958 -0.3649006
000350 4a 74 6e bf 32 2e d8 bf b9 87 06 3f 13 e4 67 3e
       -0.93146193 -1.6889098 0.52550846 0.22645597
000360 63 20 0f 3f ac 02 45 3e 9d 90 7f 3e 03 08 dc 3d
       0.55908793 0.192393 0.2495751 0.107437156
000370 bf c8 2a 3f 47 50 a4 3f d1 d1 95 bd dc cc 85 bf
       0.66712564 1.2836999 -0.0731541 -1.0453143
000380 0c 69 b8 bd 03 78 01 3f 9f 68 81 3f 97 91 16 3e
       -0.09004411 0.5057375 1.0110053 0.14703976
000390 e4 f7 ab 3f 86 08 36 bf 2a c1 79 bf f7 9d 3e bf
       1.3435025 -0.71106756 -0.9756037 -0.74459785
0003a0 c5 0a e3 be 66 d7 f7 bd e7 18 8e bf 70 1e cd 3f
       -0.44344154 -0.12101631 -1.110135 1.6024914
0003b0 6c c7 14 bf b2 ef 11 c0 3e 0f 22 bf ae 20 87 be
       -0.58116794 -2.2802548 -0.6330451 -0.2639212
0003c0 00 7d d4 bd a9 e2 f6 3e 95 c4 73 3f 2a 19 94 bf
       -0.10375404 0.48219803 0.95221835 -1.157018
0003d0 2c 21 12 3f 04 d5 d6 be fe 76 f5 3e c2 7a 62 3e
       0.57081866 -0.41959393 0.47942346 0.22117141
0003e0 26 cb cb 3e b7 2a d8 3e 6f c9 b7 be 3b 55 8c be
       0.39803427 0.4222009 -0.3589587 -0.27408776
0003f0 56 d8 c2 bf 4d 88 d7 bd 87 ad 0d bd db fa ac bd
       -1.522227 -0.10524044 -0.034589317 -0.084462844

weight f4 [1682, 16]
000000 d7 8c 57 bf 9c 2a 2a 40 eb 07 d3 3e fc 8a db 3f
       -0.8419928 2.6588507 0.41216978 1.715179
000010 8b 2b 4d bf e9 62 48 3f 0d 5c f8 3f ee ee 7c bf
       -0.80144566 0.78275925 1.9403092 -0.9880208
000020 f9 29 84 c0 80 bb 2e 3f 1d e1 c9 3c 05 ee bf 3f
       -4.1301236 0.6825485 0.024643475 1.4994513
000030 1d cc f5 be bd 09 03 c0 c2 b6 b6 3f 2c 44 d2 3e
       -0.4800729 -2.0474694 1.4274523 0.41067636
000040 09 56 e7 bd 5f a7 b8 bf 89 f1 36 bf b6 c6 8b be
       -0.11295707 -1.4426078 -0.71462303 -0.27300042
000050 67 a8 b4 bd 64 07 4a bf 66 e7 0f bf 18 05 d7 bf
       -0.08821183 -0.7891753 -0.5621246 -1.679843
000060 c8 56 64 bf 76 a3 42 bf 2a 9e 3b 3e 9d f6 a5 3e
       -0.8919492 -0.7603067 0.18322054 0.32414714
000070 85 42 bb bf 71 3e 8c bf 67 20 14 bf d3 83 1b be
       -1.4629675 -1.0956556 -0.5786194 -0.15187006
000080 c7 0e 25 3f c6 b7 5c bf 3f 96 4b 3f 15 69 b4 3f
       0.64475673 -0.86217916 0.7952613 1.4094568
000090 2c df 9d bf e6 68 ea bd b8 e3 fc be 4d 6e 7d 3e
       -1.2333732 -0.11445789 -0.49392486 0.24749108
0000a0 86 4c 50 bf 73 76 32 3f 77 f6 b3 be 1b 0c 8e be
       -0.81366765 0.6971199 -0.35148975 -0.2774361
0000b0 60 74 27 bf 6c dd 3d 3f ca a0 f7 be f0 01 b8 3e
       -0.6541195 0.7416599 -0.4836486 0.35938978
0000c0 dd 51 7f 3e f9 44 6d 3e 37 38 fa bf 57 ad d6 bf
       0.24933572 0.23170842 -1.9548405 -1.6771649
0000d0 ac 13 41 bf 32 ec be 3e cc 89 f8 be 03 71 03 c0
       -0.7542064 0.37289578 -0.4854263 -2.0537727
0000e0 51 88 23 bf fd b6 a9 bf 8d 3e df 3e 69 99 99 bd
       -0.6387988 -1.3258969 0.4360241 -0.07499964
0000f0 14 3e c6 3f a8 af bc bf 93 f5 06 be dc aa 01 bf
       1.5487695 -1.4741106 -0.13179617 -0.50651336
000100 41 29 66 bf a6 42 61 bf 70 2d 22 40 90 6f 8f bf
       -0.899067 -0.8799232 2.5340233 -1.1205921
000110 31 5e 72 be 9d a2 07 3f f1 de a2 3e 9e 88 31 be
       -0.23668744 0.52982503 0.31810716 -0.17337272
000120 0c 98 0a bf e7 23 d9 bf 16 fc 2d 3e 32 ce 82 bf
       -0.54138255 -1.6964082 0.16990694 -1.0219176
000130 26 23 89 3e 97 2f 0b 3f 52 36 a5 bf 57 ea e4 3e
       0.2678463 0.5436949 -1.2907202 0.44710037
000140 cd ab 63 bc 49 8e 0d 3f 66 d2 d9 3f 7d 01 f9 bf
       -0.013895941 0.55295235 1.7017334 -1.9453579
000150 96 dc a0 be e0 ba b5 bc 5d a7 80 be 11 ad 31 3e
       -0.31418294 -0.022183836 -0.25127688 0.17351176
000160 f8 2d 20 bf a5 78 9f 3f 86 22 72 be 0a 8c a8 be
       -0.6257014 1.2458693 -0.23645982 -0.3291934
000170 1c 7c c1 3e 07 ff af 3e ed 29 30 3f 62 cb 50 bf
       0.3779 0.34374258 0.68813974 -0.8156034
000180 42 8c d7 be 41 52 76 3e d3 33 35 bf 80 bd 04 40
       -0.42099196 0.24054815 -0.707822 2.0740662
000190 20 2b a3 be 6e 94 f3 bd 62 ab c7 bf 47 67 83 bf
       -0.3186884 -0.11893545 -1.5599177 -1.0265893
0001a0 7f 7f 14 3f 01 24 db 3f 96 5f a8 3f 10 2b 53 3f
       0.58007044 1.7120363 1.315417 0.82487583
0001b0 a4 b4 0d 40 6f 63 a2 bf 05 42 a8 bf 73 5e 87 3f
       2.2141504 -1.2686595 -1.3145148 1.0575699
0001c0 36 82 3a bf fd 93 f8 3f 6f 68 01 c0 2c 87 82 3e
       -0.72854936 1.9420162 -2.0219991 0.25493753
0001d0 39 c0 32 3d 37 f6 d1 be b5 f1 67 be ea a7 10 bf
       0.04364035 -0.4100816 -0.22650798 -0.56506217
0001e0 c2 54 06 3f 78 0b 27 3f 87 fe 84 3f 34 85 6a be
       0.5247308 0.65251875 1.0390176 -0.22902375
0001f0 6b 01 68 3e 18 ad dd bf 95 29 1a 3f 79 2c fe 3d
       0.22656791 -1.7318449 0.602197 0.12410826
000200 05 46 88 bf 84 d5 4f 3e 95 f0 98 3e 11 1a a9 be
       -1.0646368 0.20296293 0.2987105 -0.330277
000210 4b c3 6f bd e8 c6 02 40 10 22 f4 3f bf c1 de be
       -0.058535855 2.0433903 1.9072895 -0.43507192
000220 a2 7a 4b bf e9 5e 1b 3f 30 f2 81 be 03 a2 1e 40
       -0.79484 0.60691696 -0.25380087 2.4786384
000230 2a 74 bb 3f 17 3c bc be 5d ef 47 be 5f 31 0d 3f
       1.4644825 -0.36764595 -0.19524904 0.5515346
000240 a8 48 f1 be 28 34 b8 3d 00 80 81 bd 75 ec 97 be
       -0.47125745 0.08994323 -0.06323242 -0.2967259
000250 04 84 8a 3f 4b 4b 14 bf d3 cb aa 3e a9 e3 15 bf
       1.0821538 -0.5792739 0.3335863 -0.58550507
000260 7e 5e 4d bf 6d 09 d9 be 43 20 1a 3f bd 77 15 bf
       -0.8022231 -0.42390004 0.6020548 -0.5838583
000270 41 42 b6 bf cb e0 59 be c3 33 15 bf 08 3f e7 bd
       -1.4238969 -0.21277158 -0.5828211 -0.11291319
000280 33 32 c8 bf eb b0 39 40 7a 05 92 bf a4 86 13 bc
       -1.564032 2.9014232 -1.1407921 -0.009004269
000290 c7 65 c0 bf 88 40 80 3f 50 5a 1c 3f f0 31 6a bf
       -1.503106 1.0019693 0.61075306 -0.9148245
0002a0 96 33 b5 3f 8a cf cc 3e 25 6c f7 3f 1c b3 fe be
       1.4156368 0.4000209 1.9329878 -0.49746025
0002b0 6f ed 27 be 23 4e 51 bf 9f e1 56 be 8d 3f 94 3e
       -0.16399167 -0.8175985 -0.20984505 0.28954735
0002c0 5a e3 a0 bf ba 47 d4 3f 89 17 00 3f 3c 5d ef 3f
       -1.2569382 1.6584389 0.5003591 1.8700328
0002d0 9f 4d 06 3f 6c 35 7f 3e cf 7f d8 bc d5 c7 22 3e
       0.5246219 0.24922723 -0.026428131 0.15896542
0002e0 68 62 c1 3e 51 cc 38 3f a3 22 80 3f a1 79 19 3d
       0.3777039 0.7218676 1.001057 0.03746951
0002f0 12 33 6a 3f 78 63 59 bf cc e4 cd bc 44 99 b7 3f
       0.9148418 -0.849174 -0.025133513 1.4343648
000300 ce e2 ad be 66 40 bf 3e 20 0d 57 bf 01 92 2d bf
       -0.339621 0.3735382 -0.840044 -0.6780091
000310 2b 71 74 bf 70 3b df bf 68 14 f1 3f 50 c4 b5 3e
       -0.9548518 -1.7440014 1.8834352 0.35501337
000320 dd 84 dc bf 85 29 9d 3f 12 a3 c7 bd 0e 38 37 bf
       -1.7228047 1.2278296 -0.097479 -0.7156991
000330 98 11 a7 be 20 9d 04 bf 4a 4c ac 3f d0 51 81 3d
       -0.3263061 -0.51802254 1.3460782 0.063144326
000340 2d c3 9b be a9 00 66 3d d0 ea 6e 3e 56 aa 76 3f
       -0.30422345 0.056152973 0.23331761 0.9635366
000350 86 ce dd be 29 ad 11 3f 21 40 b4 bc 7d 99 7d 3f
       -0.43321627 0.56904846 -0.022003235 0.9906233
000360 e2 c5 34 bf 01 b8 09 3f ec ba 18 bf be 45 fb 3f
       -0.70614445 0.5379639 -0.5966022 1.9630659
000370 86 1b 87 bd e4 8f 89 be 56 f9 7d 3d 84 0d 4b bf
       -0.065970466 -0.26867592 0.062005363 -0.793175
000380 8d 20 de be 12 0c 14 3e ba 70 38 be c4 ba 21 3f
       -0.4338421 0.1445773 -0.18011752 0.63175607
000390 7f d6 88 3e 67 7b 01 3f dd af 0d bf c5 b7 66 3f
       0.26726148 0.5057892 -0.5534647 0.9012416
0003a0 02 df af bf d8 12 9b bd 45 57 17 3f ab 4e 04 40
       -1.3739932 -0.075719535 0.5911754 2.0673015
0003b0 07 43 fc 3e 61 02 49 be 41 73 ca bf 60 cc 09 3f
       0.49269888 -0.19629814 -1.5816423 0.53827477
0003c0 a9 69 30 bf f9 b9 ac 3f e1 a7 87 3f f3 d1 a2 bf
       -0.68911225 1.3494254 1.0598108 -1.2720321
0003d0 b1 08 01 c0 72 c3 36 bf 64 5f 92 3f f6 99 b4 3f
       -2.0161555 -0.71391976 1.1435361 1.4109485
0003e0 1e 04 be 3e aa 87 87 bf 48 6f 2b bf 53 68 91 3e
       0.37112516 -1.0588276 -0.66966677 0.28399906
0003f0 f7 96 69 bf 84 42 7f 3e 3e b6 8a be 23 7a 20 3f
       -0.9124598 0.24927717 -0.27092165 0.62686366

weight f4 [32, 32]
000000 14 37 cb 3d 2b 2f 22 3d 3c 36 1d 3e 5b 17 2d 3e
       0.09922615 0.039595764 0.1535272 0.1690344
000010 03 c3 b6 bb c6 73 4f 3e 40 9a 1e be c2 83 7f bd
       -0.0055774464 0.20259008 -0.15488529 -0.062381513
000020 8c b3 d3 bd 05 2e ac 3d 91 d7 aa 3d 05 1a 27 3e
       -0.1033698 0.08407215 0.08341897 0.1631852
000030 93 f2 d7 3d c8 8a ba 3d 8f f3 49 be 46 a2 37 3d
       0.10544314 0.09108502 -0.19721816 0.04483249
000040 77 3f 27 be 6c 5b a9 3d 75 79 a4 bd 34 48 88 3d
       -0.16332804 0.082693905 -0.080309786 0.06654397
000050 db ef d4 bd c3 65 8c bc f7 34 8d bc 5a ed 1d be
       -0.10397311 -0.017138368 -0.01723717 -0.15422574
000060 04 78 21 bd f9 1b 76 3d f4 79 1a 3d 0c 39 b0 3d
       -0.039421096 0.06008527 0.03771396 0.08604631
000070 b8 6c 06 3e 47 7d 6e 3d f8 85 2d be 26 20 a5 3d
       0.1312741 0.058224943 -0.16945636 0.080627725
000080 3e 2f 4c 3e d0 31 27 bd f5 41 ff 3c cd 74 36 3d
       0.19939896 -0.04081899 0.03115938 0.044544984
000090 3c 02 ba 3d 17 cb 1a 3b 8c 41 12 3c 96 e9 fe 3d
       0.090824574 0.0023619586 0.00892676 0.12446897
0000a0 8d 9f 57 bd 2d 3e 38 3e f6 c6 c9 3c fe 09 c7 bd
       -0.052642394 0.17992468 0.024631005 -0.09718703
0000b0 ef de b8 bc ca 2f d8 bc ec 66 48 bd 42 10 5a be
       -0.02256724 -0.026389975 -0.04892628 -0.21295264
0000c0 ab 85 f0 bd e6 9c 08 3e a6 54 ea bd bf b2 c0 3d
       -0.11744245 0.13341102 -0.11441927 0.09409093
0000d0 fa ec 0f be 04 a3 14 be 1a b8 db bd e4 0e e9 bc
       -0.14055243 -0.1451531 -0.10728474 -0.028449483
0000e0 7d 6e 57 be 66 5e dd b9 e1 c2 0b 3e 09 cd 1d 3e
       -0.21038242 -0.00042222737 0.13648559 0.15410246
0000f0 7b 66 8a 3d 4c 21 51 3d 2b 61 56 bd 9f c9 fd bd
       0.06757828 0.051057145 -0.05233876 -0.12391972
000100 3a de cc 3d 08 ba 1e 3d 32 56 40 3e 98 1f 58 3e
       0.10003324 0.038751632 0.18782881 0.21105802
000110 da bf 15 bc 41 0b 7d 3e f0 bc 3d be 0e 40 85 bd
       -0.009139979 0.24711324 -0.18529105 -0.06506358
000120 bb 9d cb bd 7f d7 4e 3d ae c0 16 3e b9 2f 02 3e
       -0.09942194 0.05049848 0.14721939 0.12713517
000130 9c 92 ca 3d 84 1e 05 3e e3 b4 53 be d7 d9 ee 3d
       0.09891245 0.12999922 -0.20674472 0.116626434
000140 b1 96 5c bd 7e 37 91 3d 60 56 61 bd db d4 6a bc
       -0.053854648 0.070906624 -0.055014014 -0.014332975
000150 b6 88 24 bc d7 5b 5f bd bd 48 d1 3c da 03 e9 bc
       -0.01004236 -0.054530945 0.02554738 -0.02844422
000160 09 7f 47 bd 54 90 42 bd fa 15 43 3d 0b 17 f3 3d
       -0.048705135 -0.047500923 0.04762838 0.118696295
000170 fb 54 0f 3d e7 d8 a9 3c 29 0e 6f bc 8a 70 a9 bd
       0.034993153 0.02073331 -0.014590778 -0.08273418
000180 2b 72 28 3e 68 3c 9f bd e8 43 14 3e f2 4b d6 3d
       0.16449802 -0.077751935 0.14479029 0.10463704
000190 f3 3c 97 3c c0 94 a0 3d 6f d1 a1 bd 8e bf 52 3d
       0.01846168 0.07840872 -0.079012744 0.051452212
0001a0 79 db 30 bd 95 64 50 3e 4b cd 99 3d d5 9b 5d 3d
       -0.043178055 0.20350869 0.0750986 0.05410369
0001b0 10 44 c4 bc de 9b b9 3c c6 29 28 be 5e ef bc bd
       -0.023958236 0.022657331 -0.16422185 -0.09225343
0001c0 9f e9 bb bc 53 9b 71 3d 76 f1 c3 bd ec d6 af 3d
       -0.022938548 0.05898602 -0.095675394 0.08585915
0001d0 6f 4f 1b bd 4d ad 28 be ec d1 d9 bd 72 9e a6 bb
       -0.03791755 -0.16472359 -0.106357425 -0.005084806
0001e0 09 44 7e bd 7c 7a ea bb 88 77 9b 3d 7a 6e e5 3d
       -0.062076602 -0.0071557146 0.07591158 0.11202712
0001f0 a2 d5 cd 3d d7 e0 0d bd 15 f3 08 3d 25 30 28 be
       0.10050513 -0.034638252 0.033434946 -0.16424616
000200 a8 26 c0 3d cc 85 8c 3d a2 5f 3e 3e b2 43 6b 3e
       0.09382373 0.06861457 0.18591169 0.22975042
000210 da 62 2d bd 42 2b 80 3e f9 6b 51 be e2 0b ff bd
       -0.0423306 0.25033003 -0.20451345 -0.12453438
000220 b2 43 d7 bd a8 58 51 bc 7d 2c 4d 3e 08 d5 50 3e
       -0.10510959 -0.012777485 0.20036502 0.20393765
000230 06 49 21 3e 59 8f 02 3e ee 49 56 be a8 5f 07 3e
       0.15750512 0.12749995 -0.2092664 0.13220084
000240 44 c8 09 bd 32 ad d9 3a 1b f2 9d 3d 49 d7 e3 3d
       -0.033638254 0.0016607402 0.077121936 0.11125047
000250 6c 67 11 bd d3 11 b5 3d b3 a2 11 3d 33 f5 83 bd
       -0.03549902 0.0884129 0.035555553 -0.064432524
000260 c3 80 9d bc 12 ec c6 3d 63 48 58 3d c0 15 5f bc
       -0.019226437 0.097129956 0.05280341 -0.013616025
000270 7d 65 8d 3c 88 b8 c2 bd 84 08 d3 bd ef a1 b9 3d
       0.017260307 -0.09507853 -0.103043586 0.090640895
000280 8e a6 78 3d 69 cc ba 3d 89 de 07 3e ad 79 54 3e
       0.060705714 0.091210194 0.13268484 0.2074954
000290 60 f7 e2 bd 13 33 74 3e 06 d5 19 be 70 9d 10 be
       -0.11082339 0.23847608 -0.15022668 -0.14122558
0002a0 8d c4 8e bd 21 3f 26 bd f8 8f 47 3e 7b c3 2e 3e
       -0.06971083 -0.04058755 0.19488513 0.17066757
0002b0 36 4f 20 3e 3d f3 e0 3d 29 ee 51 be e9 b9 4d 3e
       0.15655217 0.10983894 -0.20501007 0.2009045
0002c0 b2 55 93 bd 19 48 8c 3d 15 6b 02 bd 5d 94 5b 3d
       -0.071940795 0.06849689 -0.031840403 0.053608287
0002d0 62 a4 84 bd e3 d0 5a bc 8e ab 07 3d a5 68 c2 bd
       -0.06476666 -0.013355467 0.03312259 -0.094926156
0002e0 a0 09 5b bd 47 15 0c 3d 84 87 78 3d 39 9a 67 3d
       -0.053475976 0.03419998 0.060676113 0.056543563
0002f0 81 de 3c 3d 73 42 8b 3b 92 3e cf bd 62 5b a2 38
       0.046110634 0.0042498647 -0.10119356 7.741783e-05
000300 aa 85 14 bd a6 4c 0f bd b0 1e de bc 40 1d d7 3d
       -0.036260284 -0.034985207 -0.027114242 0.10503626
000310 0d 26 78 bd 34 e0 a2 3c 7f 0b 13 bd f7 c9 c2 3d
       -0.060583163 0.019882299 -0.035899635 0.09511178
000320 36 16 23 3e 2d cc e1 bd 91 2a 9c bd 5c 78 04 be
       0.15926442 -0.110252716 -0.076253064 -0.12936538
000330 4a 9f 15 be 10 db 2f bd c8 a0 1d bd 00 15 9a 3d
       -0.14611545 -0.042933524 -0.03848341 0.07523537
000340 84 8a 5c 3e 72 f4 6a bd 7a 68 d7 3c 5e 3a c2 bd
       0.21537215 -0.057362027 0.026294935 -0.09483789
000350 7a 59 cf bc 3a 9e 07 3e f9 73 c4 bd 26 79 c6 3d
       -0.02531122 0.13243952 -0.095924325 0.09691076
000360 51 c2 91 3d bf aa 84 bd 1c b8 30 bd dd b7 d9 bd
       0.07117141 -0.0647788 -0.04314433 -0.10630772
000370 56 25 86 3b ff fe b8 3d 40 ce 94 3d 68 29 0f 3c
       0.0040938063 0.09033012 0.072659016 0.008737899
000380 9f 4b a4 bd 88 41 e2 3d b4 67 a0 bb 55 f9 b2 3b
       -0.08022236 0.11047655 -0.004895175 0.0054618516
000390 0a 2b e6 bc 05 02 3f 3c de e6 4c bc 72 22 d6 bd
       -0.028096694 0.011658196 -0.012506215 -0.10455789
0003a0 8c 73 ef bd c1 44 7c be 58 68 8a 3d 14 a6 87 bc
       -0.11691961 -0.24635603 0.06758183 -0.016558684
0003b0 6b bc 27 3e 01 b1 a4 3c 0e b9 ba 3d 5f e8 d8 3d
       0.1638047 0.020103933 0.09117328 0.10591196
0003c0 88 f7 b0 bd 29 0d 1d 3e bc ba 1a be b0 8c 16 3d
       -0.08640963 0.15337051 -0.15110296 0.036755264
0003d0 45 9f 9e bc 4d 29 37 3d f8 ac ca bc 9f c8 2d be
       -0.019363055 0.044717122 -0.024740681 -0.16971062
0003e0 20 b0 b1 3a d4 68 16 bd 6d 26 df 3d f0 a6 76 3e
       0.0013556518 -0.036721066 0.10896001 0.24087119
0003f0 97 78 fc 3d 81 59 87 bd 15 2a 36 be 93 8d ba bc
       0.12327688 -0.066088684 -0.1778949 -0.022772586

bias f4 [32]
000000 d1 7b 98 be 07 09 8b be af 5f 97 be fd ad c2 be
       -0.29781964 -0.27155325 -0.29565188 -0.38023368
000010 27 df 6e be 7e ef 98 be 25 1c 9c bd 9c 9a 2a be
       -0.23327313 -0.29870218 -0.07622556 -0.16660541
000020 bd 2a 84 bd b0 f6 a5 be ca 84 53 be 96 bc 8e be
       -0.06453464 -0.3241477 -0.20656124 -0.27878255
000030 dc e0 63 bd 3b 9d 8b be d5 3e 00 bf a5 2a c1 bb
       -0.055634364 -0.27268395 -0.50095874 -0.005894976
000040 ea 5d 04 bd 76 09 6d 3d 7c fd c5 be 12 b5 9f be
       -0.032316126 0.05787035 -0.38669956 -0.31192833
000050 90 a2 b2 bb 0b 90 e7 3c 18 56 c2 bd 52 36 aa bd
       -0.005451508 0.028266927 -0.09489077 -0.08311142
000060 7a d1 4d be 6f e5 27 be 80 d8 79 be 46 43 8e bd
       -0.2009944 -0.16396116 -0.24398994 -0.06946425
000070 27 88 b4 be 77 9f 52 be 0b f3 d6 bd 89 62 4d be
       -0.35260126 -0.20568644 -0.104955755 -0.2005712

weight f4 [16, 32]
000000 00 a4 3a 3e e4 93 2b 3d 84 c0 47 3e a3 88 34 3e
       0.18226624 0.041889086 0.19507033 0.17630248
000010 db 9e 8a 3d fc fa 94 3e d6 03 15 be 87 0e 0d bd
       0.067685805 0.29097736 -0.14552245 -0.034437682
000020 41 40 e5 bc 4c 2d bb bd 63 dd 88 bd 86 b4 a0 3d
       -0.02798474 -0.09139499 -0.06682851 0.07846932
000030 3d bb d8 bc 3b c1 ce 3d 86 bb 41 3e ed e0 a6 bc
       -0.02645647 0.100954495 0.18919191 -0.020370925
000040 62 8e b2 bd 90 16 01 be 18 79 92 3e b4 23 b2 3d
       -0.087185636 -0.12606263 0.28608012 0.08698216
000050 06 2d e0 bd d8 0e 44 bd 49 34 02 be 2f 4e 66 bd
       -0.109460875 -0.04786572 -0.12715258 -0.056226905
000060 ea 08 c0 3d 93 07 4b bd 62 f7 b0 bc f4 e6 97 3d
       0.093767 -0.04956777 -0.021602336 0.07417098
000070 77 55 fe 3d f6 6c 34 3e 64 09 15 be b1 a9 06 3d
       0.12418645 0.1761969 -0.14554363 0.032876674
000080 b0 ac 37 3e 38 f4 95 3d 5e dd 88 3d fa aa ea 3d
       0.17936969 0.07321972 0.066828474 0.114583924
000090 87 80 26 3e 69 ee 27 3e 3b 4e f6 bc 66 40 98 3d
       0.16259967 0.1639954 -0.0300666 0.07434158
0000a0 d3 15 8e bd 38 0c 03 3e 1e 61 eb 3d 1f 67 81 3d
       -0.069377564 0.1279763 0.11493133 0.06318497
0000b0 f1 56 0b be 42 96 30 bd 87 37 ae bc f9 41 25 bd
       -0.13607384 -0.043112047 -0.021266712 -0.04034612
0000c0 df 87 6e bd 8d 05 f3 3c 60 fa 5d 3e 55 06 1e 3e
       -0.058235046 0.029665733 0.21677542 0.15432103
0000d0 07 5a 88 bd 71 e4 49 bd 3e 32 67 be 4f 66 09 be
       -0.06657796 -0.049290124 -0.2257776 -0.13417934
0000e0 ad a4 3d 3d 91 f1 00 be 29 15 b6 bc 89 ef b3 3d
       0.046299625 -0.1259215 -0.022226887 0.08785922
0000f0 7a 98 07 3d 7d 34 d3 3d d2 91 b6 bd f3 b4 16 be
       0.033104397 0.10312746 -0.08914532 -0.14717464
000100 c4 fd 80 be c7 4d 44 be d7 9b a0 bd c3 4b e1 bd
       -0.25193608 -0.19170295 -0.07842224 -0.110007785
000110 0a f9 75 be ad 58 0e be 60 17 c2 3d 36 3e d8 bd
       -0.24020782 -0.13901015 0.09477115 -0.10558741
000120 e5 df cc 3d e0 19 95 be 30 17 4f be 65 0f 49 be
       0.10003642 -0.29121304 -0.20223689 -0.19634779
000130 a1 14 92 3d 7c 23 e5 bd 41 52 4a be 5b 23 16 3d
       0.07132841 -0.11188409 -0.1975794 0.03665481
000140 73 58 fb 3d 84 16 cb ba 23 de 96 be 3c 99 ce bd
       0.1227273 -0.0015494381 -0.29466352 -0.10087821
000150 5a 4f 12 3c 8b 96 7a 3d ad df af 3d 81 a6 fd 3d
       0.008930052 0.061178725 0.08587585 0.12385274
000160 88 4e 44 be 3f ec 0d be f7 c4 a9 3d d0 74 64 be
       -0.19170582 -0.13859652 0.08289521 -0.22310185
000170 27 df 8e be e2 99 ea bd 85 fa 07 3e cf 21 dd 3d
       -0.27904627 -0.11455132 0.1327916 0.10797464
000180 a8 cb a5 3d 82 46 14 3e d3 df 6a 3e 92 15 19 bc
       0.08095485 0.14480022 0.22936945 -0.009343522
000190 c5 9e e3 3c e4 7b 48 3e 97 d0 33 bd b0 5c 9a 3d
       0.027785668 0.1957851 -0.0439001 0.0753721
0001a0 30 d6 c0 bd 72 ab 4c 3e c0 50 c4 3d e6 49 08 3e
       -0.09415853 0.19987276 0.09585714 0.1330944
0001b0 a4 ee 9b 3b 55 d1 b9 3d c5 29 79 3e d7 82 a5 bd
       0.004758673 0.0907313 0.2433234 -0.08081596
0001c0 ae b3 bb 3b 5d a0 25 3d de 7d 3c 3e 14 ae ec 3d
       0.0057282066 0.040436137 0.1840739 0.1155664
0001d0 b0 2d 5f bd e8 39 c6 bd ee a1 2c 3c a1 97 b9 bd
       -0.05448693 -0.096790135 0.010536654 -0.09062124
0001e0 41 26 27 bd a0 ca d4 bd 29 11 31 bd 0c 10 ba 3a
       -0.040807966 -0.1039021 -0.043229256 0.0014195456
0001f0 27 55 5a 3e d5 27 1e 3e 27 96 8c 3c 9d 3b 48 bd
       0.21321546 0.15444882 0.017161442 -0.048884977
000200 f6 c6 c6 3d 3a 49 7a 3b 01 fd 05 3e f0 4f 38 3e
       0.097059175 0.003819062 0.13084795 0.17999244
000210 c9 b5 d6 3c 73 1d 07 3e 52 73 a7 bd 82 91 08 3e
       0.026209729 0.13194828 -0.081762925 0.13336757
000220 1a 02 b5 bd 7a 62 83 3e 67 3e ab 3d 27 31 74 3d
       -0.088382915 0.2566107 0.08361512 0.059617188
000230 0f a5 ec bd e3 5a d0 3d 26 19 0c 3e 3b ce b0 bd
       -0.1155492 0.10173585 0.13681468 -0.08633085
000240 2a bb 10 be 1a c5 bb bc 29 e7 5a 3e 1d 4d 3d 3e
       -0.14133897 -0.022921134 0.21377243 0.18486448
000250 e7 92 b2 bc 8f 8d 07 be 57 a6 e0 bd 1f de c4 bd
       -0.021798564 -0.13237594 -0.10969227 -0.09612679
000260 cf 3f e4 bd 0f 02 94 3d 35 9f bf bd 03 bf f2 3d
       -0.11144983 0.07226955 -0.09356538 0.11852839
000270 b8 23 8f 3e 4b 2c e0 3d df e0 24 be e9 22 d4 bc
       0.2795694 0.10945948 -0.16101407 -0.025895553
000280 15 d9 5d bd 79 9c 8e be f4 30 23 be 64 d7 84 be
       -0.054162104 -0.27853754 -0.15936643 -0.2594558
000290 8d 2c 18 be 57 15 95 be e1 9b d3 3d c5 b8 0b be
       -0.14860745 -0.29117844 0.10332466 -0.13644703
0002a0 5b 71 63 3d 4a e7 82 be 9e 4c 34 be c4 a9 39 be
       0.055528026 -0.25567085 -0.17607352 -0.18131167
0002b0 e6 f6 15 3e 59 b9 dc bd 3c 44 64 be 0c 83 51 3d
       0.14644966 -0.1077754 -0.22291654 0.051150367
0002c0 12 30 ce 3d 71 85 cb bb 99 1a a4 be 88 e2 2b be
       0.100677624 -0.006210976 -0.32051542 -0.16785634
0002d0 25 04 9c 3d 1f 1f 2e 3d 04 01 ab 3d a2 5b b2 3d
       0.07617978 0.04251015 0.08349803 0.08708884
0002e0 db be 48 be de 34 14 be bd 04 8a 3d 93 db 75 be
       -0.19604056 -0.14473292 0.06739185 -0.24009542
0002f0 6c ed 38 be 08 46 97 be 09 6e 31 3e 13 ca b1 3c
       -0.1805932 -0.29545617 0.17327131 0.021702802
000300 66 a4 0c 3e 3d 9e 84 bd e8 f9 72 3e ec e2 c6 3d
       0.13734588 -0.06475494 0.23728144 0.09711251
000310 85 d9 db 3d cc e2 7e 3e b7 c7 8b 3c 0e 5b 82 3d
       0.10734848 0.24891204 0.017063005 0.063650236
000320 ed 84 c1 bb 4e 02 a1 3e 82 45 15 3e a6 c6 10 3d
       -0.0059057386 0.3144707 0.14577296 0.035345696
000330 3f 57 fb bd b5 b8 1d 3e 5f 9e 88 3e 2c 11 cb bd
       -0.122725 0.15402491 0.26683328 -0.09915385
000340 80 cf ee bd f1 ac 81 bb 9d 19 5a 3d 6a d0 71 3e
       -0.11660671 -0.003957384 0.053247083 0.2361466
000350 1d 9d 7d bd 73 11 91 3d a6 d7 9f bb bc f8 31 be
       -0.061917413 0.07083406 -0.004878002 -0.17380041
000360 45 9e cb bd 47 a0 96 bc c3 68 95 bc 83 85 a7 3d
       -0.09942297 -0.018386973 -0.01823843 0.08179762
000370 df 74 0b 3e 34 7d 45 3d 98 85 a9 bc e7 db 0c bc
       0.13618802 0.048215106 -0.020693585 -0.008597351
000380 ab f8 24 3d 7d 28 e2 3d 1a 53 10 3e a2 b1 10 3e
       0.04027621 0.11042879 0.140942 0.14130262
000390 71 6d 53 3e b0 e5 3b 3e d1 84 25 3c bc be 82 bc
       0.20647217 0.18349338 0.010102467 -0.01596009
0003a0 60 e1 3f be 28 3c 6f 3d b0 d7 bb 3d 74 b2 49 3e
       -0.18738317 0.05840698 0.091719985 0.1969698
0003b0 b6 7e a1 bd 44 04 ae bc 77 39 20 3e 71 95 d0 bd
       -0.07885496 -0.021242268 0.15646921 -0.10184754
0003c0 5b aa 39 bd 31 9e 52 3d ad b9 3b 3e 1b 7c 01 3e
       -0.04532848 0.051420394 0.18332548 0.12644999
0003d0 bc 65 8f bd 88 e2 dc bd 96 f3 2b be 12 f8 4c be
       -0.07001826 -0.10785395 -0.1679214 -0.20016506
0003e0 2a 69 1b 3e 41 86 ed 3d 1a aa c0 bd 66 a1 61 bb
       0.15176836 0.115978725 -0.09407444 -0.0034428476
0003f0 e2 3a 85 3e eb 99 dd 3c 49 fb c5 bd b6 12 c3 bb
       0.26021487 0.027050933 -0.096670695 -0.0059531583

bias f4 [16]
000000 df 99 1f 3d 17 af 31 bb 7a 65 f2 3a 1a 93 ae bd
       0.038965102 -0.0027112418 0.0018493377 -0.08524151
000010 82 cd 70 bd 57 48 3e bb 6b 47 0a be f9 3f 2a be
       -0.058789738 -0.0029034817 -0.13503806 -0.16625966
000020 a7 90 5a 3c 94 37 29 bd 60 ec 3c be 44 b3 ab bd
       0.013340152 -0.04131277 -0.18449545 -0.083838016
000030 2c 10 41 bd f1 da f6 bd bb 47 02 be 3e 08 86 3d
       -0.047134563 -0.120534785 -0.12722676 0.06544541

weight f4 [8, 16]
000000 fa f2 3d be f3 4a 8b be b9 3f 7c 3e 01 f6 c8 be
       -0.1854972 -0.2720562 0.24633683 -0.39250186
000010 02 cb 7e be 09 6a 82 3e 69 e3 9d be d4 a7 95 bd
       -0.24882129 0.25471523 -0.30837563 -0.07307401
000020 04 55 0b be e4 f8 93 be 09 7a 5e be c2 3a 7d be
       -0.1360665 -0.28900826 -0.2172624 -0.24729446
000030 2e 31 14 3e 65 8f 08 be 2f dc 23 be b3 de 27 3e
       0.14471886 -0.1333595 -0.16001962 0.16393547
000040 a8 dd 5c 3e d5 7c 58 3e 1f 62 95 bd a3 64 4d 3e
       0.2156893 0.2114137 -0.07294106 0.20057921
000050 68 13 2b 3e 1d ee e1 bd 95 e5 95 3e aa 0a 21 3e
       0.16706622 -0.11031745 0.2927672 0.15726724
000060 fa 83 82 3e 01 6e 81 3e bf 27 94 3e 80 45 60 3e
       0.25491315 0.2527924 0.28936574 0.21901512
000070 5b 01 1b be 2b 18 f2 3d d6 75 24 3e 88 0d e0 bd
       -0.15137236 0.11821016 0.16060576 -0.10940081
000080 db a7 18 be 2c 9b 89 be 14 bc 1e 3e 5e b3 81 be
       -0.14907782 -0.268762 0.15501434 -0.2533216
000090 e2 e0 ad be 97 77 17 3e 9a 06 a2 be 27 16 98 be
       -0.33960634 0.14791714 -0.31645662 -0.297044
0000a0 bd 45 47 be 96 2f 90 be f5 ae 43 be 7e 02 89 be
       -0.19460197 -0.28161305 -0.1910971 -0.26759714
0000b0 e5 d4 18 3e b6 fb 34 be 48 47 a8 be 5d a3 a7 3d
       0.14924963 -0.17674145 -0.32866883 0.08185456
0000c0 79 72 cf bd d5 1f 3e be f3 b0 92 3e a5 de a4 be
       -0.10129256 -0.1856683 0.28650627 -0.32201114
0000d0 a1 49 c1 bd 82 79 4a 3e f5 5a 8f be 1d 95 08 be
       -0.09437872 0.19772914 -0.27999082 -0.13338132
0000e0 e9 7f 18 be 32 38 83 be 6a 21 7f bd 8a ce 36 be
       -0.14892544 -0.2562881 -0.062287726 -0.17852226
0000f0 88 1b 4d 3e d7 02 84 be 5f dc 40 be 66 af 3d 3e
       0.20030034 -0.25783417 -0.18834065 0.1852394
000100 2c 0d 2a bd f6 82 1e bd e9 2d 84 3e b2 eb 0d be
       -0.041516468 -0.038699113 0.25816277 -0.13859442
000110 03 7e 24 be a7 a3 93 3e 44 c1 1a be 49 e8 20 be
       -0.16063695 0.28835794 -0.15112787 -0.1571361
000120 e9 16 25 be c0 69 09 be 84 a9 e5 bd ce 6d f6 bd
       -0.16122021 -0.13419247 -0.11213973 -0.12032662
000130 3e 29 7f 3e 0d be bd bd 45 ce 62 be f4 58 98 3e
       0.24918076 -0.09264765 -0.22148998 0.29755366
000140 d6 65 80 3e da 6f 00 3e 55 ba b3 bd 6e 31 84 3e
       0.25077695 0.12542668 -0.087757744 0.25818962
000150 fc ba 2d 3e 84 4a 4d be 2c 92 ce 3d a4 5f 5b 3e
       0.1696586 -0.20047957 0.10086474 0.21423203
000160 9d da 6f 3e 19 13 11 3e c2 60 31 3e 32 87 10 3e
       0.23423238 0.14167441 0.17322066 0.14114073
000170 3e 93 f5 bd be 19 5f 3e 79 31 97 3e ad c2 23 be
       -0.11990975 0.21787164 0.29529932 -0.15992232
000180 51 e1 75 be 98 6a 2c be 9e 8a 8e 3e 6d 96 21 be
       -0.24011733 -0.16837537 0.27840132 -0.15780039
000190 6b 4e 0b be 13 83 58 3e f4 fc 48 be 9b c7 5a be
       -0.13604133 0.21143751 -0.19627744 -0.21365206
0001a0 99 01 88 bc 1f fb f7 bd 9e da e3 bd c7 d2 45 be
       -0.016602324 -0.121084444 -0.11125682 -0.19318686
0001b0 c0 c1 f5 3d 44 5a 48 be aa e5 3d bd f8 0d 26 3e
       0.119998455 -0.19565684 -0.046361603 0.16216266
0001c0 dc 39 30 3e f6 8f 7f 3e 5c d4 cc bd 6c 0e fb 3d
       0.17209572 0.2495726 -0.10001442 0.1225861
0001d0 d4 dc 36 3e 58 eb 25 be c2 cf f5 3d b9 1b 8a 3e
       0.17857677 -0.16203058 0.12002517 0.26974276
0001e0 11 06 eb 3d f3 d2 3d 3e 36 9e d0 3d 62 f2 44 3e
       0.114757665 0.18537502 0.10186426 0.19233087
0001f0 61 9e b2 bd 05 33 6a 3e c2 68 1f 3e b7 d5 55 be
       -0.08721615 0.22871025 0.15567306 -0.20882307

bias f4 [8]
000000 85 8d 15 3d 65 fd 84 bd cc 4a 3f 3d 5b 87 0a 3b
       0.036511917 -0.06493644 0.04670219 0.0021137807
000010 48 14 f1 3b 1c 61 3f bd 10 0d da 3c 4f 9b 3d bd
       0.007357154 -0.04672347 0.026617557 -0.046290692
