models/NeuMF32_test.pt (torch, 703251 bytes, 17 tensors)

weight f4 [944, 32]
0	0xbf453019	-0.77026516
1	0x403558dd	2.8335488
2	0x3f2fb3f8	0.68633986
3	0xbfa52a7d	-1.2903591
4	0xbf81bd08	-1.0135813
5	0x3f316758	0.69298315
6	0xbf9e72bb	-1.2378763
7	0x4006b05f	2.1045148
8	0xbef7cd29	-0.48398712
9	0xbedd3481	-0.4320412
10	0xbf99eafa	-1.2024834
11	0xc062a43a	-3.5412736
12	0x3fdeee55	1.7416483
13	0xbfb818dd	-1.4382588
14	0x3f8dcc60	1.1077995
15	0xbf3651a6	-0.71218336
16	0xbe118a8f	-0.14213012
17	0xc03ff350	-2.9992256
18	0xbf7fc807	-0.9991459
19	0xbf5f62e0	-0.87260246
20	0xbfefd350	-1.8736362
21	0xbf724b40	-0.9464607
22	0xc02e810c	-2.7266264
23	0xbff8c596	-1.9435298
24	0x3f29390d	0.6610268
25	0x3f9f6a27	1.245427
26	0x3efbc7a3	0.49175748
27	0xbfa1fb82	-1.2654879
28	0x3efe0e35	0.49620214
29	0xbcdc20bb	-0.026871076
30	0x3f866794	1.050036
31	0xbfe6c0b0	-1.8027554
32	0xc060f32a	-3.5148416
33	0x3fbaedc1	1.4603807
34	0x406e559b	3.723975
35	0x3e628c37	0.221238
36	0xbfd9ace0	-1.7005882
37	0xc0011dce	-2.0174441
38	0x4020945c	2.5090551
39	0xbee86003	-0.4538575
40	0xbfcbeb11	-1.5931112
41	0x40039e71	2.0565455
42	0xbf97a251	-1.184641
43	0x3f057cfd	0.5214384
44	0x3fb0a7f6	1.3801258
45	0x3fbddf1b	1.4833711
46	0xbf808193	-1.0039543
47	0x402623aa	2.5959268
48	0x3f62dd43	0.8861887
49	0x40393cff	2.894348
50	0x403162ff	2.7716672
51	0xbd7cd3ab	-0.0617253
52	0xbe27e2c8	-0.16395104
53	0x3d602269	0.054720316
54	0xbfbe7ade	-1.4881246
55	0x3f62fb02	0.8866426
56	0xbfff7a88	-1.9959269
57	0xbff88bc4	-1.9417653
58	0x3fd2e5c7	1.6476372
59	0xbed6b525	-0.41935077
60	0x3e61dbcf	0.22056507
61	0xbd828de2	-0.06374718
62	0x3fb6f0ee	1.4292276
63	0x4030989f	2.7593153
64	0xbf1d2c8c	-0.613961
65	0x3fb574ec	1.4176307
66	0xbf93e488	-1.1554117
67	0xbf0b7b5a	-0.54485095
68	0x3ff7ce18	1.935977
69	0xc04a12de	-3.1574016
70	0xc033fc19	-2.8122618
71	0x40393dd5	2.894399
72	0x3e43e67e	0.19130895
73	0xbfe1d8c9	-1.7644283
74	0xbe76b7f7	-0.24093615
75	0x3fb8ba09	1.4431773
76	0x3f858aa2	1.0432932
77	0xbfcc0a72	-1.5940688
78	0xbf994c7f	-1.197647
79	0x3f29befd	0.6630705
80	0x3f8227da	1.0168412
81	0x3f2281f8	0.63479567
82	0xbf644553	-0.8916828
83	0xc00305ba	-2.0472245
84	0x3f90abeb	1.1302465
85	0xbfca111c	-1.5786471
86	0xbf13bdf5	-0.57711726
87	0x3e895839	0.2682512
88	0x3e2f785f	0.17135762
89	0xc0060cc0	-2.0945282
90	0x4033b803	2.8081062
91	0x3e4a0b9f	0.19730996
92	0x3f9da4c8	1.2315912
93	0x4005bfd2	2.0898328
94	0xbf7e2443	-0.9927408
95	0xbf73a853	-0.9517872
96	0x3dd5c03b	0.10437056
97	0x3f48effc	0.7849119
98	0x3f0176e4	0.5057204
99	0xbf8428d8	-1.0324965
100	0xbf3a0170	-0.72658443
101	0xbe16f79a	-0.1474289
102	0x3f133fe2	0.5751935
103	0x3dba8729	0.09107811
104	0xbef69e65	-0.4816772
105	0x3f29f69f	0.6639194
106	0xbf4d7de4	-0.8027022
107	0x3fa63f45	1.2988058
108	0x3ea388d1	0.3194032
109	0xbdc81e9b	-0.097714625
110	0x4019a8ba	2.4009233
111	0x3f5edce7	0.8705582
112	0xbf5534d8	-0.8328376
113	0x3e7964e3	0.24354891
114	0xc0306b49	-2.7565482
115	0xc00163a6	-2.021707
116	0xc00c91b8	-2.196394
117	0x3f516ee9	0.8180986
118	0xbe3c2400	-0.18373108
119	0xbf1b3843	-0.60632724
120	0x3eaf2817	0.34210274
121	0x401cbb55	2.4489338
122	0x3fdb8d11	1.7152425
123	0x4014bb6d	2.3239396
124	0x3ebf5470	0.37369108
125	0xbfde05cf	-1.7345523
126	0xbf6f02c1	-0.9336358
127	0xbea58759	-0.32329825
128	0x3f81dc8c	1.014543
129	0xbed7b046	-0.42126673
130	0x3fdf852f	1.746252
131	0x3fa05389	1.2525493
132	0xbffd733a	-1.9800789
133	0x3f2bebfb	0.6715695
134	0xc0533854	-3.300313
135	0xbf260cc0	-0.64863205
136	0xbfbcecc2	-1.4759753
137	0xbfea5dfb	-1.830993
138	0x3f802f3d	1.0014416
139	0xbf9c1518	-1.2193937
140	0x3ea5b32c	0.3236326
141	0x4012b1a3	2.292092
142	0x3fa25b63	1.2684139
143	0x3f21099e	0.629053
144	0xbfccee88	-1.6010294
145	0x3fc81eff	1.5634459
146	0xc02a2f78	-2.6591473
147	0x3ef337ba	0.47503453
148	0x3e248548	0.16066468
149	0x3e1649bf	0.1467657
150	0x401a822d	2.4141953
151	0x4017c905	2.3716443
152	0xbfd7a913	-1.6848472
153	0xbe75efe6	-0.24017295
154	0x3fbb1635	1.4616152
155	0xc01a40f8	-2.4102154
156	0x3febf043	1.8432697
157	0x406bdb1d	3.6852486
158	0x3f48ffbe	0.7851523
159	0xbeef9913	-0.46796474
160	0xbed50d20	-0.41611576
161	0x3f64c8af	0.8936872
162	0x3e240dd9	0.16020907
163	0xbe019d4b	-0.12657659
164	0xbf7f2ebe	-0.996807
165	0xbfd8ba84	-1.693192
166	0x3e4d80af	0.2006862
167	0x3f7fdf1d	0.9994982
168	0xbeec7a21	-0.46186927
169	0x3f9a9b4c	1.2078643
170	0x3f9c0882	1.2190096
171	0x3f82340c	1.0172133
172	0x3f04f7c6	0.5194057
173	0xbeea9c49	-0.4582236
174	0xbf6230be	-0.88355625
175	0xbfa86c11	-1.3157979
176	0x4032e964	2.795495
177	0xbeb81dcd	-0.35960236
178	0x3dca8bae	0.09889923
179	0x400f3849	2.2378104
180	0x3ecaf623	0.39640912
181	0xc00c6274	-2.193509
182	0x3de08e37	0.10964625
183	0xc039ee64	-2.9051752
184	0x3f8f721f	1.1206702
185	0x3eaeba5a	0.3412655
186	0xc05ebd4a	-3.4803033
187	0x3f25f366	0.6482452
188	0xbfcd03e5	-1.6016814
189	0x3ed5658b	0.41679034
190	0xbf0b5e05	-0.5444034
191	0xbea082b6	-0.31349725
192	0xbc3c9801	-0.01151085
193	0xbff1324f	-1.8843478
194	0x3e953835	0.29144445
195	0xbfa616ca	-1.2975705
196	0x400b5de2	2.1776052
197	0xbea6c1d6	-0.3256976
198	0x3fe43ddd	1.7831379
199	0xbf37b2a5	-0.71756965
200	0x3f1b4480	0.606514
201	0xbf22d0bf	-0.6359977
202	0x3fa25e1f	1.2684973
203	0xbf0ec529	-0.5576959
204	0x3ef7f6d2	0.48430496
205	0xbdaecd03	-0.08535197
206	0xbf6a302d	-0.9147976
207	0x3e760c97	0.2402824
208	0x3f55f362	0.835745
209	0xbfc70266	-1.5547607
210	0x3f8f2b0d	1.1185013
211	0x3ec2533a	0.37954122
212	0x3fd35286	1.6509559
213	0x401ad9e5	2.4195492
214	0x3de09d78	0.10967535
215	0x3f20f00e	0.62866294
216	0x3f51c7a8	0.81945276
217	0x3fa523c9	1.2901546
218	0x3d994dba	0.07485528
219	0xbd11a890	-0.035561144
220	0x3fb38198	1.4023924
221	0xbfc5533d	-1.5416027
222	0x3f485325	0.7825187
223	0x3f50f654	0.81625867
224	0x3fb3b498	1.4039488
225	0xbf67b6b5	-0.90513164
226	0x3ebca332	0.36843258
227	0x3f6770cf	0.9040651
228	0xbf00c729	-0.50303894
229	0x3fdbd02b	1.7172903
230	0x3f88ffcd	1.0703064
231	0xbf85b42d	-1.044561
232	0xc02a41c4	-2.660264
233	0x3fe1c71b	1.7638887
234	0x3fa4d4d3	1.2877449
235	0xc0180dc9	-2.3758414
236	0xbee1336a	-0.43984538
237	0x3e39dacc	0.1814987
238	0xbd97d221	-0.07413126
239	0xbea2fba1	-0.31832603
240	0xbe81d395	-0.25356737
241	0x3dc6c2c2	0.09705116
242	0x3fc480f5	1.5351855
243	0x3f7b92a5	0.98270637
244	0x3fbae74f	1.460184
245	0x3dee8bf8	0.11647791
246	0x3f8d305e	1.1030385
247	0xc03490e8	-2.8213444
248	0xbf9df2b7	-1.2339696
249	0x3e20f46f	0.15718244
250	0x3f7161d8	0.9428992
251	0x3d05ccbb	0.03266595
252	0xbfa979ba	-1.3240273
253	0x3f06f385	0.5271533
254	0xbe13be58	-0.14428079
255	0xbf83134e	-1.0240266

weight f4 [1683, 32]
0	0xbfa0eb8f	-1.2571887
1	0xbe1fb0df	-0.15594815
2	0x403ba218	2.9317684
3	0x3f9dd2fd	1.2330014
4	0x3f926451	1.1436864
5	0xbffd4c8b	-1.9788984
6	0xbfb0b825	-1.3806196
7	0xbec5b7fa	-0.38616925
8	0x401196bb	2.2748249
9	0xbfbc642e	-1.4718072
10	0xbeb21f0d	-0.34789315
11	0xc0041306	-2.063661
12	0x3fd71628	1.6803637
13	0xbe2c122d	-0.16803809
14	0x3f2f3a83	0.68448657
15	0xbf121a1e	-0.570711
16	0x3fec67ed	1.8469216
17	0xbfaaa78f	-1.3332385
18	0xbf7beced	-0.98408395
19	0x3d309908	0.043114692
20	0x3ff12efd	1.8842465
21	0xbf0ba16b	-0.5454318
22	0x3f899150	1.0747471
23	0x3eb666b1	0.35625222
24	0xbf2842d0	-0.6572695
25	0x3c906d1b	0.01763015
26	0xbfff883d	-1.9963452
27	0xc07c4cd8	-3.9421902
28	0xbe98ec67	-0.2986786
29	0x40177bbf	2.3669279
30	0x403c0629	2.937876
31	0xbe4a3a6a	-0.19748846
32	0xbfbd9cc4	-1.4813466
33	0x3b5f9b09	0.0034119508
34	0xbf4a8aca	-0.79118025
35	0x407a5451	3.9113963
36	0x4011329d	2.2687142
37	0xbf3188fe	-0.6934966
38	0x3f1af7cf	0.60534376
39	0xbebab895	-0.3646895
40	0xbfcfd1e5	-1.623593
41	0x3ec155ef	0.37760875
42	0xbf7872fe	-0.97050464
43	0xbea84633	-0.32866058
44	0x3ece657e	0.40311807
45	0xbfc230f0	-1.5171185
46	0xbf915fc0	-1.1357346
47	0x3f53420c	0.82522655
48	0xbf1957b4	-0.5989945
49	0x3ff08ed6	1.879359
50	0x3eec958a	0.4620784
51	0xbea323aa	-0.31863147
52	0x3e5da6b5	0.21645625
53	0x3f95a420	1.1690712
54	0xbe63e2bc	-0.22254461
55	0xbf35cf5a	-0.7101952
56	0x3f359a89	0.70938927
57	0xbdda15ad	-0.106486656
58	0xbf133596	-0.5750364
59	0xbf563dca	-0.8368803
60	0x403a0356	2.9064536
61	0x3fde17e7	1.7351044
62	0x4019ddff	2.4041746
63	0xbe86988f	-0.26288268
64	0x3dd222b3	0.102605246
65	0xbff54361	-1.9161187
66	0xbffb706b	-1.9643682
67	0x3e438769	0.19094624
68	0xbf456229	-0.77102906
69	0x3f354825	0.7081321
70	0x3f9f9e4c	1.2470183
71	0x3f80f39d	1.0074345
72	0xbf9792de	-1.1841695
73	0x3fdb00e1	1.7109643
74	0x3fad7e63	1.3554195
75	0xbf15a534	-0.58455205
76	0x3f3de386	0.741753
77	0x3f8d3f05	1.1034857
78	0x3e42417d	0.18970294
79	0xbe72dcc9	-0.23717035
80	0xbf408597	-0.7520384
81	0xbf00f8f8	-0.50379896
82	0xbfbd54a2	-1.4791453
83	0x3eae4e15	0.34043947
84	0xbd8d959b	-0.069133006
85	0x3fcffb96	1.6248653
86	0x3f87e8ac	1.0617881
87	0xbf6d3101	-0.926529
88	0xbf72121b	-0.94558877
89	0x3f8f0437	1.1173161
90	0xbfa061d1	-1.2529851
91	0x3f2cab29	0.6744867
92	0x40579c08	3.3688984
93	0xbf460e9b	-0.77366036
94	0xc0090bb9	-2.1413405
95	0xbf9fc900	-1.2483215
96	0x3edffe29	0.43748596
97	0xc069f447	-3.6555345
98	0x3ea548d9	0.3228214
99	0x40066475	2.0998814
100	0xbef05b29	-0.4694455
101	0xbf12f3de	-0.5740336
102	0x3f082b9f	0.5319156
103	0xbfe325ce	-1.7745912
104	0x3e7097d9	0.23495425
105	0x3fdb268e	1.7121141
106	0xbe9ec88a	-0.31012374
107	0xbf96b5d3	-1.1774238
108	0x3ebea1a6	0.37232703
109	0x3fb71105	1.4302069
110	0x3f3b5e95	0.73191196
111	0xbebb3048	-0.36560273
112	0x40442d27	3.0652559
113	0xc0223745	-2.5346234
114	0xbfd6622e	-1.6748712
115	0x3f1f8337	0.6230959
116	0xbf7ed4c0	-0.9954338
117	0xbe3c1cdd	-0.18370385
118	0xbdd2e584	-0.10297683
119	0x3fe13985	1.7595679
120	0x3fd1f830	1.6403866
121	0xbf2e7def	-0.6816091
122	0x3e640b30	0.22269893
123	0x403bbdda	2.9334626
124	0xbf8091a8	-1.0044451
125	0x3e428c24	0.18998772
126	0xbf49bb02	-0.78800976
127	0xbf0bc9b0	-0.54604626
128	0xbf3f61d7	-0.74758667
129	0xbe802237	-0.25026104
130	0xbeb5f7a1	-0.35540488
131	0x4059aea7	3.401285
132	0x3fb410cb	1.4067625
133	0xbf515936	-0.8177675
134	0x3fa7a373	1.3096756
135	0x3f277dce	0.6542634
136	0xc0472007	-3.1113298
137	0xbf7c442d	-0.9854153
138	0xbf965a9a	-1.1746399
139	0xbf896174	-1.0732865
140	0x3f47ada0	0.77999306
141	0xbfdd883b	-1.7307199
142	0x3f796b73	0.9742958
143	0xbff80d63	-1.9379085
144	0x3fd6bae3	1.6775783
145	0x3fcc2950	1.5950108
146	0xbd1d4bf6	-0.03840252
147	0xbf31bd36	-0.6942934
148	0x3f89de53	1.0770973
149	0xbf9620f0	-1.1728802
150	0xc02a19f8	-2.657835
151	0x3ff44c42	1.9085772
152	0x3f91e8b8	1.1399145
153	0xbe5fc0a9	-0.21850838
154	0x3fbabeff	1.4589537
155	0xbf1be9f9	-0.6090389
156	0x40227682	2.5384831
157	0xbfbc05e1	-1.4689294
158	0x3ff95fd4	1.948237
159	0xbeba2df6	-0.3636319
160	0x3fc5a604	1.5441289
161	0x3f9716d7	1.1803845
162	0xbf3960a5	-0.7241309
163	0x3e9e60b9	0.3093317
164	0xbfbd2d26	-1.4779403
165	0x3faf6ab7	1.3704442
166	0xbf2615a7	-0.6487679
167	0x3ea37571	0.31925538
168	0x3fc28610	1.5197163
169	0xbff90282	-1.945389
170	0xbf75490d	-0.9581459
171	0x3fc99f2b	1.5751699
172	0x3fa29513	1.2701744
173	0x402cf1c2	2.7022557
174	0xbf851b55	-1.0398966
175	0x4023f7b2	2.5619931
176	0xbe65eef1	-0.2245443
177	0xbf43d4fc	-0.76496863
178	0x401e61c0	2.4747162
179	0xbfe60261	-1.7969476
180	0x4005a3bd	2.0881188
181	0xbfc81c4c	-1.5633636
182	0xc01d9218	-2.4620419
183	0xbf9c6a97	-1.2220029
184	0x3fa3260a	1.2745984
185	0xbf275597	-0.65364975
186	0x3fd9c8bd	1.7014385
187	0xbfd1b803	-1.6384281
188	0xbf32825d	-0.6973017
189	0xbfa363ab	-1.2764791
190	0xbf18b334	-0.5964844
191	0x3fae26d5	1.36056
192	0x3fc0c073	1.5058731
193	0xbfa22b84	-1.266953
194	0xc0062ed2	-2.0966077
195	0x3ea938d2	0.33051163
196	0x3fbfe22a	1.4990895
197	0xbf7244a6	-0.94636
198	0xbfbbb7c3	-1.4665455
199	0x3f165724	0.58726716
200	0xbf37e4c3	-0.7183344
201	0xbf045be4	-0.51702714
202	0x3ea6d1cc	0.32581937
203	0x3f1bfd1a	0.6093308
204	0x3ff7ed94	1.9369378
205	0x3fc4d511	1.5377523
206	0x4023b1de	2.5577312
207	0x3f0c64db	0.54841393
208	0xbfb97538	-1.4488897
209	0x3f5b79c0	0.8573265
210	0xbf6315f0	-0.8870535
211	0xbf238254	-0.6387074
212	0xbfb084f4	-1.3790574
213	0xbf4ba2ff	-0.7954559
214	0xbf1db9e7	-0.6161179
215	0x3ffada62	1.9597895
216	0xbfa09e60	-1.2548332
217	0xbf665bce	-0.8998383
218	0xbece9ebd	-0.40355483
219	0x3f95e039	1.1709052
220	0xbebfab44	-0.37435353
221	0xbf2e79b2	-0.6815444
222	0xbfd796ac	-1.6842856
223	0x3d7b7027	0.061386254
224	0xbfafe98a	-1.3743145
225	0xc0069c95	-2.103307
226	0x3f913cdb	1.1346697
227	0x3dde12af	0.10843407
228	0x3f0fd53e	0.56184757
229	0x405f74ac	3.491496
230	0x3f9f16a5	1.2428786
231	0x3fa88708	1.3166208
232	0xbfa1900d	-1.2622086
233	0x3f841760	1.0319633
234	0xbf2b970b	-0.6702735
235	0xbfcf3d2c	-1.6190543
236	0xbe357088	-0.17718709
237	0x3f8539c5	1.0408255
238	0xbea454c4	-0.3209592
239	0x3e4a510b	0.19757478
240	0x3fc89a95	1.5672175
241	0xbf2b142d	-0.6682766
242	0x3f5dcb5f	0.86638445
243	0xbec81509	-0.3907855
244	0xc000335d	-2.003135
245	0xbec9a82d	-0.3938612
246	0xbfae62ee	-1.3623941
247	0xbe1194fc	-0.1421699
248	0x3eb98eae	0.36241668
249	0x3eadcd3c	0.33945644
250	0xc00aaade	-2.166679
251	0x3f04622e	0.5171231
252	0xbf8a9c93	-1.0829033
253	0xbefd377c	-0.49456394
254	0xbffdc5d9	-1.9826003
255	0xbf77aa84	-0.9674456

weight f4 [32, 32]
0	0x3da722d3	0.08160939
1	0x3cdb5298	0.026772782
2	0xbebf4f63	-0.37365255
3	0x3e090e9f	0.13384484
4	0xbe88b703	-0.26702127
5	0xbecc6930	-0.39924002
6	0x3c917965	0.01775808
7	0xbdc62a5d	-0.09676049
8	0x3d43a4ac	0.047764465
9	0x3eda0c45	0.42587486
10	0x3cf5c5d6	0.030001562
11	0x3d04ecb3	0.032452296
12	0x3d9701e2	0.07373406
13	0x3c41ff08	0.011840589
14	0x3e3e4599	0.18581237
15	0x3e920220	0.28517246
16	0x3dd0ce83	0.10195639
17	0x3e8ec226	0.27882499
18	0x3d6b05a9	0.057378445
19	0xbe835272	-0.25648838
20	0xbecf5597	-0.40494987
21	0x3e060989	0.13089575
22	0x3e2e07e2	0.16995195
23	0xbe6ee448	-0.2332927
24	0x3dc89cae	0.09795509
25	0x3e312734	0.17300111
26	0xbf1f3f89	-0.6220632
27	0x3e1e31bd	0.15448661
28	0x3ba04af5	0.004891748
29	0xbdfc0810	-0.12306225
30	0x3c8cb39e	0.017175492
31	0x3e6d8621	0.23195697
32	0xbead9c93	-0.3390852
33	0xbe628f33	-0.22124939
34	0x3e148109	0.14502348
35	0xbdb3fc33	-0.087883376
36	0xbdbeaa08	-0.09309775
37	0xbe03a6ee	-0.12856647
38	0x3e16b491	0.14717318
39	0x3cd8c8b4	0.02646289
40	0xbcddcae2	-0.027074281
41	0x3d9dec24	0.07711056
42	0x3d44dcc0	0.048062086
43	0xbea41f4a	-0.32055122
44	0x3ec3b17b	0.38221344
45	0x3dd6885f	0.104752295
46	0x3e4e9b40	0.2017641
47	0x3df5af9f	0.11996388
48	0x3d93ce0a	0.07217033
49	0xbe4641db	-0.1936106
50	0xbc87959a	-0.016550828
51	0x3dc7abf0	0.09749591
52	0xbdbdf743	-0.09275677
53	0xbda497e2	-0.08036782
54	0xbe1aa3ae	-0.15101501
55	0x3e1e66cb	0.154689
56	0x3ca78a61	0.020451726
57	0xbbcd3206	-0.006262067
58	0xbe5944e1	-0.21217681
59	0xbe5f2157	-0.21790062
60	0x3e0aa0b1	0.13537861
61	0x3e81dc53	0.25363407
62	0x3deaa806	0.11457829
63	0x3ea494aa	0.32144672
64	0x3f17e58f	0.59334654
65	0x3fc50293	1.539141
66	0xbf34a219	-0.7055984
67	0xbf72adbc	-0.9479635
68	0x3f6a280b	0.9146735
69	0x3fb7f023	1.4370159
70	0xbedb8d59	-0.42881277
71	0xbf8eba6c	-1.1150641
72	0xbdb3c220	-0.08777261
73	0xbe484839	-0.19558801
74	0x3ed8e70b	0.42363772
75	0x3fb92fd6	1.4467723
76	0xbf63bcc9	-0.8895994
77	0x3fa0a1e3	1.2549404
78	0xbe8ebdcf	-0.27879187
79	0x3f8f2767	1.11839
80	0x3f3790bc	0.7170522
81	0x3e97eebd	0.2967433
82	0xbec15a67	-0.37764284
83	0x3f8e6784	1.112534
84	0xbf08f9b7	-0.53506035
85	0xbf555900	-0.8333893
86	0x3f18d060	0.59692955
87	0xbece7d87	-0.40330145
88	0xbf59ffdd	-0.8515604
89	0x3f6baf9b	0.9206483
90	0xbfaa03d0	-1.3282413
91	0xbf948472	-1.1602919
92	0xbee4ef43	-0.44713792
93	0x3f9a2e35	1.2045351
94	0xbfb0886a	-1.379163
95	0xbf8d5152	-1.1040442
96	0x3eb8c5dc	0.36088455
97	0x3e7875d8	0.24263704
98	0xbeb6212a	-0.35572177
99	0xbf0d4d5b	-0.5519616
100	0x3ebc9b1a	0.36837083
101	0x3e7d6713	0.24746351
102	0xbece8b89	-0.40340832
103	0xbefcdefb	-0.4938887
104	0xbecd67e2	-0.4011832
105	0xbf0b10fe	-0.54322803
106	0x3ef425e8	0.4768517
107	0xbe52caac	-0.20585126
108	0xbdb857d5	-0.09001128
109	0x3eaf4f1d	0.34240046
110	0xbeff5698	-0.49870753
111	0x3f028336	0.5098146
112	0x3eb278fd	0.34857932
113	0xbed43fa7	-0.41454813
114	0xbedcb591	-0.43107274
115	0x3ec2fb28	0.38082242
116	0xbee4b6e9	-0.446708
117	0xbee4c045	-0.4467794
118	0x3e3c1b22	0.18369725
119	0xbf04a9a7	-0.5182137
120	0xbecd0de0	-0.40049648
121	0x3eebcc47	0.4605429
122	0xbe6fc057	-0.23413216
123	0xbf089875	-0.5335763
124	0xbede079e	-0.43365186
125	0x3ee3075a	0.44341546
126	0xbf458b87	-0.77166027
127	0xbf03bd4c	-0.5146072
128	0x3c808be8	0.015691712
129	0xbdbabc78	-0.09117979
130	0x3ef12365	0.47097316
131	0xbe81e22f	-0.25367877
132	0xbe79496d	-0.24344416
133	0x3ca1302b	0.019676289
134	0x3c2f49de	0.010698764
135	0xbe27a9b7	-0.16373335
136	0x3f00a32a	0.5024897
137	0xbe43d932	-0.19125822
138	0x3cae2de1	0.021262111
139	0xbf41af2b	-0.7565791
140	0x3f3d28b2	0.7389022
141	0x3e50a220	0.20374346
142	0x3e5586e4	0.20852238
143	0x3ddd619d	0.10809634
144	0xbf17e988	-0.59340715
145	0x3ea9e9f9	0.3318632
146	0x3e410775	0.18850501
147	0xbe6e4c7c	-0.23271364
148	0x3cbd6878	0.023121104
149	0x3ded8a5a	0.11598654
150	0xbe184e37	-0.14873587
151	0x3dac2d92	0.08407129
152	0x3d9cbd08	0.07653242
153	0xbec4025d	-0.38283053
154	0x3f0f415b	0.559591
155	0xbd5998ef	-0.053124364
156	0x3eb1d206	0.34730548
157	0xbe80f39a	-0.25185853
158	0xbe01a405	-0.12660225
159	0xba040a8a	-0.0005036971
160	0xbd75443f	-0.059879538
161	0xbea25eb2	-0.31712872
162	0x3e71a041	0.23596288
163	0xbe0e53d3	-0.13899164
164	0xbe61612f	-0.22009729
165	0xbd5ec051	-0.054382626
166	0x3e3c8f55	0.18414052
167	0xbeb138d0	-0.34613657
168	0x3e99fdee	0.30076545
169	0x3e1fdcb9	0.15611543
170	0x3cd8349f	0.02639228
171	0xbe1c7279	-0.15278043
172	0x3ec78a86	0.38972872
173	0xbd591be6	-0.05300512
174	0x3d24a2cf	0.04019433
175	0x3e7e9c92	0.24864414
176	0xbe0f4498	-0.1399101
177	0x3e84f94a	0.25971442
178	0xbb67e621	-0.003538497
179	0x3e78bb74	0.24290258
180	0xbd890a3d	-0.06691406
181	0xbcb21289	-0.021737354
182	0xbdb839c9	-0.08995397
183	0x3df69ef0	0.12042034
184	0xbc29972c	-0.010350984
185	0xbcde9e7f	-0.027175186
186	0xbead9162	-0.3389998
187	0x3e57c500	0.21071243
188	0xbe9b43ae	-0.30325073
189	0x3e41f864	0.1894241
190	0x3c83f02e	0.016105738
191	0x3e812d6f	0.25229976
192	0x3d8080b4	0.06274548
193	0xbf3b7157	-0.7321982
194	0xbd375612	-0.044759817
195	0xbe6a4764	-0.22878796
196	0xbe9e3fe8	-0.30908132
197	0xbef03c04	-0.46920788
198	0xbe6d461d	-0.23171277
199	0xbe0a0f94	-0.13482505
200	0x3d969ff5	0.07354728
201	0xbf18e21d	-0.5972002
202	0x3e1a8dd4	0.15093166
203	0xbfce66f9	-1.6125175
204	0x3f81e3b8	1.0147619
205	0xbdcc677e	-0.09980677
206	0x3e00257e	0.12514302
207	0x3e5ea7fb	0.21743767
208	0x3d1de83a	0.038551547
209	0xbf03ca60	-0.51480675
210	0x3de4cd05	0.11171917
211	0x3df13b63	0.11778905
212	0xbd8b3289	-0.06796748
213	0xbd3fd075	-0.04682966
214	0xbebb9c84	-0.3664285
215	0xbc8ab386	-0.016931307
216	0x3ce5089b	0.027958205
217	0xbe7aca63	-0.24491267
218	0x3e03bd48	0.12865174
219	0x3df14650	0.11780989
220	0xbe17f35a	-0.14838925
221	0x3d40e7a7	0.04709592
222	0x3d00a3ff	0.0314064
223	0x3e3987b3	0.18118171
224	0x3e8a06fc	0.26958454
225	0xbd04f8dd	-0.032463897
226	0xbe7b95a9	-0.2456881
227	0xbce3b1f4	-0.027794816
228	0xbd3c33f2	-0.045947976
229	0xbcc90cb7	-0.024542196
230	0x3d843c95	0.064568676
231	0xbda3ddd4	-0.08001295
232	0x3e637147	0.2221118
233	0x3d8b1136	0.06790392
234	0xbe966ff6	-0.29382294
235	0x3cfc20b9	0.030777322
236	0x3e7ef371	0.24897553
237	0x3e021b39	0.12705697
238	0x3ea797a5	0.32732883
239	0xbdbf0a9a	-0.09328194
240	0xbe078606	-0.1323472
241	0xbcb12ae5	-0.021626899
242	0xbd42eceb	-0.047589224
243	0x3e38b565	0.18037947
244	0xbd48b92f	-0.04900473
245	0x3e6d1ea1	0.23156215
246	0x3d79f026	0.06102004
247	0x3e5fc7c5	0.2185355
248	0x3c9caec8	0.019126311
249	0xbe6a8695	-0.22902901
250	0x3e8f007c	0.27930057
251	0x3d9a31ec	0.07529053
252	0xbd0c7f59	-0.034301136
253	0xbe1ad1ff	-0.1511917
254	0xbd0b8a50	-0.034067452
255	0xbd5e2bdb	-0.054241043

bias f4 [32]
0	0xbe9cf650	-0.30656672
1	0x3f2abd50	0.6669512
2	0x3e1d0161	0.15332557
3	0x3f9b8280	1.21492
4	0xbfb4a9a0	-1.4114265
5	0x3f2dbcb0	0.6786604
6	0x3edda4e3	0.4328986
7	0xbefd9e3a	-0.4953478
8	0x3e9c4b2a	0.30526096
9	0x4008ed26	2.1394744
10	0x3f56a845	0.8385051
11	0xbf9d48cd	-1.2287842
12	0x3f4fe40f	0.81207365
13	0x3f99a485	1.2003332
14	0x3d762e10	0.060102522
15	0xbf005cc2	-0.5014154
16	0x3f248b0b	0.6427466
17	0xbffd8540	-1.980629
18	0xbc232d40	-0.009959519
19	0x3fe209a0	1.7659187
20	0x3f88f9ab	1.0701193
21	0x3db42dbd	0.087977864
22	0xbf364f26	-0.7121452
23	0x3f882d80	1.0638885
24	0x3fa260ef	1.2685832
25	0x3f6323dc	0.8872659
26	0x3efd4be6	0.49471968
27	0xbf8920c1	-1.0713121
28	0xbf9a8185	-1.2070776
29	0x3e34266c	0.17592782
30	0x3df990ce	0.121858224
31	0x400d9e2f	2.2127798

weight f4 [944, 32]
0	0x3f2021f9	0.6255184
1	0xc00e08a3	-2.2192771
2	0xc00e9c7f	-2.2283018
3	0x3f584a84	0.844887
4	0xbfbd6bd7	-1.4798535
5	0x3fb2a4dc	1.3956561
6	0x4031ce79	2.778227
7	0xbe822dec	-0.2542566
8	0xbfcc042f	-1.5938777
9	0xbfc394be	-1.5279768
10	0x3f15c4c2	0.58503354
11	0xbec24513	-0.37943324
12	0xbf30f553	-0.69124335
13	0x3e885aa6	0.2663166
14	0x3dfcaebc	0.123380154
15	0x3fd01b70	1.6258373
16	0xbe560754	-0.20901233
17	0xbe979427	-0.2960522
18	0xbf9959be	-1.1980512
19	0x3f307373	0.6892616
20	0xbe4a9836	-0.19784626
21	0x400b02cd	2.172046
22	0xbf8a904f	-1.082529
23	0xc0225219	-2.5362608
24	0xbe95f047	-0.2928488
25	0xbf9aced8	-1.2094374
26	0x3e090b3c	0.13383192
27	0x3f9166d7	1.1359509
28	0x3f94ae67	1.1615723
29	0x3fa95511	1.3229085
30	0xbf55aab7	-0.83463615
31	0xbe5e4681	-0.21706583
32	0x3ed7de05	0.42161575
33	0x3d56d978	0.052453488
34	0xbd91da49	-0.07121713
35	0xbffad4b0	-1.9596157
36	0xbf296f0b	-0.66185063
37	0x3e02f08f	0.12787078
38	0xbe583963	-0.21115641
39	0xbfc90a85	-1.5706335
40	0xbe9fe7da	-0.31231576
41	0x3f979af5	1.1844164
42	0x3eb3497d	0.35017005
43	0xbfec141f	-1.844364
44	0xbf9630d7	-1.1733655
45	0x3f5fd04c	0.8742721
46	0x3f8fe9e8	1.1243258
47	0x3e671952	0.22568253
48	0x3f2a614c	0.66554713
49	0xbf20cebb	-0.62815446
50	0x3f796fbb	0.9743611
51	0x3ec7845f	0.3896818
52	0xbf359967	-0.709372
53	0xbfde265b	-1.7355455
54	0x3e902605	0.28154007
55	0x3ff8ed46	1.944741
56	0xbaee933a	-0.0018201836
57	0x3fe5e578	1.7960653
58	0xbeaaf377	-0.33388874
59	0x3e4443d2	0.19166496
60	0x40221cb1	2.5330012
61	0xbf406f48	-0.751698
62	0x3f4cef49	0.8005262
63	0xbe173c55	-0.14769109
64	0x40156567	2.334314
65	0xbfb00080	-1.3750153
66	0xbf80ba0d	-1.0056778
67	0xbfd54b4e	-1.6663606
68	0xc01c1d11	-2.439274
69	0xbf36c490	-0.7139368
70	0xc05171f2	-3.2725797
71	0x3fa72428	1.3057909
72	0xbfa51ca0	-1.2899361
73	0xbf753f8d	-0.95800096
74	0xbfe68375	-1.8008868
75	0xbf5bbc5a	-0.85834277
76	0x3f5ff421	0.87481886
77	0x3c1d41ab	0.009598176
78	0x3ff10a33	1.8831238
79	0x3ebc87fc	0.36822498
80	0x3fa2c6d8	1.2716932
81	0x3fcb8d71	1.590254
82	0xbf6c3548	-0.922688
83	0x4015dfcd	2.3417847
84	0xbecc1ac8	-0.39864182
85	0x404b77f9	3.1791975
86	0x3f7164e8	0.94294596
87	0xbf5fbae1	-0.8739453
88	0x3e513f4d	0.20434304
89	0x3fc1f2ad	1.5152184
90	0x3e3f7be6	0.18699607
91	0x3e653e46	0.22387037
92	0x3f94bf01	1.162079
93	0x3f3f9a36	0.7484468
94	0xbfc51b34	-1.5398927
95	0x3f02ac23	0.5104391
96	0x3f854d31	1.0414182
97	0xbe499b91	-0.1968825
98	0x3e7ee848	0.24893296
99	0x3f2b0843	0.6680948
100	0x4012de17	2.2948053
101	0x3fca52ad	1.5806481
102	0x3ed25e59	0.41087607
103	0xbfc55e2d	-1.5419365
104	0xc00e77f5	-2.2260716
105	0xbfe8b929	-1.8181506
106	0x3fdec86d	1.7404915
107	0xbf397382	-0.72441876
108	0xbf1486d4	-0.5801823
109	0x3ff42be2	1.9075892
110	0x3ff2fc33	1.8983215
111	0x3f99302f	1.196783
112	0xbf12761e	-0.5721148
113	0xbf7145c2	-0.94247067
114	0xbeb686d5	-0.35649744
115	0x3fb8b7d2	1.4431098
116	0xc00f6b29	-2.2409155
117	0x40074ec4	2.1141825
118	0xbf2e5b21	-0.681078
119	0xbfc398b2	-1.5280974
120	0x3e7442d2	0.23853615
121	0x3ec675ba	0.38761693
122	0xbf2081c0	-0.6269798
123	0x3f6e8e4c	0.9318588
124	0xbfbfaeaa	-1.4975178
125	0x3e9237e3	0.28558263
126	0xbe127c4b	-0.14305227
127	0x3f9cf7a3	1.2263073
128	0x3fdc1f1a	1.7196991
129	0xbfd8e438	-1.6944647
130	0xbea8930a	-0.32924682
131	0xbe97080f	-0.29498336
132	0x400264ac	2.0373945
133	0xbd632a62	-0.05546034
134	0xc0893898	-4.2881584
135	0xbfd16013	-1.6357445
136	0xbf7fdb3a	-0.9994389
137	0x4028be94	2.636632
138	0xc029b256	-2.6515098
139	0x3ff68da0	1.926197
140	0xbe5b69ed	-0.21427126
141	0xc0083f86	-2.1288772
142	0xbdd20db2	-0.102565184
143	0xbc9bd0ea	-0.019020516
144	0xbf959d3c	-1.1688609
145	0x3f415fe6	0.75536954
146	0x3beda265	0.007252025
147	0xbebbb993	-0.3666502
148	0x403e713b	2.975661
149	0x3f8a5c20	1.0809364
150	0x402f6600	2.7406006
151	0xbee3a2de	-0.44460195
152	0x4007e7f1	2.1235316
153	0x3e3faeab	0.18718974
154	0x4083d12b	4.119283
155	0x401585f6	2.3363013
156	0xbfa11fd3	-1.2587837
157	0xc036ecd2	-2.8582044
158	0x3fa0ff82	1.2577975
159	0x4028e72c	2.6391096
160	0x3f7be4d7	0.98396057
161	0x3ef929e3	0.4866477
162	0xbf8bcf50	-1.0922642
163	0x3e311410	0.1729281
164	0xbf5ce056	-0.8627981
165	0xbec6da4c	-0.38838422
166	0x3f9ddb89	1.2332622
167	0xbf8ce0eb	-1.100614
168	0xbf837335	-1.0269533
169	0xbf6f93b3	-0.93584746
170	0xbfe0bf06	-1.7558296
171	0x3ffabc6e	1.9588754
172	0xc0372c43	-2.8620765
173	0xbf0c6278	-0.5483775
174	0xbc3cd08d	-0.011524332
175	0xc01cf88e	-2.4526706
176	0xbf9b0b78	-1.2112875
177	0xbeefeadc	-0.4685887
178	0x3fa5c912	1.2951987
179	0xbea0e497	-0.314244
180	0xbfbf4c4a	-1.4945157
181	0x3fac7508	1.3473215
182	0x3f587e09	0.84567314
183	0x3f054de9	0.52072006
184	0x3f5b260f	0.8560495
185	0x3fb8554e	1.4401033
186	0x3ebcd459	0.36880758
187	0x3f840d12	1.0316489
188	0xc004fdc8	-2.0779896
189	0x3f5e5040	0.868412
190	0x3f38b323	0.7214834
191	0xbef79ef4	-0.4836346
192	0xbf2502d6	-0.6445745
193	0xbf2304d6	-0.63679254
194	0x3ffcf26a	1.9761479
195	0x3e7e0170	0.24805236
196	0x3ed9a341	0.42507365
197	0x3e42580a	0.18978897
198	0x3f7b2b54	0.9811299
199	0x3fe904f0	1.8204632
200	0xbe9dec61	-0.30844405
201	0xbe9785d3	-0.29594287
202	0xbf5deff7	-0.8669428
203	0x4042dd5f	3.0447614
204	0x3f1bec58	0.60907507
205	0xbf21624d	-0.6304062
206	0x3e2903d3	0.16505365
207	0xbd9d1822	-0.076706186
208	0xbfcaac87	-1.5833901
209	0x3f2df9cc	0.67959285
210	0x3e936d7c	0.28794467
211	0x40249110	2.571354
212	0xbff3f6a1	-1.905964
213	0x3f21c17a	0.63185847
214	0x3fb2b365	1.3960997
215	0x401ffe56	2.4998984
216	0xbff56774	-1.9172196
217	0x3f8ce6f7	1.1007985
218	0xbf1e4fca	-0.618405
219	0xbf04ee82	-0.51926434
220	0xbf5d40e4	-0.8642714
221	0xbf9493ba	-1.1607583
222	0x3e4f82af	0.20264696
223	0xbf080faf	-0.5314893
224	0x3e695456	0.22786078
225	0x3e4cda85	0.20005234
226	0x3fffa054	1.9970803
227	0x3ee213d6	0.4415576
228	0x3f450e2e	0.7697476
229	0xbf80f0d6	-1.0073497
230	0x401917d5	2.3920796
231	0xbecb16a0	-0.396657
232	0xbfc5ebc1	-1.5462571
233	0xbedc5cc9	-0.4303954
234	0x3e9bcd24	0.30429947
235	0x401b2ab5	2.4244816
236	0xbf0d1c7d	-0.55121595
237	0xbe8378e9	-0.25678185
238	0xbf17aa3a	-0.5924412
239	0xbfe39a22	-1.7781413
240	0xc05340be	-3.3008265
241	0xbf7f3104	-0.99684167
242	0x3fb3dcd6	1.4051769
243	0xbe928c89	-0.28622845
244	0xbd37c1d3	-0.04486258
245	0x3ffc142a	1.9693654
246	0xbf9f29ef	-1.2434672
247	0xbe0a7c99	-0.13524093
248	0x40095d78	2.1463299
249	0x3ee2eb87	0.44320318
250	0x3e8a6765	0.2703201
251	0xbf2ed6d7	-0.6829657
252	0xbf4d784a	-0.8026167
253	0xbf91b4bc	-1.1383281
254	0x3edfc77e	0.43706888
255	0xbf453acd	-0.7704285

weight f4 [1683, 32]
0	0xbe92a367	-0.2864029
1	0x3fbcd07e	1.4751127
2	0x3fa0f96f	1.2576121
3	0x401ef3eb	2.4836376
4	0xbf90669b	-1.1281313
5	0xbd4e76e7	-0.050406363
6	0xbfea4694	-1.8302789
7	0xbec8da86	-0.3922922
8	0xbe91066f	-0.2832522
9	0xbf3b2bac	-0.73113513
10	0x3fea325a	1.8296616
11	0xbf909ee5	-1.1298491
12	0xbf2f8f59	-0.68578106
13	0x3f4f1287	0.80887645
14	0xbf70994f	-0.9398393
15	0xbfa03b6d	-1.2518135
16	0xbf9985e6	-1.1993988
17	0x3ed0fea2	0.4081927
18	0xbdafabdd	-0.08577702
19	0x3e91f6d1	0.28508618
20	0x3fa48c38	1.2855291
21	0xbda59c4b	-0.08086451
22	0xbf04c3cf	-0.5186128
23	0x3d18f380	0.037341595
24	0x3f744362	0.9541532
25	0x403b5205	2.926881
26	0xc0151f7d	-2.330047
27	0xbef566d5	-0.47930017
28	0xc0205b7b	-2.5055835
29	0xbfaafa8d	-1.3357712
30	0x3ea931c3	0.33045778
31	0xbf37093f	-0.71498483
32	0xbf7c4f90	-0.985589
33	0x406784bc	3.6174765
34	0xbff7b91e	-1.9353368
35	0xbf81a607	-1.0128793
36	0xbff7bc89	-1.9354411
37	0x3f5fd58d	0.8743523
38	0xc0169bf0	-2.3532677
39	0x3f961107	1.1723946
40	0x3fcda091	1.6064626
41	0xbcb45a50	-0.02201572
42	0xbf24bc03	-0.64349383
43	0x405245c8	3.285509
44	0x3e963f2d	0.29345074
45	0x3eb00fe8	0.34387136
46	0xbfc0d312	-1.5064414
47	0xc0564133	-3.3477294
48	0x4089f8b6	4.31161
49	0x3fcd4316	1.6036098
50	0xbf780162	-0.9687711
51	0xbf3cc72a	-0.737414
52	0xbebc6974	-0.36799204
53	0xbf581106	-0.84400976
54	0x4006d992	2.1070294
55	0x406a0399	3.6564696
56	0xbfa4d18d	-1.287645
57	0x3fdf1467	1.7428101
58	0x3f4cc71b	0.7999131
59	0xbf2986dc	-0.66221404
60	0x3f69d88a	0.9134604
61	0xc0a1091c	-5.032362
62	0x3effba0a	0.49946624
63	0xbfeb5925	-1.838658
64	0xc026ed7f	-2.6082456
65	0xbd9f3be9	-0.07775099
66	0x3fce405a	1.6113389
67	0x3f54810e	0.8300942
68	0x3f991f71	1.196272
69	0xbfcb8421	-1.5899698
70	0x3fb66244	1.4248738
71	0xbf1234a1	-0.57111555
72	0xbfa484fc	-1.2853084
73	0xc05f471e	-3.4887156
74	0x3ece3b13	0.40279445
75	0xc047dd89	-3.1228964
76	0x3f4959d2	0.7865268
77	0x3fec3255	1.845286
78	0x408d7d85	4.421572
79	0x3f1fedb7	0.624721
80	0xbe0e8729	-0.13918747
81	0xc04546b3	-3.0824401
82	0x3e5ea3d5	0.21742184
83	0x3e5a0941	0.21292593
84	0xc0103773	-2.2533844
85	0x4003e8bf	2.0610807
86	0xbe7cd3ef	-0.24690221
87	0xbf9fd10c	-1.2485671
88	0xbea1b57a	-0.31583768
89	0xbe8789cd	-0.2647232
90	0xc006c8a8	-2.105997
91	0x3f48adef	0.783904
92	0xbf86c5df	-1.0529135
93	0x3e103c34	0.14085466
94	0xc0410528	-3.0159397
95	0x3faa8a95	1.3323542
96	0x4067ab06	3.6198134
97	0x3f9e9621	1.2389566
98	0x3e934daa	0.2877019
99	0x3f7c3a59	0.9852653
100	0xbe0b4877	-0.13601862
101	0xbf329421	-0.69757277
102	0xbf6ace16	-0.9172071
103	0x3f3fbcdc	0.7489755
104	0xbfcc9fed	-1.5986305
105	0x40079d5d	2.1189797
106	0x3f9ab15e	1.2085378
107	0x3e92cb6d	0.28670827
108	0x3f73086f	0.94934744
109	0xbf913243	-1.1343464
110	0x3eeff14b	0.4686378
111	0xbf1da3b0	-0.6157789
112	0xbe82e98c	-0.25568807
113	0xbeefef2c	-0.4686216
114	0x3eae39d6	0.340285
115	0xc018b111	-2.3858073
116	0xbeb5788d	-0.35443535
117	0x4003fa8b	2.062167
118	0xbc5e2681	-0.013558985
119	0x3e0b85e6	0.13625297
120	0x3f301091	0.6877528
121	0x3fdfcc0d	1.7484146
122	0x3f92048e	1.140764
123	0x3ecd25e5	0.40067974
124	0x3e6db4de	0.23213527
125	0xbf1dea2f	-0.6168546
126	0x3eeef494	0.46670973
127	0xbf875c8e	-1.057512
128	0x3e2203eb	0.15821807
129	0x3f1fdc77	0.6244578
130	0x3edd371a	0.43206102
131	0x3eb8abfb	0.3606871
132	0xc009d8dd	-2.1538613
133	0xbffd47e4	-1.9787564
134	0xc01aade0	-2.4168625
135	0x3e00ecea	0.12590376
136	0xbebdfa8d	-0.37105218
137	0xbd9c5ae1	-0.07634521
138	0x3fee3181	1.8608857
139	0xbc94b5d1	-0.018153103
140	0xbfa2cd4d	-1.2718903
141	0x3f09ced9	0.5383125
142	0x3fc28f99	1.5200073
143	0xbf79a0b4	-0.9751084
144	0x3fcf4fd5	1.6196238
145	0x3fdf51ea	1.7446873
146	0xbe0e2cbd	-0.13884254
147	0x3f74f88e	0.95691764
148	0xbf2ada09	-0.66738945
149	0x3ef833e3	0.48477086
150	0x3fea6719	1.8312713
151	0xbf32a33d	-0.6978033
152	0x3df0a53f	0.11750268
153	0x3e393a72	0.18088701
154	0x3fd1929e	1.6372869
155	0xbdc7f8e3	-0.09764268
156	0xbe56ce96	-0.20977244
157	0xbfab52c4	-1.3384633
158	0x3f052bed	0.5202015
159	0xbf621749	-0.8831678
160	0x3fb34642	1.4005816
161	0x401472d1	2.3195078
162	0xbfc70685	-1.5548865
163	0xbc72ca05	-0.014818673
164	0x3fc4da13	1.5379051
165	0x40095138	2.1455822
166	0xbfbd4f13	-1.4789757
167	0x403353ed	2.8019974
168	0x3fec404e	1.8457124
169	0x3fa17432	1.2613585
170	0xbf8eb297	-1.1148251
171	0xbea211a0	-0.31654072
172	0xbeaa6765	-0.3328201
173	0xbfafce8c	-1.3734908
174	0xbfb4f3a2	-1.4136851
175	0x3f615a27	0.88028187
176	0x3f061e9a	0.52390444
177	0x3ff815ad	1.9381615
178	0xc01c04fc	-2.4378042
179	0xbeacd238	-0.33754134
180	0xbe0a3b4b	-0.13499181
181	0xbe7762a6	-0.24158725
182	0x401c10e8	2.4385319
183	0x3f5a6947	0.8531689
184	0x3f06f836	0.5272249
185	0xbe1b85e3	-0.15187792
186	0x404922cf	3.1427495
187	0xbfdef9d6	-1.7419994
188	0x3f906b77	1.1282796
189	0xbd6c73e7	-0.05772772
190	0x4044ad43	3.073075
191	0xbf8e1efa	-1.1103203
192	0x3f43a691	0.76426035
193	0x3f603d2f	0.8759336
194	0xbf198547	-0.5996899
195	0xbf969e8f	-1.1767138
196	0x3fe8df36	1.8193119
197	0x3f69c1c2	0.91311276
198	0xc02912c7	-2.641771
199	0x40007f5f	2.007774
200	0x406ef91b	3.7339542
201	0x400aca6d	2.168605
202	0xbfcb90f2	-1.5903609
203	0x3ec4c01d	0.3842782
204	0xbfb56429	-1.4171191
205	0xbf7b09b1	-0.9806166
206	0xbec0522b	-0.3756269
207	0xbf5d5a78	-0.8646617
208	0x404517ca	3.079577
209	0x3faecdd6	1.3656566
210	0xbfae4e8e	-1.3617723
211	0xbfe42024	-1.7822309
212	0x3f96bd78	1.1776571
213	0xbf367ee1	-0.7128735
214	0x3fa6980a	1.3015149
215	0x4001a965	2.025964
216	0xbe4608dc	-0.19339317
217	0xbfe4f5a2	-1.7887461
218	0xbf9e29c7	-1.23565
219	0xbfc2c093	-1.5215019
220	0x3f019600	0.50619507
221	0xbf8ac2a4	-1.084065
222	0x3ee37f79	0.4443319
223	0xc015c663	-2.3402336
224	0x3f60cd9e	0.87813747
225	0x3f4cc771	0.79991823
226	0xbfac689d	-1.3469425
227	0x3f94b0b6	1.1616428
228	0xbf98d33a	-1.1939461
229	0x3f211d52	0.62935364
230	0xbf7ecc4b	-0.99530476
231	0xbf6502bc	-0.894573
232	0xbf40bbe9	-0.7528673
233	0x3e9d61b8	0.30738616
234	0x3fcbbd0f	1.5917071
235	0xbfaf9e39	-1.3720161
236	0x3f34d674	0.7063973
237	0xbfa19cbe	-1.2625959
238	0xbf8d68a5	-1.104756
239	0x401420af	2.3144948
240	0xbe585487	-0.21125995
241	0xbf1d67e2	-0.6148664
242	0x3ed0c5a0	0.40775776
243	0xbfee420e	-1.8613908
244	0xbf2112c1	-0.6291924
245	0x3f9ac523	1.2091411
246	0xbc5f7660	-0.013639063
247	0x3eb5ee11	0.35533193
248	0xbf688fd5	-0.9084447
249	0xc02f352a	-2.7376199
250	0x4004e046	2.0761886
251	0xbe87cece	-0.26524967
252	0x40226fcb	2.5380733
253	0xbf611a0e	-0.8793038
254	0x3f4b00b8	0.7929797
255	0x3ff46bde	1.9095418

weight f4 [32, 64]
0	0xbf3eaf87	-0.74486583
1	0xbf9357c1	-1.1511155
2	0x3e9acc19	0.3023384
3	0xbe039db3	-0.12853126
4	0x3e65fd61	0.22459938
5	0xbeeec7d9	-0.46636847
6	0x3f1373b8	0.5759845
7	0xbd6e7460	-0.058216453
8	0xbeb01fe9	-0.34399346
9	0x3f83dce4	1.0301785
10	0xbf777bfb	-0.96673554
11	0x3fbb11a7	1.4614762
12	0x3d50af8f	0.050948676
13	0xbfb9cc63	-1.4515499
14	0xbe361051	-0.17779662
15	0xbf9dfb40	-1.23423
16	0xbf8ba033	-1.0908264
17	0x3f256554	0.6460774
18	0xbf75548c	-0.95832133
19	0x3ecfb0f7	0.405647
20	0xbfa9a22e	-1.3252618
21	0x3f71fa8c	0.9452293
22	0xbf4aab36	-0.791675
23	0x3bc0ac1f	0.0058798934
24	0x3f80a089	1.0048991
25	0x3f62c8fb	0.8858792
26	0x3f05d2ab	0.5227458
27	0x3f644591	0.8916865
28	0xbf7d25a2	-0.9888555
29	0x3f1d0ec8	0.6135068
30	0x3f1fdc92	0.6244594
31	0xbeabe9cf	-0.3357682
32	0xbfc4ff91	-1.5390493
33	0xbf10513c	-0.56373954
34	0x3e0a19c1	0.13486387
35	0xbcbf180a	-0.023326892
36	0xbee414ee	-0.44547218
37	0xbf05ee85	-0.52317077
38	0x3f90c0ab	1.1308798
39	0xbf6db5e0	-0.92855644
40	0xbeb50b6a	-0.3536027
41	0xbfa40c5d	-1.2816273
42	0x3f18fba6	0.59758985
43	0x3f5c3240	0.86014175
44	0x3f246055	0.6420949
45	0x3fd85c76	1.6903217
46	0x3f62705a	0.88452685
47	0xbf90b5ab	-1.1305441
48	0x3ed8084b	0.42193827
49	0x3f6aadf0	0.9167166
50	0x3fcc18eb	1.5945104
51	0x3f5ba565	0.8579925
52	0xbe8c7158	-0.27430224
53	0x3e8043d3	0.25051746
54	0xbe51a97f	-0.20474814
55	0xbe8233df	-0.254302
56	0xbfc9c9cf	-1.5764712
57	0x3f70f16f	0.941184
58	0x3e8f8266	0.28029174
59	0x3ee62d2e	0.44956344
60	0xbf9927d1	-1.1965276
61	0xbe0c50d7	-0.13702713
62	0xbfa017d8	-1.2507277
63	0xbee93500	-0.45548248
64	0xbec56995	-0.38557115
65	0xbe8a547c	-0.2701758
66	0xbea54c94	-0.32284987
67	0x3ed61b50	0.41817713
68	0xbf53bb0b	-0.8270728
69	0x3f50e7fc	0.8160398
70	0xbebfd344	-0.3746587
71	0xbde9d696	-0.11417882
72	0xbef05ed6	-0.46947354
73	0x3eec5a3b	0.4616259
74	0xbf0978a2	-0.53699696
75	0xbd41b148	-0.04728821
76	0xbf533473	-0.82501906
77	0xbe65602b	-0.22399966
78	0x3ef67a47	0.48140165
79	0xbcd9584c	-0.026531361
80	0xbe5f952f	-0.21834253
81	0x3f229eb1	0.63523394
82	0x3f1c029b	0.60941476
83	0x3d1ddfc1	0.038543466
84	0x3ecf56b2	0.4049583
85	0xbfb9d03d	-1.4516674
86	0x3f52976e	0.82262313
87	0x3f5f09d1	0.87124354
88	0xbf2df875	-0.6795724
89	0xbee134d6	-0.43985623
90	0x3f7bf4f7	0.9842066
91	0xbe8a4abb	-0.2701014
92	0x3e1957fb	0.14974968
93	0x3f01299c	0.50454116
94	0x3f5194cc	0.8186767
95	0xbebacca7	-0.36484262
96	0xbd7a9c78	-0.061184376
97	0x3f06fad8	0.5272651
98	0x3e7f3476	0.24922356
99	0x3ed09fd8	0.4074695
100	0x3f759ffd	0.9594725
101	0xbe741491	-0.2383597
102	0xbe884968	-0.26618505
103	0xbf913b26	-1.1346176
104	0x3e02b9ec	0.12766236
105	0xbedd1b4b	-0.43184885
106	0xbe42f7a5	-0.19039781
107	0x3f9347e6	1.1506317
108	0x3fb75095	1.4321467
109	0xbed1648f	-0.40897033
110	0x3f2326c3	0.6373102
111	0xbf8d2622	-1.1027262
112	0xbe03a14d	-0.128545
113	0xbe429de0	-0.19005537
114	0x3f24058b	0.6407096
115	0xbdf39a38	-0.11894649
116	0xbf47b2c6	-0.7800716
117	0x3f5a15db	0.851896
118	0x3f82ac6f	1.0208873
119	0x3ecca4e8	0.39969563
120	0x3f8a3cf9	1.0799857
121	0x3f34d6e3	0.7064039
122	0x3f0dc682	0.55381024
123	0x3f67b2fc	0.90507483
124	0x3f4a32e8	0.78983927
125	0xbe9e015e	-0.30860418
126	0xbf036f6c	-0.5134189
127	0x3ea39697	0.31950828
128	0x3d98805f	0.0744636
129	0x3eb49245	0.35267845
130	0xbfb96508	-1.4483957
131	0x3f8c07f5	1.0939928
132	0xbf8568e3	-1.0422634
133	0x3fba35c7	1.4547662
134	0xc00f2a88	-2.236971
135	0xbc6f878b	-0.014619718
136	0xbf340eeb	-0.70335263
137	0x3ee05695	0.43816057
138	0x3f849b62	1.0359919
139	0xbf386254	-0.72025037
140	0x3fa2d227	1.2720383
141	0xbe25b91f	-0.161839
142	0x3d09dcd9	0.033657882
143	0x3f891ead	1.0712487
144	0x3e2697e7	0.16268884
145	0x3fc9305d	1.5717884
146	0xbee8bc14	-0.45455992
147	0xbfa119da	-1.2586014
148	0x3fa06f42	1.2533953
149	0xbf751732	-0.9573852
150	0x3e9c4c21	0.30526832
151	0xbe42933f	-0.19001482
152	0x3f5dc3fa	0.8662716
153	0xbfe55373	-1.7916092
154	0x3f2e6cb4	0.6813462
155	0x3fa1580a	1.2604992
156	0x3fe013b8	1.7506018
157	0x3f28b64e	0.65903175
158	0x3fe3158e	1.7740953
159	0x3f29ef2f	0.6638059
160	0x3fdd378a	1.7282574
161	0x3d82153a	0.06351705
162	0x3f5d3267	0.8640503
163	0xbe24bac9	-0.16086878
164	0x402b117f	2.6729429
165	0x3ea19d99	0.3156555
166	0x3ec70c9c	0.38876808
167	0x3e2c5500	0.168293
168	0x3f93b0da	1.1538346
169	0x3f92c5ba	1.1466591
170	0xbf1458c0	-0.5794792
171	0x3e9c371f	0.30510804
172	0xbf652db2	-0.8952285
173	0xbf5de482	-0.866768
174	0x3efac9be	0.48982042
175	0x3f3d4c17	0.7394423
176	0xbf3213d0	-0.6956148
177	0xbfa514fe	-1.2897031
178	0x3e43f72e	0.1913726
179	0x3f89152f	1.070959
180	0xbed85c6a	-0.42258006
181	0x3e891c74	0.2677952
182	0xbf61bb87	-0.8817677
183	0x3f304163	0.6884977
184	0x3f50ac1e	0.8151263
185	0xbfd97d24	-1.6991315
186	0x3dd49ff4	0.10382071
187	0x3f0431ad	0.516383
188	0xbe9c213e	-0.30494112
189	0x3f972d2b	1.1810659
190	0x3e61dcbf	0.22056864
191	0xbe16b7f3	-0.14718609
192	0xbe8974fd	-0.26847067
193	0x3f6b81ce	0.9199494
194	0xbf4b8401	-0.79498297
195	0xbf89b004	-1.0756841
196	0x3e21ed21	0.15813114
197	0xbff9b9e3	-1.9509853
198	0xbf806d9b	-1.0033449
199	0x3f5ad9e5	0.8548873
200	0xbe5d075c	-0.21584839
201	0xbf265d19	-0.64985806
202	0x3e8cbe20	0.27488804
203	0xbebb8c8e	-0.36630672
204	0xbee713ef	-0.45132396
205	0xbf443892	-0.7664882
206	0xbdf258df	-0.11833357
207	0x3fbaee47	1.4603966
208	0x3d1998bd	0.03749918
209	0x3f3e74f8	0.7439723
210	0xbe020acf	-0.12699436
211	0xbfcd9148	-1.6059961
212	0x3fc66096	1.5498226
213	0x3e8a9440	0.2706623
214	0x3e21ad3c	0.1578874
215	0xbf925d5e	-1.1434743
216	0xbf32b413	-0.6980602
217	0x3c888a0a	0.016667385
218	0x3dfb92dc	0.122838706
219	0x402badb5	2.6824772
220	0xbf0b5014	-0.54419065
221	0x3e9f0013	0.31054744
222	0x3e0c6a67	0.13712464
223	0x3e7c268c	0.2462408
224	0x3f453cbe	0.7704581
225	0xbdffba96	-0.1248676
226	0xbf0bb3db	-0.5457131
227	0xc002dced	-2.0447342
228	0x3fe5f051	1.7963964
229	0xbe7734a1	-0.2414117
230	0x3eee3469	0.4652436
231	0x3d8f8ff5	0.070098795
232	0xbed98a83	-0.4248849
233	0xbdadee26	-0.08492689
234	0xbfcaea48	-1.5852747
235	0xbe243a28	-0.1603781
236	0x3ea0131c	0.3126458
237	0xbf510b4a	-0.8165785
238	0xbfa7f7f0	-1.312254
239	0x3ebb29c3	0.365553
240	0xbf925de1	-1.14349
241	0x3f98b1b7	1.1929234
242	0xbdd58214	-0.10425201
243	0xbdfd2286	-0.123601004
244	0x3f05069b	0.51963204
245	0x3fae84b9	1.3634254
246	0x3e9ba868	0.3040192
247	0xbee2f53f	-0.44327733
248	0xbf9c19c9	-1.2195369
249	0xc00b1db6	-2.1736884
250	0x3ea7fa42	0.3280812
251	0xbf14959d	-0.5804079
252	0xbf94101c	-1.1567416
253	0x3f2a83da	0.6660744
254	0x3e65f975	0.22458442
255	0x3f1ebaea	0.6200396

bias f4 [32]
0	0xbf21297d	-0.6295393
1	0xbf1fffb1	-0.6249953
2	0xbf8c5a11	-1.0964986
3	0xc0116a0e	-2.272098
4	0xc002687a	-2.0376267
5	0xbfb570a1	-1.4174997
6	0x3fa9a295	1.3252741
7	0xbf43e00a	-0.7651373
8	0xbcd22db5	-0.02565656
9	0x3eba328e	0.36366695
10	0xc0119a7e	-2.2750545
11	0xbeffa848	-0.49933076
12	0xbee0d646	-0.43913478
13	0xbf5afa1f	-0.85537905
14	0xbfad46c0	-1.3537216
15	0xbe921ca7	-0.28537485
16	0xc00362a9	-2.0528967
17	0xc0111962	-2.2671742
18	0xbf6fa247	-0.9360699
19	0xc075cccd	-3.840625
20	0xbf01fada	-0.50773394
21	0xbddc6738	-0.10761875
22	0xbdf05278	-0.1173448
23	0x3ebfdb8a	0.37472183
24	0xbf86bcd9	-1.0526382
25	0xc024ca35	-2.5748417
26	0xc06118d6	-3.5171409
27	0xbf914002	-1.1347659
28	0xc02dcb08	-2.715517
29	0xbffd2556	-1.9777019
30	0xbe791fe5	-0.24328573
31	0x3f453956	0.7704061

weight f4 [16, 32]
0	0x3f4d6421	0.8023091
1	0x3ec3089f	0.38092515
2	0x3f2a01a1	0.66408736
3	0x3f60b93e	0.8778266
4	0xbcf7728f	-0.030205993
5	0x3f27ece5	0.6559585
6	0x3f1a309b	0.60230416
7	0x3e53f2a2	0.20698026
8	0x3f2b7cc7	0.6698727
9	0xbd10358e	-0.035207324
10	0xbe42f94d	-0.19040413
11	0x3fa2b125	1.271031
12	0x3eec4ffb	0.4615477
13	0x3e92237b	0.28542694
14	0x3e1ca53e	0.1529741
15	0x3f40e30c	0.75346446
16	0xbf244162	-0.64162266
17	0xbd95f6bf	-0.07322454
18	0xbf43b2ed	-0.76444894
19	0xbe4b74b4	-0.19868737
20	0x3f41a916	0.7564863
21	0x3f2365d0	0.6382723
22	0x3f448311	0.7676249
23	0xbf4c50dc	-0.7981088
24	0x3f110921	0.56654555
25	0x3d54a9e4	0.051919833
26	0x3e276268	0.16346133
27	0x3ef9e371	0.48806337
28	0x3d9c6f4f	0.07638418
29	0x3df3fc5a	0.119133666
30	0x3e00f8c8	0.12594903
31	0x3ef76176	0.48316544
32	0xbe4b0f41	-0.19830038
33	0xbe3acf86	-0.18243226
34	0xbe56b1c2	-0.20966247
35	0xbef0a123	-0.46997938
36	0x3e51cc84	0.20488173
37	0xbe686eaf	-0.22698472
38	0xbe91f217	-0.28505012
39	0xbe625f7f	-0.22106741
40	0xbd9bb121	-0.07602144
41	0xbe504a80	-0.2034092
42	0xbeaa4ee5	-0.33263317
43	0xbe827885	-0.25482574
44	0xbd85099a	-0.06495972
45	0xbe4a3d6a	-0.1974999
46	0xbe9395bd	-0.2882518
47	0xbe425e40	-0.18981266
48	0xbe73bfb3	-0.23803596
49	0x3d9e29c0	0.07722807
50	0xbdf5e54f	-0.12006628
51	0xbec5a86f	-0.38605067
52	0xbde4cc83	-0.1117182
53	0xbd2d9712	-0.0423804
54	0xbe041f1e	-0.12902495
55	0xbef063de	-0.46951193
56	0xbdd54c8e	-0.10414992
57	0xbdb7f886	-0.08982949
58	0xbca8fd0d	-0.020628477
59	0xbc3ca196	-0.011513134
60	0x3c794c54	0.015215952
61	0xbe0c2200	-0.13684845
62	0xbe721d44	-0.23643976
63	0xbe3c3205	-0.18378456
64	0xbefa7a09	-0.4892123
65	0xbed47697	-0.41496727
66	0xbe09745a	-0.13423291
67	0xbe2ece13	-0.17070799
68	0xbe94cab1	-0.2906089
69	0xbec30d9e	-0.38096327
70	0xbe9cf9a9	-0.30659226
71	0xbf0c7584	-0.54866815
72	0xbe4c5952	-0.19955948
73	0xbf0e3086	-0.5554279
74	0xbeb93ae3	-0.3617774
75	0xbeaf6d05	-0.34262863
76	0xbe3ceb16	-0.18449053
77	0xbf078d9b	-0.5295045
78	0xbf35e4e2	-0.7105237
79	0xbe9b4423	-0.30325422
80	0xbf1454fc	-0.57942176
81	0xbe1f0de4	-0.15532643
82	0xbe92c3e0	-0.28665066
83	0xbe217d2a	-0.15770403
84	0xbe2c6ef2	-0.16839197
85	0xbe8ceb74	-0.27523386
86	0xbf130f56	-0.57445276
87	0xbec910e8	-0.3927071
88	0xbf0901da	-0.5351845
89	0xbe9d6c91	-0.30746892
90	0xbebb5e20	-0.3659525
91	0xbe7e4062	-0.24829248
92	0xbefe32d4	-0.49648154
93	0xbc5f400b	-0.013626109
94	0xbe17d508	-0.14827359
95	0xbecc5a89	-0.39912823
96	0xbee7baa3	-0.4525958
97	0xbef33e4f	-0.47508475
98	0xbe096887	-0.1341878
99	0xbe2f99f1	-0.17148568
100	0x3e779aec	0.24180192
101	0xbe80947c	-0.25113285
102	0xbee60633	-0.44926605
103	0xbea3dda9	-0.3200505
104	0xbec39cd2	-0.38205582
105	0xbe7d9fb1	-0.24767949
106	0xbe943e38	-0.2895372
107	0xbec741f7	-0.38917515
108	0x3d52fd00	0.05151081
109	0xbe2bdc0b	-0.16783158
110	0x3edb061e	0.42778105
111	0xbf515b23	-0.8177969
112	0xbefae75e	-0.49004644
113	0xbf24e467	-0.64411014
114	0xbeed8ca3	-0.4639636
115	0xbe0f4cf0	-0.13994193
116	0xbeb2e37d	-0.34939185
117	0xbe0dab35	-0.13834842
118	0x3c03cee4	0.008044932
119	0xbf2d72a5	-0.6775306
120	0xbe9523ef	-0.29128978
121	0xbf3b5188	-0.7317128
122	0xbeb4a2ac	-0.3528036
123	0xbe07d783	-0.13265805
124	0xbef1d789	-0.47234753
125	0xbf313dda	-0.69235003
126	0xbf09f92c	-0.5389583
127	0x3e6eed46	0.233327
128	0x3cc9acfb	0.024618616
129	0xbe39d41c	-0.1814732
130	0xbe84afdb	-0.25915417
131	0xbdc78f95	-0.09744183
132	0xbebdbf68	-0.37060094
133	0xbe94624b	-0.28981242
134	0xbc8861f6	-0.016648274
135	0xbd83149d	-0.06400416
136	0xbe6ce509	-0.23134245
137	0xbce04c60	-0.027380168
138	0xbeb96506	-0.36209887
139	0xbea4ddda	-0.3220051
140	0xbf0de31d	-0.5542467
141	0xbea0a836	-0.31378335
142	0xbe6e746f	-0.23286603
143	0xbeb971ca	-0.36219627
144	0xbeb4e33d	-0.3532962
145	0xbca90aaa	-0.020634968
146	0xbf07c634	-0.5303681
147	0xbecdca92	-0.4019361
148	0x3e166839	0.14688195
149	0xbe43f007	-0.19134532
150	0x3d36fbaa	0.0446736
151	0xbf8199a2	-1.012501
152	0xbed1cf13	-0.40978298
153	0xbedf9813	-0.4367071
154	0x3cde1ff9	0.027114855
155	0xbf263297	-0.64920944
156	0xbe9f5559	-0.31119803
157	0xbe93c3b8	-0.2886026
158	0xbdf7c19c	-0.12097475
159	0xbe53dc05	-0.206894
160	0xbe86b231	-0.26307824
161	0xbe95d131	-0.29261163
162	0xbf093a81	-0.53604895
163	0xbed1b206	-0.40956134
164	0xbe050acc	-0.129924
165	0xbeccd9a5	-0.400098
166	0xbea36156	-0.319102
167	0xbf216438	-0.63043547
168	0xbf0aa209	-0.54153496
169	0xbf213f64	-0.6298735
170	0xbf2a9b3b	-0.6664311
171	0xbdc03bff	-0.09386443
172	0xbe764e20	-0.2405324
173	0xbf00335b	-0.5007836
174	0xbedc2716	-0.4299857
175	0xbec52a06	-0.38508624
176	0xbe6e933e	-0.23298356
177	0xbc93c875	-0.018039921
178	0xbf007279	-0.5017467
179	0xbd7ea010	-0.062164366
180	0xbf100f02	-0.562729
181	0xbed8a1cc	-0.4231094
182	0xbe5fa9a0	-0.2184205
183	0xbeb366dc	-0.35039413
184	0xbeb9087e	-0.36139292
185	0xbe0cf2b9	-0.13764466
186	0xbf343b49	-0.7040296
187	0xbf398313	-0.7246563
188	0xbe3d8cbd	-0.18510719
189	0xbf62276e	-0.88341415
190	0xbeb47545	-0.3524572
191	0xbdb8c60d	-0.0902215
192	0x3c0ff895	0.008787294
193	0x3d0d2a44	0.034464136
194	0xbe4a23dc	-0.19740242
195	0xbeb12b77	-0.34603474
196	0xbd09de35	-0.03365918
197	0x3bf0e41e	0.0073514124
198	0x3ba557eb	0.005045881
199	0xbeb50e9e	-0.35362715
200	0xbe295c6b	-0.16539161
201	0x3e35e078	0.1776141
202	0xbd9bd64e	-0.07609235
203	0xbe8b90ab	-0.2725881
204	0xbe44bfb3	-0.19213752
205	0x3cd0443c	0.025423162
206	0xbec2e807	-0.38067648
207	0xbdd5830c	-0.10425386
208	0xbee3fa2f	-0.44526812
209	0xbe92b3c0	-0.28652763
210	0xbf42a877	-0.76038307
211	0xbee3e723	-0.4451228
212	0xbe87ce82	-0.2652474
213	0xbe4479c0	-0.19187069
214	0xbe4452a3	-0.19172148
215	0xbef95d3f	-0.48703954
216	0xbe7f5eba	-0.24938479
217	0xbe529dd5	-0.2056802
218	0xbde02ec4	-0.1094642
219	0xbdd20d85	-0.10256485
220	0xbe84c7bb	-0.25933632
221	0xbd7f24af	-0.062290844
222	0x3d106cc8	0.035259992
223	0xbe00b614	-0.12569457
224	0xbf3829b3	-0.7193863
225	0xbe5f61f0	-0.21814704
226	0xbe7b08f2	-0.24515131
227	0xbf27f554	-0.65608716
228	0xbef7ede3	-0.4842368
229	0xbd4f308d	-0.05058341
230	0xbdb64939	-0.08900685
231	0xbef67372	-0.48134953
232	0xbe8d8031	-0.27636865
233	0xbf576ee4	-0.8415358
234	0xbf0243cf	-0.5088472
235	0xbe23bd58	-0.15990198
236	0xbf07a539	-0.52986485
237	0xbe19a350	-0.15003705
238	0xbf32de0d	-0.6987007
239	0xbf06156f	-0.52376455
240	0xbefd2e1e	-0.49449247
241	0xbe9eb605	-0.30998245
242	0xbece4ffc	-0.40295398
243	0xbec05483	-0.37564477
244	0xbf26093d	-0.64857846
245	0xbead97a4	-0.33904755
246	0xbefa0e78	-0.48839164
247	0xbee2057b	-0.44144806
248	0xbf0af40c	-0.54278636
249	0xbef016e5	-0.46892467
250	0x3dcf530d	0.101232626
251	0xbf0098e8	-0.50233316
252	0x3cf846d5	0.030307213
253	0xbeab97a5	-0.33514133
254	0xbf0b86fa	-0.5450283
255	0xbeca26ee	-0.39482826

bias f4 [16]
0	0x3fbb838f	1.4649523
1	0xbdb3cfe6	-0.08779888
2	0xbf01ff9f	-0.5078067
3	0xbf1ac00e	-0.604493
4	0x3ef49db4	0.47776568
5	0xbee9734f	-0.45595786
6	0x3ed98bdd	0.4248952
7	0xbf357a4c	-0.70889735
8	0xbccc10db	-0.024910381
9	0xbf4b2303	-0.793503
10	0x3edd5171	0.43226197
11	0xbed021e4	-0.40650856
12	0xbec7a51c	-0.38993156
13	0x3f5ffbcf	0.87493604
14	0xbe8a7343	-0.27041063
15	0x3ea0c405	0.3139955
