models/NeuMF_parametric_dropout8_best_so_far.pt (torch, 184236 bytes, 16 tensors)

weight f4 [943, 8]
000000 13 46 4b c0 44 57 91 be 93 ab e1 3e 3b 12 54 40
       -3.176152 -0.2838689 0.44076213 3.3136127
000010 bf 09 5e c0 dd 49 5c c0 2b 5f ec bf 02 5d 95 3f
       -3.4693449 -3.4420083 -1.8466543 1.1669009
000020 21 32 ca 3f 69 2d da bf 73 1a f8 3f ea 18 b1 be
       1.5796548 -1.7045108 1.9383072 -0.3458932
000030 0e 55 48 40 f7 32 d7 be eb d5 9a 3e 62 65 6f 3f
       3.1301913 -0.4203107 0.3024133 0.9351407
000040 fe cb cd be c8 88 48 c0 c2 b0 6b 3f 6b e0 6d bf
       -0.40194696 -3.1333485 0.92066586 -0.9292056
000050 b9 7d 88 bf c9 76 99 be dc aa 1c bf a6 c3 40 40
       -1.0663368 -0.29973438 -0.6119821 3.0119414
000060 d6 50 b3 3d 70 a8 9b bf e0 71 aa 3f 62 21 98 be
       0.087556526 -1.2160778 1.3316002 -0.2971297
000070 11 cb 7b be e4 3b e8 be 5b 04 7c c0 21 50 6f 3f
       -0.24589182 -0.45358193 -3.9377658 0.9348164
000080 52 e0 11 40 1f c8 4b 40 d6 3e 12 c0 aa 66 b3 3f
       2.2793164 3.1840894 -2.2850852 1.4015706
000090 21 c2 3f bf cb b8 13 40 33 a4 f4 3e b5 4f 58 3f
       -0.7490559 2.3081539 0.47781524 0.84496623
0000a0 c4 f6 c6 bf 65 e4 71 bf 79 11 80 40 59 76 1c c0
       -1.5544057 -0.9448913 4.002133 -2.4447234
0000b0 a5 8e 2a c0 15 9b 3c 3f 9e 40 64 3f d4 d9 d2 3e
       -2.6649563 0.73674136 0.891611 0.41181815
0000c0 57 ed bd 3f 1e 29 e5 3e 90 bc b4 be c6 f0 34 3f
       1.4838055 0.44757932 -0.35300112 0.7067989
0000d0 a5 81 54 c0 49 e1 6e 40 75 02 97 c0 50 9c 8a c0
       -3.3204129 3.7325003 -4.71905 -4.331581
0000e0 06 b4 70 bf 8b fe 59 be 87 fc 0e be 2b 82 d8 bf
       -0.94024694 -0.21288507 -0.13963519 -1.6914724
0000f0 2b 28 39 40 c9 56 84 bf 8d 59 ad bd 9b 76 ed be
       2.8930767 -1.0338985 -0.08464346 -0.4637955
000100 cd 0c 89 bf 09 1f 83 3e 2b 44 24 3f c7 40 93 3d
       -1.0707031 0.25609615 0.64166516 0.0719009
000110 ee 82 60 3f c8 56 68 3f 97 7e 41 bf 9e 0a 5d c0
       0.8769978 0.9075742 -0.75583786 -3.453773
000120 5b 5d a0 3c da 1b dd 3e ed 92 78 bf 9a 09 16 c0
       0.019575765 0.43185312 -0.9709919 -2.344336
000130 df 94 60 bf 6d f3 1e 3f 94 4b 7a 3d aa 44 57 c0
       -0.8772716 0.6209019 0.061107233 -3.363566
000140 d9 9f 29 3c 3e 9c bd 3f 2e 82 6d 3f 72 0e 62 be
       0.010353052 1.4813306 0.92776763 -0.22075823
000150 ac 54 a9 bf 62 31 09 bf df 4b 47 40 19 43 39 bf
       -1.3228965 -0.5359098 3.1140058 -0.7236801
000160 b3 61 8f 3f 89 9c 95 be 0f 9f 0a c0 70 ee c5 3f
       1.120169 -0.2922099 -2.1659582 1.546339
000170 f3 1b f4 3e d3 d5 d1 bf eb ed 66 3f c7 5e 29 bf
       0.47677574 -1.6393379 0.90206784 -0.66160244
000180 f7 ae 4e c0 e0 07 5c c0 c1 a7 b4 3f 63 a0 aa bf
       -3.229429 -3.4379807 1.4113694 -1.3330196
000190 35 9b 47 c0 77 76 80 c0 94 c5 a2 40 1d 42 39 40
       -3.118848 -4.014461 5.0866184 2.8946602
0001a0 c4 83 9b bd 37 dd 78 bf 17 7b a7 3c e7 fe 1c 3f
       -0.07593492 -0.9721255 0.020444436 0.6132645
0001b0 29 00 fb 3e f0 56 bb 3f c0 36 a6 3f 94 66 27 c0
       0.4902356 1.4635906 1.2985458 -2.6156359
0001c0 c8 29 26 c0 d5 46 a9 be c2 21 2e 3f fc 88 3a bf
       -2.5963001 -0.33061853 0.6802026 -0.7286527
0001d0 f7 32 97 bf cd 1e 5a bd 10 49 90 3e e1 36 c1 3f
       -1.1812428 -0.05325203 0.28180742 1.5094873
0001e0 dd 1d a7 bf 18 89 97 3f 05 de c2 bf f0 64 96 bf
       -1.3055989 1.1838713 -1.5224005 -1.1749554
0001f0 ef 84 e4 3f 88 b8 3a bf c6 4b ee 3f 32 96 ec be
       1.7853068 -0.7293782 1.8616874 -0.4620834
000200 7a b7 3a c0 34 e1 e8 3f 09 5f a2 bf eb 49 94 3f
       -2.9174485 1.8193727 -1.2685252 1.1585058
000210 f6 99 84 bf 40 56 16 3e fd 2e 06 3d 66 45 58 bf
       -1.0359485 0.1468134 0.032759655 -0.84480894
000220 22 9b 1d 3f c1 0d ad c0 2b bf c9 be 4b 70 b7 3f
       0.6156484 -5.407929 -0.39403662 1.4331144
000230 f2 53 5a 40 da 96 6e bf 13 17 cf 40 0e 7f 5f 3d
       3.4113736 -0.9319893 6.4715667 0.05456453
000240 d9 d1 fc 3c 96 63 52 bf 4e 6c c3 be cb dc c9 3f
       0.030861782 -0.82183206 -0.38168567 1.5770506
000250 25 8d 1c 40 da e6 0f bf 11 6a 6c 40 ec 54 6a bf
       2.4461148 -0.56211627 3.6939738 -0.9153583
000260 ba 2a 97 bf c0 b1 a0 3c d1 19 8a 3f d9 cd d5 bf
       -1.1809914 0.019616008 1.0789129 -1.6703445
000270 43 fc fd 3d 50 d2 a8 3f e5 e0 f1 3e a3 c6 51 3f
       0.12401631 1.3189182 0.47241893 0.8194372
000280 b0 5c 26 be 64 a5 94 3e fc aa b5 bf 64 7e 7d 3f
       -0.16246295 0.29032433 -1.4192805 0.9902098
000290 7b 6a 3a 3e 8e 05 31 c0 c1 36 5f be e0 93 9d 40
       0.18204682 -2.765964 -0.2179823 4.924301
0002a0 be 13 2b 3f d8 8e e8 3f 9c 59 f2 3e 94 4c 43 bf
       0.66827 1.8168592 0.47333992 -0.76288724
0002b0 49 3f 1c c0 71 9a 42 3f 29 04 c1 3f 3d e4 7c 3f
       -2.4413626 0.7601691 1.5079395 0.98785764
0002c0 3f 0b f5 3f 23 39 08 3f a4 c7 cd bf a8 2b 54 40
       1.9144057 0.53212184 -1.607655 3.3151646
0002d0 14 43 08 c0 68 41 38 c0 07 95 fe bf c4 9e 7f bf
       -2.1290941 -2.878992 -1.988923 -0.9985163
0002e0 98 13 dd bf 0d f0 2b 3f 66 4f 87 bf dc 41 2c bf
       -1.7271605 0.67163163 -1.0571105 -0.67287993
0002f0 54 30 05 3f 33 a1 09 c0 ff 09 04 c0 07 10 90 3e
       0.5202687 -2.1504638 -2.06311 0.28137228
000300 a6 50 9e 3f 1d db 0d be 8b da d0 3f 0f fc 88 40
       1.2368362 -0.13853116 1.6316694 4.280769
000310 aa 64 c3 be 9b 9e 94 3f 8a a3 26 be 6d d0 11 c0
       -0.38162738 1.1610903 -0.16273323 -2.2783463
000320 0b 5f 40 c0 92 7a b8 3f 6b f0 1b 40 ae 12 be bf
       -3.005801 1.4412405 2.436549 -1.484945
000330 cd 20 47 40 4a 2d 2c 3f 30 bf 29 3f 90 55 e4 3f
       3.111377 0.67256606 0.66307354 1.7838612
000340 1b 69 ae bf 14 90 0b bf e5 f5 61 40 79 40 e3 be
       -1.3625826 -0.5451672 3.5306332 -0.44385126
000350 bb 70 fd 3e 60 18 44 bf 6b 45 22 bf b9 2f eb 3f
       0.4950007 -0.76599693 -0.63387173 1.8373939
000360 c8 cc 0b 3f 6e 41 8b be 66 1a 1c 3f 29 79 57 3f
       0.54609346 -0.27198356 0.6097778 0.8416925
000370 2f a6 43 bd 03 f3 be be 86 35 b1 3e bc 69 a7 3f
       -0.047765907 -0.37294778 0.34611148 1.3079143
000380 9e 25 5c 3e 7f c6 15 3e 74 a4 43 bf f9 12 59 3f
       0.21498725 0.14626502 -0.7642281 0.84794575
000390 d2 23 9c 3f 90 ff 10 c0 6a 55 1a c0 a9 f1 30 c0
       1.2198431 -2.2655983 -2.4114633 -2.7647498
0003a0 f9 47 37 3c e3 89 64 bf dd 24 ac bd 23 75 07 3f
       0.011186593 -0.892729 -0.084054686 0.5291311
0003b0 2a 92 3f 3f a6 37 a2 bf e8 3b 5c 3f 5f 7e ea 3d
       0.74832404 -1.2673233 0.8602891 0.114498846
0003c0 9f cb 93 3e 70 07 87 be e5 01 28 c0 d6 80 46 bf
       0.28866288 -0.26372862 -2.6251156 -0.7754034
0003d0 16 75 47 bf c6 97 03 bc e9 7f 65 3f ab 4d 45 c0
       -0.77913034 -0.008031791 0.896483 -3.0828655
0003e0 d3 74 c8 3f 88 a0 16 3f c3 1a 06 be 34 c1 85 3f
       1.5660652 0.588387 -0.13096146 1.0449586
0003f0 15 86 21 3f 76 f8 1f c0 0a f5 13 be 93 fd 04 40
       0.6309522 -2.4995399 -0.14448944 2.077977

weight f4 [1682, 8]
000000 8d 56 dc c0 23 53 36 40 c0 d6 b4 b8 f6 d9 0e 3f
       -6.8855653 2.8488243 -8.623069e-05 0.5580133
000010 2f eb a5 3f b2 ba 99 40 6e 4a 1c c0 15 49 2c 3d
       1.2962397 4.80404 -2.4420428 0.042061884
000020 c9 4a 32 c0 5d 77 26 3f 60 c4 8c 3e 94 cd 7f be
       -2.7858145 0.65025884 0.27493572 -0.24980766
000030 3e 18 94 bf d0 6f 19 c0 dc b9 bf be 5c 52 07 3f
       -1.1569898 -2.3974495 -0.37446487 0.52860045
000040 04 27 23 3f e8 49 5d 40 c5 d0 9b be 5d fe a0 bf
       0.6373141 3.4576359 -0.30432716 -1.2577626
000050 7d 63 32 bf d0 2f 9e 40 44 23 2d 3f 04 e0 30 40
       -0.6968306 4.9433365 0.67631936 2.7636728
000060 be 9b be 3f 98 15 67 bd 07 9e d2 3e e2 90 1d 40
       1.4891279 -0.056417078 0.4113619 2.461968
000070 76 a5 2a bf 0a 32 01 40 ce 39 94 c0 90 e1 92 3f
       -0.66658723 2.0186791 -4.632056 1.1475086
000080 08 3e 11 c0 a3 32 b6 bf 4e cb 85 3f 29 32 2c c0
       -2.269411 -1.4234203 1.0452669 -2.6905615
000090 b8 ea e7 bd e2 93 69 c0 6b 1a ec 3e b8 ad 35 40
       -0.11324066 -3.649651 0.46113905 2.838728
0000a0 e8 f4 92 be 8a ab 8a 3a c7 de 63 bf 96 dd 9a 3e
       -0.28702474 0.0010579687 -0.89011806 0.30247182
0000b0 ab 14 e6 3f 6f 5a 36 40 4c 8b c4 be 27 05 f8 be
       1.7975057 2.8492696 -0.38387525 -0.4844143
0000c0 e6 6b 9b c0 53 2f bb 3f 76 57 73 3e 2f d7 51 c0
       -4.856921 1.4623817 0.23763832 -3.2787588
0000d0 6b 60 af bf e7 fa 6a bf 09 8d 97 bf b9 8e 7d 3f
       -1.37013 -0.91789097 -1.1839916 0.990459
0000e0 c8 6f 85 bf dd 88 af bf bd ba 89 3f 57 97 14 c0
       -1.0424738 -1.3713642 1.0760113 -2.321737
0000f0 31 ea 88 3f 88 ac 2c 40 dd c5 6a c0 06 9b 01 c0
       1.069647 2.6980305 -3.6683266 -2.0250869
000100 11 a0 28 c0 a0 90 f5 3e eb 0a 7e c0 91 31 20 bf
       -2.6347697 0.47961903 -3.9694164 -0.6257563
000110 bd 56 f1 3f 88 7b 32 c0 50 9a 8e bf 70 89 ce 3e
       1.8854595 -2.7887897 -1.1140842 0.40339231
000120 9a b1 b0 3e 47 14 c6 bf 5d 39 c9 bf 00 6f 7c 3f
       0.345105 -1.5474938 -1.5720631 0.9860687
000130 4b 07 4e 3f 0b 1d 76 40 f7 0a be be fe f9 a4 bf
       0.8047988 3.8455226 -0.3711774 -1.2888792
000140 8e 29 84 bf 9d b6 93 3e 55 0f d9 3e 7c 1d 07 3f
       -1.0325181 0.2885026 0.4239451 0.52779365
000150 f7 c2 a1 3f 96 fe 2a c0 7f 5f 44 40 f9 e1 6d 3f
       1.2637624 -2.6717887 3.0683286 0.9292293
000160 5f ae 36 c0 09 87 0d 3f 3d 28 87 3f ca 9d b5 bf
       -2.8543928 0.5528417 1.0559155 -1.4188778
000170 b9 40 93 be 9f fb 70 bf 33 ec 5e c0 ef 9f ab bf
       -0.28760317 -0.94133943 -3.4831665 -1.3408183
000180 80 f5 ba bf 26 5c e0 3e 93 d4 16 be 61 e0 21 40
       -1.4606171 0.43820304 -0.14729528 2.52932
000190 56 69 35 3e 53 b6 47 3f 08 aa 48 3f 8b c7 1f 3f
       0.17715964 0.7801258 0.7838445 0.62413853
0001a0 3f b6 1f 40 71 89 a2 bf 14 2f fb 3e 8e bd fe 3e
       2.4954984 -1.2698194 0.49059355 0.49753994
0001b0 f6 8e 74 c0 de 7a ef 3f 9d f8 a8 3e 2e dd 14 bf
       -3.8212256 1.8709371 0.33002177 -0.58149993
0001c0 f6 2e 83 c0 ce b3 6a 40 50 25 9b bf fc ed 53 bf
       -4.0994825 3.6672244 -1.2120762 -0.8278501
0001d0 b8 b8 04 bf dc 84 2d 3e 74 7f e7 3f 64 bd 99 3f
       -0.5184436 0.16945213 1.8085771 1.2010922
0001e0 75 49 be bd 11 01 e2 3f 67 82 a7 3f 43 66 7b 3f
       -0.092913546 1.7656575 1.3086671 0.98202914
0001f0 e8 37 bf 3f 47 e3 2f bf d9 1e 24 be fb ff 8c 3d
       1.4938936 -0.6870617 -0.16027392 0.06884762
000200 2a b0 72 3f c8 7a b8 3f 49 06 9b 3e 7f a6 fa be
       0.94800055 1.441247 0.30278233 -0.4895515
000210 2f 5c 8a 3f 0a 29 a5 3f 9a 38 f7 bf 4b 03 3f 40
       1.0809382 1.2903149 -1.9314148 2.984576
000220 7e 86 d5 3f c8 b7 29 c0 61 37 9a bf 41 82 33 bf
       1.6681669 -2.651842 -1.204815 -0.70120627
000230 0c b0 3d 3f 28 95 2d bf 51 3d 4e be 92 20 af be
       0.7409675 -0.6780572 -0.20140578 -0.34204537
000240 84 11 9f bf f9 cc a2 bf 4c 10 4c be b3 37 ee 3d
       -1.242722 -1.2718803 -0.19928092 0.116317175
000250 dd 94 13 3f 09 b8 97 bf 8e d8 3f 3c 05 b5 c2 3e
       0.5764902 -1.1853038 0.0117093455 0.38028732
000260 c9 da 88 bf fe 0f 05 bf 87 76 2a bd 9c b1 1c c0
       -1.0691768 -0.5197753 -0.041616943 -2.4483404
000270 98 c1 15 bf f7 a8 cc 3f d5 7f 9f bf 6b 82 e0 bd
       -0.58498526 1.5989064 -1.2460886 -0.10962375
000280 9f 13 b0 3f a5 5c 0a 40 5f e0 9b bf 36 80 a6 3f
       1.3755988 2.1619046 -1.2177848 1.3007877
000290 30 40 f7 3f cb 95 f4 3f d6 ac 82 bf 85 58 8a 3f
       1.9316463 1.9108213 -1.0208995 1.0808264
0002a0 88 8a 31 3f a7 ba 6f bf 18 70 76 3f ea 86 18 40
       0.69352007 -0.93644184 0.9626479 2.3832345
0002b0 67 ca 94 3f c8 e4 b0 bf 57 30 9e 40 a1 8a da bf
       1.1624268 -1.3819818 4.943401 -1.7073556
0002c0 2d 92 10 bf ca 95 00 bf b3 d7 35 3f 8f ba 44 40
       -0.56473047 -0.5022856 0.71032256 3.0738866
0002d0 6b 2e 06 c0 95 59 29 3f 79 7d 03 40 16 5f e6 bf
       -2.0965831 0.66152316 2.0545332 -1.7997768
0002e0 4a ea 81 40 c5 3c f3 3f ac 4e 21 c0 91 8e f2 bf
       4.0598497 1.900292 -2.5204268 -1.8949758
0002f0 b6 3c 63 bf 6d 43 1a bf a2 31 60 3f 0b b3 de 3f
       -0.8876451 -0.60259134 0.87575734 1.739839
000300 60 6a a1 40 ba bb 38 40 66 e9 8c bf fd b0 99 3f
       5.044235 2.886458 -1.1008728 1.2007138
000310 88 31 29 be 46 a3 b4 bf 0e 08 08 c0 d1 85 1e 3f
       -0.16522801 -1.4112327 -2.1254916 0.6192294
000320 49 35 29 bf 93 91 a0 be 99 89 88 bf 40 47 22 40
       -0.6609693 -0.31361064 -1.0666991 2.5355988
000330 3b 46 89 bf 39 c2 ea be 9c a5 d2 bf 16 c5 67 bf
       -1.0724558 -0.45851305 -1.645679 -0.90535104
000340 dc cd 48 be e5 aa 2b 40 d5 00 32 be 40 f9 55 c0
       -0.19609779 2.6823056 -0.1738313 -3.343338
000350 2a a3 9d 3e 67 93 44 c0 25 b4 85 3f 9d 16 98 be
       0.30788547 -3.0714967 1.0445601 -0.29704753
000360 3f e2 4e 3f f6 ce e0 be b7 17 43 3f 1b 36 6d 40
       0.80813974 -0.439079 0.7620806 3.7064273
000370 91 e1 36 3f 0d 6f eb 3f ff 28 87 c0 f1 cf 8a bf
       0.7143794 1.8393265 -4.2237544 -1.0844709
000380 2d b1 9c bf ec 6c 1f 40 30 ce 3a 40 98 dc 24 bf
       -1.224157 2.491023 2.9188347 -0.643991
000390 42 2d 6b 40 a7 0f 63 3d e3 e0 a1 3e c7 32 bd 3f
       3.6746373 0.05543485 0.31616887 1.4781121
0003a0 f7 3f 9c bf de 06 ef bf 3b fb 22 40 1d 34 d2 3e
       -1.220702 -1.8673971 2.546584 0.41055384
0003b0 ff 19 b7 3f 35 82 0e bf f6 fe d0 bf d5 da ff bf
       1.4304808 -0.5566743 -1.6327808 -1.9988657
0003c0 ad 7e 13 c0 e7 36 07 3f 66 0c db bf 8e 45 96 3f
       -2.3046067 0.5281815 -1.7113159 1.1739976
0003d0 06 0b 99 bf 0e d6 7b be d4 b5 a0 3f ea 12 84 bb
       -1.1956489 -0.24593374 1.255549 -0.004030575
0003e0 0c 24 00 c0 cf d5 fa be 95 9b 99 3f 80 25 43 3e
       -2.0022001 -0.48991248 1.2000605 0.19057274
0003f0 72 49 26 bf 1f 4d 23 bf 46 07 73 3f 29 b7 08 c0
       -0.6495582 -0.6378955 0.94932973 -2.1361792

weight f4 [8, 8]
000000 e4 38 f3 3e 8b 9a b6 3f b1 17 59 bf 19 b3 7e bf
       0.47504342 1.4265913 -0.84801775 -0.9949203
000010 90 1b 65 bf 48 ee 76 3f 7c 8d 2a 3f 20 67 d6 3f
       -0.8949518 0.9645734 0.6662214 1.6750221
000020 8d a0 8d bd 5a 45 71 3d 7c b1 b1 3e d2 24 40 3d
       -0.06915388 0.05890403 0.34705722 0.046910115
000030 69 0c 21 be 9e 3d 81 be 8f 7a 54 3e ed 2f 01 3e
       -0.1572739 -0.25242323 0.20749877 0.12615938
000040 58 07 a8 3d 8c 4b 2a 3e 22 66 81 bd 6e 75 a0 be
       0.08204526 0.16630381 -0.063183084 -0.31339592
000050 e9 73 29 3e ea 98 57 3e 38 be ae be c5 c3 c3 bd
       0.16548122 0.21054426 -0.341295 -0.095588244
000060 22 99 1a 3e fa 5f 73 3c 05 87 73 3f d5 3c 47 3e
       0.15097478 0.014854426 0.951279 0.194568
000070 65 48 7d 3f 27 06 81 3e 03 5c c1 3e e4 b8 84 3e
       0.9893859 0.25200006 0.37765512 0.2592231
000080 e1 cf 9c bd da 48 b1 be 5b 83 b3 3e 77 9f cc bd
       -0.07656837 -0.34625894 0.35061154 -0.09991353
000090 c4 3b 2f be b5 72 b2 be 4b 0b 67 3d f4 27 bc 3e
       -0.17112643 -0.3485314 0.056407254 0.36749232
0000a0 d0 b8 1d 3f dd a6 f3 bd 17 3c d0 3e da f7 16 3f
       0.61610126 -0.11897061 0.40670845 0.5897194
0000b0 fa 44 91 3e 17 77 33 bf 64 f2 b3 bd f4 8c f5 3d
       0.28372937 -0.7010359 -0.08786467 0.11989775
0000c0 99 fb dd bc 4e c5 82 3d 1a b5 f8 3d f2 40 b9 3d
       -0.02709751 0.06385289 0.121439174 0.090455905
0000d0 85 2f 98 bd 3e 19 b6 bd 98 6a 40 3e 23 d9 cb 3c
       -0.07430939 -0.08891533 0.18790662 0.024883812
0000e0 4c 53 8e 3f a9 e0 37 bf 70 03 5a 3f d7 8f 38 bf
       1.111917 -0.7182718 0.85161495 -0.7209448
0000f0 2f 9d 22 bf f4 ea 1a 3f f2 ea 95 3f ab a7 4d bf
       -0.63521093 0.6051476 1.1712325 -0.80333966

weight f4 [943, 8]
000000 a5 eb 9a 3f 63 d2 48 40 c7 2d 21 40 36 a9 c6 bf
       1.2103163 3.137841 2.518419 -1.5520389
000010 23 68 06 c0 df f2 0a c0 b2 03 02 40 7b 0b d3 3f
       -2.100106 -2.1710737 2.0314755 1.6487879
000020 d8 76 e8 be 94 5c 02 c0 e8 99 95 bf 0a c7 22 c0
       -0.4540317 -2.0369005 -1.1687593 -2.5433984
000030 4b fe f5 3f 97 27 0b 40 b8 87 2b bf 09 23 c4 bf
       1.9218229 2.1742914 -0.67003965 -1.5323192
000040 29 95 87 3f 0d c3 22 40 66 5d 93 be 49 a9 19 c0
       1.0592395 2.543155 -0.28782195 -2.4009573
000050 80 31 08 40 56 a0 25 40 49 d6 85 c0 91 f7 c6 be
       2.1280212 2.5879111 -4.182408 -0.38860753
000060 c3 c6 b2 bf e7 73 96 bf cb e3 bb bf 96 a7 d9 3f
       -1.3966907 -1.175412 -1.4678892 1.7004268
000070 c7 a7 13 40 cb f1 2f 40 d2 bc 6f c0 bd bf fb 3f
       2.3071153 2.7491329 -3.7458997 1.9667889
000080 a9 3e 52 be 9c 9a 80 bf 07 7c 83 3f ed c8 3e 3e
       -0.20531715 -1.0047183 1.0272225 0.18631335
000090 7c 82 eb bf 37 98 a5 bf 57 d3 df 3e 0b a9 ab 3d
       -1.8399196 -1.2937077 0.43715927 0.08381852
0000a0 af a8 13 40 1b 70 1e 40 a5 87 1e 40 01 61 1f bf
       2.3071706 2.4755924 2.477029 -0.6225739
0000b0 1f fe 00 c0 0e 39 18 c0 24 70 8d 3f dc e0 1d 40
       -2.0155103 -2.3784823 1.1049848 2.4668493
0000c0 c6 2c 07 40 66 bf 5e 40 ef 6f 18 40 e5 5b 1f c0
       2.1121078 3.480432 2.381832 -2.4899838
0000d0 1c 89 1e c0 91 a5 4f c0 49 7f 30 40 ee 61 7a 40
       -2.4771185 -3.2444804 2.7577689 3.9122272
0000e0 c8 f1 2a be 2c 6a 78 be c6 7e a2 bf 68 f0 bb 3d
       -0.16693795 -0.24259251 -1.2694938 0.09176713
0000f0 bc 08 33 3d 2a 6d 99 3d d0 54 9b 3d 48 23 75 bf
       0.0437095 0.074915245 0.07584536 -0.9575696
000100 62 28 00 bf 23 18 2b c0 26 c9 fe 3b 70 f0 ed 3f
       -0.5006162 -2.6733482 0.0077754436 1.8589001
000110 6c a2 81 3f f6 83 74 be 69 8b 38 40 15 72 47 bf
       1.0127692 -0.23878464 2.883509 -0.7790845
000120 ad 2c 90 3e e6 30 10 be 54 12 20 3f ab c4 c2 be
       0.28159085 -0.14081153 0.62527966 -0.3804067
000130 90 ae 3a 3e a7 6a 98 bd fe 82 88 bd 03 1b 03 3f
       0.18230653 -0.07442217 -0.0666561 0.5121309
000140 f6 3a 95 3f bd ae 02 bf 29 a3 12 be 6e 6e 11 bf
       1.1658618 -0.5104788 -0.14320053 -0.5680913
000150 92 1c 09 bf 54 c3 e3 be fa ec d8 be 4c 48 38 3f
       -0.5355922 -0.4448496 -0.423683 0.71985316
000160 83 7e 42 bf c3 f8 b2 3e e2 7c 13 bf b4 80 9a 3f
       -0.7597429 0.34955415 -0.5761243 1.2070527
000170 04 54 02 be c2 3e de be 8b 2e 81 3e 65 4a 7b bf
       -0.12727362 -0.43407255 0.25230822 -0.9816039
000180 23 ba 5a 40 b2 51 5a 40 63 3e 46 40 b0 72 21 c0
       3.417611 3.4112363 3.0975578 -2.522625
000190 4e cf 9f c0 4c 9d 73 c0 88 52 89 40 fd d7 4c 40
       -4.9940557 -3.8064756 4.2913246 3.2006829
0001a0 c6 a9 00 3f 65 21 21 bf e9 8e d6 bf 03 f4 4e 3f
       0.50259054 -0.6294158 -1.6762363 0.8084108
0001b0 03 19 77 3f e3 a3 82 3f 0e 63 90 be ea e9 91 bf
       0.9652254 1.0206264 -0.28200573 -1.139951
0001c0 0c cd 2d 3f 22 8f c7 bf cf 2f 6c 3c 31 2b 02 c0
       0.67891 -1.5590556 0.014415695 -2.0338862
0001d0 eb 96 80 3f 3e e6 d2 3f d5 de af bf 90 1b 99 be
       1.0046057 1.6476514 -1.3739878 -0.2990384
0001e0 05 38 bf 3e 16 18 95 3e f7 02 c7 3e 78 d2 cc 3e
       0.37347427 0.2911994 0.3886945 0.40004325
0001f0 bc 41 30 3e 3f 5b 65 bf ee 1f fc 3e d4 43 a9 3e
       0.17212576 -0.89592355 0.4924311 0.3305956
000200 f8 a0 39 c0 c2 c4 a5 be 63 46 ea bf da 23 0d bf
       -2.9004498 -0.32376677 -1.830273 -0.5513283
000210 32 d5 21 40 88 60 f2 3f fa ec 97 bf db 68 7a c0
       2.5286374 1.8935709 -1.1869195 -3.9126499
000220 3b d5 fc 3f 32 81 e1 3f c6 2c 10 40 3f 87 c8 bf
       1.9752573 1.7617552 2.2527328 -1.5666274
000230 05 0d 2b c0 da 30 18 c0 c6 7f 00 40 0d fa 06 40
       -2.6726696 -2.3779817 2.0077987 2.109012
000240 d3 db da be 59 b7 1a 3e 72 e6 07 c0 d2 1b e1 3f
       -0.42745838 0.15109004 -2.1234403 1.7586615
000250 88 67 24 3f 35 83 82 3e c0 55 d9 3e 8a 34 08 c0
       0.64220476 0.25490728 0.42448235 -2.1282067
000260 91 97 c3 bf 11 85 98 3c 10 db e7 bf 0b cd ab 3f
       -1.5280629 0.018618139 -1.8113728 1.3421949
000270 ad af 11 3e e8 c1 ed be 68 94 a2 3f e3 4b ce bf
       0.14227171 -0.46437 1.270154 -1.6116909
000280 fe 09 82 3e 36 20 ff bf b9 0b 9c 3f cc 2b 2c c0
       0.25398248 -1.9931705 1.2191077 -2.6901731
000290 db 32 8b bf f5 42 19 3f bd 2e cc bf 00 33 95 3f
       -1.0874895 0.59867793 -1.5951763 1.1656189
0002a0 32 31 60 3f 25 26 db be a0 c5 8d 3f 37 61 ba 3e
       0.87575066 -0.4280254 1.1075935 0.36402294
0002b0 74 93 a8 bf 2b 8d 07 bf 2b 4f 5a 3d b3 50 54 3f
       -1.3169999 -0.5294978 0.053298157 0.8293564
0002c0 d6 94 c4 3e 80 59 a3 3d cb d7 ae bd 8c e4 f9 3d
       0.38394803 0.07976055 -0.08537253 0.12201795
0002d0 eb 67 b2 3c 68 c5 37 be 60 1b 05 3f 9f 42 04 be
       0.021778068 -0.17946398 0.51994896 -0.12916039
0002e0 07 1f 86 bf 16 6f 26 3f ce 99 1e bf ec 19 09 3f
       -1.0478219 0.65013254 -0.6195344 0.5355518
0002f0 29 69 7e 3e dc aa 85 3e e1 a3 78 3f db e6 fd bd
       0.24844803 0.26106918 0.9712506 -0.12397548
000300 3d f6 be bf 48 5a ee be 2b e9 15 bf 7c 5b be 3d
       -1.4918896 -0.46553254 -0.5855891 0.09294793
000310 62 da a0 3e b9 92 0d be 6f b3 bd 3e 07 32 62 bf
       0.31416613 -0.13825502 0.3705096 -0.88357586
000320 47 11 9f bf 44 fa d2 bd de c6 c2 be c0 c4 d0 bf
       -1.2427148 -0.10301641 -0.3804235 -1.6310043
000330 64 c5 da 3f fa e1 b7 3f ba 48 a6 bf 8f b7 c0 bf
       1.7091489 1.4365838 -1.2990944 -1.5056018
000340 b2 44 d9 bf fd 5c be 3f 88 7d d5 bf 26 80 eb 3f
       -1.6974089 1.4872128 -1.6678934 1.8398483
000350 5b 4b a2 3f 07 bd 66 3f 1c c3 95 bf 0c fa 1f c0
       1.2679247 0.9013218 -1.1700168 -2.4996367
000360 24 f5 6d bd 58 1b e7 3e 78 a2 14 3e 65 a9 55 3f
       -0.058095112 0.4513805 0.14515102 0.834616
000370 f6 87 69 bb 6e 9e 3c bf 61 e1 f7 3e a0 b9 a9 be
       -0.0035634018 -0.73679245 0.48414138 -0.33149433
000380 09 04 57 bf 15 e0 25 40 ef ef 16 c0 27 f1 80 3f
       -0.8399053 2.591802 -2.3583944 1.0073594
000390 50 7f ca 3f 26 82 e3 3f ce 58 e6 bf 39 d2 b8 bf
       1.5820103 1.7774093 -1.7995851 -1.4439155
0003a0 e8 a0 e0 bf 7f 9f 58 bf 5b 9e a2 bf 08 42 de bf
       -1.7549105 -0.8461837 -1.2704576 -1.7363901
0003b0 5b 11 23 3f b3 6b 5f bf 0b 58 3b bf 04 a2 b1 bf
       0.6369836 -0.8727371 -0.7318122 -1.3877568
0003c0 c6 a3 82 bf 96 b8 1f c0 2d 40 d0 3e 00 3b c7 3f
       -1.020623 -2.4956412 0.40673962 1.556488
0003d0 1d d3 30 3f 93 42 f3 3f ea 0a bb bf fd 78 60 3e
       0.69072133 1.9004692 -1.4612706 0.21921153
0003e0 23 56 02 c0 ec 7e bc bf 7c 04 38 c0 3e 45 33 3f
       -2.0365074 -1.4726233 -2.8752737 0.7002753
0003f0 a3 e9 f4 3f 58 ce 96 3f e9 5a 9f 3f b2 04 23 c0
       1.91338 1.1781721 1.2449619 -2.5471616

weight f4 [1682, 8]
000000 49 9e 3a c0 d1 ac 41 40 27 bc 20 40 c2 9b 91 3d
       -2.915911 3.0261729 2.511484 0.071097866
000010 fe b2 03 3f ad 46 d9 bf 46 6a 72 3f 68 c0 07 40
       0.51444995 -1.6974694 0.9469341 2.1211185
000020 cf b2 65 bf eb 47 2a 3e ee 28 40 bf 45 49 bb 3e
       -0.89725965 0.16628997 -0.75062454 0.36579338
000030 e3 a4 12 be 4c c1 4a 3f 69 c1 50 3c 59 79 06 bf
       -0.14320712 0.792012 0.012741425 -0.5252891
000040 33 f6 47 3f 4c b1 a5 3d f3 31 91 bd 64 ef 84 bf
       0.78110045 0.08090457 -0.07089605 -1.0385556
000050 7a ca 9e 3f 52 1a df 3d d9 8b 88 be 8a 89 33 3f
       1.2405541 0.10893692 -0.26669195 0.7013174
000060 ca 63 62 bf ef fd 8b 3f 84 ea cc bd ec b0 54 3e
       -0.88433516 1.0936869 -0.10005668 0.20770615
000070 5f 76 21 3d b1 b5 37 3d af c0 34 3e 97 24 9f 3e
       0.039419528 0.04485101 0.17651628 0.31082603
000080 db b6 86 be d3 9b 9b 3e 1f c0 f9 3e 68 76 22 3f
       -0.26311383 0.30392322 0.4877939 0.63461924
000090 4b b7 5c 3f 9e 22 9b 3f c1 95 91 3f 5b e9 c3 bf
       0.8621718 1.2119939 1.1373826 -1.530559
0000a0 8f 27 00 3f 0d 6c 15 bf 9c 21 43 be f8 66 8f bf
       0.5006036 -0.58368 -0.1905579 -1.1203299
0000b0 05 4c d3 3f 10 cb db be a2 ac 97 bf 70 2a 3f 3e
       1.6507574 -0.42928362 -1.1849558 0.18668532
0000c0 c9 44 6e c0 b5 73 56 40 df 57 50 40 b8 76 ff bc
       -3.7229483 3.3508122 3.2553632 -0.03118454
0000d0 f6 20 36 3f 11 ed 1b bf 4d 40 43 3f f5 0a 21 40
       0.71144044 -0.6090861 0.7626999 2.5162938
0000e0 87 d8 cd bf 50 a8 87 3f 9c 1e 50 3f 0f d4 90 3e
       -1.6081704 1.059824 0.81296706 0.28286788
0000f0 de 25 4d be b9 c3 1f 3d 64 0a 31 3e 47 ac 1b 3f
       -0.20033976 0.039005015 0.1728912 0.6080975
000100 e0 d6 0b c0 95 c5 ce 3f a9 f9 45 40 28 18 00 bf
       -2.18499 1.6154047 3.093363 -0.5003686
000110 d6 53 a5 3e 41 71 c8 bf 6e 54 ce 3f f1 2d 2b 40
       0.32290524 -1.5659562 1.6119516 2.674679
000120 e4 5a 86 be 6d c1 12 3f 2b 04 44 3f 82 59 7a bf
       -0.2624122 0.57326394 0.7656886 -0.9779283
000130 43 b9 61 bf b3 d9 9b bf bf da da be f9 62 a0 3f
       -0.8817331 -1.2175812 -0.42745015 1.2530204
000140 ea c1 9c bf 79 f1 b7 3f 09 53 b4 3f 8b 56 c2 3e
       -1.2246678 1.4370567 1.408784 0.37956652
000150 98 ef 24 bd 98 23 46 be c7 78 06 3f 73 96 9b 3e
       -0.040267557 -0.19349515 0.5252804 0.3038822
000160 67 d4 94 bf f9 29 cc 3f a2 24 26 3f 69 4a 4b 3e
       -1.162732 1.5950309 0.6489965 0.19852604
000170 6b 50 72 3e 12 8d a1 be 02 8e df 3e 0a f2 64 3f
       0.2366349 -0.3155294 0.4366303 0.8943182
000180 b6 c5 39 be 31 92 9f 3e ce 19 a2 3f 75 4b 62 bf
       -0.18141827 0.31166223 1.2664125 -0.8839639
000190 2f 40 7f 3f c8 c5 e6 bf 59 31 5a 3f 1d 65 d2 3f
       0.9970731 -1.8029108 0.8523155 1.6437107
0001a0 4f 34 fd be 22 e6 c4 3f 9e 1b a8 3e 65 a2 4a bf
       -0.4945397 1.5382731 0.3283357 -0.79154044
0001b0 70 d3 8f 3f 4c 7c 74 bf 3c 50 5b 3f 78 da 77 3f
       1.1236401 -0.9550216 0.856693 0.9681773
0001c0 1c 0c 14 c0 79 55 a9 3f d0 be 04 40 ca 18 f4 be
       -2.313239 1.3229209 2.0741463 -0.47675163
0001d0 ad 1f 5e 3f c9 83 a8 bf 6c ce 88 3f 4d 2e bf 3f
       0.86767083 -1.3165218 1.0687995 1.4936005
0001e0 4f 53 cb 3e cd 02 89 3f 16 36 7e 3f 2b 96 9d 3f
       0.39711997 1.070398 0.9930128 1.2311453
0001f0 71 12 ab bf 12 9d ec be d7 e2 ac bf a1 51 ae 3e
       -1.3365003 -0.46213585 -1.3506726 0.34046653
000200 20 bf f6 3d 2c 77 f1 be 47 f9 b8 bd b9 0c 2d bf
       0.12048173 -0.47161233 -0.09031921 -0.6759754
000210 87 3c 0a 3f 51 fa 67 3f e8 66 b1 3e ec b1 e8 be
       0.5399861 0.9061633 0.34648824 -0.45448244
000220 8a aa 22 40 3b 22 14 bf ce 09 80 bf 11 36 4f c0
       2.5416589 -0.5786473 -1.0002992 -3.237675
000230 a8 2c e0 bf be ff fe 3f 93 1f 35 c0 c7 b8 c8 be
       -1.7513628 1.9921796 -2.8300521 -0.39203474
000240 45 77 9d bd 85 cc da 3f 05 9e 90 3f a5 c1 63 bf
       -0.076887645 1.7093664 1.1298224 -0.88967353
000250 98 20 a9 3f 39 0d 7f bd e4 69 35 bf 59 27 d7 3f
       1.3213072 -0.06226847 -0.708647 1.6808883
000260 4e d9 22 3f 3e 7c 64 be 5b 59 13 3f e3 fa d0 bd
       0.6361283 -0.2231302 0.5755822 -0.10204103
000270 11 a9 73 bf 03 5c ca bf 7a 97 9e bf 5a de 86 3f
       -0.9517985 -1.580933 -1.2389977 1.0536606
000280 7a 1d 8f be ec e7 65 be fa aa 22 bf d1 1c 9c bf
       -0.27952176 -0.22451752 -0.6354214 -1.2196294
000290 12 ca 36 3f 29 5a c7 3e f1 cf de be 9a 9a 1b 3f
       0.71402085 0.38935974 -0.43518022 0.6078278
0002a0 88 aa b2 bf 6f 02 11 40 31 b5 7c 3f b2 98 65 3e
       -1.3958292 2.2657735 0.98713976 0.2242153
0002b0 c1 7e 14 3d e1 eb 2e bf 7c ac 77 3e f4 b1 4d 3e
       0.036253694 -0.6832867 0.24186891 0.20087415
0002c0 0e eb 24 bf b9 0e 9e 3f ae f2 0f 3f 96 2d 6f 3c
       -0.64421165 1.2348243 0.56229675 0.014598271
0002d0 13 f3 19 3f 54 9c d5 bc 74 dd 0b 3f 84 7d 8d 3e
       0.60136527 -0.02607552 0.54634786 0.27634823
0002e0 0f 9e 0a bf 3e ef 5b 3f db 29 9c 3f cd b8 28 bf
       -0.5414743 0.8591193 1.2200273 -0.65906984
0002f0 dd ba 01 3f 37 cc a4 bf 55 53 9a 3d f6 1b 74 3f
       0.50675756 -1.2874821 0.075354256 0.95355165
000300 55 5d 1a c0 35 a6 c6 3f 72 e8 f0 3f 01 fc 9e be
       -2.4119465 1.5519472 1.8820937 -0.3105164
000310 68 3a 24 3e df 68 c0 bf fa 43 78 3f 4a b2 ef 3f
       0.16037905 -1.5032004 0.96978724 1.8726285
000320 c9 41 80 3e b9 2c 3f bf 19 3b b3 be 36 a1 be 3e
       0.2505019 -0.74677616 -0.35006025 0.3723237
000330 37 da 80 bd d3 1e 00 3f 9a 6e bd 3e 50 7d 0b bf
       -0.06291621 0.50047034 0.36998445 -0.54488087
000340 55 4f 1f 3f 40 97 46 bf 01 25 43 bf db e6 35 3f
       0.62230426 -0.7757454 -0.7622834 0.7105538
000350 21 bb f5 3e 71 86 8d 3f 90 37 56 bf 63 3d aa bf
       0.4799433 1.1056653 -0.8367853 -1.3299984
000360 c3 53 fc bf c8 a8 d2 3f 78 19 36 3f 54 70 c3 3e
       -1.9713062 1.6457758 0.7113261 0.38171637
000370 69 98 45 be 1f c6 11 3d 50 c7 66 bc fb 3f 42 be
       -0.19296421 0.035589334 -0.014085606 -0.18969719
000380 c8 c5 65 bf 90 35 a6 be 95 67 2b bf e5 37 2a 3e
       -0.89754915 -0.3246274 -0.6695493 0.16622885
000390 d1 ad 09 be 63 ca 98 3f 44 bc bf be 87 15 65 bf
       -0.13445212 1.1936764 -0.37448323 -0.89485973
0003a0 f3 a4 89 3f e3 91 05 bf 67 40 a8 bf c3 08 23 3f
       1.0753464 -0.5217573 -1.3144654 0.63685244
0003b0 0a 8a c7 bf 5a 6c 87 3f 19 ca 05 c0 5a 94 dc be
       -1.5589001 1.0579941 -2.09046 -0.43081933
0003c0 ff c9 03 bf fa dc 4c 3f 16 b2 57 3e ba 9b 4d 3d
       -0.51480097 0.80024683 0.21064028 0.05019734
0003d0 4d 3c 1e be 5b 22 16 be 1e 37 f9 3d 9e 43 e5 be
       -0.1545269 -0.14661543 0.12168716 -0.4477815
0003e0 dc 4f 5d 3f ae cc 72 3d 09 24 99 bc d0 c5 11 3f
       0.8644998 0.05927723 -0.01869394 0.5694246
0003f0 4e 46 3f 3f c3 e9 09 bf 9e 5f 4e bf 96 fb 77 be
       0.7471665 -0.5387232 -0.8061465 -0.24217066

weight f4 [32, 16]
000000 c0 c8 5e be 21 7b 61 bd 4d 11 de 3e 78 f4 39 3d
       -0.21756268 -0.055049066 0.43372574 0.04539916
000010 7f 27 c7 bf 7a ad 68 40 db 12 a1 3f 8d b6 52 3e
       -1.5558928 3.6355882 1.2583879 0.2057745
000020 6b dc f6 3d 33 66 1d be 25 ce 9a be 40 9b 82 3e
       0.1205376 -0.15371017 -0.302354 0.2550907
000030 17 74 5e be 0a 71 96 3e 88 71 62 be 62 c4 00 bf
       -0.21723972 0.29383117 -0.22113621 -0.50299656
000040 7a bf 51 bf f5 e5 f0 bc fc 4d 6f 3e 83 5e 14 3e
       -0.81932795 -0.029406527 0.23369592 0.14489178
000050 1c 85 51 bc 97 06 a9 3d 58 c1 0a be 7c b3 71 3d
       -0.012788083 0.0825321 -0.13550317 0.05900906
000060 31 70 a3 3e 9e 3f 6d be 4e 6d 95 bb 6f 73 87 bf
       0.31921533 -0.231688 -0.0045601493 -1.0582103
000070 7e 85 ce bf fb 8f c9 bf c2 68 ef bf ca e2 10 bf
       -1.6134489 -1.5747064 -1.8703845 -0.5659605
000080 17 9e 88 3e cf b6 d0 3d d5 0f 9e 3f 4c 64 67 3e
       0.26683113 0.10191118 1.2348582 0.22596854
000090 98 fd ff 3d 21 69 9e 3e 8e ad 54 bf 16 54 69 3f
       0.12499541 0.30939582 -0.83077323 0.9114393
0000a0 2f 57 be 3f 8a 25 7d bf 05 55 f6 be cb 65 a0 3f
       1.4870356 -0.98885405 -0.4811174 1.2531065
0000b0 d1 35 0f be 4d e6 96 3f 92 e1 2c be 59 2e 74 bf
       -0.13985373 1.1789032 -0.16882923 -0.9538322
0000c0 0f ea 5a be 61 94 cd 3d f4 34 54 be 6b 66 ea bd
       -0.21378349 0.10038067 -0.20723325 -0.11445316
0000d0 43 e8 02 3d f5 0b 12 3e 70 2f 46 3e a9 83 93 bd
       0.031959783 0.14262374 0.19354033 -0.072028466
0000e0 3d aa 1e 3e 68 8f 78 bd b5 52 15 3e 48 b9 07 40
       0.15494628 -0.060683638 0.14582331 2.1206837
0000f0 7e fb 31 c0 89 52 ba 3d f6 57 2c 40 c7 d1 f1 3e
       -2.7809749 0.090977736 2.6928687 0.4723036
000100 77 be 93 be fe d5 0b 40 1e e7 5f be 28 8f c8 be
       -0.2885625 2.184936 -0.21865508 -0.3917172
000110 8a 43 44 bf f7 b1 c6 3f 8c 1f 0b c0 9a cd 9d 3e
       -0.76665556 1.552306 -2.1738005 0.30820924
000120 dd fc 04 3d 49 ef 2a 3e a6 0c 02 bf 25 7f 3b 3f
       0.03246771 0.16692843 -0.5080055 0.7324088
000130 80 14 e9 be 34 2e c8 3e 86 f7 0d be cb e1 11 bf
       -0.45523453 0.3909775 -0.13863954 -0.5698516
000140 32 1b 07 bf 46 c5 79 3f fb cb af 3e 9c c9 7d 3b
       -0.5277587 0.9756664 0.34335312 0.0038724905
000150 a0 1a dd bc 83 f7 8d 3f 37 48 9a 3e bd 41 1a bf
       -0.026990235 1.109116 0.3013322 -0.6025656
000160 03 f4 07 3e a3 5e a7 bd 56 f7 c5 3e c5 fb b8 3f
       0.13276677 -0.081723474 0.38665265 1.4451834
000170 5f 7b cc bf 61 01 a3 3f 06 35 9b bf 55 ae 19 3b
       -1.597515 1.2734796 -1.2125556 0.0023449857
000180 27 68 59 be 37 1d c5 bf cb 57 f9 3e 29 dd 2b 3f
       -0.21231137 -1.5399541 0.48699793 0.6713434
000190 f2 c7 00 bf 8c 5f 10 bf 4f 67 bf 3f 05 42 aa be
       -0.5030509 -0.5639579 1.4953402 -0.33253494
0001a0 46 3c 20 3f c6 20 10 bf b3 9d ed bd be 36 b2 bf
       0.6259197 -0.5630001 -0.11602344 -1.3922956
0001b0 96 01 df 3f 92 16 ed bd 35 1f 45 3f 61 44 84 3e
       1.7422359 -0.115765706 0.77000743 0.2583342
0001c0 1f 96 ca be e5 e2 37 3e 68 1f e0 3e 58 64 ff bd
       -0.39567658 0.17957647 0.4377396 -0.12470311
0001d0 86 83 30 be 2c 87 8f be de 72 27 3f 86 61 93 be
       -0.17237672 -0.28032815 0.6540965 -0.28785342
0001e0 08 f8 c9 be f4 8e 52 3e f5 82 7c bd c3 ba 39 c0
       -0.39447045 0.20562345 -0.061648328 -2.902024
0001f0 3d 6b 47 40 f7 75 0e be 8d 15 d1 3f 42 1c 2e 3d
       3.1159203 -0.13912188 1.6334702 0.042507418
000200 e4 2d 0e 3f a8 3d 5f 3f 76 5d f6 3e 25 f0 2a 3e
       0.55538774 0.87203455 0.4811818 0.1669317
000210 51 a3 a7 bf 20 b4 54 bf 9e b7 28 3f 0f 90 b1 3e
       -1.3096715 -0.8308735 0.6590518 0.3468022
000220 cb 9f 21 bf ff 0a 28 3f 72 4c bb 3e 81 0c a2 3f
       -0.6313445 0.6564178 0.3658176 1.2660066
000230 06 90 42 bf 1f 28 5f be 19 35 95 3d d6 5e 82 be
       -0.7600101 -0.21792649 0.07285518 -0.2546298
000240 ee 77 04 bf cf 1c ce 3e a4 08 78 bf d6 41 cf bd
       -0.517455 0.40256354 -0.96888185 -0.10119979
000250 91 8d 88 3f 27 c9 00 3f 40 f4 09 3f 83 b4 93 be
       1.0668203 0.50306934 0.5388832 -0.28848657
000260 a4 3a 16 3f 34 c2 a1 be 75 e9 ac bf 4c 41 c9 be
       0.5868323 -0.31593478 -1.3508745 -0.3930763
000270 60 cf 9c be b2 54 c5 3f 6f 92 06 bf 0e ee ec be
       -0.30626965 1.5416472 -0.5256719 -0.4627537
000280 de ed 0e bf 76 9a 08 3e 2b 2b 66 be 4d 77 a4 be
       -0.55831707 0.13340172 -0.22477405 -0.3212227
000290 e4 93 9c 3d a5 f4 32 be 2a 97 14 3f 2f 0e 17 be
       0.076453954 -0.17476137 0.5804316 -0.14751504
0002a0 2d 3b 9e 3e ee 20 13 3c 98 5c aa 3e 9f a9 1e c0
       0.30904523 0.008980019 0.33273768 -2.4791028
0002b0 48 54 30 c0 22 57 ce 3d b8 c4 93 bf db 65 54 3f
       -2.7551441 0.10075213 -1.1544409 0.8296792
0002c0 d4 7f 62 3d f6 83 8f 3f 6b 10 40 bf 4d 18 32 be
       0.055297688 1.1212146 -0.7502505 -0.17392083
0002d0 e3 6e 25 3f ae cd da 3e 77 51 72 bf 4a 18 65 bf
       0.64622325 0.42735046 -0.94655555 -0.8949019
0002e0 2a f1 a7 3e 49 21 17 bf bc 7c fd be 9a 78 13 3e
       0.3280118 -0.59035164 -0.49509227 0.14401475
0002f0 c5 59 91 3f c9 f9 8c 3f 8c f5 84 bf e7 e3 09 bf
       1.135552 1.1013728 -1.0387435 -0.53863376
000300 fd 79 6e 3e 11 6e b5 3e 9c d7 01 3f 35 ad 25 be
       0.23288722 0.35435537 0.5071962 -0.16179354
000310 bd d8 80 40 8d 70 25 bf d1 93 90 3f 74 8e eb 3e
       4.0264573 -0.64624864 1.129511 0.4600712
000320 0c db 4d 3e 2f 5b 44 be 09 e3 06 bf a4 d0 ff 3e
       0.20103091 -0.19175409 -0.5269018 0.49963868
000330 84 a0 e1 bd a9 96 4a 3e 11 66 56 be 70 6a c5 be
       -0.11016944 0.19784035 -0.20937373 -0.38557768
000340 30 8f 99 3f 6b f6 bf bf df bf be 3e 9b 05 71 bf
       1.1996822 -1.4997076 0.3725576 -0.9414918
000350 d1 d6 93 3e 96 8d 20 3f 3a 25 3a c0 11 d3 7f 3f
       0.2887483 0.62716043 -2.9085221 0.99931437
000360 6a 89 37 3f 08 84 d7 be 3b 47 87 be f5 86 c9 bd
       0.7169405 -0.4209292 -0.26421532 -0.09840194
000370 f4 1a 65 bd 5e 4a cf bd 4d 38 7c 3d 7b 68 57 3e
       -0.055933908 -0.10121606 0.06157713 0.2103595
000380 a5 b5 32 3f 26 2b 25 bf ce 7d 35 3f a9 ab 62 3e
       0.6980842 -0.64518964 0.7089509 0.22135796
000390 d8 66 aa bd 8c f0 c1 3e 81 f9 48 bf ff 1e c8 bf
       -0.08320397 0.37878835 -0.7850571 -1.5634459
0003a0 aa f2 32 3c 2d d0 72 bc 1a 02 e9 be f4 b8 22 3e
       0.010922113 -0.014820141 -0.45509416 0.15890867
0003b0 a4 8b 9b bd c0 80 53 3f 4a 8e 15 3e 2c a5 26 bf
       -0.07594994 0.8261833 0.1460506 -0.6509578
0003c0 ca b8 c8 3d 53 e3 09 3f 8c 71 62 bf 3d 09 6d 3f
       0.09800871 0.53862494 -0.8845451 0.9259222
0003d0 31 e5 b5 3d 06 20 33 be 5c 0b 61 3f e4 e5 62 3d
       0.088816054 -0.17492685 0.8790796 0.055395022
0003e0 2f 2b fe 3f 8d bb 83 bf 0e d4 23 3d 10 6a c5 bf
       1.9856929 -1.0291611 0.039997153 -1.5422993
0003f0 87 4a 45 3f 7e e8 98 3e 18 a9 1e bf ce 84 48 3d
       0.77066845 0.29864877 -0.61976767 0.048954777

bias f4 [32]
000000 dc 8b dc bf 9c ee 8b 3f bc 31 0e c0 67 fa e9 bf
       -1.7230182 1.0932193 -2.2217855 -1.8279542
000010 f0 ea b8 bf cf 54 90 bf cc e2 de bd 60 81 9b bf
       -1.4446697 -1.1275882 -0.10883102 -1.2148857
000020 0b 99 29 40 99 55 89 bf 71 d5 70 be 4f 72 c8 3e
       2.649966 -1.0729247 -0.23518921 0.3914971
000030 d1 1b da bf 64 68 d2 bd 75 25 80 bf c8 9e 0c be
       -1.7039739 -0.10273817 -1.0011431 -0.13732445
000040 7d 43 4b be 99 87 0c c0 f0 3c a8 bf c9 de a6 bf
       -0.19849963 -2.1957762 -1.3143597 -1.3036739
000050 bd fd aa bf d4 3a 33 c0 1e 56 60 bf 1e da 9a 3f
       -1.3358685 -2.8004656 -0.87631404 1.2097814
000060 a1 01 5d bf b7 34 a2 bf e3 68 8f c0 d2 ae c8 bf
       -0.8633061 -1.2672337 -4.4815536 -1.5678351
000070 3d 2f 1a bf d2 fa 83 c0 9e 42 c2 be e8 b0 e4 bf
       -0.6022833 -4.1243677 -0.3794145 -1.7866488

weight f4 [16, 32]
000000 fd 11 2d be 72 11 1f bf a5 41 d2 3c 1f e8 d8 be
       -0.16901393 -0.62135994 0.025666067 -0.42364594
000010 5d 82 08 bf 78 36 03 3e c7 08 54 be 82 74 19 be
       -0.5332392 0.12813747 -0.20706473 -0.1498585
000020 ca ce c0 be 67 16 8f be 7c 94 28 be 82 54 ca be
       -0.37657768 -0.2794678 -0.16462892 -0.395176
000030 c1 ae a7 be da 0f fc be e0 8e 0e bf e5 e3 14 bf
       -0.32750514 -0.49230844 -0.5568676 -0.5816024
000040 e8 73 78 be 92 a6 0a be 53 f3 ac bd 3c 1b 41 bd
       -0.24262965 -0.13540104 -0.08444848 -0.047145113
000050 0a c6 96 bd 1f d5 58 bf 92 b1 07 bf 59 df ba be
       -0.07361992 -0.84700197 -0.53005326 -0.36498526
000060 99 cb 18 bc b1 fc cf be a9 65 8f be dc e7 5c bf
       -0.009325885 -0.40622476 -0.28007248 -0.8629129
000070 a3 1c 8f be 76 02 97 3d 6b 66 44 bd 29 4c 78 3c
       -0.27951536 0.07373516 -0.047949236 0.015154877
000080 80 d6 11 be 7a d5 93 be c9 b5 8a bd 6d 1f d9 be
       -0.14241982 -0.28873807 -0.06772954 -0.42406788
000090 27 08 94 3d ea f3 1f be d7 e5 db bd 8b 73 56 be
       0.072281174 -0.1562039 -0.10737198 -0.20942514
0000a0 ce 9c 72 be 9c fa 94 3c 2e 12 6e be 52 a8 08 bd
       -0.23692629 0.018185906 -0.23249123 -0.033363648
0000b0 52 e5 2d be b1 42 6d be e0 30 01 be 1c 7d ba be
       -0.1698201 -0.23169972 -0.126163 -0.36423576
0000c0 fb d9 0d bb f4 12 06 be bd 02 93 bd a2 68 33 be
       -0.002164482 -0.13093168 -0.07178257 -0.17520383
0000d0 08 c7 1d bc b1 0d f9 bd 31 33 8c bd 0b a3 96 be
       -0.009629972 -0.121608146 -0.068457015 -0.29421267
0000e0 08 e4 46 be 16 93 33 bd 26 83 fb bd 2b 0d 51 be
       -0.19422925 -0.043841444 -0.12280874 -0.2041518
0000f0 30 7b 74 be 0b 0f c1 bd 27 3e 1c be db d8 00 be
       -0.23875117 -0.09426697 -0.15258084 -0.12582724
000100 3b bd 43 3e 50 66 db 3e ab 42 3a bf 50 29 98 3e
       0.19115154 0.42851496 -0.7275798 0.2971902
000110 3f d4 81 be 54 17 5f 3f 9c 58 7b 3f 6a d8 0b be
       -0.25357243 0.8714497 0.9818208 -0.13656774
000120 00 ad 91 3f bb 3a f3 3e ad 79 bb 3e ed 17 0c 3f
       1.138092 0.47505745 0.3661627 0.5472401
000130 3d 74 3a 3e 0d ee b9 bb 69 0b ff 3e 7e a8 5f 3f
       0.18208404 -0.00567413 0.49813393 0.87366474
000140 89 6f 17 3f 54 57 15 bf 76 8a 09 3f b4 c6 c1 3e
       0.59154564 -0.5833638 0.537269 0.3784691
000150 de b0 1b 3f 31 40 32 bf 43 fe a6 3e 54 ac 3b 3f
       0.6081675 -0.696292 0.3261586 0.73309827
000160 9f 8e 31 3f bf 13 68 3d 7a 3d d2 c0 88 ff 2e 3d
       0.6935825 0.056659456 -6.5700045 0.042724162
000170 7f 10 02 3f c4 0e a3 bf 70 67 7a 3f 62 a2 b7 be
       0.5080642 -1.2738881 0.97814083 -0.35866076
000180 e2 47 a4 bd d0 ab 16 bf f0 f1 c5 be c9 97 17 bf
       -0.08021523 -0.58855915 -0.38661146 -0.5921598
000190 65 5b 6c 3d 54 7d cf be 83 12 e4 be af 98 8d bf
       0.057704348 -0.40525305 -0.44545373 -1.106222
0001a0 ed a0 5c 3f a9 cc 83 3f 1f de 41 bf f4 45 8a be
       0.86183053 1.0296832 -0.75729555 -0.27006495
0001b0 10 79 d7 3e a3 b7 ab 3d 1e 75 17 bf ad 28 a7 bf
       0.4208455 0.08384635 -0.5916308 -1.3059288
0001c0 65 25 7f bf 24 f7 17 3f 34 58 66 3c 4b 9e 85 bf
       -0.99666435 0.5936148 0.014059115 -1.0438932
0001d0 8c 2d a8 bd b6 a1 ff 3c 13 a1 8f bf 26 25 b3 bf
       -0.082118124 0.03120504 -1.1221031 -1.3995712
0001e0 fd c6 8b bf 6b 28 6c bf 5b 44 4e 3e 2e 4e 41 bf
       -1.0920101 -0.9224917 0.20143263 -0.7550992
0001f0 6a 4d 8f bf b6 c4 0f c0 43 3b 0f bf c5 22 a8 be
       -1.11955 -2.2463813 -0.559498 -0.32839027
000200 03 40 0f c0 01 a2 9d 3e d3 88 a4 bd 37 2a a5 3f
       -2.238282 0.30787662 -0.0803391 1.2903508
000210 ab 76 05 c0 cc f6 17 3f 92 02 30 3f 14 a2 93 3f
       -2.085368 0.5936096 0.6875392 1.1533837
000220 a0 97 ad be 4f d7 90 ba b3 56 b7 3f d8 42 29 be
       -0.33904743 -0.0011050495 1.4323334 -0.16529405
000230 69 61 2e c0 60 0b 02 c0 13 71 a3 3d 40 ab 2a 3e
       -2.7246954 -2.0319443 0.079805516 0.16666889
000240 e1 a6 d3 3f 1b ae 9f be 2f 41 21 bf 21 0c ad 3e
       1.6535302 -0.3118752 -0.6299009 0.33798316
000250 c2 b5 eb bd 8f da 2b bf 6f 47 3a be 89 a0 2e 3e
       -0.11509277 -0.6713037 -0.18191312 0.17053427
000260 d1 64 42 3f 44 11 58 bf aa 0d 90 c0 61 b9 00 3d
       0.75935084 -0.84401345 -4.501668 0.03142679
000270 5f 74 18 bd 24 36 54 3f 53 e8 0d 3f 58 5a 92 be
       -0.037220355 0.8289511 0.55432624 -0.28584552
000280 7e f8 d5 bf ba 3e 13 3f 07 fd ec be 9e 35 ab 3e
       -1.6716459 0.5751759 -0.46286795 0.33439344
000290 59 1d 1f bf dc e1 1e 3d f6 27 43 bc 88 df 0a be
       -0.62154156 0.038789615 -0.011911383 -0.13561833
0002a0 0a 02 94 3e f1 d0 c1 be 78 c0 2d 3f 7d 6d ab be
       0.28907806 -0.37854722 0.6787181 -0.3348197
0002b0 ab 57 8c bf 24 f7 12 c0 c2 13 37 bf f7 0e 1a 3f
       -1.0964254 -2.2963343 -0.71514523 0.60179085
0002c0 a0 0d 83 3f b6 f6 e3 bf c4 52 3c bf c9 42 97 3e
       1.0238533 -1.7809665 -0.7356379 0.2954314
0002d0 38 28 c1 bd e1 00 e0 bf 7d 10 60 bf 19 bf f5 bc
       -0.09431499 -1.7500268 -0.8752516 -0.029998349
0002e0 04 27 22 3f bb 54 b3 bf d3 bf e6 bf 3b 36 bb be
       0.63340783 -1.4010233 -1.802729 -0.36564812
0002f0 32 14 97 3d 46 e6 96 3e 9d a2 bf 3e 55 2b 97 bf
       0.07376899 0.2947256 0.37428752 -1.1810099
000300 0a d2 31 bf 09 02 42 3f a6 bb 64 bf 86 1d 90 3e
       -0.6946112 0.75784355 -0.8934883 0.28147525
000310 9b e6 2a bf 0f ff 25 3f 80 e1 61 3e ee b4 35 3e
       -0.66758126 0.64842314 0.22058678 0.177448
000320 32 e0 21 bf ba 18 fb 3e 0a 98 25 bd 98 07 c2 bd
       -0.6323272 0.49042302 -0.0404282 -0.09474105
000330 7d 40 81 bf 5b 73 00 c0 3d e2 83 bd 16 7c 47 3f
       -1.0097805 -2.0070407 -0.06439636 0.77923715
000340 25 6b dd 3e a3 d8 63 c0 cc 4e 98 3e 0e bc 01 3f
       0.43245807 -3.5600975 0.29747617 0.50677574
000350 77 82 6e 3f 90 b0 8e bf f0 af 1a bd 03 46 a9 3d
       0.93167824 -1.1147633 -0.037765443 0.08265307
000360 f1 37 50 3f a0 05 4c 3d b3 d3 db bf 20 73 c3 3e
       0.8133536 0.049810052 -1.717398 0.3817377
000370 c2 e5 a8 be 31 42 a8 bc 91 c4 b4 3d f6 93 f4 3e
       -0.3298779 -0.020539375 0.088265546 0.47769135
000380 d8 5f 80 bf b7 9a bc bd 4c 49 e8 be f2 0c 31 bf
       -1.0029249 -0.09209197 -0.4536842 -0.6916038
000390 27 3b 29 bf de 75 a2 bf c8 d3 3e 3d 7b 88 91 be
       -0.66105884 -1.269222 0.04658869 -0.2842444
0003a0 38 4e ff be 3e 7f c2 bd 6b 0e 10 3e 6e 7d e4 be
       -0.49864364 -0.09496926 0.14068 -0.44626945
0003b0 33 c4 c0 be a6 ef 47 bf 5b 7a c8 3e db ee a4 be
       -0.37649688 -0.7810005 0.3915585 -0.32213482
0003c0 cb 06 e7 3e 68 81 af bf 7a f8 04 3f f0 24 9d be
       0.4512237 -1.3711367 0.51941645 -0.30692244
0003d0 29 3f 5a 3e d0 9d 98 bf 38 10 32 bf 62 b5 a1 bf
       0.21313156 -1.192316 -0.69556 -1.2633479
0003e0 2f d2 0a 3f 88 cd 8f 3c ee 8c 3e bf 16 2c 97 3d
       0.54226965 0.01755406 -0.7443379 0.073814556
0003f0 74 d9 88 3e f6 fe 33 bf d9 05 51 bf 7e fd df be
       0.26728404 -0.70310915 -0.8164955 -0.43748087

bias f4 [16]
000000 bc e7 f3 be 0d b3 8b be 5a b9 03 40 4e 8e 33 40
       -0.47637737 -0.27285042 2.058188 2.8055606
000010 48 1f 91 be 62 a2 53 bf 5a 45 00 be c6 89 55 bf
       -0.28344178 -0.8266965 -0.12526456 -0.8341335
000020 ea d8 84 3e 09 dc 43 be d7 49 04 bf b2 ec a2 bf
       0.25946742 -0.19126906 -0.5167517 -1.2728484
000030 fb 4c af 3f 49 ea 30 40 66 d9 74 bf 24 17 87 3e
       1.3695368 2.7642996 -0.95644224 0.26384842

weight f4 [8, 16]
000000 e6 ca 66 3d 9d 62 f5 3d 5e 41 0e 3e d1 f3 3a 3e
       0.056345843 0.119816996 0.13892123 0.18257071
000010 11 ce 1e 3d 92 82 bd be 4f a7 00 3d bc 92 1d bf
       0.03877074 -0.3701368 0.031409558 -0.61552024
000020 39 cf d1 bd 0b bc 6a 3f df 9c 8f 3d 64 3f c9 be
       -0.10244603 0.9169318 0.07012343 -0.39306176
000030 43 20 4e be a9 16 db bc 4b 76 54 3e 81 37 08 bb
       -0.20129494 -0.026744204 0.2074825 -0.0020785036
000040 96 d9 29 bf 82 9f c9 bd a1 41 b2 bd 3a 84 d1 3d
       -0.66347635 -0.09844877 -0.08703924 0.10230298
000050 1e d6 b9 bd 42 ba fe 3c 02 30 d2 3b 06 bb ce be
       -0.09074043 0.031094674 0.0064144144 -0.40377063
000060 ac 26 4f 3e 95 7f 9c 3d 9d 5a 3b be 66 35 bd 3e
       0.20229596 0.07641522 -0.18296285 0.36954802
000070 0a 6d c0 bd 41 53 22 be 21 18 f6 3d e5 85 73 3d
       -0.093957976 -0.15852071 0.12016321 0.059453864
000080 10 0c 8f 3e bb 23 87 3d c2 76 30 be 61 a8 1c bf
       0.2793889 0.06598612 -0.17232803 -0.61194426
000090 90 b4 de 3e 52 c9 17 3f 23 6e 85 3e 35 04 0c 3f
       0.43497133 0.59291565 0.2606059 0.5469392
0000a0 2a 4e 5e 3e 46 ea b5 bd e6 3d 06 3f 3f 2a c7 3c
       0.21709505 -0.08882575 0.524382 0.024312137
0000b0 d4 a3 18 bf b5 37 b2 bc 2a 83 ef 3e 71 f3 24 3e
       -0.5962498 -0.021755079 0.46779758 0.1610849
0000c0 e6 c6 7b 3e 40 92 a3 bd f3 6d 12 3e 2e 0d 7b 3f
       0.24587592 -0.07986879 0.14299755 0.98066986
0000d0 89 90 5f 3f 76 e7 58 3e 82 c7 69 be 87 00 13 bf
       0.8732992 0.21182045 -0.22830012 -0.5742268
0000e0 2c b5 c0 bc 26 55 89 3d 5d 6a 31 3e 14 0b c8 3e
       -0.02352389 0.06705694 0.1732573 0.39070952
0000f0 12 47 37 bd c9 c1 a6 3e 1c ee dc 3e 4b 45 9e be
       -0.044745512 0.3256972 0.43150413 -0.3091224
000100 d8 32 72 be 74 0b 4c bd 0a 88 49 bf ab df c8 3e
       -0.23652208 -0.04981561 -0.78723204 0.39233145
000110 a0 40 4c bf 64 2a aa be 6d 4c ea be cb a3 d7 bd
       -0.7978611 -0.33235466 -0.45761433 -0.10529288
000120 e6 96 32 bf 40 aa 69 be f5 06 41 bf 35 0e 48 bf
       -0.697615 -0.22818851 -0.7540124 -0.7814668
000130 dd c1 b8 be 3a 5f 05 3f 56 85 cf bf f3 49 e9 be
       -0.36085406 0.5209843 -1.6212566 -0.4556423
000140 74 01 be bd bf fc 93 be 6c ec 88 3e 04 b3 2d bf
       -0.09277621 -0.28903767 0.26742876 -0.6785128
000150 24 31 de 3d 3d f2 5f bf 08 26 ab be e5 2f 1c be
       0.108492166 -0.87479 -0.33427453 -0.15252645
000160 7b c5 dc be ce b9 3c 3d 33 b6 9b 3d 6e 52 ee be
       -0.43119416 0.046075635 0.07603111 -0.46547264
000170 ba 87 64 3e 9d 95 01 bf 4e 3c 3c bd fc 54 c1 bd
       0.223174 -0.50618917 -0.04595595 -0.094400376
000180 19 1f a2 3e 19 c3 20 3e 73 5a 8c bd f6 0e da bd
       0.3166435 0.15699424 -0.06853189 -0.10647385
000190 92 9e d6 bd e7 5b a0 be cd 07 4d 3c e3 b7 7a bf
       -0.10479464 -0.31320116 0.012514067 -0.9793684
0001a0 19 02 b5 3c 59 c9 a7 be fb f2 45 bd b7 77 71 bd
       0.022095727 -0.32770804 -0.048327427 -0.05895206
0001b0 45 50 57 3d b4 91 e7 bd ff c2 83 bd 3a 1c f4 bd
       0.052566785 -0.113070875 -0.06433677 -0.11919446
0001c0 5e b1 c3 ba a8 17 cb 3d fd 5a 9e bd ec 4b 76 be
       -0.0014930179 0.099166214 -0.077321984 -0.240524
0001d0 85 89 a9 3d f6 a6 a4 3d 9c 3e 80 3d f1 6f 1e 3e
       0.08278183 0.08039658 0.06261942 0.1547239
0001e0 1a 39 2e be c5 6d 01 3e 55 73 2c 3e 44 da 1b 3d
       -0.1701397 0.1263953 0.1684087 0.03804995
0001f0 dd 4c 66 3d 92 b9 34 3e 64 04 5b bd 5f 34 68 3d
       0.056225646 0.17648914 -0.053470984 0.05669057

bias f4 [8]
000000 ae 0b 96 bf ea 08 99 3e 0e 7c bf bf 5f 0c 1d 3e
       -1.1722314 0.29889613 -1.4959733 0.1533675
000010 29 4a d0 3f d3 08 23 c0 e7 6b 64 3e 92 00 4b 3e
       1.6272632 -2.5474136 0.22306786 0.19824436
