models/NeuMF32.pt (torch, 711404 bytes, 18 tensors)

weight f4 [943, 32]
000000 e1 95 84 bf d0 2e 2e 3f 83 34 ae be 06 46 3f bf
       -1.035824 0.6804018 -0.34024438 -0.7471622
000010 dc 29 d1 be 78 78 0c 3f 9c 87 78 3f fa 8e 04 3f
       -0.4085225 0.5487132 0.97081923 0.51780665
000020 90 b3 81 c0 99 52 3e bf e7 8a 83 be a1 5d 04 bf
       -4.0531693 -0.74344784 -0.25691912 -0.51705366
000030 69 7b f7 bc 1e 61 40 be f3 76 6c be b5 1f 73 be
       -0.030210214 -0.18787047 -0.2309225 -0.23742564
000040 b0 a5 b5 3e 8b 2d 71 be 20 8d 73 be d3 3f 4a 3e
       0.35477972 -0.2355253 -0.23784304 0.1975091
000050 e4 f3 06 bd af 14 64 bf 40 75 58 3e 48 46 8a be
       -0.032947436 -0.8909406 0.21138477 -0.27006745
000060 41 01 e8 be 3d 12 81 3e c1 3e e8 3f ef 5d 79 be
       -0.45313457 0.25209227 1.8144151 -0.24352239
000070 8f b5 24 3e 2a 8e 5e 3e 98 13 bc 40 db f2 58 be
       0.16084884 0.21733919 5.877392 -0.21186392
000080 3b cc 0f 40 4f 6f 86 3f a3 a8 c4 bf 7e f3 c8 3e
       2.2468402 1.0502719 -1.5363964 0.3924827
000090 2a c0 6d 3f 3f 13 3f 3f 38 fc c2 3f 26 f8 6e be
       0.92871344 0.7463874 1.5233221 -0.23336849
0000a0 86 1c b9 3e 2a 84 da be 07 0d cf bf a4 21 9c be
       0.36154574 -0.42678958 -1.6175851 -0.30494416
0000b0 bc 18 0c bf 6e bb 7a be 1b 65 2b c0 43 48 84 3e
       -0.5472524 -0.24485561 -2.678046 0.2583638
0000c0 35 6b 4b 3f 14 95 1e bf 69 87 0d be 44 f0 bf bc
       0.7946046 -0.61946225 -0.13821186 -0.023429997
0000d0 18 8b be 3f 24 8e db bf d1 ab 48 3f 33 73 2e bf
       1.4886198 -1.7152753 0.7838717 -0.6814453
0000e0 63 e5 03 3f 7d 30 00 3e c0 47 27 40 93 3c 91 3e
       0.5152189 0.12518497 2.6137543 0.28366527
0000f0 4e 77 5f bf 5a 40 5c 3e b4 82 38 bf fd cb 17 3f
       -0.8729142 0.21508923 -0.7207444 0.59295636
000100 df 71 f8 be 85 49 56 c0 16 a3 79 c0 81 54 cf 3f
       -0.48524377 -3.3482373 -3.900579 1.6197664
000110 8d b2 78 3f 9e 51 49 3d a4 5b 5f 3f 2f 0b d8 3f
       0.97147447 0.0491501 0.8724921 1.6878413
000120 06 ea 9d 3d 23 64 50 be eb 5f 08 c0 0a 55 76 3f
       0.07710652 -0.20350699 -2.1308544 0.9622351
000130 30 5b 0b 3f 49 92 d1 3e e0 cb 21 3e 7a ac 17 bf
       0.54436016 0.4093192 0.15800428 -0.59247553
000140 9f 68 40 bf 49 6e fa 3e 09 63 f2 3e 3e bf 30 40
       -0.7515964 0.48912266 0.47341183 2.7616725
000150 77 15 d0 bd 71 98 1f c0 e7 a7 c2 bd 1d 49 70 bf
       -0.10160344 -2.4936793 -0.09504681 -0.9386156
000160 85 5c 12 bf 82 04 e1 bf cb f0 bb 3f 65 6d 01 3e
       -0.57172424 -1.7579501 1.4682859 0.12639387
000170 78 e4 bc bf c6 0e ee be e4 6e 0f bd 88 44 81 bf
       -1.4757223 -0.46495646 -0.035017863 -1.0099039
000180 9d 7c 91 bf c3 70 97 bf b9 1a bd 3e c3 50 d2 3e
       -1.1366154 -1.1831287 0.3693445 0.4107724
000190 c5 2b a5 3f 02 6b b1 bf 95 46 4c bf a2 69 cf 3f
       1.2903982 -1.3860781 -0.797952 1.6204112
0001a0 74 40 b1 bf f6 1d f1 3e 6c b4 38 40 3e e8 8f bf
       -1.3847795 0.4709317 2.886012 -1.124275
0001b0 55 ef 4b bf 6e 3f 8a bf e6 aa f3 3f c6 0d a8 3e
       -0.79662067 -1.0800607 1.9036529 0.32823008
0001c0 86 f4 d3 3f 4c 3a 5b bf db 9b 1e bd 5a 03 a6 bf
       1.6558998 -0.8563583 -0.038722854 -1.2969773
0001d0 0c c8 44 bd 9e 98 1c 3f 4c 8f c3 bf 20 3f ec 3d
       -0.048042342 0.61170375 -1.5278106 0.11535478
0001e0 f4 80 15 bf 26 05 51 bf 6d 71 62 3e 8f 11 46 3f
       -0.5839989 -0.8164848 0.22113581 0.7737054
0001f0 ab 94 3c bf e6 7a 86 3f a0 85 87 3f c7 83 8c bf
       -0.7366435 1.0506256 1.0587654 -1.0977715
000200 b4 3c 76 be 6e 06 a6 3d 46 15 38 40 04 5d da bf
       -0.24046594 0.08106695 2.8762984 -1.7059636
000210 16 c3 ad 3f 48 46 36 c0 8c 55 59 40 a3 72 7d 3f
       1.357516 -2.8480396 3.3958464 0.99003047
000220 6d d2 87 3e 6b d0 91 be 69 7a c9 bf 92 55 74 bf
       0.2652773 -0.28479323 -1.5740482 -0.9544307
000230 a3 ef d0 3f f3 d7 96 be ff 9a 3d 40 28 8a e2 3f
       1.6323131 -0.2946163 2.9625852 1.7698412
000240 b0 ab ad be eb ce 76 3f a7 79 5d bf f3 bf a9 3f
       -0.3392005 0.9640948 -0.8651375 1.3261703
000250 e1 32 83 3d 40 58 c7 3f 0e ff 7a 3f de c2 41 bf
       0.06406189 1.5573807 0.9804543 -0.7568797
000260 11 19 0a bf c8 38 a2 3f b5 5b ce 3e bf d1 b5 3f
       -0.539445 1.2673578 0.40304342 1.4204634
000270 6c e5 07 40 52 56 34 bf 91 0e 26 be 81 d1 0d 40
       2.1233778 -0.70444214 -0.16216494 2.215912
000280 28 ae e2 3d eb 6f bd 3e 43 58 b9 bd 04 cc 4c be
       0.11068374 0.3699945 -0.09050038 -0.19999701
000290 d7 b6 8e bd 91 d9 56 3f ac 67 1d bf 9f 97 fb be
       -0.06968468 0.8392573 -0.61486316 -0.49139115
0002a0 63 d9 64 40 8c 58 67 be 6d 11 23 be 65 04 da be
       3.5757682 -0.22592372 -0.15924616 -0.42581478
0002b0 2b bd 8e bd 97 ed 79 be 6b 79 66 3f 0a 45 4a be
       -0.06969675 -0.2440704 0.9002902 -0.19752899
0002c0 c3 22 68 3e e8 d9 04 3d 55 f3 4a 3e 7d 64 d5 3d
       0.2266951 0.032434374 0.19819386 0.10419557
0002d0 8d 31 35 3e c1 0a 47 40 25 94 80 bd ec 96 1e 3f
       0.17694683 3.1100314 -0.06278256 0.6194904
0002e0 1a 96 5b bd 08 ab 5a be 62 ed 23 40 33 89 52 bd
       -0.053609945 -0.21354306 2.5613637 -0.051400375
0002f0 88 06 0b bf 82 98 50 3f 30 99 51 40 00 a6 9c 3e
       -0.5430684 0.8148271 3.2749748 0.30595398
000300 a2 67 8b 3e bc 0d 57 be d4 3e b4 3d b2 26 9b 3e
       0.27227503 -0.21001333 0.08801046 0.3030296
000310 ea ae 5e 3f 65 a0 1c c0 24 8a 6a 3e 7c 82 ce be
       0.8698565 -2.4472897 0.22904259 -0.40333927
000320 b7 27 bf 40 8a 60 f6 be c1 d2 06 be 1e 9b 73 3f
       5.973598 -0.48120528 -0.13166334 0.95158565
000330 e4 3d 1b 3f 4d a5 9d be 4f 78 a7 3e 4d 48 fd 3d
       0.6064131 -0.30790177 0.32708976 0.12367306
000340 f8 b5 cb be a3 20 09 bf 77 ce 23 bf da f4 8d be
       -0.3978727 -0.53565425 -0.63986915 -0.2772587
000350 51 55 d9 3e 07 6e 45 be eb 46 5a be ff b8 5c bc
       0.42447904 -0.19280253 -0.21316116 -0.013471841
000360 86 d6 8c 3d 3a bf d4 3e a3 60 40 c0 86 ad 21 bd
       0.068768546 0.41552144 -3.0058982 -0.039472125
000370 68 6d fe 3d be 75 00 bf a1 f5 49 c0 4a 04 49 3f
       0.12423211 -0.5017966 -3.155617 0.7852217
000380 ec f5 39 bf 91 cc 6a 3f 90 f1 c3 bf 86 20 45 bf
       -0.7264087 0.91718394 -1.5308094 -0.7700275
000390 17 56 37 3f dc 63 05 bf 9e e7 d6 3e 34 51 b0 bf
       0.7161574 -0.521055 0.41973585 -1.3774781
0003a0 62 45 19 bf 08 0f f6 be 1f 2a f9 3f 0f f4 e7 3e
       -0.59871495 -0.48058343 1.9465979 0.4530339
0003b0 4b f8 61 3f 07 e2 95 bf 76 27 ea be 95 01 04 3f
       0.8826949 -1.1709603 -0.4573323 0.51564914
0003c0 27 76 a7 3f 5e 41 0e bf 95 1c 3f bf 48 f4 a1 bf
       1.3082932 -0.5556849 -0.7465299 -1.2652674
0003d0 55 1c 52 c0 ca 2e b3 3f 85 f2 87 bf 70 94 2c c0
       -3.2829792 1.3998654 -1.0620886 -2.69656
0003e0 b8 12 e0 3d ee ba f1 3f 02 77 93 bf 26 b1 c1 bf
       0.1094107 1.8885171 -1.1520693 -1.5132186
0003f0 ee 4c 5c be b5 59 15 3f 60 91 63 bc 7a dc bb bf
       -0.21513721 0.5834001 -0.013889641 -1.4676659

weight f4 [1682, 32]
000000 7f cd 4c be 37 0b 1d 3f c2 2b 80 3e 63 17 aa be
       -0.20000266 0.6134524 0.25033385 -0.33220968
000010 b6 2f 87 be 95 99 f3 3f f5 d9 ae 3d bf c9 0c 3f
       -0.26403588 1.9031245 0.08537666 0.5499534
000020 aa 80 bc 40 29 c5 b0 3e 68 6f 07 bd 6e c5 c8 bf
       5.890706 0.3452542 -0.03306523 -1.5685251
000030 f9 aa d8 3e a6 eb 97 be ba c6 8e bf ae f5 08 be
       0.42317942 -0.29671973 -1.1154397 -0.1337497
000040 44 55 86 be 58 1b 8d bf 32 15 21 bf f2 a9 a2 be
       -0.26236928 -1.102397 -0.62922966 -0.31770283
000050 48 fb 4e 3f 1f f4 ba 3e 20 22 f6 bb c1 b4 81 3d
       0.80852175 0.36514375 -0.0075113922 0.06333304
000060 cc a1 50 3e 09 1b 7e 3e bd 2c c6 3f 5b 96 d1 3e
       0.2037422 0.24815 1.5482403 0.40935025
000070 a1 ca 96 bf 35 64 a2 bf 25 05 74 40 e1 de 4e bd
       -1.1780587 -1.2686831 3.812814 -0.050505523
000080 e6 c2 8e be db f9 c5 be 96 8c 0a 40 75 17 5e bf
       -0.2788307 -0.38667187 2.1648307 -0.8675454
000090 e3 d3 ad be f6 a8 bd be 0b 47 b0 3f 9e 11 f2 be
       -0.3395072 -0.3704297 1.377168 -0.47279066
0000a0 7a 97 f7 bf 53 3a fc bf 0b 29 3a bf c5 8f 78 3f
       -1.9343102 -1.9705299 -0.72718877 0.97094375
0000b0 d9 47 0e 3f 53 33 5e be 1d 1e 41 3f 95 39 87 3e
       0.5557838 -0.21699266 0.75436574 0.2641112
0000c0 90 d1 a9 3f a3 0f dc be 4a fe 55 3f 13 df e1 3f
       1.3267078 -0.4298068 0.8359114 1.7646202
0000d0 d5 ea 30 c0 9a d5 60 3f b8 1e 74 bf 95 f4 9f be
       -2.764333 0.8782593 -0.95359373 -0.3124129
0000e0 3f 72 12 3f 57 bb 35 be 4b ea 20 bd 63 b2 d2 bf
       0.57205576 -0.17747246 -0.03928594 -1.6460689
0000f0 09 d0 b1 bd d6 82 f0 bf 1a ef 08 c0 d7 26 a7 be
       -0.08682258 -1.8789928 -2.1395936 -0.3264682
000100 1b 4d 93 3f b0 d9 7a bf b3 a9 8f bf 16 28 f2 3f
       1.1507906 -0.97988415 -1.1223663 1.8918483
000110 54 10 01 40 8c 45 5b 3f f0 dc 6e bf ed 6b 26 3f
       2.0166216 0.85652995 -0.93305874 0.6500843
000120 2e 11 85 3f 50 7c 8f 3f 47 93 5f 3f 31 f0 af bf
       1.0395868 1.1209812 0.873341 -1.3745176
000130 d1 b9 de 3e 7b fd 07 3f 02 3f 3b 3d bc 44 b2 3f
       0.43501142 0.53121156 0.045714386 1.3927226
000140 63 53 8b bf 21 20 52 3e a4 c7 8e be 37 dc be be
       -1.0884823 0.20520069 -0.2788669 -0.37277386
000150 11 b4 c3 3e 6f 2a 69 bf 7b 0a 9c 3f 15 3c 48 bf
       0.38223317 -0.91080374 1.2190698 -0.7821668
000160 f0 d2 03 40 ad 3e 03 3f f0 b4 5c bf f0 1d 94 bf
       2.0597496 0.5126751 -0.8621359 -1.1571636
000170 a5 62 4c be 5b b0 f9 bf 51 91 0d 40 d3 b7 48 be
       -0.19959505 -1.9506944 2.2119944 -0.19601373
000180 c8 5f 50 bf f0 8e 2a be 1a 1a 1c bf 7a 9a 9d 3f
       -0.8139615 -0.16656089 -0.6097733 1.2312768
000190 33 6c 10 bf f0 9a 9a bf f4 90 ec 3e f8 37 27 bf
       -0.564151 -1.2078533 0.4620434 -0.65319777
0001a0 6e a8 41 c0 05 92 27 3f 90 cd 6d 3e 8f e0 70 bf
       -3.0259051 0.65457183 0.23222947 -0.9409265
0001b0 5d f3 a5 3d e0 b6 5f 3f 05 22 94 3f b5 2f be be
       0.081030585 0.8738842 1.1572882 -0.37145773
0001c0 d9 b0 4d bf 76 19 7a bd 43 f1 95 be d8 32 30 3e
       -0.80347973 -0.061059438 -0.2928563 0.17206895
0001d0 e1 73 97 be 7d 5e e7 3e 81 b5 a2 3f 97 88 06 3f
       -0.29580596 0.45189276 1.2711641 0.5255217
0001e0 2b 4c 1b bf 8b d7 7b 3e e8 4d c1 be 32 ab 99 3e
       -0.606631 0.24593942 -0.3775475 0.30013424
0001f0 a7 60 87 be 75 de 15 40 58 e8 d5 bf be 5c 4b bf
       -0.26440927 2.3417027 -1.6711531 -0.7943839
000200 04 87 fb 3d df 49 22 3d 05 56 c9 3e 56 e0 04 bf
       0.122816116 0.03962123 0.3932344 -0.5190481
000210 1e 40 68 bf 40 39 5c 3f 18 ae 8e bd d3 39 90 3e
       -0.90722835 0.86024857 -0.069667995 0.28169116
000220 b4 5c ee 3e 5e e3 44 3f 02 8a ca 3f 57 c2 05 c0
       0.46555102 0.76909435 1.5823367 -2.0899866
000230 71 06 bb 3e 17 28 c0 bf 75 71 fb bf ca 95 5b 3f
       0.36528352 -1.5012234 -1.9643999 0.85775435
000240 6d f5 a9 3f 62 14 03 3f 07 22 da bf fa 1e bd be
       1.3278023 0.51202977 -1.7041634 -0.36937696
000250 9e 4b 80 3e fc 58 e5 be 53 5d 2d bf fc 48 ae bf
       0.2505769 -0.44794452 -0.67720526 -1.3616023
000260 de ff 0c bf c5 89 35 3f ff 04 36 40 f0 34 47 3f
       -0.5507792 0.70913345 2.844055 0.7781515
000270 43 79 09 bf ad 3e ac 3e 32 28 de bf d9 db d5 3f
       -0.53700656 0.33641568 -1.7356017 1.6707717
000280 74 25 60 bf 20 a8 51 bf 08 61 03 c0 21 3e 08 bd
       -0.8755715 -0.81897163 -2.0527973 -0.033262376
000290 d4 ae a9 bf 5d b7 41 be b6 a6 99 be 0d 54 04 c0
       -1.3256478 -0.18917604 -0.30010003 -2.06763
0002a0 87 86 42 3f 09 c5 2d 3f 14 aa 1a 40 b7 34 fe bf
       0.7598652 0.67878777 2.4166307 -1.9859837
0002b0 18 b7 d6 be 12 25 28 bc 82 ed ea 3e 36 f5 90 3f
       -0.41936564 -0.0102627445 0.4588433 1.1324832
0002c0 26 58 25 3f b5 d5 f6 3f 90 99 d6 bf 38 41 6f 3a
       0.6458763 1.9283968 -1.6765614 0.0009126845
0002d0 2f 2c 2a c0 ab ed bd bf f5 7f 50 3f d1 e3 fe 3f
       -2.6589468 -1.4838156 0.81445247 1.9913274
0002e0 03 a0 4f bf e7 f4 58 3f 48 d6 64 3f 13 aa 48 3e
       -0.81103534 0.8474869 0.8938947 0.19596128
0002f0 db e2 fd be a4 ff 93 3d 5e 6f fa 3e a6 1c ad be
       -0.4958714 0.07226494 0.4891309 -0.3381092
000300 a0 83 6b be 9e 78 de be 7b ca ed 3d 4b 14 e7 be
       -0.2299943 -0.434514 0.11610886 -0.4513267
000310 5b 36 c7 3f 69 3a df 3f 72 c7 81 3e 51 9e 32 be
       1.5563463 1.74397 0.25347477 -0.17443205
000320 c7 ec 57 40 c3 b9 99 bd 4d fd 00 3d d3 27 ab 3e
       3.3738267 -0.07506134 0.031491566 0.3342882
000330 81 31 82 3f f7 fc 25 be 4f 0e 49 3e 65 5d 9c 3c
       1.0171357 -0.1620978 0.19634365 0.019087503
000340 14 cd 61 3e 02 3f 9d 3f cd 43 bf bd f3 d7 da bd
       0.22050887 1.2284853 -0.09339104 -0.1068572
000350 94 f1 84 3e f7 19 4a bf 57 47 ea be ab f6 9e bd
       0.2596556 -0.7894587 -0.45757553 -0.07761892
000360 45 03 a4 bc 34 9c ce 3d c7 57 97 bf 5a ca cd be
       -0.02002109 0.10088387 -1.1823663 -0.40193444
000370 21 76 d9 bf 70 45 7f bf fb e7 29 c0 b7 b2 d3 3e
       -1.6989175 -0.9971533 -2.654784 0.41347286
000380 2a 66 6b 3f ce 42 39 c0 b7 a2 54 3f e0 88 dc bc
       0.91952765 -2.8947024 0.83060783 -0.026920736
000390 8f 1e 14 3e 78 3f 81 bd 8a d2 06 3f 21 09 d7 bf
       0.14464782 -0.06310934 0.5266501 -1.6799661
0003a0 20 a2 29 40 c0 00 e8 bc 68 c1 89 3d 15 3c 6b bf
       2.6505203 -0.02832067 0.067263424 -0.9188855
0003b0 5a a6 d4 3f b2 0b 62 be 67 f5 bd 3d 1a d5 e9 be
       1.6613266 -0.22074774 0.092753224 -0.45670396
0003c0 a6 05 0b be 72 a8 9b bc b2 f4 0d bf 75 49 ef 3f
       -0.13576373 -0.01900122 -0.554515 1.8694292
0003d0 3f cf ae 3f 18 63 8b 3f c0 34 a3 bd 02 a8 82 bc
       1.3656996 1.0889616 -0.07969046 -0.015949253
0003e0 5c 4b 14 3e 0c 7e d3 3e 75 49 e0 3e a5 b9 f3 be
       0.14481872 0.41307104 0.43806043 -0.47602573
0003f0 08 fb 99 be b6 6d ea 3d 1a 50 fe bf bd 18 d2 3e
       -0.30074334 0.11446707 -1.9868195 0.410345

weight f4 [8, 32]
000000 ba 21 07 3d 43 56 f8 3e e2 8d 28 3f df be aa bc
       0.03299115 0.48503312 0.65841496 -0.020842968
000010 3b a3 ea 3d 8e ab 98 3e d4 2d e2 bd f3 e7 05 bf
       0.11456915 0.29818386 -0.11043897 -0.5230705
000020 1b a6 5a bf a0 31 92 3e 54 26 ec 3f a3 46 e3 be
       -0.85409707 0.28553486 1.8449197 -0.4438983
000030 a4 52 93 3e fe e7 2f 3f 27 84 12 3e f1 c4 07 3d
       0.28773987 0.68713367 0.14308225 0.033146802
000040 89 d6 76 3e d9 5d d9 3d 89 85 7d 3e 32 8a 4f 3e
       0.24105276 0.10613603 0.24757971 0.20267561
000050 58 2d 0d be 2c be 2e be 87 65 a7 3e 2c e4 c7 3f
       -0.13786829 -0.17064732 0.32694647 1.5616508
000060 44 62 0e c0 fc 87 b6 3e 5f 15 03 bf 18 bd 3e 3c
       -2.2247477 0.35650623 -0.51204485 0.011641763
000070 0e 17 18 bd 33 4c ca bc 06 5d dc 3e 45 09 21 3f
       -0.03713136 -0.024694538 0.4303972 0.6290477
000080 cb 03 45 3d ff d6 7d 3e 63 67 a1 3d 3b 05 80 3e
       0.04809932 0.24789046 0.078810476 0.2500399
000090 6f 5c 1e bd 72 f0 33 be b6 70 d1 3d f4 5c 0b bc
       -0.03866237 -0.17572191 0.10226576 -0.0085060485
0000a0 b5 d1 d0 bd a2 84 5c be 4d c9 32 3f 3d 19 2f 3e
       -0.101962484 -0.2153497 0.6983841 0.17099471
0000b0 50 39 b4 3d 55 03 33 bf 14 0f 53 bd 5e 57 e8 be
       0.08799994 -0.6992696 -0.05152805 -0.45379156
0000c0 68 91 aa 3e 42 be 22 3b b7 16 4d be 32 ca ae be
       0.3331406 0.002483264 -0.20028196 -0.34138638
0000d0 d6 23 4a bb 48 52 29 3e eb 22 a9 3e 98 f4 a2 3e
       -0.0030844114 0.16535294 0.33034453 0.31827235
0000e0 90 c8 a1 be e9 c9 0d 3e 95 24 22 3d 42 c2 b8 3e
       -0.3159833 0.13846554 0.03958567 0.36085707
0000f0 54 cd 96 be 37 18 d7 bd d2 36 94 3c 71 65 60 3e
       -0.29453528 -0.105026655 0.018092547 0.21913697
000100 04 61 4d 3f 59 98 14 bf db 77 c8 bd 4e f0 07 3f
       0.8022616 -0.58044964 -0.097884856 0.5310105
000110 0a c9 59 bf dd 18 c4 3d 06 fd 1e 3f 47 2a 19 be
       -0.85072386 0.09575055 0.62104833 -0.14957534
000120 d0 83 98 be cc cb fc 3e d4 73 25 bf f0 39 e1 3d
       -0.29788065 0.49374235 -0.64629865 0.10997379
000130 f2 84 9d be 82 bd 5d be 93 90 5d bf 8c 0c f0 3d
       -0.30765492 -0.21654323 -0.8654873 0.11721143
000140 77 21 53 be 17 84 45 bf 08 fb ba 3e 93 c6 40 be
       -0.20618235 -0.7715468 0.36519647 -0.1882575
000150 2b da 3a 3f 43 4e 2d 3f e7 1e 71 be 61 e6 31 bf
       0.7298915 0.6769754 -0.23546945 -0.69492155
000160 25 7f 6f 3f e8 26 92 be 16 9e 49 be d6 b9 96 bd
       0.9355338 -0.28545308 -0.19689211 -0.07359664
000170 5b cb b2 bf f1 7b 8b 3f 2c 7a 53 3e 15 94 0c be
       -1.3968309 1.0897199 0.20652074 -0.13728364
000180 9b f0 0a bd f9 aa 78 bd f2 94 0c be 92 79 81 be
       -0.033920866 -0.060709927 -0.13728693 -0.25288063
000190 1e 03 7d 3d 17 72 51 be 44 f3 33 be 5d 23 6f 3d
       0.06177055 -0.20453678 -0.17573267 0.058383334
0001a0 41 af 2c 3f af 6d 5c bd 10 0e 94 bf 05 f4 e0 3d
       0.67454916 -0.05381554 -1.1566792 0.10984043
0001b0 bb a3 5e 3d 51 90 a2 3f e4 9f 36 3e 8c 18 0a 3f
       0.054355364 1.2700292 0.17834431 0.53943706
0001c0 95 e4 74 be b5 9f aa 3e 8d 27 bb 3e 37 9c 85 bb
       -0.23915322 0.33324972 0.36553612 -0.00407746
0001d0 9f ac a5 bd a0 01 e3 bd 29 df 18 bf 72 21 49 bd
       -0.080895655 -0.11084294 -0.59715515 -0.04910416
0001e0 ce 3e 21 3f fb 88 94 bd ef 95 d2 3e 3a 8c 48 bf
       0.6298646 -0.072526895 0.41130015 -0.7833897
0001f0 14 4f 9a 3e a1 8d 97 be 4e 69 a6 be 6b e3 81 be
       0.30138457 -0.29600242 -0.32502216 -0.2536882
000200 22 42 75 3e 33 3e 93 3e e5 b5 0a 3f b7 e1 cd 3e
       0.23951009 0.28758392 0.541838 0.4021127
000210 47 7f 48 be ac ee b4 be 72 ee 67 3e 5e f3 af be
       -0.19579802 -0.35338342 0.22649553 -0.34365362
000220 46 f7 a0 3f 86 e0 87 3e 36 70 cb 3f 78 a3 e2 3e
       1.2575462 0.26538485 1.5893619 0.44265342
000230 a4 be f9 bd a6 7f b1 ba aa 62 80 be bb 0f bd be
       -0.12194565 -0.001354207 -0.25075275 -0.36926064
000240 ed ca 8a 3e cd 4d 49 be 0d 2a 73 3e 2b 6b 66 bd
       0.27107945 -0.19658585 0.2374651 -0.056254547
000250 ef 2f d1 3e e0 ab d2 3e 59 6f eb 3e ad 19 88 3f
       0.40856883 0.41146755 0.4598339 1.0632836
000260 e1 36 d5 bf 78 81 dd 3e 53 05 31 3f a1 e2 f9 3e
       -1.6657373 0.4326284 0.6914875 0.48805717
000270 e4 2c 08 bf 22 36 e9 3e b8 fc 36 bf 00 46 fe 3e
       -0.531935 0.45549113 -0.7147937 0.4966278
000280 5d 07 51 3e eb 92 b3 be 9d dc a3 3e ee b2 12 bd
       0.20412965 -0.35073027 0.32004252 -0.035815172
000290 0b 33 9f be 3b 2a 24 3c da db 22 3e f5 27 7e be
       -0.3109363 0.010019834 0.15904179 -0.2481993
0002a0 86 73 cf 3c 63 6e 82 3e c7 23 9a bd e7 ea ce 3d
       0.02532364 0.25474843 -0.07526355 0.10103398
0002b0 de 17 e7 bd b4 91 3e 3f 0b 38 97 be f3 a9 0b 3f
       -0.11283849 0.74441075 -0.29534945 0.54556197
0002c0 e5 45 fd 3e 8f 0e 7e be 9a 5f 87 3e 45 0b 80 bb
       0.49467388 -0.24810241 0.26440126 -0.0039075934
0002d0 21 95 9e 3e e0 3f c4 3e 49 4d 8c bf e4 ec 65 3f
       0.3097315 0.38329983 -1.0961086 0.8981459
0002e0 6c e5 d4 3e bc b4 20 bf 17 6f 90 bc 87 b8 66 bf
       0.41581285 -0.6277578 -0.017631097 -0.90125316
0002f0 64 87 8e be 72 57 e5 3e d7 bf 29 bd d5 1c ee 3e
       -0.2783767 0.44793278 -0.04144272 0.46506372
000300 b4 27 08 3f a2 95 d1 3e 80 ce c9 bd 54 9a 5f 3e
       0.5318558 0.40934473 -0.0985384 0.21836215
000310 5c 27 0a 3e 82 97 40 3b a3 31 ac 3d 30 c6 9f bd
       0.13491577 0.002938718 0.08407905 -0.07801473
000320 8d 9e 84 3d 71 a6 4b 3e a3 ad 4d bf 57 7a d0 bc
       0.06475554 0.19887711 -0.80343074 -0.025448961
000330 1e 70 1c bc 08 bf c0 3f ab ba 4e be a1 ca db 3d
       -0.009548215 1.5058298 -0.20188396 0.10732008
000340 a9 e8 a7 bf 9d 0b 5d be 8d 92 01 3f 42 83 e3 3e
       -1.3117877 -0.21586461 0.50614244 0.4443608
000350 72 39 7b 3e bf 76 0b 3e 82 f5 42 3f 38 68 53 bf
       0.24533632 0.13619517 0.76155865 -0.825809
000360 fd d9 6d bf d2 49 93 3f 5c c2 dc 3c 1c 17 0f be
       -0.9291075 1.1506903 0.026948147 -0.1397366
000370 5b 20 87 be 7a db a3 3e b8 bd e5 3b eb f0 87 bf
       -0.26391873 0.32003385 0.0070111416 -1.0620397
000380 f9 0e 2a bd 6b 4e 02 3f 8a 68 13 be 1f 6d 4d 3c
       -0.041518185 0.50900906 -0.14395347 0.0125382235
000390 f1 30 9e bc 03 98 57 bd 1b 1d fe 3d 4e b0 99 3e
       -0.019310446 -0.052635204 0.12407895 0.30017322
0003a0 f4 88 9c 3c 6f c2 60 be 6e cb f8 bd c4 6b 4b 3e
       0.019108273 -0.2194917 -0.12148176 0.19865328
0003b0 cf de ed bd a1 8e b4 3d ac 17 43 be 57 98 8f 3e
       -0.11614763 0.08816267 -0.19051999 0.28045914
0003c0 9f 4c 29 bd e4 52 88 3d 80 a5 58 3e 68 18 0a be
       -0.041332837 0.06656435 0.21156883 -0.13485873
0003d0 78 68 16 3e cb 36 91 3e db 38 48 3d ba 2b bf 3d
       0.14688289 0.28362116 0.048882347 0.09334512
0003e0 d7 78 da bd 70 65 6d 3e 04 5f c4 bc c3 47 3e 3e
       -0.106675796 0.23183227 -0.023971088 0.18582062
0003f0 dc 6c 1d 3f dd 28 e3 bd 30 0c 2c 3d 07 7f 85 3d
       0.6149423 -0.110917784 0.04200381 0.06518369

weight f4 [943, 32]
000000 0a 98 c8 bf f4 6d ad bf d9 a6 11 bf 4b 05 c7 3f
       -1.5671399 -1.354918 -0.56895214 1.554849
000010 bb 40 65 3f ad 65 74 be ca 92 20 3f 12 29 08 c0
       0.89551896 -0.23866911 0.6272398 -2.1275067
000020 ba f6 61 3f ae 1f d1 3f ab b9 ce 3e 8d 40 c2 bf
       0.882671 1.6337793 0.40376028 -1.5175949
000030 47 96 08 40 37 f8 ed be f4 d9 01 c0 07 95 bf bf
       2.1341722 -0.46478435 -2.0289278 -1.4967355
000040 54 20 aa bf 91 48 9c 3f d2 2e 07 c0 3e 18 ee bf
       -1.3291116 1.2209646 -2.1122327 -1.8601148
000050 f6 36 d4 3f a1 23 04 c0 04 92 95 3f f8 75 3b c0
       1.6579273 -2.0646746 1.1685185 -2.9290752
000060 58 7d 97 be 92 b4 2c c0 fe 89 31 40 98 ef 88 3f
       -0.29587817 -2.6985211 2.7740474 1.0698118
000070 fa 31 a1 3f 4b 12 40 3f 34 fc 57 bf 85 30 4c c0
       1.2593377 0.7502791 -0.84369206 -3.1904614
000080 1d 90 d0 3f 70 47 9f 3e 62 5b d5 3e 21 69 1c c0
       1.629398 0.3110919 0.41671282 -2.4439166
000090 3a 87 7d 3f 50 07 7a bf 30 39 d3 bf ca 17 c9 3f
       0.99034464 -0.9766741 -1.6501827 1.5710385
0000a0 b9 03 b8 bf ba 01 dc 3d d9 6e c6 bf e5 b6 8d 3f
       -1.4376136 0.10742517 -1.5502578 1.107144
0000b0 25 6d 7f bf 19 76 bd 3e 1b d4 8a be 25 59 3b be
       -0.99775916 0.37004164 -0.2711495 -0.18295725
0000c0 23 aa 26 40 7a ce 07 c0 16 26 83 3f 32 e9 c5 be
       2.6041343 -2.1219773 1.0245998 -0.38654476
0000d0 e1 a6 dd bf 6a 41 0c 40 4e 98 e9 3f df 77 68 bf
       -1.7316552 2.1914926 1.8249605 -0.9080791
0000e0 a4 26 92 be 97 4a e0 be ec 5c 84 3f 8a e2 43 3f
       -0.28545105 -0.43806908 1.0340858 0.76517546
0000f0 11 cf b5 bf 7b e3 bb be b9 4b e9 3e a6 d6 11 c0
       -1.4203817 -0.3669699 0.45565584 -2.278726
000100 d7 25 f9 3b 4c 7c 3b 3f 2a ce 3f 3f ce e5 fa bf
       0.007603388 0.73236537 0.74923956 -1.9601381
000110 7d df 35 bf db 4c 13 bf f5 a3 f6 be 9a 4f b3 3f
       -0.7104414 -0.5753915 -0.48171964 1.4008667
000120 30 08 4f 3d a1 ad a0 3e fe 0f 53 c0 4b 71 30 bf
       0.050544918 0.31382468 -3.297851 -0.6892287
000130 b5 95 fd bc 19 76 b2 3e 57 ac 3b 3f 76 6c b0 3f
       -0.030955175 0.34855726 0.73309845 1.37831
000140 5e 8f a8 3e 6c 03 01 c0 fb 72 7f 3f 38 80 b3 3e
       0.3292188 -2.0158339 0.9978482 0.3505876
000150 4a 8f eb be 8f 64 5f be ce e2 45 be 26 7d 68 3f
       -0.46007758 -0.21815704 -0.193248 0.9081596
000160 9f 15 d5 3f 3a 43 af 3f 4d 7f aa 3e 9a 0b 75 be
       1.6647223 1.3692391 0.33300248 -0.23930207
000170 ff a5 cd bf 7c 3b d8 3e 92 2a a3 3f f7 15 93 be
       -1.6066283 0.42232883 1.2747366 -0.28727695
000180 48 f7 aa 3f cd 59 d7 3f b8 ea 13 bb a8 1a b4 3f
       1.3356714 1.682428 -0.0022570323 1.4070635
000190 ab d0 bb be f3 e0 43 c0 fc 4c 10 c0 7e 9f 9a 3f
       -0.3668264 -3.0606048 -2.2546988 1.2079923
0001a0 2f 03 f9 be 01 0e f5 be 83 d9 46 be 8c 47 40 3f
       -0.4863524 -0.47862247 -0.19418912 0.7510917
0001b0 33 32 2b bf ac 95 20 be 14 1b 83 bc 38 ef 3c bf
       -0.6687347 -0.15682095 -0.016004123 -0.7380252
0001c0 b4 96 31 40 47 ce b5 bf 76 b7 72 bf b7 56 fa 3f
       2.7748232 -1.4203576 -0.9481119 1.9557713
0001d0 f4 23 4a 3e db ba 9b 3d 12 6d c9 bf 3e 94 2c be
       0.19740278 0.07603999 -1.5736411 -0.16853425
0001e0 2b 2c 96 bf 30 3f 80 3f 31 58 19 c0 6f b7 a7 be
       -1.1732229 1.0019283 -2.3960078 -0.32757136
0001f0 fa b0 cf bf e8 da 33 bf 04 9e bd 3e 31 86 58 bf
       -1.6225884 -0.702559 0.3703462 -0.8457976
000200 14 44 22 bf 5d 13 37 bd 3b 5c 61 3f 16 61 7e be
       -0.6338513 -0.0446962 0.8803136 -0.24841723
000210 5b 1d cb 3d 81 b8 96 bf ed f6 5e bf 80 9d 43 3e
       0.099177085 -1.1775056 -0.8709553 0.1910305
000220 cd 94 79 bf 8f e7 5b 3e 33 f7 d8 bc 3a 70 e3 be
       -0.97492677 0.21475051 -0.026485061 -0.4442156
000230 31 f5 9d 3f 95 68 71 be 6a 97 79 bf a3 3b 18 bf
       1.2340451 -0.23575051 -0.97496665 -0.59466
000240 ec 04 8b 3f cb 0b 53 3f b4 c7 a5 bf 9f 36 1b bf
       1.0860877 0.8243987 -1.295157 -0.6063022
000250 d8 bd f8 3f 08 73 e5 bf 31 b3 bb 3f 17 23 bd bd
       1.9432936 -1.792573 1.466406 -0.092352085
000260 07 23 fb 3e 6d ba 87 bf 75 72 6e 3f 37 02 d0 bf
       0.4905016 -1.0603768 0.931434 -1.6250676
000270 c8 22 0e 40 ac 42 6e 3e 1f dd ea bf 39 a7 2e 40
       2.2208729 0.23267621 -1.8348731 2.7289565
000280 7f 12 8e 3e a6 4a 45 bf e9 cf 6c bf 82 45 d3 3c
       0.27748486 -0.7706703 -0.92504746 0.02578998
000290 80 18 7f 3f 69 b5 00 bf 35 ca 22 3f d2 47 9c bf
       0.9964676 -0.5027681 0.63589793 -1.2209418
0002a0 b3 92 ed 3f fb de 00 3f f9 60 7c 3f 6c f2 04 c0
       1.8560394 0.5034024 0.9858547 -2.0772963
0002b0 ee ce 5e 3e 21 ba b9 bd a2 87 9f bf 9c b0 85 bf
       0.21758625 -0.090687044 -1.2463267 -1.0444522
0002c0 4d 58 cc bf 32 38 65 3f 5a a3 e2 bf 93 b6 95 bf
       -1.5964447 0.8953887 -1.7706101 -1.1696342
0002d0 ed 61 ec 3f f4 c0 ad bf 60 e9 78 3f 30 2b 25 bf
       1.8467385 -1.357451 0.972311 -0.64519024
0002e0 5d 1f b2 bf 48 20 5a be d3 56 24 40 d8 a3 b4 bf
       -1.3915821 -0.21301377 2.5677993 -1.4112501
0002f0 32 92 f2 3e d1 d7 33 3f 73 0e 23 c0 ac 5f e7 bf
       0.47377163 0.70251185 -2.547757 -1.8076072
000300 73 82 1c c0 66 6e b6 be 68 63 dd 3f 43 a9 61 40
       -2.445462 -0.35631102 1.7295961 3.525956
000310 78 23 f1 3f 5a 9b 8c bf 2d 40 18 40 04 ed 44 c0
       1.8838949 -1.098491 2.378917 -3.0769663
000320 be 7b 32 40 b5 34 d8 3f 8f 59 b2 3f fb 7c 29 c0
       2.7888026 1.6891085 1.3933581 -2.6482532
000330 b5 07 ef 3f 30 fa 0a 3f a0 46 da bf 7f 6e 6b c0
       1.8674227 0.54288006 -1.7052803 -3.6786191
000340 6a 9c 93 bf 2c 44 07 40 e3 76 58 c0 ec ec a9 bf
       -1.1532109 2.113536 -3.3822563 -1.3275428
000350 35 91 ce 3f de 65 bd bf 03 85 5a bf 27 d9 27 bf
       1.6138064 -1.4796712 -0.8535921 -0.65565723
000360 40 8e f7 be dd ee 94 bf 23 26 c3 3e 30 47 86 bf
       -0.48350716 -1.1635395 0.38115034 -1.0490475
000370 ec 31 62 3d 97 01 05 40 0b f7 0c 3f b2 a8 1e c0
       0.05522339 2.078222 0.5506446 -2.4790463
000380 02 5b b2 bf 1c 59 e0 be 05 03 51 bf 82 f0 98 bf
       -1.3934023 -0.43817985 -0.8164523 -1.1948397
000390 4b cd 01 3f c8 51 47 be 01 49 0c bc 3f a1 90 bf
       0.5070388 -0.19464791 -0.008562327 -1.1299208
0003a0 11 20 ea be 45 e5 73 3e c3 9b 11 40 2b 37 3c 3f
       -0.4572759 0.23817928 2.275132 0.7352168
0003b0 95 85 28 3f a9 67 e0 3e 96 d2 f3 bf 77 c2 52 3f
       0.6582883 0.43829086 -1.9048641 0.8232798
0003c0 7a a2 c3 3f c0 22 c2 3f 53 81 01 3f a1 9a 8a 3e
       1.5283959 1.5166855 0.5058796 0.27071097
0003d0 21 36 54 bf b0 fb 72 be 6e 20 56 be 36 67 cc 3f
       -0.82895094 -0.23728824 -0.20910808 1.5968997
0003e0 1e a1 7d 3b a0 36 6c 3d 20 c3 1d 3f 82 67 d8 3b
       0.003870077 0.057669282 0.6162586 0.006604136
0003f0 64 90 0c 3f fa 8c 05 be 36 8e a1 be 1b dd ae bf
       0.5490782 -0.1304206 -0.3155381 -1.3661226

weight f4 [1682, 32]
000000 19 c7 e0 3f 23 83 58 40 eb 87 7c 3f 4a 55 12 c0
       1.756076 3.383004 0.98644894 -2.2864556
000010 e8 08 2d be e3 eb 23 c0 10 14 a3 3f be d5 36 c0
       -0.16897929 -2.5612724 1.2740498 -2.8567958
000020 e7 e0 49 3e 0e 6f 19 c0 80 64 0f 40 a8 fd 73 bf
       0.197147 -2.3974032 2.240509 -0.95308924
000030 ce 5f 58 40 72 b8 9e 3f 6d 4b 3f 3f 91 9b cb 3f
       3.3808475 1.2400038 0.74724466 1.590685
000040 cb c7 d0 bf 79 2a 2c 40 01 e8 b7 3f 9b 95 3e c0
       -1.6310972 2.6900923 1.4367677 -2.9778812
000050 12 b6 df 3f 28 32 da bf fd f7 ec bf 63 72 85 3f
       1.7477438 -1.7046556 -1.851318 1.0425533
000060 19 89 54 c0 19 cb 5b 3e 1a 56 09 40 53 79 cd bf
       -3.3208678 0.21464194 2.1458802 -1.605265
000070 f8 62 cc bf 68 39 cf 3e dd 39 c9 bf c8 31 80 bf
       -1.5967703 0.40473485 -1.5720783 -1.0015192
000080 7c e8 77 3f d4 f1 c9 bf d9 9b ed 3e a9 2b a2 be
       0.9683912 -1.5776925 0.46407965 -0.31673935
000090 ee 7a 56 bf 09 1e 87 3f 0a 79 8c bf be 72 9a 3f
       -0.83781326 1.0556041 -1.0974438 1.2066267
0000a0 2e 92 2d 3c b9 1c b7 3f cc 74 d0 be 53 a2 9c bf
       0.010593934 1.430564 -0.4071411 -1.2237037
0000b0 1b dd 8c 3e 71 fe aa 3d 34 1d d8 3f f2 10 62 bf
       0.2751244 0.08349312 1.6883912 -0.88307106
0000c0 c0 61 02 c0 0c 8b 3c 3f 55 b6 28 3e 7e 61 55 bf
       -2.0372162 0.7364967 0.16475804 -0.83351886
0000d0 53 4d c2 3e 02 ca eb 3e 02 fc 68 3f b1 04 d3 3f
       0.3794962 0.46052557 0.91009533 1.6485807
0000e0 9c fc 00 3f 17 66 87 3f f7 43 de 3f 7a fa 42 bf
       0.5038545 1.057803 1.7364491 -0.76163447
0000f0 fe 02 45 bf 61 a6 37 bd bd 54 cf bf e1 56 a1 3f
       -0.7695769 -0.044836406 -1.6197735 1.2604638
000100 f6 d4 3c 3d ed ad 86 3f 27 31 a8 be 0b 68 4f be
       0.046101533 1.0521828 -0.3285 -0.20254533
000110 95 9b 83 3f cf b6 8d 3e f2 a5 a9 3f 6e 1e 9a be
       1.0281855 0.27678534 1.3253767 -0.3010134
000120 e0 88 b5 bf f1 52 ab 3f 10 9c 96 bf b8 15 7d 3f
       -1.4182396 1.3384687 -1.1766376 0.98861265
000130 c9 85 f2 3f 51 23 dc 3f 15 c7 a6 bd f4 49 d3 3f
       1.8947078 1.7198278 -0.08143441 1.6506944
000140 c3 cd 30 bf 79 5a e8 3f 40 1c ec 3e 42 42 5a 3e
       -0.6906397 1.815261 0.46115303 0.21314338
000150 ed 4b c2 bc dc b4 2a 3f 45 c2 46 bf 44 56 b2 3f
       -0.023717845 0.6668222 -0.7764018 1.3932576
000160 c3 fc 37 bf e2 40 bf bf 9b 87 9a 3f de 7d 80 bf
       -0.7187006 -1.4941676 1.2072634 -1.0038412
000170 40 b6 8e bf 70 c0 0c bf a3 e5 8f be 62 2d 40 bf
       -1.1149368 -0.54981136 -0.28104886 -0.7506925
000180 10 b5 82 3e 27 65 0e bf 74 29 0b 40 fb 6a 01 bf
       0.25528765 -0.55623096 2.174405 -0.50553864
000190 64 ed 40 3f 4e f8 df bf 01 de 06 3e 51 6e f3 bd
       0.7536223 -1.7497652 0.13170625 -0.118862756
0001a0 7d 57 70 be 61 ab 9f bf fb 03 32 3f 36 a6 16 bf
       -0.23470874 -1.2474176 0.69537324 -0.5884737
0001b0 44 8e 81 3f 6d 8d 9c bf 20 46 5d bf 6d f2 9a be
       1.0121541 -1.223066 -0.8643513 -0.3026308
0001c0 0f dc b2 3e 9c 70 61 3f fc 05 ef 3d 4d 8b f2 3e
       0.34933516 0.88062453 0.11671063 0.47371903
0001d0 22 bc 8d 3f 4d 22 8e 3f b7 93 df be 9b 86 8e 3f
       1.1073039 1.1104218 -0.43667385 1.1134828
0001e0 d5 8b ed bf a2 2a cc be 91 72 5d be fa b1 c0 bf
       -1.8558298 -0.39876276 -0.21625735 -1.5054314
0001f0 a3 7e bd be a3 5e ab 3e d9 fd 0f 3f 15 fa 8f 3f
       -0.3701068 0.3347064 0.56246716 1.1248194
000200 f5 bd eb be 48 20 19 3c ae 7f 88 be 2b 4b e4 3e
       -0.46043363 0.009346075 -0.26659912 0.445886
000210 9e c6 e6 3e 2d 89 ad bf 64 9c a5 bf 9f 76 b8 be
       0.45073408 -1.3557488 -1.2938352 -0.36028
000220 a7 5f 37 be 79 57 84 be 8e 1e 4f bf 12 f5 d1 bc
       -0.17907582 -0.25847986 -0.80906 -0.025629554
000230 a8 6c 0b bf 57 e3 12 bf e9 01 91 bf 37 39 30 bf
       -0.5446267 -0.57378143 -1.1328708 -0.688373
000240 30 b3 29 c0 ac 23 d1 3e 9e 87 36 3f 53 81 c8 bd
       -2.6515617 0.40847528 0.71300685 -0.09790292
000250 9d 65 b1 be 91 53 1a 3f 6d 92 b2 3d 82 a3 61 bf
       -0.34647837 0.6028376 0.08719335 -0.8814012
000260 ab e0 a5 bf bb c6 1f bf b6 0a 89 3f ae 9c 3e bf
       -1.2959188 -0.62412614 1.0706394 -0.74457824
000270 e5 21 63 bf 46 4b 62 3f 47 da 20 bf 7d cf b6 3f
       -0.88723594 0.8839611 -0.62833065 1.428207
000280 0e 7a cc bf 38 d3 3e 3f 91 90 82 bf 76 2b ad 3f
       -1.5974748 0.74541044 -1.0200368 1.3528888
000290 80 78 00 3f 75 3b 18 bf 0f cc 1d bf b8 89 cf be
       0.5018387 -0.59465724 -0.61639494 -0.4053476
0002a0 05 23 b3 3d 31 00 61 3f 8e e8 c5 3e b5 5c fb be
       0.08746914 0.8789092 0.38653988 -0.49094167
0002b0 88 3d ea be 5d 3f a2 be 59 6e b4 3f 7e ce fb 3e
       -0.4575007 -0.31688967 1.4096175 0.4918098
0002c0 5c 95 c2 3e 16 9a 3d bf f1 05 04 3f 59 6e a1 3f
       0.38004577 -0.7406324 0.51571566 1.26118
0002d0 46 22 59 3f a2 a8 50 bf 23 f4 af bf f6 6f e9 bc
       0.8481792 -0.81507313 -1.374638 -0.02849577
0002e0 ad a9 52 3f da c4 6c c0 1a ab d9 bf 8f f6 3d 3f
       0.82290155 -3.6995149 -1.7005341 0.74204344
0002f0 ec 3f 05 3f 3d f6 83 3d ab 3c c5 3d 8f df c8 3e
       0.5205066 0.064434506 0.09630712 0.39233062
000300 fe e3 04 40 8c 42 28 40 fd b7 49 3f 63 b6 0b c0
       2.0764155 2.6290617 0.7879637 -2.183007
000310 db bf b1 bd 22 a7 ce bf 5f fe 22 40 ff 44 1c bf
       -0.08679172 -1.6144755 2.5467756 -0.6104278
000320 c0 da 8c bd 8d e4 bd be dc fa 00 3d ee 0a 4d 3f
       -0.06877661 -0.37088433 0.03148924 0.800948
000330 a8 68 27 40 26 35 1c 3f c9 50 a2 be d7 a1 1a 3e
       2.6157627 0.610186 -0.3170226 0.151008
000340 2a f3 47 c0 3e 02 03 40 c9 c9 08 40 41 a7 32 c0
       -3.1242166 2.0470119 2.137316 -2.7914584
000350 0f c1 dc 3f 73 07 d9 bf 00 aa 89 bf ab f5 60 3e
       1.7246417 -1.6955398 -1.0755005 0.21968715
000360 1b 96 fd bf 17 b9 c4 3f 66 09 44 40 59 ad 19 c0
       -1.9811434 1.5368985 3.0630736 -2.4012053
000370 b7 fa a6 bf 90 16 12 40 f3 7e e9 bf a9 62 99 bf
       -1.3045262 2.282627 -1.8241867 -1.1983234
000380 30 a6 19 bf e7 38 3c 3f b6 45 23 3e 1b 10 b0 3f
       -0.60019207 0.73524326 0.15944561 1.3754915
000390 99 b9 33 bf 51 b0 d3 bf 5a df 3f be fc 9d b0 be
       -0.70205075 -1.6538182 -0.18737546 -0.34495533
0003a0 f7 6c ea be 87 c3 03 c0 93 8d 75 bf c3 1c 98 bf
       -0.4578626 -2.058809 -0.9591915 -1.1883777
0003b0 1e 23 e5 3e 52 c0 88 3f 91 a5 44 3f d5 2f 3b 3f
       0.44753355 1.0683692 0.76815134 0.7311986
0003c0 30 e1 d8 3d 3b 71 0d bf a6 01 90 bf 92 7a 27 bf
       0.10589826 -0.552509 -1.1250503 -0.654214
0003d0 fe 86 bf 3e 5b fd a0 3f 2b 8d 2b be dd e8 9b 3f
       0.37407678 1.2577318 -0.1675307 1.2180439
0003e0 ba 59 e6 bf c7 a0 e3 3f 3c 08 f4 3f 9f b9 ed 3e
       -1.7996132 1.778344 1.9065013 0.4643068
0003f0 33 1e 9a bf a7 2c eb 3f d0 3c 74 be 6b f8 8a 3e
       -1.2040466 1.8373002 -0.23851323 0.27142653

weight f4 [64, 64]
000000 1a 09 6e 3e 93 6e 8a 3e 2a af 94 bc 28 1c 76 be
       0.2324566 0.27037486 -0.018149931 -0.24034178
000010 83 f3 51 3e 19 d0 ce be 1d 07 45 3f b6 a0 be be
       0.20503049 -0.4039314 0.7696398 -0.37231988
000020 b9 24 c3 3e 42 25 7a be e1 d1 4c 3d 50 89 51 bf
       0.38113955 -0.24428275 0.050004844 -0.8185015
000030 06 a7 d6 3e 3d af 83 be a9 25 ce 3e 6b 81 a0 be
       0.41924304 -0.25719634 0.40263107 -0.31348738
000040 35 15 37 3d bf 33 d1 3e aa 48 c1 bd 60 00 48 bf
       0.04469796 0.40859792 -0.09437688 -0.7812557
000050 c6 47 a6 3f 2b e7 07 be 23 06 63 3e ba c8 13 bf
       1.2990654 -0.13271777 0.2217031 -0.5772816
000060 4b ff fa be 90 a7 ae be af 51 66 3f 87 73 4b bd
       -0.49022898 -0.34112215 0.8996839 -0.049670722
000070 db a6 3f 3f 0d e2 04 be 42 5d 85 3e be e5 4c 3f
       0.74863976 -0.12976857 0.26047713 0.8003806
000080 b5 7a 02 bd 1e 14 7f 3e be 67 91 3f e8 19 6a bc
       -0.031855304 0.24910018 1.1359785 -0.014288403
000090 78 c8 2a 3d 40 ea 51 3e 17 f5 ec bd 8c 49 b9 3e
       0.04169509 0.20499516 -0.11570185 0.36188924
0000a0 0c f2 0d bf 8c 91 56 3f 3f 2c ca 3e af d0 76 be
       -0.5544746 0.83815837 0.39486882 -0.24103044
0000b0 8d a9 30 3e 6f 7a 90 bd 47 84 8b 3e 57 5c 23 3f
       0.17252178 -0.07054602 0.27249357 0.63812774
0000c0 6f 5c 92 be 28 1b 6f 3e fa 85 85 3d 0a 93 06 bf
       -0.28586146 0.23350203 0.065196946 -0.52568114
0000d0 44 b5 16 bf f3 5b 6c 3d 0f 65 0e 3f cf 5e cf 3d
       -0.5887034 0.057704877 0.55622953 0.10125505
0000e0 34 0c 39 3f f2 3b 0b 3f b4 40 bf bc 22 a9 f8 be
       0.72284245 0.54388344 -0.023346283 -0.48566538
0000f0 04 5d cf be 01 1b 18 3b 6c 74 37 3e ea 08 0a 3f
       -0.40500653 0.0023209455 0.17915505 0.5391985
000100 80 b0 42 3f 1c e7 37 3f a9 a0 80 bf a7 f1 7d 3f
       0.7605057 0.7183702 -1.004903 0.9919686
000110 1b 63 42 bf 90 73 13 bf 14 69 1e bf fb 68 a4 3d
       -0.7593247 -0.5759821 -0.61879086 0.08027836
000120 18 1d ac be 27 cb a7 3c 3e cf 32 3f 52 d4 b4 be
       -0.33615947 0.020482613 0.69847476 -0.35318238
000130 c7 cd 68 bf cb ca 12 3f dc 02 06 be 9f 6b 2d bf
       -0.9093899 0.5734069 -0.13087028 -0.6774234
000140 9b c7 0c 3f c0 7b 46 be 75 7f 1e 3d 38 67 bf 3e
       0.54992074 -0.19383144 0.03869577 0.37383437
000150 5b 30 1f 3e eb 30 f5 3e c4 97 bd 3d 89 93 46 be
       0.1554579 0.47888884 0.092574626 -0.19392218
000160 fb 40 91 bf e7 3f b0 3d 1a 38 23 be e0 77 9c 3e
       -1.1347955 0.086059384 -0.1593937 0.30560207
000170 08 8b 8e be ed 64 62 3e fb eb 3f 3e 69 f3 43 bf
       -0.27840447 0.22108813 0.18742363 -0.7654329
000180 5f 9e 71 be 2f 69 3f bf 3c 2c 52 bc 77 3e 04 3f
       -0.2359557 -0.7476987 -0.012827929 0.51657814
000190 7d d7 a2 bf 70 51 80 3f 6e 12 aa 3e 31 9d 31 3f
       -1.2722012 1.0024853 0.33217186 0.6938048
0001a0 c4 9d d6 3e 9a 71 a9 3e e9 e6 eb 3e b2 fb 60 bf
       0.4191724 0.33094484 0.46074608 -0.87884057
0001b0 db 7a bb 3e 88 ad 07 bf 11 a2 25 bf 24 a2 5b bf
       0.3661717 -0.5299916 -0.6470042 -0.8579428
0001c0 84 2b c9 3e 8e 07 aa 3e 83 67 49 bf 04 24 73 be
       0.39291012 0.3320889 -0.7867357 -0.23744208
0001d0 48 1e 82 bf 28 f4 8b 3f 20 86 d1 3e e9 90 34 bf
       -1.0165491 1.0933886 0.40922642 -0.70533615
0001e0 d9 b4 56 3e 19 04 66 bd 3a 01 37 bf 10 d4 3b 3f
       0.20967425 -0.05615625 -0.71486247 0.73370457
0001f0 8b 0a 6e 3e de 66 52 bf 2f 93 b2 3e 0a 03 5a 3f
       0.2324621 -0.8218821 0.34877917 0.8516089
000200 9b 43 80 3c c5 55 f0 be e0 43 a4 39 6f da 2b 3f
       0.015657237 -0.46940437 0.00031331088 0.6713018
000210 3c 04 a2 be e9 f5 82 bd fa a1 e0 3c e1 49 ea be
       -0.31643856 -0.0639456 0.027420986 -0.4575949
000220 01 f2 0f 3f 84 11 72 3e 76 2d 53 3f 1d 84 68 be
       0.56228644 0.23639494 0.8249124 -0.22706647
000230 b3 2d 74 3e 0f 11 83 bf ec 3a 1c bf a1 ba 8b be
       0.23845558 -1.0239581 -0.6102741 -0.27290824
000240 79 41 23 bf a4 ad c1 bd 4a 06 65 be 62 58 e4 3d
       -0.6377178 -0.094569474 -0.2236568 0.1114967
000250 6a 79 61 3f 78 39 ba 3e f5 98 b3 bd 13 ae fa be
       0.8807589 0.3637197 -0.087694086 -0.48960933
000260 8a 8c b7 bd f2 4a 1f be 5c 39 5d 3f 31 a8 8c be
       -0.089623526 -0.15555933 0.8641565 -0.2747207
000270 b2 67 15 3f 46 bb d5 bd 5f cd 0f 3d c2 df 5d bf
       0.5836135 -0.1043611 0.035107967 -0.8666955
000280 79 c0 d6 bc 5a 1c ec bd 10 b3 81 3e 1f b6 20 3e
       -0.026214825 -0.11528845 0.25331926 0.15694474
000290 42 8c ae bd 16 86 09 bf d3 99 14 be 03 8b 52 3e
       -0.08522846 -0.53720224 -0.14511804 0.20560841
0002a0 d9 7a 2e be 8f dd f9 3c da 9a e8 3e 32 2d 57 bc
       -0.1703905 0.030501155 0.45430642 -0.013133334
0002b0 ec d0 73 be 83 b3 db 3d dc a5 8f bc d2 b9 3c be
       -0.23810166 0.107275985 -0.017535143 -0.1843026
0002c0 b6 d6 e9 3e f1 5e fe 3d 1f bc c5 3e 66 8f 1f 3e
       0.45671624 0.124204524 0.38620088 0.15582046
0002d0 85 c2 d0 3e 32 23 48 bf d7 48 8c bd 7c e0 c2 3e
       0.40773407 -0.78178704 -0.068498306 0.38061893
0002e0 69 f6 05 bf 2c bb 96 bd 14 6d 46 3f f3 e5 58 be
       -0.5232912 -0.07359919 0.7751019 -0.21181469
0002f0 db b2 d6 3d 8a 78 64 be eb 6a 87 bd 8b f4 8d 3e
       0.10483333 -0.22311607 -0.0661219 0.27725634
000300 fb 56 0c 3f 84 b3 37 bd 18 05 0b bf b1 f4 2f 3e
       0.5482022 -0.044848934 -0.5430465 0.17183186
000310 ce 25 e1 be cf e9 18 bf 40 38 8c be 2d f5 87 be
       -0.43974155 -0.59731764 -0.27386665 -0.26554242
000320 b0 3e 88 be 3a db ad be f4 f1 d6 bd ec 8d 37 3f
       -0.26610327 -0.3395632 -0.10495368 0.7170093
000330 03 b5 b0 bd 89 51 b2 3e f9 7c cc 3e 37 f5 26 3e
       -0.08628275 0.3482783 0.39939097 0.1630448
000340 fc 44 1c 3f b0 97 3c bf 96 c4 4d bd 9e a7 21 3e
       0.6104276 -0.73668957 -0.050236307 0.15786597
000350 7c 45 f9 be e2 9a 73 3f cb 72 4d bf 9b 6a da 3d
       -0.48685825 0.9515821 -0.80253285 0.10664865
000360 2f 7e 4c 3f c5 3d 18 3e 4e 2d bc 3e 72 f7 26 3f
       0.7988004 0.14867313 0.36753315 0.6522132
000370 62 11 a5 bd c7 51 8e bf 51 b6 d4 3e 0b 4e e3 3e
       -0.08059956 -1.1118706 0.41545346 0.4439548
000380 a5 08 8f bf db f5 06 bf ec 64 ed 3e 13 21 5e bc
       -1.1174513 -0.52718896 0.4636606 -0.01355769
000390 67 cc 6f bf 78 20 d3 3e 78 93 bf bf 95 92 b2 3e
       -0.9367127 0.4123571 -1.4966879 0.34877458
0003a0 04 fc a8 3e 0f 5e 6a bd 97 ab b2 3f 99 67 15 bf
       0.33004773 -0.057218608 1.3958615 -0.583612
0003b0 7e 5c 63 3b b3 dc 2b bf 11 6a 55 be 06 6d 86 bf
       0.003469258 -0.67133635 -0.20841242 -1.0502021
0003c0 b8 32 29 bf 34 5a 19 bf a8 62 1b bf d6 cd 47 bd
       -0.66093016 -0.59903264 -0.6069741 -0.048780285
0003d0 c4 85 85 bf 3b 1e 91 3f 44 59 29 3f a5 55 5b 3e
       -1.0431447 1.1337351 0.66151834 0.2141939
0003e0 76 df 6e 3e 4c 59 84 bd 01 44 a1 3e ca 12 99 3e
       0.23327431 -0.064623445 0.31497195 0.29897147
0003f0 2f f5 2e be a0 62 5f 3c 9e 35 fe 3c 89 b1 b8 3e
       -0.17085718 0.013634354 0.031031426 0.3607295

bias f4 [64]
000000 de 8b 04 c0 19 de f1 3e e9 72 4d c0 b7 ce d3 bf
       -2.0710368 0.4723976 -3.2101386 -1.6547459
000010 2c 7a 47 bf 7e a1 ab bf e5 3d c5 bf fb 53 76 bf
       -0.77920794 -1.3408659 -1.5409514 -0.96221894
000020 cb 53 dc bf 0a f7 15 c0 64 e4 78 bf 3b 23 b4 bf
       -1.7213072 -2.343203 -0.97223496 -1.4073251
000030 fd 3e 76 bf 27 70 84 bf f2 8b f7 bf 3c cc 44 bf
       -0.9618986 -1.0346726 -1.9339583 -0.76874137
000040 ff b7 8c bf 91 10 1b c0 3a 54 42 c0 c5 91 39 c0
       -1.0993651 -2.4228861 -3.0363908 -2.899522
000050 f6 b1 aa bf ac 62 2e be 4d bb b8 bf ef a6 29 3f
       -1.3335559 -0.17029828 -1.443216 0.66270345
000060 3f 6a 67 be 50 da a9 bf 84 f1 8e bf f6 14 1b c0
       -0.22599123 -1.3269749 -1.1167455 -2.4231544
000070 c5 a4 1b bf 7c e5 80 bd 73 f6 85 3f ed 7c 47 bf
       -0.60798293 -0.06293771 1.0465835 -0.77924997
000080 e8 8b f2 bf b9 ff 3a bf 49 cc 63 bf 35 e4 e0 bf
       -1.8948946 -0.7304645 -0.8898359 -1.7569643
000090 73 db c3 bf ab 45 0f bf 8e 44 8d bf d7 ec 5f bf
       -1.5301346 -0.5596568 -1.1036546 -0.87470764
0000a0 b4 51 c0 bf 0a e1 87 3c 57 79 ab bf 3f 12 b5 bf
       -1.5024934 0.0165868 -1.3396405 -1.4146193
0000b0 13 46 ef bf ca 97 d0 bb e0 85 cb 3e f9 c5 ef bf
       -1.869326 -0.006365751 0.39750576 -1.8732291
0000c0 4b 33 12 c0 48 58 c6 bf a2 92 14 3e 2f 94 d4 3e
       -2.2843807 -1.5495691 0.14509061 0.41519305
0000d0 56 bc d6 bf de 7e bc bf 45 65 14 c0 34 fb ca bd
       -1.6776226 -1.4726217 -2.318681 -0.099111944
0000e0 d3 21 87 be 1e 75 87 bf 9d d1 3e c0 cc c9 8d bf
       -0.26392993 -1.0582616 -2.9815438 -1.1077209
0000f0 36 1f fc bf 8c 9d 59 c0 1a 78 15 bf 39 41 8e bf
       -1.9697025 -3.400241 -0.58386385 -1.1113654

weight f4 [32, 64]
000000 40 79 e7 be 1e 41 44 3f 11 3b c8 be 6e 83 9b 3d
       -0.45209694 0.7666186 -0.39107564 0.075934276
000010 ca eb 78 be dd 12 16 bf 5a 1d f5 be 5a 67 dc be
       -0.24308696 -0.58622533 -0.47873956 -0.430476
000020 40 35 3d 3d c9 c7 45 bd 11 c3 45 be f1 3b e5 3d
       0.04619336 -0.048286233 -0.19312693 0.111930735
000030 42 f7 f2 bc dd 9b 78 3e bf 4b d6 be b1 b7 f6 bd
       -0.029658917 0.24278207 -0.41854665 -0.12046755
000040 51 d9 0d 3e 44 d0 19 bb b8 bb a4 be e3 ff a2 be
       0.13852431 -0.0023470083 -0.32174468 -0.3183585
000050 4d e1 60 3e 56 f1 8f 3d 1a 5c e0 be 20 80 de 3e
       0.21960945 0.07028453 -0.43820268 0.43457127
000060 a5 8d 45 3f f4 a7 07 3f 4c 3f 59 3d cb 21 cc be
       0.7716926 0.5299065 0.05303888 -0.39869532
000070 b9 ee 56 be 92 7f 72 bc 9f 3e f1 bd 76 4d 70 3e
       -0.20989503 -0.014800923 -0.11779522 0.23467049
000080 88 46 56 3d b8 da 0c 3f c6 81 80 bd 1d 3e d7 be
       0.052313358 0.5502124 -0.06274752 -0.42039576
000090 1d 8a 91 be 4d 72 88 3e 63 c8 9b bf 88 7a d3 be
       -0.28425685 0.26649705 -1.2170528 -0.4130442
0000a0 f8 c4 e7 be 56 f3 05 3f eb a1 49 bf c6 87 81 be
       -0.45267463 0.52324426 -0.7876269 -0.252989
0000b0 9d af 76 be cb 45 2d 3d a4 e1 05 3f f2 38 0b bf
       -0.24090429 0.042302888 0.52297425 -0.54383767
0000c0 10 65 1f 3f 43 9d b0 be 38 69 17 be a8 e5 93 3d
       0.62263584 -0.3449498 -0.14786232 0.07221538
0000d0 f4 c1 51 be 3d 93 bd 3d 3d a1 f5 bd 7e 10 32 3e
       -0.20484143 0.09256599 -0.119936444 0.17389104
0000e0 5b 72 ae 3e ce 97 92 bf 94 d7 b9 be df 8f 68 be
       0.3407162 -1.1452577 -0.36297286 -0.22711132
0000f0 12 b0 c5 bd cb ab 99 3e 5d f5 c2 be 72 53 39 bf
       -0.09652723 0.3001388 -0.38077822 -0.7239295
000100 ca bd 44 3e af d9 ca be a5 32 48 3e 60 3a 35 bf
       0.19213024 -0.39619204 0.1955057 -0.707922
000110 b2 f4 45 bf 9a 66 3e 3c f8 bc 95 be 49 7f b0 3e
       -0.773265 0.011621142 -0.29245734 0.3447211
000120 55 22 3e bf c5 b5 94 bd 2a 28 bb be 0d 51 83 be
       -0.74271137 -0.07261232 -0.3655408 -0.25647774
000130 f1 d3 dd be c4 f7 93 3e 54 81 40 3e 5f 4d ad be
       -0.4332576 0.28899968 0.18799335 -0.33848092
000140 4d e4 16 bf a2 e7 a5 be 17 1e f6 3e 7e 9c ea 3e
       -0.5894211 -0.32403284 0.48069832 0.4582252
000150 41 c8 3f bd 48 2a a3 bf c8 7e c4 be 4e 9e c7 bf
       -0.046821836 -1.2747278 -0.38377976 -1.5595186
000160 69 cd c4 bf 9d a6 f2 3d cf db 5d bf 04 5c 04 3e
       -1.5375186 0.11848185 -0.86663526 0.12925726
000170 b2 f1 2f bf 39 00 6b bf e4 ed 72 bf 99 d8 0c bf
       -0.6872817 -0.91797215 -0.9489424 -0.55018
000180 88 29 59 bf be 18 64 be e7 6e 09 bf 69 7f 8e 3e
       -0.84828997 -0.22275063 -0.5368485 0.2783158
000190 12 03 c0 be f6 6e ff be 20 b1 9d 3c 3e 96 a0 bf
       -0.37502342 -0.49889344 0.019249499 -1.254585
0001a0 45 27 d5 3e 4b ff 0b bf f2 b9 f9 be 00 6d 9c 3e
       0.41631523 -0.5468642 -0.48774678 0.3055191
0001b0 ac 1e 57 3e 69 12 3b bf c1 18 95 bf 68 e8 cc bd
       0.21007794 -0.73074967 -1.1648179 -0.100052655
0001c0 d1 e9 e1 be 2f 73 f5 3e 28 40 60 bf e1 0e 70 bf
       -0.441237 0.4793944 -0.87597895 -0.93772703
0001d0 d9 3c 46 3b dc 2a 28 bf 67 e9 10 bf 3c 80 de be
       0.003024867 -0.656904 -0.56606144 -0.4345721
0001e0 b5 d0 4b bf 29 2a 3f 3d ca 00 d0 3e 4c 91 19 be
       -0.79615337 0.046671066 0.40625602 -0.14996833
0001f0 9c 49 9e 3e d4 9c 07 bf ba 0a 36 be ef a6 00 bd
       0.30915534 -0.52973676 -0.1777753 -0.0314092
000200 22 78 6c be 4c 19 d8 3d a6 42 0c bf e2 38 4c be
       -0.23092702 0.105517 -0.547892 -0.19943574
000210 f4 84 3e 3e 38 a5 6d be 39 3b c1 bd 06 d4 94 be
       0.18605405 -0.23207557 -0.09435124 -0.2906801
000220 6a 30 8b bd c8 a3 c3 be 5c 64 75 bd 29 33 ab 3e
       -0.067963436 -0.38210893 -0.059910163 0.3343747
000230 c6 c1 03 bf 20 3f 14 bf 58 94 e9 be e5 e5 be bf
       -0.5146755 -0.5790882 -0.4562099 -1.4913908
000240 8e e6 d3 3c 4c 6a 10 bf e0 95 87 be e1 98 5d bf
       0.025866773 -0.56412196 -0.26481533 -0.865614
000250 78 30 26 3e 58 05 1d 3e 51 c3 73 be a0 d1 54 3c
       0.16229427 0.1533407 -0.23804976 0.012989432
000260 4d f1 3e 3e 21 8f d8 3c ea 15 12 3f ec cf c8 be
       0.18646736 0.026435437 0.5706469 -0.39221132
000270 01 59 8d 3e 7c 10 79 3e e5 c8 aa 3e 05 a7 e3 3e
       0.27606967 0.24322695 0.33356395 0.44463363
000280 54 d8 50 3f 9b 78 5b 3c 2c 64 d8 3e c8 e5 8f bf
       0.8158009 0.013395454 0.42263925 -1.1241999
000290 4c 2f b5 bc 5a bd 62 bf fc d8 94 be 25 4d 3f be
       -0.02211728 -0.8857018 -0.29071796 -0.18681772
0002a0 d2 8a 1e bf d8 2a 80 be 23 b2 51 be a9 2f a8 bd
       -0.61930573 -0.25032687 -0.2047811 -0.082122155
0002b0 46 73 98 bd 4c 38 c0 3e b2 2e 82 3e 9d c7 f8 3d
       -0.07443862 0.3754295 0.2542625 0.12147448
0002c0 04 56 e4 3e aa 13 87 bf 67 af 24 3f cd b3 6d 3b
       0.44596875 -1.0552876 0.6433014 0.00362705
0002d0 0d 58 52 3e 57 ea 1a 3f ba d6 be 3e 01 a2 ce 3d
       0.20541401 0.60513824 0.37273198 0.100894935
0002e0 9f 1c 9c 3e 4e 91 ef bd 4c 9b 99 be 58 98 8b bf
       0.30490586 -0.116976365 -0.30001295 -1.0905867
0002f0 3b 67 10 bf b6 50 26 3f b0 9b a1 bf aa 23 78 bf
       -0.5640752 0.64966905 -1.2625637 -0.9692942
000300 b2 6c 25 be 88 45 67 be a4 09 ad be f4 ea 1c ba
       -0.16154745 -0.22585118 -0.33796418 -0.00059859385
000310 3e f3 15 bf 87 ab de be ba 56 06 bf 42 42 86 be
       -0.58574283 -0.4349024 -0.52476084 -0.26222426
000320 13 f1 12 bf e8 17 82 be 93 79 82 be 74 0c f5 be
       -0.573991 -0.25408864 -0.2548338 -0.47861063
000330 26 a3 03 be 91 1f c1 be fd 11 8e be ab db 12 be
       -0.12855205 -0.37719396 -0.277481 -0.14341609
000340 ed 11 05 be 47 a2 d6 be 13 b0 a8 be e7 2e 6f be
       -0.1299512 -0.41920683 -0.32946834 -0.23357736
000350 e8 17 2a bf 2a ba ee be 1b de 55 bf d8 e9 53 bf
       -0.6644273 -0.46626407 -0.8354203 -0.8277869
000360 ec 00 92 be 4c 5c b9 3d 3d dc a1 3e a0 11 25 bf
       -0.28516328 0.09050807 0.3161334 -0.6448002
000370 27 46 a1 be cf 1a 60 bd 53 1a 8f be b8 fd 13 be
       -0.31498834 -0.054713067 -0.2794977 -0.14452255
000380 d1 c9 dd be af c8 12 bd 60 83 22 bf b6 d8 d0 be
       -0.43318036 -0.035835918 -0.6348171 -0.40790337
000390 84 81 ea be 96 64 12 be 49 ca bc be 3c 44 13 bf
       -0.45801938 -0.14296183 -0.3687308 -0.5752599
0003a0 77 55 af be 9d 11 16 bf 7c 33 4f bf fe 92 85 be
       -0.34244892 -0.58620626 -0.80937934 -0.2608871
0003b0 76 cb 1d 3d e6 a3 a8 be d5 68 11 bf ac b4 e2 be
       0.038524114 -0.32937545 -0.56800586 -0.44278467
0003c0 ea ba 40 3e e5 f4 15 bf e2 2c 1d be 50 ed ed 3d
       0.18821302 -0.58576804 -0.15349153 0.116175294
0003d0 bb 8e ff be ff 71 af be c8 e4 ed be 1d 7f f0 be
       -0.49913582 -0.3426666 -0.4646361 -0.4697198
0003e0 cf ad 28 3e 11 79 2a 3b 72 bb ef bc 8f 03 15 3d
       0.16472553 0.0026012103 -0.029264186 0.036380347
0003f0 e2 54 65 bf 48 92 51 be 15 09 a1 be 0c 3a 49 be
       -0.89582646 -0.20465958 -0.31452242 -0.1965105
