models/NeuMF8.pt (torch, 186591 bytes, 16 tensors)

weight f4 [943, 8]
00000000: de0b 9d3f d44d 0ebd 6c05 88be 0c5c 313b
00000010: 0336 f33f c73a 85be 19b8 51bd 1379 cd3e
00000020: 4728 94bf 8833 de3f e062 513f 8c21 07be
00000030: 8468 eb3b 12cf 0cbf 9b02 803e 054d 933a
00000040: 8af4 a33f c441 4ebf de1d e2be a3bd 053f
00000050: 41f3 613e 514e 873f aa4a ea3f f13d cabf
00000060: 894c 553f b816 2fbd 89f3 c73f 5653 68be
00000070: 72f6 24bf 3f46 c43f b783 d8bf 92c2 52c0
00000080: 1892 99bf d44e 9a3e e881 783f 58ad 1fbe
00000090: 1aa6 e1be d16d 2840 b4f3 683f 8f1c 05bf
000000a0: b6ef c2bf ebb9 8cbf d033 513f 74d9 dfbb
000000b0: a6b3 853f c9b7 ce3e 4016 443d 3572 0a3e
000000c0: 92f4 b6bf c202 9ebc fe29 903f 7142 abbf
000000d0: 2dde b5bf 8fda 2d3f a9dc 2b3e ca1f 21bf
000000e0: eaf7 a2bf 0f42 bb3f 40a5 85bf db73 423d
000000f0: 68e7 a33f b516 d1bf a113 343e 2f47 04bf
00000100: 59eb 4040 3c0d 3b3f 1319 c5be 85bd f93e
00000110: 67c8 84bf 4a3b fcbf 08c4 ef3f 5882 00c0
00000120: 6255 863d f690 19bf f1ae 25bf 85a1 9ebe
00000130: 38aa 48bf fcdc 543f 1cd3 7f3e 08c8 cc3e
00000140: ac9c 2e3f b81d 203f 625c f53e aa24 7a3e
00000150: 7770 4fbe 2dd6 a0bf fbeb 853f 7ad3 533f
00000160: 9678 463e c46a 3f3e fabf 4ebe 1c3a b4bf
00000170: 2222 7dbf d917 cf3f 0f2c 40bf 7a95 0fbf
00000180: d19f 8b3f fa69 523d 1e74 64be 50c2 f53c
00000190: f47b b0bf bf33 95bf 101e 5ebd 40d9 203d
000001a0: 57ba 923d 308c 9d3f a7fe 0ec0 bd4f 86bf
000001b0: ae01 a9be 3723 913f ceed a2be f7a8 e0bf
000001c0: 011a c2be f00c 4f3f 0ce8 103e 6032 82bf
000001d0: 179f 2b3b 81d5 be3f 75d6 9dbe 1730 833e
000001e0: 9d64 8fbf e3e5 9e3e a831 0640 d1b0 263f
000001f0: e314 183f 5957 a0be dae3 953f b7f3 35bf
00000200: 7816 9abf 6e04 fc3e 9f2a e7bf eb65 d9bf
00000210: d7c5 633e b92c 9bbf ab52 87bf f039 3fbf
00000220: 3c16 633e 3ba0 6b3f b392 dbbe 14f8 103c
00000230: da7e eebe fc0d 8ebf 319e a43e bf7b 643d
00000240: 2ab0 f0be ffb3 68bf 3629 313f f27c f9be
00000250: f4d1 1d40 6d71 b13f 1a69 d4bf 5a71 4b3f
00000260: 1759 5fbf 1fb0 033f 4826 cebf 5bea 61bf
00000270: 2f19 c4bd 218f cabe a431 503f 6428 abbf
00000280: 28fc 063f daf0 453e d955 4c3f 648b 803f
00000290: 8724 dc3e 8723 313f 957e 66bf e801 033f
000002a0: 09d9 c93f fada 21bf f93e 98bd a5f8 8f3f
000002b0: 0f95 e5bf 0df7 b4bf af89 3f3f 4643 363f
000002c0: 8fbb a9bf 3863 f53f b86d 45bf c076 af3e
000002d0: 0b93 1bbf 4185 ecbe fe98 8ebf f69c 603f
000002e0: 8d12 b33e b84b 3d3f bd3f 913f f118 56bf
000002f0: 65d4 dd3f 187c 2b3f a544 a0bf 8560 b0bd
00000300: db39 08be 8228 28be 340f 563e fe46 e53f
00000310: 4d64 dc3d 8b0d 043f fd20 01bf ae11 a1bf
00000320: 07c6 0abf 1b87 903f 9113 ab3f bf5e 70bf
00000330: b702 a13f be75 513f 27bf e73e 2269 523f
00000340: 5908 a23d 4419 c2bf 55e5 28bf 5384 143f
00000350: a3d8 80bf 2514 a9bf ece7 1f3f 9afd 3040
00000360: 386e 6f3e 7296 1fbf 7de4 d0bf e0eb 7b3f
00000370: 113e e83f 1639 4abf fca9 c3bf 3dba c4bf
00000380: 2373 8a3f e49b c03f d96b 5a3f b1d8 183f
00000390: 2c3b 943d 64b1 fdbf 8264 97bf 01bf 143f
000003a0: aeec 47be f595 ac3f 32e5 013e 6983 d3bf
000003b0: ae03 a43f a471 163e b7da 41c0 797e 35bf
000003c0: 4735 d5be 1e08 92bf c971 ba3e 229a d3bf
000003d0: 656c fd3e 1dc7 8cbf a989 5bbd 2781 efbf
000003e0: 7178 51be 7e9e 1cbf 3cba 5abf 387e 05c0
000003f0: 9327 75bf 68e6 98bd 8b2e 863f 9a0e 2a3f
1.2269247 -0.03474219 -0.26566637 0.002706292 1.9000858 -0.26021406 -0.05120096 0.40131435
-1.1574792 1.7359476 0.81791496 -0.13196391 0.00718409 -0.55003464 0.25001988 0.0011238164
1.2809002 -0.805691 -0.44163412 0.5224249 0.2206545 1.0570775 1.8304036 -1.5800153
0.8331991 -0.042746276 1.5621196 -0.2268804 -0.64438546 1.5333937 -1.6915196 -3.2931256
-1.1997709 0.30138266 0.9707322 -0.15593469 -0.44072038 2.6317027 0.9099686 -0.519967
-1.5229404 -1.0994238 0.81719685 -0.0068313424 1.0445449 0.40374592 0.04787278 0.13520129
-1.4293387 -0.019288424 1.1262815 -1.3379651 -1.4208428 0.6791162 0.16783394 -0.6293913
-1.2731907 1.4629534 -1.0441055 0.04747377 1.2804995 -1.6335055 0.17585613 -0.5167112
3.0143645 0.7306707 -0.38495693 0.48777404 -1.0373658 -1.9705594 1.8731699 -2.0079556
0.06559254 -0.5998682 -0.64720064 -0.30982605 -0.78384733 0.83149695 0.24982876 0.39996362
0.6820781 0.6254535 0.47922045 0.24428049 -0.20257746 -1.2565361 1.046264 0.8274456
0.19381937 0.18693072 -0.20190421 -1.4080234 -0.9888021 1.6179153 -0.7506723 -0.5608746
1.0908147 0.0513706 -0.2230992 0.029999882 -1.3787827 -1.1656417 -0.05422789 0.039269686
0.07164448 1.2308407 -2.2342927 -1.0493084 -0.33009094 1.1338872 -0.31822056 -1.7551564
-0.37910464 0.80879116 0.14151019 -1.0171623 0.0026187354 1.4908906 -0.3082768 0.25622627
-1.120258 0.31034765 2.0967808 0.6511355 0.5940687 -0.3131664 1.171016 -0.71075004
-1.2038107 0.4922213 -1.8059882 -1.6984228 0.22243439 -1.2123023 -1.0572103 -0.7469778
0.2217645 0.9204137 -0.4288536 0.008848209 -0.46581155 -1.1098018 0.3215194 0.055782076
-0.47009403 -0.9089965 0.6920351 -0.48728138 2.4659395 1.386274 -1.6594574 0.79469836
-0.87245315 0.51440614 -1.6105433 -0.88248223 -0.09575116 -0.39562324 0.81325746 -1.3371701
0.5272851 0.19330159 0.79818493 1.0042539 0.42996618 0.69194835 -0.900369 0.51174784
1.5769359 -0.63224757 -0.07433886 1.1247755 -1.7936114 -1.4137894 0.74819463 0.711964
-1.3260363 1.9170904 -0.7712054 0.34270287 -0.60771245 -0.46195415 -1.114044 0.87739503
0.3497509 0.7394366 1.1347576 -0.8363181 1.7330443 0.6698623 -1.2520949 -0.0861216
-0.1330332 -0.16421703 0.20904237 1.791229 0.10761318 0.51583165 -0.5044096 -1.258352
-0.54208416 1.1291231 1.3365346 -0.9389457 1.2578954 0.81820285 0.45263025 0.8219167
0.079117484 -1.516396 -0.6597493 0.5801441 -1.0066112 -1.3209273 0.6246326 2.7654786
0.23381889 -0.62338936 -1.6319729 0.9840679 1.8143941 -0.78993356 -1.528625 -1.5369335
1.0816387 1.5047574 0.8532081 0.59705645 0.07237849 -1.981976 -1.1827548 0.5810395
-0.1952388 1.3483263 0.12685087 -1.6524478 1.2813623 0.14691788 -3.0289743 -0.70896107
-0.4164221 -1.1408727 0.36414936 -1.6531413 0.4949676 -1.0998265 -0.05359808 -1.8711289
-0.20456101 -0.6117934 -0.8544042 -2.0858288 -0.9576351 -0.074658215 1.0482954 0.6642853

weight f4 [1682, 8]
00000000: 0692 293e bf77 5a3c 51c0 3c3f bbda cb3d
00000010: c9f8 afbe 1d50 3fbe 668f c03d 3f4c d7be
00000020: 975b 723f a2db c5bd d782 b3bf 1e49 c53f
00000030: 3300 5ebe aada 02bf 932a cbbe 8e8c 523f
00000040: 148a 233e ecba 2dbd dac3 403f d0a1 60be
00000050: 0ed7 c93e c10e 083f f444 82bf 3a75 99bf
00000060: c4d9 c23f 301c 6e3f 18ab e8be 5d13 9e3d
00000070: 042e 113f b46e 32bf fa54 c03e 8083 16bf
00000080: 60fa a73f 3f3e 593f 3623 1fbe a139 c03e
00000090: 118d fa3e 7d3f 873f 722a 6b3f b42f dc3e
000000a0: 58f6 9cbf 2069 f1be 03a4 bdbd 3664 b03f
000000b0: 3113 b13f 92eb dabd 2b86 73bf eb02 8abf
000000c0: 1915 b73f c5ba 7a3c da66 c33d e504 04bd
000000d0: 43e7 11be 0840 df3c af9d a8bf 4b6e 94bc
000000e0: a03c c03e f511 863e f82c ad3d a139 d0bd
000000f0: e2d3 56bf 272a 5d3f 5f8f 423f e797 2abe
00000100: c42f a0bf 3ecd 4fbb 0080 4ebf 2b7e b53c
00000110: 6e0b 503f f96e 853f c924 813f e517 4d3f
00000120: c53d b63f 28ea a6bf 2624 6c3e 9de0 8ebf
00000130: c936 10bf bfe6 8cbf 04bd b2be 4f08 8c3d
00000140: 6093 383e 56ea 02bf 79f4 00c0 f40c 84be
00000150: fbdd 573f e6be a6bf 878d d33f eca2 e3bd
00000160: 64c1 923f dd5f bf3c 6024 1abf 2ad4 8bbe
00000170: 13ec db3c b3c5 c73e 159a 8d3d acf5 373f
00000180: d6fa b6bf 41b9 3fbf ddd6 f2be 7e96 cd3e
00000190: 635e 713f d199 aa3f 1325 43bf e0da a93d
000001a0: ba36 dbbf 9e4a 38bd 03a2 c0be 37cf fa3e
000001b0: c001 533f 3ce0 653f 3689 523f ad1a 8abe
000001c0: af63 9fbf d0df 773d 151e e9bc 25af b2be
000001d0: 194e 65be 43b4 cebf f64a f8bb cc0a a23e
000001e0: 8af9 2e3f 2e18 063f 7fff 6d3f 2c21 6cbf
000001f0: ab51 e4bf 1c5c 8abf 87dd aa3f 7375 9abf
00000200: 7af7 cc3e 1b09 163f ef23 193f 070b 563f
00000210: eb15 0dc0 f0ca 4c3e 2389 b8bd f569 64bf
00000220: 7ddf e73f 2b30 ab3f 8409 103f 2bf4 58bf
00000230: 64a3 7cbc f985 0540 946e 1bbf 1b11 bb3f
00000240: daff 72bf 7458 803f 89f0 873f 39be e7be
00000250: 3d33 903f b5e6 af3e e971 8fbf f575 2cbf
00000260: 855b 07c0 af12 3f3e 9793 383e a7ce cabe
00000270: 2d9c 633f 3323 623f 5271 3c3f baa9 e13e
00000280: 14b7 933f b1c1 d93e 2319 7ebe c61e 0cbe
00000290: 1f3a 41bf 19f3 fabe 3d1a a63f 2431 acbf
000002a0: e4b1 8cbf f907 293e 4472 4e3f d812 ecbe
000002b0: ce80 8a3f 51f4 93bf e295 873d 1cf6 38be
000002c0: 160e 4a3f 508c edbc 8d01 00c0 e0a1 8abe
000002d0: 7680 0640 6045 06bf fbaa c3be 1e50 543f
000002e0: cd6b ef3e 794d 9cbf c475 6fbf 1829 703e
000002f0: b5c3 48be 3f39 a6bd 182c 443f accd 9e3e
00000300: 6636 373f e293 2fbf 02e7 e3be 1067 d83d
00000310: f70b 133f 06d6 ce3e ee52 6d3f 2378 d2be
00000320: da3a d3bf edfe 4a3e 5b4c 82bf 50a1 2a3f
00000330: 1ddc a0bd 3e3a a2be 23ca 18bf 0b13 9bbf
00000340: 7a68 92bf 2818 23bf a27b 1dbf 0dbd b23f
00000350: ddd4 4cbd b5c5 933e d012 aabf 310b b8bf
00000360: 8730 263e 96cd fc3c 133d 5d3d f822 1b3f
00000370: 0c49 a1bf d8ae 4c3f 7cca d33d 9e13 8c3e
00000380: 901d fb3e a341 5b3f d1f3 e6be 44cc 253f
00000390: 2e60 453f abf1 b6bf b181 c33f a1e2 afbe
000003a0: 718e fcbe 3e26 21c0 88f4 d6be 818f f13e
000003b0: d5f1 36be 87c1 be3d cfd1 9dbf ebd7 b63d
000003c0: efdb d93f cca6 05bf ff2a b1be 6d59 44be
000003d0: 7f60 08bf a07f c1be db19 9abf 8190 073f
000003e0: 0ec4 cc3f c06d 413b e5f1 e7bf 2014 a43e
000003f0: 8827 2abe 95d5 403f 27fe c2be f504 72be
0.1655961 0.013334214 0.7373095 0.09953829 -0.34369496 -0.18682905 0.09402351 -0.4205036
0.94671005 -0.09661032 -1.4024304 1.5412939 -0.21679763 -0.51114905 -0.3968092 0.8224572
0.15970641 -0.04241459 0.75298846 -0.21936727 0.39421886 0.5314751 -1.0177293 -1.19889
1.5222707 0.9301176 -0.45443034 0.07718537 0.5671084 -0.6970017 0.37564832 -0.58794403
1.3123283 0.84860605 -0.15540776 0.37543967 0.4893575 1.056625 0.9186164 0.43005145
-1.2262678 -0.47150517 -0.092597984 1.3780582 1.3833982 -0.10689463 -0.951266 -1.078214
1.4303313 0.015303318 0.09541102 -0.03223123 -0.14248376 0.027252212 -1.3173121 -0.018118998
0.37546253 0.26185575 0.08455843 -0.10167242 -0.8391706 0.86392444 0.76000017 -0.16659509
-1.2514577 -0.0031708027 -0.8066406 0.022154888 0.8126744 1.0424491 1.0089351 0.80114585
1.42376 -1.3040209 0.23060665 -1.1162297 -0.56333596 -1.1007918 -0.34909832 0.06837522
0.18024969 -0.5113882 -2.0149214 -0.25791132 0.8432309 -1.3027008 1.6527566 -0.11115059
1.1465268 0.02336114 -0.60211754 -0.27310306 0.026845967 0.3901802 0.069141544 0.7185924
-1.4295299 -0.7489205 -0.47429553 0.4015388 0.9428465 1.3328191 -0.76228446 0.082937
-1.7126076 -0.044993035 -0.37623605 0.48986217 0.82424545 0.8979528 0.8224062 -0.26973477
-1.2452296 0.06051618 -0.028456727 -0.3489925 -0.22393073 -1.6148762 -0.0075772954 0.31648862
0.68349516 0.52380645 0.9296798 -0.92238116 -1.7837423 -1.080936 1.3348855 -1.2067093
0.4003256 0.58607644 0.59820455 0.83610576 -2.2044628 0.1999929 -0.09010532 -0.8922418
1.8115078 1.3374075 0.5626452 -0.8474757 -0.015419815 2.086302 -0.60715604 1.4614595
-0.9492165 1.0026994 1.062028 -0.45262316 1.1265637 0.34355703 -1.1206638 -0.6736749
-2.114961 0.18659471 0.18025051 -0.39610788 0.8891018 0.8833496 0.73610413 0.44074804
1.1540246 0.42530587 -0.24814276 -0.13683614 -0.7547931 -0.49013594 1.2976757 -1.3452497
-1.0991788 0.16506948 0.80643106 -0.46108127 1.0820558 -1.1558934 0.06620385 -0.18062633
0.78927743 -0.02899757 -2.0000947 -0.27076626 2.1015906 -0.5244961 -0.38216385 0.8293475
0.46761933 -1.2211143 -0.9353907 0.23453176 -0.19605906 -0.081163876 0.7662978 0.3101629
0.7156738 -0.68585026 -0.44512182 0.105665326 0.5744013 0.40397662 0.92704666 -0.41107282
-1.6502335 0.19823809 -1.0179552 0.66652393 -0.07854483 -0.3168506 -0.59683436 -1.2115186
-1.1438134 -0.63708735 -0.61516774 1.3963944 -0.05000769 0.28861776 -1.3286991 -1.4378415
0.16229449 0.03085975 0.054013323 0.60600233 -1.2600417 0.7995429 0.10341355 0.27358717
0.49045992 0.8564703 -0.45107892 0.6476481 0.77099884 -1.4292501 1.5273954 -0.34352592
-0.49327424 -2.517959 -0.41983438 0.47179797 -0.17865689 0.09314256 -1.2329654 0.08927902
1.7020243 -0.52207637 -0.34603116 -0.19174738 -0.5327224 -0.37792683 -1.203914 0.5295487
1.5997331 0.002951488 -1.8120695 0.32046604 -0.16616642 0.753259 -0.38084528 -0.23634703

weight f4 [8, 8]
00000000: 725e 303e d527 893e 7574 b53d 5fab 0f3f
00000010: 0fc9 143e 6e42 703d 147a fe3e 82b2 acbe
00000020: 32d9 37be 75a9 37bf 6511 ab3d 824b 36bf
00000030: 034b 07be efd6 243e a750 483e 7aee 863e
00000040: 87d9 4e3e bf20 fcbd 1c7f 0a3e afe2 44bf
00000050: af50 143e a561 06be b8cf dc3e 6be2 523e
00000060: b6f7 893d 30a5 6abf e041 09bc df9a 863f
00000070: 715b 0f3d 7323 c6bd 77f2 533d e744 0fbb
00000080: 0e26 34bd 6f1c 1c3f 7336 3a3e e1f6 3d3f
00000090: bb29 5cbc 3db7 8dbd 08d3 a53d b0b8 053f
000000a0: 72e1 783e 5a0d b8be 98e1 003e d0bb 313d
000000b0: 49b0 0d3e 9fb9 26bc 2477 1a3f cbd1 873e
000000c0: c097 893e 7a62 233e 58ee 703e 02b2 103e
000000d0: 22a2 eb3d 38f0 cc3d 4310 edbe edf9 f73e
000000e0: 77ef afbd 3307 31bf a45a cf3c f10a bf3d
000000f0: a0a9 42bc 8ad9 9e3d adb9 833e 7eb9 03be
0.17223528 0.26788202 0.08860103 0.56120867 0.14529823 0.058657102 0.49702513 -0.3372994
-0.17953947 -0.71742946 0.08352927 -0.71208966 -0.13212208 0.16097616 0.19562016 0.26353818
0.20200168 -0.12310933 0.13525051 -0.7690839 0.14483903 -0.13123186 0.43127227 0.20594184
0.067367 -0.91658306 -0.008377522 1.0516013 0.034999315 -0.0967473 0.051744904 -0.0021861137
-0.043981604 0.60980886 0.18184833 0.7420483 -0.013437684 -0.069197156 0.08096892 0.52234936
0.2430475 -0.35947686 0.12586057 0.043392003 0.13836779 -0.010176091 0.60338044 0.26527247
0.2687359 0.15955535 0.23528421 0.14130405 0.11505534 0.100067556 -0.4630147 0.48432866
-0.08590596 -0.6915161 0.025311776 0.09328259 -0.011881262 0.07756336 0.25727597 -0.12863728

weight f4 [943, 8]
00000000: e511 bdbf 612a 263f 45d3 30bf 1190 3f3f
00000010: d3b6 a9be 1e82 893f 5c1d 2dbe 8d7b dc3f
00000020: d721 0f3e d829 4440 8643 2ebe 0039 883f
00000030: 15f1 a03f 499d 3f3e 938a 29be cc29 ca3e
00000040: b8c0 ae3f 0949 95bf 8b8e 84bf b869 52bf
00000050: a929 c43f 0fe4 1540 cdfe 353f b2db 843b
00000060: d40f 25be 5cdf 643f 9c58 8b3f e07a 32bf
00000070: 38c1 bd3f f452 7fbe bfe0 29bf c48b b03e
00000080: d47b 30be 8969 00bf 8619 64be 58fb 84bf
00000090: 1ae2 f8be d8c7 203d f4ee 1bbe e488 69be
000000a0: e3ea cabe 1a89 b0be 703b 88bf 4f68 c23f
000000b0: 76a3 f4bd 701b 253e 9cbb 37bf 42ef 9f3d
000000c0: 2665 2ebf a327 cebf 75ec 58bf 464c 0640
000000d0: 2a00 98bf ff69 943f 19a1 d1bf 83bb a03e
000000e0: 0f6f 123f f2cd 29bf a856 1840 e5bb 04bd
000000f0: bb88 963f acab 36bf b0de 50bf f42c 203e
00000100: b209 d83f a637 a03f 00ff 50bf 9e64 18bf
00000110: 24e1 d7be 2b4a e03e 8c80 193f 6605 a73e
00000120: 4f90 85bc 69a1 033f 34e8 923c bb1f c8be
00000130: f455 a73f fe7d 32bf adbc c2bf 6f7b bb3f
00000140: a890 75bf 8c9b 073e 8a01 103f 6a14 733f
00000150: 0514 9cbe 92da f2be 84d9 353f e974 dcbe
00000160: 55bf 833f eb5a 2b40 49ac a7bf da38 e4be
00000170: d0f2 5f3f ef0b 843f 4c60 143d d811 ee3f
00000180: 86a7 00bf 1d04 27be 097b 74bf cfb0 883f
00000190: 80c7 97bf e641 1a40 5a58 da3d 3018 bd3f
000001a0: 76b4 973e fea3 0cc0 b78c e53f 0d45 87bf
000001b0: b244 a0be 9d7b 22bf 4d80 b7bf 165a 7c3e
000001c0: 6e57 64bf adee ca3d be99 0c40 ce42 223e
000001d0: 11bb d3be 96a3 853f 4208 4cbe 2372 983e
000001e0: e366 03bf 9dfc d33e e4d1 363f f12f 87bf
000001f0: 2278 76bf be44 983f 2372 0cbf a08e dc3e
00000200: 3093 9b3f d963 c43e a9a1 27be 5dd3 013e
00000210: 99be c93f ed7a 713f 4da7 623e 6d45 ecbf
00000220: 0bd9 ba3f 82c3 4d3f 1e08 81bf 5630 8140
00000230: aacb a9bf 155b ff3f 1afe a9bf 4c29 663f
00000240: 92f8 ca3f 892e 8b3f 10fa 693f 0926 8a3f
00000250: cbd8 cabe 6012 04bf bd27 2a3f d825 a53e
00000260: fef9 84be a459 403f 0193 8cbf 99ed f9bc
00000270: 6f57 0640 be98 6b3e 483a cb3f a044 f4bf
00000280: 4655 b4bf e532 d23e 8f01 88be 3b66 cc3e
00000290: c0a5 68bf fefb c7be 7862 cd3f b3d4 9e3f
000002a0: a722 abbe b6ae 423f 7c0d f4be 5e75 9d3e
000002b0: 2cea bdbd e270 fd3e 3179 5e3f cc4b 1c40
000002c0: bf70 6d3d 9132 23be ac9f c7bf d338 d6bf
000002d0: 32c6 0a3f f6d7 4b3f 4fd3 80bf 08e2 203d
000002e0: ee86 3b3e 357d e1bb b565 143f 3c5e 81bd
000002f0: 0cd1 aa3f 088a ad3d c2f9 c4be e5cb 203e
00000300: 330c 17be f5db 703e bacc 3c3f f9d6 1a3e
00000310: d413 71be 93c5 cabe 4094 f63f 48d5 6b3f
00000320: 20e5 643e 3cd9 823e d4a4 a7bf 3e2e 09bf
00000330: 715c 24bf a3c4 f83e b03a c63f 7528 733f
00000340: d824 373f 32c6 953e e595 f3bd deb6 823f
00000350: e0bb 713f cac3 263f 24bf 0fbf 3b9b b0bf
00000360: c468 453e 1270 b93e 2b45 9cbf ef2f 51bf
00000370: c929 d1bd 8ac2 843e b723 c3be 7c5f 87bf
00000380: 7392 cfbd 3489 f6be 4ba3 7340 278f 813f
00000390: c03e 113f 4ce3 dbbf 5ecc b4bf 4ee9 0f3f
000003a0: f72a 8e3f 19f8 8b3d db23 9ebe 00a3 5ebf
000003b0: 237c be3f b5d3 f9be 685e cb3e 8ffe f93f
000003c0: 6239 c23e 62e4 3a3e 6df9 cd3e 63db 983f
000003d0: 85ad 7b3f 9817 ca3c 478e c43e 0d14 0bbf
000003e0: 02fc 853f c150 2b3e 8511 8d3f 2d24 c3bd
000003f0: e2eb 643f dc02 11bd e366 083f 2012 123f
-1.4771086 0.64908415 -0.6907237 0.748292 -0.33147296 1.0742834 -0.16905731 1.7225205
0.13977753 3.065054 -0.17017946 1.0642395 1.2573572 0.18712343 -0.16556768 0.39485013
1.3652563 -1.1662914 -1.0356001 -0.82192564 1.5325214 2.3420446 0.7109192 0.00405451
-0.16119319 0.8940332 1.0886416 -0.6971874 1.4824591 -0.24933988 -0.6635856 0.34481633
-0.17234737 -0.50161034 -0.22275361 -1.0389204 -0.48610002 0.039253086 -0.15227872 -0.22806126
-0.3963233 -0.344796 -1.0643139 1.5188082 -0.1194524 0.16123748 -0.71770644 0.07809307
-0.6812309 -1.6105846 -0.84735805 2.0984054 -1.187505 1.1594847 -1.6377288 0.3139306
0.5720071 -0.6632987 2.380289 -0.032405753 1.1760477 -0.713557 -0.81589794 0.15642148
1.6877959 1.2516983 -0.816391 -0.5952853 -0.42163956 0.43806586 0.5996177 0.32621306
-0.016304163 0.5141817 0.017932989 -0.39086708 1.3073106 -0.697235 -1.5213829 1.4647044
-0.9592385 0.1324293 0.5625235 0.94953024 -0.30484024 -0.4743238 0.7103503 -0.43057945
1.0292765 2.6774242 -1.3099452 -0.44574624 0.8747988 1.0316142 0.03622465 1.8599195
-0.5025562 -0.16310163 -0.95500237 1.0678958 -1.1857758 2.4102721 0.10661383 1.4773006
0.29629868 -2.1975093 1.7933568 -1.0567948 -0.3130241 -0.6346987 -1.4336029 0.2464374
-0.8919591 0.09908805 2.1968837 0.15845796 -0.41353658 1.0440547 -0.19925025 0.2977458
-0.5132887 0.41403666 0.7141402 -1.0561506 -0.9627706 1.1895978 -0.5486166 0.43077564
1.2154293 0.38357428 -0.16370262 0.12678285 1.5761291 0.94328195 0.22134133 -1.8458687
1.4597486 0.80376446 -1.0080602 4.0371504 -1.3265278 1.9949671 -1.3280671 0.89906764
1.5857108 1.0873576 0.9139719 1.0792857 -0.39618525 -0.5159054 0.66466886 0.32255435
-0.2597198 0.7513678 -1.0982362 -0.030508803 2.0990865 0.23007485 1.5877161 -1.9083443
-1.4088523 0.41054454 -0.2656369 0.39921746 -0.90877914 -0.39059442 1.6045675 1.2408661
-0.33424875 0.7604784 -0.47666538 0.30753607 -0.0927318 0.49500185 0.86903673 2.4421263
0.05796885 -0.15937258 -1.5595603 -1.6736091 0.5420867 0.79626405 -1.0064486 0.03927806
0.1831319 -0.006881381 0.5796769 -0.06316802 1.3345046 0.08473593 -0.384718 0.1570278
-0.14750747 0.23521407 0.7374989 0.15121068 -0.2354272 -0.39603862 1.9263992 0.92122316
0.22353029 0.25556362 -1.3097177 -0.53586185 -0.64203554 0.48587522 1.548666 0.9498361
0.71540594 0.29252774 -0.118938245 1.0212057 0.944273 0.651425 -0.5615103 -1.3797373
0.19278246 0.36218315 -1.2208608 -0.81713766 -0.10213048 0.25929672 -0.38113186 -1.0576015
-0.10135355 -0.48151553 3.8068416 1.0121812 0.56736374 -1.717874 -1.4124868 0.5621537
1.1106862 0.0683443 -0.3088673 -0.8696747 1.4881634 -0.48794332 0.39720464 1.953081
0.37934405 0.18251184 0.4022936 1.1941952 0.98311645 0.024669454 0.383898 -0.5432747
1.0467532 0.16730024 1.1020972 -0.09528384 0.8942243 -0.035403118 0.5328199 0.57058907

weight f4 [1682, 8]
00000000: ac39 943d e6e5 a03e 8cca d53e c715 66bf
00000010: 0d20 ebbe bfb5 86bd dabf 4b40 d986 0740
00000020: f8f2 a7be 684a e1be 66c3 813c ad98 273f
00000030: 9877 3dbf 7894 2cc0 2d37 ffbf b052 d13d
00000040: 1641 acbd 2332 3ebf 039c 013f 487a 4bbf
00000050: 2500 ebbd 0330 a5bd 57d0 35c0 92b4 0240
00000060: 2569 3d3f 2417 12c0 58f7 503e e9df 533f
00000070: d788 a1bd 1447 97bf 4b0c 01be 144c 81bf
00000080: 5fc2 4ebf c28c 83bf 2d7a a13d 9bdb b7bb
00000090: 8f8b ec3d 19c9 c83f 1e75 f43e 3ff9 aa3f
000000a0: 3dcb 8cbf 714d 2a3f d2e1 ccbe 2b08 2ebf
000000b0: 0d86 c83f 5b2e 40bd 08f5 b73e acf7 503f
000000c0: 8686 5a3f 1624 0c3f 3b4f 7ebf 2ae3 64bf
000000d0: fb8e efbf 4639 33c0 07f3 223f 47ed 423d
000000e0: eae0 bdbe 291d 88bf e2c8 03bf f8c9 1b3e
000000f0: 106f ccbf 0b8a 5a3e a64f 8bbf c08d 9dbe
00000100: ba95 ac3e fe6b 07bc 759f 42bf 8049 833e
00000110: 3149 04bf 6440 85bf 2937 833f 2f06 003f
00000120: 5f63 b2be 3715 eabf 33a2 ed3c d60f 42be
00000130: 11a0 ecbe a76f ca3d fdaf 0b3f 321e ba3e
00000140: 6468 143f a9fc d13b 1860 a9bf 8a58 a8bf
00000150: 24d4 88bf f544 2cbf 1dfa 6a3f 8716 633f
00000160: 2643 5dbe 160f f9bf fd49 093e b6d5 acbf
00000170: 859b a6bf 5b66 ed3e 7196 b23d fabd 6fbf
00000180: 296a 3d3f 4d46 6b3f 40d5 6dbf 9acc 1cbf
00000190: 0a39 5ebe 0f73 0ac0 7f16 c23f 3693 fdbf
000001a0: 6001 32bf 9f20 29bf b3df 1fbf a434 b33f
000001b0: e604 29bf 9b9c 3dc0 5b11 583e 24ba 943f
000001c0: 5e3a b4bc ca9f e9bf 6bed 3c3e 254d 1dc0
000001d0: 4ca9 e4bf 1024 afbe 8f4c 133e d437 3a3e
000001e0: 0afd b6bf 0020 f43d 73f0 413f 3987 043e
000001f0: 2178 aabf b29b 9e3d 595c 45bf 54a6 b8bf
00000200: 579e f3bf a4d4 c0bf 57c9 82bf 0ddf 37bf
00000210: f69f 063d 6b2c 173f fd60 c63d dca3 c43e
00000220: cba6 6cbf 2c2f 92bf ac87 b53e 2ffa 11bf
00000230: 1937 9e3e 821a 2fbe 8085 aebf 3e31 cbbf
00000240: cc19 b53f 6726 903f 35a2 db3e a82d d13e
00000250: 8a5d 27bf b30a ffbe ef51 5e3f bb17 87be
00000260: 98a0 93bc 45cd 153e e11d d23f ffd9 f03e
00000270: 9e47 d73e da98 d43e 6c46 9d3f 728d 903f
00000280: 29ce b3bf acd3 67bf 084b dabe 8818 763f
00000290: 48ea 3cbf 878c adbe cc46 f6bd 8c41 6a3d
000002a0: 3b8f 0abf 99f2 b03f 1e9e 553f 843b a9be
000002b0: 936f bbbf 7b95 31bd 8c05 8b3f f67a b93f
000002c0: a613 5e3f a3e1 b3bd e9e9 523f ca68 1f3f
000002d0: 7538 ca3b ecef cbbf 7379 123f 34da 12bf
000002e0: d588 6e3f f3db a3be e7eb 07be 2d28 eabe
000002f0: 2630 a23f e73d 59bf 8c6f 913f 9ace 193f
00000300: 5907 2c3f b41b c53f 800c 0ec0 8b92 283f
00000310: 8de5 a6bf 3b80 04c0 ceb3 483e 79a4 873d
00000320: b357 c03e 3202 fc3e bc34 92bf 86fd f43f
00000330: 1b75 70bf 0b87 2d3f 5fe3 bb3e 5801 13bf
00000340: 462b 853d 75a2 92bf 9716 9c3f 45bd e7be
00000350: 7b50 d33d 68ee 483f 14f8 ec3d 409e e53f
00000360: 901c a23f 8a88 7bbf 8770 60bf 5077 ebbe
00000370: 1df9 1a3f 26be bebe 60f9 90bf 84b9 6a3f
00000380: 2ef0 12bf 577f 7ebf 0d99 333f 443f 1dbe
00000390: da05 6ebf 777d 8d3e 5a8a 9f3e fb4b 9bbe
000003a0: 24ef 143f 18d2 253f 0e85 06bf e865 10be
000003b0: 8d9f 703e 9af7 be3f 220b bfbf 55f9 b33f
000003c0: 8d0e 44bf 86e2 adbe 0631 123f b3c6 f83e
000003d0: a2f9 cabe 89f7 cbbf 6ff4 6abe e43b 3f3f
000003e0: be44 b13e 6531 043f 8fbf 1f40 babf ddbe
000003f0: 2396 873e 3f77 2bbe 527c 943f 1966 933e
0.072375625 0.314254 0.41756094 -0.8987698 -0.4592289 -0.06577634 3.1835847 2.1176054
-0.32802558 -0.4400208 0.015840244 0.6546734 -0.7401061 -2.6965618 -1.9938713 0.102208495
-0.08410852 -0.7429525 0.5062868 -0.7948346 -0.11474637 -0.08065798 -2.840841 2.0422711
0.7398856 -2.2826624 0.20406854 0.82763535 -0.07887428 -1.1818566 -0.12602346 -1.0101342
-0.80765337 -1.0277331 0.07884631 -0.005610896 0.11550056 1.568637 0.47745603 1.3357314
-1.0999523 0.66524416 -0.40016037 -0.67981213 1.5665909 -0.046919208 0.35929132 0.8162792
0.85361516 0.5474256 -0.99339646 -0.89409125 -1.8715509 -2.8003707 0.6365208 0.047589567
-0.37085658 -1.0633899 -0.514784 0.15213764 -1.5971394 0.21341722 -1.0883682 -0.3077221
0.33707982 -0.008265493 -0.7602456 0.25642014 -0.5167418 -1.0410275 1.0251209 0.50009435
-0.3484144 -1.8287724 0.029008007 -0.18951353 -0.4621587 0.09884577 0.5456541 0.36351162
0.5797179 0.0064082933 -1.323245 -1.315202 -1.068974 -0.6729272 0.9178789 0.8870625
-0.21607646 -1.9457729 0.1340713 -1.3502719 -1.3016211 0.46367154 0.08720101 -0.93649256
0.7399011 0.91904145 -0.9290352 -0.612497 -0.21701446 -2.1632726 1.5163115 -1.981055
-0.6953335 -0.660654 -0.6245071 1.400044 -0.660231 -2.9626834 0.2110037 1.1619306
-0.022000488 -1.8251889 0.18449943 -2.4578335 -1.7864165 -0.342072 0.14384674 0.18185359
-1.4295971 0.11920166 0.7575752 0.12942208 -1.331791 0.0774454 -0.77094036 -1.4425759
-1.9032696 -1.5064893 -1.0217694 -0.71824723 0.032867394 0.5905215 0.09686468 0.38406265
-0.92442006 -1.1420646 0.35455072 -0.57022375 0.3090141 -0.17099956 -1.3634491 -1.5874403
1.4148498 1.126172 0.42897192 0.40855145 -0.65377104 -0.4981285 0.8684377 -0.26385292
-0.018020913 0.14629085 1.6415368 0.47041318 0.42046827 0.41522866 1.2287116 1.1293166
-1.404729 -0.9055736 -0.4263537 0.9613118 -0.73794985 -0.33896276 -0.12025222 0.057191417
-0.541248 1.3824035 0.8344439 -0.3305322 -1.4643425 -0.043355446 1.0861068 1.449065
0.8674873 -0.08783271 0.8238817 0.6226927 0.006171281 -1.5932593 0.57216567 -0.573642
0.9317754 -0.32003745 -0.13273583 -0.45733777 1.2670944 -0.8486008 1.1362166 0.60080874
0.6719871 1.5399079 -2.219513 0.65848607 -1.3038803 -2.0703266 0.1959984 0.066231675
0.3756691 0.49220425 -1.1422343 1.9139869 -0.9392869 0.67784184 0.36696908 -0.57423925
0.065023944 -1.1455828 1.2194394 -0.4526159 0.10318085 0.7848878 0.11570755 1.7938919
1.2664967 -0.9825522 -0.87671703 -0.45989466 0.60536367 -0.37254447 -1.1326103 0.91689324
-0.57397735 -0.99413055 0.7015541 -0.15356165 -0.9297768 0.27634785 0.3116024 -0.30331406
0.581774 0.647737 -0.52546775 -0.14101374 0.23498364 1.4919312 -1.4925272 1.4060465
-0.765847 -0.33961886 0.57106054 0.48589095 -0.3964358 -1.5934917 -0.22944807 0.7470076
0.3462276 0.5163787 2.4960668 -0.43310338 0.26481733 -0.16744708 1.160044 0.28788832

weight f4 [64, 16]
00000000: a6f0 d4bd c4bb 28be 49a5 6bbe f8fc 2a3e
00000010: 9661 c0be e2f7 623e e4b4 aabd 81eb 8d3d
00000020: 3d80 eb3d 77b2 84bd 7cef a6bc 80e0 ddbc
00000030: 820e 8cbd ff50 44bd 45f5 c03d 744a e63a
00000040: a09e 443e f782 f93d 28aa d13d 3414 75bd
00000050: 6946 183e e585 fd3d d26e 4c3e a373 9cbd
00000060: ae01 88bd 7014 3fbc 4fe5 61bd f9cb 4b3e
00000070: 7250 f43d 13df 353e 075a 69bc c57d 43be
00000080: b48f 82be e3b3 51be d909 85be fd47 053e
00000090: 6c1d fdbd 125f 6c3e eb80 53be 3b69 003e
000000a0: 2e1b c63d 10aa 05bd 1011 efbd efc4 87bd
000000b0: cb88 1cbe 7ad4 abbc 4257 013d 0ef7 a239
000000c0: 604e d93d 9694 db3c 384e 173e 5ec5 97bd
000000d0: 0928 573d 85ba 0bbd 8ab4 973d 1e57 c1bd
000000e0: 35cb 1dbd 6a03 873d ff79 d43e b2ad 6c3e
000000f0: 37a9 653e 8ee6 b83c 508a cbbe 3486 35be
00000100: 47fc e43b 1a68 633d 6318 bb3d c0bd 83be
00000110: d96c f8bc 68bb 56be 3c0c 77bd 99a3 183e
00000120: 3f98 973a 12a3 fc3d c348 903e ba0a 8b3d
00000130: 2ad5 ac3c faa6 6b3d 31ed 41be a5c1 68ba
00000140: 8fb1 003e 7c11 863e b06a 0e3e 166e 4abd
00000150: 07eb 04bd bb79 f3bd 26f7 3dbd a3b2 63be
00000160: 819c 51be e883 283d 595d 2d3e ba70 b73e
00000170: 22da e13d 71e7 863e c6ad f2bd fd7f 80bd
00000180: 7997 60be 0d2c 3fbe b2ef 74be 4816 c73d
00000190: d0be 56be b1cb 523e 93b2 30be 20ed d23d
000001a0: 9076 033c 6d26 d13c 63a5 4ebd 3a7e 17bd
000001b0: c644 1fbd cada bdbc f9a8 793d 8f6d d53b
000001c0: 6830 2a3e bf20 273e 738d bb3d b8de b23d
000001d0: a1f4 1a3e 5200 1cbe ea40 a53c d562 5cbe
000001e0: 1f21 11be 1918 353e a40a b13e be43 c4bb
000001f0: ef6c 8e3e 87c0 363e bd45 8ebe 79a7 56be
00000200: 3961 81be 5bcf e5bd 9a60 4bbe b04a 493e
00000210: 6750 d2bd 59c3 073e 20dc 3bbe cd1f 4f3e
00000220: a1d9 a33d d67d c73c 9d9d 0cbe 4464 b7bd
00000230: 5f45 1abe a3b8 a8bd d9ac 133e 38a9 153e
00000240: ffe8 083e 5099 ff3d c5f1 4c3e bd06 71be
00000250: 5220 ec3d 2b76 f4bd 6795 a7ba b7e4 07be
00000260: 6252 38be fb15 613e 3c86 273e f2f5 1ebe
00000270: 6e22 993e b8d2 843e ae8f 93be 3084 86be
00000280: 92e9 2c3d 04aa 133e 054d 4d3e 3092 17be
00000290: d214 cdbc 5022 53be f4ab 973c 14dd 403e
000002a0: 69c8 6bbd a238 a63d 0f3f c9bd 285f 5c3d
000002b0: 26d8 243c 7330 94bc c86b c5bb 2c23 9f3d
000002c0: 67e3 343e dbcf a73d ecda df3d 2be3 2abe
000002d0: 0971 193e 0906 53bd 791c 113e ddc7 513d
000002e0: 8078 13be 222e 123e 7a63 8d3e c0f5 0e3e
000002f0: b213 763e c9c4 503e b079 2fbe 93f6 72be
00000300: 3590 003e 2a30 393e f7f6 703e 268b 013e
00000310: eed1 5a3e 4503 363d 8a9b 7b3c e29a 49be
00000320: e8f9 28be a43d f33d f032 803e 2538 d63d
00000330: e21f 283e 7966 a43e 7ce3 05be 64b7 05be
00000340: afa1 41be 0d12 57be 133d 9cbe e751 0d3e
00000350: 1916 6dbe f03f 393e f91b 14be 84a2 fa3b
00000360: 0237 9a3d 24fb 83bd 401b dc3c 923f efbc
00000370: b887 a2bd 1653 0dbd 5850 b93d f308 b13d
00000380: f452 f83d 2172 d33d e7a6 183e acb6 2abe
00000390: 2cba 973d 1814 b2bd 4294 df3c 3790 71bb
000003a0: 3264 75be fece 12be bd65 31bd 8302 023f
000003b0: c9ea 5f3c 7ddd 643e 7b01 79bd 794f 56bd
000003c0: 7fb5 793d 8e74 4c3e 03ca e33c 3ea8 2fbe
000003d0: da91 c73c b123 e5bd 7a39 183d 7fb2 86bd
000003e0: 475c 31be 98db 8d3d ca00 febd 6276 d53e
000003f0: 9b10 043e f20b ba3e ed56 27bd 40da 2abe
-0.103974625 -0.16477877 -0.2301227 0.16698062 -0.37574452 0.22164872 -0.083352834 0.069296844
0.11499069 -0.06479352 -0.020377867 -0.027084589 -0.06838705 -0.047928806 0.094217815 0.0017569796
0.19201136 0.12183183 0.10237533 -0.05983372 0.1487061 0.12379054 0.1996415 -0.076392435
-0.066409454 -0.0116625875 -0.055150326 0.19902028 0.11929406 0.17760877 -0.014242656 -0.19090946
-0.25500262 -0.20478778 -0.25984076 0.13015743 -0.123591274 0.23083141 -0.20654647 0.12540142
0.09673153 -0.032632887 -0.11673176 -0.06629359 -0.15286557 -0.02097534 0.031577356 0.00031083118
0.10610652 0.02680425 0.14775932 -0.07410692 0.052528415 -0.034113426 0.07407482 -0.094404444
-0.03852387 0.06592448 0.41499326 0.23113135 0.22427832 0.022570875 -0.39753962 -0.17726976
0.0069880816 0.0555192 0.09135511 -0.25730705 -0.03032534 -0.20969927 -0.060314402 0.14906158
0.0011565759 0.12335791 0.28180513 0.06789155 0.021097738 0.057532288 -0.18938138 -0.0008878953
0.12567733 0.26185215 0.13907886 -0.049421392 -0.032450702 -0.118884526 -0.046378277 -0.22236113
-0.20469858 0.04114142 0.1693014 0.3582819 0.11027934 0.2634845 -0.11849551 -0.06274412
-0.21932782 -0.18669148 -0.23919562 0.09721047 -0.20971227 0.20585515 -0.1725562 0.10299134
0.008023873 0.025531018 -0.050450694 -0.036985613 -0.038883947 -0.023175616 0.06095216 0.0065133045
0.16620028 0.16321085 0.09157839 0.087338865 0.15132381 -0.15234497 0.020172555 -0.21522076
-0.14172791 0.17684974 0.3457843 -0.005989521 0.27817485 0.17846881 -0.2778758 -0.20962323
-0.25269488 -0.112211905 -0.1986107 0.19657397 -0.10269242 0.13258113 -0.1834569 0.20226975
0.08000494 0.024351995 -0.13732 -0.08954671 -0.15065525 -0.08238342 0.14421405 0.14615333
0.13370131 0.12480414 0.20014103 -0.23537727 0.11529602 -0.11936601 -0.0012785614 -0.13270842
-0.18000177 0.21981041 0.163598 -0.15523508 0.2990908 0.25942016 -0.28820556 -0.26272726
0.042214938 0.14420325 0.20048912 -0.1480186 -0.025034342 -0.20618558 0.01851461 0.18834335
-0.057564173 0.081162706 -0.098264806 0.053801686 0.010061299 -0.018089509 -0.0060248114 0.077703804
0.17664872 0.08193942 0.10930428 -0.1668822 0.14984526 -0.051519427 0.14171018 0.051215995
-0.14401436 0.14275411 0.27614957 0.13960934 0.2403095 0.20387568 -0.17136264 -0.23726873
0.1255501 0.1808478 0.2353171 0.12650737 0.21369144 0.04443671 0.015356908 -0.1968799
-0.16501582 0.118769914 0.25038862 0.104599275 0.16418412 0.3210943 -0.1307506 -0.13058239
-0.18909334 -0.2100298 -0.30515346 0.13800775 -0.23152961 0.18090796 -0.14463796 0.007648768
0.07530023 -0.06444386 0.026868463 -0.029205117 -0.079360425 -0.034503065 0.090485275 0.08644285
0.12125197 0.10324503 0.14907418 -0.16671246 0.07408556 -0.08695239 0.027292375 -0.003685964
-0.23964003 -0.14336774 -0.043309916 0.5078508 0.013666817 0.22350116 -0.060792428 -0.052321885
0.060964104 0.19966337 0.027806288 -0.17154023 0.02436154 -0.11188448 0.03716419 -0.06577014
-0.17320357 0.0692665 -0.12402494 0.4169188 0.1289696 0.3633724 -0.040854383 -0.16684818

bias f4 [64]
00000000: 8afa b6be 93db 413e 7555 a2be e66a 69bb
00000010: a32f d9be aa60 51bd 73f1 a4be 826a 003e
00000020: b969 b3be 3e99 30bc 74f7 abbd 3d1a 65bd
00000030: 4a07 15be 110f 26be fc6c 9fbe a511 9dbe
00000040: f68e 2abe 6936 a73d c60b d83b 0433 d3be
00000050: 984e 86be 6616 01be ed3d 50be ffaf 96be
00000060: 5289 05be ad33 77be e89a d4be fbd0 4cbe
00000070: 0086 22b9 498c 82be 1d22 81be a404 ecbc
00000080: 4ba1 a63c bf31 b73d 32f0 e3bd 903b 513e
00000090: 8f08 e0be 5099 84be c1ec cbbd 0877 cabe
000000a0: 9edb 46be b87c eb3d 2a24 37ba 9239 b0be
000000b0: 94ae 4b3d 7d16 e4be d868 e9be 1d5c a0be
000000c0: a273 8abe 0529 b8be b9e2 d2be 74bd 05be
000000d0: ccf9 c4bd ea49 a7be 6d88 1ebe a052 12bd
000000e0: 36f7 663d 8142 1dbe a5ad bbbe 2c17 2c3e
000000f0: f3d4 dbbc 2656 75bd 6d7e b6be ea14 87be
-0.3573802 0.18931417 -0.31705824 -0.0035616695 -0.42419156 -0.051117577 -0.3221546 0.1254063
-0.35041597 -0.010778723 -0.08396807 -0.055933226 -0.14553562 -0.16216685 -0.31137836 -0.30677524
-0.16656098 0.08164675 0.0065932004 -0.4124986 -0.26231837 -0.126062 -0.20336123 -0.2943115
-0.13040665 -0.24140806 -0.41524434 -0.20001595 -0.00015499443 -0.25497654 -0.2522134 -0.028810807
0.020340582 0.08945035 -0.11129798 0.20432878 -0.4375653 -0.25898218 -0.099572666 -0.3954394
-0.19419715 0.114983976 -0.0006986285 -0.34418923 0.049727038 -0.44548407 -0.45587802 -0.31320277
-0.27041346 -0.35968795 -0.411886 -0.13060552 -0.096179575 -0.3267358 -0.1548173 -0.03572333
0.056388102 -0.153574 -0.36655918 0.16805714 -0.02683494 -0.05989661 -0.3564333 -0.26383144

weight f4 [16, 64]
00000000: 693a 83be a26b bd3d baec fabd 3329 c63d
00000010: 2439 eb3b 3382 cc3d d691 b1bd 493e d13d
00000020: 13e8 36be ce44 1e3e 5b17 1bbd 7b64 c33d
00000030: 4a25 b53d 0c2d 26bd 32eb 1d3e d235 b23d
00000040: 1f17 bdbd 8590 5abc f7f6 283e f846 883c
00000050: f4c2 073e 14a6 573d 8926 633e 3185 833e
00000060: 106e 6c3e 2240 02bd 8ad4 de3d 6e66 493d
00000070: c007 b63d aeaf 6ebe ada2 973c 4b3c d23d
00000080: 2dd6 293c fd6b 3d3d 0018 8a3c 3d1b 753b
00000090: 4f69 24be 6aaa cebd f566 cb3d 32cc 73be
000000a0: 3614 2dbc 5646 ecbc c2a4 803d 866b e5bd
000000b0: 9f40 eb3d bd9d 47be 5d8a d1bd f479 08be
000000c0: 0704 24bc b180 b8be 515f 8dbe 5891 c5bd
000000d0: 9239 f4bd 5461 debd 6390 2fbd 0c43 423e
000000e0: 4bcb 313e 6a50 543e 9e03 9cbe 6e14 403e
000000f0: 13df c93d 3992 19bd ae6c 5dbe b921 893e
00000100: 6c39 7d3d 4d8d 82be 59ec 3b3d 21da 06be
00000110: 3720 34be 4b89 06be 316f e43d d844 06be
00000120: 1c26 8b3c 7bcd 6fbd efdb 5ebd 8acb eabd
00000130: a6af 99bd b507 0b3d 7663 dcbd 7f6d c63c
00000140: 2492 553c 08e4 3ebe 2c4a 00be 0949 5dbd
00000150: 8b08 10be 948e 8abd 0fde ffbd d696 febd
00000160: 30f4 28be 8eff a23c e3e6 eabd 39a1 18be
00000170: 481b 8cbe 77a1 2c3d 0e03 7bbd bd87 8bbd
00000180: be00 f6bd 1af2 47be 4891 43be bee8 4fbe
00000190: 895f b23d 987b ffbd 2530 31be 655d c83d
000001a0: 7655 4ebe 39ca 3cbe ff8d 26be bf7b 403d
000001b0: 5421 26be a891 d43d 0e4e f73c 0c68 8c3d
000001c0: 9c51 3e3d de71 193d 7555 7d3d a6ba bf3c
000001d0: d15f a73d 18e0 bd3d d239 ffbd 65a5 0abe
000001e0: 98c4 61be 3281 fbbc adeb f43d d1f9 3ebe
000001f0: 98cb 93be 85fa e3bd 563e 213d aba0 22bd
00000200: 82ba 80be 95d5 063e 6dfd 3b3d 34f0 993c
00000210: a59f b83d 90a5 013e fe80 1fbe 36fa d53d
00000220: fa8f 05bd 7722 1a3e 31d1 973c f1f9 fe3d
00000230: df15 493d 3091 85bc 89d8 9e3d 8330 7d3d
00000240: 7b12 183d 9d45 123e 85e1 2d3e 951f f0bd
00000250: 679b a83d 5a79 8a3d 85ff 313e 3978 2f3e
00000260: 8586 8e3d 041d 52bd 8782 243e d7da f1bd
00000270: 4b5b 283e 5f30 59bc 78c4 c53b 16cc 243d
00000280: 7eb3 193e 6f09 df3c ea76 5c3d 63e3 583d
00000290: bc7e 0fbe 4a14 07bd 0b16 d63d 40b3 b7bd
000002a0: acaa bb3d 4730 343d 51f9 af3d 7766 20be
000002b0: b803 40bd fa07 42be 0d4c 5dbe 668a c1bd
000002c0: 70c5 5ebe 6fe5 08bd 4fae 62be 409d ab3c
000002d0: 120a 07be d63a 70be d74a bbbd 42ac 6f3e
000002e0: a8c1 803d 2774 943d f871 f8bd bef1 e03d
000002f0: 4e78 2f3d 5ccf ac3d 9a25 cdbd b579 503e
00000300: de57 9cbd e659 73bd af21 67be f8ff 72bb
00000310: a668 8a3d 14e0 3c3d 1604 e2bd f37e 1bbd
00000320: f4c0 44be 097e 963d f26d 08bd 6765 0a3e
00000330: d6b6 9e3d 33ae 4cbe c8cd 063d 5ea8 d73d
00000340: 6710 64bd f53c 063e 9ff6 233e 6fd9 1bbc
00000350: 75f5 e93d e0da 4fbc 90c9 6cbd 1cc8 453e
00000360: 5f12 143e 1793 dfbd 4d16 f63c fa52 9c3d
00000370: 81c9 d83d b7fe 23be 790f 1cbe b66e f23d
00000380: afcb f9bd 77e7 1b3d a0b6 053e cc19 0c3d
00000390: 3e60 74be 2bdf 39bd b0b1 163e cd60 3fbe
000003a0: 11a6 13bc 8665 df3c 4f7f 2a3d ee13 0bbe
000003b0: 5151 003e 3519 35be 3364 5dbd d66c f5bd
000003c0: 38f2 8bbd 927b a5be 240b e0be 3f3e b5bd
000003d0: cb1a 79be b301 0abe 5f5d 31bd 9f8c 2c3e
000003e0: 2dfd 0c3e ed50 df3d a6e4 2bbe 4d08 a73d
000003f0: 681c 133d 7f51 ae3d cf10 94be 81fe 703e
-0.256305 0.09249045 -0.12252183 0.09675827 0.0071784426 0.09985771 -0.08670394 0.10216958
-0.17861967 0.15455934 -0.03786407 0.095406495 0.08845003 -0.040570304 0.15421751 0.08701672
-0.092329256 -0.01334012 0.1650046 0.016635403 0.13257962 0.05264862 0.22182669 0.25687554
0.2308886 -0.031799443 0.10880382 0.04916995 0.08888197 -0.23309204 0.018510187 0.10265406
0.010366005 0.046245564 0.016857147 0.0037400268 -0.16055797 -0.10091098 0.09931747 -0.23808363
-0.010563901 -0.028842133 0.06281425 -0.11202149 0.11486935 -0.19493766 -0.10231469 -0.13327771
-0.010010726 -0.36035684 -0.27611783 -0.09646863 -0.11925043 -0.108584076 -0.042862307 0.18970889
0.17362706 0.207338 -0.3047151 0.18757793 0.09857001 -0.037492964 -0.2162349 0.2678354
0.06182234 -0.2549843 0.045879696 -0.13169147 -0.17590414 -0.1313831 0.111540206 -0.131122
0.016985945 -0.05854557 -0.054408964 -0.11464603 -0.075042054 0.033942897 -0.10761158 0.024222134
0.013035331 -0.18641675 -0.12528294 -0.05402473 -0.14065759 -0.06765476 -0.12493526 -0.124311134
-0.164994 0.019897249 -0.114698194 -0.14905252 -0.27364564 0.042146172 -0.06128221 -0.068129994
-0.1201186 -0.19525948 -0.19098389 -0.20303628 0.08709628 -0.124747455 -0.17303522 0.097834386
-0.20149788 -0.18436517 -0.16265105 0.046993013 -0.16223651 0.10379344 0.030188587 0.06855783
0.046464548 0.037462108 0.061849076 0.02340443 0.081725724 0.09271258 -0.124622 -0.13539656
-0.22047651 -0.030701254 0.11959014 -0.18649985 -0.28866267 -0.11131767 0.03936609 -0.039704006
-0.25142294 0.13167413 0.045895983 0.018791296 0.09014825 0.12660813 -0.1557655 0.104481146
-0.03260801 0.1505221 0.018532367 0.12450016 0.049093124 -0.016304582 0.077561446 0.061813843
0.037127 0.14284368 0.1698056 -0.11724774 0.08232766 0.06761427 0.17382629 0.17135705
0.06959251 -0.051297203 0.16065417 -0.118093185 0.16441076 -0.0132561615 0.006035384 0.040233694
0.15009877 0.027226178 0.053824343 0.052951228 -0.14013189 -0.032978334 0.10453423 -0.08969736
0.091634125 0.043991353 0.08592475 -0.15664087 -0.046878546 -0.18948355 -0.21611042 -0.094502255
-0.21755004 -0.03342193 -0.22136806 0.020949006 -0.13187435 -0.23459944 -0.09145134 0.23405555
0.06286937 0.07248717 -0.12131113 0.10983609 0.04283934 0.08437988 -0.100169376 0.20358928
-0.07633947 -0.059411906 -0.22571443 -0.0037078839 0.06758241 0.046112135 -0.110359356 -0.037962865
-0.19214231 0.07348258 -0.033307977 0.13515244 0.07749717 -0.19988327 0.032911092 0.1053016
-0.055679705 0.13109191 0.16012047 -0.009512289 0.1142377 -0.012686461 -0.057809412 0.19314617
0.14460133 -0.10916727 0.03003993 0.07633014 0.10585309 -0.16015135 -0.15240277 0.11837523
-0.12197053 0.03806254 0.13057947 0.03420429 -0.23864838 -0.045378845 0.1471622 -0.1868927
-0.009011761 0.02727009 0.041625317 -0.13581821 0.1253102 -0.17685397 -0.054050636 -0.119836494
-0.06833309 -0.3232084 -0.437585 -0.08849763 -0.24326627 -0.1347721 -0.043301936 0.16850518
0.13768454 0.10904107 -0.16786441 0.0815588 0.035915762 0.08511638 -0.28919074 0.23534586

bias f4 [16]
00000000: cd63 603d 0379 09be 860c 21bd f128 ddbd
00000010: 8458 c93d db3e c3bd 5e75 4ebe 091a cfbd
00000020: 5766 14be 3f45 893d e75c 29bd 6f31 a23d
00000030: 40cb 70bb bba8 8b3c 72f0 753d 66b7 4abe
0.054782677 -0.13425069 -0.039318584 -0.107988246 0.09831336 -0.09533473 -0.2016196 -0.10112388
-0.14492165 0.06702661 -0.041348364 0.07919585 -0.003674224 0.01704823 0.06004376 -0.19796523

weight f4 [8, 16]
00000000: 4d38 303e d75a 2ebe 244f 123e 7b6b 373e
00000010: cbc9 e63d 09eb 6f3e fa9c 81be 2af1 40be
00000020: 504d c83d a2c1 cc3d 250c 553e bffc c03d
00000030: b6b4 2e3e 5677 e23d 35d2 533e 83f9 39be
00000040: dfba 3bbe 3e13 0c3e 8202 96bd dd19 9dbd
00000050: 67cd e7bd bc4d 6cbe 2dde ed3d 911e f83d
00000060: 15c4 40be b521 94bd 097f 4cbe 3241 f8bd
00000070: 0dca f1bd a677 a9bd c68b 0abe df42 f43d
00000080: a661 e2bd afa5 e23d 861d 19be 52e4 8bbe
00000090: e6ca 0cbd 7451 59bd bb9d d03d 65ac 893d
000000a0: 701a 35bd f6db 09bd dc2d 6fbe 6dc0 403b
000000b0: 36cc 27be 472b a3bd ab5b 04be a4f9 b53d
000000c0: 9ec9 f43d 9b12 d4bd a49e 0b3e fa84 533e
000000d0: a5f8 b33d b270 0c3e 9b6e 0ebe 694f f1bd
000000e0: 508e 363e 1fba 393d 730c 2e3e f46c 893d
000000f0: e028 6f3e dc52 9e3d e00d a93d 50a0 c8bd
00000100: fda2 673e 505b 13be 4894 1c3d 465a 09bd
00000110: dcc5 cf3d 64b5 dd3d 7014 38be 52f7 44be
00000120: 353d a13e be32 183e af07 943e 504b 1c3e
00000130: 3556 7a3e 06f8 d43d 31a8 8d3d 1d4d 5dbe
00000140: e619 6dbd cb98 173e e480 ffbd f5c2 94be
00000150: 8497 97bd 8981 49be 8405 013e 4da0 f43d
00000160: aa7d 46be 2b5a b0bd ae58 c4bd 99cf e0bd
00000170: 7ded bdbd 79b9 febd b0a5 ccbd 1b90 203e
00000180: 27ba c0bd 70a1 a93d b8d8 29be 5ea9 0dbe
00000190: 5d0c a5bd 5fa7 44be 6567 c13d e5c3 853d
000001a0: 2113 9fbe 3f4e e3bd 6cfa 6abe 71e3 e7bd
000001b0: 29cb 13be 56dd 24be 4c87 ebbd fa0a bf3d
000001c0: 7c02 38be 9475 f93d fb68 0cbe 9cc8 94be
000001d0: a123 5ebd d607 46be 14d7 1a3e 1d97 ed3d
000001e0: cc56 37be 7e4f cdbd efaa e5bd f04f 72bd
000001f0: 43fb 01be d4c0 33bd cb9e 6abd 7094 cd3d
0.17208977 -0.1702684 0.14288002 0.17912094 0.11268958 0.23429503 -0.25315076 -0.18841997
0.09780371 0.0999787 0.20805414 0.094232075 0.17061123 0.11057918 0.20685656 -0.18161587
-0.18333004 0.13679215 -0.07324697 -0.07670949 -0.11318474 -0.23076528 0.11614642 0.12115205
-0.188248 -0.072329916 -0.19970335 -0.1212181 -0.11806116 -0.08274774 -0.13529882 0.11926817
-0.11053781 0.11066758 -0.14952669 -0.27322632 -0.034373187 -0.053056195 0.10186335 0.06722335
-0.044214666 -0.033657037 -0.23357338 0.002941157 -0.16386494 -0.07967239 -0.12925594 0.08885506
0.11952518 -0.10355111 0.13634735 0.20656195 0.087876596 0.13714865 -0.1390938 -0.117827244
0.17827725 0.045343515 0.16996937 0.06710234 0.23355436 0.07730648 0.082545996 -0.09796202
0.22620769 -0.14390302 0.03822735 -0.033533357 0.101451606 0.10825613 -0.17976546 -0.1923497
0.3149201 0.14863107 0.28912112 0.15263104 0.24446948 0.10398869 0.069168456 -0.21611448
-0.057886027 0.1480438 -0.12475756 -0.2905499 -0.07401946 -0.1967832 0.1259976 0.119446374
-0.19383875 -0.08610948 -0.09587227 -0.10977096 -0.09273813 -0.1243772 -0.0999254 0.15679972
-0.09410506 0.08282745 -0.16586578 -0.1383414 -0.08058999 -0.19204472 0.09443549 0.065315045
-0.31069282 -0.11098909 -0.22947091 -0.11322678 -0.14432968 -0.16100058 -0.11500415 0.093282655
-0.17969698 0.121806294 -0.13711922 -0.29059303 -0.054233197 -0.19338927 0.15121108 0.11601088
-0.17904204 -0.100249276 -0.112142436 -0.059158266 -0.12693505 -0.043885067 -0.057280343 0.10038078

bias f4 [8]
00000000: 5ce1 4dbc 7fd0 a63c 176a da3c 919c f7bc
00000010: d38c ebbc defb 983c d759 093d 9147 173d
-0.012565937 0.02036309 0.026661916 -0.030226024 -0.028753674 0.018674787 0.033532944 0.036933485

weight f4 [16, 16]
00000000: 9e09 9f3e c512 dfbe a836 18bf d2f7 483f
00000010: effd d23e 5953 6dbd b154 4c3e b862 acbd
00000020: 120f 15bc 6e7c 093d 0f79 0dbd 629c d4bc
00000030: 91b8 663d c8eb 9d3d 69ee 7d3d 1525 a0bb
00000040: 2155 2abb 7b26 17bd 0d11 3ebd b377 eabc
00000050: 3264 05bd 1708 1fbe 765a 43be c1b1 5a3e
00000060: 3481 05be e0d0 ad3e b955 a7be bee5 263e
00000070: 9971 ae3c 2409 c43c 6483 503c 02a6 81be
00000080: c60b ae3e 81de 5abe 7755 473c d38a f5be
00000090: 4874 ba3e 7a09 a7bc 8f13 6abe 509d f0be
000000a0: 021c 0dbd 11bc 3fbb 7e78 293d a27e 8cbc
000000b0: 7aca 72bd 708a 9c3d 4376 abbd 0ab8 5ebd
000000c0: 5b6a 24be 5849 81be d6c6 8abe 240d 94be
000000d0: c0a5 673e ff97 b93d 922e 8d3d 0229 fd3d
000000e0: a00c 91be 3407 4b3e c985 993e dcd7 a4be
000000f0: a9cf a9be cc15 cb3e 0f3c 6b3e 1811 613e
00000100: aeae cf3e 6c55 9d3d 1b9e 873e c35f 3cbe
00000110: 7d3c 8e3e 9c30 f33e dfb9 2cbc 85db de3d
00000120: b174 f3ba 5f7a f4bd 5d84 cbbd 215c e63d
00000130: 455e 783d cfa2 203e 390c ebbc 4535 7e3e
00000140: 0120 183d 8f64 0d3f 8ac0 863b 80bd 173f
00000150: bbc1 9abe 6a3c eb3e a363 52be 1cc7 143f
00000160: 592d 02bd 8a1f 7d3b 7de7 cd3c 9eeb febc
00000170: 24d3 94bd 7d6b 8b3d 7b06 1bbc 2f57 de3b
00000180: 5bf8 f2bd f9e3 37be a8fc 89be 633e 86be
00000190: f0e9 0c3d f619 ccbe c6ef ae3e 88bd 86be
000001a0: 83d9 0a3e 31dc c9bd 66ec 38bd 42d6 043d
000001b0: 0887 0abe 2db7 e5bd 9476 f23d 8a6a 95bc
000001c0: 5a8b 94be f67f 353e 0cd0 953d 7a13 b7be
000001d0: f5d3 bfbe 0281 6cbd 53b4 a03d ea78 1d3e
000001e0: 6cb9 86be f1d5 fabd 076a f23d aea2 e13d
000001f0: 38f3 e43c e16e 78bc 9389 8a3d 67c4 08be
00000200: 95ae c2be 0d65 cb3e b640 de3e 13e2 1ebf
00000210: 4eae f8be 16af afbb 2d32 7b3d f669 22be
00000220: 2fee 753d 4246 143d a8b5 73bd f41f 1ebd
00000230: 1f53 373d 2faf c93d 08ed 093d b12a 433c
00000240: 092a bebd 3b67 9f3c c1b7 96be bf3b 4d3e
00000250: 777d a4be b695 43be 5426 8abc 117f a93d
00000260: c2c3 343d e437 aabd e5e8 323e 7ce5 113e
00000270: 8d6d c4bd bc55 64bd 280f a0b8 de99 763d
00000280: ceb5 2bbe d317 2ebe cea5 a9be ec44 a93e
00000290: f8ce 623e 53c6 b9bd 0477 373e 9c8e 573d
000002a0: 8ab7 973e 83db afbe 52af 00be ebe5 913e
000002b0: 24b0 123e 18d6 dbbc 6bc3 67bd 712f 18be
000002c0: 5e56 c33d f460 543d 7b2b 29bd 5393 fdbc
000002d0: ef0e 333e b1c3 0e3e a1c7 653c 002e 42bd
000002e0: b3b8 293d 0074 a2bd 1e2b 7d3e 2a40 5cbe
000002f0: f1cd 813e c926 eabd 9be5 2cbc 4548 87bd
00000300: 1e81 593d 2dd0 033e 2634 803e 7c4a 2dbe
00000310: 8efc febd aacf abbd 684c 1abe fb41 02be
00000320: 15ad 84be 2264 bb3e 482a a03e 82cd 8abe
00000330: 227a 71be 529a b23e 7822 a53e 0671 983e
00000340: 1afb 823d 33e6 533e 59ca 453d 09ef 483e
00000350: c38d 703c b007 bebc 4d5c f8bc 6a1b 0dbe
00000360: 0846 c1be d9cb eb3e 7fba 8b3e 069b edbe
00000370: b9e3 b4be 6abd d53e e55e 193f fce7 e53e
00000380: abf3 b33e 04d0 34be 2de5 00be 7168 2fbd
00000390: 8636 cabe 5876 0ebe 49b2 c1be 735f 603d
000003a0: a429 49bd 696b 9f3d 99bd db3d b41a efbd
000003b0: ace0 0d3e 2d8d 86be 86b7 103b 9ba9 7bbd
000003c0: 5978 aebe 57e4 933e 37f0 8f3d 3877 253e
000003d0: 4da4 a23e 8929 993d fee7 123f 9a34 8ebe
000003e0: 19b9 18be d1c8 3d3d 6495 1bbe 6899 0ebe
000003f0: 6af4 f2bd 252f 7ebe 44a7 27be b8bb f93d
0.31062025 -0.43569008 -0.594584 0.78503144 0.4120936 -0.057940815 0.19954182 -0.084172666
-0.009097831 0.03356593 -0.03453928 -0.025953475 0.05632836 0.07710987 0.061994944 -0.004887233
-0.0025990682 -0.036901932 -0.04640298 -0.02862153 -0.032566257 -0.1553043 -0.19077477 0.2135687
-0.13037568 0.3394842 -0.3268259 0.16298577 0.021294402 0.02393014 0.0127266385 -0.25321966
0.33993357 -0.21373941 0.0121663725 -0.47957477 0.3641684 -0.020390261 -0.22859024 -0.4699502
-0.03445054 -0.0029256383 0.041374676 -0.017150227 -0.059275128 0.07643592 -0.08372166 -0.054374732
-0.16056196 -0.2525127 -0.27104825 -0.28916276 0.22621822 0.09062194 0.06893648 0.12361337
-0.28329945 0.19826967 0.29984882 -0.32195938 -0.33166245 0.39665067 0.2297213 0.21979177
0.40562958 0.076823086 0.26487812 -0.18395905 0.27780524 0.47498024 -0.010542362 0.10881714
-0.0018574205 -0.11937403 -0.09937356 0.11248041 0.060636777 0.15687107 -0.028692352 0.24825008
0.037139896 0.55231565 0.004112308 0.5927353 -0.3022593 0.4594453 -0.20545821 0.58116317
-0.03178153 0.0038623535 0.025134796 -0.03111821 -0.072668344 0.06807611 -0.009461994 0.0067852954
-0.11863776 -0.17958058 -0.26950574 -0.26219472 0.034402788 -0.39863557 0.34167308 -0.26316476
0.13559537 -0.09856451 -0.045147322 0.032430895 -0.13528073 -0.11216579 0.11839023 -0.018239278
-0.29012567 0.17724594 0.073150724 -0.35757047 -0.37466398 -0.05774022 0.07846894 0.15378156
-0.2631334 -0.12247837 0.11836629 0.11017357 0.027948007 -0.015163154 0.067645214 -0.13356172
-0.3802382 0.39725533 0.43408746 -0.6206371 -0.48570484 -0.005361448 0.06132715 -0.15860733
0.060041603 0.036199816 -0.059499413 -0.03860469 0.044757005 0.09847867 0.033673316 0.011912034
-0.09285361 0.019458404 -0.29437068 0.20042323 -0.32126972 -0.19100079 -0.01686398 0.08276189
0.044132 -0.083114415 0.17471655 0.14247698 -0.09591208 -0.055745825 -7.6322176e-05 0.060205333
-0.16768572 -0.17001276 -0.3313431 0.33060396 0.22149265 -0.090710305 0.17916495 0.052626237
0.29632217 -0.34347162 -0.1256688 0.28495726 0.14325005 -0.026835486 -0.05658285 -0.14861847
0.095379576 0.051850274 -0.04130123 -0.030954039 0.17486165 0.13941838 0.014024646 -0.04740715
0.04143591 -0.079322815 0.24723479 -0.21508852 0.25352433 -0.11433179 -0.010552789 -0.06605581
0.05310165 0.12872382 0.25039786 -0.16922945 -0.12450515 -0.08389218 -0.15068209 -0.12720482
-0.259133 0.36599833 0.31282258 -0.27109915 -0.23581746 0.34883362 0.3225286 0.2977373
0.0639555 0.20693283 0.048288677 0.19622435 0.014682236 -0.023197025 -0.03031745 -0.13779989
-0.37748742 0.4605396 0.27290723 -0.46407336 -0.3532999 0.41746074 0.5991042 0.44903553
0.3514684 -0.17657477 -0.12587424 -0.042824212 -0.39494723 -0.13912332 -0.37831333 0.054778527
-0.049111977 0.07784159 0.10729522 -0.11675015 0.13855237 -0.26279584 0.0022082045 -0.061441045
-0.34076193 0.28885147 0.07028239 0.1615876 0.31765977 0.07478625 0.5738524 -0.27774507
-0.14914359 0.04633409 -0.15193707 -0.13925707 -0.118630245 -0.24822672 -0.163724 0.12194008

bias f4 [16]
00000000: 9403 46bb 005d 6c3e d586 94bc faee 4e3e
00000010: 7995 8d3d 8816 29bd 4f26 9f3c 7739 4dbd
00000020: 72e3 76bc a917 8a3f 80c3 243e 65a8 343f
00000030: b5ca fd3e 96f9 cb3e 1217 a4bb 6369 d0bc
-0.0030214535 0.23082352 -0.0181307 0.2020835 0.06913275 -0.041281253 0.019427447 -0.05010363
-0.015068876 1.078847 0.16090202 0.7056945 0.49568716 0.39838856 -0.005007633 -0.025440877
