models/NeuMF16.pt (torch, 354994 bytes, 16 tensors)

weight f4 [944, 16]
-1.027725 0.69175285 -0.12646203 0.6782941 2.328078 -0.83331776 -0.8854062 1.7442571
0.75681096 -1.575743 -0.5819013 0.75643146 0.9058326 -1.5770456 1.0693277 -0.7863878
-0.25580975 -0.052809346 -0.9147718 -0.91168004 1.5465993 -2.368163 1.4329998 0.9241396
0.31627622 0.74511105 0.12193913 -2.2478015 -1.8091986 0.89171314 1.5107802 0.66113603
1.5411421 0.18714619 0.14917937 -1.3838534 -0.2572317 0.13731726 0.13217022 0.041586336
-0.9321093 0.13096449 -2.3462586 -1.0290214 -0.8666522 -3.1926072 0.2770226 -0.18115568
0.5805013 -0.035680972 -0.09181912 0.3256929 1.4648299 2.375596 0.8021858 1.2623749
0.4997767 -1.5576535 -0.6021717 -0.5806771 0.85069567 0.88072264 1.4380985 -1.3047557
-1.3063743 1.6197661 -1.2259434 -0.22134538 -0.8227333 -1.1760865 -1.3137118 0.2783046
2.02234 -1.3462967 0.8793168 -0.51203877 -0.34909815 0.6616537 0.084310584 -1.1847616
-0.23291819 0.92796546 0.12899224 1.5316517 -2.2214334 -0.6858305 0.32550928 -0.44571418
0.43130216 -0.18406263 -0.77752626 0.5759132 -1.3745781 -0.33798692 -0.5192558 -1.8867029
-0.38299096 -0.52179855 -0.83413064 0.014335351 -0.5348989 -0.015948527 -0.014784825 -1.2059981
0.8228264 -1.8973739 -1.4135652 2.0023866 0.020370157 -0.5877961 -1.039847 -0.3712464
1.2421567 1.5420932 0.63539195 -1.41652 -1.7862107 0.077864416 -0.17382585 0.78319407
0.20486428 0.40580797 -0.29329157 0.82828516 -0.7067497 -0.37409636 -0.5369558 1.167352
-2.9545498 -0.31617388 -0.15362616 -0.06542989 1.7219205 -0.2620654 -0.9534613 2.0319748
-0.292084 -2.004703 -0.38271457 1.4242028 -0.29389742 0.81213117 -0.7800785 -0.09210574
0.95043385 -1.6340964 1.2653822 0.0971179 1.4507133 -1.0228807 -0.31940284 1.3683909
-0.8257393 1.1798352 0.15932074 2.5651324 -0.74613637 1.2617311 -1.3674982 0.6466245
-1.2137964 -0.9718465 0.21106865 0.49641305 -0.687847 1.1749828 0.36205336 0.106004
-0.36561108 1.1749979 0.64061886 -0.6971173 0.5134721 0.2933718 1.0414606 1.3185985
-0.28077313 -0.45242906 1.5446435 -0.08535059 0.22034834 0.48683488 -0.90757173 1.1867934
-0.38451266 0.45643824 -1.0042636 0.003652238 2.1780956 -0.45217434 1.2298611 -0.3968027
-1.0343839 0.11465692 0.7469412 -2.1525447 -0.2057001 0.70770854 1.5392945 -1.4819858
-0.16024639 1.4396799 -0.9499655 -1.3519759 -1.3365631 0.6515102 1.2066735 0.94098306
-0.51881474 2.4830413 1.1653689 -0.07446989 -0.1775728 0.74667937 0.41294178 -0.6130329
0.8351753 -1.8281218 -0.33078766 0.82610136 -0.7684634 -0.23801316 -0.5024294 -0.87458736
-0.53917015 -0.17749138 1.1228596 -0.426762 -2.097207 0.71922415 0.8267305 -1.2495044
-0.708526 0.03274221 -0.30891433 -0.00013458278 0.8824151 0.5112285 -0.13177268 0.48990154
-0.0017339798 -0.6407486 -1.2552704 -0.01413937 -0.9559628 1.6578736 0.98418665 1.1316661
1.4806918 0.6446812 -0.26778847 0.43230295 -0.9659147 -2.4714448 0.9132212 1.8475438
00000000: 7e8c 83bf b716 313f 437f 01be afa4 2d3f
00000010: 3bff 1440 5054 55bf fba9 62bf d143 df3f
00000020: 5dbe 413f f2b1 c9bf 7cf7 14bf 7ea5 413f
00000030: a5e4 673f a1dc c9bf bbdf 883f b650 49bf
00000040: 7ff9 82be 9d4e 58bd 7c2e 6abf dd63 69bf
00000050: f7f6 c53f fc8f 17c0 8a6c b73f 6a94 6c3f
00000060: f5ee a13e 99bf 3e3f 39bb f93d fbdb 0fc0
00000070: d293 e7bf 5047 643f 3f61 c13f 3640 293f
00000080: 2544 c53f 40a3 3f3e 7ac2 183e 1c22 b1bf
00000090: e0b3 83be e59c 0c3e a157 073e 6f56 2a3d
000000a0: b79e 6ebf 8e1b 063e 1a29 16c0 f9b6 83bf
000000b0: ebdc 5dbf ad53 4cc0 e8d5 8d3e e080 39be
000000c0: bc9b 143f 3626 12bd aa0b bcbd 38c1 a63e
000000d0: 8c7f bb3f c409 1840 0c5c 4d3f 8095 a13f
000000e0: bbe2 ff3e 3161 c7bf ed27 1abf 41a7 14bf
000000f0: 31c7 593f 0a77 613f 9d13 b83f 3c02 a7bf
00000100: 4637 a7bf 7f54 cf3f b7eb 9cbf 5da8 62be
00000110: a69e 52bf 018a 96bf b527 a8bf f17d 8e3e
00000120: 056e 0140 7353 acbf e81a 613f f914 03bf
00000130: febc b2be 2362 293f 07ab ac3d 45a6 97bf
00000140: 1b82 6ebe 258f 6d3f 8b16 043e 2a0d c43f
00000150: f72b 0ec0 9692 2fbf 27a9 a63e a634 e4be
00000160: a3d3 dc3e ea7a 3cbe f60b 47bf 0c6f 133f
00000170: 2df2 afbf 9f0c adbe f3ed 04bf 7b7f f1bf
00000180: 6417 c4be 9794 05bf 9689 55bf d2de 6a3c
00000190: 22ef 08bf 7ca6 82bc 0d3c 72bc 255e 9abf
000001a0: c0a4 523f 26dd f2bf b4ef b4bf 1a27 0040
000001b0: 51df a63c ce79 16bf b519 85bf 0214 bebe
000001c0: fefe 9e3f 4f63 c53f 0ca9 223f 8750 b5bf
000001d0: 8da2 e4bf 6177 9f3d 67ff 31be 687f 483f
000001e0: f1c7 513e 10c6 cf3e 502a 96be 7f0a 543f
000001f0: 8ced 34bf 8f89 bfbe ef75 09bf ca6b 953f
00000200: 5817 3dc0 8be1 a1be 2d50 1dbe 1b00 86bd
00000210: e467 dc3f 702d 86be 0a16 74bf e00b 0240
00000220: 098c 95be 0e4d 00c0 2af3 c3be 474c b63f
00000230: b979 96be d4e7 4f3f 39b3 47bf efa1 bcbd
00000240: a24f 733f 122a d1bf 0bf8 a13f c0e5 c63d
00000250: f9b0 b93f c1ed 82bf c588 a3be 6f27 af3f
00000260: a763 53bf d704 973f fa24 233e 212b 2440
00000270: cb02 3fbf 6880 a13f 2e0a afbf 2f89 253f
00000280: ae5d 9bbf efca 78bf 6122 583e da29 fe3e
00000290: be16 30bf d665 963f 0f5f b93e a018 d93d
000002a0: 6031 bbbe 5566 963f 99ff 233f 4876 32bf
000002b0: e872 033f d434 963e 954e 853f d6c7 a83f
000002c0: 7fc1 8fbe c8a4 e7be e1b6 c53f 4acc aebd
000002d0: ffa2 613e 6c42 f93e 9f56 68bf d9e8 973f
000002e0: d8de c4be 46b2 e93e b68b 80bf 635a 6f3b
000002f0: eb65 0b40 6583 e7be 176c 9d3f b929 cbbe
00000300: b166 84bf 3fd1 ea3d 8a37 3f3f 4bc3 09c0
00000310: 0ca3 52be 632c 353f 9a07 c53f b6b1 bdbf
00000320: a117 24be 6e47 b83f f030 73bf 8c0d adbf
00000330: 8014 abbf 5fc9 263f 4774 9a3f 44e4 703f
00000340: 0bd1 04bf 26ea 1e40 cf2a 953f ab83 98bd
00000350: a5d5 35be 6126 3f3f 1b6d d33e b9ef 1cbf
00000360: 0cce 553f e5ff e9bf 005d a9be 617b 533f
00000370: 04ba 44bf b9b9 73be 379f 00bf f5e4 5fbf
00000380: 0e07 0abf 4dc0 35be ddb9 8f3f 8d80 dabe
00000390: a438 06c0 131f 383f 9ca4 533f c3ef 9fbf
000003a0: f661 35bf b21c 063d 052a 9ebe ca1e 0db9
000003b0: f5e5 613f dfdf 023f 6bef 06be 60d4 fa3e
000003c0: b546 e3ba 1a08 24bf b3ac a0bf d1a8 67bc
000003d0: fab9 74bf 3435 d43f a8f3 7b3f 6fda 903f
000003e0: 4f87 bd3f d409 253f 921b 89be d056 dd3e
000003f0: 3046 77bf 272c 1ec0 ddc8 693f 517c ec3f

weight f4 [1683, 16]
1.4389944 0.90515983 0.017481534 -0.53897524 -0.28827414 1.4013087 -0.12002402 0.84885436
-1.924961 -0.4312175 1.2751111 -2.2413695 -0.41639173 -0.52752286 -0.49096903 1.8968548
0.46195364 1.0782286 2.1126232 0.594663 -1.7282083 2.4217925 0.08194355 1.2335507
-3.1515806 0.67925626 0.80802715 0.13972683 0.18729097 -0.98820347 1.3577044 1.9977587
1.5352781 -0.8566228 0.44900307 -2.2334352 -1.2172719 0.02273242 -0.5002607 0.55083525
1.0375657 1.179958 -0.29920056 0.7561517 -0.08103887 1.3416309 -1.2419482 -1.3629913
-0.5711233 -1.1911867 -0.2971648 -0.99637336 -0.3402035 -0.54251915 -0.3906856 0.29724163
0.3479555 -1.361893 -0.68640906 0.68567526 0.11136139 0.18661977 0.09490215 1.8478007
-2.4968967 -0.21908888 1.6532654 1.5915099 1.9791746 0.74087834 1.2281703 -0.49473926
0.96655035 -0.41921413 1.2520515 1.8397918 -1.3428668 1.0631704 -0.4887529 0.93476325
1.9163535 1.1020489 0.16628425 1.0871142 2.4655175 1.0026428 -0.72594 -1.334521
-0.5452047 -0.5700786 -0.19659156 0.20750117 0.64865434 0.15748383 1.7212416 -1.0371329
-0.78317076 -0.6637572 -1.6024292 -0.02471902 0.741446 -1.1097466 -0.09980667 -1.8725373
-1.8676124 -2.3551335 0.905393 0.62437934 1.2845479 0.52970994 -0.3918031 0.66685
-0.6423046 -0.84423494 1.5299919 -0.90608615 -0.025905823 0.13024569 -1.5458444 -0.16030125
-0.922482 -0.7229255 -1.0347567 0.37432918 0.13883892 -0.18248484 -0.43385082 -0.07294709
-0.45525184 -0.049298454 -2.360815 -0.4370914 0.17135914 -1.1468138 0.53724045 0.86020154
1.4744961 0.022979164 -1.5100331 -1.147433 0.00091666833 -0.3036266 -0.56389344 -1.8941044
-1.5485694 1.3186781 -1.4448175 1.3389461 -0.543846 -0.37315473 -0.39654076 -0.10667728
1.7044139 1.6244464 -0.64577365 0.26809144 -1.4788058 0.6683724 1.3797545 -0.56436
0.8282669 3.3586345 -1.1165602 -1.1675868 0.096614935 0.36353648 -0.33637375 0.33777234
-1.220808 -0.3885289 -2.4192035 -1.894013 -1.4441208 1.6595608 1.8055546 -1.3771522
0.35821936 -0.70203805 1.4707413 -0.5637784 0.7831081 -0.30748278 0.0902745 0.3900981
1.5127393 0.054500017 -0.365233 0.37319076 -1.0609528 0.21411012 -0.5238835 -0.871696
-1.2623732 0.22845648 0.08922717 0.17841755 0.4781446 0.3829641 0.91216844 -1.0274674
-0.5028615 -1.4142618 -0.09915528 -0.6158684 -0.39635926 -1.6200908 -2.60395 0.9692625
-0.34174702 -1.1384778 -0.32990664 0.87715185 0.36108303 -0.75103134 0.18916081 -0.7555658
0.30794176 -0.18024202 0.5994121 0.62931454 1.2489829 1.1801888 0.31248742 1.3345609
-0.83203834 -2.664116 -0.18095697 0.056713972 -1.9802988 1.0632315 1.2067382 1.061358
0.5861242 -0.6325696 -2.1571522 -0.48763758 -0.0686525 -1.9648682 -1.3446862 -1.3205761
0.42434552 -1.9103131 -0.025865797 -0.915923 -0.6826348 -0.21836706 -1.0717927 0.7730229
1.7184762 0.0016743595 -0.6749579 -1.7685063 1.257085 -0.33643582 0.53053737 0.5250004
00000000: f830 b83f 8eb8 673f 6f35 8f3c 48fa 09bf
00000010: ab98 93be 155e b33f 27cf f5bd 854e 593f
00000020: 1f65 f6bf 8ac8 dcbe d736 a33f 9972 0fc0
00000030: 4c31 d5be bd0b 07bf 4b60 fbbe 23cc f23f
00000040: 3085 ec3e 6503 8a3f 3835 0740 d63b 183f
00000050: ee35 ddbf a6fe 1a40 05d2 a73d fde4 9d3f
00000060: 7fb3 49c0 bde3 2d3f deda 4e3f 8d14 0f3e
00000070: 34c9 3f3e e7fa 7cbf 42c9 ad3f 8fb6 ff3f
00000080: fe83 c43f a24b 5bbf bbe3 e53e 9af0 0ec0
00000090: 91cf 9bbf 5739 ba3c 1611 00bf 8a03 0d3f
000000a0: f4ce 843f dd08 973f d130 99be 2893 413f
000000b0: b5f7 a5bd 90ba ab3f 29f8 9ebf 8076 aebf
000000c0: 2335 12bf ce78 98bf fc25 98be 5312 7fbf
000000d0: 272f aebe 89e2 0abf f107 c8be 0e30 983e
000000e0: 3927 b23e 8352 aebf 81b8 2fbf 6a88 2f3f
000000f0: 7111 e43d 4119 3f3e 0f5c c23d bc84 ec3f
00000100: 28cd 1fc0 d658 60be 339e d33f 99b6 cb3f
00000110: 9855 fd3f 34aa 3d3f af34 9d3f 774e fdbe
00000120: d86f 773f 3ca3 d6be 3943 a03f 4c7e eb3f
00000130: 0fe3 abbf f815 883f d23d fabe a54c 6f3f
00000140: 124b f53f f00f 8d3f 6b46 2a3e 8f26 8b3f
00000150: 0acb 1d40 9956 803f 34d7 39bf 96d1 aabf
00000160: 8992 0bbf acf0 11bf 4c4f 49be 307b 543e
00000170: 360e 263f 7143 213e a551 dc3f c5c0 84bf
00000180: e17d 48bf feeb 29bf 661c cdbf 8b7f cabc
00000190: 68cf 3d3f 2d0c 8ebf 7067 ccbd 4daf efbf
000001a0: ec0d efbf 82ba 16c0 d6c7 673f 53d7 1f3f
000001b0: 116c a43f 129b 073f 6a9a c8be aeb6 2a3f
000001c0: 136e 24bf c81f 58bf c6d6 c33f 43f5 67bf
000001d0: 7338 d4bc 205f 053e 3bde c5bf 0326 24be
000001e0: c827 6cbf a511 39bf e872 84bf 13a8 bf3e
000001f0: ca2b 0e3e 4edd 3abe b221 debe 4965 95bd
00000200: c516 e9be 2ded 49bd 9817 17c0 72ca dfbe
00000210: c578 2f3e cbca 92bf 9788 093f 2b36 5c3f
00000220: 4abc bc3f cd3e bc3c c448 c1bf 16df 92bf
00000230: 924c 703a f274 9bbe 525b 10bf 0372 f2bf
00000240: 8637 c6bf 72ca a83f c8ef b8bf 9662 ab3f
00000250: 7e39 0bbf 230e bfbe 6407 cbbe 9e79 dabd
00000260: 3c2a da3f dced cf3f 6c51 25bf 4843 893e
00000270: 8249 bdbf 741a 2b3f cc9b b03f e679 10bf
00000280: 4d09 543f def3 5640 72eb 8ebf 7c73 95bf
00000290: 0dde c53d 7421 ba3e 2e39 acbe 7ff0 ac3e
000002a0: 7043 9cbf 43ed c6be 3bd4 1ac0 056f f2bf
000002b0: f3d8 b8bf 7d6c d43f 6a1c e73f 8646 b0bf
000002c0: 8768 b73e c4b8 33bf 4041 bc3f c853 10bf
000002d0: c679 483f 626e 9dbe d6e1 b83d f0ba c73e
000002e0: 71a1 c13f 693b 5f3d d2ff babe dc12 bf3e
000002f0: 4dcd 87bf af3f 5b3e 3b1d 06bf 7827 5fbf
00000300: 7295 a1bf 7ff0 693e bcbc b63d 17b3 363e
00000310: 5ecf f43e df13 c43e df83 693f 0d84 83bf
00000320: 88bb 00bf 8806 b5bf ec11 cbbd 8da9 1dbf
00000330: 9aef cabe 235f cfbf 1ea7 26c0 9621 783f
00000340: 77f9 aebe a4b9 91bf 86e9 a8be 068d 603f
00000350: e0df b83e 9743 40bf 5fb3 413e c36c 41bf
00000360: 8baa 9d3e 5d91 38be 1273 193f c21a 213f
00000370: acde 9f3f 6d10 973f 5afe 9f3e e4d2 aa3f
00000380: 7700 55bf e080 2ac0 c94c 39be e94c 683d
00000390: 6e7a fdbf f817 883f 6676 9a3f 94da 873f
000003a0: 3c0c 163f 15f0 21bf c80e 0ac0 a2ab f9be
000003b0: af99 8cbd cd80 fbbf ad1e acbf a308 a9bf
000003c0: d143 d93e 2485 f4bf 82e4 d3bc ee79 6abf
000003d0: 27c1 2ebf 9d9b 5fbe 8130 89bf d4e4 453f
000003e0: 07f7 db3f 2f76 db3a 0aca 2cbf 6a5e e2bf
000003f0: 29e8 a03f 5141 acbe 4cd1 073f 6d66 063f

weight f4 [8, 16]
0.5780071 -0.25758982 -0.45071408 0.0335619 -0.42070672 -0.11169517 0.30674183 0.44667894
0.002133908 -0.5917646 0.03740618 0.4935685 -0.5365403 -0.1572999 -0.35929373 -0.32973424
0.33760926 -0.35868642 -0.6112062 0.38958848 -0.61387235 -0.4182034 0.013632604 0.1968109
-0.25853994 -0.56709677 0.009629449 0.05035951 -0.37264535 -0.5131171 0.14094101 -0.51079684
-0.008647142 0.34031156 -0.022595212 -0.39423293 -0.11059587 0.34528768 -0.52335805 -0.16978197
0.30461338 -0.1258109 -0.40813568 -0.43239427 0.18497236 -0.49894738 0.57526386 0.06263211
-0.22392814 0.26532006 0.07181104 -0.068446785 0.103948586 0.38417932 -0.13681464 -0.42366937
0.49700665 -0.19583963 -0.7056362 -0.064811036 0.3192569 -0.3171731 0.0071110106 0.29789755
-0.3798553 -0.09218869 0.3654249 0.08849865 0.2671777 -0.115684085 0.02766838 0.18097374
0.34044805 0.24879453 0.58107406 -0.24637267 0.1938005 -0.11198919 -0.0068318886 -0.37751648
0.2787771 -0.3011025 -0.61517864 0.69115734 0.16101749 -0.075843975 -0.24550132 0.1797691
-0.19579907 0.039745696 -0.45114538 -0.40156287 0.09732037 -0.029099204 0.20890006 -0.19003339
0.21154454 0.39711842 -0.041577134 -0.3629289 0.09543762 0.6542473 0.18076168 -0.5501525
0.3046479 -0.34230858 -0.36980638 0.09021537 -0.22090197 -0.07265148 -0.19000775 0.30510116
0.054363295 -0.22014596 0.27479404 0.17389403 -0.136264 -0.30855152 -0.5591193 0.13431373
-0.07424964 0.21249518 -0.13072024 -0.34267953 0.25220773 -0.63541037 0.8493509 0.09472127
00000000: 46f8 133f d0e2 83be ffc3 e6be 3478 093d
00000010: df66 d7be 70c0 e4bd 440d 9d3e 1ab3 e43e
00000020: 09d9 0b3b e37d 17bf 3937 193d 03b5 fc3e
00000030: b55a 09bf 3a13 21be 59f5 b7be edd2 a8be
00000040: 1fdb ac3e bfa5 b7be 0278 1cbf 2478 c73e
00000050: bd26 1dbf c21e d6be 495b 5f3c cc88 493e
00000060: 595f 84be 412d 11bf d6c4 1d3c c645 4e3d
00000070: 5fcb bebe a45b 03bf d752 103e 95c3 02bf
00000080: beac 0dbc 513d ae3e 9819 b9bc e6d8 c9be
00000090: 1680 e2bd 8cc9 b03e cbfa 05bf 53db 2dbe
000000a0: 49f6 9b3e 93d4 00be 29f7 d0be c862 ddbe
000000b0: 6569 3d3e 0876 ffbe 7e44 133f 4445 803d
000000c0: 6b4d 65be 08d8 873e ab11 933d d42d 8cbd
000000d0: ffe2 d43d 27b3 c43e 2319 0cbe 31eb d8be
000000e0: a877 fe3e 2f8a 48be 93a4 34bf a6bb 84bd
000000f0: a475 a33e 8364 a2be 7b03 e93b 0786 983e
00000100: 657c c2be 6dcd bcbd f918 bb3e c83e b53d
00000110: 84cb 883e c7eb ecbd cca8 e23c 2e51 393e
00000120: 354f ae3e fec3 7e3e 45c1 143f 1e49 7cbe
00000130: a373 463e 975a e5bd 09de dfbb d749 c1be
00000140: dfbb 8e3e 1b2a 9abe 597c 1dbf b0ef 303f
00000150: c5e1 243e 1654 9bbd b364 7bbe 6415 383e
00000160: 8d7f 48be 62cc 223d 87fc e6be a699 cdbe
00000170: e74f c73d 7461 eebc e6e9 553e 1d98 42be
00000180: 229f 583e 1b53 cb3e c94c 2abd d1d1 b9be
00000190: cd74 c33d c07c 273f 9719 393e cbd6 0cbf
000001a0: cffa 9b3e 1243 afbe 4357 bdbe d6c2 b83d
000001b0: 2034 62be 4dca 94bd 6491 42be 3836 9c3e
000001c0: 0cac 5e3d f16d 61be ceb1 8c3e 4711 323e
000001d0: ca88 0bbe 77fa 9dbe 7122 0fbf 8a89 093e
000001e0: 3210 98bd 5698 593e 87db 05be b173 afbe
000001f0: 5f21 813e 41aa 22bf 106f 593f 3afd c13d

weight f4 [944, 16]
0.03254874 0.35381377 0.08519491 1.77775 1.5687642 -0.81286734 0.22612204 -0.73992234
0.85994375 1.0032674 -2.5428412 0.9092514 -1.1334258 0.5630659 -1.0664824 1.6321472
-0.6700556 -1.0882025 1.0377893 2.3803282 0.5881697 0.21518229 -1.1089685 -0.93969554
-0.15958625 -0.13268945 -0.059274003 -1.6673999 0.9383543 -0.22920956 1.430908 0.55070955
-0.40202594 0.4142107 1.9739672 -0.07783814 -0.0663529 0.18711047 -0.374088 1.4161412
-0.8269249 0.5229782 -0.13338472 -0.85603875 -1.005628 0.2332299 0.16651458 1.7628845
0.83901274 0.22664312 0.24682812 1.702825 -1.1729015 1.0658356 -1.9505622 -0.54361564
-0.79311603 -0.50618345 -0.79055583 -0.9512222 0.0485117 0.2521027 -1.3153657 -1.2731189
-0.09081605 -0.50590074 0.37253854 1.2620387 -0.008684933 -0.26531234 0.34845325 -1.172378
-0.35769743 -1.4840872 2.3198857 0.71069646 -0.77353936 0.47820908 -0.7782229 -1.0511997
-0.89194816 0.39249477 -0.90263665 -0.45218545 -0.39299583 0.38174927 0.32475114 -0.6570997
0.22442721 0.68920624 -0.39180323 -0.367076 -2.0968947 0.7263565 1.5778769 -1.1058162
0.81870604 -0.254273 1.3639463 -0.54390293 -1.3824754 1.1079586 0.43446815 0.10956207
-0.32748634 -0.28073907 0.2502465 0.31406426 -0.43971622 -1.7019476 0.3318129 0.22983313
1.4886153 1.7155201 -1.6068493 0.76251566 -1.4672512 -0.1552129 0.12646078 0.92552733
1.615041 0.38141042 -0.1743988 -0.96232796 -0.97606075 -0.1465216 -0.20919034 1.6897823
3.581584 -0.93754035 -0.7627087 -0.7371566 -0.27706447 -1.8187829 -1.3834803 -0.15370438
-0.10578508 2.490878 -0.5484579 -0.8096206 -0.22334938 0.03964056 -0.19079377 -0.29326174
0.14512308 -0.0016968473 -0.20518912 1.1994246 -0.35455295 -0.40049192 0.5014546 -0.21670905
0.9595835 1.1704105 -2.2682986 -0.7818687 1.43396 -1.7681723 0.29621658 0.8840488
1.1687521 -0.37938437 0.989742 -0.18511097 0.19190922 1.2618979 -1.1600372 -0.22122379
-0.2954567 1.1696402 -0.39222223 -0.16227725 -0.03267933 0.50957566 0.8303647 0.00094669894
1.1000252 -1.5584898 -0.35143286 0.17098768 -0.10649081 0.04206359 -0.32324103 1.3476363
-0.6036432 0.6403046 -0.5173544 0.5750965 -1.5525421 -0.790287 -1.2254896 0.14368099
-0.2863734 0.68172324 -0.37343764 -1.0912546 -0.7472548 0.5038968 1.0203162 0.45907527
-0.24539383 -0.60122746 -0.8790915 0.27748242 -0.68101704 1.1155164 -0.34717155 -0.8796344
-1.1392848 2.0595493 0.6859704 -1.3067399 0.93766665 0.17448841 0.3461093 -0.3419411
1.1316897 -0.19101653 0.08852976 -1.2329291 1.855262 -0.09807886 0.04480789 -1.0139891
0.27796236 -2.066987 -0.009211751 -0.40578738 -0.7472291 2.265428 1.4690565 -0.4695104
-0.59832937 -1.3821757 -1.4076586 -0.76243985 0.54052484 0.6660035 -0.10372727 -0.86656964
-0.7706831 0.94985765 0.73800766 0.5597331 1.2275258 1.7404165 0.40964743 0.83946615
1.6808093 0.9516766 -1.2995129 -0.9777561 0.79185015 0.09561908 -0.70987 -1.3618184
00000000: d451 053d 1427 b53e ab7a ae3d 508d e33f
00000010: 44cd c83f 1318 50bf 898c 673e 8d6b 3dbf
00000020: 4625 5c3f 116b 803f e9bd 22c0 b3c4 683f
00000030: 1914 91bf 1625 103f 7f82 88bf 33ea d03f
00000040: c488 2bbf 384a 8bbf 48d6 843f 4c57 1840
00000050: 4a92 163f bf58 5c3e aef2 8dbf e38f 70bf
00000060: 946a 23be bedf 07be 4cc9 72bd 5c6d d5bf
00000070: fd37 703f e9b5 6abe fe27 b73f 4dfb 0c3f
00000080: 58d6 cdbe 6d13 d43e f5aa fc3f 9a69 9fbd
00000090: 07e4 87bd e399 3f3e 7688 bfbe 1d44 b53f
000000a0: 5ab1 53bf e6e1 053f 0196 08be 5b25 5bbf
000000b0: 6bb8 80bf d2d3 6e3e cc82 2a3e 33a6 e13f
000000c0: 8ac9 563f 2215 683e 83c0 7c3e 2bf6 d93f
000000d0: a321 96bf 4d6d 883f 06ac f9bf 652a 0bbf
000000e0: a709 4bbf 3d95 01bf de61 4abf 4c83 73bf
000000f0: 34b4 463d 9b13 813e e75d a8bf 8ff5 a2bf
00000100: c4fd b9bd b682 01bf 5fbd be3e 7c8a a13f
00000110: 404b 0ebc 05d7 87be 7768 b23e 7b10 96bf
00000120: 1e24 b7be 92f6 bdbf 0279 1440 34f0 353f
00000130: ad06 46bf d2d7 f43e 9e39 47bf b68d 86bf
00000140: b756 64bf 13f5 c83e 3213 67bf da84 e7be
00000150: c036 c9be a474 c33e c845 a63e b037 28bf
00000160: 3fd0 653e d26f 303f 6f9a c8be 63f1 bbbe
00000170: 8633 06c0 80f2 393f dff7 c93f 638b 8dbf
00000180: b896 513f 1230 82be cb95 ae3f 393d 0bbf
00000190: f4f4 b0bf 96d1 8d3f 9c72 de3e 1462 e03d
000001a0: 4aac a7be 08bd 8fbe 4f20 803e 08cd a03e
000001b0: 7c22 e1be 6bd9 d9bf 61e3 a93e 6059 6b3e
000001c0: f28a be3f 2a96 db3f 3dad cdbf 3a34 433f
000001d0: e3ce bbbf 21f0 1ebe ef7e 013e 5cef 6c3f
000001e0: aab9 ce3f 3a48 c33e 9995 32be 205b 76bf
000001f0: 1edf 79bf c209 16be fe35 56be c94a d83f
00000200: ac38 6540 a502 70bf e140 43bf 4cb6 3cbf
00000210: 65db 8dbe e1cd e8bf e215 b1bf ae64 1dbe
00000220: d9a5 d8bd 8c6a 1f40 bd67 0cbf 4c43 4fbf
00000230: b3b5 64be 245e 223d 715f 43be 6726 96be
00000240: 259b 143e bf68 deba 191d 52be bf86 993f
00000250: f787 b5be 470d cdbe 545f 003f fae8 5dbe
00000260: 44a7 753f 03d0 953f ce2b 11c0 8c28 48bf
00000270: 008c b73f 7853 e2bf b3a9 973e 0651 623f
00000280: ab99 953f ab3e c2be bb5f 7d3f bb8d 3dbe
00000290: da83 443e df85 a13f 197c 94bf 7d88 62be
000002a0: 1a46 97be c5b6 953f 5ad1 c8be 022c 26be
000002b0: c3da 05bd 8d73 023f c892 543f e42b 783a
000002c0: a0cd 8c3f 987c c7bf 02ef b3be 6517 2f3e
000002d0: db17 dabd df4a 2c3d d97f a5be 597f ac3f
000002e0: 5c88 1abf 01eb 233f 5771 04bf 8639 133f
000002f0: b3b9 c6bf 4050 4abf d8dc 9cbf 1c21 133e
00000300: 899f 92be 6a85 2e3f 3833 bfbe 3bae 8bbf
00000310: 174c 3fbf 61ff 003f b999 823f ea0b eb3e
00000320: 8548 7bbe 0bea 19bf 240c 61bf 2d12 8e3e
00000330: 2257 2ebf 3ec9 8e3f 78c0 b1be b82f 61bf
00000340: 16d4 91bf a8cf 0340 c29b 2f3f 4143 a7bf
00000350: ec0a 703f 17ad 323e 3d35 b13e e712 afbe
00000360: 35db 903f d699 43be 174f b53d 9fd0 9dbf
00000370: 3a79 ed3f 92dd c8bd 7a88 373d 65ca 81bf
00000380: 1551 8e3e 8449 04c0 e2ec 16bc 5dc3 cfbe
00000390: 684a 3fbf c6fc 1040 0b0a bc3f ab63 f0be
000003a0: 1d2c 19bf 22eb b0bf 282e b4bf 422f 43bf
000003b0: d65f 0a3f 357f 2a3f f76e d4bd 82d7 5dbf
000003c0: 7d4b 45bf df29 733f 12ee 3c3f ab4a 0f3f
000003d0: 911f 9d3f f8c5 de3f 4fbd d13e 41e7 563f
000003e0: c224 d73f 14a1 733f 7056 a6bf 394e 7abf
000003f0: b1b6 4a3f f0d3 c33d 0aba 35bf 1150 aebf

weight f4 [1683, 16]
0.7073429 -1.746812 0.7240591 1.4459001 1.4004827 2.9824789 0.32101375 0.6042158
-1.1239018 -1.2635348 -1.3596234 -1.1134593 0.8536091 -0.23534708 -0.44870922 0.9622736
-1.5646722 -2.2052937 -0.3928869 -1.3907025 0.16607109 3.0043085 2.7089064 -0.89030427
-0.8293865 -0.8730218 0.6567424 -0.65302193 1.3732021 -0.12395901 1.1235949 -0.6013736
-1.0320922 -0.6998201 0.35771373 -1.0306913 1.2826501 0.4471584 -0.29805875 0.2950812
0.8038292 -1.3860484 -0.24132812 0.3247045 0.07973474 -0.13758099 -0.2435029 -0.97970444
-0.9433584 -0.84046155 0.048248526 0.7559045 1.8962674 0.052750275 -2.431815 0.9094812
-0.5593507 1.3433925 0.51021856 -0.06280621 -0.39604267 0.21986756 0.16259757 -0.035267808
-0.4240316 -0.5626337 0.9275301 0.049106255 -0.632127 0.46289667 -0.6265593 -1.7808676
-0.75694495 0.4294598 0.3094024 -0.7611113 -1.5826597 1.2847601 1.179655 -1.5955873
-1.2986169 -0.9479851 -0.5467959 -0.3002846 1.5906925 0.88562614 0.498456 -1.2722554
-0.39067098 -0.30951506 -0.8013379 2.3560827 0.7462164 2.5397246 1.1287628 -1.1804562
1.3373251 -0.6963553 1.4384971 3.070992 0.09436566 -0.39087525 -0.06621292 1.2035545
-1.7344369 -0.7426947 0.8993228 -0.52759427 1.6103259 -0.63186175 -1.6831158 -1.4785736
-2.5246422 1.3319492 0.48376942 0.6359154 1.7813423 -0.8380101 -1.708146 -0.60215104
-1.6912208 -0.838263 -0.33978894 -0.4578017 0.60455215 0.47673556 -0.764423 1.4715782
-1.203802 -0.83367753 0.21286988 -0.21343538 1.3996143 -0.18248399 0.7570366 -0.6932824
-0.5207316 -0.8021216 -0.106511556 1.7934641 -0.6039437 -0.18317956 0.5945096 0.5056917
0.6536299 -1.4946399 -1.6215903 -0.66669744 0.109293155 -1.1018434 -0.22813788 0.10650426
-0.9640299 0.42225525 -1.4347165 0.13839126 -0.39800704 -0.8944084 0.8652954 0.2442272
-1.2189823 0.79436547 -0.2935743 0.55562514 -1.5973083 0.3850484 -1.0249069 2.9985502
0.9168175 -0.123507574 -0.38472995 -1.8106776 0.18330625 1.5006186 -1.3976883 1.6771178
-0.8100029 -1.1622078 0.67744094 2.0270393 -0.35072857 -0.0818262 -0.6415752 -0.47008803
-0.54666066 1.9728731 -1.1243967 -0.26531217 0.97527176 1.0366365 -0.095388085 -0.7485295
-0.14827345 -0.831365 -0.11223467 -1.5216444 0.6040582 0.87191546 2.167217 -1.5516493
0.9266707 -0.14498833 0.043029074 -0.2690862 -0.94247526 -0.25215203 -0.3204949 -0.7113163
0.5046931 1.1171527 1.6809747 0.842529 0.50492054 0.9088314 0.32185155 -0.7581256
-0.55785525 0.61008835 -0.3536604 1.4615247 0.22871374 1.0655615 -0.5775016 0.6379509
2.3893144 -0.88222563 -0.45607463 -0.012973667 0.14604858 1.1691087 -0.14066543 -1.876857
-1.5872837 1.4659759 -0.5378323 -1.1384017 -1.2149539 -0.9837535 0.13136795 -1.2336667
0.9979959 0.41669124 0.3864315 1.207383 0.24933457 1.2788843 0.9418191 0.49031547
0.7814753 -1.1810259 1.6126615 -1.3810889 -0.9883985 -0.34877157 0.41117877 -1.2327713
00000000: 6d14 353f 8997 dfbf f05b 393f 4113 b93f
00000010: 0443 b33f efe0 3e40 ea5b a43e e3ad 1a3f
00000020: 04dc 8fbf 82bb a1bf 2408 aebf d685 8ebf
00000030: 2086 5a3f d3fe 70be 37bd e5be 9057 763f
00000040: 2e47 c8bf 8823 0dc0 7928 c9be 8a02 b2bf
00000050: 8a0e 2a3e 9746 4040 b95e 2d40 fbea 63bf
00000060: ac52 54bf 5b7e 5fbf 4520 283f 722c 27bf
00000070: 16c5 af3f 39de fdbd f5d1 8f3f 9ff3 19bf
00000080: 991b 84bf 6927 33bf 4126 b73e b1ed 83bf
00000090: e12d a43f f2f1 e43e 289b 98be e214 973e
000000a0: c0c7 4d3f 096a b1bf b81e 77be ab3f a63e
000000b0: f84b a33d 08e2 0cbe d358 79be e9cd 7abf
000000c0: f07f 71bf 7d28 57bf 3fa0 453d f582 413f
000000d0: e4b8 f23f ac10 583d dba2 1bc0 c3d3 683f
000000e0: 9c31 0fbf 49f4 ab3f af9d 023f 8ba0 80bd
000000f0: 1bc6 cabe f624 613e fa7f 263e fa74 10bd
00000100: ab1a d9be c308 10bf 9d72 6d3f a423 493d
00000110: 13d3 21bf cb00 ed3e 3166 20bf 78f3 e3bf
00000120: 25c7 41bf 28e2 db3e fe69 9e3e 31d8 42bf
00000130: 9894 cabf 0573 a43f effe 963f 343c ccbf
00000140: 1439 a6bf 27af 72bf d1fa 0bbf e7be 99be
00000150: d09b cb3f 65b8 623f a035 ff3e 44d9 a2bf
00000160: 0706 c8be c278 9ebe 7b24 4dbf 0fca 1640
00000170: 0a08 3f3f d98a 2240 4d7b 903f 3019 97bf
00000180: 782d ab3f 5744 32bf ac20 b83f 228b 4440
00000190: c842 c13d cd20 c8be a49a 87bd 130e 9a3f
000001a0: 0702 debf 3d21 3ebf 053a 663f 6b10 07bf
000001b0: 291f ce3f b1c1 21bf 5770 d7bf e641 bdbf
000001c0: bd93 21c0 507d aa3f a0b0 f73e 5acb 223f
000001d0: 0603 e43f d487 56bf 87a4 dabf 9226 1abf
000001e0: ec79 d8bf 6798 56bf d1f8 adbe fc64 eabe
000001f0: eec3 1a3f af16 f43e 3ab1 43bf ad5c bc3f
00000200: 2f16 9abf e46b 55bf 90fa 593e ce8e 5abe
00000210: 9026 b33f 15dd 3abe 27cd 413f f57a 31bf
00000220: ab4e 05bf d757 4dbf bb22 dabd 3b90 e53f
00000230: 0e9c 1abf 6c93 3bbe c831 183f 0375 013f
00000240: 4a54 273f 5c50 bfbf 4590 cfbf afac 2abf
00000250: 17d5 df3d 3409 8dbf fa9c 69be e81e da3d
00000260: aaca 76bf d731 d83e caa4 b7bf 70b6 0d3e
00000270: 94c7 cbbe f3f7 64bf 0084 5d3f b216 7a3e
00000280: 9d07 9cbf 895b 4b3f 5f4f 96be 733d 0e3f
00000290: 9974 ccbf 1025 c53e 2630 83bf 3fe8 3f40
000002a0: 8db4 6a3f 8af1 fcbd 53fb c4be 49c4 e7bf
000002b0: a2b4 3b3e 4514 c03f 73e7 b2bf ccab d63f
000002c0: 5a5c 4fbf 3ac3 94bf c56c 2d3f 03bb 0140
000002d0: b292 b3be 7f94 a7bd 463e 24bf 61af f0be
000002e0: f4f1 0bbf 1b87 fc3f 3bec 8fbf ffd6 87be
000002f0: 69ab 793f 81b0 843f d45a c3bd a19f 3fbf
00000300: ffd4 17be 56d4 54bf 4adb e5bd 3ec5 c2bf
00000310: 8fa3 1a3f da35 5f3f afb3 0a40 729c c6bf
00000320: 4a3a 6d3f d277 14be 413f 303d abc5 89be
00000330: 0f46 71bf 121a 81be e817 a4be d318 36bf
00000340: 9133 013f dcfe 8e3f 2e2a d73f fbaf 573f
00000350: 7942 013f 2da9 683f bac9 a43e 8514 42bf
00000360: 9acf 0ebf c02e 1c3f fa12 b5be 3e13 bb3f
00000370: ef33 6a3e 5264 883f 25d7 13bf c050 233f
00000380: 87ea 1840 8ad9 61bf 9d82 e9be 818f 54bc
00000390: c28d 153e 5ba5 953f 990a 10be da3c f0bf
000003a0: 1d2c cbbf 19a5 bb3f 61af 09bf 26b7 91bf
000003b0: 9c83 9bbf 45d7 7bbf 5285 063e cae8 9dbf
000003c0: a97c 7f3f 8e58 d53e 59da c53e 878b 9a3f
000003d0: 9051 7f3e 7bb2 a33f 0e1b 713f a10a fb3e
000003e0: c40e 483f db2b 97bf b16b ce3f 85c7 b0bf
000003f0: af07 7dbf 3092 b2be 0686 d23e 73cb 9dbf

weight f4 [32, 32]
0.15061952 -0.09330201 -0.030797668 -0.06775361 -0.03174843 0.058306374 -0.22785826 -0.070074975
-0.040534332 -0.07852269 -0.0159134 0.2026485 0.07698276 0.067702726 -0.0669495 0.027193306
0.06381481 0.01930688 -0.480756 -0.43043485 -0.034303505 -0.050289374 0.555655 -0.59512395
-0.090651244 0.26028588 -0.3777372 0.2820565 -0.150104 0.010507116 0.17241639 -0.09610363
-0.0088407425 -0.14128695 -0.26655906 0.13316834 0.0029616577 -0.124655135 0.36998835 -0.23361231
-0.34480104 -0.20750402 0.12628764 -0.24746718 0.1861059 0.22362302 0.19772913 0.16531935
-0.45207983 -0.33897328 -0.104418084 0.01578576 0.3874604 0.2831262 -0.010045204 0.23904128
-0.4399729 -0.39555597 0.02822268 -0.35462728 -0.04446642 0.26368013 -0.18350214 0.102477185
0.09239154 0.0063398024 -0.14393769 -0.031591725 -0.22947906 0.08015963 -0.22451194 0.09988614
-8.091202e-05 0.049926106 -0.09070817 -0.28677437 -0.024577785 -0.012529482 0.1476391 -0.020627549
0.10700368 0.5494415 0.38505784 -0.007532593 0.03640017 -0.27626163 -0.51053554 0.37535805
0.2043308 0.52654785 0.47432932 0.07959218 0.44704425 -0.08858934 -0.17045416 0.03917853
-0.037996847 -0.10731165 -0.50458694 0.019711161 -0.13178745 -0.29719836 0.1155315 -0.15914418
-0.21627589 -0.14975896 -0.013841219 -0.39204645 0.47585636 0.19702299 0.30698764 0.274433
-0.34910065 -0.28050524 -0.1797386 0.032687034 0.15557635 0.08886956 -0.0032303096 -0.25854176
0.08707611 -0.68119895 -0.09156481 0.28086543 0.04175136 0.35202548 0.089915395 0.15000866
-0.026629554 -0.2385355 0.018470742 0.11175824 -0.019721769 0.09937431 0.25926355 0.14077117
-0.07742924 -0.14413388 0.13246326 0.0072914907 0.21668558 0.33287653 -0.0053272275 0.21124016
0.02856766 0.25117937 0.47537702 0.15110013 -0.008331755 -0.13516603 -0.32210734 0.5123338
0.41483787 0.06561521 0.4164841 -0.06722939 0.33989316 0.18701315 -0.3069293 0.2053675
-0.019154383 -0.36025548 0.062369503 0.27463865 0.453457 0.13884154 0.23987415 -0.023448516
-0.03719982 -0.14211889 0.21997584 0.27593842 0.011284663 0.2783853 -0.57051575 0.2822414
0.2544385 -0.16811928 0.131555 0.15961888 0.08674088 -0.08056075 -0.0046571884 -0.076876715
0.22606815 0.5085686 0.22619477 -0.2577684 0.2641408 -0.0045399773 -0.34882218 -0.28882495
0.08675455 0.20380479 0.14669405 -0.2523723 0.049616884 -0.03278237 -0.566534 0.40153337
0.25119182 0.40831435 0.020324364 0.17449197 -0.10180932 -0.28723216 0.3095704 -0.40959632
0.55291533 0.08821422 0.12087635 -0.3569823 -0.3568673 -0.20785478 -0.0035209204 0.039999034
-0.2113016 0.7808854 -0.13608798 0.2769534 0.011282618 -0.22467281 -0.32679948 -0.1734663
-0.36422276 -0.022987347 -0.035115015 0.16678618 0.1753466 -0.34229246 0.29772484 -0.31078953
-0.407908 -0.46250772 0.34258774 -0.14565136 0.04952334 -0.044784375 -0.06946335 0.23381035
0.38689238 0.4437731 0.26150578 -0.1021381 -0.1851517 -0.49583185 -0.3069491 -0.19826221
0.22886623 0.43099934 0.11560002 0.17626263 0.083415955 0.13847798 0.13900787 0.13882194
00000000: 013c 1a3e 2015 bfbd 644b fcbc 68c2 8abd
00000010: a40a 02bd aad2 6e3d ad53 69be 7883 8fbd
00000020: 5407 26bd 81d0 a0bd d25c 82bc 1783 4f3e
00000030: 23a9 9d3d baa7 8a3d d21c 89bd 7fc4 de3c
00000040: 57b1 823d 7629 9e3c a725 f6be f561 dcbe
00000050: d581 0cbd 3bfc 4dbd 683f 0e3f 0b5a 18bf
00000060: 5ca7 b9bd 3144 853e c566 c1be b669 903e
00000070: ddb4 19be 0a26 2c3c ec8d 303e fbd1 c4bd
00000080: c3d8 10bc 87ad 10be 6e7a 88be 485d 083e
00000090: 5f18 423b 314b ffbd 1d6f bd3e 1138 6fbe
000000a0: c389 b0be ef7b 54be 8c51 013e 0968 7dbe
000000b0: 8c92 3e3e 6ffd 643e 8179 4a3e 7a49 293e
000000c0: 0277 e7be e88d adbe 26d9 d5bd 2351 813c
000000d0: 3661 c63e ebf5 903e a494 24bc 3dc7 743e
000000e0: 2144 e1be 5086 cabe 4033 e73c b591 b5be
000000f0: 6c22 36bd 1501 873e fce7 3bbe 8fdf d13d
00000100: c737 bd3d 1ebe cf3b 6764 13be 5366 01bd
00000110: 8ffc 6abe bb2a a43d 75e6 65be 1b91 cc3d
00000120: 4faf a9b8 517f 4c3d 34c5 b9bd 17d4 92be
00000130: 5a57 c9bc 7548 4dbc b42e 173e 1bfb a8bc
00000140: bf24 db3d 33a8 0c3f 4d26 c53e f8d3 f6bb
00000150: 5818 153d 2a72 8dbe 75b2 02bf ee2e c03e
00000160: 183c 513e d7cb 063f 4bdb f23e 3a01 a33d
00000170: fce2 e43e 546e b5bd 898b 2ebe ab79 203d
00000180: 95a2 1bbd 36c6 dbbd 9c2c 01bf 4d79 a13c
00000190: 4af3 06be 622a 98be c79b ec3d b1f6 22be
000001a0: 6d77 5dbe 6a5a 19be 48c6 62bc 50ba c8be
000001b0: 72a3 f33e 65c0 493e 7c2d 9d3e 7b82 8c3e
000001c0: 52bd b2be 629e 8fbe 650d 38be d7e2 053d
000001d0: 684f 1f3e 3e01 b63d 9ab3 53bb 965f 84be
000001e0: f654 b23d 0e63 2ebf 5586 bbbd 98cd 8f3e
000001f0: 7903 2b3d af3c b43e 9025 b83d df9b 193e
00000200: 3926 dabc a642 74be f44f 973c 81e1 e43d
00000210: 8c8f a1bc c284 cb3d 31be 843e 5126 103e
00000220: 3993 9ebd d597 13be 73a4 073e 75ed ee3b
00000230: d3e2 5d3e cb6e aa3e 0690 aebb 574f 583e
00000240: ba06 ea3c 959a 803e 9e64 f33e feb9 1a3e
00000250: ea81 08bc f768 0abe 41eb a4be 4f28 033f
00000260: a165 d43e 4461 863d 673d d53e 90af 89bd
00000270: 7a06 ae3e 6080 3f3e d625 9dbe dc4b 523e
00000280: a7e9 9cbc 6873 b8be 2a77 7f3d 709d 8c3e
00000290: 842b e83e 7a2c 0e3e 92a1 753e 1a17 c0bc
000002a0: d75e 18bd 9d87 11be 5941 613e cd47 8d3e
000002b0: 4fe3 383c 8588 8e3e 520d 12bf f281 903e
000002c0: c345 823e 7627 2cbe 5bb6 063e 2273 233e
000002d0: 34a5 b13d 09fd a4bd 549b 98bb 8a71 9dbd
000002e0: 697e 673e 8d31 023f 9a9f 673e 38fa 83be
000002f0: 773d 873e 17c4 94bb d298 b2be dde0 93be
00000300: 5fac b13d 34b2 503e f736 163e f136 81be
00000310: 133b 4b3d ce46 06bd 5f08 11bf c895 cd3e
00000320: 379c 803e 940e d13e 487f a63c 06ae 323e
00000330: 6881 d0bd 1810 93be 0380 9e3e 9cb6 d1be
00000340: dc8b 0d3f a8a9 b43d 058e f73d 62c6 b6be
00000350: 50b7 b6be e2d7 54be 3ebf 66bb 07d6 233d
00000360: 725f 58be 1be8 473f a65a 0bbe d6cc 8d3e
00000370: bbda 383c a110 66be 4352 a7be 26a1 31be
00000380: 687b babe f64f bcbc c3d4 0fbd ffc9 2a3e
00000390: 0f8e 333e f540 afbe 646f 983e ce1f 9fbe
000003a0: 51d9 d0be d0cd ecbe a967 af3e a125 15be
000003b0: fcd8 4a3d d26f 37bd cd42 8ebd fb6b 6f3e
000003c0: c216 c63e 3a36 e33e 16e4 853e c82d d1bd
000003d0: 6898 3dbe acdd fdbe 6f28 9dbe 4005 4bbe
000003e0: e95b 6a3e f2ab dc3e b4bf ec3d 317e 343e
000003f0: fcd5 aa3d 2ccd 0d3e 1458 0e3e 5727 0e3e

bias f4 [32]
0.41751012 -0.4189229 -0.08895437 0.09614761 0.024873937 -0.052022953 -0.033682562 0.32538408
-0.34887788 -0.10257754 -0.37703148 -0.020798922 0.1808544 0.43492314 0.3832605 -0.3334281
0.14371797 0.18115662 0.36905035 0.091276854 0.20560826 -0.3558764 -0.11788337 0.03760576
0.13417304 -0.3230262 0.2483365 -0.111359194 0.23837456 -0.1504249 0.7010669 -0.49155173
00000000: e3c3 d53e 107d d6be b52d b6bd 0ae9 c43d
00000010: 6dc4 cb3c 0516 55bd baf6 09bd be98 a63e
00000020: 1fa0 b2be 2c14 d2bd 450a c1be 8062 aabc
00000030: e531 393e 3fae de3e b83a c43e 17b7 aabe
00000040: ce2a 133e 1f81 393e 2bf4 bc3e 5cef ba3d
00000050: f98a 523e 6e35 b6be d66c f1bd 7f08 1a3d
00000060: a864 093e b163 a5be ec4b 7e3e 4a10 e4bd
00000070: 7618 743e fc08 1abe 1f79 333f abac fbbe

weight f4 [16, 32]
-0.27582812 0.55525255 -0.29431626 0.38774672 0.10934977 -0.014272884 -0.32897714 -0.20556045
-0.19410592 0.1361879 0.16974509 -0.2933167 -0.2192259 -0.3747631 -0.74779886 0.10501591
-0.48126972 -0.093336925 -0.1204448 -0.039421875 0.20574789 0.27787474 0.18489468 0.008494939
-0.025816634 0.28029206 0.23814954 0.5580228 0.06664361 0.15259108 -0.64814764 0.19769156
-0.12873954 0.026971469 0.28217483 -0.12840313 0.14571255 0.23488434 0.055122774 0.24883884
0.66551626 -0.3755986 0.023433227 0.36274737 0.0599103 0.23315819 0.100250386 0.15518172
0.42067778 0.09087316 -0.3914615 -0.63291657 -0.24829626 0.026778255 -0.059715703 -0.23862605
0.09395903 0.109220035 -0.64346343 -0.43295324 -0.15315872 0.052853543 -0.30685228 0.3416925
0.107139274 -0.034855437 -0.04476511 0.23580848 -0.33967727 -0.5120873 0.22350264 -0.25822031
-0.086475156 0.4616559 -0.17553551 0.12098022 -0.2972657 0.0119151315 0.26724672 0.11033577
-0.3255652 0.34510612 0.25327063 0.14769466 -0.35861975 0.4308575 0.060795147 -0.37008157
0.19841057 0.08096937 -0.22002003 -0.16506566 -0.1188849 0.35058472 0.019491443 0.10455513
-0.19600037 -0.012241618 0.20792636 0.29462454 0.3109307 0.3205372 -0.3975316 -0.306452
-0.42265102 0.10573598 -0.13200034 -0.3930629 -0.081464805 0.1293538 0.12445991 -0.0041241525
-0.14104481 0.024659699 -0.2625852 -0.054969918 0.20645198 0.1769201 0.5226866 0.06893817
-0.09663166 0.0016733382 -0.09050306 0.20113286 -0.103278965 -0.1674847 -0.10885082 -0.18135338
-0.0057749446 -0.32078 -0.10857094 -0.22727782 -0.027024325 0.21302909 0.2580765 -0.22660023
-0.1193743 -0.028517356 -0.3523507 -0.17780204 -0.119862184 0.25439528 -0.08785925 0.12337962
-0.030968312 0.185246 0.03913789 0.20498644 -0.28861383 -0.09631694 0.0023459098 0.3234802
-0.25044143 -0.22666009 0.22835746 -0.14710993 0.08252191 -0.10836967 0.041332062 0.022096397
0.27967262 -0.36840883 0.17714341 -0.113624565 -0.17449039 0.013492979 0.5078724 0.022335146
0.00975986 -0.18100552 -0.16701676 0.19341655 -0.07907344 0.4247473 0.3783052 -0.035614226
0.29763052 0.057412654 0.12966467 -0.18042034 -0.17062381 -0.36373225 -0.14429037 0.11681391
0.23637792 -0.22192736 -0.076820076 -0.34566826 -0.02860797 0.034026865 0.2057298 0.10277321
-0.095831394 0.052633747 0.056660794 0.33095247 0.13525179 0.060611293 0.25424036 0.33668175
0.19866309 -0.23443209 0.10882961 0.1324836 0.28622344 0.28746545 0.16192748 -0.044122055
0.43390432 0.22862516 -0.3616593 -0.28680587 0.08583624 -0.29847974 0.19568942 -0.24469817
-0.1237345 -0.03152265 -0.5317156 -0.0132933175 -0.12238723 -0.10711619 -0.25832328 0.18202695
0.03759405 -0.12836383 0.29018134 0.27836367 0.3086036 -0.334719 0.017242163 -0.055074006
-0.052333187 0.0042801923 -0.045549963 0.3256369 0.28093475 -0.17444512 0.16664219 -0.16390711
0.17351772 0.13693057 -0.01253295 0.13531631 -0.116596445 -0.79677266 -0.041039146 -0.32813147
-0.056341693 -0.2120069 -0.28472024 -0.26490968 0.3236636 -0.22820298 0.1674318 0.37843063
00000000: 5839 8dbe 0825 0e3f 9fb0 96be bd86 c63e
00000010: c6f2 df3d d0d8 69bc b16f a8be 707e 52be
00000020: b4c3 46be d774 0b3e a8d1 2d3e 9b2d 96be
00000030: c17c 60be f3e0 bfbe bf6f 3fbf 9512 d73d
00000040: fc68 f6be 6e27 bfbd c3ab f6bd d578 21bd
00000050: 93af 523e 9945 8e3e 0855 3d3e 5b2e 0b3c
00000060: 687d d3bc 7182 8f3e 79dd 733e 95da 0e3f
00000070: 727c 883d d640 1c3e 01ed 25bf a86f 4a3e
00000080: 4cd4 03be 45f3 dc3c 3879 903e 1c7c 03be
00000090: ac35 153e 8585 703e 6bc8 613d 9ccf 7e3e
000000a0: 465f 2a3f 764e c0be 0af7 bf3c 06ba b93e
000000b0: 8164 753d 05c1 6e3e 1350 cd3d f5e7 1e3e
000000c0: 1463 d73e b51b ba3d a46d c8be d206 22bf
000000d0: 6041 7ebe 125e db3c 7498 74bd 635a 74be
000000e0: 986d c03d c1ae df3d 05ba 24bf 0cac ddbe
000000f0: a4d5 1cbe f57c 583d be1b 9dbe 52f2 ae3e
00000100: d66b db3d 93c4 0ebd 9f5b 37bd c777 713e
00000110: 2eea adbe 2718 03bf e0dd 643e 7435 84be
00000120: e319 b1bd 2a5e ec3e 95bf 33be 7ac4 f73d
00000130: 3633 98be af37 433c 90d4 883e b8f7 e13d
00000140: 7bb0 a6be c0b1 b03e b0ac 813e 453d 173e
00000150: 029d b7be 5b99 dc3e 5504 793d 557b bdbe
00000160: 242c 4b3e 45d3 a53d ee4c 61be f906 29be
00000170: ed79 f3bd d77f b33e 85ac 9f3c 0021 d63d
00000180: 52b4 48be 1191 48bc a6ea 543e 07d9 963e
00000190: 4f32 9f3e 741d a43e 4389 cbbe 47e7 9cbe
000001a0: b765 d8be 1b8c d83d 192b 07be 8a3f c9be
000001b0: 05d7 a6bd 5375 043e d6e4 fe3d e623 87bb
000001c0: 0d6e 10be 2303 ca3c 9171 86be 2328 61bd
000001d0: 2668 533e 8b2a 353e cace 053f 752f 8d3d
000001e0: d2e6 c5bd ea53 db3a ab59 b9bd c6f5 4d3e
000001f0: ec83 d3bd 1c81 2bbe 2eed debd b3b4 39be
00000200: bf3b bdbb 473d a4be 715a debd 84bb 68be
00000210: 1e62 ddbc 4c24 5a3e 9a22 843e e409 68be
00000220: 837a f4bd 3b9d e9bc 5067 b4be bd11 36be
00000230: 4e7a f5bd 1940 823e 8def b3bd 74ae fc3d
00000240: 42b1 fdbc 21b1 3d3e 0d4f 203d f7e7 513e
00000250: 31c5 93be d141 c5bd d6bd 193b 329f a53e
00000260: dc39 80be 9519 68be 8ad6 693e fca3 16be
00000270: 3f01 a93d ebf0 ddbd cf4b 293d 8103 b53c
00000280: 4031 8f3e 15a0 bcbe 1565 353e ffb3 e8bd
00000290: 9cad 32be a811 5d3c ed03 023f 32f8 b63c
000002a0: d2e7 1f3c 8359 39be 7106 2bbe fd0e 463e
000002b0: 41f1 a1bd 7a78 d93e 38b1 c13e 39e0 11bd
000002c0: 0763 983e 8829 6b3d d1c6 043e 1cc0 38be
000002d0: 02b8 2ebe 1d3b babe dbc0 13be 223c ef3d
000002e0: 0e0d 723e ed40 63be d853 9dbd 6efb b0be
000002f0: 435b eabc c15f 0b3d d5aa 523e c37a d23d
00000300: 4043 c4bd 7c96 573d 2615 683d 9a72 a93e
00000310: 727f 0a3e 8c43 783d cb2b 823e 8d61 ac3e
00000320: 566e 4b3e f70e 70be 0fe2 de3d c8a9 073e
00000330: e18b 923e ac2e 933e 51d0 253e 54b9 34bd
00000340: b528 de3e b71c 6a3e 682b b9be 38d8 92be
00000350: e9ca af3d 56d2 98be cf62 483e 2892 7abe
00000360: 8368 fdbd e51d 01bd 831e 08bf 37cc 59bc
00000370: 28a6 fabd bc5f dbbd f342 84be 4665 3a3e
00000380: 38fc 193d cf71 03be a692 943e af85 8e3e
00000390: 4b01 9e3e 4a60 abbe 703f 8d3c 4895 61bd
000003a0: 535b 56bd db40 8c3b 9992 3abd e1b9 a63e
000003b0: aed6 8f3e bea1 32be 40a4 2a3e 44d7 27be
000003c0: a1ae 313e 8737 0c3e 0157 4dbc 5c90 0a3e
000003d0: 1eca eebd 4bf9 4bbf aa18 28bd d900 a8be
000003e0: 8cc6 66bd 5618 59be dac6 91be 3ea2 87be
000003f0: 3cb7 a53e 0bae 69be 3e73 2b3e a9c1 c13e

bias f4 [16]
-0.49719167 -0.73778105 0.15949902 -0.061486464 0.07023791 0.06978425 0.24359992 0.31446296
-0.054684885 0.1681847 0.52902484 -0.2725138 -0.020095378 -0.078437194 0.23749974 0.31834757
00000000: e88f febe 38df 3cbf b653 233e 3bd9 7bbd
00000010: e5d8 8f3d 0beb 8e3d 4272 793e 4a01 a13e
00000020: 42fd 5fbd 9c38 2c3e 2c6e 073f ee86 8bbe
00000030: 109f a4bc aea3 a0bd 2233 733e 74fe a23e

weight f4 [8, 16]
-0.40218094 -0.41280994 0.2606296 0.53039676 0.21752356 -0.29708743 0.20764658 -0.35428306
-0.2889839 -0.14033395 0.3113644 0.08349627 0.35224375 -0.42598814 0.19758968 -0.3570576
-0.18552989 -0.22791067 -0.6661857 0.12344622 0.28627414 -0.028459929 0.23754026 -0.037282765
-0.30414867 0.2101196 0.39605704 0.16405143 -0.11228427 -0.1502625 0.31405702 0.32905218
-0.3960778 -0.23685382 0.13341528 -0.23936075 0.06468678 -0.28669724 -0.1200882 -0.4491225
-0.077749476 -0.33291832 0.18507905 -0.3487832 0.38233644 -0.3837631 -0.25308728 -0.13152552
-0.6018459 -0.320869 0.3228309 -0.051927183 -0.07690012 -0.09400867 0.27790558 -0.03229306
-0.13941583 0.17423062 -0.055762164 0.051072035 -0.30154425 0.19448332 -0.13297273 0.27114707
-0.072657816 0.0970523 -0.095928065 0.13193543 -0.036996875 0.31443042 -0.29633132 0.409883
0.1908093 0.03967002 -0.031021168 0.1679851 -0.35042498 0.13541976 -0.031716805 0.20072223
0.51658815 0.7145839 0.1833751 -0.31975928 -0.097548604 0.35133332 -0.3969934 -0.05743477
0.24867368 -0.21406639 -0.32947996 0.23808664 -0.05761478 -0.12815927 -0.15674095 0.009188198
0.21822312 0.12695277 -0.22251008 -0.050632346 -0.37835842 0.09690102 -0.241269 -0.06259214
-0.15340202 0.42032254 0.3303337 0.34941545 -0.43530464 -0.21065596 -0.25196353 0.2695496
-0.028378617 0.14615051 0.5652277 0.043546107 0.049831454 -0.3641662 -0.031593163 -0.3456425
-0.33675522 -0.23942697 -0.54960585 -0.19858445 0.055462044 -0.27355134 -0.00080645154 -0.20726204
00000000: a9ea cdbe d35b d3be 3e71 853e 15c8 073f
00000010: 7fbe 5e3e d81b 98be 4ea1 543e 9764 b5be
00000020: b3f5 93be b4b3 0fbe 286b 9f3e 1800 ab3d
00000030: 4b59 b43e 1e1b dabe f354 4a3e 41d0 b6be
00000040: 8cfb 3dbe 6a61 69be 258b 2abf 5fd1 fc3d
00000050: 8692 923e cc24 e9bc c13d 733e d0b5 18bd
00000060: 60b9 9bbe 9829 573e fdc7 ca3e 19fd 273e
00000070: 4cf5 e5bd 6ade 19be 15cc a03e 8779 a83e
00000080: b6ca cabe cf89 72be 049e 083e fc1a 75be
00000090: 817a 843d fbc9 92be cdf0 f5bd 62f3 e5be
000000a0: 1e3b 9fbd 4574 aabe 5d85 3d3e b693 b2be
000000b0: 9ac1 c33e 997c c4be a894 81be a0ae 06be
000000c0: 9312 1abf f148 a4be 174a a53e 99b1 54bd
000000d0: cf7d 9dbd 9e87 c0bd a449 8e3e ba45 04bd
000000e0: 06c3 0ebe 8369 323e de66 64bd e930 513d
000000f0: 0264 9abe a326 473e 012a 08be cad3 8a3e
00000100: 9fcd 94bd 5bc3 c63d ef75 c4bd 151a 073e
00000110: 098a 17bd 06fd a03e bdb8 97be 2fdc d13e
00000120: 8363 433e 087d 223d 1b20 febc 4904 2c3e
00000130: e76a b3be 7aab 0a3e 7be9 01bd 218a 4d3e
00000140: 1f3f 043f f8ee 363f afc6 3b3e 7db7 a3be
00000150: 90c7 c7bd f6e1 b33e b842 cbbe b940 6bbd
00000160: 50a4 7e3e 3834 5bbe 99b1 a8be fccc 733e
00000170: 7afd 6bbd 2f3c 03be b380 20be 188a 163c
00000180: e275 5f3e e8ff 013e afd9 63be dd63 4fbd
00000190: 32b8 c1be 0b74 c63d 390f 77be 4f30 80bd
000001a0: 6b15 1dbe 8434 d73e 8021 a93e 95e6 b23e
000001b0: 40e0 debe 32b6 57be 5d01 81be 6802 8a3e
000001c0: 467a e8bc 7ba8 153e c3b2 103f 675d 323d
000001d0: 111c 4c3d fe73 babe d567 01bd 0ef8 b0be
000001e0: 2e6b acbe 582c 75be f8b2 0cbf b959 4bbe
000001f0: 2b2c 633d ec0e 8cbe 0c68 53ba 803c 54be

bias f4 [8]
0.41165194 0.11795471 0.26072714 1.1778522 -0.47705612 -0.5209062 -0.38454804 -0.092198096
00000000: 0bc4 d23e 3d92 f13d 077e 853e dcc3 963f
00000010: b340 f4be 1c5a 05bf 7be3 c4be 5bd2 bcbd

weight f4 [16, 16]
-0.19096547 -0.06120918 0.11127272 0.55430365 0.0061240685 0.2569902 0.1559836 0.15369341
0.09125061 0.2907838 0.09503777 0.4140693 0.13108017 -0.6043468 -0.119838625 -0.12409739
-0.48409417 -0.07558241 0.4075342 0.029592466 0.1368264 0.583349 -0.4692219 0.7770254
-0.22872485 0.2444154 -0.2418404 0.002441499 0.12970427 -0.11805477 -0.0058661797 -0.4512718
0.13158797 -0.10216683 -0.3889847 -0.2188912 -0.1431099 0.4701391 -0.20183504 -0.447138
0.16869329 0.088766314 -0.030293245 -0.552819 -0.06659888 0.13411838 -0.48525456 0.50244117
0.11039442 -0.12586963 -0.11414688 -0.21395573 -0.025720373 -0.12338241 0.017525388 0.5303489
-0.21920875 0.16494817 -0.29055125 0.14786492 0.27626404 0.5194096 0.13529226 -0.16346064
0.28787476 0.1140519 0.23347087 -0.17977871 -0.015102812 0.59216887 -0.13017388 -0.020081576
-0.6003699 -0.26438925 -0.20206514 0.18345925 0.09607879 -0.0022234423 0.015817786 0.32019112
0.2663284 -0.1607775 -0.11022836 -0.030924879 -0.16470963 -0.25402308 -0.1766168 0.010919264
-0.09952184 -0.23732173 0.25537562 0.2542907 -0.41198078 0.1127928 0.07261022 -0.10790699
-0.040400997 -0.15368694 -0.5504803 -0.10323272 -0.018920086 -0.06754607 -0.19292612 -0.35737404
0.3066897 0.03248616 0.40493128 1.092605 -0.13882002 -0.3214904 -0.3105281 0.06866431
0.498663 0.15376756 -0.21690322 0.32301337 0.11333292 0.34017965 0.0507855 -0.21355979
0.089389354 0.25773335 0.5484155 -0.02984266 -0.18598074 0.11536328 0.31007925 0.071676046
0.064700134 -0.39111748 -0.29620624 -0.2866553 0.104089856 -0.032485146 0.026490582 -0.219187
0.34364563 -0.22249432 0.28403437 -0.38783193 -0.1229011 -0.19771993 -0.21297075 0.051429525
-0.3940317 -0.3847697 0.38396698 0.34262648 -0.7904448 0.3718569 0.60454196 -0.0051991385
-0.08720317 0.2057025 0.06579137 -0.16576697 0.13232864 -0.06466626 -0.0033482132 -0.060433935
-0.2946459 -0.1005804 -0.35423407 -0.55571383 0.82640237 -0.46919042 -0.9226188 0.36239976
-0.19625291 0.13065302 0.17410134 -0.343075 0.057289872 0.38795328 0.3128887 -0.17191441
0.17098069 -0.09970471 -0.60608333 -0.19927678 0.038845822 0.028062012 -0.24695176 -0.50761276
0.19224861 -0.08040844 0.39702517 -0.12765215 -0.4059162 -0.004725139 -0.1486247 0.038188905
-0.1829725 0.3323285 -0.5046715 -0.3058796 -0.33133864 0.46458662 -0.36415642 0.30263367
0.2932826 -0.3659627 0.44320425 -0.046497185 -0.12698507 0.47318542 -0.18790606 0.19757186
0.19412926 -0.083648175 -0.7149511 -0.4108197 0.22696176 0.17540395 -0.20126024 -0.3979548
0.2346623 0.1446663 0.5009381 -0.24243227 -0.2033827 0.008484711 0.031574916 0.27130875
0.88621294 1.21272 -0.06890637 -0.36196557 -0.32243592 0.31944406 -0.19565038 0.1869304
0.23238735 0.15818657 0.21877953 0.10491041 -0.13268225 -0.3510718 0.26696694 0.18487895
-0.22446507 -0.23778717 -0.32660624 -0.4281587 0.15719312 0.45656288 0.08032277 -0.21082613
0.009761326 -0.084045805 0.19930957 -0.1580871 0.07876405 -0.033484146 -0.27741653 0.008457885
00000000: 748c 43be 7ab6 7abd f4e2 e33d d8e6 0d3f
00000010: 69ac c83b 3894 833e 2aba 1f3e ce61 1d3e
00000020: 9ae1 ba3d 9de1 943e 2aa3 c23d e400 d43e
00000030: e139 063e 79b6 1abf f46d f5bd c626 febd
00000040: 31db f7be f3ca 9abd 53a8 d03e e66b f23c
00000050: 381c 0c3e 5c56 153f da3d f0be 23eb 463f
00000060: d936 6abe 0848 7a3e 03a5 77be 8e01 203b
00000070: 32d1 043e b3c6 f1bd 1539 c0bb 190d e7be
00000080: ffbe 063e d83c d1bd 0129 c7be 0425 60be
00000090: 678b 12be 12b6 f03e d8ad 4ebe 46ef e4be
000000a0: efbd 2c3e 1dcb b53d 8a29 f8bc 8c85 0dbf
000000b0: fe64 88bd 5456 093e 4973 f8be fc9f 003f
000000c0: 7816 e23d f8e3 00be d7c5 e9bd 3617 5bbe
000000d0: 88b3 d2bc ebaf fcbd 6791 8f3c f2c4 073f
000000e0: 4278 60be 2ce8 283e 22c3 94be e769 173e
000000f0: 7b72 8d3e 07f8 043f 0e8a 0a3e 3a62 27be
00000100: 5264 933e 0b94 e93d fd12 6f3e e917 38be
00000110: c971 77bc 6198 173f 4d4c 05be 1e82 a4bc
00000120: d7b1 19bf 075e 87be 2aea 4ebe bedc 3b3e
00000130: f5c4 c43d 2cb7 11bb 4d94 813c 17f0 a33e
00000140: 325c 883e dba2 24be 68bf e1bd 2c56 fdbc
00000150: a4a9 28be 500f 82be 09db 34be b6e6 323c
00000160: 1bd2 cbbd 7804 73be 98c0 823e 6432 823e
00000170: 25ef d2be e9ff e63d abb4 943d 57fe dcbd
00000180: 847b 25bd 1c60 1dbe 47ec 0cbf ad6b d3bd
00000190: 4cfe 9abc 9855 8abd 6d8e 45be bbf9 b6be
000001a0: 6f06 9d3e 3510 053d 2753 cf3e 7bda 8b3f
000001b0: d626 0ebe 649a a4be 8afd 9ebe e09f 8c3d
000001c0: c250 ff3e 3e75 1d3e e11b 5ebe 0262 a53e
000001d0: 171b e83d 072c ae3e 7504 503d 6baf 5abe
000001e0: c411 b73d a0f5 833e f564 0c3f 9878 f4bc
000001f0: bc71 3ebe 9543 ec3d b5c2 9e3e e4ca 923d
00000200: 8181 843d 8d40 c8be 58a8 97be 7cc4 92be
00000210: 102d d53d 250f 05bd c702 d93c 8f72 60be
00000220: 52f2 af3e 8dd5 63be f46c 913e e891 c6be
00000230: 92b3 fbbd 1877 4abe 0115 5abe c4a7 523d
00000240: 86be c9be 8900 c5be 5297 c43e bd6c af3e
00000250: 975a 4abf 0764 be3e 43c3 1a3f 895d aabb
00000260: 9397 b2bd ada3 523e a0bd 863d d1be 29be
00000270: 2981 073e be6f 84bd b26d 5bbb 9389 77bd
00000280: d4db 96be 19fd cdbd 2b5e b5be 4343 0ebf
00000290: 1b8f 533f ba39 f0be bf30 6cbf 768c b93e
000002a0: 86f6 48be e8c9 053e 9f47 323e 87a7 afbe
000002b0: c9a8 6a3d d0a1 c63e f332 a03e 550a 30be
000002c0: 9015 2f3e fc31 ccbd 4728 1bbf 360f 4cbe
000002d0: cc1c 1f3d 4ee2 e53c ece0 7cbe e9f2 01bf
000002e0: d2dc 443e 2ead a4bd e246 cb3e 3fb7 02be
000002f0: 40d4 cfbe 57d5 9abb 1331 18be f86b 1c3d
00000300: 255d 3bbe f626 aa3e 2732 01bf 409c 9cbe
00000310: 38a5 a9be 4cde ed3e b672 babe cdf2 9a3e
00000320: 2329 963e 775f bbbe abeb e23e d573 3ebd
00000330: 6008 02be 5c45 f23e 726a 40be 4750 4a3e
00000340: d2c9 463e bc4f abbd 0907 37bf f656 d2be
00000350: aa68 683e 189d 333e 2a17 4ebe bbc0 cbbe
00000360: 504b 703e 6723 143e 7b3d 003f 2a40 78be
00000370: 8e43 50be 7503 0b3c b354 013d fbe8 8a3e
00000380: dade 623f 693a 9b3f c81e 8dbd 8d53 b9be
00000390: 5216 a5be 2c8e a33e 9358 48be af6a 3f3e
000003a0: f3f6 6d3e a9fb 213e be07 603e 45db d63d
000003b0: dbdd 07be afbf b3be e4af 883e e850 3d3e
000003c0: 2cda 65be 7b7e 73be ef38 a7be 9e37 dbbe
000003d0: 3cf7 203e 9cc2 e93e 4480 a43d cee2 57be
000003e0: f8ed 1f3c 3520 acbd cf17 4c3e 96e1 21be
000003f0: 0c4f a13d ac26 09bd 8a09 8ebe f192 0a3c
