models/NeuMF32.pt (torch, 693554 bytes, 16 tensors)

weight f4 [943, 32]
-0.38368365 -0.40888828 -1.1745456 0.1814326 -1.9647876 0.72851264 0.82904255 -0.2091355
-0.5368055 0.7603557 0.019706948 -1.3195397 -0.18147698 0.31208256 -1.7270586 -0.013903353
0.49070203 -0.90803355 -1.6338346 -0.83749837 -0.59357905 0.49469307 0.0982741 1.3351103
-0.20915283 0.1735128 0.43440306 -0.3859744 -0.34322855 -0.6623486 1.6359208 0.6476511
0.8706998 2.5940824 -0.7318314 -0.9312103 1.262354 -3.1604416 1.5628624 -2.3989027
-0.31153414 0.36174542 0.12130943 -1.049353 -2.5472624 -1.1944937 0.43416578 0.7204528
1.9835383 0.6552703 0.094413616 0.21723022 -0.7199071 -0.8362819 -0.13326219 0.48064822
-4.2241545 1.2618096 -1.3303436 -0.5742439 -0.796558 1.3424367 -1.2096363 0.51913875
1.9653374 0.26354823 -0.02777226 0.35901493 0.609927 -0.87983346 0.19738954 1.9168537
0.8753497 0.0019520716 0.9629461 2.067449 1.8216648 1.8861579 -0.9272375 -1.2820802
1.4811857 0.063025534 0.72917944 -0.30588913 1.730819 -2.6548762 -1.9904667 0.05043444
-0.4312021 1.745542 1.119815 1.6095538 -0.47763944 -1.6055623 0.10897984 1.7451669
0.9759843 1.4321412 -1.4522059 -0.46196222 -0.29789317 0.257255 -1.3251863 -0.48987004
0.79903495 0.91530204 0.37691012 1.2655708 -1.2959226 -0.9604111 -1.2044653 0.3096909
2.8998094 2.06224 -0.21087652 0.63707644 3.0273523 0.6120791 0.9678853 0.08624796
-0.3057649 -3.5873742 1.7151579 2.7188745 0.8717346 -0.18585873 -1.6657311 1.6039556
0.13809103 -1.1423693 0.62470675 0.10000092 -0.5473201 1.3027003 -0.95584744 1.5302477
-0.1274125 -0.8152389 0.95937765 0.6237907 -0.21440804 -0.65229607 -0.05616554 -1.5271559
2.0901446 -0.5070758 -0.72626495 0.015592999 -0.30523184 1.9955709 2.0790915 -2.2643228
0.8098295 -0.114123374 -2.4297686 1.175486 -1.4716839 0.7072481 -2.192783 -1.1071767
0.44438466 -1.2572601 -1.7982258 -0.6226013 -0.4312184 1.253096 0.72840893 0.93065286
-0.3356548 -0.345662 0.5091966 -1.0712986 0.24389459 1.0601648 0.39694506 -0.8503523
-0.8093844 0.9223426 0.7844771 0.59504634 1.4725379 1.2253277 0.91353494 0.8414836
-0.25453877 -1.1333988 -0.1280466 0.08560679 -0.4609348 -0.6401935 0.24854839 0.2643062
-0.21050492 -0.5163683 1.9787713 -3.1990745 0.4370386 -0.24581139 -0.374375 -0.6073831
-1.4698163 -0.13000901 -0.22182292 -1.1405048 0.105093144 -0.4261246 -0.89680785 0.832715
-0.32259518 0.95874345 0.0912551 1.4581773 0.08841138 0.29612213 0.085528344 -0.43214992
0.5246638 -1.280603 -0.9515496 -0.17842726 1.1229224 2.3365057 -1.3287338 1.588292
-1.5998578 0.8977357 -1.0481757 -5.2172594 -0.83025336 0.8075817 -0.74835765 -1.4029098
0.1936792 2.8045228 1.4247141 -0.34845543 -1.7124386 -1.3498018 0.71694994 -0.026130041
-2.134776 -0.90035367 -1.0451875 2.5070944 1.5094851 -1.1915793 1.7500049 0.47718924
-0.8316204 0.29702538 1.7677764 -0.5673354 0.84141046 -0.6527508 -1.0609438 -0.30092233
00000000: 2f72 c4be ce59 d1be 8357 96bf 78c9 393e
00000010: 297e fbbf ce7f 3a3f 223c 543f 9e27 56be
00000020: 166c 09bf aca6 423f 7770 a13c ade6 a8bf
00000030: 1ad5 39be 49c9 9f3e 4210 ddbf e4ca 63bc
00000040: 4c3d fb3e e374 68bf 7e21 d1bf 4b66 56bf
00000050: ccf4 17bf 6948 fd3e ee43 c93d e5e4 aa3f
00000060: 292c 56be 57ad 313e 146a de3e 709e c5be
00000070: a7bb afbe ae8f 29bf da65 d13f 76cc 253f
00000080: 2fe6 5e3f 7205 2640 4d59 3bbf cc63 6ebf
00000090: d194 a13f ad44 4ac0 e00b c83f 9f87 19c0
000000a0: 6781 9fbe b236 b93e 1471 f83d 3351 86bf
000000b0: 5906 23c0 2be5 98bf fa4a de3e 986f 383f
000000c0: 95e4 fd3f cbbf 273f ed5b c13d 9971 5e3e
000000d0: d54b 38bf 9216 56bf e275 08be 8617 f63e
000000e0: 462c 87c0 fa82 a13f b348 aabf a601 13bf
000000f0: 3aeb 4bbf f7d4 ab3f 5dd5 9abf 47e6 043f
00000100: 2d90 fb3f cbef 863e a782 e3bc ced0 b73e
00000110: 2d24 1c3f c43c 61bf 7c20 4a3e 765b f53f
00000120: eb16 603f a7dc ff3a a383 763f 1651 0440
00000130: 502c e93f 9f6d f13f 705f 6dbf 341b a4bf
00000140: 7e97 bd3f 8813 813d 81ab 3a3f 809d 9cbe
00000150: 7a8b dd3f 7ee9 29c0 9dc7 febf 5894 4e3d
00000160: 86c6 dcbe ec6d df3f 1956 8f3f dc05 ce3f
00000170: 288d f4be 1183 cdbf d330 df3d a161 df3f
00000180: 1bda 793f 6750 b73f e2e1 b9bf 5086 ecbe
00000190: 7485 98be edb6 833e b49f a9bf 3fd0 fabe
000001a0: 8e8d 4c3f 3c51 6a3f 5dfa c03e 39fe a13f
000001b0: cbe0 a5bf 80dd 75bf eb2b 9abf ce8f 9e3e
000001c0: 7a96 3940 bdfb 0340 04f0 57be 7117 233f
000001d0: 24c0 4140 37b1 1c3f 55c7 773f c5a2 b03d
000001e0: 388d 9cbe 8a97 65c0 4b8a db3f 0a02 2e40
000001f0: 002a 5f3f c051 3ebe ad36 d5bf 6b4e cd3f
00000200: bc67 0d3e 2839 92bf c8ec 1f3f 48cd cc3d
00000210: 2c1d 0cbf e2be a63f 6bb2 74bf 28df c33f
00000220: 6c78 02be 7fb3 50bf c699 753f bfb0 1f3f
00000230: c88d 5bbe e0fc 26bf d60d 66bd d879 c3bf
00000240: eec4 0540 b8cf 01bf 80ec 39bf c779 7f3c
00000250: 5947 9cbe de6e ff3f d60f 0540 aaea 10c0
00000260: fc50 4f3f 84b9 e9bd 5481 1bc0 5376 963f
00000270: 2360 bcbf 360e 353f 8f56 0cc0 f7b7 8dbf
00000280: 6386 e33e e6ed a0bf 432c e6bf cc62 1fbf
00000290: a8c8 dcbe 7365 a03f 0279 3a3f 443f 6e3f
000002a0: f2da abbe 9cfa b0be b55a 023f 5020 89bf
000002b0: 81bf 793e 7bb3 873f 623c cb3e b0b0 59bf
000002c0: d133 4fbf a51e 6c3f 7ed3 483f f554 183f
000002d0: 1f7c bc3f 8ad7 9c3f 6ddd 693f 786b 573f
000002e0: e852 82be 3613 91bf a61e 03be 9d52 af3d
000002f0: a5ff ebbe b9e3 23bf 7883 7e3e 2453 873e
00000300: 9a8e 57be b730 04bf 6148 fd3f a3bd 4cc0
00000310: 86c3 df3e fbb5 7bbe 14ae bfbe 757d 1bbf
00000320: f122 bcbf 1521 05be 8c25 63be 10fc 91bf
00000330: 133b d73d 012d dabe 3395 65bf cf2c 553f
00000340: 322b a5be 3670 753f f4e3 ba3d 8ea5 ba3f
00000350: 0711 b53d 529d 973e 7c29 af3d c142 ddbe
00000360: 5e50 063f cdea a3bf c198 73bf a3b5 36be
00000370: ecbb 8f3f 4f89 1540 f313 aabf 274d cb3f
00000380: 24c8 ccbf 02d2 653f 9f2a 86bf caf3 a6c0
00000390: 7c8b 54bf adbd 4e3f 5e94 3fbf 8c92 b3bf
000003a0: d753 463e 4d7d 3340 085d b63f c068 b2be
000003b0: 3031 dbbf 4ec6 acbf 088a 373f ab0e d6bc
000003c0: 2ca0 08c0 947d 66bf b4c8 85bf 3c74 2040
000003d0: cf36 c13f ac85 98bf 2900 e03f 2652 f43e
000003e0: 13e5 54bf b613 983e 7f46 e23f e53c 11bf
000003f0: ad66 573f ad1a 27bf 02cd 87bf 7e12 9abe

weight f4 [1682, 32]
0.6676739 0.585464 -1.8971014 -0.52138835 -1.0502224 -0.0967904 1.0788797 -0.41376945
0.8900779 0.54399246 -0.96400285 -1.3279275 -0.043198492 -0.001998659 0.43849623 0.65758055
0.1303694 -0.15490216 -0.82132715 0.48124894 0.33365762 0.6887219 0.90935266 -0.9337795
-1.755213 0.25913653 0.30038196 1.2539958 1.0634356 -0.84496176 -0.0058942013 -1.0652282
1.2542665 1.5769947 1.9370587 -1.4332832 1.7178564 -0.57811874 1.3044497 -1.2263957
0.38219973 0.032366097 -0.9869585 -0.67906564 -1.704587 -0.68278503 0.34533674 -1.2941492
0.28426892 -0.24750666 -0.34182167 0.93165463 0.92050326 -1.3570746 0.58593625 -0.17989148
-0.71907586 0.1197772 -0.19774607 -0.17952578 -0.30425763 -0.93229645 -1.2068427 -1.1215687
-0.6897256 -0.038844503 0.6843254 1.5331229 2.2430313 -0.70230556 -0.7810386 0.42562285
-0.16001962 1.1232041 1.3611246 0.8651852 -0.58727306 2.2702188 0.3270981 -1.1090962
0.101088434 -0.94144654 3.009162 0.64057016 -1.0267861 1.1092361 1.03011 -1.359499
0.07634528 1.4944972 0.7491656 -0.47543818 0.9329978 0.5127069 -0.86718816 -0.45125705
-1.7198263 1.7381597 -0.19790907 -0.99855924 1.9964569 -1.0344704 -0.15240283 0.12603763
-1.1318628 0.35424346 -0.7023054 1.4958899 -1.5518221 -1.6567512 2.3870578 -0.7595088
0.75231045 0.78345346 -0.14722268 0.49985564 -0.09008263 -2.2782476 0.40249398 1.5078514
-0.0371734 0.83854806 -0.4509801 -0.116868645 -1.143101 -0.3839188 0.012565397 -0.10683227
0.11343644 0.30056432 1.6970383 -0.113351926 2.703654 2.4861052 -0.9935873 0.770221
2.2129996 0.16909896 -0.2541157 -1.4675405 1.6477212 2.0176988 -1.5422598 -0.7985178
-0.01791995 -0.2778749 -0.012615323 0.25699586 1.3456539 -0.66342336 -0.26020542 -0.10066599
-0.23648472 0.19938655 -0.28496736 0.2600424 0.87841576 -1.0626646 -1.726421 -0.55933636
-1.1698875 -2.3510125 1.552821 -1.1981664 0.24345087 -0.82651746 0.11675073 0.30720463
0.25126648 0.28734636 -1.9958714 0.40901452 1.1163226 -1.5401559 1.3944372 -0.28829327
0.21954106 1.4131646 0.27787575 0.9749789 2.7163696 -0.41979885 0.581282 -0.096829556
1.0719137 -2.2971206 -1.7688859 -0.04832848 -1.2756906 -0.49238738 -0.92472756 0.5269934
-0.48349723 -0.29622656 -0.87590885 1.0883099 -0.9947413 0.9855257 0.9152433 -0.16012007
0.42658046 -0.16555087 0.26112896 -0.94072884 -0.16531308 -1.711937 1.9485759 -1.1639205
0.9956205 -0.027337989 -0.88052505 0.63631696 -0.11866161 0.72349966 -0.4177585 1.2686098
-0.5404873 1.7944249 1.4824147 -0.72945976 1.5871404 -0.45165336 0.8517822 0.46942195
0.82899565 2.4028206 0.5374203 -0.22604978 -1.1851523 -0.8196833 -0.5333822 -1.1471702
-0.9797431 -0.9425476 0.39630884 -0.50948066 -0.25625423 -1.2937473 -0.5264711 1.0720952
0.0024597773 -0.26424414 0.50689095 -1.7533798 -0.5075201 0.45019776 -0.914026 1.7102742
1.3452432 0.1343685 1.192144 -0.06467237 -0.06403471 -0.270118 2.0721135 0.48412138
00000000: adec 2a3f f8e0 153f 38d4 f2bf b579 05bf
00000010: b06d 86bf 0c3a c6bd bb18 8a3f 97d9 d3be
00000020: 25dc 633f 1743 0b3f e4c8 76bf 87f9 a9bf
00000030: e7f0 30bd effb 02bb 9482 e03e 3357 283f
00000040: 8e7f 053e ac9e 1ebe 7f42 52bf 4366 f63e
00000050: 2cd5 aa3e 1450 303f 56cb 683f 2c0c 6fbf
00000060: d2aa e0bf 8bad 843e aacb 993e ef82 a03f
00000070: a81e 883f 6a4f 58bf 2524 c1bb 6659 88bf
00000080: ce8b a03f f6da c93f 8af1 f73f d375 b7bf
00000090: b8e2 db3f 97ff 13bf 35f8 a63f 89fa 9cbf
000000a0: afaf c33e 5092 043d 50a9 7cbf 3fd7 2dbf
000000b0: e82f dabf 00cb 2ebf facf b03e aea6 a5bf
000000c0: b28b 913e 6372 7dbe 4003 afbe eb80 6e3f
000000d0: 1aa6 6b3f 9fb4 adbf ebff 153f 7935 38be
000000e0: 5b15 38bf c04d f53d f27d 4abe 9bd5 37be
000000f0: a8c7 9bbe fbaa 6ebf d279 9abf 908f 8fbf
00000100: db91 30bf 6a1b 1fbd f32f 2f3f 5f3d c43f
00000110: d38d 0f40 4cca 33bf 25f2 47bf 3deb d93e
00000120: 2fdc 23be 27c5 8f3f 5539 ae3f c77c 5d3f
00000130: 8757 16bf 444b 1140 6779 a73e ddf6 8dbf
00000140: 7407 cf3d a402 71bf 1c96 4040 68fc 233f
00000150: ba6d 83bf 73fb 8d3f a5da 833f 1004 aebf
00000160: ea5a 9c3d af4b bf3f 51c9 3f3f a26c f3be
00000170: f2d8 6e3f c240 033f 0b00 5ebf 2a0b e7be
00000180: 4523 dcbf 047c de3f ada8 4abe 94a1 7fbf
00000190: e68b ff3f 8769 84bf 7d0f 1cbe 0210 013e
000001a0: e1e0 90bf 665f b53e 49ca 33bf 5279 bf3f
000001b0: 1ba2 c6bf 6c10 d4bf 8ec5 1840 2b6f 42bf
000001c0: 6b97 403f 6890 483f 8bc1 16be 14ed ff3e
000001d0: 3e7d b8bd cfce 11c0 b113 ce3e 4601 c13f
000001e0: 2343 18bd 16ab 563f dde6 e6be d458 efbd
000001f0: 2251 92bf 0191 c4be 18df 4d3c e1ca dabd
00000200: 5d51 e83d 91e3 993e 8d38 d93f 0e25 e8bd
00000210: ab08 2d40 591c 1f40 bd5b 7ebf 342d 453f
00000220: c9a1 0d40 4728 2d3e 741b 82be 5ed8 bbbf
00000230: 87e8 d23f fa21 0140 c568 c5bf aa6b 4cbf
00000240: dccc 92bc 9e45 8ebe 80b0 4ebc f694 833e
00000250: 633e ac3f 1dd6 29bf a539 85be f829 cebd
00000260: 0d29 72be fd2b 4c3e 3ee7 91be 4724 853e
00000270: dbdf 603f 6505 88bf 5dfb dcbf ab30 0fbf
00000280: e0be 95bf fd76 16c0 d7c2 c63f 845d 99bf
00000290: 2f4b 793e a696 53bf 021b ef3d ed49 9d3e
000002a0: 00a6 803e 101f 933e b778 ffbf 5a6a d13e
000002b0: a9e3 8e3f d423 c5bf eb7c b23f 2d9b 93be
000002c0: 5fcf 603e 94e2 b43f bb45 8e3e 3898 793f
000002d0: 00d9 2d40 e0ef d6be e6ce 143f 934e c6bd
000002e0: 7834 893f 0604 13c0 da6a e2bf 16f4 45bd
000002f0: d449 a3bf 331a fcbe f2ba 6cbf 0ae9 063f
00000300: f38c f7be 02ab 97be 903b 60bf bd4d 8b3f
00000310: 5ea7 7ebf 6a4b 7c3f 634d 6a3f 84f6 23be
00000320: c168 da3e 2b86 29be b2b2 853e 9bd3 70bf
00000330: d547 29be c020 dbbf ef6a f93f 59fb 94bf
00000340: fce0 7e3f ebf3 dfbc 176a 61bf abe5 223f
00000350: dc04 f3bd 4637 393f 71e4 d5be ce61 a23f
00000360: 605d 0abf b7af e53f c4bf bd3f e0bd 3abf
00000370: 6b27 cb3f 1c3f e7be 660e 5a3f 1358 f03e
00000380: 0f39 543f d0c7 1940 6094 093f 9879 67be
00000390: 12b3 97bf c4d6 51bf bc8b 08bf 79d6 92bf
000003a0: 72d0 7abf cd4a 71bf fee8 ca3e 536d 02bf
000003b0: c133 83be 8399 a5bf cfc6 06bf 6a3a 893f
000003c0: 3734 213b 024b 87be 9bc3 013f c06e e0bf
000003d0: d6ec 01bf 5280 e63e 9cfd 69bf 44ea da3f
000003e0: ee30 ac3f e597 093e 2d98 983f f372 84bd
000003f0: a124 83bd e84c 8abe 829d 0440 c2de f73e

weight f4 [8, 32]
-0.22627251 -1.1189575 0.17363396 0.4605352 -0.42200747 0.42439267 0.6853095 0.047883224
0.37494284 -0.1607992 0.5318542 -0.453961 1.688144 -0.6357947 0.43173888 0.175313
-0.10236097 0.23721096 -0.053467784 1.07537 -0.99821764 0.43574256 0.54415476 -0.107235044
-0.4373294 -0.042401504 -0.111875616 0.66159654 -0.620213 0.19123107 0.14516804 -0.009859487
-0.187847 0.16026445 -0.20303008 -0.3452269 -0.06873793 0.25401703 0.19895825 -0.111600846
-0.24730416 0.50542396 -1.0116793 -0.24868928 -1.7254949 -0.034998793 0.11858055 0.07944358
-0.2213527 -0.4655804 -0.16426887 -0.79678416 1.7420083 0.21955636 -0.14951985 0.47672594
-0.20770586 -0.18496121 0.48519197 0.2743213 0.35030642 0.15874553 -0.008249239 0.15220955
-0.5853932 0.074213006 -0.10188503 -0.3831468 -0.26315972 0.18720396 -0.04523331 -0.09793185
-0.2936832 0.30623737 -0.03177818 -0.46321002 -3.1131496 -0.43145213 -0.06552628 -0.0063063344
0.39672178 -0.14894398 -0.457053 -0.25562838 0.94420934 -0.122468464 -0.4523966 0.12715912
0.43880838 0.30962947 0.70254016 -0.0029614768 0.32239044 0.39234963 -0.08381598 0.38659024
0.16877708 0.09567702 0.07045648 -0.009509283 -0.1349944 0.20257495 0.15160151 -0.078433946
0.11834902 0.40026966 -0.6722912 0.16237128 -0.0040679285 0.3478784 0.026554797 -0.043614652
-0.5208029 -0.17994839 -0.17304294 -0.50403726 0.8301769 0.38998532 -0.039459236 0.1785561
0.05680023 -0.0072585815 0.029406652 -0.5204957 0.38999325 -0.42070925 0.3209217 0.26268482
-0.1530107 -0.7136059 0.2520923 0.360293 0.30037463 0.594022 -0.07497957 -0.83624035
-0.01340218 0.097341515 -0.7141678 0.5344214 0.15750445 -0.046573687 -0.19066817 0.5771064
-0.79675305 -0.42234743 0.11724969 -0.37476754 0.97325325 0.350096 -0.25085962 -0.36091268
-0.039003614 -0.32399258 -0.19486079 0.27618673 -0.061605312 -0.09788306 0.019848807 0.016330373
0.59706783 -0.3342162 0.23123507 0.06583238 0.44329432 0.25916854 0.03568286 -0.44270906
0.837769 -0.25729674 -0.47978467 0.16035934 2.3763082 -0.14673406 0.43574896 0.013735533
-0.8058923 -0.5842869 0.2184382 -0.5418921 0.12545072 0.5214769 0.54697007 -0.03709568
-0.34820285 -0.5392638 -0.33083832 -0.018003695 0.09663502 -0.6826167 0.7812967 -0.4391638
-0.46392474 -0.38396353 -0.5767715 0.008240176 0.017396903 0.17063345 -0.22576295 -0.5989561
0.26563585 -0.3932844 0.8219985 -0.88699216 -2.9922605 -0.3554593 -0.2723798 -0.15585573
0.7464821 -0.44475666 0.02364091 0.2805095 -0.37798378 0.0076763956 0.029837605 -0.69979393
0.29254326 0.24206476 -0.0050001945 -0.013021056 0.047678284 0.13978979 0.07737698 0.26738706
-0.015274437 2.239964 -0.09677761 -0.73482007 0.012849733 -0.59099054 0.11193338 -0.44323996
0.5480806 -0.91123617 0.16890344 -0.22354531 1.3269665 -0.14621763 0.4472179 -0.73268735
-0.0029097921 -0.4354013 0.036679126 -0.3610567 -0.19906354 -0.41234872 0.68409747 0.29870895
0.23598008 0.005061004 -0.39863783 -0.7057334 0.21333483 -0.24300009 0.83239406 -0.58043104
00000000: fbb3 67be 003a 8fbf 1acd 313e 45cb eb3e
00000010: 5d11 d8be ff49 d93e 7270 2f3f 3321 443d
00000020: 82f8 bf3e 8ca8 24be 9927 083f 946d e8be
00000030: 1a15 d83f 71c3 22bf e10c dd3e 4085 333e
00000040: a1a2 d1bd 6ee7 723e 0901 5bbd b9a5 893f
00000050: 318b 7fbf a619 df3e ba4d 0b3f 0c9e dbbd
00000060: a4e9 dfbe 33ad 2dbd 0b1f e5bd 645e 293f
00000070: 47c6 1ebf 14d2 433e eea6 143e b089 21bc
00000080: f75a 40be 5d1c 243e 1ee7 4fbe 95c1 b0be
00000090: 79c6 8cbd 850e 823e b6bb 4b3e fc8e e4bd
000000a0: 4d3d 7dbe 7763 013f b57e 81bf 67a8 7ebe
000000b0: 04dd dcbf e55a 0fbd 5cda f23d 51b3 a23d
000000c0: 48aa 62be 8e60 eebe 1936 28be 0cfa 4bbf
000000d0: 21fa de3f 62d3 603e bb1b 19be 6c15 f43e
000000e0: d8b0 54be 7966 3dbe 156b f83e d773 8c3e
000000f0: 5d5b b33e 308e 223e d127 07bc d2dc 1b3e
00000100: 54dc 15bf fdfc 973d 19a9 d0bd d12b c4be
00000110: dfbc 86be 65b2 3f3e 9046 39bd 7e90 c8bd
00000120: a55d 96be 25cb 9c3e d629 02bd dd29 edbe
00000130: d83d 47c0 4be7 dcbe a432 86bd 5ea5 cebb
00000140: 1e1f cb3e c584 18be da02 eabe b9e1 82be
00000150: b4b7 713f bfd0 fabd 87a0 e7be 0036 023e
00000160: 7eab e03e c187 9e3e acd9 333f 5615 42bb
00000170: 5c10 a53e 0de2 c83e b6a7 abbd 28ef c53e
00000180: e6d3 2c3e 50f2 c33d 7d4b 903d d3cc 1bbc
00000190: f93b 0abe cf6f 4f3e 6d3d 1b3e faa1 a0bd
000001a0: f960 f23d 25f0 cc3e 471b 2cbf a844 263e
000001b0: 424c 85bb 1e1d b23e 7289 d93c 47a5 32bd
000001c0: 5753 05bf 6444 38be 2b32 31be 9608 01bf
000001d0: 7986 543f 28ac c73e 02a0 21bd 69d7 363e
000001e0: 5ca7 683d 65d9 edbb 38e6 f03c 353f 05bf
000001f0: 32ad c73e 3467 d7be d94f a43e a07e 863e
00000200: d6ae 1cbe e0ae 36bf 3e12 813e 5378 b83e
00000210: b4ca 993e d311 183f e48e 99bd d913 56bf
00000220: d194 5bbc fd5a c73d b3d3 36bf d7cf 083f
00000230: d948 213e 0dc4 3ebd 843e 43be 3fbd 133f
00000240: 02f8 4bbf ec3d d8be 9b20 f03d 88e1 bfbe
00000250: 2027 793f c83f b33e ac70 80be 8cc9 b8be
00000260: 41c2 1fbd 5be2 a5be 9689 47be 5968 8d3e
00000270: da55 7cbd ea76 c8bd f799 a23c 46c7 853c
00000280: 70d9 183f 631e abbe e3c8 6c3e 20d3 863d
00000290: 79f7 e23e bdb1 843e 3128 123d c3aa e2be
000002a0: 0778 563f 66bc 83be 56a6 f5be 3d35 243e
000002b0: 6f15 1840 7441 16be 7d1a df3e 000b 613c
000002c0: f54e 4ebf d493 15bf 43ae 5f3e 71b9 0abf
000002d0: 2776 003e 837f 053f 3b06 0c3f a4f1 17bd
000002e0: a547 b2be 310d 0abf a463 a9be 7c7c 93bc
000002f0: 95e8 c53d f8bf 2ebf 0f03 483f 14da e0be
00000300: 8b87 edbe de96 c4be 4ca7 13bf ce01 073c
00000310: f383 8e3c 89ba 2e3e 672e 67be 3055 19bf
00000320: 6c01 883e 935c c9be 7e6e 523f eb11 63bf
00000330: 3281 3fc0 c3fe b5be 5d75 8bbe a598 1fbe
00000340: 7319 3f3f 25b7 e3be 95aa c13c f19e 8f3e
00000350: 1787 c1be 468a fb3b fe6d f43c b225 33bf
00000360: 3bc8 953e d3df 773e acd8 a3bb 4456 55bc
00000370: 4e4a 433d 0e25 0f3e d277 9e3d f5e6 883e
00000380: a241 7abc 925b 0f40 5733 c6bd 2b1d 3cbf
00000390: b087 523c 284b 17bf 543d e53d 59f0 e2be
000003a0: 034f 0c3f c646 69bf 06f5 2c3e 10e9 64be
000003b0: 0ada a93f 13ba 15be bff9 e43e 6691 3bbf
000003c0: 36b2 3ebb ebec debe da3c 163d 6cdc b8be
000003d0: 50d7 4bbe 5f1f d3be 0321 2f3f 61f0 983e
000003e0: c3a4 713e c7d6 a53b 421a ccbe f2aa 34bf
000003f0: 7274 5a3e 04d5 78be c717 553f 2197 14bf

weight f4 [943, 32]
0.82984835 1.3640035 -0.3380383 -3.2164803 2.719462 -1.8430592 -2.158867 -0.30737424
-0.16952918 0.21644981 -1.0747559 -1.228702 -0.837173 -0.8082955 -0.7823799 -1.1095227
-2.7763078 1.0706297 -2.9964538 -0.890425 -2.1895642 2.0138085 1.7145567 1.6989864
1.2037319 1.8409619 0.6596949 1.0866247 0.78550595 -0.2783039 -1.7051845 1.9560211
-1.475308 0.6765899 0.5891016 -0.27669865 0.93891317 0.8382043 0.67569715 -0.12699391
-1.1394453 0.8349259 0.8763719 0.22102912 1.1853855 1.192563 1.8590074 0.2083786
-0.9262547 -1.6119472 -0.83691 1.8525629 0.8027956 -1.1526562 -0.56539094 -0.44153386
-0.30887973 -1.6172265 -0.98592484 0.06753419 -1.8779696 0.2924873 -0.65731335 -0.99240434
-1.5550051 -0.79282624 -0.43678018 0.34313652 0.8715703 1.1907375 -0.71312386 -2.2591994
0.38320103 1.6739225 -1.1329491 0.24350171 -0.12521312 1.5279566 2.3895013 -0.062446423
0.52885336 -0.035718765 -0.983376 1.0488169 -0.334876 -0.6817711 -1.5097426 -2.000234
-0.34367812 -0.78097534 -0.7985812 2.2896128 -1.4038198 1.3899196 -1.2762846 0.35447726
-1.2443722 -1.531616 0.9979199 1.0852885 -1.7486109 1.0615125 0.7653863 -2.3963566
-0.37940487 -0.20987372 0.19683538 0.820962 -0.88287747 0.7419237 4.6145935 0.42180178
0.16499947 -1.9718947 -0.45931387 0.89817053 0.017922906 -0.5253854 -0.22615193 0.7851717
-0.33595473 -2.1591616 2.1329956 0.6553626 -1.197796 0.4119887 0.53355 -1.6138767
1.9193197 0.43419728 -0.43814066 -0.7791905 0.44916272 0.7139074 0.09517771 -0.17013545
-1.845003 0.3941229 1.921243 0.7731908 0.7958161 0.105964884 0.84557486 0.051112168
-2.210228 -1.6323645 1.217205 0.15765545 1.2057179 -1.3236651 1.1604227 -1.9268891
-0.73975945 -1.0690094 0.10553373 1.0711393 -0.15241742 0.15738213 0.42586258 1.1518923
1.7759997 1.956878 -1.1732851 0.23859642 1.2495233 0.73805267 -1.7933209 1.2084405
-1.2815579 -3.2179434 -1.7857064 -2.5540848 -1.5515745 1.0981989 -1.2650814 -1.72709
-0.51402766 0.43883568 0.8748824 -0.06139376 -0.58569616 1.5999559 2.3648384 1.4723777
1.49855 -0.5615443 -1.2124659 0.87311023 2.369061 -1.9788308 0.4986335 -1.7373306
3.2847676 1.9850276 -2.6905346 -1.9254525 0.7511713 -0.6652775 0.16913655 2.344195
-1.137353 -0.24158008 -0.67602104 -2.969406 -2.5923357 -1.0750643 -1.4771427 -3.475047
-1.6089302 2.3443058 -1.356844 -0.5002462 0.44489548 0.15314867 -0.4369963 2.266297
1.7968948 2.2072442 -3.86733 1.6131783 2.1231267 -2.8995407 -2.152049 1.2355303
-1.2305975 0.55846435 -0.20669456 1.8652732 1.6729188 0.8435243 -0.58949965 -0.5299549
-0.66260844 -0.07676707 0.9203658 -0.2460523 -0.90091395 -0.7870078 0.60627955 0.7802556
0.0027533607 1.1036813 -0.32699198 0.76589274 -0.6507463 1.4672353 0.43876225 2.2372754
1.0881451 -0.22754735 1.7331475 -1.0057322 0.33003938 0.17868705 0.6360117 -1.811851
00000000: f170 543f ab97 ae3f 5b13 adbe d0da 4dc0
00000010: aa0b 2e40 5de9 ebbf e02a 0ac0 2860 9dbe
00000020: 0f99 2dbe 05a5 5d3e 9a91 89bf 1b46 9dbf
00000030: f850 56bf 74ec 4ebf 0d4a 48bf d704 8ebf
00000040: 07af 31c0 650a 893f e6c5 3fc0 e5f2 63bf
00000050: d221 0cc0 3de2 0040 9876 db3f 6378 d93f
00000060: e313 9a3f a4a4 eb3f c4e1 283f 8516 8b3f
00000070: eb16 493f d97d 8ebe 7c43 dabf e65e fa3f
00000080: e4d6 bcbf ff34 2d3f 5dcf 163f 72ab 8dbe
00000090: 9d5c 703f 8f94 563f 7dfa 2c3f b10a 02be
000000a0: 58d9 91bf b4bd 553f e959 603f 7555 623e
000000b0: b6ba 973f e8a5 983f f4f3 ed3f 3361 553e
000000c0: 071f 6dbf 4954 cebf bc3f 56bf c820 ed3f
000000d0: 0384 4d3f 3d8a 93bf 76bd 10bf ba10 e2be
000000e0: 7c25 9ebe 4701 cfbf 9265 7cbf 5e4f 8a3d
000000f0: 4f61 f0bf e5c0 953e b045 28bf 360e 7ebf
00000100: 680a c7bf a9f6 4abf a7a1 dfbe 97af af3e
00000110: 3b1f 5f3f 166a 983f 498f 36bf b996 10c0
00000120: ed32 c43e 1843 d63f 7a04 91bf 8358 793e
00000130: de37 00be 1594 c33f 97ed 1840 d2c7 7fbd
00000140: ef62 073f d74d 12bd 88be 7bbf a23f 863f
00000150: de74 abbe 8d88 2ebf 3f3f c1bf d503 00c0
00000160: 94f6 afbe 00ee 47bf d16f 4cbf 0489 1240
00000170: 5eb0 b3bf e3e8 b13f 4b5d a3bf 0b7e b53e
00000180: 9747 9fbf fe0b c4bf ae77 7f3f bcea 8a3f
00000190: 7bd2 dfbf a4df 873f 5bf0 433f e85d 19c0
000001a0: 5b41 c2be 23e9 56be 378f 493e 912a 523f
000001b0: 4204 62bf b6ee 3d3f c0aa 9340 67f6 d73e
000001c0: 9ff5 283e 0c67 fcbf 302b ebbe 81ee 653f
000001d0: 0fd3 923c a87f 06bf 5f94 67be 0301 493f
000001e0: 4202 acbe b42f 0ac0 0083 0840 d8c5 273f
000001f0: 6151 99bf 2ff0 d23e bc96 083f 8393 cebf
00000200: 45ac f53f 1b4f de3e f953 e0be 0779 47bf
00000210: a8f8 e53e a3c2 363f 88ec c23d fd37 2ebe
00000220: 0f29 ecbf 7aca c93e 4aeb f53f d5ef 453f
00000230: 9bba 4b3f 1e04 d93d 9877 583f fe5a 513d
00000240: 6074 0dc0 52f1 d0bf 60cd 9b3f 6e70 213e
00000250: f754 9a3f dc6d a9bf bb88 943f 4da4 f6bf
00000260: e060 3dbf 4dd5 88bf 1122 d83d 181b 893f
00000270: 5013 1cbe c828 213e a90a da3e 3571 933f
00000280: f553 e33f fa7a fa3f 352e 96bf 9f52 743e
00000290: 61f0 9f3f 05f1 3c3f 8a8b e5bf 2eae 9a3f
000002a0: 170a a4bf c9f2 4dc0 0792 e4bf 2076 23c0
000002b0: fe99 c6bf c891 8c3f 30ee a1bf 4911 ddbf
000002c0: 5197 03bf 12af e03e 4bf8 5f3f 0678 7bbd
000002d0: 2ff0 15bf 5bcb cc3f 8359 1740 df76 bc3f
000002e0: 7dd0 bf3f 5ec1 0fbf 1532 9bbf 2784 5f3f
000002f0: b29e 1740 544a fdbf e44c ff3e d960 debf
00000300: a239 5240 6215 fe3f b831 2cc0 3a75 f6bf
00000310: c34c 403f a04f 2abf 2232 2d3e 4a07 1640
00000320: c894 91bf c560 77be b70f 2dbf bf0a 3ec0
00000330: d4e8 25c0 b59b 89bf 0313 bdbf 2c67 5ec0
00000340: 6df1 cdbf 1b09 1640 10ad adbf 2310 00bf
00000350: 57c9 e33e 01d3 1c3e fbbd dfbe 030b 1140
00000360: a600 e63f 7d43 0d40 5682 77c0 a07c ce3f
00000370: 4fe1 0740 1392 39c0 2cbb 09c0 db25 9e3f
00000380: 3884 9dbf 85f7 0e3f bda7 53be 46c1 ee3f
00000390: 3422 d63f 35f1 573f 73e9 16bf 20ab 07bf
000003a0: b5a0 29bf 0e38 9dbd 189d 6b3f 22f5 7bbe
000003b0: 4ca2 66bf 5879 49bf 2335 1b3f d5be 473f
000003c0: ba71 343b 6e45 8d3f 7e6b a7be 8c11 443f
000003d0: 4f97 26bf 5ece bb3f 72a5 e03e 852f 0f40
000003e0: 5748 8b3f 2c02 69be c7d7 dd3f d5bb 80bf
000003f0: ecfa a83e bdf9 363e aad1 223f bcea e7bf

weight f4 [1682, 32]
-0.14398128 0.61073434 2.2436175 -1.3403888 1.0082426 -1.0918477 2.9269333 -2.7821302
2.275499 -1.3322366 0.38290745 0.054303322 0.23086701 3.4239528 -1.538282 0.7471698
2.1507213 0.5852264 0.94314224 -0.80657876 3.304337 0.50615704 -2.3085513 2.4214537
0.2832883 -0.14723401 -0.12867826 -0.96977216 1.6574503 -2.686227 0.7486927 -3.725242
0.34683082 -0.12444345 -0.28025046 -0.12403137 0.9553991 0.20828563 1.3763635 -1.2400197
-1.0489593 -0.77590793 0.90813 -0.83514756 -0.81128335 0.36842343 -0.28727943 -1.0617869
0.32379162 0.19322908 0.692752 -1.247079 -0.06115208 -0.09622328 -0.9491049 1.258242
0.78646827 -0.4927865 0.1939744 -0.065441966 -0.6762829 -2.6472585 -0.4442013 -0.27216423
-1.7052096 0.7192086 0.25630754 1.5264566 -0.65445554 -0.09871156 0.61118215 -0.82274395
-1.9713871 1.0037913 0.6995631 2.2843013 1.3465191 -0.8168454 0.68997383 -1.8786677
0.1614311 0.039991114 -1.2906122 -1.7564846 -0.32055447 0.16914034 -0.27617466 -0.061785866
-0.16930825 -1.8435246 -1.672764 0.95729876 -0.41806167 -0.8523889 0.08839124 -1.9306647
1.2887975 -0.34562007 0.0072585004 -0.5362597 0.38017085 1.558625 -0.009179071 0.8777082
0.20604461 -0.30466428 -0.3916454 -0.2869376 -0.6053365 0.07315527 -0.18828408 -0.41187793
0.67471683 0.51501447 -0.9969486 -0.79705536 0.32861114 -1.5452918 -1.6233294 0.3924911
0.39608148 -0.096673936 0.64994997 -1.2788292 -0.36196798 -0.60664916 0.092069164 -1.4157308
0.6658633 -1.8635105 -0.0007843773 0.93145317 -1.3357018 -1.6180792 -0.84556514 1.6500052
1.2297568 -0.56031 1.1111548 -0.32766482 -0.014419968 -0.003058023 1.0357716 -0.96520686
-0.57814384 -1.2160907 0.70760065 0.63787407 -1.0289478 0.22876394 0.74489933 0.5137756
0.08881251 -1.4237794 0.055754587 -2.0229707 1.573908 1.1963168 -1.0059217 -2.2266355
-0.8719176 -1.1509434 -0.73732024 0.5253557 -1.7081826 -1.2791326 -0.9246188 0.3338452
-0.42688066 1.202713 1.2485871 0.06308174 0.06073747 0.5295403 0.76589644 -1.054106
1.1681081 0.31239033 0.974584 2.6886425 -2.2305589 0.55059195 -0.86039656 0.055085417
-0.914359 1.3492949 1.4647236 -1.3947561 0.4769578 0.098860025 0.55579543 1.2158955
-2.0064487 -2.5848925 3.6803021 -1.2956755 1.8666438 -1.9920474 0.89672095 -0.5560944
1.4076469 -2.3518968 0.37489787 -0.7736272 0.33622465 2.0477169 -1.5647686 1.7647606
1.858613 -0.3970259 -0.3324813 -0.5398364 -0.9902358 -1.2054569 -3.0696619 0.17594104
0.2442839 -0.17221735 -0.29689792 -1.4276928 1.7582791 -2.6486046 -1.2684224 -1.7726731
0.008530564 2.5791013 0.9034229 -0.9209314 -0.289732 0.07180923 1.4885157 -2.2909636
1.6071892 -1.1957998 -0.67507416 1.0393404 -0.072354734 -1.7294534 -0.34617522 -2.6632695
-0.7302605 0.75303024 -0.5719578 -1.3788059 0.9230657 -1.6184827 -0.09251817 1.3154336
1.4951863 0.9955412 -0.45415226 -0.11851871 1.3960208 0.8452305 -1.4702549 -0.46090674
00000000: d46f 13be 1659 1c3f 6e97 0f40 dc91 abbf
00000010: 180e 813f aac1 8bbf e052 3b40 6c0e 32c0
00000020: c7a1 1140 bb86 aabf 720c c43e 296d 5e3d
00000030: 6768 6c3e 0b22 5b40 6de6 c4bf 8546 3f3f
00000040: 6ba5 0940 66d1 153f c571 713f f27b 4ebf
00000050: 427a 5340 8293 013f 4ebf 13c0 19f9 1a40
00000060: 2a0b 913e 83c4 16be 3cc4 03be fd42 78bf
00000070: 5527 d43f 25eb 2bc0 53aa 3f3f 5d6a 6ec0
00000080: cf93 b13e 35dc febd fd7c 8fbe 2904 febd
00000090: 0995 743f d448 553e ae2c b03f f7b8 9ebf
000000a0: 4c44 86bf e7a1 46bf 357b 683f 3bcc 55bf
000000b0: 44b0 4fbf ffa1 bc3e 4a16 93be a2e8 87bf
000000c0: 04c8 a53e d8dd 453e 3258 313f 49a0 9fbf
000000d0: 9a7a 7abd b610 c5bd 8af8 72bf 130e a13f
000000e0: fc55 493f 834e fcbe 3aa1 463e 7006 86bd
000000f0: e020 2dbf af6c 29c0 5a6e e3be 1c59 8bbe
00000100: 4f44 dabf 0e1e 383f be3a 833e ee62 c33f
00000110: 668a 27bf 4929 cabd 6f76 1c3f 599f 52bf
00000120: 6a56 fcbf 3c7c 803f 9116 333f fe31 1240
00000130: bd5a ac3f c81c 51bf 20a2 303f 2f78 f0bf
00000140: 324e 253e b9cd 233d c832 a5bf 7dd4 e0bf
00000150: b71f a4be 2033 2d3e c466 8dbe 2d13 7dbd
00000160: 245f 2dbe 9df8 ebbf 211d d6bf 8811 753f
00000170: 2e0c d6be 2936 5abf 7706 b53d 0520 f7bf
00000180: 51f7 a43f 1df5 b0be b7d8 ed3b 5148 09bf
00000190: c1a5 c23e 0681 c73f d063 16bc 7cb1 603f
000001a0: 5cfd 523e f5fc 9bbe bf85 c8be 7ce9 92be
000001b0: 55f7 1abf 6ed2 953d 8bcd 40be aae1 d2be
000001c0: 3eba 2c3f fdd7 033f 0638 7fbf d20b 4cbf
000001d0: b83f a83e 1fcc c5bf 42c9 cfbf 98f4 c83e
000001e0: 31cb ca3e fcfc c5bd 1f63 263f adb0 a3bf
000001f0: de53 b9be 5c4d 1bbf c28e bc3d ab36 b5bf
00000200: 0476 2a3f 8387 eebf ab9e 4dba b773 6e3f
00000210: 47f8 aabf 381d cfbf f576 58bf 5f33 d33f
00000220: ac68 9d3f 7a70 0fbf 523a 8e3f afc3 a7be
00000230: bb41 6cbc 1d69 48bb 2a94 843f cc17 77bf
00000240: 3c01 14bf dca8 9bbf 5125 353f b74b 233f
00000250: 90b4 83bf 1841 6a3e b9b1 3e3f cc86 033f
00000260: 55e3 b53d 673e b6bf ec5e 643d 5a78 01c0
00000270: d175 c93f e920 993f 0bc2 80bf 3281 0ec0
00000280: fe35 5fbf 1d52 93bf 05c1 3cbf b67d 063f
00000290: baa5 dabf 9eba a3bf d1b3 6cbf c2ed aa3e
000002a0: 1a90 dabe 80f2 993f b4d1 9f3f 0031 813d
000002b0: dac7 783d f48f 073f ca11 443f f2ec 86bf
000002c0: 9184 953f a0f1 9f3e 567e 793f b812 2c40
000002d0: 7ac1 0ec0 98f3 0c3f f342 5cbf 3fa1 613d
000002e0: 6e13 6abf b2b5 ac3f 107c bb3f 5e87 b2bf
000002f0: d033 f43e 2077 ca3d 9c48 0e3f 77a2 9b3f
00000300: a869 00c0 e16e 25c0 128a 6b40 b2d8 a5bf
00000310: 2fee ee3f 69fb febf 818f 653f 345c 0ebf
00000320: c62d b43f 7a85 16c0 9df2 bf3e 6f0c 46bf
00000330: a325 ac3e cb0d 0340 564a c8bf ade3 e13f
00000340: 08e7 ed3f fb46 cbbe fd3a aabe b832 0abf
00000350: 1880 7dbf 694c 9abf 5775 44c0 e329 343e
00000360: 8f25 7a3e bf59 30be 0103 98be a3be b6bf
00000370: 4a0f e13f bd82 29c0 aa5b a2bf f4e6 e2bf
00000380: c7c3 0b3c ff0f 2540 b946 673f 29c2 6bbf
00000390: c157 94be b810 933d af87 be3f 269f 12c0
000003a0: 60b8 cd3f f80f 99bf a9d1 2cbf 1b09 853f
000003b0: b82e 94bd bb5e ddbf e13d b1be 0273 2ac0
000003c0: 5af2 3abf 97c6 403f d46b 12bf b67c b0bf
000003d0: 094e 6c3f 712a cfbf 2b7a bdbd 2160 a83f
000003e0: 4462 bf3f cadb 7e3f a586 e8be f0b9 f2bd
000003f0: cfb0 b23f 0761 583f 5031 bcbf f8fb ebbe

weight f4 [32, 64]
-0.35004383 0.09548217 -0.016897388 0.41723353 -0.10332961 0.48624933 -0.4695025 -0.0036301494
-0.345877 0.3183529 0.41239122 0.18125525 0.6629588 -0.3563151 0.16897152 -0.07746154
-0.4283653 -0.21923344 0.37088355 -0.48008773 0.5894156 0.06149059 -0.04740649 -0.9898664
-0.49462038 0.15368263 -0.2645884 0.019874586 0.17079955 -0.11219888 0.0865709 1.1210167
0.6570435 -0.19694102 -0.17215234 0.32040083 0.0073892917 -0.58865553 0.23328725 0.47015056
-0.06699199 0.09094714 0.20223814 0.1031502 -0.16512749 -0.049173653 -0.61811817 0.14654148
-0.5259434 -0.30881405 -0.27782997 0.044649698 -0.57890415 0.3083334 0.34942642 0.17474774
-0.9185975 0.24786164 0.18462561 -0.08218433 0.46763575 0.15562631 -0.33879843 0.45550665
0.040260885 1.1031464 -0.13468733 -0.13773738 0.8511384 -0.18895648 -0.9977145 1.0774812
0.12669925 -0.5297824 -0.48215201 -0.40840405 -0.36143997 -0.15791717 -0.6669869 -0.28109062
0.24140027 0.12683162 -0.5778571 -0.16608424 0.03847378 0.9686631 0.9486808 0.70410407
-0.45092443 0.3192587 -1.0247804 0.30277294 0.89805853 -0.05349471 -0.18688335 0.09985085
0.42898548 -0.22492045 0.2612469 -0.55960995 0.48290515 0.49539232 0.06897147 -0.84850097
0.111883454 -0.2318079 0.6802685 0.034842145 0.029098574 0.05098698 -0.12558669 -0.15880477
0.39213675 0.5461988 0.020714337 -0.2855558 0.62094176 0.14107215 -0.5358131 0.20127133
-0.041803516 0.07820879 -0.1748785 0.35345536 -0.075131126 -0.4103577 0.32695276 -0.011847309
0.5920792 0.5323303 -0.27707314 -0.7437424 0.18724856 -0.0035882252 -0.005661879 0.6069993
0.120448135 -0.832075 -0.5227701 -0.5065793 -0.05669036 0.040126752 -0.57488585 -0.61402935
-0.3775115 0.45424497 -0.5640152 -0.29714543 -0.23938829 0.053823598 0.72399664 0.57868034
-0.3272476 0.10210102 -0.4295951 -0.58189327 0.8102715 0.22291815 -0.31007987 0.15971904
0.18770564 -0.43754613 0.42721838 -0.70289886 0.49670535 -0.0012663952 0.41772988 -0.87630373
0.110017225 -0.87433434 -0.407846 0.4651752 -0.5488694 0.5232071 0.00022601034 0.4629808
-0.028910905 0.021564655 0.059309494 0.086705044 -0.07748142 -0.61710435 -0.48931298 0.4414915
0.6492524 0.16153334 0.4890383 0.07728231 0.9970726 0.041114084 -0.6586347 -0.28601557
0.3361413 -0.14525454 0.4512982 -0.31066328 0.3749912 -0.5435462 -0.3671723 0.4910539
-0.17735563 -0.52485895 -0.9643812 -0.264313 -0.7916882 -0.5322526 -0.6646618 -0.91755086
-0.4255332 0.8586818 -0.6339809 0.1739873 -0.14063877 0.6355767 0.3656998 0.5169644
0.25640085 0.52041835 -0.47584754 -0.37070185 0.67384595 0.48760232 -0.043175075 0.28101027
0.04917843 0.14052108 -0.18307762 -0.46300477 -0.11160879 -0.067837074 0.54056245 -0.35856274
1.0570289 -0.686841 0.16057414 -0.42661858 0.09790746 0.055737726 -0.15160474 0.30059952
-0.41508493 0.28812432 0.0788927 -0.34824815 0.069183834 -0.64199376 -0.67087346 0.28378683
0.9335606 0.08247007 -0.29690853 -0.09863518 0.6099553 -0.8320649 0.1061421 0.0059801363
00000000: f238 b3be 288c c33d 646c 8abc a29f d53e
00000010: 799e d3bd acf5 f83e a262 f0be cde7 6dbb
00000020: ca16 b1be 27ff a23e f124 d33e fa9a 393e
00000030: abb7 293f ef6e b6be df06 2d3e 28a4 9ebd
00000040: b252 dbbe bb7e 60be 73e4 bd3e 0fce f5be
00000050: f1e3 163f 8fdd 7b3d 4f2d 42bd e267 7dbf
00000060: e23e fdbe fb5e 1d3e 2178 87be 07d0 a23c
00000070: 14e6 2e3e 87c8 e5bd 164c b13d 7a7d 8f3f
00000080: 0134 283f e8aa 49be b448 30be 940b a43e
00000090: df21 f23b 21b2 16bf dae2 6e3e 93b7 f03e
000000a0: 1933 89bd 7e42 ba3d 8417 4f3e 6940 d33d
000000b0: 2e17 29be 506a 49bd fe3c 1ebf f80e 163e
000000c0: 3aa4 06bf e01c 9ebe bb3f 8ebe 9ae2 363d
000000d0: 1033 14bf e0dd 9d3e 05e8 b23e 12f1 323e
000000e0: 3529 6bbf 71cf 7d3e 7f0e 3d3e 4250 a8bd
000000f0: f46d ef3e 815c 1f3e fd76 adbe 2b38 e93e
00000100: 99e8 243d e733 8d3f 7aeb 09be 070b 0dbe
00000110: 35e4 593f cf7d 41be 386a 7fbf e7ea 893f
00000120: 73bd 013e d29f 07bf a1dc f6be 561a d1be
00000130: a90e b9be 0ab5 21be a7bf 2abf 1ceb 8fbe
00000140: a231 773e 26e0 013e 71ee 13bf fd11 2abe
00000150: af96 1d3d 4efa 773f bfdc 723f 2a40 343f
00000160: 91df e6be e075 a33e 012c 83bf 0e05 9b3e
00000170: 2ae7 653f 451d 5bbd 595e 3fbe 9a7e cc3d
00000180: fca3 db3e 8c51 66be 27c2 853e 9942 0fbf
00000190: 583f f73e 10a4 fd3e ea40 8d3d 5c37 59bf
000001a0: 2723 e53d 0d5f 6dbe 1426 2e3f a3b6 0e3d
000001b0: 2260 ee3c b9d7 503d cc99 00be b89d 22be
000001c0: 26c6 c83e afd3 0b3f 1db1 a93c 5f34 92be
000001d0: 0af6 1e3f 3875 103e 0c2b 09bf 121a 4e3e
000001e0: 2a3a 2bbd ee2b a03d 5913 33be 1af8 b43e
000001f0: 59de 99bd 681a d2be 5a66 a73e 371b 42bc
00000200: 8192 173f cc46 083f 88dc 8dbe e765 3ebf
00000210: 16be 3f3e 6e28 6bbb 4987 b9bb 4e64 1b3f
00000220: 83ad f63d de02 55bf 43d4 05bf 2eaf 01bf
00000230: 2734 68bd f35b 243d b82b 13bf 0731 1dbf
00000240: 3049 c1be cc92 e83e 4d63 10bf 7223 98be
00000250: 3422 75be 2276 5c3d d857 393f 6524 143f
00000260: ff8c a7be 571a d13d e4f3 dbbe f5f6 14bf
00000270: f46d 4f3f a844 643e cac2 9ebe 638d 233e
00000280: e835 403e 0c06 e0be 5ebc da3e 2ef1 33bf
00000290: 2a50 fe3e 2cfd a5ba b1e0 d53e 7155 60bf
000002a0: b650 e13d 60d4 5fbf 31d1 d0be 722b ee3e
000002b0: b482 0cbf e7f0 053f 30fd 6c39 d20b ed3e
000002c0: 90d6 ecbc 5ca8 b03c 83ee 723d 6a92 b13d
000002d0: 94ae 9ebd 8dfa 1dbf 3b87 fabe 2d0b e23e
000002e0: 6835 263f ff68 253e 3a63 fa3e 3046 9e3d
000002f0: 2640 7f3f 3e67 283d 499c 28bf a270 92be
00000300: b61a ac3e 9bbd 14be 8f10 e73e 420f 9fbe
00000310: d9fe bf3e d825 0bbf 02fe bbbe 6b6b fb3e
00000320: b79c 35be 285d 06bf b0e1 76bf 0954 87be
00000330: 14ac 4abf b541 08bf 4727 2abf 9de4 6abf
00000340: 7ddf d9be 92d2 5b3f 924c 22bf ba29 323e
00000350: 9c03 10be 28b5 223f 013d bb3e c757 043f
00000360: f946 833e 233a 053f 4aa2 f3be a2cc bdbe
00000370: 2b81 2c3f 03a7 f93e 59d8 30bd 94e0 8f3e
00000380: 526f 493d c2e4 0f3e b378 3bbe f60e edbe
00000390: 2693 e4bd 2aee 8abd 4d62 0a3f 8995 b7be
000003a0: b94c 873f d0d4 2fbf 8c6d 243e c06d dabe
000003b0: b583 c83d 3e4d 643d 463e 1bbe 2ee8 993e
000003c0: 0386 d4be 0885 933e 7f92 a13d 954d b2be
000003d0: 41b0 8d3d b459 24bf 5dbe 2bbf 824c 913e
000003e0: d4fd 6e3f 11e6 a83d 6504 98be 3e01 cabd
000003f0: 0826 1c3f 3502 55bf 0861 d93d 05f5 c33b

bias f4 [32]
-2.0745952 -3.3518915 -2.1087866 -1.7602584 -3.0561504 -2.9821155 -1.2491188 -0.58100295
-2.29399 -2.5781345 -1.6970277 -0.61087686 -1.3803132 -0.9367456 -0.703874 -1.7435962
-0.67469585 -0.7498526 -1.1088899 -1.1677641 -2.7325625 -0.77758735 -0.25608513 -1.9000294
-0.49453494 -2.7439997 -2.340305 -0.24995773 -0.6127236 -0.86283964 -2.9157712 -1.6691196
00000000: 2bc6 04c0 6485 56c0 5cf6 06c0 2650 e1bf
00000010: f897 43c0 fbda 3ec0 20e3 9fbf 9cbc 14bf
00000020: bbd0 12c0 2800 25c0 3438 d9bf 6d62 1cbf
00000030: 1aae b0bf 8fce 6fbf 1631 34bf 292e dfbf
00000040: deb8 2cbf 57f6 3fbf 1bf0 8dbf 4b79 95bf
00000050: 4ee2 2ec0 f70f 47bf 971d 83be 2a34 f3bf
00000060: af33 fdbe b19d 2fc0 8fc7 15c0 ebf4 7fbe
00000070: 74db 1cbf 0fe3 5cbf ff9b 3ac0 b6a5 d5bf

weight f4 [16, 32]
-0.22378841 0.360687 0.4322955 0.109590635 0.30706793 0.20878124 -0.92106915 -0.18067294
0.33982247 0.27821058 -0.031548053 -1.11194 -0.71620435 -0.60408616 -0.45311013 0.08610768
-1.2090076 -0.85982454 0.09021261 -0.59231263 0.031309966 -0.7077221 -0.31915954 0.10470446
-1.2189062 0.21512447 0.13573907 -0.5139899 -0.8193203 -1.2491503 0.19194432 -0.22977331
-0.41883913 -0.18646005 -0.40759534 0.13064308 -0.60036296 -0.30770582 -0.025507804 0.03547993
-0.8823359 -0.5701204 -0.41687515 0.23871149 -0.012534379 0.41393638 0.29727057 -0.15295988
-0.10357422 0.6387553 -0.609823 0.09349792 -0.49544346 0.1584886 0.17665955 -0.79956657
-0.24732307 -0.9945285 -0.14944737 0.15506464 0.24285717 0.16342446 -0.6318897 0.21856578
-1.1283513 -0.7149045 -0.24130672 -0.094077334 -0.2830425 -0.07260113 0.18781213 0.21428032
-0.9922357 -0.5766198 -0.70279515 0.08411771 0.43681955 0.09808297 0.23804685 -0.5857918
0.17916332 0.21312796 -0.5508534 0.38644412 -0.9770556 0.32702658 -0.056331843 -0.3530078
0.21057957 -0.30250382 -0.6420886 0.26843017 -0.0024924385 -0.19604357 -0.4702279 0.09579029
-0.10539709 0.16186418 0.168375 0.17099632 0.34277478 -0.10849804 -0.74047184 -1.0520344
0.19988096 0.3784382 0.15427408 -0.5967477 -0.8913893 -0.6272782 -0.12513533 0.6032889
-0.49392593 -0.195373 0.12937103 -1.1843026 0.29371735 0.2819798 -0.51654327 0.1552866
0.085007116 0.19097051 -0.024083117 -1.4337659 -0.33754432 -0.04446192 0.27484167 -0.4718649
-0.042173434 0.14350438 0.15259261 0.14013967 0.48592344 0.15384549 -0.8823312 0.14583386
0.4096974 0.38438097 0.06940552 -1.6202704 -0.76987725 -0.75759864 -0.2849832 -0.19573061
-0.5661749 -0.94987553 0.18681286 -0.8208461 0.15119171 -1.0306813 -1.3335996 0.11002945
-0.47632533 -0.026930576 0.32169798 -1.1523491 -0.66634184 -0.69845784 0.06361391 -0.2593097
-0.27803963 -0.025023632 -0.18743026 -0.14150982 -0.31383708 -1.0718769 0.23598891 0.074760415
-0.68221265 -0.4242287 -1.2852517 -0.07162513 0.091774896 -0.20153084 0.22330831 -0.5666508
0.24803543 0.13696535 -0.99673575 0.20103227 -0.13709936 0.1690861 -0.08369627 -0.7059934
0.27223995 -0.9341352 -0.7667486 0.1642623 -0.07373954 0.13381784 -0.0833041 0.42435098
0.13118973 -0.31357116 -0.37271369 -1.0716637 -0.16244088 -0.5735175 0.27489752 0.11041238
-1.1430763 -0.68600047 -0.721913 0.07840649 0.007090507 0.21879894 0.30593306 -1.1088017
0.2898835 0.14220463 0.037324373 0.16934581 -0.83543116 0.39744744 0.08982755 -1.2798882
-0.09137362 -0.55420434 -0.4277919 0.23808353 0.05514021 0.06724372 -0.18742277 -0.071146786
-0.85773116 0.6390415 0.44671917 0.13890556 0.32129392 0.357084 -0.5689526 0.21281657
0.56471753 0.0066588307 0.22611809 -0.8913847 -0.04591184 -0.7979772 -0.8009094 -0.18620463
-0.9898936 -0.042662673 0.22140534 -0.1727615 0.39784327 -0.52567875 -0.18926339 0.05978598
-0.6422815 0.6302309 0.20010476 -0.6759954 -0.99199736 -0.6506157 0.23990682 -0.7972881
00000000: ca28 65be f7ab b83e d655 dd3e 0e71 e03d
00000010: 0238 9d3e c0ca 553e 30cb 6bbf 5402 39be
00000020: 36fd ad3e 9e71 8e3e 8838 01bd 0d54 8ebf
00000030: 2b59 37bf 64a5 1abf 0dfe e7be 3959 b03d
00000040: c3c0 9abf 761d 5cbf 64c1 b83d cda1 17bf
00000050: e13e 003d 472d 35bf e168 a3be 4b6f d63d
00000060: 1e05 9cbf 9749 5c3e 2fff 0a3e d894 03bf
00000070: fabe 51bf 28e4 9fbf 0d8d 443e b249 6bbe
00000080: 1572 d6be 62ef 3ebe 56b0 d0be 4dc7 053e
00000090: 63b1 19bf 9e8b 9dbe bef5 d0bc 6753 113d
000000a0: c4e0 61bf 69f3 11bf a970 d5be c970 743e
000000b0: ff5c 4dbc 78ef d33e d933 983e 84a1 1cbe
000000c0: b81e d4bd 7885 233f 5c1d 1cbf d67b bf3d
000000d0: c4aa fdbe d64a 223e 3ee6 343e 65b0 4cbf
000000e0: 4242 7dbe 6b99 7ebf bb08 19be 44c9 1e3e
000000f0: 8daf 783e be58 273e 86c3 21bf b5cf 5f3e
00000100: d16d 90bf fb03 37bf 1c19 77be 9eab c0bd
00000110: f2ea 90be e7af 94bd d351 403e 4d6c 5b3e
00000120: 2903 7ebf 5b9d 13bf 62ea 33bf e845 ac3d
00000130: d0a6 df3e b9df c83d 8ec2 733e 74f6 15bf
00000140: 9776 373e 373e 5a3e ba04 0dbf 01dc c53e
00000150: 5120 7abf 0770 a73e 38bc 66bd 70bd b4be
00000160: 2ca2 573e c8e1 9abe eb5f 24bf ae6f 893e
00000170: 2e58 23bb a5bf 48be b6c1 f0be b32d c43d
00000180: 6eda d7bd b9bf 253e 7f6a 2c3e a919 2f3e
00000190: 2d80 af3e 3834 debd 908f 3dbf 10a9 86bf
000001a0: 98ad 4c3e a7c2 c13e 06fa 1d3e 75c4 18bf
000001b0: 1732 64bf 4e95 20bf 7a23 00be 2471 1a3f
000001c0: dce3 fcbe dc0f 48be d779 043e 3a97 97bf
000001d0: 1f62 963e a85f 903e 2e3c 04bf 7303 1f3e
000001e0: 3618 ae3d c68d 433e f549 c5bc a485 b7bf
000001f0: 9cd2 acbe b41d 36bd 0cb8 8c3e 4798 f1be
00000200: 0dbe 2cbd d0f2 123e 3d41 1c3e c680 0f3e
00000210: f5ca f83e ac89 1d3e 75e0 61bf 7955 153e
00000220: dcc3 d13e 95cd c43e 7b24 8e3d 0565 cfbf
00000230: ad16 45bf fcf1 41bf 51e9 91be 9b6d 48be
00000240: d7f0 10bf 0b2b 73bf df4b 3f3e f822 52bf
00000250: 00d2 1a3e 5ded 83bf 64b3 aabf 1f57 e13d
00000260: eae0 f3be 839d dcbc 99b5 a43e 2d80 93bf
00000270: 6195 2abf 22ce 32bf 0248 823d 3ec4 84be
00000280: 365b 8ebe 5cfe ccbc b8ed 3fbe f3e7 10be
00000290: 41af a0be 4333 89bf 14a7 713e fd1b 993d
000002a0: 7da5 2ebf 8134 d9be 2183 a4bf 32b0 92bd
000002b0: 7af4 bb3d 1a5e 4ebe efaa 643e 0710 11bf
000002c0: 00fd 7d3e a540 0c3e 132a 7fbf 67db 4d3e
000002d0: c663 0cbe e824 2d3e f368 abbd fcbb 34bf
000002e0: 0963 8b3e 7c23 6fbf a349 44bf 6034 283e
000002f0: c204 97bd 8b07 093e 579b aabd 8844 d93e
00000300: 9a56 063e 668c a0be 54d4 bebe 472c 89bf
00000310: e756 26be 0bd2 12bf 5ebf 8c3e e31f e23d
00000320: 5350 92bf ba9d 2fbf 4acf 38bf 9593 a03d
00000330: 7c57 e83b d40c 603e 42a3 9c3e 37ed 8dbf
00000340: 9c6b 943e 179e 113e 71e1 183d fd68 2d3e
00000350: d1de 55bf 3b7e cb3e 82f7 b73d 60d3 a3bf
00000360: 1822 bbbd 56e0 0dbf 8a07 dbbe 2bcc 733e
00000370: b3da 613d 13b7 893d c1eb 3fbe 68b5 91bd
00000380: 4594 5bbf 3998 233f 60b8 e43e 423d 0e3e
00000390: a380 a43e b7d3 b63e e1a6 11bf 96ec 593e
000003a0: 5491 103f 5232 da3b 808b 673e ca31 64bf
000003b0: 0e0e 3cbd 3c48 4cbf 6608 4dbf 6dac 3ebe
000003c0: ab69 7dbf 0ebf 2ebd 15b8 623e 64e8 30be
000003d0: 1db2 cb3e e292 06bf 43ce 41be 25e2 743d
000003e0: 8f6c 24bf d056 213f 43e8 4c3e 090e 2dbf
000003f0: 8af3 7dbf c08e 26bf 22aa 753e 131b 4cbf

bias f4 [16]
-0.11519115 -0.57225764 -1.882889 -1.163664 -1.3101773 -0.9415037 -0.5767178 -1.7544699
-1.1448392 -1.0628799 -1.4903076 -0.6614402 -0.65905005 -0.9404672 -0.037272967 -0.456535
00000000: 56e9 ebbd 7a7f 12bf 8202 f1bf f1f2 94bf
00000010: e4b3 a7bf 6306 71bf c7a3 13bf 7892 e0bf
00000020: 178a 92bf 730c 88bf 66c2 bebf 2554 29bf
00000030: 81b7 28bf 75c2 70bf 8aab 18bd f5be e9be

weight f4 [8, 16]
0.13944852 0.025760628 0.16947617 -0.18572174 -0.2986743 -0.05275255 0.068473645 -0.15728205
-0.18726586 0.06997821 -0.35755655 0.23913725 0.018849574 -0.19605862 0.10507478 -0.13566624
-0.041194268 0.16317254 0.13892247 -0.216825 -0.23728943 0.12542905 0.4094219 -0.13625026
-0.062632106 0.18402657 -0.15546095 0.25600782 0.2007156 -0.043042768 0.17449777 -0.07273677
-0.25939664 0.080768734 0.22959003 -0.020169102 -0.26492533 0.18196476 0.12814748 -0.141496
-0.3620781 0.22396149 -0.29262885 0.105360895 -0.022273397 -0.1029234 0.04717792 -0.056506205
-0.4549099 0.17588367 0.10418656 -0.016303161 -0.2612556 0.086270705 -0.022443887 -0.49019575
-0.32096997 0.13673061 -0.17897604 -0.035327524 0.15940396 -0.11074223 0.24699596 -0.21523142
0.10054461 -0.072367415 -0.20350926 0.21420835 0.10459447 -0.18556397 -0.013573247 0.36469185
0.17333555 -0.32996085 0.24959563 -0.12308316 -0.2518148 -0.00081817585 -0.050523397 0.18338889
0.13724247 -0.20841226 -0.19686113 0.27280846 -0.0075206333 -0.25324416 -0.10423689 0.2860566
0.1118008 -0.066207446 -0.16676053 -0.26328877 -0.26735038 0.12029352 -0.06707007 0.2573221
0.30566424 0.28319848 0.12944753 0.19339955 0.09157796 0.090307176 -0.082839355 0.31286162
-0.016172897 0.04722437 -0.027446825 -0.23481391 0.006481596 0.15313603 -0.12610413 0.20040731
-0.022418275 -0.0886278 -0.17556809 0.101745665 0.3096762 -0.25027913 -0.40959847 0.14296663
0.122869015 -0.17621 0.04380095 -0.050517097 -0.18610461 0.2132482 -0.07657959 0.07069906
00000000: 98cb 0e3e f407 d33c 298b 2d3e d72d 3ebe
00000010: d6eb 98be 0f13 58bd e93b 8c3d 8c0e 21be
00000020: 9fc2 3fbe bc50 8f3d a711 b7be 65e0 743e
00000030: 6c6a 9a3c 97c3 48be 7231 d73d 17ec 0abe
00000040: 52bb 28bd b416 273e b141 0e3e 5f07 5ebe
00000050: 00fc 72be 7970 003e bf9f d13e 3085 0bbe
00000060: 4345 80bd 7671 3c3e 2831 1fbe 7513 833e
00000070: 6488 4d3e 9d4d 30bd 8baf 323e 04f7 94bd
00000080: a3cf 84be 146a a53d a619 6b3e ac39 a5bc
00000090: 4ba4 87be f854 3a3e 1839 033e 54e4 10be
000000a0: 4d62 b9be 2956 653e 73d3 95be 74c7 d73d
000000b0: b376 b6bc 81c9 d2bd a23d 413d 0d73 67bd
000000c0: f3e9 e8be d91a 343e c35f d53d 358e 85bc
000000d0: 4bc3 85be b2ae b03d 3edc b7bc f0fa fabe
000000e0: 2d56 a4be 1c03 0c3e 7f45 37be 98b3 10bd
000000f0: cb3a 233e d3cc e2bd 82ec 7c3e a065 5cbe
00000100: 55ea cd3d 5e35 94bd bb64 50be 6f59 5b3e
00000110: a035 d63d 7b04 3ebe 5362 5ebc e4b8 ba3e
00000120: e07e 313e a1f0 a8be ff95 7f3e 0613 fcbd
00000130: dfed 80be da7a 56ba 9ff1 4ebd 4cca 3b3e
00000140: 4a89 0c3e 066a 55be f795 49be 8dad 8b3e
00000150: a56f f6bb 38a9 81be 277a d5bd 0376 923e
00000160: d1f7 e43d c597 87bd 46c3 2abe c9cd 86be
00000170: 26e2 88be 735c f63d 085c 89bd b9bf 833e
00000180: 0680 9c3e 64ff 903e e58d 043e 880a 463e
00000190: 3a8d bb3d f8f2 b83d aea7 a9bd 662f a03e
000001a0: 067d 84bc 576e 413d 2ad8 e0bc 0f73 70be
000001b0: 9163 d43b b1cf 1c3e 7121 01be 9337 4d3e
000001c0: 88a6 b7bc 7e82 b5bd 1fc8 33be 0860 d03d
000001d0: e18d 9e3e 9624 80be e4b6 d1be d865 123e
000001e0: c0a2 fb3d 6570 34be a068 333d 04eb 4ebd
000001f0: 3592 3ebe bc5d 5a3e c3d5 9cbd abca 903d

bias f4 [8]
-0.08637955 -0.16593228 -0.042763736 -0.2568836 0.056455523 0.08991641 0.2807371 0.34110683
00000000: c3e7 b0bd 27ea 29be 0729 2fbd 3f86 83be
00000010: e83d 673d 1826 b83d c6bc 8f3e 8ea5 ae3e
