models/NeuMF32.pt (torch, 702639 bytes, 17 tensors)

weight f4 [944, 32]
000000 0e 52 63 bf 8c f5 b8 be c1 3e 5e 3f 51 f5 6a 3e
       -0.8879708 -0.36124837 0.86814505 0.22945143
000010 38 e3 08 bf 35 ab 36 3f 5a ff 1c be 5e 75 ab bd
       -0.5347171 0.7135499 -0.15331784 -0.083719954
000020 3c 3d 84 3e d5 57 be bf 01 e9 33 3f 99 17 03 c0
       0.25827968 -1.4870554 0.7027741 -2.0483153
000030 3e b3 d2 3f b2 e4 d2 bf b5 c7 cd 3f 61 46 8c bf
       1.646095 -1.6476042 1.6076571 -1.0958978
000040 64 d1 a1 3f d1 12 db 3f cb 1c 78 be 37 dd 96 bf
       1.2642026 1.7115117 -0.24229734 -1.178626
000050 c6 c2 ed 3e a0 2f 24 3e 7e 75 de be 70 8c ec 3f
       0.46437663 0.16033792 -0.43449014 1.8480358
000060 d1 4c db 3f a6 98 82 bf 1e f7 16 40 25 ae 82 bd
       1.7132818 -1.0202835 2.3588328 -0.06380872
000070 79 6f 0a bf ae 34 13 40 3c 05 c2 bf 70 ce c1 3f
       -0.54076344 2.3000903 -1.5157847 1.5141125
000080 d4 b0 20 40 d1 9c 98 3d 09 df cc bf b5 83 0e be
       2.5107927 0.07451785 -1.6005565 -0.1391743
000090 fd a2 ae 3f e2 c6 21 c0 6f b1 43 bf ba 82 3f 3f
       1.364349 -2.5277638 -0.7644262 0.7480885
0000a0 eb 19 5e bf cb 9e 40 3f 3c 3b 3c c0 a1 d3 8c 3f
       -0.867583 0.752423 -2.9411154 1.1002084
0000b0 6f df 6c 3d 25 0f 60 3e b0 9d 17 3f 48 3d 58 bf
       0.05783027 0.21880777 0.5922499 -0.8446851
0000c0 a1 b7 4b 3f 04 6b 08 3e 3a 68 55 3f 92 53 f7 bf
       0.7957707 0.13322073 0.8336216 -1.9322379
0000d0 e0 ea 96 3e 08 82 45 c0 41 40 a0 3e d6 f2 b4 b9
       0.2947607 -3.0860615 0.31299022 -0.00034513202
0000e0 d1 1f af bf 1f 5d 38 c0 91 84 d3 bf 52 47 11 bf
       -1.3681585 -2.8806837 -1.6524831 -0.5674945
0000f0 d4 56 eb bf fb bb 61 c0 e9 f0 0d c0 86 bb 87 3f
       -1.8385873 -3.5270984 -2.217829 1.0604103
000100 33 a4 8f bf 0c fc 31 bd ba 4c 8c be 42 c6 94 3f
       -1.1221985 -0.04345326 -0.27402288 1.1623003
000110 85 6a 57 3e 7e e3 11 40 d3 14 ed be 65 ec 5a 3f
       0.21036728 2.27951 -0.4630495 0.8551696
000120 bd 56 30 bf 7d 82 01 c0 6e 11 1a bf 25 38 0a 40
       -0.6888235 -2.0235894 -0.60182846 2.1596768
000130 d9 38 1d bf f2 aa b4 3f 9c 12 38 be 44 a4 cd 3f
       -0.6141487 1.4114668 -0.17975849 1.6065755
000140 ac 47 94 3e d3 20 e2 3f 85 28 87 be 52 55 5b 3e
       0.2896093 1.7666267 -0.263981 0.21419266
000150 ba 6d 3c c0 9e e3 3d 3f 5f 63 c4 3f f7 27 8a 3e
       -2.9441972 0.7417544 1.5342826 0.26983616
000160 1b 44 3e 3f 45 2a 12 be 9b 90 54 40 22 77 9a bf
       0.7432267 -0.14273937 3.321326 -1.2067606
000170 b9 1d e6 3f 7a c6 b0 bf 87 ec 9c 3e 94 4c 43 3f
       1.7977821 -1.381057 0.30649206 0.76288724
000180 15 6c 18 c0 c7 6e bf 3f 91 7f 33 be b3 fc 43 3f
       -2.3815968 1.4955682 -0.17529131 0.76557463
000190 b6 b5 bb be 37 49 20 40 f1 2a 7b bf b9 f0 96 bf
       -0.36662072 2.5044687 -0.981124 -1.1792213
0001a0 e4 73 50 be 65 ab d6 bf ae 03 75 3f a2 d4 64 3e
       -0.20356709 -1.6771055 0.9570874 0.22346738
0001b0 0d 82 02 3f 51 7d 94 bf 7e 34 bb bf ac 7a bf bf
       0.5097969 -1.1600744 -1.4625394 -1.4959311
0001c0 1b fa ff 3f fb ed 3c 40 9b 5d 8e bf ef 49 bf 3f
       1.9998201 2.9520252 -1.1122316 1.4944438
0001d0 ef 98 75 3e 92 39 b5 be 05 6d e2 bf a1 d7 3a 40
       0.23984121 -0.35395485 -1.768952 2.919411
0001e0 0c ed f4 bd c5 28 03 bf d2 c1 41 3f c9 f6 d9 3f
       -0.119592756 -0.51234084 0.7568637 1.7028438
0001f0 b5 90 5f 3e 52 95 2d 3f 29 e2 90 3f 80 0f 91 3e
       0.21832545 0.6780597 1.1319019 0.28332138
000200 88 3e 85 be a6 89 74 be d7 52 0c be 60 b2 c0 3e
       -0.2602427 -0.23880634 -0.13703476 0.3763609
000210 15 85 a1 3f 35 6b ec bf 48 80 21 3e 48 8d 75 bf
       1.2618738 -1.8470217 0.15771592 -0.95918703
000220 54 c6 84 3f 9f 3a 1f c0 23 13 75 bf b8 56 9d 3f
       1.0373025 -2.487953 -0.95732325 1.229209
000230 ba eb a7 3e 98 c6 15 c0 ec c6 a2 bf 73 0a 30 3f
       0.32797033 -2.3402462 -1.2716956 0.68765944
000240 79 62 18 bf 85 ec e4 3e 08 88 31 3e 4d 68 c6 3f
       -0.5952526 0.447117 0.17337048 1.550058
000250 66 55 52 3f 2b 97 19 bf 89 f9 8d 3f 08 92 8f 3d
       0.8216156 -0.5999629 1.1091777 0.07010275
000260 9f c9 d7 bf fb 2c 52 bf 37 2e 22 3f 9e 3a 12 c0
       -1.6858405 -0.82099885 0.6335177 -2.2848277
000270 68 f1 43 3f 93 23 9e bf e1 8c 21 3e 69 ee c3 3f
       0.7654023 -1.2354606 0.15776397 1.5307132
000280 a0 1b f3 bd d9 71 8b bf de c3 8c 3f 2a 05 6a bf
       -0.118705034 -1.0894119 1.0997274 -0.9141413
000290 d5 43 44 3e 8f 31 02 3d 3c e6 c9 3f 2a f3 f8 be
       0.19166501 0.031785544 1.5773387 -0.4862302
0002a0 d6 ae 00 3f 98 91 62 3f 05 b0 7e 3f 8a b7 a5 bf
       0.5026678 0.8850341 0.99487334 -1.2946637
0002b0 19 79 28 c0 5c 08 10 bf 94 c0 ca 3f f1 87 e5 3f
       -2.6323912 -0.56262755 1.584002 1.7932111
0002c0 88 c5 08 bf d9 15 c0 3e 46 27 6e bf f6 e0 2a 3e
       -0.5342641 0.37516668 -0.93028677 0.16687378
0002d0 ba 6c 76 3e b4 e4 47 be 15 56 3f 3e f9 4d c7 bf
       0.24064913 -0.19520837 0.18685181 -1.557067
0002e0 82 e1 b6 3f e4 86 49 bd 67 60 00 40 5a a7 5a 3f
       1.428757 -0.049200907 2.005884 0.8541161
0002f0 68 04 eb 3f 32 0d 0d 3f 3d 42 ca bf a1 4e 0c c0
       1.836072 0.5509826 -1.5801464 -2.1922991
000300 81 4c 9a bf 72 fe e2 be e9 e6 84 be 54 3b bf 3e
       -1.2054597 -0.4433475 -0.2595742 0.3734995
000310 cf 86 83 3f 2b 35 01 c0 b5 2c 9c bf db f5 19 3f
       1.0275515 -2.01887 -1.2201144 0.6014077
000320 c2 88 29 3f b4 56 52 3f 94 fb ba 3f ee 5c 47 3f
       0.662243 0.8216355 1.4608026 0.77876174
000330 61 f3 24 be ad a2 c9 3e a8 25 72 3f 18 0d b4 bf
       -0.16108467 0.39381924 0.9458871 -1.4066496
000340 c2 04 44 3f af 16 10 3f 23 09 6c 3f 03 9a f5 bf
       0.7656976 0.5628461 0.9220144 -1.9187626
000350 6e e3 25 3f 47 9f ce 3f c0 2e b5 bf 86 3a 67 3f
       0.64800155 1.6142358 -1.4154892 0.90323675
000360 c0 43 98 3f f8 ff c3 be 68 b9 b5 be cf 2a ce 3f
       1.1895676 -0.38281226 -0.35493016 1.6106814
000370 a4 65 bd bf 0f 33 79 bf 14 ed 75 3f f2 19 f2 3f
       -1.4796643 -0.97343534 0.9606488 1.8914168
000380 3b fd 8f bf d7 f8 ce be 08 56 7d bf 1e cb 12 bf
       -1.1249155 -0.40424225 -0.989594 -0.5734118
000390 d6 25 9b bf 0e 69 7a 3f 4e 6b eb ba 36 c9 de bf
       -1.2120922 0.9781655 -0.0017961056 -1.7405155
0003a0 ec 2a 97 3e b7 fd 4d 40 8b 42 af be 17 c5 a2 3e
       0.29524934 3.2186105 -0.34230456 0.31790993
0003b0 8f 05 cb bf 81 86 c2 3f 9e ae 77 be c3 97 ae 3e
       -1.5861071 1.5197297 -0.24187705 0.3410016
0003c0 93 ed 84 3f 44 c5 0a c0 3b ee a1 3f 83 d7 cd be
       1.0385002 -2.1682901 1.2650827 -0.40203485
0003d0 d6 32 ac 3f 6d 19 84 bf 0c 30 81 3a d0 f8 e4 bf
       1.3453014 -1.0320259 0.0009856238 -1.7888432
0003e0 b9 7b c3 bf 93 a0 37 c0 27 5d 91 be 40 f7 5c b9
       -1.5272132 -2.8691757 -0.28391382 -0.00021072943
0003f0 08 0b af bf 38 ea af bf 72 16 4e be 34 d1 f2 3d
       -1.3675241 -1.3743353 -0.2012575 0.118563086

weight f4 [1683, 32]
000000 9c 38 2d 3f 6d 72 63 bf 79 34 4c c0 79 c2 d0 3e
       0.67664504 -0.88846475 -3.1907027 0.4077337
000010 e4 32 4d 3f 55 92 be bf 99 f1 d2 3f 7e 50 1d c0
       0.8015578 -1.4888407 1.647998 -2.4580379
000020 19 be 07 c0 bf 3f 21 c0 93 9e 8a bf 3c 5b d7 be
       -2.1209776 -2.5195158 -1.0829643 -0.42061794
000030 f8 56 e0 3f 94 4c 6c 3e 34 37 8e bf fb 47 9d 3f
       1.7526541 0.23076087 -1.1110597 1.2287592
000040 36 13 4b 3f 19 97 01 3f fc 34 71 bc 78 b2 06 bf
       0.7932619 0.5062118 -0.014722105 -0.5261607
000050 c0 02 0d 40 68 5d de 3f a5 dc 49 3e a9 6a 10 3f
       2.2032928 1.7372255 0.19713075 0.5641275
000060 74 ce a2 bf 09 30 0e 3f 37 aa ce be dd 18 8b bf
       -1.2719254 0.55542046 -0.4036424 -1.0866963
000070 fb d7 33 bf 68 0b a2 3f b1 b0 d2 3f 69 d8 26 3f
       -0.70251435 1.2659731 1.6460172 0.65173966
000080 5a 1a f6 be 11 b4 32 3f 70 7e 0b 3e b1 c8 9b bd
       -0.4806698 0.6980601 0.13622451 -0.07606638
000090 ba 37 64 3f 16 3a bc 3d 84 fa d2 be a9 62 30 3e
       0.8914753 0.091907665 -0.41206753 0.17225136
0000a0 06 8a ce 3f 4b 4e a5 bf 62 c6 55 bd 25 6d 21 be
       1.6135871 -1.2914518 -0.052191146 -0.15764292
0000b0 58 ac 33 bf 5c b0 46 3e e7 a6 00 c0 83 25 98 bf
       -0.7018485 0.19403213 -2.010187 -1.1886448
0000c0 01 f8 db bf 2c 47 93 bf 3c dc eb be 21 3a bc 3f
       -1.718506 -1.1506095 -0.46066463 1.470524
0000d0 8b ee 17 40 2f 3b 63 3f 0a e0 98 bf 41 c9 d8 3f
       2.3739345 0.8876218 -1.1943371 1.6936418
0000e0 1b 3a d9 be fa a3 a1 3f bd 51 df 3e 03 59 1f c0
       -0.42427143 1.2628167 0.4361705 -2.4898078
0000f0 b5 26 7e 3f bd ac 51 bf 39 82 e5 3f 03 e2 f6 be
       0.9927781 -0.819042 1.7930366 -0.48219308
000100 21 95 1c be 08 cf a8 bf a0 35 20 be d9 68 a9 bf
       -0.15291263 -1.3188181 -0.15645456 -1.3235122
000110 5d 7d ec 3f 43 16 6d bf 93 c4 a3 bf 39 e8 f6 be
       1.8475758 -0.92612094 -1.2794365 -0.48224047
000120 d8 37 71 40 7b ef fc 3e 0b 7a 1a bf d9 22 93 3e
       3.7690334 0.4940146 -0.6034247 0.28737524
000130 47 1b 0a bf d3 86 71 c0 d2 66 d3 bf d5 9b 58 bf
       -0.5394787 -3.773854 -1.6515753 -0.8461278
000140 b6 dd ed be 50 61 65 3d a6 59 cd 3f 80 2c f9 3e
       -0.46458215 0.056001008 1.6042984 0.48666763
000150 be 1f da bf 6e fc 0a be 71 74 61 3f a9 f6 f4 3e
       -1.7040937 -0.13572857 0.880683 0.47844437
000160 3d f7 b5 3d 86 78 ba bf 36 c9 e4 be 1e db b2 be
       0.088850476 -1.4568031 -0.44684762 -0.34932798
000170 3c 6a 1f 3f 46 a4 1d c0 c1 9c c4 bf 46 ec 84 bf
       0.62271476 -2.4631515 -1.5360337 -1.0384605
000180 60 53 b7 3f a9 94 2d 3f 34 31 44 40 cc 9d d8 bf
       1.4322319 0.6780496 3.0655031 -1.6923156
000190 e7 53 92 bf bd 6e 2d 3e 18 41 73 3f 9d e8 8a bf
       -1.1431855 0.16936775 0.950212 -1.0852238
0001a0 d0 7d c7 3e 3b c5 be 3d 54 c4 5b bf 3b 0b 24 40
       0.38963175 0.093149625 -0.8584645 2.5631855
0001b0 8f 16 8d 3f 63 e2 ea be 13 18 5a 3f 57 81 bf bf
       1.1022509 -0.45875844 0.85192984 -1.4961346
0001c0 0a 1b 08 bf 11 3e 1a c0 9d 03 5b be 51 fe 2c bf
       -0.5316626 -2.4100382 -0.21388097 -0.67575556
0001d0 bf bc 5e 3f 73 d7 3b 3f fa 76 3a be b4 fe bf be
       0.87006754 0.73375624 -0.18209448 -0.3749901
0001e0 12 8b 4b 40 13 a4 3a c0 b9 55 36 3f 41 4f 2b bf
       3.1803632 -2.9162643 0.7122455 -0.66917807
0001f0 9d c7 c3 3f 5d 6a 98 3e 41 ad be bf 07 4e 9f 3e
       1.5295292 0.2976865 -1.4896623 0.31114218
000200 f5 36 1a 3e 3f eb 0c 40 d2 7e 07 3e ba f1 e9 bf
       0.15060027 2.2018583 0.13231972 -1.8276894
000210 cd 15 af bf 91 8c da 3f a2 f7 cf bf cd a8 d2 be
       -1.3678528 1.7074147 -1.6247447 -0.4114441
000220 e0 49 49 40 f5 15 b4 3e 2a d5 ae 3f 14 4c 2a bf
       3.145134 0.35173002 1.3658803 -0.66522336
000230 e6 42 7e bf ef 20 82 bf 97 fb f4 be c7 ef a9 be
       -0.9932083 -1.01663 -0.47848198 -0.33190748
000240 c7 67 10 40 93 1a 59 bf 4f 8c 88 bf a4 3b 66 bf
       2.256334 -0.84806174 -1.0667819 -0.89934754
000250 17 7d 22 3f 0a d8 3b 40 9a b5 9d bf 14 4b 29 40
       0.6347212 2.935061 -1.2321045 2.6452074
000260 f8 be 69 3f 4b b6 54 bf 7f f2 f8 be 44 87 d2 bf
       0.9130702 -0.83090657 -0.4862251 -1.644753
000270 44 d8 18 c0 84 ed 04 c0 dc 8d 06 40 f9 20 54 bf
       -2.3881998 -2.0769968 2.1024084 -0.8286281
000280 bb a0 0d c0 b6 c1 b6 3f 39 02 05 c0 6d 5a fa 3f
       -2.2129352 1.4277866 -2.0782607 1.9558846
000290 e4 d1 55 3f f3 cb d4 be 93 15 a8 bf e8 47 8d 3e
       0.8352339 -0.4156185 -1.3131584 0.27593923
0002a0 45 bd 51 c0 ff ff 19 3f a1 a5 82 bf d5 0f ce be
       -3.277177 0.60156244 -1.0206796 -0.40246454
0002b0 be b6 d7 3f 02 b3 05 40 42 da aa bf 4a ab df 3f
       1.6852643 2.0890508 -1.3347857 1.7474148
0002c0 66 eb 83 40 b8 0a 6b 3f 8e b8 f8 3d 8e c1 1b bf
       4.122485 0.9181323 0.12144576 -0.60842216
0002d0 18 4b fe 3e 2f 98 bf bf 81 5e cf bf b2 a4 60 3d
       0.49666667 -1.4968318 -1.6200715 0.054844566
0002e0 02 37 78 bf c0 8b 5c bf cf 6a d0 3f 6d 20 c4 bf
       -0.96958935 -0.8615074 1.6282595 -1.5322396
0002f0 7c b9 6b 3f ff 5e 54 bf 5f 7a 97 3f dc 8f 36 3f
       0.920799 -0.8295745 1.183422 0.7131326
000300 0f 31 7a bf bf c7 73 bf df ea 12 be 03 80 0b bf
       -0.9773111 -0.95226663 -0.14347409 -0.54492205
000310 b2 ef 48 be c9 2c cc be 1f 06 ca 3f e8 19 c5 3f
       -0.19622687 -0.39877918 1.5783118 1.5398531
000320 db d7 5f 3d 1f 65 89 3f 9c 05 03 40 0e 0c c1 3f
       0.054649215 1.0733985 2.0472174 1.5081804
000330 9f 29 2f bf f6 c2 28 c0 ff 74 d6 bf 54 0c 34 3f
       -0.68422884 -2.6368995 -1.6754454 0.7033131
000340 09 18 cf 3e b8 dd 33 be f7 18 55 bf 94 50 0c 40
       0.40448025 -0.17565048 -0.8324122 2.192418
000350 4b c3 ac be 75 5d d3 be cf 14 23 bf b5 05 cc be
       -0.33742747 -0.4128224 -0.63703626 -0.39848104
000360 54 81 ac 3e e4 d2 1f 3f 31 45 2d bf 51 17 31 3f
       0.3369242 0.6243117 -0.676837 0.69176203
000370 c1 3c 0a be 32 1a 56 c0 a3 b7 47 c0 74 be 1b 3f
       -0.13499738 -3.3453488 -3.1205833 0.60837483
000380 b5 d7 77 bf 18 88 3f 3e b3 47 dc 3e ee a8 b8 3e
       -0.9681352 0.1870426 0.43023452 0.36066383
000390 5b 76 4d 3e ff ab 12 3f 55 53 c4 bf b0 c2 7b 3f
       0.2006468 0.57293695 -1.5337931 0.98343945
0003a0 8d b1 10 3f 91 b1 65 3f 6a 63 40 bf 31 8f 9d be
       0.5652092 0.8972407 -0.75151694 -0.3077331
0003b0 42 06 ed be b0 5a 9d 3e fa 9d 41 3f de 86 58 3e
       -0.46293837 0.30733252 0.7563168 0.21145198
0003c0 6f d2 45 3d 61 9a c7 bf 4a 26 33 3f a3 82 12 40
       0.04829639 -1.5593988 0.699803 2.2892234
0003d0 0d 6a de bf 6d 2b 4a c0 a2 f0 d9 3d b6 c6 df bf
       -1.7376114 -3.1589005 0.106416 -1.7482517
0003e0 1e fc 88 3e 24 48 34 c0 7e 8a d8 bf a1 a8 2d 3f
       0.2675485 -2.816903 -1.6917264 0.6783543
0003f0 cf 47 0d c0 c1 e2 b2 3e 9c 7f ee bf e1 79 a3 3f
       -2.2075078 0.34938625 -1.8632693 1.277157

weight f4 [32, 32]
000000 8c ae fc be a5 a2 b3 bd 09 6b 0e be 70 6e 29 bd
       -0.4935192 -0.08771256 -0.13908018 -0.041365087
000010 95 12 8b bc cc df d1 3b 0f c6 79 bd 77 b0 20 be
       -0.016976634 0.0064048525 -0.0609799 -0.15692316
000020 ef b4 d8 bd f1 b0 31 be 32 b0 32 bd 82 51 8b 3c
       -0.10581385 -0.17352654 -0.043625064 0.01700664
000030 80 51 16 3e 72 e8 42 bd 03 53 6c be 05 c4 8d bc
       0.14679527 -0.04758496 -0.23078541 -0.017305383
000040 24 10 71 be 5b 1d 14 bd 19 b2 93 3e b8 4d e3 bd
       -0.23541313 -0.036160808 0.28846815 -0.11098808
000050 ca cf 3c 3e 89 af 14 be e2 8f 3f 3c ce 80 ca bd
       0.1843864 -0.14520086 0.011692019 -0.09887849
000060 52 b3 57 3c 2f cd 11 be 79 6c 0a be 9b 84 5f bd
       0.013165312 -0.14238428 -0.13517942 -0.05456982
000070 bd d6 b4 3d 09 b0 cf be 2c cf 17 be bb 6f 98 3e
       0.088300206 -0.40563992 -0.14825124 0.29772744
000080 81 90 56 be c1 ec da be e8 13 39 bf 64 4f f6 be
       -0.20953561 -0.42758754 -0.72296 -0.48107445
000090 00 68 34 bf 67 17 0c bf 21 9e eb be 73 3a be 3e
       -0.7047119 -0.5472321 -0.4601908 0.37153968
0000a0 31 4c 6a be 84 bd 3b bf c7 17 27 bf a5 a4 e2 bd
       -0.22880627 -0.7333605 -0.65270656 -0.1106656
0000b0 ba 11 23 3f 29 47 39 bf cf 7e 78 3e 7c 16 3e bf
       0.63698924 -0.72374207 0.24267124 -0.7425306
0000c0 91 fc 3b bf d1 48 dc be 50 9b 39 bf 26 36 2d bf
       -0.7343226 -0.43024305 -0.72502613 -0.6766075
0000d0 c5 f0 45 3f 93 1d 4c 3f 6e 64 9f bd 46 87 0e 3f
       0.7732051 0.79732627 -0.07782827 0.5567516
0000e0 11 70 a3 be 81 78 d1 3e c2 7c 38 bf 8f 68 da 3e
       -0.31921437 0.4091225 -0.72065365 0.42657897
0000f0 73 54 94 3e 75 fe ac 3e 3c 03 1c 3f 01 6c 9d be
       0.2897068 0.33787885 0.60942435 -0.30746463
000100 9d 65 68 3f 40 93 86 bf e5 d6 4d 3f 1c 88 07 3f
       0.9078005 -1.0513687 0.8040603 0.5294206
000110 b1 48 f2 3e 1f d6 00 be c6 1b 3e 3e 67 02 3d be
       0.47321084 -0.1258168 0.18565282 -0.18457948
000120 1b 51 e0 3c b7 58 98 3e 9d 91 ae 3e 0d 7c a8 3e
       0.027382424 0.29755184 0.3409547 0.32907143
000130 4b 65 8b bd 79 d0 8e be 26 e2 76 3e 88 a8 52 3f
       -0.068064295 -0.27893427 0.24109706 0.8228841
000140 c1 bb 8e bf 0e f7 22 3f e6 65 49 3e c5 fa 97 be
       -1.1151048 0.63658226 0.19667777 -0.2968351
000150 78 cc 0c bf ea 89 a1 be 86 43 5e 3e f9 ea 53 be
       -0.54999495 -0.31550533 0.21705446 -0.20695104
000160 a4 b7 0c 3f 7d db 80 3f 0c d8 6a 3f 63 9a 48 be
       0.54967713 1.0066983 0.9173591 -0.19590144
000170 37 46 7c be 03 53 3c bf 1f 7f 4a be 5f 8d 22 3f
       -0.2463616 -0.73564166 -0.19775055 0.63496965
000180 b9 3e 1a bd 2d 36 49 3e 4a 7f d1 bd a0 46 bd 3d
       -0.037657473 0.19649573 -0.102293566 0.09241986
000190 ac a4 4f be bc a2 61 3c 3b 50 9a bd aa 24 4a 3e
       -0.20277661 0.013771709 -0.07534834 0.19740549
0001a0 2b 47 2f bc e5 ba ec 3d 17 18 ea 3d 4b d9 88 be
       -0.01069812 0.11559085 0.11430376 -0.2672828
0001b0 18 49 a6 3e ba 24 e9 3d c0 9f 6a be b9 d0 ad bd
       0.3247764 0.11383958 -0.22912502 -0.08487076
0001c0 8d d8 5a 3e 44 fc 2e be a0 98 20 be be 2b 48 be
       0.2137167 -0.17088419 -0.15683222 -0.19547936
0001d0 dd a6 6b 3d bf 22 51 be 2f 2c 76 be 00 9e ce bd
       0.05753218 -0.20423411 -0.24040292 -0.1008873
0001e0 8c 94 44 3c 78 c7 93 3d 22 1f 07 be a4 4d 6c 3c
       0.011998307 0.0721578 -0.1319547 0.014422808
0001f0 b8 64 bf be a8 0c 70 be bf 68 15 be 34 6d 50 bc
       -0.3738153 -0.23442328 -0.14590739 -0.012721349
000200 2d ba 82 be 7e f3 83 3e 58 cc ce bd c2 62 4f be
       -0.25532666 0.25771707 -0.10097569 -0.20252517
000210 84 0d 15 be 25 d1 10 3e a9 8c 67 be 1e 3d ca be
       -0.14555937 0.14142282 -0.22612251 -0.39499754
000220 dd d2 21 be 4e 39 6a be 05 e7 75 be 1c c2 c2 3e
       -0.15803094 -0.22873423 -0.24013908 0.3803872
000230 0e 94 95 3c 8d a1 21 3e a3 7a 50 be 32 87 91 3e
       0.018259075 0.15784283 -0.20359282 0.28423458
000240 a1 70 00 be 81 40 fb bd 1c cc c4 bc 35 01 3f 3e
       -0.12542965 -0.122681625 -0.024023108 0.18652804
000250 09 2b ec 3d 30 09 6c 3d 4c fb d4 3e f9 a0 2f be
       0.11531646 0.05762595 0.41597974 -0.1715125
000260 de 4b a7 3d 14 fd bb 3e f1 26 85 3e f3 6b 3d 3d
       0.081687674 0.3671652 0.26006272 0.046245527
000270 83 a3 77 3d ff 03 3b 3d e5 6c 94 bd 6e f7 81 3e
       0.06045867 0.045658108 -0.072473325 0.25384086
000280 4e 83 48 bf 60 16 5f 3f b7 d2 78 bf 56 8b 86 bf
       -0.78325355 0.87143517 -0.97196525 -1.0511272
000290 3e 67 bf be 83 af 84 bf 7c 6b 97 bf 1b ac 8c 3f
       -0.37383455 -1.0366062 -1.1829677 1.0990022
0002a0 06 75 09 bf fb 37 fe be df 85 25 bf b3 b5 41 bf
       -0.5369419 -0.49652085 -0.64657396 -0.75667876
0002b0 be 2a a4 3e 2b d3 c5 3e 88 fb 36 bf c7 a0 81 bf
       0.3206386 0.3863767 -0.71477556 -1.012719
0002c0 80 fe dd 3e 4b 76 85 bf 23 fc 81 be ba 9a d0 be
       0.4335823 -1.0426725 -0.25387678 -0.40743047
0002d0 6a 65 f1 3f b8 2d 25 3f 19 63 2f bf 30 53 80 3f
       1.8859074 0.64522886 -0.68510586 1.0025387
0002e0 11 23 92 bf 8f 4e 5a be cc 2b 70 bf f1 61 99 3f
       -1.1416951 -0.2131903 -0.9381683 1.1983014
0002f0 2a 5b 23 3f be 4d bc 3f a4 0c 70 3f f1 3d 49 bf
       0.6381098 1.4711225 0.9376929 -0.7861014
000300 ab 65 aa 3e 6f 19 2a be f5 0c 5c be 25 42 02 3f
       0.33280692 -0.16611265 -0.21489318 0.5088218
000310 81 0c b1 be 26 ef 5f 3e 59 dc 0e 3f 5f 9a 5c bf
       -0.34579852 0.21868572 0.55804974 -0.8617305
000320 a1 03 31 3f 9a b0 22 3f 33 91 aa 3e 55 84 50 3f
       0.6914616 0.6355072 0.33313903 0.8145192
000330 98 27 90 bd 5f cd 2e bf a2 51 55 3f 27 8f 85 3e
       -0.07038802 -0.6828212 0.83327687 0.2608578
000340 c8 9c 30 bd 94 51 a4 be 5b 58 b3 bc 6d 76 0a 3f
       -0.04311827 -0.3209349 -0.021892717 0.54086953
000350 ab cf 30 be 4d 62 be be e9 9a 54 3f 94 be 86 be
       -0.17266719 -0.37184373 0.83048874 -0.26317275
000360 7e 36 a6 3e 29 7f ca be a1 0a 61 3e 19 64 1b bf
       0.3246345 -0.3955014 0.21976711 -0.6069961
000370 65 d5 90 be 6e 87 48 be 40 bb c5 be 16 4d 64 bd
       -0.28287807 -0.19582912 -0.38619423 -0.055737577
000380 cd 71 15 bf 90 6b 12 3f 2e ea db be c2 92 e5 be
       -0.5837677 0.5719538 -0.42952102 -0.4483853
000390 62 4b 7b bd 57 7e 48 3d 27 a1 75 be f7 74 8f 3e
       -0.061351188 0.048948612 -0.23987256 0.28018925
0003a0 83 11 5c be e0 58 d3 be 11 b4 9c be cc cb 24 be
       -0.21491055 -0.41278744 -0.3060613 -0.16093367
0003b0 c8 83 ff 3d a6 21 23 3e 7c 81 2e bf 8b d2 1a bf
       0.12476307 0.15930805 -0.6816633 -0.60477513
0003c0 00 a8 00 3f a4 e8 d1 3b 67 fa 4f be 68 ea ce bd
       0.5025635 0.0064059068 -0.20310365 -0.10103303
0003d0 5b e5 83 3e 16 80 8e 3e ca a2 dc be 80 22 14 3e
       0.25760922 0.27832097 -0.43092948 0.14466286
0003e0 9b c0 e2 be b6 43 b8 be d2 e0 12 bf 7c 35 9f 3e
       -0.4428757 -0.3598916 -0.573743 0.31095493
0003f0 a9 7c c4 3c 87 67 d5 3e 25 ce 57 3e bf e9 4d be
       0.023985224 0.41680548 0.21074732 -0.20108698

bias f4 [32]
000000 5f 74 85 3f 18 09 60 be dd d3 17 3f 2c 6d 14 bf
       1.0426139 -0.21878469 0.5930765 -0.57979083
000010 82 6a 14 3f 4a 4e fd 3e 14 82 22 40 ec 84 bf bf
       0.5797502 0.49473792 2.5391893 -1.496244
000020 9b 31 71 3f f7 3f af 3e be 8c 8e be 1b 83 ee 3d
       0.94216317 0.3422849 -0.27841753 0.116461
000030 15 b8 7e 3d 47 d2 33 3f 09 c8 44 be f8 98 24 3e
       0.062187273 0.7024273 -0.19216932 0.16073978
000040 2f 55 2e bf a0 21 36 bd 27 4d 68 3d 26 06 ff be
       -0.6809873 -0.04446566 0.056714203 -0.49809378
000050 f2 99 a7 be f9 be 7d 3f a2 a8 dc be cb 97 11 bf
       -0.32734638 0.99119526 -0.43097407 -0.5687224
000060 d5 7a b5 3e 60 4a 00 3e 1a 19 cf be d6 dc 26 3e
       0.35445276 0.12528372 -0.40448838 0.1629518
000070 3a da 81 bf 74 b0 c6 3d 7c 73 0b bb 4b 1b 88 bf
       -1.0144722 0.097016245 -0.002127855 -1.0633329

weight f4 [944, 32]
000000 31 5f 6d be 87 af 02 40 09 7c 96 3e 53 5b 52 bd
       -0.23180844 2.0419633 0.29391506 -0.051356625
000010 d8 9c 5f 3e ed a0 21 bf 87 76 80 3f 73 e8 45 3f
       0.21837175 -0.6313618 1.0036172 0.77307814
000020 a9 1b 68 bb 17 cf 88 3f 34 1d c6 bf 43 0a fd 3f
       -0.0035416877 1.0688199 -1.5477662 1.9768757
000030 05 df f4 be 99 0f 37 3e ac d9 fd bd 4e 03 44 bf
       -0.478264 0.17877044 -0.12395033 -0.7656754
000040 fd 5a 66 3f 66 c0 a2 3f e2 b9 e3 3d 5f 66 51 3f
       0.8998259 1.2714965 0.11119439 0.8179683
000050 17 1c d4 3e d8 4e 9a bf 63 4b c0 3e 15 24 ec 3d
       0.4142768 -1.2055311 0.37557516 0.115303196
000060 60 60 24 3f 6f 69 ac 3f 1e 24 f0 bf d3 1b c4 bf
       0.64209557 1.3469676 -1.8761022 -1.5320991
000070 79 ba d7 3d f8 6d a1 3f 21 c7 39 40 17 cb 42 3e
       0.10533614 1.2611685 2.9027789 0.19022785
000080 1c 82 08 c0 03 16 17 3e 01 f9 49 bf ef 48 70 3f
       -2.1329412 0.1475449 -0.78895575 0.9386129
000090 36 b6 1a c0 ea c1 04 3d 89 7f 8b 3f 6f 61 9a be
       -2.4173713 0.032411493 1.0898296 -0.3015246
0000a0 73 fb 9a 3f 50 b4 89 3f dd 57 c1 3f 16 b5 68 3e
       1.2107986 1.0758152 1.5104939 0.22725329
0000b0 34 48 ac bf dc 2e 8e be 67 79 16 3f 68 ab ab 3e
       -1.3459535 -0.27770126 0.58778995 0.3352921
0000c0 83 31 90 3f c0 ce 6b 3f 13 e5 b4 3f e2 65 f0 3e
       1.126511 0.9211235 1.4132408 0.4695273
0000d0 c1 b6 46 3f b1 47 c0 3e 63 24 d6 bc 9d 49 49 bf
       0.7762261 0.37554696 -0.026140397 -0.7862795
0000e0 81 9a 78 3f fe a7 1e 3f 18 8e 9f 3f d7 67 2e c0
       0.97110754 0.61975086 1.2465239 -2.725088
0000f0 26 34 dd 3f 02 95 92 bf b6 6f 05 40 a3 ca 5a bf
       1.728154 -1.1451724 2.0849433 -0.8546545
000100 a2 f6 4c 3e d5 f7 c5 be 5c c4 50 3f 9b 1d cb 3d
       0.20015958 -0.38665643 0.8154962 0.09917756
000110 42 a5 ba 3f 4f 15 48 bf 3c 4c 7b be c8 fe 2c 3f
       1.4581683 -0.78157514 -0.245408 0.67576265
000120 e5 fa 07 3f 88 01 36 bf 73 67 c0 be 12 dd 9e 3f
       0.5311721 -0.71096087 -0.37578925 1.2411215
000130 41 4f e2 3f 5a dc 36 3e 9c 30 11 3f 4b 55 84 bf
       1.7680436 0.17857495 0.567148 -1.0338529
000140 93 32 22 3f ec ec 1a 40 45 72 6f 3f 95 d0 3a bf
       0.6335842 2.4207106 0.93533736 -0.7297452
000150 a1 c5 29 bf 25 15 ce bf 43 0b fe be 62 d6 9a bf
       -0.6631718 -1.6100203 -0.49617967 -1.2096674
000160 b4 85 2a 40 55 10 28 be 42 df 39 3f 16 52 15 bf
       2.6644106 -0.1641248 0.7260629 -0.5832838
000170 2f fc be bf f4 f6 10 bb 1c 71 cc 3e 97 0d d5 bd
       -1.492071 -0.0022119852 0.39930046 -0.10402983
000180 7a 36 4d be a2 a3 84 bf fe 57 ba be 19 69 75 be
       -0.20040312 -1.0362437 -0.36395258 -0.23965873
000190 22 e8 a7 bf b6 8a 62 be 20 2b 75 3e 3f 02 1b 3f
       -1.3117716 -0.22123227 0.23942232 0.605503
0001a0 71 e3 97 3e 57 c8 dd bf 18 11 a3 3f 24 29 1e bf
       0.29665712 -1.7326764 1.2739592 -0.61781526
0001b0 ca eb a6 bf 42 ac 19 40 5d b2 19 3f 48 0c 57 bd
       -1.3040707 2.4011388 0.60037786 -0.052501947
0001c0 27 ae 73 bf f2 2c 26 bf 5c ab dd bf d3 fd 30 3f
       -0.9518761 -0.6491233 -1.731792 0.69137305
0001d0 e0 37 89 3f b8 00 d4 3f 67 89 09 bf 31 59 6e bf
       1.0720177 1.6562719 -0.53725284 -0.93104845
0001e0 e7 a9 16 3f d3 47 08 3f cf ee 55 3f f4 7e 10 be
       0.58853 0.53234595 0.8356752 -0.14110929
0001f0 f1 68 f0 be 11 0a b9 bf c4 f4 cf 3d 05 51 23 3e
       -0.46955064 -1.4456197 0.10154107 0.15948875
000200 d3 92 14 bf 07 e2 1a c0 2d f4 11 c0 e0 d9 68 bf
       -0.58036536 -2.4200456 -2.2805283 -0.9095745
000210 4b b0 9b 3f 1c 63 10 40 af 55 2e 3f 77 53 ac 3f
       1.2163175 2.2560492 0.6809949 1.3462971
000220 ea b8 06 c0 59 b1 2d 40 8d 66 08 40 91 f9 f7 3e
       -2.1050363 2.7139494 2.1312592 0.48432592
000230 7c 79 5e be e2 42 22 c0 41 16 9e bd 80 9a 48 40
       -0.2172603 -2.5353322 -0.07719088 3.13443
000240 a1 db 25 c0 0a 40 81 3f dc 08 0f 3f ba d2 00 c0
       -2.59153 1.0097668 0.55872893 -2.0128617
000250 fd 20 4c 40 2f 11 26 c0 cb 3f c0 3e ab 97 26 c0
       3.1895134 -2.5947988 0.3754867 -2.603007
000260 b1 c4 12 3f 59 98 07 40 e0 92 46 40 5c bf 5d bf
       0.5733138 2.1186736 3.1027145 -0.86620116
000270 2b b2 07 bf 7b 96 df 3f f1 df 61 be 88 6e 8d 3f
       -0.5300624 1.7467798 -0.22058083 1.1049356
000280 07 c7 d7 bf 9c 09 6f 3d ef e2 7a bf 19 38 e5 bf
       -1.6857613 0.058358774 -0.98002523 -1.7907745
000290 8d 3f 29 bf c7 3d a6 bf 4a e6 0a c0 15 48 50 3f
       -0.66112596 -1.2987603 -2.1703057 0.8135999
0002a0 1e ae 1a c0 99 a2 79 3f de c2 8c bf 2f 8e 4f 3e
       -2.4168773 0.9751373 -1.0996969 0.20269082
0002b0 5d 34 89 3f 62 0c f7 3f a2 37 92 3f 29 b3 29 bf
       1.0719105 1.9300654 1.1423228 -0.66289
0002c0 7d 77 37 3f bf 1b 20 bf 25 fc 4c c0 46 be c0 be
       0.716667 -0.6254234 -3.2028897 -0.37645167
0002d0 f4 0b 7d 3e 3f ec cf 3f 20 f0 c2 3f f6 41 e8 3f
       0.24711591 1.6243972 1.522953 1.814513
0002e0 a0 01 21 40 a1 dc 44 c0 e7 13 53 3e 88 bb 56 3f
       2.5157242 -3.0759661 0.20613061 0.838799
0002f0 21 e9 35 c0 b5 a0 b2 3f 6e 5b b9 3f 4d 54 a6 3f
       -2.842354 1.3955294 1.4481027 1.2994477
000300 2f 62 b9 3e 02 24 30 40 26 39 b7 3f a1 bd bb bf
       0.3620772 2.7521977 1.4314315 -1.4667245
000310 b3 49 6e 3e 52 34 eb be c4 80 eb 3f 75 f5 3f 40
       0.23270302 -0.45938355 1.8398671 2.9993565
000320 d9 e2 86 3f 2f b7 9b 3e 27 16 43 bf c4 0d 60 3d
       1.0537978 0.30413195 -0.76205677 0.054700628
000330 5f 1e 4f 3f 0e 4d 30 be 3a 75 4e bd b0 6d b3 bd
       0.8090572 -0.17216894 -0.050404765 -0.087611556
000340 fd 1c 1e 3f 53 9d c6 be 34 ab 0a bf 5d b0 a1 3e
       0.6176298 -0.38791904 -0.54167485 0.31579867
000350 7b 83 8e 3f 50 8e 82 bf be 67 f8 3e 4c fe 0b 40
       1.1133875 -1.019968 0.4851665 2.187396
000360 a3 75 a4 be 96 f3 81 bf a9 0e e8 3f 97 f1 90 bf
       -0.32121 -1.0152462 1.8129474 -1.1323727
000370 08 b9 7c bc ec aa c1 3f 8f 1f 64 3f 0e c9 6c 3f
       -0.015424974 1.5130286 0.89110655 0.92494285
000380 3b aa 94 3f 6a 09 6f 3f b4 7e 20 c0 c1 f2 e0 3e
       1.161445 0.9337374 -2.5077333 0.43935207
000390 26 58 fd 3e c2 dc 9f 3f d4 2b d5 bf ca 3f ae 3f
       0.49481314 1.2489245 -1.6654 1.3613217
0003a0 d8 19 79 be 3c 50 c5 3d ad f9 7e 3f ad 0b 72 3f
       -0.24326265 0.09634444 0.99599725 0.94549066
0003b0 7f a6 3e 3f 94 f5 7e 3f cd f5 91 3e 3f 47 5c bf
       0.744728 0.9959347 0.28507844 -0.8604621
0003c0 9e 8a af 3e 54 e1 63 bf 0d 53 03 c0 d9 4b 9e bf
       0.34285444 -0.890157 -2.051944 -1.2366897
0003d0 a3 f7 36 40 ef c4 4c 3f c0 e9 b2 bf 2e 2b d2 be
       2.8588645 0.79987997 -1.3977585 -0.41048568
0003e0 99 d7 60 40 cf 1a a6 bf 98 04 f9 be 1f 19 93 3f
       3.513159 -1.2976931 -0.48636317 1.1492041
0003f0 b8 6f 77 bf f8 a4 f9 3e 1a 53 00 c0 0a 22 56 3f
       -0.96654844 0.48758674 -2.005072 0.8364569

weight f4 [1683, 32]
000000 5a bd a1 bd 94 d8 9d 3f 61 ad de be f6 63 b6 3f
       -0.07897444 1.2331719 -0.43491653 1.4249256
000010 6d 53 15 bf 7d da c5 be 02 3d a2 3f 65 47 09 3e
       -0.5833042 -0.38643256 1.2674868 0.13406141
000020 64 60 59 3f 6a 3f 9b bf 2b b3 84 be 33 dd 0c bf
       0.84912705 -1.2128727 -0.25917944 -0.55025023
000030 db 79 e7 3f 2e a0 14 3e b5 e1 26 c0 79 45 41 3f
       1.8084062 0.14514229 -2.607526 0.7549663
000040 5d 4a d8 bc 0c 3a e9 3e a5 12 3a bf 28 64 e8 bf
       -0.026402647 0.455521 -0.726847 -1.8155565
000050 92 e3 71 c0 ad da 4d 3e 24 90 00 3f ae 0a a9 bf
       -3.7795148 0.2010295 0.5021994 -1.3206384
000060 f9 0e 10 c0 3f 90 20 bf 54 05 94 bf 14 43 c1 be
       -2.2509139 -0.627201 -1.1564126 -0.3774649
000070 4d 85 c6 3f c1 81 3a 40 8e 58 01 3f c6 4c 56 40
       1.550943 2.9141695 0.5052575 3.3484359
000080 8e fe c9 3f 05 99 b6 3f 22 72 2b bf 38 08 dc 3f
       1.5780809 1.4265448 -0.6697103 1.7190008
000090 b3 53 9f bf 76 49 5f bf 20 f1 4c bf 7a 9c 30 3f
       -1.2447418 -0.8722147 -0.8005543 0.68988764
0000a0 0a c8 16 40 81 fe 68 bf d3 25 df 3f 5a 0a 80 3f
       2.3559594 -0.9101334 1.7433418 1.0003159
0000b0 d3 48 be 3e 80 5c 35 bf dd 92 1b c0 74 de 4b 3f
       0.37164935 -0.7084427 -2.4308388 0.7963631
0000c0 ef 50 49 c0 dd b5 93 bf 1d 30 a7 be d2 ba e5 bf
       -3.1455648 -1.1539875 -0.32653895 -1.7947638
0000d0 b0 39 87 be a8 f2 6d 3f c1 92 92 3f cd 99 56 3f
       -0.264112 0.9294839 1.1451036 0.8382843
0000e0 d8 ec d9 bf a4 45 67 3e a1 05 1c c0 96 80 6b 3e
       -1.7025404 0.2258516 -2.4378436 0.2299827
0000f0 ac 63 50 40 88 b3 3f be 57 8e df 3f c7 72 23 3e
       3.2560835 -0.1872083 1.7465314 0.15961753
000100 bd ec 08 c0 f7 98 9e bf 21 d3 08 40 11 b7 8a 3f
       -2.1394494 -1.2390431 2.1378863 1.0837117
000110 2b f2 96 3f bf 31 d9 3f ea 30 17 40 10 7e 2e bf
       1.1792654 1.6968306 2.3623605 -0.68161106
000120 3b 4a 2d c0 ea 57 94 3f c3 19 70 bf ac db 19 c0
       -2.7076557 1.1589329 -0.9378931 -2.4040327
000130 d2 7b bb bc 14 e6 c5 bf c2 5a 89 bf 2c 91 eb bf
       -0.02288619 -1.5460839 -1.0730822 -1.8403678
000140 01 c7 a9 3f b0 f0 a0 bf 54 a0 90 3e 93 6f cb 3f
       1.3263856 -1.2573452 0.2824732 1.5893425
000150 0c e0 37 be 6d 65 9c 3f 6a fe 84 3f 5d 16 a8 3f
       -0.17956561 1.2218453 1.0390141 1.3131825
000160 fd 80 06 40 3b 24 91 bf 5d cb f9 3f 00 8f f1 3f
       2.1016228 -1.1339182 1.9515187 1.8871765
000170 fe 07 ac bf 50 7f d6 3f 1e 35 03 c0 32 3b be bf
       -1.3439939 1.6757603 -2.050117 -1.4861815
000180 5e 42 a4 bf 32 89 50 bf dd 1b 07 c0 82 d7 0b 3f
       -1.2832754 -0.81459343 -2.1110756 0.54625714
000190 ba 30 3b 40 ec df a3 bd d1 63 91 bf 40 4a 08 3f
       2.924849 -0.08001694 -1.1358587 0.53238297
0001a0 b7 18 92 3f 34 fd 2f be c6 15 00 c0 f3 61 1f 3d
       1.1413792 -0.17186433 -2.001329 0.03891177
0001b0 c5 da 88 bf d1 43 ad 3f 8f 7c 28 3f a0 32 3c bf
       -1.0691763 1.3536321 0.6581506 -0.7351475
0001c0 86 30 61 3f c3 fa bb bd 45 c6 a2 bf 78 12 f7 3f
       0.87964666 -0.091786884 -1.2716757 1.9302511
0001d0 b7 f8 10 bf d6 d7 c5 be bb 5c 02 bf 5c c8 b6 3e
       -0.5662951 -0.38641232 -0.50922745 0.35699737
0001e0 da 4c 28 3f 78 95 fe 3d 84 6f 7d be f5 cd a5 be
       0.65742266 0.12430853 -0.24749571 -0.32383695
0001f0 6e fa 07 c0 96 c7 fb 3d 44 64 dc 3f 72 a8 14 3e
       -2.12466 0.12293927 1.7218099 0.14517382
000200 60 68 0f bf 0f a3 37 3f dd 46 93 be bb 3c 14 3f
       -0.5601864 0.7173318 -0.28765002 0.5790517
000210 8b aa 18 3f 4d 9f 6a 3f da 69 c6 3f ab 7b 6c 3f
       0.5963523 0.91649324 1.5501053 0.923762
000220 db 26 1f 40 76 1c a5 3f 9d 9a a0 3e 0b 6e 0a be
       2.4867465 1.289931 0.3136796 -0.1351854
000230 98 0c a8 3d bd 18 fe be de 3b b8 bf 4c 7a ea be
       0.08205527 -0.4962825 -1.439327 -0.4579643
000240 45 0b 8d bf 49 88 94 be 09 fc 32 bf 59 46 1c 3f
       -1.1019064 -0.29010227 -0.69915825 0.6104484
000250 38 eb 10 c0 02 84 04 bf 93 6f 70 3e 4c c4 b4 be
       -2.2643566 -0.5176393 0.23480062 -0.35306013
000260 fb 76 23 c0 3d bf b7 3f f9 a0 20 c0 11 82 2d 3d
       -2.554137 1.4355236 -2.509825 0.04236037
000270 fd c5 03 40 6c 55 f5 3f 50 9e 91 3f 53 5f 7b 3f
       2.0589592 1.9166694 1.1376438 0.9819233
000280 ab 0d 00 3f 57 36 58 3f a5 28 c9 bf c3 92 f1 bf
       0.50020856 0.84457916 -1.5715529 -1.8872913
000290 81 08 95 3f af ae 26 bf d0 06 52 be 3f 3e 84 3f
       1.164322 -0.65110296 -0.20510411 1.0331496
0002a0 24 26 6d 3e f4 eb 28 c0 d4 4c a0 3e 03 13 21 3f
       0.2315908 -2.6394014 0.31308615 0.62919635
0002b0 1c 38 54 bf 17 30 9c 40 26 82 8f 3f 1d 02 8a 3f
       -0.82898116 4.8808703 1.1211593 1.0781895
0002c0 ac 56 0c be 4f f7 04 40 10 71 cd 3f aa b3 b7 3c
       -0.13704938 2.0775945 1.6050129 0.022424538
0002d0 99 ed 37 40 a7 d2 e6 bf 52 da 1c 40 cb c7 7a 3f
       2.8738768 -1.8033036 2.4508252 0.9796111
0002e0 2a a0 fb be 59 0f ba bf b1 d6 f0 3e 09 ac 95 bf
       -0.49145633 -1.4535934 0.47038797 -1.1693126
0002f0 5b af 0b 3f 1e bd 89 3e 34 dc e0 be 20 c5 38 c0
       0.54564446 0.26902097 -0.43918002 -2.8870316
000300 e0 2d cf 3f 79 b3 06 3f f4 45 0f bf 5f aa 17 c0
       1.6185875 0.52617604 -0.55966115 -2.3697736
000310 38 69 0f c0 49 4a 12 bf ec 5e 29 bf 6e 47 a3 3e
       -2.240797 -0.571446 -0.66160464 0.31890434
000320 e8 a1 18 3f cc fa c9 bf fb 72 d4 3f 1f e3 41 3f
       0.5962205 -1.5779662 1.6597589 0.75737184
000330 f3 3e 7e bf 14 c7 3f 40 7b 63 56 3f f1 78 1e 40
       -0.993148 2.9965258 0.83745545 2.4761317
000340 2c 1b b1 3f a3 21 08 40 b4 a2 eb 3f 6d c5 5f c0
       1.3836417 2.127053 1.8409028 -3.496425
000350 ad 1d 93 3f 56 7a d3 bf ba 83 a2 3f 28 a8 6c 3f
       1.1493431 -1.6521709 1.269645 0.92444086
000360 05 f7 cf be 6e be 87 3e 95 a1 9f 3e 64 15 13 bf
       -0.40618148 0.26512474 0.31177965 -0.57454515
000370 5f af 27 3f 36 7b 9c bf dc 83 d4 3f f2 3e c3 3e
       0.6550197 -1.2225101 1.660274 0.3813396
000380 7b 52 87 3f d8 de 86 bf f5 1d 02 bf 50 59 be be
       1.0572046 -1.0536757 -0.5082696 -0.37177515
000390 cc 01 7f 3f 34 56 06 40 8b d4 1e bf 10 f8 97 3f
       0.99612117 2.0990114 -0.62043065 1.1872578
0003a0 00 ea 87 3e 56 99 8b be 33 2d a3 bf ab 10 02 3f
       0.26545715 -0.27265424 -1.2748169 0.50806683
0003b0 22 0f e3 be 83 30 07 3f 05 2b ca 3f a4 70 1b 3f
       -0.44347483 0.528084 1.5794379 0.6071875
0003c0 02 48 a1 3e 96 b5 52 40 9c e3 cd bf cd aa 66 3f
       0.3150025 3.2923331 -1.6085086 0.9010437
0003d0 fb fc b7 3f 27 6d 95 3f d6 eb ea be 28 0a de bf
       1.4374079 1.1673936 -0.45883054 -1.734685
0003e0 5a 32 96 40 43 f0 ba bf 8a 0a 7c be b2 d1 c4 bf
       4.6936464 -1.4604572 -0.24613395 -1.5376494
0003f0 d5 65 cf be 61 7b a7 be 45 6a 79 bd ed ff 89 3e
       -0.4050738 -0.32711318 -0.060892362 0.26953068

weight f4 [32, 64]
000000 29 04 ae bf 87 7b a5 3e 2f 9e 55 bf 34 96 28 bf
       -1.359502 0.32320806 -0.83444494 -0.6585419
000010 12 76 52 bf a7 bb 4c bf ce 06 93 be 7b 9a 18 3f
       -0.8221141 -0.79973835 -0.2871613 0.5961072
000020 cd 88 41 bf 9c c8 eb 3e 62 3a d9 3e cd 34 14 3e
       -0.75599366 0.4605149 0.42427355 0.14473267
000030 ba ca 6f 3e 20 a8 a2 be 68 fc 74 3f 4a eb d1 bf
       0.23417178 -0.31768894 0.9569764 -1.639993
000040 b4 6e 0b 3f 89 9d 82 be 49 1e 4a bf 46 18 47 bf
       0.54465795 -0.25510815 -0.7895246 -0.77771413
000050 e5 68 43 bf e5 e6 a2 be c7 a9 09 3f 07 9b 0f bf
       -0.7633193 -0.31816784 0.53774685 -0.5609593
000060 9c 48 40 3f 72 1c 33 bf e8 5f 39 3e 70 71 16 3f
       0.75110793 -0.6996528 0.18102992 0.5876684
000070 04 4d 23 bf c7 75 51 3f 73 11 d0 3e 66 37 5f 3f
       -0.6378939 0.8182034 0.40638313 0.87193906
000080 70 f4 83 3e e5 cc 8f be a6 3f bd 3f 9c d5 85 3f
       0.2577243 -0.2808601 1.4785049 1.0455813
000090 78 28 70 3f 60 6a 3c 3f 9f 2b dc 3e dc 3f c0 bf
       0.9381175 0.73599815 0.4300203 -1.5019488
0000a0 51 7c f0 be 2c 02 0e 3e aa 79 32 be 2c f3 b0 be
       -0.46969846 0.13868016 -0.17429224 -0.34560525
0000b0 62 3a a4 bd a9 0e d1 bf d6 b5 c1 bf e4 f3 1d bf
       -0.08018948 -1.6332599 -1.5133617 -0.6170027
0000c0 d9 86 d7 3d bd 07 53 bf c6 dc 11 bf a8 3e 60 3e
       0.10523767 -0.8243368 -0.569775 0.21898901
0000d0 10 13 cc be b2 be 9b be b6 b0 10 be 30 bc 62 3f
       -0.39858294 -0.30418926 -0.1412991 0.885684
0000e0 79 0a 14 be eb 3f 6b 3f de dd 01 3f b1 d2 c8 3f
       -0.1445712 0.91894406 0.5072917 1.5689298
0000f0 6d 78 83 3d 89 b9 4c 3f ec a4 47 bf 97 b7 27 3e
       0.06419454 0.79970604 -0.77986026 0.16378628
000100 a4 a7 99 3e 77 7f 90 3e 71 5e ad 3f 85 e3 21 3d
       0.30010712 0.28222248 1.3544446 0.03952362
000110 77 c5 60 bf 80 0b 43 bf 31 03 4b bf 37 ec 01 bf
       -0.8780131 -0.7618942 -0.79301745 -0.5075106
000120 18 f2 72 3d 2a 59 9e bf 4c c3 e8 be 73 c7 80 3f
       0.05931291 -1.2370961 -0.454615 1.0060867
000130 2d e4 c4 3e 17 ac 4f 3f c0 7d 57 bf b8 73 a1 be
       0.38455334 0.81121963 -0.84176254 -0.315336
000140 1e ac b9 3f f9 7a 34 bd 16 03 80 be 83 74 90 be
       1.4505651 -0.04406259 -0.25002354 -0.2821389
000150 f3 13 2e bf 02 3c e9 3e 87 5f 38 be 1e 0a 4a be
       -0.6799919 0.45553595 -0.18005191 -0.19730422
000160 36 86 44 bf 1d 93 1b bf 33 5e 17 bc 60 32 8c 3e
       -0.7676729 -0.6077135 -0.009238767 0.27382183
000170 86 88 ae 3c 4f fd 8a be 58 47 f7 be 74 86 e6 3e
       0.021305334 -0.27146384 -0.48296618 0.45024455
000180 26 d1 af 3e e8 4f 88 3e f9 d8 06 bf dc 13 35 3f
       0.34339255 0.26623464 -0.52674824 0.7073343
000190 ce a3 4b be 37 1a 95 3f 2d 18 80 3e d2 e1 0a bb
       -0.19886705 1.1648625 0.25018445 -0.0021191728
0001a0 f5 ac 4e 3f 28 ee 4a 3f 0c 98 fc 3e 0a 8e 8b bf
       0.8073266 0.7926965 0.49334753 -1.0902722
0001b0 97 c6 c4 3f 33 70 1c bf f5 6f 11 c0 21 bf 12 3f
       1.5373105 -0.611087 -2.2724583 0.5732289
0001c0 b2 1b 7c bf be 96 94 bf 24 21 14 3e 1f 58 be 3d
       -0.9847976 -1.1608503 0.14465767 0.092941515
0001d0 4f 93 90 bf ad 5d 3b 3f 8f e8 71 bf 2c 7c aa be
       -1.1294955 0.7318981 -0.9449548 -0.3329786
0001e0 3b b8 ae be 37 08 c3 bd f0 25 a3 bf 9b 29 15 3f
       -0.34124932 -0.09523051 -1.2745953 0.5826661
0001f0 e9 8a 58 3f 78 b3 93 3e 97 b5 31 3f f6 ea 2d 3f
       0.8458696 0.2884786 0.6941771 0.67936647
000200 d6 10 88 3f ab 92 5c 3f 56 11 c2 bc 25 6d ae be
       1.0630138 0.861613 -0.023689907 -0.34067646
000210 42 7e 85 bc 92 63 a3 bd a2 4e f9 be ad 4b 2d 3e
       -0.016295556 -0.07977976 -0.48692805 0.169234
000220 fe 56 25 bc cd eb ce bc 55 2a 04 3f 4d d0 26 3f
       -0.010091541 -0.025258923 0.51627094 0.6516159
000230 d8 d9 3d 3f 6c 94 22 3f db cd 07 be 51 1c 46 bf
       0.7416053 0.63507724 -0.13262121 -0.7738696
000240 a3 6b a4 3c d5 fb 12 bc c8 94 cf be ca bd 1c bf
       0.020070856 -0.008971174 -0.405432 -0.61227095
000250 e4 ca 74 be e8 ef 9e 3e f3 c3 99 3f b2 a7 89 3f
       -0.23905522 0.3104241 1.2012924 1.0754302
000260 53 89 16 3f fa 41 9e bf 09 6e 5e bf c0 cc 54 3f
       0.5880329 -1.2363884 -0.8688665 0.83124924
000270 00 6c 0a 3e 6f c0 a0 3e 3e 7e ce 3e 66 b2 43 3f
       0.13517761 0.31396815 0.4033069 0.7644409
000280 64 ed 59 bf fc 6d 6c be 80 04 c1 3d a0 e5 04 3d
       -0.85127854 -0.2308883 0.094246864 0.03244555
000290 a5 9d b5 be 38 7e 41 3f 44 84 36 3f fe 8a 4a bf
       -0.35471836 0.7558322 0.7129557 -0.79118335
0002a0 eb dc 76 bf 0a b6 1d 3f 7e 07 0a be 74 e2 77 be
       -0.96430844 0.61605895 -0.1347942 -0.24207479
0002b0 f4 e7 5b be 3c 90 8a bf 10 d5 78 bf 1c e5 52 bf
       -0.21475202 -1.0825267 -0.9720011 -0.82380843
0002c0 1d 78 85 bf 94 62 5f bf 2f 20 ad bf 6f 5b af be
       -1.0427281 -0.87259793 -1.3525447 -0.34249446
0002d0 39 04 9e bf b8 f4 84 be ec b6 48 3e 11 32 09 3f
       -1.2345039 -0.25967956 0.19601029 0.5359202
0002e0 50 da b8 be d2 a2 3f 3f ba c3 8f 3c 3d 0f 2a 3f
       -0.3610406 0.7485782 0.017549384 0.664295
0002f0 30 b8 2e be ca ce 83 3f fa 5b 11 bf fa b4 57 3c
       -0.1706245 1.0297482 -0.5678097 0.013165707
000300 95 8e 51 bf 9d 15 cd be 5a bb 48 bf f5 9b ad 3e
       -0.8185819 -0.40055552 -0.78410876 0.33908048
000310 00 a1 8c be b6 7e 5b 3e 18 41 a7 bd 3b 76 ad 3f
       -0.27466583 0.21435055 -0.081667125 1.3551706
000320 6a b0 b5 3e 82 fa c0 be 9c c7 7c be 17 06 1f bf
       0.35486156 -0.37691122 -0.2468552 -0.6211867
000330 b9 e3 b2 3d 15 cd 60 3b 24 4c 67 3f 3b b0 d7 3f
       0.08734841 0.0034301926 0.90350556 1.6850656
000340 55 67 8b bf cc 3c 95 be 8c 01 ac 3f 39 e9 fa 3e
       -1.089091 -0.29147947 1.3437972 0.4900606
000350 ef 09 3f bf bd 01 e8 be f8 c0 0a bf 0c cd 4b bf
       -0.7462453 -0.45313826 -0.54200697 -0.7960975
000360 ec 80 95 be 88 54 0f 40 04 65 40 be 31 56 4e bf
       -0.29199922 2.2395344 -0.18788534 -0.8060027
000370 dd 9b b3 3e 4e c8 c2 be dd 75 da 3e b8 d1 f4 3c
       0.35079852 -0.38043445 0.42668048 0.029885158
000380 26 91 af bc 96 2b 81 bf 74 18 cb 3c 0b 50 ad bd
       -0.021431517 -1.0091426 0.024791934 -0.084625326
000390 2c 72 4b 3f 99 85 b1 3f 79 9a 1e bf b1 4a fb 3e
       0.7947109 1.3868896 -0.61954457 0.49080423
0003a0 95 d0 20 bf 8e 12 32 bf 63 64 91 3f ca 33 ec be
       -0.6281827 -0.6955956 1.135876 -0.46133262
0003b0 14 20 26 bf d0 b0 e7 3e b6 25 0c 40 0b e8 96 3e
       -0.648927 0.45252085 2.1898017 0.2947391
0003c0 64 fa 87 3e 6f 20 73 3f 16 27 9e 3d 65 b7 3f 3f
       0.2655822 0.94971365 0.07722299 0.7488921
0003d0 04 2a 79 3f bc fb 43 3f 21 c4 8e bf a7 0f 23 3f
       0.97329736 0.7655599 -1.1153604 0.6369576
0003e0 2f b7 ad 3e 06 2d 55 bf 07 19 5d 3f a9 e4 0d 3f
       0.3392882 -0.83271825 0.86366314 0.5542703
0003f0 fd 8e 33 bf 4d 9e 73 3e 79 d2 30 bf bf 24 3a bf
       -0.7014006 0.23790856 -0.69071156 -0.7271232

bias f4 [32]
000000 97 2b 47 3c a4 5a 30 bf 9b d4 fa 3d 3e 7f 8e bf
       0.012156389 -0.68888307 0.122475825 -1.1132581
000010 24 03 a4 bf 9c 47 7b bf 38 ec 95 be 16 67 48 be
       -1.2813458 -0.9815614 -0.29281783 -0.19570574
000020 a0 a6 be bf 8c 1c 9a bf 47 81 87 bf e7 ac c7 bf
       -1.48946 -1.2039962 -1.0586327 -1.5599641
000030 68 3b d6 be 11 bd 26 3f 1b da f8 bf 90 f5 d2 bf
       -0.41842198 0.6513224 -1.944156 -1.648119
000040 88 96 19 c0 41 16 8c bf 1e 55 91 3f 00 eb 5f c0
       -2.3998127 -1.0944291 1.1354101 -3.4987183
000050 6f b8 a4 bf d1 54 97 3e 5a a2 03 c0 05 e0 fb be
       -1.2868785 0.29556897 -2.0567842 -0.4919435
000060 c3 05 4a bf a4 11 68 bf 1c 9f cf bf bb 48 9a be
       -0.7891504 -0.9065192 -1.6220431 -0.30133614
000070 5b 2b b3 bf 25 a7 a1 bf 03 5f 8e be 8c dc 2d bf
       -1.3997606 -1.2629133 -0.27806863 -0.6791465

weight f4 [16, 32]
000000 1d 30 65 bf 9b ac 6f bf da 62 2c bf a5 e6 03 bf
       -0.8952654 -0.9362275 -0.67338336 -0.5152381
000010 6b bf 7b bf 5a e5 3c bd 10 79 cf bf e2 0f 69 bf
       -0.98338956 -0.046117164 -1.620882 -0.9103986
000020 df 27 8f be 2d 0c 68 bd 3c 87 9b bf 11 ad 89 be
       -0.27960107 -0.056652237 -1.2150645 -0.26889852
000030 cb 15 93 bf d1 52 87 bf 55 09 24 3d fb 58 8a bd
       -1.1491026 -1.0572149 0.040047962 -0.06755253
000040 a1 9a 9c 3f 3f 85 eb bd 60 8e ae bf b1 6b 8c 3e
       1.2234689 -0.11500024 -1.3637199 0.27425912
000050 96 4d 7b bf 4b 13 42 3f 30 eb 97 3f ed 41 1a 3f
       -0.9816526 0.7581069 1.1868649 0.60256845
000060 ce 15 7e bf 67 c4 68 3f d8 4e 10 bf 2b 8d 6b bf
       -0.9925202 0.90924686 -0.56370306 -0.9201228
000070 b2 f7 68 bf eb d7 32 bf 02 20 a8 bf bf b7 60 bf
       -0.91002953 -0.69860715 -1.3134768 -0.87780374
000080 c8 9f 31 3e 68 7c 98 bf 1e bd c4 be 87 8d f4 be
       0.17346108 -1.1912966 -0.38425535 -0.47764227
000090 36 18 46 be 5e 93 0f bf 96 60 7d bf 3d 4b b8 be
       -0.19345173 -0.5608424 -0.98975503 -0.35994902
0000a0 e7 0e bf 3e 7f 0e 09 c0 2d 19 9e 3f e4 63 f3 3d
       0.37316057 -2.1415098 1.2351433 0.11884287
0000b0 51 3e af 3d e6 6f 15 bf 51 cb e5 bf 73 43 e8 3d
       0.08556808 -0.5837387 -1.7952672 0.1134099
0000c0 da ca 6e bf b0 8f 24 3d 22 b3 89 bf c8 95 94 be
       -0.93278277 0.040176094 -1.0757792 -0.29020524
0000d0 c3 c7 de be 95 e0 65 bf 79 d6 aa 3f 05 f4 58 bf
       -0.4351178 -0.8979581 1.3346702 -0.84747344
0000e0 93 6f 57 bf e9 42 43 c0 d1 ab be be 5b c7 85 be
       -0.84154624 -3.0509589 -0.3724046 -0.2612866
0000f0 df d9 a7 3f b5 1b 7b 3e 21 ed ae bf cf dd 52 be
       1.3113364 0.24522288 -1.3666116 -0.20592426
000100 d2 f1 0f 3d af 71 d5 be b7 2c e4 bd 05 6a 63 be
       0.035142727 -0.41688296 -0.11141341 -0.22208412
000110 dc 45 07 bd 43 71 4d 3d c0 84 93 bc 90 f4 c2 bd
       -0.033025607 0.050156843 -0.018007636 -0.09519303
000120 0f e3 9b be a4 cb 8d be 7d eb b4 bd 51 71 75 be
       -0.3044667 -0.27694428 -0.08833978 -0.23969008
000130 13 49 7e bd 4d aa b3 bd 2e e9 37 be 43 f6 01 bf
       -0.062081408 -0.08772717 -0.17960045 -0.5076639
000140 ef 5a 6c be 2d d6 79 be 6f bc 7c be 21 25 5a be
       -0.23081563 -0.24398108 -0.24681257 -0.21303226
000150 1a f8 8c 3b 0e 9e 23 be f8 c4 f8 be 69 66 98 be
       0.004302037 -0.15978262 -0.48587775 -0.29765633
000160 da 7c 8f be 08 0a 97 be 9f 1a 3d bd 96 91 2f be
       -0.28024942 -0.2949984 -0.046167966 -0.1714538
000170 62 98 92 3b b3 d1 16 be 0d bf 74 be 86 09 0d be
       0.004473732 -0.14728431 -0.23901005 -0.13773164
000180 c2 79 39 3f 94 e2 ff 3e dc 1f 70 3e 52 43 9f 3e
       0.7245141 0.49977553 0.23449653 0.3110605
000190 df 37 c1 3e 53 98 ae 3c 9d 65 fa 3d ac cb 0e 3d
       0.3773794 0.021312868 0.122264124 0.034862205
0001a0 c3 de d0 3e 5c d0 ef be 0d 15 ab 3f e4 43 50 bb
       0.40794954 -0.46838653 1.3365799 -0.0031778747
0001b0 35 98 e9 3e 4e b6 1b 3e 11 11 41 bd c6 af c1 3e
       0.45623937 0.15206262 -0.047135416 0.37829417
0001c0 ac 8d 87 bf 92 fb 04 3f 5d 29 ec 3e d2 91 35 3e
       -1.059011 0.51946366 0.46125308 0.17731407
0001d0 33 f3 33 3d 2c 74 b8 bf 72 65 bf 3f 57 fa 51 bf
       0.043933105 -1.4410453 1.4952834 -0.82022613
0001e0 36 d0 10 3f b0 e6 24 bf a2 1f 18 3e b3 1b d8 3e
       0.56567705 -0.644145 0.14855817 0.42208633
0001f0 f3 eb 87 3f d2 2b f0 bc 2f ba db 3e 2a 97 74 3e
       1.0618881 -0.02931777 0.42915484 0.2388579
000200 73 c9 5c 3f 55 ca 3e 3f 50 b9 5c 3e 02 56 cf 3e
       0.8624489 0.74527484 0.21555066 0.40495306
000210 ca 5c 1a 3f d4 d0 a1 3e 77 24 7b 3f 66 d3 dc 3e
       0.60297835 0.31604636 0.98102516 0.43130034
000220 67 67 44 3f ae 4c 77 bd dc d8 8c 3f f1 dc 8f 3e
       0.7672028 -0.06037586 1.100368 0.28098252
000230 8a 2d 22 3f 9d ec 38 3f 6b 27 a7 3d b3 f0 50 3f
       0.6335074 0.72236043 0.08161815 0.8161728
000240 db d9 8c bf b2 9e 00 3f fd 1f 29 3f 93 64 c3 be
       -1.1003984 0.5024215 0.66064435 -0.3816267
000250 d5 2d bf 3d bc 72 6a bf bc e5 5e 3f 9f 78 bb be
       0.09334914 -0.9158132 0.87069297 -0.36615464
000260 0c e5 7b 3f 63 82 1b bf da 38 68 be 36 6b 85 3e
       0.9839637 -0.6074583 -0.22677937 0.26058358
000270 0a f5 2f 3f 06 dd 0a 3e 95 a0 56 3f 7a 30 40 3f
       0.68733275 0.13560876 0.8383878 0.7507397
000280 f4 6e 84 bf 2b f9 76 3f b9 e8 c7 bf d5 9a e3 bf
       -1.034636 0.9647395 -1.5617896 -1.7781626
000290 3c d1 7a be 57 a2 ba be 83 a1 db be 33 62 24 bf
       -0.24493879 -0.3645198 -0.4289666 -0.6421234
0002a0 c3 86 68 be 3e 63 57 bf 79 74 e5 be f6 d3 2f bf
       -0.22707658 -0.84135807 -0.44815424 -0.686828
0002b0 0f f5 19 bf a4 59 44 bf 55 7c 3a bf 67 55 ab be
       -0.60139555 -0.7669928 -0.72845966 -0.33463594
0002c0 87 d8 dc bf b3 7a 9d bd 9d 26 02 bf 30 fb 8f be
       -1.7253579 -0.07689419 -0.5084017 -0.28121328
0002d0 77 e0 fe be 87 d5 8f bf dd d8 31 be f5 d9 74 bf
       -0.49780628 -1.1237038 -0.17367883 -0.95645076
0002e0 75 dd ac 3e a9 a5 3c be 4c 5f b8 be 86 08 25 bf
       0.33762708 -0.1842257 -0.36010206 -0.6446613
0002f0 ff 03 3b be 84 95 d4 bd e8 c8 97 bd 5a 8e 52 3e
       -0.18263243 -0.1038008 -0.07411367 0.20562115
000300 8d ac c4 3e 6d 2b 08 3f 63 43 6e bf b3 1f aa bf
       0.38412896 0.5319126 -0.93071574 -1.3290924
000310 9d bb bb 3e b9 60 a9 be 1a 81 8c be c4 51 30 bf
       0.36666575 -0.33081606 -0.27442247 -0.68874764
000320 da 1b 46 bf 84 f0 48 bf 81 29 33 bf c5 2c 2b bf
       -0.7738625 -0.78492 -0.69985205 -0.6686519
000330 58 ab f4 be 70 3b 89 be 73 3f 56 be 4f 99 ba 3c
       -0.47786975 -0.2680316 -0.20922641 0.022778181
000340 38 c6 8b bf b6 3b 58 bf 61 51 40 3e 24 5b 1e bf
       -1.0919867 -0.8446611 0.18781044 -0.6185782
000350 d8 92 aa bf a0 22 2e bf 1a 94 5b be 92 65 f8 be
       -1.3326063 -0.68021584 -0.21443215 -0.48514992
000360 fc 53 0d 3f e8 a7 ac be e2 14 ab bf 46 71 42 bf
       0.55206275 -0.33721852 -1.3365748 -0.7595409
000370 fd 37 4e bf f5 53 85 bf 51 5f 7f 3f 68 ee aa 3e
       -0.8055418 -1.0416247 0.99754816 0.33385015
000380 da 99 79 be e7 4f f9 3b 49 13 44 be af be 95 be
       -0.24375096 0.007608402 -0.19147982 -0.29247043
000390 dc ac 38 bd e2 2e cf bd 96 38 ad be 39 3e 06 be
       -0.045086727 -0.10116364 -0.33832234 -0.13109674
0003a0 30 7b 70 be d6 78 a3 bc 09 89 d3 bd 61 ae 78 bd
       -0.23484492 -0.01995508 -0.10328872 -0.060713176
0003b0 4b 3b d8 bd 54 f9 3e bd 38 13 7b be 9d 30 c0 3c
       -0.10558184 -0.046624497 -0.2451905 0.02346068
0003c0 4b 8e 86 be ab 5d b0 bd 28 2a de 3b ef 0a 3a be
       -0.26280436 -0.08611616 0.0067799278 -0.18168233
0003d0 8a da a7 bd d7 3a 0d be 41 18 a6 bd 9c a4 28 be
       -0.0819598 -0.13791977 -0.08110095 -0.16469043
0003e0 6c 25 a9 be 40 6c 52 be e7 9e 6d be 8a 9a fc bd
       -0.33036363 -0.20549107 -0.23205148 -0.123341635
0003f0 13 48 28 be 67 e3 26 be d3 2f 06 be f5 6e 2d be
       -0.16433744 -0.16297685 -0.13104181 -0.16936858

bias f4 [16]
000000 db 45 35 3f 03 04 e6 bf 13 6d c2 be 8a 06 1b 3f
       0.70809716 -1.7969974 -0.37973842 0.6055685
000010 85 76 6b 3f 6e ed 80 bf 16 a1 ee be 13 af 32 bd
       0.9197772 -1.0072458 -0.46607274 -0.043623995
000020 5d 62 4b 3e 25 94 69 be 54 c8 1a 3f ae d8 7d 3a
       0.19861741 -0.22810419 0.60461926 0.0009683472
000030 21 0b 08 bf a0 55 09 bf f1 3b 94 be 76 d3 2c be
       -0.5314198 -0.5364628 -0.28951982 -0.16877541
