models/NeuMF8_local.pt (torch, 813331 bytes, 17 tensors)

weight f4 [944, 8]
0.6132952 2.818234 -2.1670573 2.4798303 2.6893263 -2.343504 -2.0446377 2.8722498
-1.8920803 -0.72434175 -0.48839256 0.20158942 -5.6032286 -0.8824573 -4.7541447 0.21031483
-1.7679087 -0.943276 -5.0529776 3.0383348 0.6657836 1.6871052 0.15912256 1.3405416
-2.5799253 2.549159 -0.24128078 -0.55675226 1.9931988 -2.2469094 -2.575214 0.36796194
0.50961196 -3.6427686 -0.53972596 3.49866 -2.1903994 -0.5295917 -3.9379299 -0.14419885
-1.1789916 1.9943038 1.4450049 3.0047224 1.0569454 0.020825688 0.5645666 -3.4928458
-1.5840865 -0.43394047 -1.8728007 -0.18977417 -0.23022163 -3.5834572 -0.41907397 -3.9825318
-1.7820666 1.6451985 2.2876582 2.3671427 -3.4716048 -2.4628658 0.65729946 -1.6173784
-0.5431412 1.6518654 -1.6767179 0.8298128 1.6305639 -3.041685 1.7252122 -0.8799858
1.332154 1.690748 2.2649558 3.4663773 1.4598836 -4.561834 1.6824971 -3.9003332
-2.7228696 1.736053 -2.4600737 0.41698316 2.3703184 -1.8772116 -0.29602572 -1.1695793
-0.33060804 1.1672329 -5.0811157 2.457023 4.5092998 -0.6357575 -1.5183437 3.4055161
-3.3779695 1.3585709 -0.43740243 3.7146246 -1.2772108 2.913881 -0.20374025 -2.0667396
-1.4044179 2.6715345 -0.94843066 3.3372462 0.2153402 -1.1172414 0.116435744 0.6281007
-0.12734188 4.406716 -0.04294488 -0.30202073 -5.113129 -3.1845593 -2.149016 0.78953964
-4.4916778 0.5504412 -2.214275 -0.32159582 3.311252 -2.3010066 -1.9066585 1.4245516
-0.62781376 2.5165343 -0.76279855 0.14050035 -0.24651638 -2.8714368 1.6847223 -0.01539694
-3.33019 3.6495883 0.1766241 1.243854 -1.1295918 -0.7953112 1.8113196 -0.9798074
-4.3791013 -0.6745468 -0.3661789 -0.973402 0.706187 -0.4901401 -1.8293018 0.4338791
-0.67648727 5.3660827 -0.5214779 1.2934253 -0.52741534 0.08127234 3.7636592 -3.9024267
-1.1530685 1.6611186 -4.340371 -0.508148 -1.759965 -1.7243353 -3.1609764 -1.8599796
-1.0619724 3.0437968 3.528167 0.6785767 2.5955107 0.5968283 1.34632 -0.9595206
0.46442658 2.1526172 -3.1880398 1.9659026 4.342784 -3.075739 1.434739 0.7173781
-3.644536 2.932952 1.3823009 0.7576942 1.4794798 -2.9472299 3.8943439 -3.5982153
-2.6587224 1.9097571 -1.1544787 2.3268013 0.06005872 1.2775115 1.4888922 0.18685332
-3.3027565 -0.45227832 2.8027916 4.413607 -1.6595793 2.8965263 -0.17335935 2.5226836
-3.1196404 -1.8253403 -7.059705 2.7567127 -1.5730155 0.6978725 0.6058596 1.1576074
2.4821303 -1.8384957 0.73949516 2.7688372 2.862137 -3.0610425 -3.9872575 -6.7966666
-2.255496 -1.2839384 0.5549343 -0.1116904 3.0480676 -2.8578455 -0.18347739 -4.6403995
1.237068 -4.624915 1.6399013 0.9054946 1.3904219 -2.4947197 -1.4278489 -6.643391
-4.3505707 0.9039379 0.8670765 2.2531524 0.14470957 -1.0715075 -0.28860334 0.16395281
-0.37780538 2.3269615 6.1365757 3.6444335 -2.90333 -1.6297373 1.3138472 -2.4067826
00000000: ea00 1d3f f25d 3440 11b1 0ac0 8ab5 1e40
00000010: ec1d 2c40 f8fb 15c0 58db 02c0 f1d2 3740
00000020: b02f f2bf 766e 39bf 970e fabe 756d 4e3e
00000030: a64d b3c0 b9e8 61bf f421 98c0 c55c 573e
00000040: d54a e2bf 897a 71bf feb1 a1c0 1474 4240
00000050: cb70 2a3f 10f3 d73f 06f1 223e de96 ab3f
00000060: 7f1d 25c0 6c25 2340 4f12 77be 5187 0ebf
00000070: 2321 ff3f 5dcd 0fc0 4ed0 24c0 8265 bc3e
00000080: ee75 023f 1f23 69c0 7b2b 0abf 0cea 5f40
00000090: 812f 0cc0 5293 07bf 0b07 7cc0 dda8 13be
000000a0: 32e9 96bf 5945 ff3f ecf5 b83f 5f4d 4040
000000b0: fd49 873f a29a aa3c 7087 103f c98a 5fc0
000000c0: 59c3 cabf 722d debe efb7 efbf 2954 42be
000000d0: 38bf 6bbe 5d57 65c0 dd90 d6be cde1 7ec0
000000e0: c21a e4bf dd95 d23f fe68 1240 447f 1740
000000f0: c62e 5ec0 989f 1dc0 c744 283f 4106 cfbf
00000100: 4d0b 0bbf 5370 d33f b19e d6bf 9d6e 543f
00000110: 51b6 d03f f8aa 42c0 c1d3 dc3f c046 61bf
00000120: 0684 aa3f 6e6a d83f 09f5 1040 20d9 5d40
00000130: 77dd ba3f 8bfa 91c0 115c d73f 0f9f 79c0
00000140: 7f43 2ec0 fc36 de3f d971 1dc0 d17e d53e
00000150: 4cb3 1740 7848 f0bf af90 97be c6b4 95bf
00000160: 7545 a9be e367 953f 8098 a2c0 dd3f 1d40
00000170: 2f4c 9040 01c1 22bf 1659 c2bf faf3 5940
00000180: a730 58c0 a7e5 ad3f 36f3 dfbe 69bc 6d40
00000190: a57b a3bf 077d 3a40 49a1 50be 7645 04c0
000001a0: f7c3 b3bf 6cfa 2a40 5acc 72bf 7195 5540
000001b0: 2482 5c3e c401 8fbf dd75 ee3d 35cb 203f
000001c0: e965 02be d103 8d40 f8e6 2fbd 76a2 9abe
000001d0: c19e a3c0 d2cf 4bc0 7a89 09c0 451f 4a3f
000001e0: d3bb 8fc0 b7e9 0c3f aeb6 0dc0 35a8 a4be
000001f0: 8eeb 5340 b143 13c0 630d f4bf b557 b63f
00000200: 67b8 20bf e60e 2140 c446 43bf 53df 0f3e
00000210: ca6e 7cbe 9fc5 37c0 fba4 d73f 7243 7cbc
00000220: d521 55c0 db92 6940 f3dc 343e 9c36 9f3f
00000230: 7796 90bf 8499 4bbf 52d9 e73f a8d4 7abf
00000240: 9921 8cc0 19af 2cbf cd7b bbbe e030 79bf
00000250: acc8 343f a5f3 fabe 9026 eabf 6725 de3e
00000260: 452e 2dbf f3b6 ab40 937f 05bf f68e a53f
00000270: b104 07bf 1d72 a63d cbdf 7040 5cc1 79c0
00000280: c097 93bf 899f d43f 52e4 8ac0 fd15 02bf
00000290: 8846 e1bf 05b7 dcbf 704d 4ac0 d013 eebf
000002a0: b6ee 87bf 91cd 4240 7dcd 6140 34b7 2d3f
000002b0: d91c 2640 bdc9 183f 3754 ac3f 24a3 75bf
000002c0: 52c9 ed3e 7bc4 0940 d808 4cc0 b2a2 fb3f
000002d0: 16f8 8a40 e8d8 44c0 87a5 b73f 17a6 373f
000002e0: 1440 69c0 7cb5 3b40 3cef b03f 3ff8 413f
000002f0: 985f bd3f 6a9f 3cc0 ee3c 7940 2949 66c0
00000300: 8228 2ac0 ec72 f43f f5c5 93bf 50ea 1440
00000310: 2200 763d 7f85 a33f 0594 be3f 7a56 3f3e
00000320: 5d60 53c0 0691 e7be f060 3340 453c 8d40
00000330: 186d d4bf b060 3940 1d85 31be a673 2140
00000340: 30a8 47c0 c0a4 e9bf 1ae9 e1c0 fb6d 3040
00000350: 9258 c9bf c6a7 323f 9d19 1b3f 7b2c 943f
00000360: 39db 1e40 d453 ebbf 8e4f 3d3f a134 3140
00000370: 412d 3740 1fe8 43c0 3a2f 7fc0 4b7e d9c0
00000380: 0c5a 10c0 1858 a4bf 2d10 0e3f f0bd e4bd
00000390: 8a13 4340 f1e6 36c0 7fe1 3bbe 277e 94c0
000003a0: 3f58 9e3f 4eff 93c0 49e8 d13f 7ece 673f
000003b0: 58f9 b13f 7da9 1fc0 c1c3 b6bf a996 d4c0
000003c0: e037 8bc0 7968 673f baf8 5d3f a633 1040
000003d0: bf2e 143e 2827 89bf d1c3 93be 3fe3 273e
000003e0: b56f c1be f0ec 1440 d45e c440 663e 6940
000003f0: 29d0 39c0 3b9b d0bf 252c a83f ba08 1ac0

weight f4 [1683, 8]
3.2788618 -0.14911005 5.5542297 0.65194595 -0.1387188 -2.9508538 0.75949544 -0.47630903
0.22248031 -0.15103823 3.9503496 2.1352801 -1.4974564 -8.461965 1.1444497 1.0698986
0.74589276 -0.15175118 -0.05485286 -1.4546998 -0.7609682 6.878115 -1.7145927 6.185127
-2.415146 -3.541146 1.7657673 -0.5333164 -1.6332982 -0.093863994 -0.05431426 2.229359
0.34058225 2.0926714 0.32041928 0.37040854 -0.9969125 -5.2489047 1.2922188 2.596195
-3.661592 -0.50222445 2.8858 1.9149766 1.2011387 -1.7268759 -7.316822 -2.1067517
-6.5811763 -0.9462239 1.4766078 2.9194894 0.11434297 -2.172448 -0.8456302 0.396927
-1.7072613 -3.492353 -3.9312856 2.8365107 1.0252818 2.243083 -0.34200394 1.8542018
-4.3432508 -6.6772957 2.153333 0.680496 -0.86112607 2.0507324 -1.5321599 3.9276712
-0.34155065 -5.9267 3.6123278 -0.5281761 0.7860031 -3.2199326 -2.0436208 -1.5016992
-2.4579864 -0.58235675 1.7100114 4.089447 2.6183376 -2.3230844 4.521943 -3.1777558
-1.0190749 -0.4092716 -1.8995438 0.3711953 5.754139 -1.788868 4.299522 0.13893773
-4.8599133 -2.5694354 3.805149 5.719807 1.6381769 -1.7787404 4.552591 -2.0507658
-1.1378095 -3.5274851 1.9373081 -0.44315812 2.3853078 2.267022 -0.49526468 3.6904175
-5.090889 -1.3598964 4.596016 0.12852389 -0.61415815 2.2930803 -0.61882454 6.348315
0.51886386 -5.213447 3.1185718 -2.4975846 0.21828654 3.1343048 0.39183512 5.9839854
-0.27702942 -3.6470194 3.7572522 -1.9140323 -0.556677 -1.830215 -1.9271711 1.2256703
-1.9053347 -5.3259983 2.6328483 1.086285 1.5603893 -1.1170856 4.2822695 -2.3794928
-2.930034 -2.357419 0.7963133 -8.777449 -4.6436515 3.1947784 1.3171524 1.3997455
0.01562778 -1.322411 -3.4455247 -3.3731833 1.1610565 2.416033 -2.072971 2.1927783
-3.0070555 -2.5349677 -2.336711 -0.36407068 -0.3535344 1.2437695 0.21157324 2.2842667
1.1319132 -2.7655602 -1.0788032 1.235349 0.12693691 0.24002035 -2.4700522 -1.1925226
-5.6516037 -1.7331264 3.1537871 2.5158966 0.56952846 -2.3781202 -0.15215966 -1.8728794
-3.6029255 -2.5273583 3.0433435 2.6766798 -0.08779128 0.007469583 5.0151796 -3.8965878
-3.835793 -3.5374017 2.829575 6.2748957 1.6654204 -2.3823063 2.709863 -4.8490605
-6.7587614 0.103712775 4.516413 1.7344246 0.23875557 -0.47985375 5.223385 -6.3284335
-4.9174676 -2.481812 0.16421598 6.876091 3.6461134 0.009681948 -0.41049522 1.9752238
-1.3815836 -1.729989 0.34537664 0.97643715 1.956338 5.097413 -0.8963306 5.331943
1.63624 -3.2439518 1.5855283 -0.31223887 1.9944009 -2.6350195 0.8594373 -1.9812473
-8.082386 -2.584282 5.996893 3.5239735 -1.6006808 -2.6457691 -1.8829393 -2.0322309
-0.64237267 1.0244889 -1.7551142 -0.14116794 4.8983192 -3.8174114 3.4042623 -0.50593287
-8.718215 -2.7903924 4.470166 5.97494 -0.6072991 -4.7322598 -1.9464675 -2.5210102
00000000: dfd8 5140 4eb0 18be 40bc b140 eee5 263f
00000010: 4d0c 0ebe cada 3cc0 4b6e 423f c7de f3be
00000020: e1d1 633e c4a9 1abe 87d2 7c40 6ea8 0840
00000030: a7ac bfbf 3564 07c1 547d 923f 70f2 883f
00000040: d4f2 3e3f a964 1bbe 64ad 60bd 9a33 babf
00000050: d0ce 42bf 8519 dc40 c677 dbbf 8fec c540
00000060: c191 1ac0 23a2 62c0 aa04 e23f 6c87 08bf
00000070: ea0f d1bf c43b c0bd a178 5ebd d1ad 0e40
00000080: cc60 ae3e 54ee 0540 ff0d a43e 30a6 bd3e
00000090: a835 7fbf 07f7 a7c0 6d67 a53f 0f28 2640
000000a0: 8657 6ac0 c891 00bf f2b0 3840 f41d f53f
000000b0: eabe 993f 450a ddbf 6823 eac0 05d5 06c0
000000c0: ff98 d2c0 bb3b 72bf 7c01 bd3f ead8 3a40
000000d0: a62c ea3d 6309 0bc0 397b 58bf 043a cb3e
000000e0: 8a87 dabf b682 5fc0 2f9a 7bc0 6489 3540
000000f0: 6f3c 833f ac8e 0f40 241b afbe 7c56 ed3f
00000100: e9fb 8ac0 68ac d5c0 35d0 0940 fc34 2e3f
00000110: c272 5cbf 333f 0340 d11d c4bf f75e 7b40
00000120: badf aebe 87a7 bdc0 6130 6740 8d36 07bf
00000130: 8037 493f 6013 4ec0 afca 02c0 ae37 c0bf
00000140: a64f 1dc0 5515 15bf a7e1 da3f c0dc 8240
00000150: d892 2740 6aad 14c0 c2b3 9040 5a60 4bc0
00000160: 0c71 82bf 0c8c d1be 4024 f3bf 4f0d be3e
00000170: e821 b840 a0f9 e4bf af95 8940 b145 0e3e
00000180: 6984 9bc0 a171 24c0 9087 7340 a908 b740
00000190: c8af d13f c4ad e3bf d3ae 9140 bf3f 03c0
000001a0: bea3 91bf 51c2 61c0 b6f9 f73f 9fe5 e2be
000001b0: e2a8 1840 e316 1140 5593 fdbe cd2f 6c40
000001c0: 90e8 a2c0 1611 aebf 9012 9340 c49b 033e
000001d0: 7839 1dbf d4c1 1240 496b 1ebf 6525 cb40
000001e0: 43d4 043f 8fd4 a6c0 ae96 4740 6dd8 1fc0
000001f0: 8286 5f3e 7398 4840 9d9e c83e cf7c bf40
00000200: cdd6 8dbe c468 69c0 d276 7040 03ff f4bf
00000210: 6282 0ebf 7c44 eabf 8bad f6bf c4e2 9c3f
00000220: 02e2 f3bf 946e aac0 9680 2840 630b 8b3f
00000230: d6ba c73f a9fc 8ebf 5a08 8940 9c49 18c0
00000240: ad85 3bc0 f4df 16c0 30db 4b3f 6e70 0cc1
00000250: cb98 94c0 4077 4c40 7398 a83f dc2a b33f
00000260: d505 803c c344 a9bf 7a83 5cc0 3ce2 57c0
00000270: 809d 943f 49a0 1a40 8fab 04c0 7b56 0c40
00000280: 9973 40c0 e93c 22c0 ac8c 15c0 7967 babe
00000290: 7602 b5be d733 9f3f a8a6 583e 6d31 1240
000002a0: 88e2 903f f0fe 30c0 3916 8abf eb1f 9e3f
000002b0: c0fb 013e e5c7 753e 5615 1ec0 95a4 98bf
000002c0: f0d9 b4c0 16d7 ddbf a6d7 4940 7304 2140
000002d0: 9ecc 113f 1f33 18c0 becf 1bbe 83ba efbf
000002e0: 5596 66c0 3dc0 21c0 24c6 4240 b94e 2b40
000002f0: eacb b3bd 67c3 f43b 5a7c a040 b261 79c0
00000300: a27d 75c0 ca64 62c0 c217 3540 f2cb c840
00000310: 7f2c d53f b577 18c0 656e 2d40 812b 9bc0
00000320: c647 d8c0 5d67 d43d 7586 9040 a001 de3f
00000330: 577c 743e 64af f5be f825 a740 8782 cac0
00000340: e55b 9dc0 02d6 1ec0 3c28 283e f008 dc40
00000350: ec59 6940 09a1 1e3c 6e2c d2be 22d4 fc3f
00000360: bbd7 b0bf 4870 ddbf 35d5 b03e c9f7 793f
00000370: 4969 fa3f 021e a340 ec75 65bf 479f aa40
00000380: 5070 d13f e89c 4fc0 97f2 ca3f c6dd 9fbe
00000390: 8748 ff3f 29a4 28c0 1504 5c3f 8399 fdbf
000003a0: 7451 01c1 e064 25c0 8ce6 bf40 c888 6140
000003b0: 1ce3 ccbf 4854 29c0 2804 f1bf 1210 02c0
000003c0: 8972 24bf 7422 833f 95a7 e0bf 548e 10be
000003d0: 08bf 9c40 7850 74c0 6fdf 5940 d184 01bf
000003e0: cf7d 0bc1 ca95 32c0 9a0b 8f40 b532 bf40
000003f0: f477 1bbf ac6e 97c0 d925 f9bf 3b58 21c0

weight f4 [8, 8]
0.99645305 -0.75485784 -0.57266 1.3309973 0.76809055 0.66847247 -0.8065167 0.67774683
-0.9073686 0.8453645 0.60694784 -0.61963624 -0.8104176 -0.81978595 1.0617888 -1.0658782
-0.1308761 -0.029209657 0.024023686 0.31889194 0.1609808 0.31442165 -0.465505 0.505692
0.0451696 0.011184158 0.4455707 1.3545083 -0.0731557 0.44634378 -0.69719255 0.62307906
1.1191325 -0.92830443 -0.636476 0.8346211 0.66753656 0.7871144 -1.0701025 1.0690801
1.6796163 -1.2222342 -0.84875095 1.2543693 0.9185623 1.0481843 -1.2716174 0.95243746
-1.2725458 1.1360993 0.7171934 -0.8510171 -0.9342874 -1.0836382 1.2353251 -0.84521115
1.8269413 -1.3590884 -0.5496512 1.3209615 0.74373794 1.0502996 -1.2045182 0.8890492
00000000: 8c17 7f3f 5d3e 41bf d999 12bf 1f5e aa3f
00000010: 95a1 443f 0321 2b3f e177 4ebf d180 2d3f
00000020: 4f49 68bf cf69 583f ef60 1b3f 7ba0 1ebf
00000030: 8777 4fbf 7edd 51bf b2e8 873f b26e 88bf
00000040: 6204 06be 1749 efbc 52cd c43c ce45 a33e
00000050: 27d8 243e e0fb a03e ac56 eebe 0875 013f
00000060: c203 393d c23d 373c d821 e43e 8760 ad3f
00000070: a8d2 95bd 2c87 e43e 367b 32bf 1c82 1f3f
00000080: bc3f 8f3f 5ca5 6dbf 17f0 22bf baa9 553f
00000090: ade3 2a3f 5480 493f 1ef9 88bf 9ed7 883f
000000a0: abfd d63f 2c72 9cbf be47 59bf 2c8f a03f
000000b0: e626 6b3f e72a 863f 5cc4 a2bf f1d2 733f
000000c0: c8e2 a2bf b46b 913f fd99 373f 42dc 59bf
000000d0: 762d 6fbf a8b4 8abf 221f 9e3f c25f 58bf
000000e0: 36d9 e93f 9cf6 adbf f1b5 0cbf 4415 a93f
000000f0: 9c65 3e3f 3870 863f a72d 9abf ba98 633f

bias f4 [8]
-12.594959 9.78494 -16.056568 9.691348 -10.577997 -11.072732 12.02185 -12.472764
00000000: f484 49c1 1d8f 1c41 da73 80c1 c30f 1b41
00000010: 7a3f 29c1 e929 31c1 7f59 4041 7190 47c1

weight f4 [944, 64]
2.2271612 -1.9824015 0.3426191 1.012028 -2.066986 0.43819317 1.5038573 -0.14970347
-0.072439745 -0.7968329 0.9849238 -2.2528665 1.7712942 -1.2860149 0.75211465 0.56912386
0.88284206 -0.35293457 -2.6711736 -0.47557446 2.591833 -0.82614905 1.6603042 -0.20730057
-1.3102785 1.4342623 -0.6731977 -0.9229221 -1.1337299 0.166033 -1.774745 1.097565
-0.3389811 1.787319 0.7965818 0.46136245 -0.43027624 -1.157488 -1.6993806 -0.32862625
1.2400509 1.6269314 1.4237471 0.49088234 1.2894653 -0.67754716 1.2688979 -0.83157426
0.7371837 2.0659444 0.13826002 -2.5004022 0.117307335 -0.35659862 0.23628266 1.028092
1.440991 0.4864756 2.1140258 -1.596053 2.9911957 -2.0228152 -1.1073751 0.9778488
-1.5703933 -0.88810956 -0.9084968 -2.957919 -1.3642597 0.69795585 0.6184885 -0.8623454
-0.4523275 0.3617506 1.4059461 -0.67934287 0.54618657 2.1987858 -0.04947747 1.9393619
-1.4326164 -2.5177844 0.34660065 1.268357 1.3671191 2.4791567 0.4757048 -1.4383187
-0.24690358 -0.90276885 1.4997996 -1.6670997 1.0198708 0.5392231 -0.16788037 2.253241
0.97863114 1.0305849 0.5451551 -1.1408011 1.6147035 -0.9347859 -0.41781253 -1.8318014
-0.94055456 -2.2621415 0.64957845 0.0468632 4.0061207 0.39842486 0.8746097 -0.032705605
-1.490674 -1.7671152 1.0996845 0.574968 -1.6809785 -1.0826298 0.7963415 -0.23226959
-0.18348706 -0.19299111 1.2625304 -2.6522846 -1.0138625 2.1517882 -0.2614284 0.0021502855
0.4125533 -0.19851701 -0.2202436 -0.74723476 -1.5254468 -0.6097319 -2.7773488 1.4708543
2.1519 0.2744917 0.36623 -0.34361553 0.13030137 -1.6676848 -0.6948336 -2.2299647
1.0603454 0.51300687 -1.1003928 -0.98578155 4.3569136 -0.75017565 0.74507624 -0.48957598
-0.20121692 0.13694601 -2.0097091 -1.2901509 -0.015370852 2.9372942 -0.68747604 0.035550173
2.7293463 0.7703416 0.3882005 -1.8200096 -0.4307761 -1.1590171 0.16180004 0.010791671
-1.1266026 1.4565641 -0.77663326 -1.6193911 -1.4668471 -2.4826422 1.243896 1.0142146
1.4494132 -0.62919354 0.050529208 1.3641863 0.28854623 0.40892312 -0.99915236 0.89354175
-0.24537 0.51844925 3.9177253 0.76572233 -0.9167075 1.3817344 0.08453653 0.010799731
-2.2508776 1.5474824 1.6389883 -0.18007676 0.13357964 -0.20188014 0.059585143 0.15919499
1.1463284 -0.61107427 0.8963756 0.81286544 0.17413004 -0.20660423 -0.06140817 0.9376268
-0.0100373905 -1.6597253 0.29794684 0.6729533 0.4168849 0.52600056 0.35021025 -1.48093
0.5588703 -2.3005562 -0.57600296 -2.5143576 0.81042415 -0.088677995 -0.40558973 -2.089209
1.5296993 0.10597419 0.47430286 1.0674508 -0.20798336 0.36946476 0.53745526 0.49828875
1.1355435 -0.3485723 1.018651 0.6272573 2.5056462 -0.09639084 -0.48633674 -1.3399764
0.98325694 1.2571464 -0.60389054 3.329033 0.9682927 -0.2495107 -1.7179816 -2.4828525
1.0439419 0.35174033 -0.019012706 -0.995036 1.7331887 -0.74885786 -0.511825 -1.3063393
00000000: cf89 0e40 55bf fdbf c56b af3e 228a 813f
00000010: 8049 04c0 db5a e03e 657e c03f de4b 19be
00000020: 4a5b 94bd 3efd 4bbf f723 7c3f f72e 10c0
00000030: c5b9 e23f 239c a4bf 968a 403f 1ab2 113f
00000040: f001 623f d7b3 b4be 82f4 2ac0 7f7e f3be
00000050: 98e0 2540 817e 53bf d984 d43f 9a46 54be
00000060: 35b7 a7bf e895 b73f af56 2cbf 9f44 6cbf
00000070: 101e 91bf 8e04 2a3e d82a e3bf 037d 8c3f
00000080: ee8e adbe dec6 e43f c9ec 4b3f b337 ec3e
00000090: 2b4d dcbe 9128 94bf 4e85 d9bf b341 a8be
000000a0: fdb9 9e3f 4a3f d03f 583d b63f ee54 fb3e
000000b0: 330d a53f bb73 2dbf 3f6b a23f 0de2 54bf
000000c0: 12b8 3c3f 6f38 0440 0994 0d3e 9706 20c0
000000d0: d43e f03d 1894 b6be 15f4 713e 8598 833f
000000e0: 6572 b83f 5413 f93e 334c 0740 774b ccbf
000000f0: c06f 3f40 ce75 01c0 78be 8dbf 4d54 7a3f
00000100: a602 c9bf 265b 63bf 3f93 68bf 8b4e 3dc0
00000110: 10a0 aebf 3cad 323f 4355 1e3f abc2 5cbf
00000120: 7897 e7be 6037 b93e 0bf6 b33f 6ae9 2dbf
00000130: e2d2 0b3f e8b8 0c40 e3a8 4abd 033d f83f
00000140: f95f b7bf 6123 21c0 a475 b13e 8659 a23f
00000150: c2fd ae3f 81aa 1e40 948f f33e d41a b8bf
00000160: 4bd4 7cbe dc1b 67bf 6ff9 bf3f 8663 d5bf
00000170: 208b 823f 860a 0a3f d5e8 2bbe 1a35 1040
00000180: 9287 7a3f 35ea 833f 498f 0b3f c505 92bf
00000190: 9bae ce3f 214e 6fbf 86eb d5be 7878 eabf
000001a0: 2fc8 70bf edc6 10c0 c64a 263f a0f3 3f3d
000001b0: 2432 8040 58fe cb3e 6ce6 5f3f 50f6 05bd
000001c0: 68ce bebf d530 e2bf 76c2 8c3f 1a31 133f
000001d0: 4e2a d7bf 9d93 8abf 09dd 4b3f 14d8 6dbe
000001e0: 08e4 3bbe 769f 45be 999a a13f 08bf 29c0
000001f0: 3fc6 81bf e6b6 0940 f1d9 85be ceeb 0c3b
00000200: 303a d33e 0b48 4bbe 8a87 61be c74a 3fbf
00000210: d741 c3bf 6417 1cbf 15c0 31c0 f444 bc3f
00000220: bbb8 0940 2d8a 8c3e 8082 bb3e 60ee afbe
00000230: b96d 053e b276 d5bf 9de0 31bf beb7 0ec0
00000240: 66b9 873f 6b54 033f acd9 8cbf 2e5c 7cbf
00000250: d66b 8b40 830b 40bf 51bd 3e3f b4a9 fabe
00000260: cf0b 4ebe 933b 0c3e 139f 00c0 aa23 a5bf
00000270: 07d6 7bbc a1fc 3b40 6efe 2fbf 0f9d 113d
00000280: 9cad 2e40 1b35 453f 37c2 c63e 13f6 e8bf
00000290: af8e dcbe ac5a 94bf e9ae 253e 8dcf 303c
000002a0: 8434 90bf b170 ba3f 70d1 46bf 3548 cfbf
000002b0: a5c1 bbbf 9ce3 1ec0 fc37 9f3f c9d1 813f
000002c0: 5f86 b93f d412 21bf b7f7 4e3d a89d ae3f
000002d0: 55bc 933e 5f5e d13e 73c8 7fbf 27bf 643f
000002e0: 4642 7bbe 17b9 043f 03bc 7a40 6106 443f
000002f0: 58ad 6abf acdc b03f 7d21 ad3d 5bf1 303c
00000300: 610e 10c0 e713 c63f 5eca d13f 0b66 38be
00000310: 1ac9 083e abb9 4ebe 8d0f 743d 0304 233e
00000320: e4ba 923f 5d6f 1cbf df78 653f f317 503f
00000330: 254f 323e 0f90 53be 2287 7bbd 4f08 703f
00000340: de73 24bc e171 d4bf 7d8c 983e ab46 2c3f
00000350: f071 d53e f9a7 063f c24e b33e 1d8f bdbf
00000360: 2012 0f3f 503c 13c0 ee74 13bf 3ceb 20c0
00000370: f577 4f3f cf9c b5bd 75a9 cfbe 9ab5 05c0
00000380: 30cd c33f ff08 d93d d3d7 f23e 3aa2 883f
00000390: 97f9 54be 7c2a bd3e ab96 093f b41f ff3e
000003a0: 7d59 913f 1278 b2be 2863 823f ef93 203f
000003b0: 825c 2040 9068 c5bd 2101 f9be 5984 abbf
000003c0: bab6 7b3f 2cea a03f 9298 1abf e00e 5540
000003d0: 08e2 773f bc7f 7fbe d2e6 dbbf 0ee7 1ec0
000003e0: e39f 853f 4f17 b43e 89c0 9bbc aeba 7ebf
000003f0: 21d9 dd3f 26b5 3fbf f706 03bf 2036 a7bf

weight f4 [1683, 64]
1.4215645 -0.6129014 0.05825607 0.0081134355 0.80702543 1.205234 -2.4643242 1.0185465
-0.84345984 4.2381325 -0.618708 1.8122265 -3.1012065 -1.6735619 -0.53916717 4.3072615
0.7912083 2.093958 -0.1271587 -0.07157601 0.21285404 0.9406086 0.23640406 0.40677848
-0.62713426 0.61567634 3.0283775 -2.6980088 -1.279163 0.87994003 -1.2518175 0.04919109
-0.2645638 -1.104211 -0.5304321 -0.26966944 -0.15853298 1.3817044 -2.8678265 1.8296727
-0.16207314 -0.17729908 -0.26463 1.1814288 3.878541 -0.14234833 2.315342 -3.3659608
2.421303 -0.9886494 1.5981207 -1.6899318 -5.0981474 -1.3219175 0.17733891 0.92981136
0.36221236 1.4071736 2.504735 1.3121179 -0.44752258 -3.08182 -0.28426 2.4708383
0.98201036 -3.420935 -3.9037561 1.0314896 -3.1080985 -0.24255897 -2.4297225 -1.0544685
0.35700294 -0.6389913 0.77719414 -0.14582276 -1.3022825 0.33059385 -0.97341055 1.1391813
-0.59266627 3.6083755 2.1679027 1.3901154 0.90208626 0.7655848 -3.9061239 1.2354525
3.4065373 -4.197488 0.8704857 -0.71200407 2.0733047 1.4525841 0.019739358 -1.3710536
-0.03166848 2.3686476 2.7945998 2.825172 1.1781377 0.17087637 1.9751254 2.7927766
2.126616 -1.3009908 -3.7470558 -2.5242167 0.14740236 -1.1766989 -2.7391002 -1.419624
0.22732732 -2.392836 0.49882287 -0.96158314 -3.0435386 1.5568227 -0.26385596 -0.39018333
-2.3588765 0.10898148 -0.12744917 -2.8089736 1.5334994 0.6568235 -2.7743397 -1.189115
0.8165666 1.3930084 3.9303548 -0.47274843 3.5487466 1.4025623 2.8735495 -0.7443266
-1.3003985 -2.3968072 -1.2402868 1.7301141 0.9975501 -1.072361 0.30057773 -2.3180923
0.037160788 -1.417649 -2.3050003 -1.4117311 -0.96992546 1.2751043 0.6409289 -1.2044368
-2.0796678 0.6153521 -3.2462192 1.1900162 0.024020059 -0.15794212 0.89975107 -4.211166
0.72675717 -0.42307115 -1.620997 -2.5537386 -3.4295957 -2.9578488 2.7700717 -0.43270013
-0.14970204 -1.9677489 -0.13879442 1.059785 -2.2188983 2.8799996 1.3362494 1.0709127
-0.90741986 1.1884155 -0.89912564 -0.4437923 2.1119282 -2.343997 2.9894028 2.9633307
2.2733035 -1.5090493 -0.57676345 2.068287 -1.7603227 1.8276025 2.169974 1.8377628
2.5347419 0.71656585 -0.013580227 -1.0376011 0.30200434 0.69001657 0.868533 2.4125438
0.50408024 1.6742014 -1.0151445 1.757031 0.363985 -1.2366394 -1.2344141 0.39572054
-0.65057975 -2.170818 -0.7812651 -1.7889637 -1.1910222 -0.6338217 0.15401888 -1.8821807
-0.7937529 -0.5145189 1.1972057 1.3281187 0.33631736 -3.2187276 0.1697808 0.101768106
0.38594386 -0.10210854 -0.20756403 1.3982354 -0.9084805 -1.6246799 -0.794628 -2.4345818
-0.7628757 -0.63572836 0.8311513 0.22442381 1.0496635 1.5145732 3.9079804 1.3226206
1.1783817 0.8663571 0.62117815 -1.1038728 -0.46609983 -1.4320126 -0.6895006 0.547729
2.847857 -2.3836298 -0.5281919 2.165554 -1.2168615 0.25315985 -0.6457497 0.7011033
00000000: d3f5 b53f 1be7 1cbf eb9d 6e3d 37ee 043c
00000010: 3899 4e3f 1c45 9a3f 7db7 1dc0 bb5f 823f
00000020: fcec 57bf c89e 8740 a663 1ebf 0af7 e73f
00000030: 2b7a 46c0 4737 d6bf dc06 0abf 16d5 8940
00000040: a18c 4a3f 6803 0640 e435 02be 7196 92bd
00000050: 69f6 593e bacb 703f e813 723e 4545 d03e
00000060: df8b 20bf f79c 1d3f f0d0 4140 2dac 2cc0
00000070: 9dbb a3bf c043 613f 8e3b a0bf 997c 493d
00000080: e874 87be c956 8dbf 66ca 07bf 1d12 8abe
00000090: 7856 22be b1db b03f 788a 37c0 b732 ea3f
000000a0: 80f6 25be e48d 35be 957d 87be 0f39 973f
000000b0: 043a 7840 c3c3 11be 902e 1440 e76b 57c0
000000c0: a1f6 1a40 2118 7dbf 388f cc3f af4f d8bf
000000d0: 0624 a3c0 9834 a9bf 5598 353e 1e08 6e3f
000000e0: e673 b93e 441e b43f 944d 2040 7bf3 a73f
000000f0: ae21 e5be 8a3c 45c0 878a 91be 3722 1e40
00000100: 0865 7b3f 99f0 5ac0 24d7 79c0 da07 843f
00000110: 16eb 46c0 6161 78be 9380 1bc0 d3f8 86bf
00000120: 17c9 b63e ef94 23bf 32f6 463f 9052 15be
00000130: 31b1 a6bf 9943 a93e 6f31 79bf b1d0 913f
00000140: fab8 17bf a0ef 6640 ebbe 0a40 4def b13f
00000150: 20ef 663f 5efd 433f effd 79c0 4f23 9e3f
00000160: b504 5a40 d251 86c0 27d8 5e3f e645 36bf
00000170: 06b1 0440 47ee b93f 6fb4 a13c af7e afbf
00000180: cfb6 01bd ec97 1740 b9da 3240 9ecf 3440
00000190: 37cd 963f 37fa 2e3e e9d0 fc3f dabc 3240
000001a0: 7a1a 0840 de86 a6bf c3cf 6fc0 c48c 21c0
000001b0: a5f0 163e 129e 96bf 6b4d 2fc0 3db6 b5bf
000001c0: 7ec8 683e 3a24 19c0 b665 ff3e 502a 76bf
000001d0: 56c9 42c0 f745 c73f 2118 87be 1cc6 c7be
000001e0: d5f7 16c0 af31 df3d 0982 02be 39c6 33c0
000001f0: b549 c43f 9625 283f c88e 31c0 ec34 98bf
00000200: 820a 513f 194e b23f ef8a 7b40 150c f2be
00000210: aa1e 6340 2987 b33f 3ce8 3740 308c 3ebf
00000220: 7573 a6bf 4a65 19c0 b8c1 9ebf 6174 dd3f
00000230: 715f 7f3f 2043 89bf 53e5 993e a05b 14c0
00000240: e935 183d 8675 b5bf 2085 13c0 9bb3 b4bf
00000250: 094d 78bf 9e36 a33f eb13 243f fc2a 9abf
00000260: 4719 05c0 b787 1d3f 0ec2 4fc0 7352 983f
00000270: b7c5 c43c 94bb 21be 1656 663f dfc1 86c0
00000280: c20c 3a3f c89c d8be d47c cfbf 7470 23c0
00000290: 7f7e 5bc0 654d 3dc0 db48 3140 df8a ddbe
000002a0: 7e4b 19be 32df fbbf 2020 0ebe 09a7 873f
000002b0: 6e02 0ec0 ea51 3840 380a ab3f ab13 893f
000002c0: ab4c 68bf 001e 983f 192d 66bf bf38 e3be
000002d0: d529 0740 0c04 16c0 6052 3f40 36a7 3d40
000002e0: ce7d 1140 8728 c1bf c5a6 13bf d05e 0440
000002f0: 4152 e1bf e1ee e93f dbe0 0a40 d03b eb3f
00000300: 3639 2240 dc70 373f 9a7f 5ebc 1dd0 84bf
00000310: 50a0 9a3e eda4 303f 2e58 5e3f 1e67 1a40
00000320: 670b 013f 3b4c d63f 41f0 81bf 64e6 e03f
00000330: 3e5c ba3e 334a 9ebf 4801 9ebf e29b ca3e
00000340: 658c 26bf afee 0ac0 fd00 48bf c3fc e4bf
00000350: 6a73 98bf 2442 22bf 20b7 1d3e 4ceb f0bf
00000360: 6433 4bbf 83b7 03bf 093e 993f cbff a93f
00000370: ca31 ac3e a2ff 4dc0 05db 2d3e cc6b d03d
00000380: 6f9a c53e 481e d1bd aa8b 54be 61f9 b23f
00000390: 2e92 68bf 83f5 cfbf be6c 4bbf 30d0 1bc0
000003a0: d24b 43bf 18bf 22bf 55c6 543f 5bcf 653e
000003b0: 605b 863f 89dd c13f 5a1c 7a40 a24b a93f
000003c0: 36d5 963f 94c9 5d3f 8805 1f3f b44b 8dbf
000003d0: a3a4 eebe 304c b7bf 1c83 30bf f837 0c3f
000003e0: 4a43 3640 648d 18c0 9637 07bf 7098 0a40
000003f0: 1ec2 9bbf 2b9e 813e da4f 25bf 827b 333f

weight f4 [64, 128]
-2.0171628 -1.7034011 -0.30380285 -0.34341285 -1.7816712 0.43873897 0.47596127 -0.32967037
-0.7662763 2.1701193 0.45693353 0.32877308 -1.0367873 2.6528342 -0.20752145 0.31778497
0.3787949 0.26469326 -0.44065866 0.91408145 1.8043375 0.524188 -0.6851437 0.70218563
-1.4747293 -1.0299813 -1.3944848 -0.08331271 0.6753643 1.3306178 0.74416184 0.19121847
-0.9974171 0.40646112 0.34363088 -0.57067114 -0.9366365 1.5834264 -0.063812524 -0.53403974
-0.35446897 0.7361443 0.75975484 0.5911428 -0.379381 1.1777776 0.18754935 0.95161957
0.6282536 0.18992765 0.7227507 -0.64677894 -0.71267825 1.1338662 -0.67434025 0.24239169
0.828312 1.5105423 -0.5769354 -0.3443879 -0.0018457401 1.7210535 -0.75858915 -1.7255434
-0.9206031 -0.7625753 -1.017636 -0.10773606 0.47284973 1.1054537 0.45095527 0.07472294
-1.6932541 1.3661603 -0.7584243 0.49537954 -0.85551685 0.4691809 0.78042364 -0.7788036
-0.2504601 -1.4655286 0.05895586 -0.6106349 -0.25844696 -1.3980466 1.5789685 0.94897836
0.11209532 -0.14153677 -0.13111307 -0.31978378 0.48116818 -1.1675044 0.16272059 2.1425986
-1.1221082 0.0056414604 0.24737656 -1.2501944 0.45445675 -0.40045565 1.0065601 -0.550163
0.4481382 0.4064595 -1.9557098 0.21919475 1.5357279 -0.2491114 1.5004524 -0.49662742
-1.0866963 -1.079295 0.14743926 0.22893935 -0.2848372 1.111229 0.2515571 0.90339684
0.47347537 0.33849508 0.8663522 2.532206 -0.7389019 -0.6970539 -0.64430094 -1.7643316
0.14801954 1.1982038 0.97608376 1.3292761 0.089652315 -1.2171226 -0.30589983 -1.7218198
0.16531177 -1.0323557 -0.37287897 -0.14622805 -0.87696546 -0.099116385 0.8541027 -1.5481002
0.6276988 -0.62537074 1.1194844 -1.6383445 -1.8405465 -0.3858249 0.43760017 0.22994013
0.52397275 0.9797469 -0.3431334 1.0069766 -0.93532693 -0.26809272 -1.0301802 0.51266086
-0.63249815 -0.98533577 0.5713177 -0.1446749 0.35032085 1.1798162 -0.81845325 -0.17040521
-0.69246 1.934231 0.6953751 0.46632507 0.0721552 -0.521336 -0.5462675 -0.3607021
0.73090714 -0.7051266 0.22692284 -0.536048 1.529942 -0.38557318 -1.2302924 0.615224
-0.4352781 -0.5139298 -0.4306659 1.0859106 -0.70982623 -1.9473625 0.35903418 -0.11231262
0.21389137 -0.25906616 0.27225244 0.82532275 -1.0173485 -0.98300713 0.3210606 -1.1417783
0.14407189 -0.1139517 0.23970297 -0.53756946 0.14611757 -0.38691145 0.5091606 0.5471869
0.14278461 0.46893907 0.92182446 -0.35293016 0.10134588 -1.2562294 -0.42359543 0.12244829
0.80657434 0.36005613 -1.4721713 -0.28019628 -0.28691205 0.37465262 0.34719342 -0.72616273
-0.043431886 0.6779867 -0.28501415 -0.2905314 0.41913158 -0.3266957 -0.17201644 0.5591897
-0.34002468 0.4846136 -0.4988226 0.053161345 -0.57563925 -0.9749729 -1.1120243 -0.61184806
0.7565183 -0.3893562 -0.13576679 -0.027610945 0.7545156 -0.06480601 -0.28709477 -0.7529375
-0.5289313 -0.26540047 -0.56394005 -0.74132085 0.11385513 -0.6768616 -0.2572698 -0.6591947
00000000: 3219 01c0 0c09 dabf 0c8c 9bbe cfd3 afbe
00000010: cd0d e4bf 65a2 e03e 32b1 f33e 8eca a8be
00000020: af2a 44bf 3ce3 0a40 31f3 e93e f254 a83e
00000030: 72b5 84bf 09c8 2940 8180 54be b6b4 a23e
00000040: 68f1 c13e e085 873e 039e e1be 3e01 6a3f
00000050: 88f4 e63f 2f31 063f 9465 2fbf 70c2 333f
00000060: eec3 bcbf 6dd6 83bf 7a7e b2bf db9f aabd
00000070: ade4 2c3f af51 aa3f 6481 3e3f c6ce 433e
00000080: ba56 7fbf ac1b d03e 63f0 af3e 8117 12bf
00000090: 69c7 6fbf b7ad ca3f 24b0 82bd d4b6 08bf
000000a0: f57c b5be f473 3c3f 4b7f 423f 2255 173f
000000b0: 3a3e c2be 6bc1 963f f00c 403e 579d 733f
000000c0: 3ad5 203f 657c 423e 3106 393f 4e93 25bf
000000d0: 1572 36bf 8722 913f 90a1 2cbf 8735 783e
000000e0: 410c 543f 7359 c13f 0ab2 13bf 9c53 b0be
000000f0: c3ec f1ba 7b4b dc3f e632 42bf 9bde dcbf
00000100: a5ac 6bbf 2338 43bf e541 82bf b9a4 dcbd
00000110: 5c19 f23e 827f 8d3f 9ce3 e63e 5708 993d
00000120: 8dbc d8bf 57de ae3f 1828 42bf 63a2 fd3e
00000130: 2703 5bbf 7b38 f03e d8c9 473f ac5f 47bf
00000140: 4e3c 80be 7196 bbbf b37b 713d 9252 1cbf
00000150: 2953 84be 31f3 b2bf a41b ca3f 3ff0 723f
00000160: 3b92 e53d 04ef 10be 8142 06be b3ba a3be
00000170: ad5b f63e c970 95bf 3aa0 263e 5620 0940
00000180: 3ea1 8fbf 00dc b83b 4850 7d3e 5f06 a0bf
00000190: 8eae e83e 8608 cdbe f6d6 803f 7bd7 0cbf
000001a0: 5f72 e53e 761b d03e b354 fabf 9774 603e
000001b0: bb92 c43f 0f17 7fbe d30e c03f f345 febe
000001c0: dd18 8bbf 5726 8abf 51fa 163e 146f 6a3e
000001d0: 2ed6 91be c03c 8e3f 18cc 803e 0445 673f
000001e0: 5d6b f23e 3a4f ad3e 42c9 5d3f aa0f 2240
000001f0: ad28 3dbf 2072 32bf e8f0 24bf 9ed5 e1bf
00000200: 6f92 173e be5e 993f a0e0 793f b825 aa3f
00000210: a29b b73d acca 9bbf e79e 9cbe 9764 dcbf
00000220: 7d47 293e 3b24 84bf fee9 bebe cebc 15be
00000230: cf80 60bf 88fd cabd 79a6 5a3f 2628 c6bf
00000240: deb0 203f 4c18 20bf 444b 8f3f 46b5 d1bf
00000250: 0797 ebbf d78a c5be 210d e03e 6d75 6b3e
00000260: 1423 063f b1d0 7a3f 2eaf afbe 9ce4 803f
00000270: 9671 6fbf 7343 89be f2dc 83bf be3d 033f
00000280: 66eb 21bf f73e 7cbf e041 123f a825 14be
00000290: 415d b33e 3804 973f 2786 51bf b47e 2ebe
000002a0: 0f45 31bf e294 f73f 1a04 323f 29c2 ee3e
000002b0: 1bc6 933d 4776 05bf 30d8 0bbf f2ad b8be
000002c0: bb1c 3b3f 2d83 34bf 765e 683e 713a 09bf
000002d0: 24d5 c33f d969 c5be 397a 9dbf 527f 1d3f
000002e0: c5dc debe e790 03bf 3e80 dcbe 1eff 8a3f
000002f0: 2cb7 35bf 2d43 f9bf 54d3 b73e 2904 e6bd
00000300: 5706 5b3e 52a4 84be ac64 8b3e 5a48 533f
00000310: 7a38 82bf 5ba6 7bbf 0e62 a43e cb25 92bf
00000320: 9587 133e 825f e9bd b274 753e 279e 09bf
00000330: d89f 153e 4219 c6be 5958 023f 7114 0c3f
00000340: 2136 123e c818 f03e b0fc 6b3f 43b3 b4be
00000350: 6e8e cf3d 20cc a0bf 80e1 d8be 2bc6 fa3d
00000360: a87b 4e3f 4759 b83e 1c70 bcbf e375 8fbe
00000370: 23e6 92be 78d2 bf3e 56c3 b13e cde5 39bf
00000380: a2e5 31bd 8990 2d3f 60ed 91be 88c0 94be
00000390: 6a98 d63e a944 a7be 1425 30be 0e27 0f3f
000003a0: b717 aebe 461f f83e ad65 ffbe b6bf 593d
000003b0: 185d 13bf d397 79bf d056 8ebf 13a2 1cbf
000003c0: 2fab 413f b259 c7be 7306 0bbe 5930 e2bc
000003d0: ef27 413f 03b9 84bd 16fe 92be 83c0 40bf
000003e0: 0b68 07bf 92e2 87be 605e 10bf 34c7 3dbf
000003f0: e12c e93d cd46 2dbf deb8 83be fcc0 28bf

bias f4 [64]
0.97231865 -34.91407 -10.834331 22.368448 32.474663 34.60042 13.979162 31.553732
-9.404934 -24.595297 -6.483103 -12.385411 16.27248 14.058684 4.4416394 -24.542616
-21.10255 36.16687 -1.1453801 10.822817 -4.822251 -4.6828394 -27.117075 30.88286
-34.07515 24.892149 -17.983484 -0.38819665 -13.67199 -4.197536 -22.080523 -21.224197
26.134302 -14.321146 16.309757 17.623655 15.624702 -21.69041 -4.532539 -10.517487
25.74239 13.230567 -0.52551025 1.1448374 -22.032618 35.832863 28.973417 18.055927
30.941195 19.462326 -29.87727 -11.266793 11.765883 -25.398117 1.3583138 -33.22234
20.03037 6.7158318 18.781078 6.106523 32.08034 13.788476 -5.7715793 10.1266
00000000: e0e9 783f 02a8 0bc2 6b59 2dc1 95f2 b241
00000010: 0ee6 0142 d566 0a42 a6aa 5f41 0b6e fc41
00000020: 9c7a 16c1 2bc3 c4c1 9475 cfc0 a52a 46c1
00000030: 0a2e 8241 5ff0 6041 e921 8e40 4757 c4c1
00000040: 06d2 a8c1 e0aa 1042 d19b 92bf 422a 2d41
00000050: e14f 9ac0 d2d9 95c0 c5ef d8c1 1910 f741
00000060: f44c 08c2 1f23 c741 2dde 8fc1 b6c1 c6be
00000070: 79c0 5ac1 3752 86c0 e9a4 b0c1 28cb a9c1
00000080: 0d13 d141 6a23 65c1 627a 8241 3ffd 8c41
00000090: c8fe 7941 f685 adc1 8f0a 91c0 a047 28c1
000000a0: 6af0 cd41 67b0 5341 d787 06bf 088a 923f
000000b0: cd42 b0c1 da54 0f42 8fc9 e741 8a72 9041
000000c0: 9187 f741 d8b2 9b41 a604 efc1 c944 34c1
000000d0: 0f41 3c41 582f cbc1 3add ad3f ade3 04c2
000000e0: 333e a041 18e8 d640 a63f 9641 a368 c340
000000f0: 4552 0042 999d 5c41 c7b0 b8c0 8e06 2241

weight f4 [32, 64]
-0.4792142 2.7152965 -0.38013086 -2.0300891 -3.7062206 -3.6189287 0.0068590376 -2.5580347
-0.07434865 1.4936565 0.060664974 0.41274068 -0.37903506 -0.2380313 -0.81787 2.2531083
0.58846265 -5.4215403 -0.2034911 -0.6005901 1.1867232 0.9710641 1.2742931 -2.9200494
4.440841 -2.3777046 0.5230594 0.6819904 -0.23366334 0.34557012 1.781162 1.4144857
-0.8383232 1.1691276 -0.13088666 -0.15325618 -2.1430445 1.6305214 0.81937563 -0.3906096
-0.4955372 0.113104485 1.2349348 -0.815061 -0.061711535 -2.948814 -1.5885113 -0.5228889
-1.6734736 -1.3177755 1.9148551 0.31679899 -0.40537181 2.7917106 -0.8599135 4.682764
-1.1327566 -0.20999235 -2.4776998 -0.9584138 -1.7461975 0.3938157 0.43850198 0.517437
-1.1793634 1.4983783 0.35610503 -0.41171345 -1.4693692 -2.526488 -1.4658699 -1.7692755
-0.22993122 0.8445334 0.7066918 0.8326678 -0.939086 -0.9850801 -0.9859591 0.7016252
1.1732073 -3.0796 0.27011433 -1.089328 0.056722913 0.670463 -0.22798257 -1.6640044
2.392042 -1.5732764 1.6374111 0.90813714 0.029308457 0.31527072 0.898938 0.5277709
-2.2052252 0.60922843 -0.21906006 -0.94778067 -0.5372973 0.03983777 0.084201865 -0.15746154
-1.2391435 0.4298227 0.5014546 -0.24316096 0.95076734 -2.3703952 -0.14574543 -0.5034801
-1.4327114 0.30124116 1.3546543 1.1502256 -0.23408751 1.9392115 1.0225655 3.4626665
-0.53784174 -0.06803217 -1.7053473 0.47367555 -2.4111543 -0.34934983 -0.15527281 -0.80026716
0.35052907 2.554334 -0.1350967 -0.7048108 -3.21411 -2.8432872 -0.04175772 -1.5954456
0.24607834 0.40969127 0.8421521 0.43086606 -0.60226893 -0.5640296 0.26199168 1.2664295
0.90938956 -3.2256978 0.36109188 -1.3316437 -0.0805626 0.41521075 1.4478382 -2.2726047
2.3699114 -1.4912122 0.58193684 0.92157274 0.34195969 0.35719627 0.45579395 0.37190324
-0.56710625 -0.19499685 -0.34677735 -0.80256224 -0.92196 1.0487204 -0.010985257 0.3697552
-0.17525911 -0.44914553 -0.13813816 0.028778028 0.88215315 -2.7630112 -1.3766774 -1.3357856
-1.9071112 -0.16510387 2.751817 0.2711931 -0.78022605 2.2042878 0.05882711 2.433862
-0.4077054 -0.34140268 -1.1983479 -1.3731645 -2.231659 -1.0272286 0.8121794 -0.7688755
0.26618958 2.3589334 0.32323772 -0.24883853 -2.2773082 -3.9207084 0.025691504 -1.6095188
-0.9726493 0.6522947 0.122810304 1.6002297 -0.08701181 -0.5753606 -0.304883 2.1353605
0.7249751 -3.9717903 0.91792095 0.66756165 0.37659407 0.8220679 0.95924735 -3.4954057
2.4500892 -0.5516077 0.40063044 0.2656018 -0.24078964 0.7661178 0.73758024 -0.14364226
-1.0593749 0.6145877 -1.6335233 -0.41299197 0.5292868 0.43864214 0.48149538 0.50090986
-1.7496022 -1.3320199 0.8823426 0.0063103633 0.88554686 -2.0149703 -2.1228454 -0.5718455
-1.9214727 -1.4037797 0.5363647 0.68721503 -0.953224 -0.27707422 -0.60718274 2.169158
0.04460425 -0.011731041 -0.3137265 0.28571817 -1.2311285 0.076493055 0.25143814 -0.9215407
00000000: 905b f5be 6bc7 2d40 83a0 c2be fbec 01c0
00000010: b832 6dc0 879c 67c0 c7c1 e03b d7b6 23c0
00000020: 1b44 98bd 2330 bf3f d67b 783d bf52 d33e
00000030: e210 c2be 7abe 73be ee5f 51bf ed32 1040
00000040: 7da5 163f 427d adc0 f95f 50be 46c0 19bf
00000050: 8ce6 973f a897 783f 091c a33f 17e2 3ac0
00000060: 5f1b 8e40 502c 18c0 39e7 053f ec96 2e3f
00000070: 7145 6fbe 91ee b03e 1efd e33f de0d b53f
00000080: 599c 56bf f9a5 953f 2707 06be 30ef 1cbe
00000090: a427 09c0 edb4 d03f 9ac2 513f fbfd c7be
000000a0: 0db7 fdbe 53a3 e73d 5812 9e3f d6a7 50bf
000000b0: 3cc5 7cbd 5eb9 3cc0 5754 cbbf 0cdc 05bf
000000c0: 6234 d6bf deac a8bf f919 f53f 7a33 a23e
000000d0: e58c cfbe 63ab 3240 4b23 5cbf 34d9 9540
000000e0: 2bfe 90bf 3c08 57be a292 1ec0 9b5a 75bf
000000f0: 6683 dfbf 36a2 c93e 5583 e03e c076 043f
00000100: 61f5 96bf dcca bf3f 6653 b63e 1bcc d2be
00000110: 4a14 bcbf fbb1 21c0 a0a1 bbbf 9f77 e2bf
00000120: 1773 6bbe 5733 583f c1e9 343f b829 553f
00000130: f167 70bf 362e 7cbf d167 7cbf b69d 333f
00000140: a82b 963f 2b18 45c0 6d4c 8a3e 1a6f 8bbf
00000150: 4956 683d 77a3 2b3f 4374 69be 19fe d4bf
00000160: 3717 1940 1f61 c9bf b096 d13f ad7b 683f
00000170: 4a18 f03c 2a6b a13e cd20 663f fe1b 073f
00000180: 6922 0dc0 65f6 1b3f 4851 60be c1a1 72bf
00000190: 518c 09bf ee2c 233d 0772 ac3d 993d 21be
000001a0: 419c 9ebf b911 dc3e 545f 003f 30ff 78be
000001b0: 7d65 733f 8eb4 17c0 4a3e 15be 12e4 00bf
000001c0: 1663 b7bf 483c 9a3e 5065 ad3f 983a 933f
000001d0: a3b4 6fbe 1538 f83f 6de3 823f 549c 5d40
000001e0: ffaf 09bf 7354 8bbd d248 dabf 9a85 f23e
000001f0: 5a50 1ac0 fbdd b2be d6ff 1ebe 4fde 4cbf
00000200: 8c78 b33e 357a 2340 ca56 0abe 7b6e 34bf
00000210: fab3 4dc0 6bf8 35c0 250a 2bbd 9037 ccbf
00000220: f6fb 7b3e 0ec3 d13e 4897 573f 7a9a dc3e
00000230: 4c2e 1abf 3e64 10bf c623 863e 5d1a a23f
00000240: c1cd 683f d571 4ec0 09e1 b83e 4d73 aabf
00000250: 01fe a4bd 8196 d43e c352 b93f 5b72 11c0
00000260: a1ac 1740 0be0 bebf d0f9 143f 31ec 6b3f
00000270: 5715 af3e 6ee2 b63e d35d e93e 1a6a be3e
00000280: e02d 11bf 41ad 47be cd8c b1be b874 4dbf
00000290: 9205 6cbf 783c 863f 82fb 33bc 8e50 bd3e
000002a0: 2077 33be 67f6 e5be 1774 0dbe e6bf eb3c
000002b0: cad4 613f 2dd5 30c0 f736 b0bf 06fb aabf
000002c0: 381c f4bf fd10 29be c51d 3040 d2d9 8a3e
000002d0: e5bc 47bf 0d13 0d40 b2f4 703d 65c4 1b40
000002e0: c3be d0be 55cc aebe 7763 99bf dbc3 afbf
000002f0: 80d3 0ec0 3a7c 83bf fdea 4f3f 06d5 44bf
00000300: 004a 883e c4f8 1640 6a7f a53e 87cf 7ebe
00000310: 6bbf 11c0 e3ec 7ac0 fd76 d23c b604 cebf
00000320: 8bff 78bf c9fc 263f f883 fb3d 54d4 cc3f
00000330: 3f33 b2bd d54a 13bf a019 9cbe bfa9 0840
00000340: f897 393f d031 7ec0 defc 6a3f 52e5 2a3f
00000350: f0d0 c03e 0b73 523f 3c91 753f bab4 5fc0
00000360: 43ce 1c40 2a36 0dbf 6f1f cd3e f6fc 873e
00000370: 8f91 76be 4c20 443f 0fd2 3c3f f516 13be
00000380: 9999 87bf 9f55 1d3f 4b17 d1bf af73 d3be
00000390: 577f 073f b495 e03e 9086 f63e a13b 003f
000003a0: f7f2 dfbf a17f aabf 34e1 613f 2ac7 ce3b
000003b0: 33b3 623f 46f5 00c0 b3dc 07c0 7764 12bf
000003c0: d1f2 f5bf 0eaf b3bf 324f 093f 53ed 2f3f
000003d0: 7d06 74bf acdc 8dbe 5470 1bbf 7cd3 0a40
000003e0: f2b2 363d 8d33 40bc c3a0 a0be a749 923e
000003f0: 9e95 9dbf 64a8 9c3d 80bc 803e 17ea 6bbf

bias f4 [32]
-6.69278 -9.387383 -7.801119 -8.942111 -5.2956467 -8.003705 -7.676491 -6.551759
-6.140927 -6.095372 -6.488764 -5.9111257 -7.7056255 -7.2923765 -6.0262675 -7.707427
-5.9377413 -7.067764 -5.639873 -7.290766 -6.4796934 -6.879655 -6.079717 -7.643402
-7.3083816 -7.0962358 -7.37839 -7.75901 -7.54813 -8.066548 -8.212663 -7.778265
00000000: 412b d6c0 b932 16c1 c4a2 f9c0 e312 0fc1
00000010: f075 a9c0 2d0f 00c1 d0a5 f5c0 02a8 d1c0
00000020: 7982 c4c0 4a0d c3c0 f4a3 cfc0 f127 bdc0
00000030: 7c94 f6c0 265b e9c0 2fd7 c0c0 3ea3 f6c0
00000040: fa01 bec0 1f2b e2c0 d779 b4c0 f44d e9c0
00000050: a659 cfc0 2226 dcc0 0b8d c2c0 c096 f4c0
00000060: 43de e9c0 5d14 e3c0 c51b ecc0 cf49 f8c0
00000070: 488a f1c0 9510 01c1 1167 03c1 8ce7 f8c0

weight f4 [16, 32]
-0.7174769 -0.13992189 -0.20740187 -1.1481894 -0.4589094 -0.6450625 -0.12365065 0.7254326
-0.07742423 -0.020987978 0.9316302 -0.3832797 0.11351669 0.61818534 0.028721897 1.3444408
-1.1165985 0.42025423 0.4188606 -0.58642435 -0.59995526 -0.27478507 1.1348606 0.9107842
0.01922988 0.22094251 -1.2480075 0.30692148 -0.2879328 -0.3085094 -0.20622893 0.8801547
-0.710567 -0.16828406 -1.8410916 -0.15378152 -1.76358 0.16326196 -0.11127275 -0.9774932
-0.059184667 -0.41699553 -0.9540431 0.49405575 -0.10625013 0.33178985 -0.34015676 -0.18676789
-2.1462202 -0.72421527 0.64762056 0.77902526 -0.6137859 -0.08193664 -0.059114784 -0.6351522
0.2951408 -0.4784378 0.32679 0.8010982 -0.5701481 -0.30209267 0.32039037 0.12716025
-0.061740596 -1.0145015 0.26171142 -0.52412593 -0.5683729 0.3387589 -0.33390012 -2.5042996
-1.31838 -2.1356344 0.32360557 0.45419872 -0.543845 -1.787147 0.1781627 -1.1726277
-0.042529628 -0.93087006 0.14537126 -2.346728 -0.8940371 0.059223622 -0.52044064 -1.4571681
-0.0061086416 -0.4337461 0.49108073 0.4428184 -0.7389245 -0.34160605 0.54368234 1.3068862
-0.03779769 0.613475 0.0660321 0.36820146 -0.5382801 -1.0475298 -0.24676873 -0.37388602
-1.2628406 -0.62393755 -0.53028303 -0.6048134 0.8121176 0.060030896 -0.39182585 -0.25557715
0.68380225 -0.2499408 0.53131306 0.0024092156 -1.911383 -0.46299016 -0.5750572 0.09982067
-0.38575462 0.18998441 0.91422623 1.1623365 0.509548 0.7102393 0.9327338 1.5032272
-0.009439302 -0.5656271 -0.6656523 -0.9457193 -1.0291845 -0.84498906 -0.5046839 -0.5983852
-1.4196641 0.18968503 -0.019943824 -0.17763063 -0.9293046 0.08511662 0.17296119 -0.9457523
0.26816085 -1.3007239 0.35044664 -0.021458033 -0.22863989 0.21198533 0.21947847 -0.40342247
0.90498537 -1.8807645 0.07660057 -0.08308621 -0.568064 -0.2500118 -0.40768677 0.8681126
0.9463355 0.40485355 -0.23924324 -0.223715 0.42505723 -0.68539387 0.13298114 0.08778577
1.2971532 -0.28278285 0.33338493 1.4357483 0.17780358 0.048346195 0.9358575 -0.1702274
0.32481772 0.6842856 1.1473112 -0.2854435 1.1445667 1.2980784 -0.24649149 1.3271285
-0.029335728 0.3159432 0.8259415 -0.35247287 0.0015021941 0.3846919 -0.015907247 1.348666
0.7151796 0.16627719 -0.71210575 0.23099937 -0.48881373 0.47571826 0.12961961 -0.42846012
-0.41587508 0.7978131 1.2337359 0.700993 -0.40445182 -0.2560659 0.93682873 -1.1579775
0.14660843 -1.4485245 0.45688796 -1.1695532 0.7777674 0.12826638 0.70749855 -0.10230523
0.011572204 -0.28972116 -1.2628479 -0.9876761 0.66713524 -0.2860013 0.7445581 -0.19592214
-0.81785375 -0.97134507 0.26649854 -1.5700554 1.151857 -0.86633754 0.26354137 -0.9397131
0.035502877 -0.082734525 0.5830326 -0.23093382 -0.19261464 0.014381697 -0.8148639 -0.202426
-1.0899425 -0.34851632 -0.8866513 -0.17179546 0.27443725 0.48503596 -1.6569932 -0.5553571
-1.5683758 0.41317573 -0.93408525 0.43000567 0.03261574 -0.72608984 0.3009077 0.33503374
00000000: 91ac 37bf af47 0fbe 2861 54be dff7 92bf
00000010: 2cf6 eabe d122 25bf 8d3c fdbd f3b5 393f
00000020: 9890 9ebd fbee abbc 517f 6e3f 3d3d c4be
00000030: 707b e83d 6541 1e3f 2f4a eb3c a316 ac3f
00000040: b3ec 8ebf 902b d73e e674 d63e e81f 16bf
00000050: ab96 19bf a1b0 8cbe 1d43 913f 2729 693f
00000060: fb87 9d3c c13e 623e b6be 9fbf d024 9d3e
00000070: ee6b 93be f2f4 9dbe ad2d 53be d251 613f
00000080: b8e7 35bf a852 2cbe e4a8 ebbf e778 1dbe
00000090: fdbc e1bf 252e 273e f8e2 e3bd ff3c 7abf
000000a0: 9f6b 72bd 7080 d5be 2b3c 74bf e0f4 fc3e
000000b0: ab99 d9bd 5ce0 a93e 0729 aebe 1540 3fbe
000000c0: ac5b 09c0 2c66 39bf 76ca 253f 336e 473f
000000d0: 1321 1dbf 66ce a7bd 5822 72bd 5699 22bf
000000e0: b21c 973e cdf5 f4be 0551 a73e c614 4d3f
000000f0: 3af5 11bf e4ab 9abe 350a a43e 4c36 023e
00000100: b5e3 7cbd 2fdb 81bf 0aff 853e 1e2d 06bf
00000110: e380 11bf ce71 ad3e f5f4 aabe 7246 20c0
00000120: adc0 a8bf 3cae 08c0 a1af a53e bc8c e83e
00000130: 6d39 0bbf 3cc1 e4bf 4870 363e aa18 96bf
00000140: 8c33 2ebd 804d 6ebf 34dc 143e cb30 16c0
00000150: 9edf 64bf 7894 723d 993b 05bf 7c84 babf
00000160: 002b c8bb f813 debe ef6e fb3e 18b9 e23e
00000170: 282a 3dbf fde6 aebe c42e 0b3f 0c48 a73f
00000180: c0d1 1abd b30c 1d3f d63b 873d e784 bc3e
00000190: bacc 09bf 7515 86bf f1b0 7cbe fd6d bfbe
000001a0: c3a4 a1bf 5fba 1fbf a1c0 07bf 0dd5 1abf
000001b0: f0e6 4f3f f5e2 753d 669d c8be 02db 82be
000001c0: aa0d 2f3f 7bf0 7fbe 2204 083f eee3 1d3b
000001d0: 33a8 f4bf 0c0d edbe f336 13bf c86e cc3d
000001e0: a181 c5be 468b 423e bb0a 6a3f 71c7 943f
000001f0: bd71 023f 3ed2 353f a4c7 6e3f c069 c03f
00000200: 4da7 1abc f0cc 10bf 3068 2abf a91a 72bf
00000210: 51bc 83bf 3451 58bf f732 01bf c62f 19bf
00000220: 8eb7 b5bf cb3c 423e 3b61 a3bc cee4 35be
00000230: e8e6 6dbf 9f51 ae3d bd1c 313e d31c 72bf
00000240: 614c 893e 1f7e a6bf be6d b33e c2c8 afbc
00000250: 9320 6abe af12 593e f7be 603e 648d cebe
00000260: 1fad 673f e4bc f0bf c2e0 9c3d 1a29 aabd
00000270: a46c 11bf 8c01 80be 52bc d0be a13c 5e3f
00000280: 0b43 723f f748 cf3e 2efc 74be 8c15 65be
00000290: 1aa1 d93e f975 2fbf 352c 083e 07c9 b33d
000002a0: 1e09 a63f eac8 90be 6eb1 aa3e 9ac6 b73f
000002b0: 2412 363e a906 463d 5b94 6f3f 1750 2ebe
000002c0: 824e a63e 572d 2f3f 18db 923f a725 92be
000002d0: 2981 923f 6f27 a63f 4468 7cbe 59df a93f
000002e0: 7b51 f0bc 4fc3 a13e e770 533f 5377 b4be
000002f0: 45e5 c43a 56f6 c43e ea4f 82bc 16a1 ac3f
00000300: 0316 373f 9144 2a3e 904c 36bf 198b 6c3e
00000310: cb45 fabe 5891 f33e 01bb 043e 205f dbbe
00000320: 94ed d4be 7b3d 4c3f 0feb 9d3f 4774 333f
00000330: 4f14 cfbe 121b 83be 02d4 6f3f 9b38 94bf
00000340: 8520 163e 4069 b9bf 38ed e93e ebb3 95bf
00000350: c41b 473f 4358 033e a01e 353f 6885 d1bd
00000360: 5799 3d3c 5556 94be 00a5 a1bf 57d8 7cbf
00000370: 60c9 2a3f c36e 92be 5c9b 3e3f d09f 48be
00000380: dd5e 51bf 12aa 78bf 7f72 883e 93f7 c8bf
00000390: 0d70 933f 4cc8 5dbf e5ee 863e 0a91 70bf
000003a0: 776b 113d b870 a9bd a041 153f ea79 6cbe
000003b0: c63c 45be 36a1 6b3c ec9a 50bf c348 4fbe
000003c0: 3c83 8bbf bb70 b2be 94fb 62bf 26eb 2fbe
000003d0: 0a83 8c3e a256 f83e 5a18 d4bf e22b 0ebf
000003e0: 8ac0 c8bf c58b d33e 3620 6fbf b429 dc3e
000003f0: 1598 053d 06e1 39bf 9310 9a3e 8b89 ab3e

bias f4 [16]
0.23179345 0.10724411 0.034444913 0.0028861351 -0.18223496 -0.028839875 -0.050860904 -0.43386635
0.2542081 -0.23726693 -0.4894065 -0.06888252 -0.14402936 -0.052187625 -0.23374215 -0.46224046
00000000: 435b 6d3e cda2 db3d 1c16 0d3d 5025 3d3b
00000010: cd9b 3abe 9a41 ecbc 8653 50bd bb23 debe
00000020: 9027 823e 1af6 72be 7d93 fabe 4712 8dbd
00000030: 6f7c 13be b1c2 55bd 1a5a 6fbe c8aa ecbe
