models/NeuMF8.pt (torch, 180251 bytes, 17 tensors)

weight f4 [944, 8]
0	0x4035f09a	2.8428102
1	0x405a5c2a	3.4118752
2	0xbf9c1fa9	-1.2197162
3	0xbf9baac3	-1.2161487
4	0x4054172e	3.3139148
5	0xbd608f4f	-0.05482417
6	0x401f6d68	2.4910526
7	0x405f94f7	3.493467
8	0xbf129d85	-0.57271606
9	0xbe8987a3	-0.26861295
10	0xc0c041d1	-6.008034
11	0xc0302f14	-2.7528734
12	0xbff7e17b	-1.9365686
13	0xc02839f4	-2.6285372
14	0xc0508bef	-3.2585409
15	0xbfd5bf31	-1.6698972
16	0x4068c712	3.6371503
17	0xc09c8b7e	-4.892028
18	0x408d9baa	4.425252
19	0x401f6dcb	2.4910762
20	0xc008dfc3	-2.1386573
21	0xc0685730	-3.6303215
22	0xbeb1bd1b	-0.3471459
23	0x3f7e80ca	0.99415267
24	0x3cdb326a	0.026757438
25	0x3d8556bc	0.06510684
26	0x3fec5446	1.8463218
27	0x408883b5	4.2660775
28	0xbfd161b2	-1.6357939
29	0xbfeff29a	-1.8745911
30	0xc04748f1	-3.113827
31	0x3e199884	0.14999586
32	0xc028f40f	-2.6398962
33	0xbf8b8033	-1.0898498
34	0x3f39b599	0.7254272
35	0x40312d0f	2.7683752
36	0xc089420d	-4.289313
37	0xc0de54b3	-6.9478393
38	0x3fda6348	1.7061548
39	0x40b4f38a	5.654729
40	0xc023b48f	-2.5578954
41	0x3ea1763d	0.3153552
42	0xc060e0f3	-3.5137298
43	0xc02bd7a2	-2.6850362
44	0xc098cf95	-4.7753396
45	0x3fe21523	1.76627
46	0xbe3e56d0	-0.18587804
47	0x3f9c2d0d	1.2201248
48	0x3fbd1305	1.4771429
49	0x3d92ab2c	0.07161555
50	0x407cd934	3.950757
51	0x40595fd1	3.3964732
52	0xc06e84ec	-3.726863
53	0x3f80cdb1	1.0062772
54	0xbe0b7886	-0.13620195
55	0x3e7fe199	0.24988402
56	0xbffa4270	-1.9551525
57	0x3ffafb56	1.9607952
58	0x3dc3e4a9	0.09565098
59	0x3d8f15b7	0.06986564
60	0xc0a42f84	-5.1308002
61	0x4027d283	2.6222236
62	0xc00f043b	-2.2346332
63	0x40076633	2.1156127
64	0x3ff499fb	1.9109491
65	0xbb743aaf	-0.0037266423
66	0xbf6577b5	-0.89635783
67	0x3fd42949	1.6575099
68	0x406d04a5	3.7034085
69	0x3fb59f7d	1.4189297
70	0xbf94a0f2	-1.1611617
71	0xc034f329	-2.8273413
72	0xbfc907bc	-1.5705485
73	0xbf9bf38d	-1.2183701
74	0x3eef7d7a	0.4677542
75	0x3fdb9420	1.7154579
76	0x40a7bca0	5.2417755
77	0xbf87ffe5	-1.0624968
78	0xbf92e731	-1.1476804
79	0xbfba69bb	-1.4563516
80	0xbe09bfee	-0.13452122
81	0x3d423e63	0.047422778
82	0xbf7b139c	-0.98076797
83	0xc056c897	-3.355993
84	0x4043a85f	3.0571516
85	0x3fc1e398	1.5147581
86	0x3fda3f71	1.7050611
87	0xbc636a56	-0.013880333
88	0x3f562c24	0.83661103
89	0xbf91dffe	-1.1396482
90	0x3e69f0d0	0.22845769
91	0x400bab66	2.1823363
92	0xc029f5de	-2.6556315
93	0xc008806d	-2.1328385
94	0xc02df83d	-2.7182763
95	0x401c802f	2.4453237
96	0xc0073ef2	-2.1132169
97	0xbe630190	-0.22168565
98	0x3fd23ef7	1.6425465
99	0x40619120	3.5244827
100	0x3fe9de39	1.8270942
101	0x4034d73d	2.825637
102	0x3fe00f3e	1.7504652
103	0x3fafb07b	1.3725733
104	0xc02aef33	-2.6708496
105	0xbf9595dc	-1.1686358
106	0x3f43de7d	0.76511365
107	0x406b728d	3.6788666
108	0x40601073	3.501004
109	0x3fd551b6	1.6665561
110	0xbf139b16	-0.5765852
111	0xbea98d74	-0.33115733
112	0xbfa660ce	-1.2998292
113	0x3e0793d2	0.13239983
114	0x40665158	3.5987148
115	0x404c31e4	3.190545
116	0x40100122	2.2500691
117	0xbfe76d45	-1.8080221
118	0x3e9683dd	0.2939748
119	0xbff5d74c	-1.9206328
120	0xbf289083	-0.6584551
121	0x3f564c19	0.83709866
122	0xc02effc8	-2.7343616
123	0x40388e56	2.8836875
124	0x3fcdabcd	1.6068054
125	0x3fcedff1	1.6162091
126	0xbf530825	-0.824343
127	0x3f880495	1.0626398
128	0x40c1153a	6.033841
129	0x3fa330ca	1.2749264
130	0xc084b477	-4.1470294
131	0xc0867a07	-4.202396
132	0x3eb6c1d6	0.3569476
133	0xbc2f8d06	-0.010714775
134	0x3f1336ad	0.57505304
135	0x407b5cdf	3.9275434
136	0xc03207b9	-2.7817214
137	0xc029db9a	-2.6540284
138	0xbfd3268f	-1.6496142
139	0x4081bcb3	4.0542846
140	0xbfd4f44b	-1.6637052
141	0x3f9119c0	1.1335983
142	0xbdba1fcc	-0.09088096
143	0xbfc06dba	-1.5033486
144	0xbf0ce8d6	-0.5504278
145	0x401becc5	2.4363263
146	0x407a43f4	3.9103975
147	0x408e3508	4.4439735
148	0xbf3ef047	-0.74585384
149	0x40010fd4	2.016591
150	0x3f0a295b	0.53969353
151	0x3fbe6aca	1.487634
152	0x3e70c529	0.2351271
153	0xc03b7fa0	-2.9296646
154	0xbf28b854	-0.6590626
155	0x3ff41253	1.9068092
156	0xc01b8f09	-2.4306052
157	0xbe32fa8c	-0.17478389
158	0xbe9b111a	-0.30286485
159	0xc03e370b	-2.9721096
160	0xbf5c2216	-0.8598951
161	0xc0083fbb	-2.1288898
162	0x3fe4ef3a	1.7885506
163	0xc0228c11	-2.539799
164	0x4036759d	2.8509285
165	0xc017c10d	-2.371158
166	0x3f5bfea0	0.859354
167	0xc0025734	-2.0365725
168	0xc03accc2	-2.9187474
169	0x410d160d	8.8178835
170	0x400f9230	2.2432976
171	0xbf893d28	-1.0721788
172	0xc004deb9	-2.076094
173	0x400d3be8	2.2067814
174	0x408c0b01	4.3763433
175	0x404d0aff	3.2037961
176	0x40167a57	2.351217
177	0x4034d43e	2.8254542
178	0x3f5af602	0.8553163
179	0xbfa8eecd	-1.3197876
180	0xc056d4a9	-3.3567297
181	0x3f8b1147	1.0864648
182	0x3f36644e	0.712468
183	0x4042954c	3.0403624
184	0xc04bb791	-3.183079
185	0x3f363f72	0.7119056
186	0xbf2bb82b	-0.67077893
187	0xc0066c9d	-2.1003792
188	0x40452803	3.0805671
189	0x3f1a7792	0.603387
190	0x3fb6541f	1.4244422
191	0x3fb5006f	1.4140757
192	0x3fe8a1c6	1.8174369
193	0x3f8c5fbd	1.0966717
194	0x3e23addc	0.15984291
195	0xc0666225	-3.5997403
196	0xc002b81b	-2.042487
197	0xc00bb7ca	-2.1830926
198	0xbf18693a	-0.59535563
199	0x3ff00406	1.8751228
200	0xc019458b	-2.3948696
201	0x3f452cb5	0.7702134
202	0x4096f407	4.7172885
203	0xc02c33f0	-2.69067
204	0x3fb130d8	1.3843031
205	0x408f3bce	4.4760504
206	0xbfee8d31	-1.8636838
207	0xbf66a7db	-0.9009988
208	0xc016051a	-2.3440614
209	0xbf6ab027	-0.9167504
210	0xc05d967f	-3.4623106
211	0xc033b21b	-2.8077457
212	0x40272497	2.6116083
213	0x40399753	2.899861
214	0xc0135799	-2.3022215
215	0xbe8d42de	-0.27590078
216	0xc05d2b2b	-3.4557598
217	0x3e45059c	0.19240421
218	0xbf89dabb	-1.0769876
219	0x4007429d	2.1134408
220	0x4042e14f	3.0450017
221	0xc091c120	-4.554825
222	0xc07dbc96	-3.9646354
223	0x3f8e5c7b	1.1121973
224	0x400553cb	2.0832393
225	0xbfeed9f2	-1.8660262
226	0x4088266d	4.2546906
227	0xc016a7d2	-2.353993
228	0xc07dac2f	-3.9636343
229	0x3fa63b63	1.2986873
230	0x3fc9102f	1.5708064
231	0x3c6686b1	0.014070199
232	0xc0e42b5e	-7.130294
233	0xc07cb9b5	-3.9488347
234	0xbfb7263c	-1.4308543
235	0xc034c5bb	-2.8245685
236	0x401fddd9	2.4979155
237	0xc0a4d71e	-5.1512594
238	0x3f8a61c4	1.0811086
239	0xc02260fb	-2.5371692
240	0x403904e7	2.8909242
241	0xbf9c6bbd	-1.2220379
242	0x3f02b082	0.5105058
243	0x404bc382	3.1838078
244	0xc00b1e1d	-2.173713
245	0xc0087da5	-2.1326687
246	0x3c32ef86	0.010921365
247	0x3f7d6a34	0.9899018
248	0x3fe39108	1.7778635
249	0xbf858404	-1.0430913
250	0x404e999e	3.228126
251	0x4058bdf3	3.3865936
252	0x40e0feb2	7.0310907
253	0xbf2c1b60	-0.6722927
254	0x3fcc6844	1.5969319
255	0xc0891021	-4.283219

weight f4 [1683, 8]
0	0xc054425a	-3.3165498
1	0x3e1756fb	0.14779274
2	0x3f5bcc9b	0.8585908
3	0xc08c7edf	-4.390487
4	0x3ea8805f	0.3291044
5	0xbfc7abb9	-1.559928
6	0x3cf96b1e	0.030446585
7	0xbf16edb6	-0.5895647
8	0xc025f9f8	-2.593382
9	0x3f675bab	0.9037425
10	0x3db475f1	0.08811558
11	0x40266be0	2.6003342
12	0xbe88d455	-0.26724496
13	0xbf9869d7	-1.19073
14	0xbff17343	-1.88633
15	0xbf4744e0	-0.7783947
16	0xc073a025	-3.8066494
17	0x3f77c027	0.96777576
18	0x3fdadde3	1.7098964
19	0x4009f73f	2.1557157
20	0x4109bd82	8.608767
21	0x4079151c	3.8919134
22	0x3d84dc8a	0.06487377
23	0x3fc8c4e8	1.5685091
24	0x3f8b3fda	1.0878861
25	0xc0769079	-3.852568
26	0x4030f34e	2.7648501
27	0xbf33bf02	-0.7021333
28	0xc05d635a	-3.459189
29	0xc04a8b1c	-3.1647406
30	0xbf4e5aaf	-0.8060712
31	0xbfced0d7	-1.6157483
32	0x403b8155	2.9297688
33	0xbfd2d330	-1.6470699
34	0x4049d159	3.1534026
35	0xc055dc9e	-3.3415904
36	0x3efc0ae4	0.4922706
37	0x3fa195c3	1.2623829
38	0x40042baa	2.065165
39	0x3f9785e0	1.183773
40	0xbf99c174	-1.2012162
41	0xbe77e5a7	-0.24208699
42	0x3eed8cbf	0.46396443
43	0x3fbd19fe	1.4773557
44	0xbe1970d0	-0.14984441
45	0x407f706b	3.9912364
46	0xbfb47d21	-1.4100686
47	0x3ff361f3	1.9014267
48	0xc02a2486	-2.6584792
49	0xc048ae8e	-3.135654
50	0xc01a4bcc	-2.4108763
51	0x3f8abdf3	1.0839218
52	0x3e60a043	0.21936135
53	0x402c5fe4	2.6933527
54	0xbf2cc5da	-0.674894
55	0x3f84c16b	1.0371526
56	0x40b3b636	5.6159925
57	0xbf65b3a8	-0.8972726
58	0xc081b4da	-4.0533266
59	0x4022e217	2.5450494
60	0x400a39ce	2.159778
61	0xc060a3f0	-3.510006
62	0x3f1d3136	0.61403215
63	0x3efd70c3	0.49500093
64	0x3ffa693f	1.9563369
65	0xbfbde27c	-1.4834743
66	0xbf5171c3	-0.8181421
67	0x3f4ec071	0.8076239
68	0x4036a5ec	2.853877
69	0xc0125e1f	-2.2869947
70	0x3fdfeb52	1.7493689
71	0x3ebd85ee	0.37016243
72	0x3ed05d06	0.4069597
73	0x40163ebf	2.3475797
74	0x3f81fff0	1.0156231
75	0x4015a0ff	2.3379514
76	0xbfa69312	-1.3013632
77	0x404a989a	3.165564
78	0x400356c6	2.0521712
79	0x3ff07c4f	1.8787936
80	0xbf9e5619	-1.2370025
81	0x3eddfd3e	0.4335727
82	0xbfde38fe	-1.7361143
83	0xbfe2cb80	-1.7718353
84	0x3eb15d8f	0.34641692
85	0xbf057ab2	-0.52140343
86	0xbfb90a44	-1.4456258
87	0x4041ccc3	3.0281227
88	0xc05d6666	-3.459375
89	0x3fa626b3	1.298056
90	0x401cf19a	2.4522462
91	0x402da438	2.713148
92	0xbfcabc41	-1.58387
93	0xbf831827	-1.0241746
94	0x401dd1b8	2.4659252
95	0xc085129e	-4.1585226
96	0xbf39de26	-0.72604597
97	0xc01b7472	-2.4289823
98	0xbfa298b2	-1.2702849
99	0x3f50bd26	0.8153862
100	0xbf0471ee	-0.5173634
101	0xbdb33e7a	-0.08752151
102	0xbf1210a8	-0.57056665
103	0xc00e0bbe	-2.2194667
104	0x4081bbf1	4.054192
105	0xbebefbae	-0.3730139
106	0xbf06125d	-0.5237177
107	0xc014da08	-2.3258076
108	0xc06134be	-3.5188441
109	0xc063e02a	-3.560557
110	0xc0508723	-3.258248
111	0x3d4b1a25	0.04958548
112	0x40990c16	4.7827253
113	0x3eb5d304	0.35512555
114	0x3f5de25d	0.8667353
115	0xbf34cd13	-0.7062542
116	0x405d220d	3.4552033
117	0xc05a94ff	-3.415344
118	0xbea3ce26	-0.31993216
119	0x3fd7abf5	1.6849352
120	0xc0870413	-4.2192473
121	0xbec4d916	-0.38446873
122	0xbe8bf8bd	-0.2733821
123	0xc005a046	-2.0879073
124	0x40a34321	5.1019444
125	0x3fa634b2	1.2984831
126	0xc052130e	-3.282413
127	0xc02024bf	-2.5022428
128	0x3e5d4bfc	0.21611017
129	0xc023eb11	-2.5612223
130	0x3fa68582	1.3009493
131	0xc00c1fd1	-2.189442
132	0xc03efe51	-2.9842722
133	0x408270d8	4.076275
134	0xc073b755	-3.8080647
135	0xbff162aa	-1.8858235
136	0x40120bfa	2.281981
137	0xbf18ce8e	-0.5969018
138	0xc025fc5b	-2.5935276
139	0xbeb6aabc	-0.35677135
140	0x3fc6073e	1.547096
141	0x3f8d170d	1.102266
142	0x3f0c0f8a	0.5471121
143	0xc0815e3d	-4.0427537
144	0x3d56a5ea	0.05240432
145	0xbf913662	-1.1344721
146	0x3f8cc7d4	1.0998483
147	0xbe512a10	-0.20426202
148	0xc0c91612	-6.283944
149	0xc080f878	-4.0303307
150	0xbf914413	-1.13489
151	0x4075c573	3.8401763
152	0xc00127f1	-2.0180628
153	0xc08ba102	-4.3634043
154	0xbd5d86d1	-0.05408365
155	0x40677092	3.6162457
156	0x40ad24c7	5.4107394
157	0x40a6a59d	5.2077165
158	0x3fec84e4	1.8478055
159	0x3f36a337	0.71342796
160	0xc06323c7	-3.5490587
161	0x401a2c7b	2.4089649
162	0x402eb726	2.7299285
163	0x3d871a35	0.065967955
164	0xc066b036	-3.604505
165	0x4049a9a8	3.15098
166	0x40ca8a8b	6.329412
167	0xbe54e036	-0.20788655
168	0xbfa8aca0	-1.3177681
169	0xbcbd84f6	-0.02313469
170	0x4082f205	4.0920434
171	0x408046a7	4.0086246
172	0xbf55a51a	-0.8345505
173	0x4087b08e	4.240302
174	0x3f988281	1.1914827
175	0x4022a027	2.541025
176	0xbff08cc6	-1.8792961
177	0xbf029a16	-0.51016366
178	0x400b3295	2.1749623
179	0x3f20a840	0.6275673
180	0x3eb10fa0	0.34582233
181	0x3ff2e25a	1.8975327
182	0xbf0276ec	-0.5096271
183	0xc048c1b8	-3.1368237
184	0x3f72bc23	0.94818324
185	0x3f7e94d9	0.99445873
186	0xbfcd2125	-1.602574
187	0xbf1fc620	-0.6241169
188	0x3fbc2e10	1.4701557
189	0x3e9fa198	0.31177974
190	0xbf266527	-0.64998096
191	0x40675232	3.6143918
192	0x3f5f6a93	0.87271994
193	0x3fa7648d	1.3077561
194	0x3f98fe04	1.195252
195	0xbef4d0e6	-0.47815627
196	0xbd5331f2	-0.051561303
197	0x3e82a872	0.2551914
198	0xbd52df05	-0.05148222
199	0x40151434	2.329358
200	0xbed83e77	-0.42235157
201	0x3f52e87d	0.82386
202	0x3e6a7e16	0.2289966
203	0xbf7cc5d0	-0.9873934
204	0xbfa21c8c	-1.2664962
205	0xbe99c415	-0.3003241
206	0x3f52772b	0.82213086
207	0x4090e0aa	4.527425
208	0x406e7f70	3.7265282
209	0x3de4846e	0.111580715
210	0x3fe1139b	1.7584108
211	0x3ebd4ed1	0.36974195
212	0xbf795ba5	-0.97405463
213	0xbfb84eab	-1.4399008
214	0x3e302bbf	0.17204188
215	0x400cd31a	2.2003846
216	0xc09ebfd3	-4.960916
217	0x3ff60af7	1.9222096
218	0x3f82bbd2	1.0213568
219	0xc003ca23	-2.0592124
220	0xc09be860	-4.872116
221	0x402783e4	2.617425
222	0xbef3aee1	-0.4759436
223	0x3d91476c	0.07093701
224	0xc07301d1	-3.7969859
225	0xc0b96928	-5.7940865
226	0x3e5985ad	0.212424
227	0x403eddb9	2.9822829
228	0xc00971e3	-2.147576
229	0xc0520691	-3.2816508
230	0xbe68e64d	-0.22744103
231	0x3f3cb08b	0.73706883
232	0xbfb94ac1	-1.4475938
233	0xc0363a39	-2.8473036
234	0xbdfabf88	-0.12243563
235	0xbf2814ef	-0.6565694
236	0xbe33bbec	-0.17552155
237	0x4008680b	2.1313503
238	0x3e0cb868	0.1374222
239	0xbf944319	-1.1582977
240	0x4026d105	2.6065075
241	0xc0842fb0	-4.130821
242	0x40317a41	2.7730868
243	0xc0155e33	-2.3338745
244	0x3e337dcc	0.17528456
245	0x40106bb1	2.256573
246	0x3da668d7	0.08125465
247	0x40588105	3.3828747
248	0x3fa2afb8	1.2709875
249	0x4006ff46	2.1093307
250	0x3e8821fc	0.26588428
251	0x3f0b0ed5	0.54319507
252	0x3e7dad14	0.24773055
253	0xbfa5e104	-1.2959294
254	0x3e81f0e5	0.253791
255	0x3f870659	1.0548812

weight f4 [8, 8]
0	0xbd3fd9e7	-0.046838667
1	0xbdc20b12	-0.09474768
2	0xbdb6b6b9	-0.0892157
3	0x3cfd6ea5	0.030936548
4	0xbd4661a1	-0.04843295
5	0xbcc2a173	-0.023758626
6	0xbbfa1378	-0.0076317154
7	0x3a6a63b8	0.0008941251
8	0xbf69ebc6	-0.91375387
9	0xbdb62013	-0.088928364
10	0x3da182ac	0.07886252
11	0x3c61ea0c	0.013788711
12	0xbca134ec	-0.019678555
13	0xbec03e6e	-0.3754763
14	0xbdd29647	-0.102825694
15	0xbdd21649	-0.10258157
16	0x3fa070db	1.2534441
17	0x3f673d04	0.9032748
18	0x3e2dc3cf	0.16969226
19	0xbf137bf0	-0.5761099
20	0x3e0b43b6	0.13600048
21	0xbfb22078	-1.3916159
22	0xbf09a4df	-0.537672
23	0xbf1551ec	-0.5832813
24	0xbef6ffc8	-0.4824202
25	0xbe6dc456	-0.23219427
26	0x3e1a80b7	0.15088163
27	0xbd077770	-0.03307289
28	0x3d739fb4	0.059478477
29	0x3f3f71cf	0.74783033
30	0xbd8be4a8	-0.06830722
31	0xbcb13827	-0.02163322
32	0x3fabeb92	1.3431265
33	0x3ebfcec8	0.3746245
34	0x3f355e3a	0.70846903
35	0xbf2aa821	-0.66662794
36	0x3faf3966	1.3689392
37	0xbfd5386b	-1.6657842
38	0xbe84591d	-0.25849238
39	0xbed262de	-0.41091055
40	0x3fb8340f	1.4390887
41	0x3c748847	0.014925069
42	0xbf510493	-0.81647605
43	0x3f50e2b4	0.8159592
44	0xbf688ece	-0.908429
45	0xbf2f123a	-0.68387187
46	0x3f196829	0.5992456
47	0x3f3fa78e	0.74865043
48	0xbe9bacc8	-0.3040526
49	0x3e69ef5d	0.22845216
50	0x3f4bbe0e	0.79586875
51	0xbfb9bd6b	-1.4510931
52	0x3f8f725d	1.1206776
53	0x3faad9cc	1.3347716
54	0xbf5d3ef9	-0.86424214
55	0xbf870600	-1.0548706
56	0xbe2eb1d3	-0.17060022
57	0xbf7bd728	-0.9837518
58	0x3f5b65d1	0.85702235
59	0x4005899d	2.0865242
60	0x3fd5461c	1.6662021
61	0x3e86f1cf	0.2635636
62	0x3fa1fe83	1.2655796
63	0x3fc50112	1.5390952

bias f4 [8]
0	0xbcabc0d5	-0.020965973
1	0xbf869f88	-1.0517435
2	0x3e904a05	0.28181472
3	0x3ee41fae	0.4455542
4	0x3e107d53	0.14110307
5	0x3e1ba7cd	0.1520073
6	0x3f07e32c	0.5308101
7	0x3e15c287	0.14624988

weight f4 [944, 8]
0	0x3eff8524	0.49906266
1	0x3e158495	0.14601357
2	0xbe22062d	-0.15822668
3	0x3f10239c	0.56304336
4	0xbf84e983	-1.0383762
5	0x3faba4bb	1.3409647
6	0xbf35eafa	-0.7106167
7	0xbf998f0a	-1.1996777
8	0xbf594956	-0.84877527
9	0xbfa92bcc	-1.3216491
10	0xbf68cbfc	-0.90936255
11	0x3f1201a2	0.5703374
12	0x404db363	3.214074
13	0xbf494589	-0.7862173
14	0xbf80d1fb	-1.0064081
15	0xbfb37f5d	-1.4023243
16	0x3f0bfc64	0.5468199
17	0xbe46d595	-0.19417413
18	0xbf5d2ca6	-0.86396253
19	0xbf7cda63	-0.9877073
20	0xbec05cbe	-0.37570757
21	0x3cf27447	0.029596461
22	0x3ece6095	0.4030806
23	0xbec87c70	-0.39157438
24	0xbe8fd7b0	-0.28094244
25	0x3f40c793	0.75304526
26	0xbd478c11	-0.048717562
27	0x3fa7188b	1.3054365
28	0xbf412ca3	-0.75458735
29	0x40045c0d	2.0681183
30	0x3ec73bad	0.38912717
31	0x3f750188	0.9570546
32	0x3fc5a40d	1.5440689
33	0x3f10cf8a	0.5656668
34	0xbe35a14a	-0.17737308
35	0xbf69d096	-0.913339
36	0x3f38d115	0.72194034
37	0xc00daa5f	-2.2135236
38	0xbf23706d	-0.63843423
39	0x3fcc53d2	1.596308
40	0xbe3f2517	-0.18666492
41	0x3f472741	0.7779427
42	0xbeee2e64	-0.46519768
43	0xbed4fdf1	-0.41599992
44	0xbec02e24	-0.37535203
45	0xbe5ce121	-0.21570255
46	0xbf574a45	-0.840977
47	0x3dd8a32c	0.105779976
48	0x401bbb76	2.4333167
49	0x3f00fdc1	0.503872
50	0xbf9e77f6	-1.2380359
51	0x3f1987c9	0.59972817
52	0x3f9011dc	1.125545
53	0xbf962fa6	-1.1733291
54	0x3ed02111	0.40650228
55	0xbe846fee	-0.25866646
56	0xbfaeafc2	-1.3647387
57	0xbd43bfce	-0.04779034
58	0xbfccaef6	-1.5990894
59	0xbe15348c	-0.14570826
60	0xbf46abe2	-0.7760602
61	0xbe393c3b	-0.18089382
62	0xbffefd55	-1.9921061
63	0xbd6865b0	-0.0567376
64	0xbfb1d891	-1.3894216
65	0xbdb859d6	-0.0900151
66	0xbe3da677	-0.18520533
67	0xbee9f2d5	-0.4569308
68	0x3ed0ea44	0.4080373
69	0x3ebaf14c	0.3651222
70	0x3e2e99c0	0.17050838
71	0x3fa96b31	1.3235837
72	0x3e066b67	0.13126908
73	0xbf11b43e	-0.5691565
74	0xbf6f2f84	-0.9343188
75	0x3f0e25db	0.5552651
76	0xbf0acd9b	-0.5421998
77	0x3f045931	0.51698595
78	0x3f4ddd7f	0.804161
79	0xbe0874f9	-0.13325872
80	0x3e964905	0.29352584
81	0x3fbdc24b	1.4824919
82	0x3e6e32c0	0.23261547
83	0x3fbd828a	1.4805462
84	0xbe2be639	-0.16787042
85	0xbfa6b3d2	-1.3023627
86	0xbeac3ac2	-0.3363858
87	0xbf4458ae	-0.76697814
88	0x3fcef51a	1.6168549
89	0x3f371fa4	0.71532655
90	0x3d9948df	0.07484602
91	0x3faa6c25	1.3314253
92	0x3ecde133	0.40210876
93	0xbe09d650	-0.1346066
94	0x3f2d22fb	0.676315
95	0x3fa937c1	1.322014
96	0xbf5bdef8	-0.858871
97	0xbfda7c89	-1.7069255
98	0x3ebeb12f	0.37244555
99	0x3f9639b7	1.1736363
100	0x3f3ba06d	0.73291665
101	0xc008bfd3	-2.136708
102	0x3f4dda9a	0.80411685
103	0x3e96a4e3	0.29422674
104	0x3f820cd4	1.0160165
105	0x3fbd0c71	1.4769422
106	0x3f57e672	0.84336007
107	0xbfe93f0a	-1.8222363
108	0x3ecbe556	0.39823407
109	0x3dc743e6	0.097297475
110	0x3df903ae	0.12158905
111	0x3f363311	0.7117167
112	0x3f4e40d0	0.80567646
113	0x3e9ef325	0.3104488
114	0x3f0d662c	0.55234027
115	0x3f84e0a7	1.0381058
116	0xbe194a5c	-0.14969772
117	0x3ea7581b	0.32684407
118	0x3f63ae1b	0.8893754
119	0xbf1126b8	-0.56699705
120	0xbf825926	-1.0183456
121	0x3f807d0e	1.0038164
122	0x3f59a33c	0.850147
123	0x3f34d6b9	0.7064014
124	0xbf6df1a2	-0.9294683
125	0x3dffe076	0.124939844
126	0xbf38440a	-0.7197882
127	0xbfa7e9e8	-1.3118258
128	0xbfe7739a	-1.8082154
129	0xbee99808	-0.45623803
130	0xbfd6ba72	-1.6775649
131	0x3f231c2e	0.63714874
132	0xbf4a1c0d	-0.7894905
133	0xbf331066	-0.699469
134	0x3f0f93ea	0.56085074
135	0x3f55b258	0.83475256
136	0xbf29e2a3	-0.66361445
137	0xbf3f3318	-0.7468734
138	0x3f48ac0c	0.7838752
139	0x3efb327f	0.49061963
140	0x3f3a8fba	0.7287556
141	0xbff97575	-1.948897
142	0x3eef98a2	0.46796137
143	0x3f01ba84	0.50675225
144	0xbee7facd	-0.45308533
145	0x3f838357	1.0274457
146	0xbec0eab9	-0.3767908
147	0xbcf6dec6	-0.030135524
148	0x3f859a22	1.0437663
149	0x400041c9	2.0040152
150	0x3f7e9c2f	0.9945707
151	0xbe086dba	-0.13323107
152	0x3f4dc004	0.8037112
153	0x3f687d75	0.9081643
154	0x3f4c34eb	0.79768246
155	0x3fbcac2e	1.4740045
156	0x3f4516d6	0.7698797
157	0x3eac89bc	0.33698833
158	0x3eec423f	0.46144292
159	0xbf350c34	-0.70721745
160	0xbef94b28	-0.48690152
161	0xbfd2f613	-1.6481346
162	0xbe8c6ef0	-0.2742839
163	0xbf94fadc	-1.1639056
164	0x3e2f159b	0.17098086
165	0xbe06de03	-0.13170628
166	0x3fafbab4	1.3728852
167	0x3fa47dd5	1.2850901
168	0xbf2b5ac3	-0.66935366
169	0xbfc1ad11	-1.5130941
170	0x3f46b9be	0.7762717
171	0xbf8af551	-1.0856115
172	0x3f20d821	0.62829787
173	0xc0304858	-2.7544155
174	0xbe37c6f7	-0.17946993
175	0xbe0b467b	-0.13601105
176	0x3f521d23	0.8207571
177	0xbf7309bd	-0.94936734
178	0x4017d029	2.37208
179	0x3f1e5f14	0.6186383
180	0x3eaebd00	0.3412857
181	0xbf8a35ae	-1.0797632
182	0x401c928a	2.446444
183	0xbf520bda	-0.82049334
184	0xbf1608c6	-0.5860714
185	0x3eb6d6f4	0.3571087
186	0xbe69c120	-0.22827578
187	0x3b085d74	0.0020807656
188	0x3fb46a84	1.4095006
189	0x3f59a1ef	0.85012716
190	0x3dc92bf3	0.09822836
191	0x3e7680ea	0.24072614
192	0x3e5db8dd	0.21652551
193	0x3fdbf45f	1.7183951
194	0xbf3317b8	-0.69958067
195	0x3f17a43c	0.59234977
196	0x3faa7e85	1.3319861
197	0xbfa8e35d	-1.3194386
198	0x3cf9d49a	0.030496884
199	0xbea1e4f2	-0.31619984
200	0x3ed36edc	0.41295516
201	0x3f20e1de	0.62844646
202	0xc00a8327	-2.164255
203	0x3f735210	0.9504709
204	0xbf95ac09	-1.1693126
205	0xbf80d0fc	-1.0063777
206	0x3fc64c5b	1.5492052
207	0x3f9f9552	1.2467444
208	0xbfa99005	-1.3247076
209	0x3f927177	1.1440877
210	0xbedfcf5e	-0.43712896
211	0x3f4e46db	0.80576867
212	0x3e686603	0.22695164
213	0x3dd31a4e	0.103077516
214	0x3dff7173	0.124728106
215	0xbe2c2de1	-0.16814376
216	0x3edfad91	0.43687108
217	0xbd795f67	-0.060882
218	0x40143416	2.315679
219	0xbe9bdfa9	-0.30444077
220	0xbf238408	-0.6387334
221	0x3e8e6e9e	0.2781877
222	0xbfaafffd	-1.3359371
223	0x3efce301	0.4939194
224	0xbf9a1f79	-1.2040855
225	0x3ecbf164	0.39832604
226	0xbf8e2f34	-1.1108155
227	0x3ec19671	0.3781009
228	0xbf690b87	-0.91033214
229	0xbf0d6e8c	-0.55246806
230	0x3fda4552	1.7052405
231	0xbf08e72c	-0.5347774
232	0x3f9c066a	1.2189457
233	0xbf0ded58	-0.5544028
234	0x3f600875	0.87512904
235	0x3fd9d7bb	1.7018961
236	0xbfe558f5	-1.7917773
237	0xbf2b78a3	-0.6698095
238	0x3f0124e9	0.50446945
239	0x3ff35e2d	1.9013115
240	0x3f783a2b	0.9696376
241	0xbfe38337	-1.7774419
242	0x3e2ecd70	0.17070556
243	0xbd13a352	-0.036044426
244	0x3f10fb34	0.56633306
245	0xbf85f0ec	-1.0464149
246	0x3fa5e0d5	1.2959238
247	0x40070551	2.1096995
248	0x3d5cd17a	0.05391071
249	0xbf1c22db	-0.60990685
250	0x3f8db63f	1.1071242
251	0x3e5c9870	0.21542525
252	0x3f980bef	1.1878642
253	0x3f73dd7e	0.95259845
254	0x3e839e6b	0.257068
255	0x3ef6abe2	0.4817801

weight f4 [1683, 8]
0	0x3f3b2341	0.7310067
1	0x3fab4e2f	1.3383235
2	0xbe26c67a	-0.1628665
3	0xc010cb46	-2.2624068
4	0xbf6d21dc	-0.9262979
5	0x3e4270d6	0.18988356
6	0x3f836400	1.0264893
7	0x3f95247c	1.1651759
8	0x4047b867	3.12063
9	0xbfc0edec	-1.5072608
10	0xbd9fbcb8	-0.07799667
11	0x3fbe0ab2	1.4847014
12	0xbd2b02be	-0.041750662
13	0x3fd13a7a	1.6345971
14	0x3fdbb0bd	1.7163311
15	0x3f075b61	0.5287381
16	0x3eb93606	0.3617403
17	0x3ce8dd8a	0.02842595
18	0x3f4946fc	0.7862394
19	0xbfab1638	-1.3366156
20	0xbf0bdaa2	-0.5463048
21	0x3cb62031	0.022232147
22	0x3f08faa2	0.53507435
23	0xbc5c2708	-0.01343704
24	0x3e721d61	0.2364402
25	0xbf5ceda9	-0.8630014
26	0xbfd88dae	-1.6918237
27	0xbec0a70c	-0.37627447
28	0xbf40e967	-0.75356144
29	0xbe3fd87c	-0.18734926
30	0xbe57d7f2	-0.2107847
31	0xbd808336	-0.062750265
32	0xbed74abe	-0.4204921
33	0xbf3b989c	-0.7327974
34	0x3f2b2a58	0.66861486
35	0xbd9744b1	-0.07386149
36	0x3f8d598f	1.1042956
37	0xbf8ab449	-1.0836269
38	0x3f33d5fb	0.70248383
39	0x3db781a2	0.08960272
40	0xbfaaa191	-1.3330556
41	0x3f13e04c	0.57764125
42	0x3f766d7a	0.962608
43	0x3f4e08dd	0.80482274
44	0x3eb27ade	0.34859365
45	0x3ed875d9	0.4227741
46	0xbf46ddfe	-0.77682483
47	0xbdb37232	-0.087620154
48	0xbe921790	-0.28533602
49	0x3fa578c9	1.2927486
50	0x3e37a6b3	0.17934684
51	0xbf21b25a	-0.6316277
52	0xbebe0b1f	-0.3711786
53	0xbe52ca23	-0.20584922
54	0x3f5b6c31	0.8571196
55	0xbec548dd	-0.38532153
56	0xbf9e7705	-1.2380072
57	0xbe0340a4	-0.12817627
58	0x3ec737a6	0.38909644
59	0xbecd2b33	-0.4007202
60	0x3ed521e4	0.4162742
61	0xbe82c571	-0.2554126
62	0xbf865c00	-1.0496826
63	0x3f704523	0.93855494
64	0xbf886e16	-1.0658596
65	0xbf2dcb5d	-0.6788843
66	0xbf494a7e	-0.7862929
67	0x3f9fedc3	1.2494434
68	0x3ba360d3	0.0049859076
69	0xbd94cbf3	-0.07265463
70	0x3f50ac95	0.8151334
71	0xbfcfbfa9	-1.6230365
72	0x3f9aac35	1.2083803
73	0x3fc0a0d4	1.5049081
74	0x3d9bcd79	0.0760755
75	0x3ea68a97	0.3252761
76	0x3ffc5a3f	1.9715041
77	0xbeecd58c	-0.46256673
78	0x3db9c2e7	0.09070378
79	0x3ed42601	0.41435245
80	0xbea016f7	-0.3126752
81	0x3f8b17c1	1.0866624
82	0x3f9b7ba8	1.2147112
83	0x3f8a7feb	1.0820287
84	0xc005e127	-2.0918672
85	0x3e86239b	0.2619904
86	0x3f011b7b	0.50432557
87	0xbf13ef28	-0.577868
88	0xbf44c867	-0.7686829
89	0x3f78322e	0.9695157
90	0xbf09e621	-0.53866774
91	0xbe271bfe	-0.16319272
92	0xbfcf4c4d	-1.619516
93	0xbf19bcf4	-0.60053945
94	0x3ffb2d16	1.9623134
95	0x3e70ffed	0.23535128
96	0xbe85b856	-0.261172
97	0x3f723272	0.94608223
98	0x3f4aea04	0.7926333
99	0x3f36c7e2	0.71398747
100	0xbf9afe8e	-1.2108934
101	0x3e934abf	0.28767964
102	0x3e61d3c9	0.22053446
103	0x3f8ea514	1.1144128
104	0xbd3c2d71	-0.045941774
105	0x401687f5	2.3520482
106	0x3e75d950	0.2400868
107	0x3f26e699	0.65195614
108	0x40190b87	2.3913286
109	0xbe3f7767	-0.18697892
110	0x3eea8780	0.45806503
111	0x3f8e673c	1.1125255
112	0xbe951cf9	-0.29123667
113	0xbf413199	-0.75466305
114	0x3e9f007b	0.31055054
115	0xbfd5ed32	-1.6713011
116	0x3ee25b4f	0.44210288
117	0x3fa54214	1.291079
118	0xbee82738	-0.45342422
119	0x3f95ae05	1.1693732
120	0xbf6528c0	-0.89515305
121	0x3fd0c697	1.6310605
122	0xbef3bf2d	-0.47606793
123	0xbeb35e42	-0.3503285
124	0x3f8efb72	1.1170485
125	0x3eff8ee5	0.49913707
126	0x3ea0e9be	0.3142833
127	0x3f84343d	1.0328442
128	0x3d91635f	0.07099032
129	0x3fbdc64b	1.4826139
130	0x3f7155a2	0.9427129
131	0x3f16344e	0.5867356
132	0x3e97bc54	0.2963587
133	0x3f326ddc	0.6969888
134	0xbf5ccfee	-0.86254776
135	0xbf8672b8	-1.0503759
136	0x3f7ad395	0.979791
137	0x3ec2a5f7	0.38017246
138	0x3f20944c	0.62726283
139	0xc03cc35b	-2.9494236
140	0xbcb11bf8	-0.021619782
141	0x3ee2cd06	0.44297045
142	0x3fd74d28	1.6820421
143	0x3ffd97e5	1.981198
144	0xbfc6d910	-1.5534992
145	0x3fa47795	1.2848994
146	0xbe73f9b2	-0.2382572
147	0xbdaeb689	-0.085309096
148	0xbec364f8	-0.3816297
149	0x3dd130d3	0.102143906
150	0x3de83fce	0.11340295
151	0x3e8cc04e	0.27490467
152	0xbf3588d3	-0.709119
153	0x3f807c53	1.0037941
154	0x3dd710e3	0.10501268
155	0xbec3cba5	-0.38241306
156	0x3ed4e913	0.41584072
157	0x4017d19a	2.372168
158	0xbe2f3b3c	-0.1711244
159	0x3ed132a9	0.40858963
160	0xbe700c63	-0.23442225
161	0x3ea1cf4f	0.31603476
162	0xbec68686	-0.38774508
163	0xbf3a5f3d	-0.7280157
164	0x40202b71	2.5026515
165	0x3fa32f8f	1.2748889
166	0x3f657719	0.89634854
167	0xbf1bcc1c	-0.6085832
168	0x3f6c50cb	0.9231078
169	0x3ea2ff1f	0.31835267
170	0xbdc4930c	-0.095983595
171	0x3d7ccec3	0.06172062
172	0xbf7789e0	-0.96694756
173	0xbfe7b54d	-1.8102204
174	0xbfb5f22a	-1.4214528
175	0x3df365b3	0.11884632
176	0xc012e39c	-2.2951422
177	0x3ea76a33	0.3269821
178	0x3f73a1fe	0.95169055
179	0xbfe6f523	-1.804356
180	0x3f03b921	0.5145436
181	0x3f4781b8	0.7793231
182	0xbf93b327	-1.1539048
183	0x3f763548	0.9617505
184	0x3e9a597d	0.301464
185	0x3f13f95b	0.5780236
186	0xc00cf83f	-2.2026517
187	0xbf909592	-1.1295645
188	0x3d8a5191	0.06753839
189	0x3fc7933b	1.5591806
190	0x3e8f23ec	0.27957094
191	0x3f68e65e	0.9097651
192	0x3f73415c	0.95021605
193	0x3ef39c4e	0.4758019
194	0xc0046417	-2.068609
195	0x3f4adebf	0.79246134
196	0x401cb617	2.448614
197	0xbee3ff69	-0.445308
198	0xbe56e315	-0.20985062
199	0xbfb0d88c	-1.3816085
200	0xbeebf2ee	-0.46083778
201	0x40082545	2.1272748
202	0xbfbe6483	-1.4874424
203	0xbce5d19e	-0.028054055
204	0xbf7ba05e	-0.98291576
205	0xbf21f0b6	-0.6325792
206	0xbf4676f3	-0.7752525
207	0xbcd2280c	-0.025653861
208	0x3eb62894	0.35577834
209	0x3f0557de	0.520872
210	0x3f4bd96c	0.79628634
211	0x3efd86a4	0.49516785
212	0xbd8278f4	-0.06370726
213	0xbe0d7d1b	-0.13817255
214	0x3f5cb8a6	0.8621925
215	0x3e08a8fd	0.13345714
216	0x3f70af7f	0.94017786
217	0xc018a228	-2.3848972
218	0x3fd39c3d	1.6532055
219	0x40020cf8	2.0320415
220	0xbf773bcf	-0.96575636
221	0x4034bde3	2.8240898
222	0x3f52926a	0.8225466
223	0xbfd4fd8d	-1.6639878
224	0xbe0c04f1	-0.1367376
225	0x3fe09924	1.7546735
226	0xbface4c9	-1.350732
227	0xbe7b5f5a	-0.24548092
228	0x3f10cb10	0.5655985
229	0x3e967a66	0.29390258
230	0x3f90bdfe	1.1307981
231	0xbf89b6b9	-1.0758888
232	0x3fa69150	1.3013096
233	0x3f9f12fb	1.2427667
234	0x3f0d3ce3	0.5517103
235	0x3fb92ad3	1.4466194
236	0xbf0b783d	-0.54480344
237	0x3ecd19d2	0.40058762
238	0x3fa5a14c	1.2939849
239	0xbe49ec7b	-0.19719116
240	0x3f0e5e1e	0.5561236
241	0x3db42261	0.0879562
242	0xbf93c3bb	-1.1544107
243	0xbe721bbe	-0.23643395
244	0xbceae1db	-0.02867215
245	0x3f2c194a	0.6722609
246	0x3f3492c6	0.7053646
247	0x3eb464b1	0.3523307
248	0x3f32f65e	0.69907176
249	0xbea945a0	-0.33060932
250	0xbfd06371	-1.6280347
251	0x3fec8ed0	1.8481083
252	0x3d63bfd8	0.05560288
253	0x3ff126a1	1.8839914
254	0x3f2f76c7	0.68540615
255	0x3f8e2a29	1.1106616

weight f4 [8, 16]
0	0x3db88f0c	0.09011659
1	0x3e5b6658	0.2142576
2	0xbd189adf	-0.03725707
3	0xbce9a337	-0.02852021
4	0xbe1cedc0	-0.1532507
5	0xbe08e242	-0.1336756
6	0x3e7c1d30	0.24620509
7	0x3e03a871	0.12857224
8	0x3d4ce4c0	0.05002284
9	0x3e55c047	0.20874129
10	0xbd404a11	-0.046945635
11	0x3dd2476e	0.102675304
12	0xbe34be4b	-0.17650716
13	0xbcb13446	-0.021631371
14	0x3e2a6a7f	0.16642188
15	0xbda1ed70	-0.07906616
16	0x3e851def	0.259994
17	0x3daa459b	0.083140574
18	0x3e3d2970	0.18472838
19	0x3e2c5708	0.16830075
20	0xbcd469a1	-0.025929274
21	0xbd0ebd65	-0.03484859
22	0x3e8010df	0.25012872
23	0x3ca0227b	0.019547692
24	0x3cf8d348	0.030374184
25	0xbe9cd0ef	-0.30628154
26	0x3e07214e	0.13196298
27	0x3d8f2077	0.06988614
28	0xbd6622ca	-0.05618552
29	0x3e24e0e1	0.1610141
30	0x3e642583	0.22279935
31	0xbe409661	-0.18807365
32	0x3ca6d0fb	0.020363322
33	0xbe31d6e2	-0.17367128
34	0xbda13edf	-0.0787332
35	0x3d89508c	0.06704816
36	0x3d5ef3d3	0.054431748
37	0x3e37a1f4	0.17932874
38	0x3d77f164	0.060532942
39	0x3dd924b1	0.106027015
40	0xbe1ecdba	-0.15508166
41	0xbd35be02	-0.04437066
42	0x3d942d86	0.072352454
43	0x3d8e0ef2	0.06936444
44	0x3db464f6	0.08808319
45	0xbe2a6e57	-0.16643654
46	0x3e67f739	0.22652902
47	0xbcf50c99	-0.029913234
48	0xbe1339b8	-0.14377487
49	0xbe6e2c66	-0.23259124
50	0xbe131e0a	-0.14366928
51	0x3e290a14	0.16507751
52	0xbd8c9278	-0.06863874
53	0xbd147980	-0.036248684
54	0x3cef3ba0	0.029203236
55	0xbcd01ca0	-0.025404274
56	0xbdb6d798	-0.0892784
57	0x3dd25fac	0.10272154
58	0x3de84d08	0.113428175
59	0x3d344fb0	0.04402131
60	0xbd19e228	-0.037569195
61	0xbe261bfe	-0.16221616
62	0xbdd176f4	-0.10227767
63	0xbca586f0	-0.020205945
64	0x3e6fe860	0.23428488
65	0x3ddd9b31	0.10820616
66	0x3e00a779	0.12563886
67	0x3d96e774	0.07368365
68	0xbdd53d14	-0.1041204
69	0xbd89048e	-0.06690322
70	0xbd89f98f	-0.06737053
71	0x3d1765b5	0.03696223
72	0x3e226d79	0.15862073
73	0xbdb7f428	-0.08982116
74	0x3d928ecf	0.07156145
75	0xbd86c531	-0.0658058
76	0x3df14185	0.11780075
77	0xbdc9726a	-0.09836276
78	0x3dd6febf	0.10497808
79	0x3e5a4fd2	0.21319512
80	0xbbbc7da9	-0.0057522845
81	0xb9e70b34	-0.000440681
82	0xbe3e42f9	-0.18580236
83	0x3c83be90	0.016082078
84	0x3d3cb321	0.046069268
85	0xbe8dd5af	-0.2770209
86	0x3ec393a4	0.38198578
87	0x3d526136	0.05136224
88	0xbd5848ea	-0.05280391
89	0xbd398f79	-0.04530284
90	0x3de56e60	0.11202693
91	0x3daf4d45	0.0855966
92	0x3df9d4e7	0.12198811
93	0x3e84d2f2	0.25942189
94	0x3d4b67bb	0.049659472
95	0xbe5377d8	-0.20651186
96	0xbe5b9201	-0.21442415
97	0x3e0e6e40	0.13909245
98	0xbe15c8b4	-0.14627343
99	0xbe89c7c5	-0.26910225
100	0xbdaddf18	-0.084898174
101	0xbd24ea76	-0.040262662
102	0xbd89ad12	-0.06722464
103	0x3df0f545	0.117655315
104	0xbe5f1f51	-0.2178929
105	0x3d4f41cf	0.05059987
106	0x3e175479	0.14778318
107	0xbe5f7797	-0.21822964
108	0xbcbc6ac2	-0.023000125
109	0xbe5cda06	-0.21567544
110	0xbe8abdb0	-0.27097845
111	0x3e1114ee	0.1416814
112	0xbea53b49	-0.32271793
113	0x3d800448	0.062508166
114	0x3e3a8122	0.18213323
115	0x3e66acc8	0.22526848
116	0x3d8999bc	0.06718776
117	0x3dbe2a41	0.09285403
118	0xbe9fed1f	-0.31235597
119	0xbe9e73d2	-0.3094774
120	0xbca5f345	-0.020257602
121	0x3de20a5c	0.11037132
122	0xbe37a38e	-0.17933485
123	0xbdb6897e	-0.08912943
124	0x3e48e41d	0.19618268
125	0xbdf197ee	-0.117965564
126	0xbd8b9499	-0.06815452
127	0xbe7a9edc	-0.24474663

bias f4 [8]
0	0x3d22f939	0.03978846
1	0xbe182c35	-0.14860614
2	0x3d661ae8	0.056178004
3	0xbddb2d2c	-0.10701975
4	0xbcfc9cf6	-0.030836564
5	0x3e8c567b	0.2740973
6	0xbe9d25f9	-0.30693033
7	0x3e967955	0.29389444

weight f4 [4, 8]
0	0x3e892ede	0.2679357
1	0x3ea0859b	0.31351933
2	0x3bb7d19a	0.0056097033
3	0xbdb6a4a9	-0.08918125
4	0xbe9b3e75	-0.30321088
5	0xbd24cc60	-0.04023397
6	0xbe324bb0	-0.17411685
7	0xbe922cd6	-0.28549832
8	0x3c35246a	0.011056045
9	0xbd3403df	-0.043949004
10	0xbd8a6c0f	-0.06758892
11	0xbea822e9	-0.32839134
12	0xbe8d8b41	-0.27645305
13	0x3ce070d8	0.027397558
14	0xbe78baca	-0.24290004
15	0x3e705aaa	0.23472086
16	0xbcd7584b	-0.026287219
17	0xbe07f110	-0.13275552
18	0x3e0d6ce5	0.13811071
19	0xbe64a92c	-0.22330159
20	0x3d95cfd4	0.07315031
21	0xbe6d8bbc	-0.23197836
22	0xbe31b884	-0.17355543
23	0xbee4408a	-0.4458049
24	0xbd9166f6	-0.07099716
25	0x3d0570c8	0.03257826
26	0xbe33b547	-0.1754962
27	0xbe8c3dcd	-0.273909
28	0x3e74ed4a	0.23918644
29	0xbdbe975c	-0.09306213
30	0x3e6aa282	0.22913554
31	0xbeb0092a	-0.34381992

bias f4 [4]
0	0x3e09260a	0.13393417
1	0x3ea07ee6	0.31346816
2	0xbe4f8d88	-0.20268834
3	0xbe4718f6	-0.19443116

weight f4 [2, 4]
0	0xbe5b5d40	-0.21422291
1	0x3e4fc6a8	0.20290625
2	0x3ec512a3	0.3849078
3	0x3e53e717	0.20693623
4	0xbefd017e	-0.494152
5	0xbe64997c	-0.22324175
6	0xbe889e12	-0.26683098
7	0x3e416340	0.18885517

bias f4 [2]
0	0xbed6da46	-0.41963404
1	0xbee9da70	-0.45674467

weight f4 [5, 10]
0	0x3ca9bb0b	0.020719072
1	0x3ebcd7d5	0.36883417
2	0x3f32d82e	0.69861114
3	0xbe9b03e1	-0.30276397
4	0x3fd7b170	1.6851025
5	0xbe81c6a8	-0.25346875
6	0x3ca8d643	0.02060998
7	0x3f7ed0c2	0.9953729
8	0x3e1d74b0	0.15376544
9	0xbbd96a9e	-0.006635024
10	0xbd2bc4f8	-0.04193589
11	0x3e288978	0.1645869
12	0xbf83a3c9	-1.0284358
13	0x3e4fc45c	0.20289749
14	0xbf9291e6	-1.1450775
15	0xbca7bd61	-0.020476045
16	0xbefbfa8e	-0.49214596
17	0x3faaeecf	1.3354129
18	0x3d03cbcc	0.032176778
19	0xbe2d6c79	-0.1693591
20	0xbbb87766	-0.005629468
21	0x3e4dcac8	0.20096886
22	0xbea31030	-0.31848288
23	0x3e7ac181	0.24487878
24	0xbe81ba02	-0.25337225
25	0xbf85f318	-1.0464811
26	0x3f9dce7c	1.2328639
27	0xbf9c4914	-1.2209802
28	0x3d4c8889	0.049934898
29	0x3c2cc1b8	0.010544233
30	0xbd634780	-0.05548811
31	0x3ff3e647	1.905465
32	0x3db3de9c	0.08782694
33	0xbee68d1e	-0.4502954
34	0x3e5a81fa	0.21338645
35	0xbf7fe87e	-0.9996413
36	0xbf63a362	-0.8892118
37	0xbdc74a5f	-0.09730982
38	0xbdaebcf2	-0.08532132
39	0x3e0e449d	0.13893361
40	0xbd91a9b0	-0.071124434
41	0x3e9e2238	0.30885482
42	0x3f0ae6bb	0.54258317
43	0xbed4142d	-0.41421643
44	0xbced4a24	-0.028966017
45	0x3f736b84	0.9508593
46	0xbfa9daf2	-1.3269942
47	0xbf9e1720	-1.2350807
48	0xbe93c995	-0.28864732
49	0xbe6dd7c5	-0.23226841

bias f4 [5]
0	0xbf2981e0	-0.662138
1	0xbfb6d6a6	-1.4284256
2	0xbf87faef	-1.0623454
3	0xbf05764d	-0.5213364
4	0xbf6641cb	-0.8994414

weight f4 [2, 5]
0	0x3ece03c9	0.40237263
1	0x3ed5e02f	0.417726
2	0x3ec5c5df	0.38627526
3	0xbe6214e0	-0.22078276
4	0x3ed40501	0.41410068
5	0xbee0c9ec	-0.43904054
6	0x3a7442b8	0.0009317803
7	0xbb830ee5	-0.0039995783
8	0xbeae7655	-0.34074655
9	0xbe4bb13b	-0.19891827

bias f4 [2]
0	0xc073a166	-3.806726
1	0xbee1157a	-0.43961698

weight f4 [1, 2]
0	0xbe1c9dfe	-0.15294644
1	0x3ea02994	0.31281722
