models/NeuMF16.pt (torch, 359218 bytes, 16 tensors)

weight f4 [943, 16]
00000000: 9503 c43f 39cd 0540 80c3 2f3d 24cd 07be
00000010: 7920 50bf 368a 773f 9a7a 4f3f 221b 14bd
00000020: 7b1d 5dbf d113 8a3e 330a 07bf 3eb0 1e3f
00000030: e74e 14bf 2900 c33d 3410 be3f df49 1c3e
00000040: 3051 d33f 3993 243e c5df ffbe c899 763d
00000050: fcdc e13e 682a 22bd f1a4 5dbf 6e72 b23f
00000060: 3241 4cbf 8aae da3e 799f 963f 9cfb 53bf
00000070: 2fb6 c2bf 753c fe3d acd7 e93e 8385 a63e
00000080: 837c 7d3f 6891 433e 0aa1 c7bf 657c 633e
00000090: 70d0 ebbf e0da 7bbf 5767 01be fcbe 5d3f
000000a0: d30d 41bf 9eb4 783f 1fd6 6c3f 0e29 0ac0
000000b0: f538 b93d 5ddb d73e 398e ab3f 28da 333f
000000c0: 3e84 89bf 4b1a 2abf 9a73 54bf 6b38 433e
000000d0: 6ea1 ae3f bfcf 21c0 c2f2 30be 73bc 9a3b
000000e0: 6c0d aebe 4564 163f f3cf 7e3f 6497 5fbf
000000f0: 93a9 6cbf c6e0 a93f 2e4f 3b3f ad20 7a3f
00000100: 4332 893f 950e 50bf 61b0 8dbf 07b5 4abe
00000110: c8e5 9fbe 2948 813f e861 85bf 5785 c53e
00000120: e3ee d1bf eca9 1a40 adcb d63e 3eba 0840
00000130: 412e d23d fd3a a33f 677d 23bf 9293 97bf
00000140: 58f1 66be 4c3a 0ac0 2416 8b3f 7baa 3dbe
00000150: b20b a2be 32c6 2cbe 52a5 d93e 9674 8bbe
00000160: 0dd3 8d3e 4071 d53d 64bf c83f 4889 eabe
00000170: ef11 f93e 93da 31be a47b 683e 78d3 563d
00000180: d1eb a3be c335 013f 72c9 b53e 2673 133f
00000190: 7aca 473e ef69 f3be 685c 44bf b233 e33e
000001a0: 678f 59bf 099f b7bc a67f 35bf ce53 5ebe
000001b0: 11e2 633d b962 bdbc 5af3 6abe 48da a1bd
000001c0: 6b8e 743f 3825 023f c5bb 8dbe 378e 03bf
000001d0: d12c bd3e 9759 ec3f 91b2 c3bf c01d 4abf
000001e0: 906f 9a3f 0bc3 1bbf 761f cbbe b7a3 9f3f
000001f0: 19fc 1fc0 8236 89bf 3465 ffbd 55ac 36c0
00000200: acd8 40bf 09ff 2c3f b351 b8bc f18e 2dbf
00000210: bea2 6ebf 9c5c 3e3f b829 1e3e 924e ec3f
00000220: 5dd0 cebf 3c2a 30be 6c3f 433f d171 a43d
00000230: 3431 06bf 616c f53d 5f61 07c0 c755 143f
00000240: 885d 68be 78db 61bf cedc d1be 6ad2 5dbf
00000250: 6f90 eebd 0cc7 3a3f cc3d 8dbf 415f cebf
00000260: 2d7a c03f aaa6 14bf 0d17 01bf bc2c 15be
00000270: 72e5 0dbd 8311 0540 d87f 513e bb32 0cc0
00000280: 944d a5bf b32c b43e 5b00 5cbf 6716 aa3e
00000290: 2125 673f c9e3 bb3f 2435 953f 0835 5040
000002a0: 3981 3b3e d865 353e 25ca e93e a222 3b3f
000002b0: 398f a0bf 9667 26be 78b9 f93f f4b7 883f
000002c0: 33b4 ae3e 313c e2be 911e b4bf f537 143f
000002d0: 4a67 fe3e 9fc8 9dbf 6705 6fbd cda7 d7bf
000002e0: df11 3440 dcd6 f23e b49a 8a3f 1f3d dc3e
000002f0: e705 333f 568a b5bd 4773 ac3f 48cd a3be
00000300: 07ac a7bf 37fb 1cbf d4a7 973f c647 553e
00000310: 4be8 29bc fbe4 413f a9de 72bf e62d 02bf
00000320: a24a 8dbf c905 173f 5baa 04bf 2a3d a6bd
00000330: baec 72be 2e9c a63d 70ba cfbe f6e4 913e
00000340: f0e6 2e3d 1322 433f 454f 1bbf 032a b4be
00000350: ff36 1ac0 70b1 6d3f 2465 3f3f 3a7e c9bf
00000360: b3cf 883d 4220 10bf 5ea3 663d ba09 123f
00000370: 0be5 91be 0d4f 653f 89c4 483f c392 a1bf
00000380: 1806 843f 6946 353f f08b 163f d80f f6bf
00000390: 81e8 33be 8c00 d83e 67e4 39be 2bbe 0dc0
000003a0: 875a ae3f 959d a53e 7514 363f ea7b 623f
000003b0: 2226 693c d02e 8b3e df7a 013f 7730 f8bd
000003c0: 90f6 083f 509c 8c3f 6f1c 43be 2108 253f
000003d0: fd35 34bd 5fd6 d93f fed0 3c3f f0a9 413d
000003e0: 4dc9 ad3e 0692 29bb c673 f7be 57c4 1ec0
000003f0: f0e5 acbe 321d 89bf a806 e53f 0c56 6f3f
1.5313593 2.0906508 0.042911053 -0.13261849 -0.8129955 0.9669527 0.8104645 -0.03615869
-0.8637311 0.26968244 -0.5274994 0.61987674 -0.57932895 0.09521515 1.4848695 0.15262555
1.6509151 0.16071786 -0.4997541 0.06020525 0.4411391 -0.039591223 -0.86579806 1.3941171
-0.7978698 0.42711288 1.1767417 -0.828058 -1.5211848 0.12413875 0.45672357 0.32523736
0.99018115 0.19098437 -1.559602 0.22215421 -1.8422985 -0.9838085 -0.12637077 0.86619544
-0.7541172 0.971506 0.9251422 -2.1587558 0.09044067 0.42159548 1.3402778 0.70254755
-1.0743482 -0.6644637 -0.82988894 0.1906449 1.3643014 -2.5283048 -0.17280105 0.004722172
-0.33994615 0.5874675 0.99536055 -0.8734038 -0.9244625 1.327172 0.73167694 0.9770611
1.0718464 -0.8127225 -1.1069452 -0.19795619 -0.31229997 1.0100147 -1.0420504 0.38578293
-1.6401027 2.4166212 0.41952267 2.1363673 0.102627285 1.2752377 -0.63863224 -1.184191
-0.22553003 -2.1598082 1.0866132 -0.18522064 -0.31649548 -0.1687248 0.42508942 -0.27237386
0.2770008 0.10421991 1.5683408 -0.45807862 0.48646495 -0.17368536 0.22703415 0.052447766
-0.3201585 0.5047266 0.35505253 0.5759758 0.19510832 -0.47541758 -0.767035 0.44375378
-0.8498444 -0.022414701 -0.708979 -0.21711656 0.055635516 -0.023118364 -0.22944394 -0.07902962
0.9552981 0.5083804 -0.2768232 -0.5138888 0.36948255 1.8464841 -1.5288869 -0.78951645
1.2065296 -0.60844487 -0.3967244 1.2471837 -2.4997618 -1.071976 -0.12470475 -2.8542683
-0.75330615 0.6757665 -0.022499895 -0.67796236 -0.93217075 0.7436006 0.15445602 1.8461478
-1.6157337 -0.17203611 0.7626865 0.08029521 -0.5241883 0.11983562 -2.115318 0.57943386
-0.2269193 -0.8822551 -0.40988773 -0.8664919 -0.11648642 0.7295997 -1.1034484 -1.6122819
1.5037285 -0.5806681 -0.504258 -0.14567846 -0.034642644 2.0791938 0.20458925 -2.1905963
-1.29143 0.35190353 -0.8593804 0.33220217 0.9029103 1.467889 1.1656842 3.2532368
0.18311013 0.17714632 0.45662037 0.7309972 -1.2543708 -0.16250452 1.9509726 1.0681138
0.34121856 -0.44186547 -1.4071828 0.57897884 0.49688178 -1.232685 -0.05835476 -1.6848084
2.8135908 0.4742955 1.0828462 0.43015382 0.6993088 -0.08864276 1.347268 -0.31992555
-1.3099374 -0.61320823 1.1848092 0.2082816 -0.010370324 0.7574002 -0.94871 -0.50851285
-1.1038401 0.589932 -0.5182244 -0.08117135 -0.23723117 0.08135258 -0.40571928 0.28494996
0.042700708 0.7622387 -0.6066783 -0.35188302 -2.4096067 0.92848873 0.74763703 -1.5741646
0.066802405 -0.5629922 0.056308143 0.5704609 -0.28495058 0.89573747 0.7842489 -1.2622913
1.031436 0.7081056 0.5880728 -1.9223585 -0.17569162 0.42187917 -0.18153535 -2.214732
1.3621377 0.32346788 0.71124965 0.8847033 0.014230283 0.27184153 0.5057811 -0.12118619
0.53501225 1.0985203 -0.19053815 0.6446553 -0.0439968 1.7018546 0.73756397 0.047281206
0.33942643 -0.002587439 -0.48330516 -2.4807336 -0.33769178 -1.0712035 1.7892656 0.9349067

weight f4 [1682, 16]
00000000: 1cae 643f 0ce3 18c0 f2c0 ac3f 0294 243e
00000010: b1f2 5f3f 7c3a f53d 6ce3 203e 1a9e 35bf
00000020: 825c 04bf 771b be3e d4f8 04c0 5420 d13e
00000030: e1fc a7be 56bc b5be e7cd 93be df19 be3e
00000040: 7593 14bf f318 c6be 208b fb3f 08e9 843e
00000050: d22e 113f 5909 ee3d 18b5 8a3f 1fc3 2abe
00000060: c0cc cc3f 0fce 6a3f 73a2 243f 5c91 08c0
00000070: 81a4 883e e384 933e 9b22 303f 4f14 c6bf
00000080: 4811 563d 1020 cbbf 9e43 8cbf 255d 803f
00000090: cbe6 9dbf dcd7 2bbf 9b3b cabf 228a 27bf
000000a0: da2c b4bf 4641 263e dfb3 173f 06a0 0ebf
000000b0: ddc2 383f 5ed2 b63e f9c7 653f 5afe 8dbf
000000c0: 65be 14bf f0b2 483f ef94 2ebd 6c28 cfbf
000000d0: 5aaf 043f 9e2d a93e 9965 11bf 1c4e a53e
000000e0: cade 273f 7623 eb3f 82db 733e e8d0 c0be
000000f0: 7cfd 9fbe d881 063f 44da 85be fe39 a6bf
00000100: 28a7 ce3e ec75 893f c71c 223f 0dd5 82bf
00000110: f78d 7c3f dfb4 48bf 2043 c43f 9806 3cbe
00000120: 3bdb e13f 0a42 9f3f 7801 1d3f ead6 96bf
00000130: 7dfe f6bf c098 fc3e a86f 6dbf ae02 2dbf
00000140: df6e 55bf b608 2a3f 443c 663f c594 74bd
00000150: 9178 83be 214f 6bbf 00a3 003f 3804 d13f
00000160: df13 d3bd 4f6b 533e 25a9 e13e 9c39 f0bf
00000170: 5d1f 303f 0844 61bf 87b8 85be 6579 03c0
00000180: f6b6 4cbe 1260 1340 7f90 133f d44d 933d
00000190: b064 3b3f 3560 7ebf e394 6f3e 120a bbbc
000001a0: 8868 b7bf 0b3e edbe f67c babe 2e1b a93e
000001b0: c23e 05be c44c c83d ff64 083f 28df 083f
000001c0: 550d 083f 0885 d13f bad4 70be 286d 953f
000001d0: e03d 1abf d993 a3be 1973 b4bf 67e6 5a3f
000001e0: ca46 a33f 6f85 e03f 9228 ac3f 269b 90bf
000001f0: b47f 163f 89a9 663d d9f3 6cbf d443 993f
00000200: e90b b2be b346 d4bf 478e fa3e f14b 4a3f
00000210: 4d3d 233f ec2c 723e 19ca 953e 1239 2cbd
00000220: c916 e43d ed03 83be af8f 3ebf 55b7 493f
00000230: 6463 193f a0a7 70be 0448 83bf e6d2 01bd
00000240: c8f7 783e 156b e2be df38 483f 5bd4 1abf
00000250: feff 353f ec6a a93f e412 753e 5af3 c8bf
00000260: 1d96 0140 e21f 86bf afff ac3f 51bd 83be
00000270: d905 fbbf 3f06 0dbe c7f7 83bf 3167 c73f
00000280: a0f9 f73e 6847 d6bd ed1e 0b3f a31c 22bf
00000290: cd6c 32be 6204 483d 41bb c4bf b7c5 ac3f
000002a0: c5d8 1e3f 0a48 8e3f e350 aa3f 09ed 23bf
000002b0: 6391 2fbf 3f08 4fbe 6abe 42bd a710 ebbd
000002c0: db57 61be 6065 993f ab0e 003f 32bc 103f
000002d0: 0e1f 5f3e d33e 423f 31ff 85bf d7dd 933c
000002e0: 4174 a03f eb5d d43e 0798 90bf 8763 b7be
000002f0: aa0d 1c3f c24a fcbe ae67 b9be 4ed8 21be
00000300: e4e2 34bf 4a84 dfbf 300d 8c3f 7ba1 143f
00000310: 5715 22bf 24b7 0c3e 5b98 4e40 b91a f5bd
00000320: 1353 9f3c ea03 b83e 36f7 e03e 9938 b0bf
00000330: e2b9 6bbe 6153 843d 9f19 063d 9f90 b1bf
00000340: 8176 c1be e9f7 05c0 0caf 5fbf dd5d 8ebf
00000350: 6651 963f 3ffa 9f3f 47af 20bf 2241 083e
00000360: 9287 a5bf bb32 1b3d fdf3 803e 4542 30be
00000370: 414d 0b3f 3307 59bf 6f92 e23e 7a76 4d3f
00000380: 571f 02bf 0e95 483f 5ce8 903f f132 8cbc
00000390: e9e2 0540 5e86 2d3b 1d23 67c0 706f 53bf
000003a0: bdb0 4cbf 3131 a03f 6d15 a3bf cd91 35bf
000003b0: 3e23 513f 3974 163f ab46 19be 181e 6bbf
000003c0: c126 91bf c256 85bf cfd1 cc3e 0e08 b83f
000003d0: dd0c 32bf 748f 41be 509a 9d3f 48e7 203c
000003e0: 31b0 223f c7b3 d3bd d0b9 233f d8cb ffbe
000003f0: e7e5 2bbf 69ac 563f 4904 6c3f a91c 283f
0.8932817 -2.3888578 1.3496382 0.16072085 0.8747969 0.11974046 0.15711755 -0.7094437
-0.51703656 0.3713033 -2.0776873 0.40844977 -0.3281012 -0.3549525 -0.2886803 0.37129113
-0.580375 -0.3869091 1.9651833 0.2595904 0.5671207 0.11622877 1.0836515 -0.16675995
1.5999985 0.9172067 0.6431038 -2.133872 0.26688007 0.28812322 0.68802804 -1.5474948
0.052262574 -1.586916 -1.0958135 1.0028425 -1.2336057 -0.6712625 -1.579944 -0.6544515
-1.4076188 0.16235837 0.59258837 -0.55712926 0.7217234 0.35707372 0.8975826 -1.1093247
-0.5810302 0.78398037 -0.042622503 -1.6184211 0.51830065 0.33042616 -0.5679565 0.32286155
0.65574324 1.8370197 0.23814204 -0.37659383 -0.3124808 0.52541876 -0.26143086 -1.2986448
0.40361905 1.0739112 0.6332516 -1.0221268 0.9865412 -0.7840099 1.5332985 -0.1836189
1.7645029 1.2442029 0.61330366 -1.1784337 -1.9296414 0.4933529 -0.927485 -0.67582214
-0.833723 0.6641954 0.8993571 -0.05971219 -0.25677922 -0.91917616 0.5024872 1.6329412
-0.103065245 0.20646404 0.4407436 -1.8767581 0.68797857 -0.8799443 -0.26117346 -2.0542843
-0.19991669 2.3027387 0.5764236 0.07192579 0.7320051 -0.9936555 0.2339664 -0.02283195
-1.4328775 -0.46336398 -0.36423463 0.3302855 -0.13012221 0.09780267 0.5327911 0.5346551
0.53145343 1.6368723 -0.23518649 1.1673937 -0.60250664 -0.31948736 -1.4097625 0.85507816
1.2755978 1.7540721 1.3449881 -1.1297348 0.5878861 0.056314025 -0.9255958 1.1973825
-0.34774712 -1.6584076 0.48936674 0.7902213 0.6376541 0.23649949 0.2925575 -0.042046614
0.111371584 -0.25588933 -0.74437994 0.7879537 0.59917283 -0.23501444 -1.0256352 -0.03169527
0.24313271 -0.44222322 0.7821178 -0.6048028 0.7109374 1.3235755 0.23932987 -1.5699265
2.0247872 -1.047848 1.3515528 -0.25730374 -1.961116 -0.13771914 -1.0309991 1.5578367
0.48432636 -0.104628384 0.54344064 -0.63324946 -0.17424317 0.048832305 -1.5369645 1.3497838
0.62049514 1.1115735 1.3305935 -0.6403356 -0.6858122 -0.2021799 -0.047544874 -0.114777856
-0.2200617 1.1984062 0.5002238 0.56537163 0.2178919 0.7587711 -1.0468503 0.018050117
1.2535478 0.41477904 -1.1296395 -0.3581812 0.6095835 -0.49275786 -0.36211914 -0.1580517
-0.7065871 -1.7462246 1.0941525 0.580589 -0.6331381 0.13741738 3.228049 -0.119679876
0.019448793 0.35940486 0.43938607 -1.3767272 -0.23020127 0.06461216 0.032739278 -1.387226
-0.37785724 -2.0932562 -0.87376475 -1.1122395 1.1743591 1.2498244 -0.6276745 0.13306096
-1.2931998 0.037890177 0.25186148 -0.1721278 0.54414755 -0.8477661 0.44252345 0.80258906
-0.5082907 0.7835244 1.132091 -0.017114135 2.0919745 0.0026477794 -3.6115181 -0.82591915
-0.7995718 1.2515012 -1.2740914 -0.709256 0.816944 0.5877109 -0.14968364 -0.91842794
-1.1339952 -1.0417101 0.4000382 1.4377458 -0.6955088 -0.1890238 1.2312717 0.009820767
0.63550097 -0.10337024 0.639554 -0.49960208 -0.6714768 0.8385683 0.9219404 0.6566873

weight f4 [8, 16]
00000000: 8421 8cbd 7001 443e a948 f3bd c7e8 4abe
00000010: 2c9a 63be b4b5 72be b6b0 b3bd 38db 593d
00000020: 04c4 b7bd a9d2 7b3e 3cce 193d ebf1 2b3e
00000030: ff5a d73d d784 c73d dc99 a8be d03c 60bd
00000040: 18a8 18bd e772 bfbe 669a 6d3d b8af 0d3d
00000050: 7420 643c 5864 bebd 9be5 aa3d e8ab c7be
00000060: 72ec 093e e3e0 17be c9ad e9bc cfb1 893e
00000070: 5df6 fb3e 3de1 4f3d 4e6e 16be c92d a63e
00000080: f60e d9bd cd2f 8dbe f0f8 1bbd d73a a43e
00000090: 7781 073e 1a3c 9c3a bbdc 243d e9e3 a8be
000000a0: 3ee9 67bd c0c1 303e 549d a0bd afdd 9b3e
000000b0: bec7 a8be c6be b0be 3db7 703e e980 cb3d
000000c0: 299c 513e 048f 70be 1cb4 0a3e 824a 42be
000000d0: 1d4e 25be 5a24 26be 22de bc3c 883c 153e
000000e0: c7fb acbb d100 5dbd 7465 fabd 667e f8bc
000000f0: 63bf 83bd fc05 143e 3a7a 82bd 9254 213f
00000100: f85a 39bc 01fa a7be 34b6 213e b89d 383b
00000110: 0cc0 cd3c 0443 463c 3086 223e 4c58 163e
00000120: 65fe 583e 5541 ad3e a89e b9bc e231 633d
00000130: 9ad3 283d 4685 1fbe ea22 103d 1125 c5be
00000140: 88a9 a33d 86fe 61bd eb21 47be f48d e53d
00000150: 7167 b33d e9cc 17bd 4986 863d f54a 3dbb
00000160: 4761 02be 245d 3fbe 78e7 eabd ec8d 37be
00000170: 8ed8 bcbe 5d5a 583d da64 093e e511 cd3e
00000180: 2e6c a13c 07ff abbe 88e2 cd3d 83dd 73bd
00000190: 8988 58be a2c6 dcbd 2273 e53d e645 173e
000001a0: 7468 28be 46f1 24be b430 a83e 1aa3 23be
000001b0: fe64 d3be 4369 7f3d c83e 71be 5d1f 8fbd
000001c0: 0dc4 ca3d 2b57 fa3e d541 253e 084f 293c
000001d0: 56c1 13bd 0ae4 e6bd b347 f4bc a481 84be
000001e0: da61 973e ebd9 ebbd 247c b03d 32ce 9e3e
000001f0: bb48 43be 842a 44be f4e3 973d 15a9 b33e
-0.0684233 0.19141173 -0.11879093 -0.1981536 -0.2222678 -0.23702127 -0.08773939 0.05318758
-0.08972934 0.24592079 0.037550196 0.16791503 0.10515403 0.09742134 -0.32929885 -0.054745495
-0.03726968 -0.3739235 0.058008574 0.034591407 0.013923753 -0.09296483 0.08344575 -0.38998342
0.13469103 -0.14831881 -0.02852525 0.2689347 0.49211398 0.050751913 -0.14690515 0.32456806
-0.10598557 -0.27575532 -0.038079202 0.3207614 0.1323298 0.0011919767 0.040249567 -0.32986382
-0.05661892 0.1726141 -0.07842508 0.3044257 -0.3296489 -0.3452055 0.235074 0.09936697
0.20469727 -0.23492056 0.13545269 -0.18973735 -0.16143079 -0.16224805 0.02305514 0.14573872
-0.0052790376 -0.053955857 -0.12226382 -0.030333709 -0.064329885 0.14455408 -0.06370969 0.6301967
-0.011313193 -0.32807925 0.15792161 0.002817018 0.02511599 0.012100939 0.15871501 0.1468212
0.21190794 0.33838907 -0.022658661 0.055467494 0.041217424 -0.15578184 0.035189547 -0.38504842
0.0799132 -0.055174373 -0.19446532 0.11208716 0.08759964 -0.037060652 0.065685816 -0.002888379
-0.12732421 -0.18687874 -0.114699304 -0.17925233 -0.36883968 0.052820552 0.13417378 0.40052715
0.019704904 -0.33593008 0.10052973 -0.059537422 -0.21145834 -0.10780074 0.112036005 0.14772758
-0.16446096 -0.16107664 0.32849658 -0.15980187 -0.41287988 0.062356245 -0.23559105 -0.06988404
0.09900675 0.4889463 0.16138394 0.010333784 -0.03607305 -0.11273964 -0.029819345 -0.25880158
0.29566842 -0.11516174 0.08617428 0.3101669 -0.19070713 -0.19156843 0.074165255 0.35089937

weight f4 [943, 16]
00000000: 69e2 26be 2b9a 923f a5c4 ea3e b619 bd3d
00000010: b8ea c0bf e4ab e93f b6e3 5dbf 292d 253e
00000020: 7fc8 73bd 88ed 9abf fa9b 9bbf a03e 243f
00000030: 2ebf 3a40 f304 883f 7368 983f a096 f2bc
00000040: 8ab7 0bbf 8b94 c0ba e7e6 253f d296 3cbf
00000050: b6a2 883e 6e60 943f cef2 eebf 2383 773e
00000060: 5d7b 3a3f 2b98 ff3e 9521 133f df1d 32bb
00000070: b810 b33e 2eb8 d53f 071f 3a3f 84fe 5f3f
00000080: e708 cebc c6ac 1f3f 837a ae3f a4a2 963f
00000090: 2f0a 623e 61e1 1b3f 6e28 bd3c d174 64bd
000000a0: 883a 7a3f b5a9 30bf d03a e93e 2df8 a2bf
000000b0: 48b8 6dbf f652 793f 8308 643f dd8e 83be
000000c0: 2f35 9a3f 7a41 bfbe b0c0 a0bf b22d bebd
000000d0: 0223 c93e 54d2 14bf 87db 77bf 16ef ab3e
000000e0: 3560 f4bd 7ded 813c 2396 4240 038e f6bf
000000f0: 51fb 333f 2289 fe3e aa83 843f 1828 a1be
00000100: 217a 3bbf 23d1 f9bf 42da a6bd d9aa bc3f
00000110: c804 86bf 7bf2 36be 33df 073f 9b06 053e
00000120: 0d8a 123e 9130 55bf 4325 5e3f cdcd 1bbd
00000130: 64b4 123f aa6c 193f ae9c 5bbe 6713 82bf
00000140: d4a9 45bf 0434 953f c1a7 d9be 320d 863f
00000150: 1edb db3e fbc5 903e e79a 733e 2ce6 83bf
00000160: 670b c8bf 78f4 37c0 9f53 3dbf fbed 063f
00000170: 281f a53e 2714 04bf 8bff e93d d0ca 49be
00000180: 209b 27bf 74e6 e5bf 7628 d3bf d09d 92be
00000190: 190e 90bf e743 c73f 9209 1540 c239 11bf
000001a0: 1044 69bf f8b6 863f a6b4 e9bf 2315 db3f
000001b0: 4604 373f 07da 0abf 439a 433e 2feb 9cbe
000001c0: faca a1be c7a8 f8be d1e4 b03e 669c 8dbf
000001d0: 03f7 afbf ba73 77bf a9dd 8e3f 5767 823f
000001e0: beac ea3e e934 9abf 956f 7dbf 08a8 c8bf
000001f0: d2a0 393f 631b 1cbf f5e8 22be 1a44 a0bf
00000200: c1db a23e 1855 1dbe 1600 8d3f 37f4 8ebf
00000210: 9a97 01bf 7517 01bf 498e 82be 0f8f 313e
00000220: b626 5a3e d7d1 30bf f303 f13f d3a8 f53e
00000230: 1aec c4bf 657c 833f 0e2f ef3f fe84 17bf
00000240: 6ceb 5fbf e17d 35bf 8475 12be bfb5 0b3f
00000250: 09c2 7abf 396e d5bf 076d 49bf e7f1 6dbe
00000260: 9396 a3bf 2d6c 873e 5996 1a3f 6ac9 c53f
00000270: 85c7 80bf 7a1b f23f f898 97be 012b aebf
00000280: cc94 9d3e e9eb 9cbf 0935 b1be eeab 5ebf
00000290: 955d 9cbf ab4a 453f a0f5 24c0 ff9a efbe
000002a0: 3568 00c0 541d 21be 586b 4bbd d4f2 16bf
000002b0: 65d8 c63f 4e61 f23f 5506 573f a11f acbf
000002c0: d023 ccbe 4d1c bebf 4898 f03e 312e c73f
000002d0: 4151 583f af71 1abf 3ef7 00be 1f60 07bf
000002e0: 3e36 883f a2c4 a2be 76cf 833f bd6b d7bd
000002f0: 10e8 c13e 5e3a b3be 9437 1b3e 55e9 0abf
00000300: 6db3 b2be 3c86 72bf d5db b8bd cdf9 173f
00000310: 4700 263d 3fe1 4240 9b3c ad3e 2f74 a0bf
00000320: 664b 3b3f 879f 0dc0 2e07 bdbf 797e cb3f
00000330: 522c 8e3f e972 fb3e 5edf e9bf cf09 3c3f
00000340: 9f0e 873f b8c2 4f3f 4771 42bf d777 873e
00000350: 51ea c0bc c9c2 3e3f fd46 2cbf 3bb4 74bf
00000360: 9581 893f 1d1c 04bf c9da 993f 51d7 fdbd
00000370: f346 bebe 230d 8a3f 92a6 ca3f 00f0 e33f
00000380: aa40 aa3f 56e1 afbf 4544 a2bf 4a69 e43f
00000390: 7704 f1bb f7c7 6cbf b758 f63e 8134 9fbf
000003a0: 57a3 0440 29bc ccbe 1902 2a3f 591f 1a3f
000003b0: a150 0e3f c0c6 9cbe 7cf0 7dbd 4d57 143d
000003c0: 4d2e 94be df47 8dbf cdea 143f 1293 623f
000003d0: 8d0f 0d3f 2d34 003f 6968 04bd b96a 24c0
000003e0: 7ad5 29bf cf4a a33e 1592 913f 426f 9d3f
000003f0: 09f7 883f f323 a8be 154c 613e d3e8 24be
-0.16297306 1.1453298 0.45853153 0.092334196 -1.507163 1.8255582 -0.86675584 0.16130508
-0.05951738 -1.2103739 -1.2156975 0.6415806 2.9179187 1.062651 1.1906875 -0.02961284
-0.54576933 -0.0014692707 0.64805454 -0.73667634 0.2668664 1.1591928 -1.8667848 0.24171118
0.7284449 0.49920782 0.5747312 -0.002717845 0.34973693 1.6696832 0.72703594 0.87497735
-0.02515073 0.62373006 1.3631138 1.1768384 0.22074197 0.60890776 0.023090567 -0.055775467
0.9774556 -0.6900895 0.45552683 -1.2731987 -0.92859316 0.97392213 0.8907549 -0.25694934
1.204748 -0.37354642 -1.2558804 -0.092860594 0.3928452 -0.58133435 -0.9681935 0.33580846
-0.119324125 0.015860314 3.0404136 -1.9262089 0.70305353 0.49714 1.0352681 -0.31475902
-0.7323323 -1.9516948 -0.08147098 1.4739639 -1.0470209 -0.17865936 0.5307495 0.12990801
0.14310475 -0.8327723 0.86775607 -0.038038064 0.57306504 0.59931433 -0.21446487 -1.0162171
-0.7721226 1.1656499 -0.425108 1.0472777 0.4294061 0.28276047 0.2378956 -1.0304618
-1.562848 -2.8742962 -0.7395572 0.5270688 0.32250333 -0.5159325 0.11425694 -0.19706273
-0.65471077 -1.7960954 -1.6496723 -0.28636026 -1.1254302 1.5567597 2.3287091 -0.56728756
-0.9111948 1.0524588 -1.8258255 1.7115825 0.71490896 -0.54238933 0.19101815 -0.3064818
-0.3160017 -0.48566267 0.34549573 -1.1063354 -1.3747257 -0.9666096 1.1161395 1.0187787
0.45834917 -1.2047397 -0.98998386 -1.5676279 0.7251102 -0.6097929 -0.15909179 -1.2520783
0.31808284 -0.15364492 1.1015651 -1.1168278 -0.5062195 -0.5042642 -0.2549918 0.17339729
0.2130383 -0.6907019 1.882933 0.47980365 -1.5384552 1.0272337 1.8686235 -0.59187305
-0.874686 -0.708952 -0.14302641 0.545742 -0.97952324 -1.6674262 -0.7868199 -0.2323681
-1.2780327 0.2644972 0.6038566 1.5452092 -1.0060889 1.8914635 -0.29608893 -1.3606874
0.30777586 -1.2259494 -0.34610775 -0.86981094 -1.2216059 0.7706706 -2.5774918 -0.4679794
-2.0063603 -0.15733844 -0.049662918 -0.58964276 1.5534788 1.8935945 0.83994037 -1.3447152
-0.39871073 -1.4852387 0.4699118 1.5560971 0.84498984 -0.6032972 -0.12594315 -0.52881044
1.0641553 -0.31790644 1.0297687 -0.10518596 0.37872362 -0.35005468 0.1515792 -0.54262286
-0.34902516 -0.94736075 -0.09026305 0.5936554 0.04052761 3.044998 0.338353 -1.2535456
0.73161924 -2.2128618 -1.4767816 1.5897971 1.1107275 0.49111107 -1.8271291 0.73452467
1.0551337 0.8115649 -0.759541 0.26458618 -0.02354923 0.7451597 -0.6729582 -0.9558751
1.074267 -0.516054 1.2019893 -0.12394584 -0.37163505 1.0785259 1.5832083 1.7807617
1.3300984 -1.3740642 -1.2677084 1.7844632 -0.0073552686 -0.9249262 0.4811456 -1.2437898
2.0724695 -0.39987305 0.6640945 0.6020408 0.5559178 -0.30620384 -0.061996922 0.03621607
-0.28941575 -1.1037558 0.5817078 0.8850566 0.55101854 0.50079614 -0.032326136 -2.5690138
-0.66341364 0.31893012 1.1372706 1.2299578 1.0700389 -0.32839927 0.22001679 -0.1610444

weight f4 [1682, 16]
00000000: 3e5b 02c0 2d25 3dbf 2994 383f df82 50be
00000010: 47ef 1bc0 ea03 b3bf 8450 a03c a9bd 983f
00000020: b256 293f 4fe9 d63f ca78 1a40 1262 f0bf
00000030: b3b2 0ebf b773 d4be 36ea 123f 001a 09bf
00000040: e096 b23e f746 b83f 0e2f 943f 6e9e 293c
00000050: 730d 6b3f 1d96 7f3f 6cbe f53f 734f 81be
00000060: a1aa dbbf 6763 5c3f 6e1f 57bf 1cd8 9f3e
00000070: bf4d bfbf 9a04 bbbd a421 fa3f 53c6 56bf
00000080: fdd2 0f3f 1257 963f f8a5 25bf fef6 8ebf
00000090: 8f24 043e 19ca 8b3e d16d b3be 3488 5b3d
000000a0: 7e7c f0be 26fb e3be 3d43 ab3f 4ebc 0240
000000b0: 2198 62bf 1298 15be c5d2 483f b7b9 65bf
000000c0: e4eb 8dbf 9b96 9c3f 76de 2d3f 4b8f 88be
000000d0: 04ef a1bf d9a5 61bf 59fe 3cbf 9e28 d5be
000000e0: bde1 c23f 651a bd3f 234d 54bf bacf 193f
000000f0: 1a3d a73d be43 8bbf 7e3c 36be b84f dabf
00000100: 40d3 9bbe c778 003e c5bb c9bf c1a0 25bf
00000110: 3e7a 0b3d cca9 05be 6e03 15bf c25e debf
00000120: 3f83 a2be dcab e0be ce47 283f 6c1a 09bf
00000130: f440 1cbe 6dd9 58bf 821d 09bf 890c c8bf
00000140: 2208 6ebf bd77 eb3f 95d2 52bf 72d3 fb3f
00000150: 97d9 e0bd d9b0 a9bd a6b7 103f 6235 42bf
00000160: a8f2 653f e955 2c3f a2a5 45be 6254 93be
00000170: 9831 00bf 7d9a db3e 5dad 7abe fe31 293f
00000180: 599e 70bf 44e8 453f 5bed 273e b891 8dbf
00000190: 6190 62bf 27b2 9cbe ec60 b53f a272 913f
000001a0: ae3c 41bf 7896 7d3f 05d9 bfbe dd57 1ac0
000001b0: 0f98 74bf 2bb8 b93d ba99 af3e 6f3d 0bc0
000001c0: a976 cabf 29d3 803f f393 823f 088e fb3d
000001d0: a910 273f 998d 58bf aa5b dabe ffc6 713f
000001e0: 732d d33e 7821 9b3f fd42 473f 1690 883d
000001f0: c945 62bf 96d0 173f 54d2 d03f d435 85be
00000200: 36cb 133d a976 adbf 6309 33be 0e94 8cbe
00000210: d48f 38bf 7f31 1b3f bcb3 a23e 1b14 c13f
00000220: 7ec8 e8bd 6cf4 5b3f 83c3 133f 0dc8 463c
00000230: a05e f0bc 675a 44bf a6d2 6a3f d6e4 13c0
00000240: be1b 3d3f 1b5f 1440 1e19 33bf 8d37 cabe
00000250: f002 aebf 6f93 36bf c2d3 143f bec4 a43f
00000260: 5e5c 0940 ba5c 0640 6d47 313f 3a65 23bf
00000270: d4f6 19be cdd5 a2bf b029 bebe 03ae 27c0
00000280: b60e 83bf a855 a43f 6068 4abf 599c e1bf
00000290: f7cc 40bf b6b8 333f e427 883f 9cfa 02bf
000002a0: 87f0 633d 32e3 3c3e 86ec ca3f 1070 27bf
000002b0: 6020 81bf c9de c9bf 2d77 633f f146 213f
000002c0: dc05 853f 96a5 03c0 e0fc c8bf 4b02 073e
000002d0: 8694 a93f 0b1b c23f b0a8 c6bd 12e6 283e
000002e0: 30a6 7dbf e298 cd3f effe 023f 4054 e43d
000002f0: 9738 5a3f 1fdf 0ac0 7866 253e 68a3 97be
00000300: 2483 6fbf ee07 5dbf 9a00 66be 5137 ab3f
00000310: b5c6 c1bf e71c 0fbe 559e e4bf 38b3 99bf
00000320: 0a6e 033e a511 3b3e ef40 a93f ffee d33b
00000330: 5f2c 34be 140c c1bf 7fee acbd dcd7 553f
00000340: de5b e7bf 98ac 19bf e553 703e 3967 a3bf
00000350: a2c7 76be d34c 413f 158e fdbe ac30 303f
00000360: 337f 7f3e fb9c 673f fdd6 663e 8bcf d53e
00000370: c5a4 e4be 2ab6 c43e a68e ec3d ee3f 28bf
00000380: e25e ed3e 7dc1 e6be 4a55 4ebf 0c82 803f
00000390: cf25 8ebf f186 59bf 5e5d e9be 711b d23f
000003a0: b1c9 0cbf 74a4 a53e b8f3 973f bb7f da3e
000003b0: 8d75 bdbf 796e 3dbf 3441 883f acaa eabf
000003c0: a9a0 3cbf b41c bfbf 42ee fe3d 2f03 c2bf
000003d0: 392d 57bf 20bf 463f f4b7 bfbf 435e f5be
000003e0: b13a bebc b80e 263e 3b1e 1dbf d146 77be
000003f0: 0a0d 47be 74a6 a4be ed3a c2bf 2b8a 4fbe
-2.036819 -0.7388485 0.72101074 -0.20362423 -2.4364793 -1.398557 0.019569643 1.193288
0.6614791 1.678995 2.4136224 -1.8779929 -0.55741423 -0.41494533 0.5738863 -0.535553
0.34880733 1.4396657 1.157686 0.010352714 0.91817397 0.9983843 1.9198737 -0.25255927
-1.7161447 0.86089176 -0.8403233 0.31219566 -1.4945601 -0.09131737 1.9541516 -0.8389637
0.5618132 1.1745322 -0.64706373 -1.1169126 0.12904571 0.27302626 -0.3504472 0.05359669
-0.4696998 -0.4452755 1.3379894 2.0427432 -0.8851338 -0.14608791 0.7844661 -0.89736503
-1.1087613 1.2233461 0.67917573 -0.26671824 -1.2651067 -0.8814369 -0.73825604 -0.4163255
1.522514 1.477368 -0.829302 0.6008259 0.08165951 -1.0880048 -0.17796513 -1.7055578
-0.30434608 0.12546073 -1.5760428 -0.64698416 0.034052126 -0.13053054 -0.5820836 -1.7372668
-0.31740758 -0.43881118 0.65734565 -0.5355594 -0.15259153 -0.84706765 -0.5356065 -1.5628825
-0.9298116 1.8395916 -0.8235257 1.9673903 -0.10979002 -0.08285684 0.56530225 -0.75862706
0.8982339 0.6731859 -0.19301465 -0.28775316 -0.50075674 0.42891303 -0.24480195 0.6609191
-0.9399162 0.77307534 0.16399138 -1.1060095 -0.88501555 -0.3060467 1.4170203 1.1363108
-0.75483215 0.9905772 -0.3747026 -2.4116127 -0.95544523 0.090683304 0.34296972 -2.1756246
-1.5817462 1.0064441 1.02014 0.1228295 0.65259796 -0.8459106 -0.4264806 0.9444427
0.41245613 1.2119589 0.7783659 0.06668107 -0.88387734 0.5930265 1.6314187 -0.2601763
0.03608247 -1.3551837 -0.1748405 -0.27456707 -0.72094464 0.606224 0.3177775 1.5084261
-0.11366366 0.85919833 0.577202 0.012132657 -0.029341996 -0.76700443 0.91727674 -2.310842
0.73870456 2.3183048 -0.699602 -0.39495507 -1.3594646 -0.71318716 0.58135617 1.2872541
2.1462626 2.0994096 0.6924961 -0.63826334 -0.15035564 -1.2721497 -0.3714118 -2.6199958
-1.0238864 1.283864 -0.79065514 -1.7625839 -0.7531275 0.7020372 1.0637174 -0.5116365
0.055649307 0.18446043 1.5853431 -0.6540537 -1.0088005 -1.5771114 0.8885372 0.62998873
1.0392413 -2.0569816 -1.5702171 0.13184468 1.3248451 1.5164503 -0.09700143 0.16494015
-0.99081707 1.6062281 0.5117025 0.11148882 0.852426 -2.1698682 0.1615237 -0.29616857
-0.9355948 -0.86340225 -0.22461167 1.3376256 -1.5138766 -0.13975869 -1.7860819 -1.2007818
0.12834945 0.1826845 1.3222941 0.0064676995 -0.17595051 -1.5081811 -0.08443927 0.835325
-1.8074911 -0.6002898 0.23469503 -1.2765876 -0.24099591 0.7550785 -0.49522462 0.6882427
0.24950866 0.9047391 0.22542949 0.41759905 -0.4465696 0.3842023 0.115506455 -0.6572255
0.46361452 -0.45069495 -0.8059889 1.0039687 -1.1105288 -0.8497153 -0.45579046 1.6414624
-0.54995257 0.3235203 1.1871252 0.42675576 -1.4801499 -0.7399669 1.0644898 -1.8333335
-0.7368265 -1.4930634 0.12447788 -1.5157222 -0.8405338 0.77635384 -1.4978013 -0.47923478
-0.023221346 0.16216552 -0.61374253 -0.24148108 -0.19438568 -0.32158244 -1.5174233 -0.2026755

weight f4 [64, 32]
00000000: b8db c2bd 4490 433d f57a ecbd e747 f8bc
00000010: 9f27 27be 1766 993d e78b c8bc e7f2 ccbd
00000020: e087 053e e01e 97bd c4df c13c 434e 173e
00000030: d2bd ff3d 4227 343e 746f 61be 8622 e1bd
00000040: 43ab acbd 9a40 b5bd 6da9 db3c c018 283d
00000050: 1b82 dabd f9a8 df3c 8aaa 75bd 750c af3d
00000060: a2ed 7abd e808 593e 8790 ad3c 188c 8bbc
00000070: 2c13 b3bd 7900 6dbe ad9f 973d adc5 69bd
00000080: 47a8 823d d07f 9e3b 13ca 2b3e 59a5 833b
00000090: c1ea f33d d7db fcbc d1f0 5abd 6a6d eb3d
000000a0: 89e3 6bbd a671 c73d 08a5 ac3d 8078 75bd
000000b0: 4dca 88bd 1515 d2bd a41b 143e 9372 0a3e
000000c0: 6f16 273e 287b a93e 264d a3bd 83bd 083d
000000d0: 5225 343e 6121 1b3d 7a58 6bbd 38c6 2ebe
000000e0: 527b b03e 4a39 99bd 5ff9 10bd e8fb 8bbe
000000f0: 85c2 abbd 33cb 6a3e c2df 34be 5292 9a3e
00000100: d761 31be eafa 013e 8148 51be f663 38bd
00000110: e1b0 17be 350f 683e 48dd 9d3d a85a 80be
00000120: 02c3 02bc 4699 863b f44b e4bd 4e02 6f3d
00000130: d551 763e 7d08 353e c562 7fbe 71bf 32be
00000140: ca7c 4f3d bd86 b73d 232b 6bbd 7f5f 75bc
00000150: a8ac 91bd 61ee 373d 59ef 293d 52f7 a03d
00000160: d184 d2bc ac7e 903d c2d5 8fbc c19c 5ebd
00000170: 2df6 5f3d a81f 1b3d 5429 a5bb fbc3 f0bc
00000180: 2510 82be 35e6 043e 9c4c 43be 8d2f 823c
00000190: b355 11be b059 323e 59c8 e23d 12a9 4cbe
000001a0: fa54 623b b003 b1bd 6a0b 97bd 0d8d e73d
000001b0: 2285 453e 0487 b83d bc90 8abe 3cd6 03be
000001c0: cdae 95bd d261 dcbd a4f9 b63d b1b0 01bd
000001d0: 081e d9bb 1f31 363d b7fe b23d 2e55 1abd
000001e0: 9b06 59bd 719a e93d 4da1 d63b 9c33 f5bb
000001f0: 0acc 70be 9ea3 0cbe 9261 b83d 252c b0bd
00000200: 619d 2abe 6fbb d23c 9e61 1ebe 3a48 87ba
00000210: 9ed8 fdbd f1c1 d03d 7536 2c3e 5806 ebbd
00000220: 590d 46bc d5a7 45bb 2346 a7bd 4794 bc3d
00000230: 0594 e33d e355 a53d 28f6 72be e934 69be
00000240: d36b fcbd ad28 ddbd aeb1 a93d 7658 1ebd
00000250: 2be6 e0bd 928a 2cbc 0e50 183d 503b 393d
00000260: 16b4 1ebd 79ec 1a3e da39 4c3d 3738 28bc
00000270: 2223 75bd dc1b 51be 9656 2b3e 1930 46bd
00000280: 1812 763d 224d 87bd 71e4 a63c 0dc3 1c3d
00000290: e8fe 25bb 8338 78bc 7238 b1bc 7488 3d3d
000002a0: 9194 b0bc 0e02 d83b 047f 40bd 8d6f 8e3d
000002b0: 4c41 c9bd 22d3 ecbd 320d dbbd 2f4a 24be
000002c0: e602 0d3e 47d4 daba d76a 6b3d 1850 11bd
000002d0: 7daa 4b3d 964d 2b3d 8c67 66bd c0a3 02be
000002e0: 9b3b 963d 7f61 5fbd 785e 0bbe b520 2e3c
000002f0: bee2 3e3c a6e6 cf3d 58a5 8dbd 522e 893d
00000300: 0487 a53d 0cd3 cc3c e4a5 3c3e 9a8d 223e
00000310: 4fd3 0abd 27e6 cb3d 6ad7 c93d 0173 eebd
00000320: 8800 c8bd 00ed a93d 82ff ce3c 5ec1 5dbd
00000330: b431 f2bd 4066 903d c0d1 243d ceff c6bb
00000340: a469 633e bba6 4e3d 3b1d e13d 15bc 723c
00000350: d008 bf3d 75af bf3c d007 19be 66d6 06be
00000360: 02cb 163e a754 623d 4d68 cbbd e08e d93d
00000370: bad5 f83b f0e1 4e3d 777f 66be 0f53 913d
00000380: ba0a f23d d052 20be 9076 583e 6e0c 473d
00000390: b765 4b3e 978f 37bd 384a 12be 1069 dc3b
000003a0: 16c8 0a3e 328f 763e 6f74 7d3d 624b 32be
000003b0: 5472 a6bd 1c25 f0bd a3bb 433d 7935 4b3e
000003c0: 9e00 e93d cbd3 8f3e 638b e03d 1fda 0bbe
000003d0: 351b 923e 835f 893d ce5f a4be 3789 43be
000003e0: 3843 3c3e 91d6 23be 008e 18be f0bd 48be
000003f0: fa64 373e 1600 243e 1f23 8abe fb36 a53e
-0.09514564 0.047745004 -0.1154689 -0.030307723 -0.16323708 0.07490175 -0.024480773 -0.100072674
0.13040113 -0.07378936 0.02366627 0.14775948 0.12487377 0.175931 -0.22015172 -0.10992913
-0.08431103 -0.088502124 0.026814187 0.04103923 -0.10669347 0.027302252 -0.05997709 0.08547298
-0.06126178 0.21194804 0.02118708 -0.017034575 -0.08743891 -0.23144712 0.074035026 -0.057073284
0.063797526 0.004837014 0.16776304 0.0040175137 0.1191001 -0.030866547 -0.053452317 0.114954785
-0.05759004 0.097384736 0.08429915 -0.05992937 -0.06679211 -0.10257927 0.14463669 0.13520269
0.16317151 0.33101773 -0.07973699 0.033383857 0.17592362 0.03787363 -0.057457425 -0.17067802
0.34469086 -0.0748163 -0.03539407 -0.27340627 -0.08386711 0.22929077 -0.17663482 0.3018976
-0.17322479 0.12693372 -0.20437814 -0.045017205 -0.14813568 0.22662051 0.07708222 -0.25069165
-0.007981064 0.004107627 -0.111472994 0.058351807 0.24054654 0.1767902 -0.24940021 -0.17455842
0.050656117 0.08961246 -0.057414185 -0.014976381 -0.0711301 0.04490507 0.041488025 0.078596726
-0.025698097 0.07055411 -0.017557982 -0.05434871 0.05467813 0.037871987 -0.005040327 -0.029390326
-0.25402942 0.12978442 -0.19072193 0.015891815 -0.14192848 0.17417026 0.110733695 -0.1998637
0.0034535513 -0.086432815 -0.07375224 0.113062 0.19289067 0.09010127 -0.2706355 -0.12874693
-0.07308731 -0.10760845 0.08934334 -0.031662647 -0.0066258945 0.04448044 0.08739989 -0.03767889
-0.052984815 0.114064105 0.0065499903 -0.007482959 -0.23515335 -0.1373429 0.09002985 -0.0860217
-0.16661598 0.02572414 -0.15466926 -0.0010321208 -0.12394832 0.101932414 0.16817649 -0.11475819
-0.012088143 -0.003015985 -0.081676744 0.09207969 0.11112217 0.08073022 -0.23726714 -0.2277409
-0.12325253 -0.10798774 0.08285843 -0.03865858 -0.10981401 -0.010531085 0.03718572 0.04522258
-0.038745962 0.1512927 0.04985986 -0.010267309 -0.05984796 -0.20420784 0.16732249 -0.048385713
0.06007585 -0.06606509 0.020372601 0.038271952 -0.0025328938 -0.015150192 -0.02163336 0.04627271
-0.021555217 0.006592042 -0.04699613 0.069548704 -0.098269075 -0.11563708 -0.10695876 -0.16043924
0.13770637 -0.0016695344 0.057474937 -0.035476774 0.049723137 0.04182204 -0.056251094 -0.12757778
0.073355876 -0.05453634 -0.13610256 0.010627915 0.011650739 0.101514146 -0.069163024 0.06698288
0.08082393 0.025002979 0.18422657 0.15874329 -0.033892926 0.099560075 0.0985554 -0.11643029
-0.09765726 0.08297157 0.02526832 -0.054139487 -0.11825886 0.07050753 0.040239096 -0.0060729748
0.22208267 0.050451975 0.109919034 0.01481535 0.09327853 0.023399094 -0.14944386 -0.13167724
0.14725879 0.055256512 -0.09932003 0.10622954 0.0075938376 0.05050844 -0.22509561 0.0709592
0.11818452 -0.1565659 0.21138978 0.04859584 0.1986302 -0.044814672 -0.14286125 0.0067263916
0.13552889 0.24078062 0.061878618 -0.17411569 -0.08127275 -0.11725828 0.047786366 0.19844617
0.11377071 0.28091273 0.10964086 -0.13657425 0.28536382 0.067076705 -0.32104343 -0.19095312
0.18385017 -0.1599982 -0.14897919 -0.19603705 0.17909613 0.16015658 -0.2697992 0.3226851

bias f4 [64]
00000000: a0c7 8abe 3812 4cbe 3fa6 a2be bf8d c8bd
00000010: 2736 a8be ba57 a7be f123 d8bc 4d7b 1fbe
00000020: 2c08 603d 785a 07be 9ea8 a0bd f979 8ebe
00000030: fe24 5ebe 3825 fbbd 4cb9 e8bc de55 d3be
00000040: a01c 313d 9ad5 c03c e7d8 b73d aec5 90bd
00000050: ed1a 7abc 6b80 6ebe d47e b7be 527d 00be
00000060: 1fc1 00bf 452f 93bd db0a f3bd b6c6 dcbe
00000070: 3a7c a0be ebd7 91bd a826 a1be 76a4 b7be
00000080: 9087 17be 0b3f 63be 226a c4bd ca3c 9abe
00000090: b777 e7be a5ec afbe 0baf 8cbe bc6f 25be
000000a0: 1f58 12be e44d f9bd 7156 12bf 0ef0 d0be
000000b0: 46cc aebd 2dc3 36be 7e80 78bd 4cfb 97bd
000000c0: 2250 b5be b133 a9bd f318 4cbe 0e44 4ebe
000000d0: 049c 41be 28c0 56bd a50a b33a 6134 41be
000000e0: ff2f a03d 9d6f a4be 18f4 683d db09 8abd
000000f0: 7cb5 35be 874b 11be 0e53 e2be 49e1 d73c
-0.27105427 -0.19928825 -0.3176746 -0.09792661 -0.32853815 -0.32684118 -0.026384326 -0.1557438
0.054695293 -0.13218105 -0.07844661 -0.27827433 -0.21693799 -0.12262958 -0.028408669 -0.4127645
0.04324019 0.023539353 0.08976918 -0.070689544 -0.015265209 -0.23291175 -0.3583895 -0.12547806
-0.5029468 -0.0718675 -0.11867305 -0.43120354 -0.31344777 -0.07121261 -0.31474805 -0.3586766
-0.14797807 -0.22192018 -0.09590556 -0.30124503 -0.45208523 -0.34360233 -0.27477297 -0.16155905
-0.14291428 -0.121730596 -0.5716315 -0.40808147 -0.08535056 -0.17847891 -0.060669415 -0.07420978
-0.354127 -0.082618125 -0.19931392 -0.20143148 -0.18907171 -0.05242935 0.0013659789 -0.18867637
0.078216545 -0.32116404 0.05687341 -0.06740161 -0.17745012 -0.14188968 -0.4420399 0.026352542

weight f4 [16, 64]
00000000: 3e6d 1c3d ba80 20be 3e52 133d c0f3 833d
00000010: 8674 3d3d ef92 04bd b796 56bd badc 61be
00000020: 255a 8fbe df0d 6cbd 2ee9 20be 3d5b 61bc
00000030: 72e4 73be 13f8 72be b254 09be f3c7 a83c
00000040: 30ea 70be fa57 60be eba9 a6be e0ac 5abe
00000050: 8b1a 25be 90de 87bd c81e 843d 7860 d2bd
00000060: bdc6 663d 94c6 26be 2476 0bbd ce3b a03d
00000070: eae0 9c3d 7482 13be 96f5 743c 2e01 753d
00000080: 23c2 a2ba 1193 69be c5e1 8ebe df85 8d3d
00000090: 3dd6 a53d 0186 2e3d a8d5 2f3d 09ec 3e3c
000000a0: 20d0 89bd 1ef8 44be 5a96 883d 1958 853d
000000b0: 21fe ccbd 665e 67be 03aa 8fbe b28b 62be
000000c0: ce2b 94be 6ea2 9bbe 018a 05be bcf9 3cbd
000000d0: 74a6 59be 91e2 4abe ddae 0bbe ada2 eebd
000000e0: 1b8a 65be 645e e1bd 19a4 36be b6b1 4cbe
000000f0: 865e 5b3c 10ed 3abe b206 a83d 0a47 c0bd
00000100: dc3a 023c c65d 1fbe 6bf9 433c e380 4a3d
00000110: 09a0 b43d 3e64 9d3c 1a4d 15bd 9554 2dbe
00000120: 821d 5fbe 5bcc 15bb 5efe 14be c0aa b63d
00000130: f3c3 16bd b28e afbe fd92 68be ffe1 493d
00000140: 2cc3 76be 7c0f 75be 66c4 e0bd d3f9 cdbd
00000150: 6ec1 04be 4ac8 64be cfb1 1d3d f36d 8fbe
00000160: 4eb5 213d cd0a 47be 37b6 99be fa88 963d
00000170: bd85 6b3d b1b4 19be 438d a33d 3e7f 0a3d
00000180: 0d30 cb3c e5b4 5abe d995 a7be 3746 493d
00000190: bbdb b43d ee81 7a3d e2f6 823d 1011 11bd
000001a0: 614a babd 61a3 12be 00c8 063e 16ac b33d
000001b0: a7cb 91be ff4a 79be 2fd1 0abd ca92 85be
000001c0: 0883 c5bd 6c00 48be d304 b2be af30 09be
000001d0: 1b11 48be 9245 99be 928f 82be 4dc6 01be
000001e0: 63eb 7dbe 23a7 e53d f41b a6be d6db f4bd
000001f0: d4fc 17be 5f08 21be 84bf 1b3d cb8f 3dbe
00000200: ce08 86be 9003 303d 361c 00be fc7f 29bb
00000210: 04ec 0ebd 384d d13c 8bc8 273d 7558 0b3e
00000220: fb36 fb3d 8161 14bc 657c 173e 43a1 b8bb
00000230: ca79 38bd f54f 303e ed46 943d 44cb 0fbe
00000240: 4cda 4a3e c552 2b3c a5df 9b3d d1c9 063d
00000250: 2069 bf3c 1745 dc3d 5151 08be ce79 333e
00000260: e75a 81be f2da 7a3e b2b8 2d3e 5ffc 85bd
00000270: ef0a e8bd 7f9f 2f3e ba4b 1ebe fa33 23be
00000280: 079d 27bd e81f ed3d 4093 253e c2b4 4fbd
00000290: e4df f1bd 8c1f edbd 91fc afbc e705 363d
000002a0: 1b3f 6f3d 7aaa ba3d 3cd7 35be 7637 13be
000002b0: 69b7 623e c764 2f3d a6d7 503d 8c1f b03d
000002c0: f7c5 6a3e ad3c e73d 7a01 e4ba 95d4 983e
000002d0: 47d0 8abc e937 043e fc4f 0c3e 7ed0 243e
000002e0: 0ee4 da3d 3654 bf3c 82d7 123e aac4 283e
000002f0: 93f7 073d 4b5a df3d cdbc 4ebe f9c3 c13d
00000300: 2268 dbbd 9a38 0b3e f488 12be 686d 9b3d
00000310: 045e f0bd 7a79 b33c 6ec3 0c3d a808 a03d
00000320: e4e0 373d ab12 7dbd 67fb fc3d e3aa 0cbe
00000330: 08b7 113e 7336 503e 73d2 173d 999a 59be
00000340: 084e 033c 9e25 123e cb8a 293d a198 e13d
00000350: a570 803e ab7a 233e 8e8d b5bd 5ced a23d
00000360: c56e 2bbe 3f25 513e 9e10 033e f49f 30be
00000370: 4123 c7bd c074 f93d 7f52 75bc 96bf 0bbe
00000380: 1b60 f4bd b169 113e e9ce 6d3d 6b33 20be
00000390: af31 5abe c098 08be 0eda a3bd 9d65 a43c
000003a0: 46b7 403e 7ee0 7c3d 9fea 84be 14fc 1ebe
000003b0: 6ec6 133e 650e 393e d485 f93d 6953 503e
000003c0: 220e 1b3e 21d3 053e b46b 923d 3458 393e
000003d0: 421c 9d3d 2a4d 903c 540c 3a3d ea37 1c3e
000003e0: 1e71 e3bb 5420 113d b70d 593d d82f 143e
000003f0: aacd 6a3d 6036 873d 0795 75be d906 013e
0.03819012 -0.15674105 0.035967104 0.06442976 0.046253704 -0.03236669 -0.052389827 -0.22056857
-0.27998462 -0.057630416 -0.15713951 -0.013754663 -0.23817614 -0.23727445 -0.13411215 0.020603156
-0.23526835 -0.2190856 -0.32551512 -0.21355009 -0.16123407 -0.06634247 0.064511836 -0.10272306
0.056341875 -0.16286689 -0.034048215 0.07823907 0.076600865 -0.14405233 0.01495113 0.05981558
-0.0012417476 -0.22810008 -0.27906623 0.069102995 0.08097503 0.042608265 0.042928368 0.011652955
-0.0672915 -0.19235274 0.06669302 0.06510944 -0.10009409 -0.22594604 -0.28059396 -0.22123602
-0.2893967 -0.30397362 -0.13040926 -0.046136603 -0.21254903 -0.1981299 -0.13640924 -0.11652122
-0.22415964 -0.11004332 -0.17836036 -0.19989666 0.013389235 -0.18254495 0.08204402 -0.093885496
0.0079486035 -0.15563115 0.011961321 0.049439322 0.08819587 0.019212838 -0.036450483 -0.16926797
-0.217886 -0.00228574 -0.14550158 0.08919287 -0.036807965 -0.34288555 -0.22712322 0.049287792
-0.2409789 -0.23931688 -0.1097496 -0.10057416 -0.12964413 -0.22342029 0.03849965 -0.28013572
0.039479546 -0.19437714 -0.3002183 0.07350345 0.05750059 -0.15010335 0.07985928 0.033812754
0.024803186 -0.21358068 -0.32731512 0.049139228 0.08830973 0.061159067 0.063947454 -0.035416663
-0.09096218 -0.14320137 0.13162231 0.08773057 -0.28475687 -0.24345015 -0.0338909 -0.26088554
-0.09644133 -0.19531411 -0.34769306 -0.13397478 -0.19537775 -0.2993589 -0.2550016 -0.12673302
-0.24796824 0.112135194 -0.32443202 -0.11955993 -0.1484254 -0.1572585 0.03802444 -0.18511884
-0.26178592 0.042972147 -0.12510762 -0.0025863638 -0.03489305 0.025549516 0.040962737 0.13607962
0.12266346 -0.00905645 0.14793546 -0.0056344583 -0.045038022 0.17218001 0.072400905 -0.14042383
0.19809836 0.0104567455 0.07611016 0.03290731 0.023365557 0.10755365 -0.1331227 0.17526934
-0.25264665 0.24497584 0.16964987 -0.065422766 -0.113302104 0.17150687 -0.15458575 -0.15937796
-0.040921237 0.11578351 0.16169453 -0.050709493 -0.11810282 -0.11578283 -0.021482738 0.044439223
0.05840979 0.09114547 -0.17757887 -0.14376625 0.22140278 0.04282072 0.05098691 0.08599767
0.2292708 0.1129087 -0.001739546 0.29849687 -0.016945018 0.12911953 0.13702387 0.16095158
0.10688029 0.023355585 0.14340022 0.16481271 0.03319509 0.10905894 -0.2018921 0.09461207
-0.10713221 0.1359581 -0.14310056 0.07589227 -0.11736682 0.02190851 0.034366064 0.07814151
0.044892207 -0.06178538 0.12352639 -0.13737063 0.14229977 0.2033327 0.037065934 -0.2125038
0.00801421 0.14272162 0.04139213 0.1101544 0.2508594 0.15964763 -0.0886489 0.07955429
-0.16741474 0.20424365 0.12799308 -0.17248517 -0.09723521 0.121804714 -0.014973282 -0.13647303
-0.11932393 0.14200474 0.058058653 -0.15644614 -0.21308015 -0.1333952 -0.08000575 0.020067984
0.18819913 0.06173753 -0.25960252 -0.15525848 0.14431164 0.18071897 0.12183729 0.20344318
0.1514211 0.1306882 0.07149449 0.18100053 0.076714054 0.01761492 0.045421913 0.15255705
-0.006940975 0.03543122 0.052991595 0.14471376 0.057325043 0.06602168 -0.2398263 0.12600268

bias f4 [16]
00000000: 47af 09be 95e6 c5bd 9102 af3c 42c3 1abe
00000010: ad12 09bc 269a 78bd 5980 893c e27c 18bc
00000020: 8b22 06be 5f93 1dbb 6615 60be 9f52 dcbb
00000030: eaae 53bd 1499 c8be ff1a 23be 5a41 16be
-0.13445769 -0.09663121 0.021363528 -0.15113547 -0.008366269 -0.060693882 0.016784834 -0.009307118
-0.13099115 -0.002404414 -0.21883163 -0.0067237164 -0.051680483 -0.3917929 -0.15928267 -0.14673367

weight f4 [8, 16]
00000000: 0fd1 fabd b10c 82bd d3ac 413e 04ea 303e
00000010: c59e ba3d 2edc 00be 474a f13d 2cf2 6a3e
00000020: 3b13 733e bf47 18be 8e5a 813e 8efd 8d3e
00000030: 86aa d23d e0db 8f3e 8e70 18be ce98 663e
00000040: 4a19 5b3e 662c 3d3e 6c17 85bd 7df0 0ebe
00000050: 09a9 41bd ce4b 473e 5aab b4bd e8eb a2b9
00000060: a580 80be e73c 8d3e 0624 a6be 4abd 22be
00000070: a424 e4bd 395e 99be ea9c 5e3e b5cd 14be
00000080: 5858 6c3e abf8 3d3e 7267 a2bd 890e 1abe
00000090: bc99 3abc 9378 5b3e 8759 2bbe 4d37 97bd
000000a0: 8f0b 3bbe a586 3a3e daaf 81be d944 26be
000000b0: 0171 02be 56a8 9fbe d82b 823e a2bf 6dbe
000000c0: 7761 153e 912c 333e 4b14 19be 76b1 c7bd
000000d0: 35d5 54bd 8c5b 023e 83c2 9fbd ca2b 52bd
000000e0: 8714 dabd 939d 303e 193f 81be ed45 4abe
000000f0: 4f9f 28be be86 7bbe ec77 3d3e 8017 22be
00000100: b5f1 06be 958a ccbd a811 dc3d 905f 1e3e
00000110: 693e b93d fbdb 9cbd 33b4 083e 7e3e a93d
00000120: 34a1 393e d40a 31be 8e63 623e 45b2 083e
00000130: 4c99 fe3d 0abf a93e 64d7 0dbe 119a 463e
00000140: fa0a b53d 5db0 653d 9d9d 3dbe d535 79be
00000150: 50cf 43be 4145 633d 8c21 65be 1805 6fbe
00000160: 2f0c 98be 2014 d93d 2428 9abe b783 7ebe
00000170: 4e2e 8dbe b118 9fbe 341d e03d a1cd 9cbe
00000180: c0fd 69be 2470 31be 5412 5a3e 4743 9c3e
00000190: cdfc 583e 9500 06be 78df 463e 038b 3e3e
000001a0: 92f9 533e c916 86be 2f37 a23e e889 1e3e
000001b0: 6f8d 3e3e 6d5d cc3e 7cb7 72be db95 703e
000001c0: 6f4a 88be f641 40be 7daa 373e a590 4a3e
000001d0: 476b 743d d312 45be d3ea c73d f31d d33c
000001e0: 3904 593e 7970 76be 48c7 793e 9fa1 043e
000001f0: b4c2 ca3d befd 963e c477 7bbe 327b d03d
-0.12246906 -0.06350077 0.18913583 0.1727677 0.09112314 -0.12583992 0.117817454 0.22943944
0.23737805 -0.14871119 0.252644 0.2773251 0.10286431 0.2809744 -0.14886686 0.22519228
0.21396366 0.18473968 -0.06498608 -0.13958926 -0.047280345 0.19462511 -0.08821745 -0.00031074812
-0.25098148 0.27585527 -0.3244936 -0.1589252 -0.11139801 -0.299547 0.21739545 -0.14531596
0.23080575 0.1855189 -0.07929887 -0.15044607 -0.011389192 0.21432714 -0.1673337 -0.07383595
-0.18266128 0.18215425 -0.25329477 -0.16237201 -0.1273842 -0.31183118 0.25424075 -0.23217633
0.14587961 0.1749747 -0.14949147 -0.09750645 -0.051961143 0.12730235 -0.07800772 -0.05131129
-0.106484465 0.1724761 -0.25243452 -0.19753237 -0.16467021 -0.24563119 0.18502778 -0.15829277
-0.13178141 -0.0998737 0.10745555 0.15466142 0.09045107 -0.076591454 0.1334999 0.082638726
0.181279 -0.17289287 0.2210829 0.13349254 0.12431583 0.33153564 -0.13851696 0.19394709
0.08839984 0.056076396 -0.18517156 -0.24336942 -0.19122052 0.055485968 -0.22376078 -0.23341787
-0.29696795 0.10599542 -0.3010875 -0.24854933 -0.2757439 -0.31073526 0.1094307 -0.30625632
-0.22850704 -0.17327935 0.21296054 0.3052008 0.21190186 -0.1308616 0.19421184 0.18607716
0.20700672 -0.2618926 0.31682727 0.15482295 0.1860864 0.39915028 -0.23702806 0.23494665
-0.26619288 -0.18775162 0.1793613 0.1978174 0.05967262 -0.19245462 0.09761586 0.025771117
0.21193017 -0.24066342 0.24392426 0.12952279 0.09900418 0.29490465 -0.24557406 0.10179748

bias f4 [8]
00000000: af78 e0bc 695d 423c 8132 6c3c 6f32 eb3c
00000010: ed1e e1bc 64d5 293d e78d 8cbc 4cd7 21bd
-0.027401296 0.011863091 0.014416338 0.028710572 -0.027480567 0.04146327 -0.017157508 -0.039511964
