models/NeuMF8.pt (torch, 187103 bytes, 16 tensors)

weight f4 [943, 8]
0	0x3d1cfc4d	0.03832655
1	0x3d84b63e	0.064800724
2	0xbe319c78	-0.17344844
3	0x3fb673b2	1.4254057
4	0xbe947c7e	-0.2900123
5	0x3e850232	0.25978237
6	0x3de3cacd	0.111226656
7	0xbe90af99	-0.2825897
8	0xbfb5b31e	-1.4195287
9	0x3efadb23	0.48995313
10	0x3e6a5c5c	0.22886795
11	0xbfa65a9c	-1.2996402
12	0x3ef353b4	0.47524798
13	0xbfb74700	-1.4318542
14	0xc0100532	-2.250317
15	0xbfde2fbc	-1.7358317
16	0x3f5b49c1	0.85659415
17	0xbe1eaa41	-0.15494634
18	0x3e065904	0.13119894
19	0xbee53b0c	-0.44771612
20	0x3e235c41	0.15953161
21	0x3df0ee25	0.117641725
22	0x404a0e0a	3.1571069
23	0x3dadc61a	0.084850505
24	0xc05266db	-3.2875278
25	0xbd17a194	-0.037019327
26	0x3fcc54f5	1.5963427
27	0x3eef7ce1	0.46774963
28	0x3e9e278d	0.3088955
29	0xbf55159c	-0.832361
30	0xc01efb49	-2.4840872
31	0xbf9a2f81	-1.2045747
32	0xbe3ddef5	-0.18542083
33	0x3fa9ab5f	1.3255423
34	0xc00dbff0	-2.21484
35	0xc0003236	-2.0030646
36	0xbff4d41c	-1.9127231
37	0xbfc89488	-1.5670328
38	0x3e62da6f	0.22153638
39	0x3ecab762	0.39593035
40	0x3f10c0be	0.565441
41	0xbf05e97b	-0.5230939
42	0xbe083b76	-0.13303933
43	0x3f4658cc	0.77479243
44	0x3f3c35c9	0.7351957
45	0x3e3f87ce	0.18704149
46	0x3e950fc7	0.291136
47	0xbe4394f6	-0.19099793
48	0xbbc78e35	-0.0060899504
49	0xbf09b3da	-0.53790057
50	0x3e89ad4c	0.26890028
51	0xbefb37c2	-0.49065977
52	0xbef60eea	-0.48058254
53	0x3eb0d6d5	0.34538904
54	0xbc1760f1	-0.009239421
55	0x3eb94634	0.36186373
56	0xbe53f683	-0.20699506
57	0x3ebfa897	0.3743331
58	0xc07e1c26	-3.970468
59	0x3f0ba1f8	0.5454402
60	0xc01c169b	-2.4388797
61	0xbf378640	-0.71689224
62	0xbf8c4627	-1.0958909
63	0x40823b81	4.0697637
64	0xbdc934f5	-0.09824554
65	0x3fabf83b	1.3435129
66	0xc05a0f03	-3.4071662
67	0xbfa57981	-1.2927705
68	0xbeed505b	-0.4635037
69	0xc010310a	-2.252993
70	0xbfbb9d54	-1.4657388
71	0xbcfa2774	-0.03053639
72	0xbf51954d	-0.8186844
73	0xc0054878	-2.0825481
74	0x3f7c820e	0.9863595
75	0x401bed47	2.4363573
76	0x3eae52dc	0.34047592
77	0x3ebb8e07	0.36631796
78	0x3e28f471	0.16499497
79	0xbc29989a	-0.010351324
80	0x3f68f68d	0.91001207
81	0xbfe0d296	-1.7564266
82	0x3f5700c3	0.8398554
83	0xbe6bca3d	-0.23026367
84	0x3f02b8ec	0.5106342
85	0x40226ce1	2.5378954
86	0x3c9e9598	0.019358441
87	0xb9d72a20	-0.0004103938
88	0x3f819108	1.0122385
89	0x40541a2f	3.3140981
90	0xbf8751d6	-1.0571849
91	0xbe4163e7	-0.18885766
92	0x4029e1de	2.6544108
93	0x3f8a9a05	1.0828253
94	0xbf616431	-0.88043505
95	0x3fb4af71	1.411604
96	0x3c66900f	0.014072432
97	0xbd4103f5	-0.047122914
98	0x3df03567	0.11728936
99	0xbee657c0	-0.44988823
100	0xbe93f8e9	-0.2890084
101	0xbdcc1ed6	-0.09966819
102	0x3d3e2f0c	0.046431586
103	0x3de2af59	0.11068601
104	0x3eba37fb	0.36370835
105	0xc0145e57	-2.318258
106	0xbf3d6845	-0.7398723
107	0x3ee73e26	0.45164603
108	0xbf84883f	-1.0354079
109	0x3e8d1abe	0.27559465
110	0xbf878b6c	-1.0589423
111	0xbf083f7d	-0.53221875
112	0xbed87ccc	-0.42282712
113	0x3f318f44	0.6935923
114	0x3e5019bf	0.20322321
115	0x3fa67fd0	1.3007755
116	0xbe044de1	-0.12920333
117	0x3da678c9	0.08128507
118	0x3fe09718	1.754611
119	0x3e1fa36d	0.15589686
120	0xbf71860b	-0.9434516
121	0xc01ae194	-2.4200182
122	0x3f662647	0.89902157
123	0xbf108e15	-0.564668
124	0x3ffc2aa2	1.970051
125	0x3f0c050f	0.5469522
126	0x3ef948d3	0.48688373
127	0x3e97afc7	0.29626295
128	0xc004cb17	-2.0748956
129	0x3e9048cf	0.2818055
130	0x3ea1f654	0.31633246
131	0xbf205fb7	-0.6264605
132	0x40331041	2.797867
133	0x3f3ee4d8	0.7456794
134	0x40709b7c	3.75949
135	0xbeced39b	-0.40395817
136	0xbd6c9f66	-0.0577692
137	0xbf342741	-0.70372397
138	0x3e70048b	0.23439233
139	0x3eb3f82a	0.35150272
140	0xbe90e5f8	-0.28300452
141	0x3e95660b	0.29179415
142	0xbe8a9623	-0.2706767
143	0xbe9ea3c2	-0.30984312
144	0xbf5b21fa	-0.8559872
145	0x3fbccef0	1.4750652
146	0x408955dc	4.291731
147	0x3fbaad18	1.4584074
148	0x4028742b	2.6320903
149	0xbe4603e0	-0.19337416
150	0xbfbbf6bf	-1.4684676
151	0xbfb839b8	-1.4392614
152	0xbf6ecdd5	-0.93282825
153	0x4052c95b	3.2935398
154	0xbff0776e	-1.8786447
155	0xbf4c8623	-0.79892176
156	0x3fff2c72	1.9935439
157	0xbec5642b	-0.38552985
158	0x3fb29ea2	1.3954661
159	0x3e9137f0	0.2836299
160	0x3fb18e3c	1.3871531
161	0xbedcc772	-0.43120915
162	0xbfef38b9	-1.8689185
163	0x3f567826	0.8377708
164	0x3cdfb661	0.027308645
165	0xbe71f03e	-0.23626801
166	0x3f3550b7	0.70826286
167	0xc010e55e	-2.2639995
168	0x3f5f22ea	0.8716265
169	0x3f0c373c	0.5477178
170	0xc00c93b8	-2.196516
171	0xbfa5f2ff	-1.2964782
172	0xc00d60b1	-2.2090266
173	0x3d88acc1	0.06673575
174	0x3e3424b0	0.1759212
175	0x402efb1e	2.734077
176	0xbedb7031	-0.42859033
177	0xc00aa89b	-2.1665409
178	0x40270a21	2.6099932
179	0x3fbc3313	1.4703087
180	0xbf668306	-0.90043676
181	0xbeed588e	-0.46356624
182	0x3e5d491c	0.2160992
183	0x3eeaa9bb	0.4583262
184	0xbffe4b5f	-1.9866751
185	0x401c2f2d	2.4403794
186	0xbf5ca195	-0.86184055
187	0x4007607f	2.1152647
188	0xbe1d5357	-0.15363823
189	0x403a48ba	2.9106889
190	0xbf4ae85f	-0.7926082
191	0xbed6fa4c	-0.41987836
192	0xbe89f302	-0.26943213
193	0xc0638a19	-3.5553038
194	0x3fae347a	1.3609765
195	0x3f3396ef	0.7015218
196	0x3ee2a2d7	0.44264862
197	0xbe68810e	-0.2270548
198	0xbf5fa57c	-0.87361884
199	0xbfd736f3	-1.6813644
200	0xbe42c3d0	-0.19020009
201	0x3e7da7fd	0.24771114
202	0x3f821add	1.0164448
203	0xbf676c79	-0.9039989
204	0x3e3dffa8	0.18554556
205	0xbe38ff64	-0.18066174
206	0xc006f947	-2.1089647
207	0x3e913df0	0.28367567
208	0xbfdcf9fd	-1.726379
209	0x3fb36b79	1.4017173
210	0x3fd55cfa	1.6668999
211	0x3f976867	1.1828736
212	0xbe89c2b3	-0.26906356
213	0xbcbbdcc2	-0.022932414
214	0x40299e6b	2.650294
215	0x3fef685d	1.8703724
216	0x3e89168e	0.2677502
217	0xbff71aaa	-1.9305012
218	0x3f835752	1.0261023
219	0x400c2d20	2.1902542
220	0xbe4d514a	-0.2005054
221	0xbfe48f06	-1.7856147
222	0xbf785f4e	-0.97020423
223	0x3ff89da3	1.9423107
224	0xbfb31a0c	-1.3992324
225	0xbf6774ef	-0.904128
226	0x3eab2e2d	0.33433667
227	0xbfcf27b8	-1.6183996
228	0xbd30ef23	-0.04319681
229	0x3faf81a2	1.3711436
230	0x4018512f	2.379955
231	0xbfd2dd8d	-1.6473862
232	0xbf2990fd	-0.6623686
233	0xbfa5dde2	-1.2958338
234	0x3fdf208c	1.7431808
235	0xbef2413a	-0.4731539
236	0x3f8ed6c2	1.1159289
237	0xbea07073	-0.31335792
238	0x3fb70adf	1.4300193
239	0x3fba1702	1.4538271
240	0xbf002001	-0.50048834
241	0xbfd3f01f	-1.6557654
242	0x3fd34eba	1.65084
243	0xbfbd737c	-1.4800868
244	0x3d97d5f3	0.074138544
245	0xbe5f89bd	-0.21829887
246	0xbf944240	-1.1582718
247	0xbf141572	-0.5784522
248	0xbd40252c	-0.04691045
249	0xbfdae99b	-1.7102541
250	0x3e30a6bd	0.17251106
251	0x3f0a2642	0.53964627
252	0x3e8c7af2	0.2743755
253	0x3ea60809	0.32428005
254	0xc04cc2c3	-3.1993873
255	0xbf201afc	-0.62541175

weight f4 [1682, 8]
0	0xbebf5d43	-0.3737584
1	0x3d261aa5	0.040552754
2	0xbe046ce8	-0.1293217
3	0xbc488ad7	-0.012240133
4	0x3c947fad	0.018127287
5	0x3d908809	0.07057197
6	0xbe355118	-0.17706716
7	0x3f0e298e	0.5553216
8	0x3f9b671e	1.2140844
9	0x3ee8d68b	0.45476183
10	0x3fa3a1b9	1.2783729
11	0xbf22567d	-0.6341322
12	0x3f1120e9	0.5669084
13	0x3e9be32f	0.30446765
14	0x3fd4c9fe	1.6624143
15	0x3f6902fd	0.91020185
16	0x3d9a1f38	0.07525486
17	0x3d07f6ee	0.033194475
18	0xc002da3c	-2.04457
19	0xbf31c6fd	-0.6944426
20	0xc01f4889	-2.4888022
21	0xbfb0a46d	-1.3800179
22	0x3edba063	0.42895803
23	0xbfeb5108	-1.8384104
24	0xbcff1b05	-0.031140814
25	0xbbeb6510	-0.0071836784
26	0xbda3bfbd	-0.079955555
27	0x3f3639fe	0.7118224
28	0x3f77b955	0.9676717
29	0x3f5c0041	0.8593789
30	0xbfa0c386	-1.2559669
31	0x3ee3071e	0.44341367
32	0x3f1050c9	0.5637327
33	0x3f2ff068	0.68726206
34	0xbff33c95	-1.9002863
35	0xbf944d9b	-1.1586183
36	0xbe06ce48	-0.13164628
37	0xbf88ed23	-1.0697368
38	0x3fcbfe8a	1.5937054
39	0xbe507b1d	-0.20359464
40	0xbe331892	-0.17489842
41	0xbf83b023	-1.0288128
42	0x3f552181	0.8325425
43	0xbdf404d7	-0.119149856
44	0x3ff239f7	1.892394
45	0xbfd6d6f6	-1.6784351
46	0x3f2bdfac	0.6713817
47	0xc0b40dbe	-5.6266775
48	0xbf3dcb14	-0.74138
49	0x3e10a1b9	0.14124192
50	0x3efc923d	0.4933032
51	0x3e7c66ba	0.24648562
52	0x3e52c9c4	0.2058478
53	0x3f14908f	0.5803308
54	0xbe87eb98	-0.2654693
55	0x3ed5a401	0.41726688
56	0xbe7d3a5a	-0.2472929
57	0x3bfb3028	0.007665653
58	0x3e294440	0.16529942
59	0xbf1c39ce	-0.610257
60	0x3e9334e7	0.287513
61	0xbef54457	-0.47903702
62	0xbf984942	-1.1897357
63	0x3ee87168	0.45399022
64	0x3f003607	0.5008244
65	0xbe945ea5	-0.28978458
66	0x3f172150	0.59035206
67	0x3f840dda	1.0316727
68	0x3eb691ab	0.3565801
69	0xbe9f0f05	-0.31066146
70	0x3e822a6f	0.25423
71	0xbff0b337	-1.8804692
72	0xbc0e7025	-0.0086937295
73	0x3f36d074	0.71411824
74	0x3f8e75f3	1.1129745
75	0xbfe9d35f	-1.826763
76	0xbe662ce6	-0.22478065
77	0x401a9883	2.4155586
78	0xbf10de09	-0.565888
79	0x3fbc7243	1.472237
80	0x3f37c431	0.7178374
81	0xbcd778c0	-0.026302695
82	0x3f1a1991	0.6019526
83	0x3ebd67a6	0.3699314
84	0xbc1a4a48	-0.009417124
85	0x3d89bc07	0.067253165
86	0x3f74af07	0.9557957
87	0xbecbb028	-0.39782834
88	0xbf7f5e77	-0.99753517
89	0xbe2a9fbc	-0.16662496
90	0x3f4a2bcb	0.7897307
91	0xbdc96cab	-0.0983518
92	0xbeb2bd4f	-0.34910056
93	0xbc53f8ed	-0.0129377665
94	0x3f51060c	0.8164985
95	0xbdb09c80	-0.086236
96	0x3ee48c33	0.44638214
97	0xbee41539	-0.44547442
98	0x3feb4fd6	1.8383739
99	0xbe6d1710	-0.23153329
100	0x3fbbc5a4	1.466969
101	0xbf6029a0	-0.87563515
102	0xbe9c6996	-0.30549306
103	0x3e105ba2	0.14097455
104	0xc01c39ba	-2.4410233
105	0x3d42510d	0.047440577
106	0xbf10a48a	-0.56501067
107	0x3f6d8cc4	0.92792916
108	0xbda7200c	-0.08160409
109	0x3f2cd651	0.6751452
110	0x3e599925	0.21249826
111	0xbf022357	-0.50835174
112	0xbcacf6d6	-0.021113794
113	0xbd2e740a	-0.042591132
114	0xbf367929	-0.71278626
115	0x3dfef078	0.124482095
116	0x3f55f9a7	0.83584064
117	0xbf801aad	-1.0008141
118	0x3e7ee118	0.24890554
119	0xbfc1f1c3	-1.5151905
120	0x3fd9b74a	1.700906
121	0x3fa3ef5b	1.280742
122	0x3fca301b	1.5795931
123	0x3e8ebc3e	0.27877992
124	0xc016abab	-2.3542278
125	0xc041fd6b	-3.0310924
126	0x3f1a5a69	0.60294205
127	0x40343be9	2.8161566
128	0x3f4991d1	0.78738123
129	0xbe65b5e1	-0.22432663
130	0xbf25e3ae	-0.64800537
131	0x3f0080be	0.50196445
132	0xbed63a68	-0.41841435
133	0xbf9fca07	-1.2483529
134	0x3fec387d	1.8454739
135	0xbf84413a	-1.0332406
136	0xc0234e99	-2.5516722
137	0xc0243e49	-2.5663016
138	0x3eaacc9b	0.33359227
139	0xbf3ad573	-0.7298195
140	0xbf0c6621	-0.54843336
141	0x3fa29840	1.2702713
142	0xbfe9e5d2	-1.827326
143	0xc03af86c	-2.9214125
144	0xc0132ab8	-2.2994823
145	0x3e04b014	0.12957793
146	0x3f7bc6b0	0.9835005
147	0xbfa0808f	-1.2539233
148	0x3fb305f7	1.3986195
149	0x3f566011	0.83740336
150	0x3e945e18	0.28978038
151	0xbe8164f7	-0.25272343
152	0x3faf9a15	1.3718897
153	0xbf5d39b0	-0.8641615
154	0x3f211a10	0.62930393
155	0x40190130	2.3906975
156	0xbfaedbf6	-1.3660877
157	0xbff35d70	-1.901289
158	0xbf3a2855	-0.7271779
159	0xbe1ba927	-0.15201245
160	0x3faf52dd	1.3697163
161	0xbf6d65cb	-0.9273345
162	0x3e3c3381	0.18379022
163	0x401ca5b7	2.4476144
164	0xbfef46bd	-1.8693463
165	0x3da247ce	0.07923852
166	0x3f5c38fd	0.8602446
167	0x3f8881a1	1.066456
168	0xbf4888e7	-0.78333896
169	0x3da2dccd	0.07952271
170	0xbf1091d3	-0.5647251
171	0x3f2d7647	0.677586
172	0x3dc00646	0.093761966
173	0xbd3a72d1	-0.045519654
174	0xbf1aed97	-0.60518783
175	0xbd9a81c4	-0.07544282
176	0x3fd1561e	1.6354406
177	0x3d58122c	0.052751705
178	0xbec882b4	-0.3916222
179	0x4002765c	2.038474
180	0xbec8c811	-0.3921514
181	0xbf695d8e	-0.9115838
182	0xbf455824	-0.77087617
183	0x3e5ba84c	0.21450919
184	0xbfa1f5e3	-1.2653164
185	0xbf080496	-0.53132
186	0xbf0f40ce	-0.5595826
187	0x3fcc4387	1.5958108
188	0x3f25aa4b	0.6471297
189	0x3f342057	0.70361847
190	0xbe59e79d	-0.2127976
191	0x3f8d5ac1	1.1043321
192	0xbf0f8b5a	-0.5607201
193	0xbd19e8ba	-0.03757546
194	0x3f5503cf	0.83208936
195	0xbdfa3466	-0.122170255
196	0xbec4b1f7	-0.38417026
197	0x3df2ebf8	0.11861414
198	0xbedd02e2	-0.43166262
199	0x3fb0c654	1.3810525
200	0x3ea7602b	0.32690558
201	0xbf5d7375	-0.865043
202	0x3c2d3320	0.010571271
203	0xbf43cfad	-0.76488763
204	0xbf321b5a	-0.69572985
205	0xbf8f3b80	-1.1190033
206	0x3fdae51f	1.7101172
207	0xbf82dcc6	-1.0223625
208	0xbf520d1c	-0.82051253
209	0x3f8c0191	1.0937978
210	0x3f7477a5	0.95495063
211	0xbf4973d4	-0.78692365
212	0xbf453c55	-0.77045184
213	0xbefcb1bb	-0.49354348
214	0xc00c90e8	-2.1963444
215	0xbe954c9f	-0.2916002
216	0xbef91856	-0.4865138
217	0x3d4c2abd	0.049845446
218	0xbeb8461d	-0.35990992
219	0xbe4d9528	-0.2007643
220	0xbd9de96a	-0.07710536
221	0x3ee3dad1	0.4450288
222	0xbf2069af	-0.6266126
223	0xbedd3f0d	-0.43212166
224	0x3f4f6283	0.8100969
225	0xbe7dd501	-0.24788286
226	0x3d460581	0.048345093
227	0x3ea5cd60	0.3238325
228	0x3ed29658	0.41130328
229	0x3f19e002	0.60107434
230	0x401e936b	2.4777477
231	0xbf1b8b22	-0.60759175
232	0xbeb1aa23	-0.34700117
233	0x3fb3fb36	1.4061038
234	0xbf0f9572	-0.5608741
235	0xbf3b9b3b	-0.7328374
236	0xbf39e190	-0.72609806
237	0xc06d2998	-3.7056637
238	0x3fef361c	1.8688388
239	0xbf135828	-0.5755639
240	0xbe542479	-0.20717038
241	0x3dd4d922	0.10392977
242	0x3e8b21e9	0.2717431
243	0x3eccbf9b	0.39989933
244	0x3f7309f9	0.9493709
245	0x3fc03210	1.5015278
246	0x3fb3e6ee	1.4054849
247	0x3d9b1896	0.07573049
248	0xbf535b86	-0.8256153
249	0xbf4d2fb4	-0.80150914
250	0x3f67f57d	0.9060896
251	0x3e5960e1	0.21228363
252	0x3f8d1445	1.1021811
253	0xbe701600	-0.23445892
254	0x3fcceee8	1.6010408
255	0x3f087861	0.53308684

weight f4 [8, 8]
0	0xbe9530bb	-0.2913874
1	0xbcda7107	-0.026665224
2	0x3e16a242	0.14710334
3	0x3f0851b7	0.53249687
4	0xbf140ab2	-0.5782882
5	0x3e8a0e74	0.26964152
6	0xbfba1765	-1.453839
7	0x3d57833e	0.052615397
8	0x3e82067d	0.25395575
9	0xbe5a7faf	-0.2133777
10	0xbe983dca	-0.2973464
11	0x3d52158e	0.051290087
12	0x3d503b62	0.050837882
13	0xbc835bbe	-0.016034957
14	0x3f016736	0.5054811
15	0xbd961e47	-0.07329994
16	0xbcee5f78	-0.029098257
17	0x3f963953	1.1736244
18	0x3e610a2d	0.21976538
19	0xbea126a2	-0.31474787
20	0xbf0ea94a	-0.55727065
21	0x3f04a5f3	0.5181572
22	0xbf1e698c	-0.618798
23	0xbeacc1b4	-0.33741534
24	0x3e5ae0d1	0.21374823
25	0xbefd0b14	-0.49422514
26	0xbf11941d	-0.5686663
27	0x3ea07480	0.31338882
28	0xbea908f1	-0.33014634
29	0x3ee56bfb	0.44808945
30	0x3f6d361f	0.9266071
31	0xbeb74079	-0.35791376
32	0x3eddf064	0.43347466
33	0xbf45807c	-0.77149177
34	0xbf2b3e00	-0.6689148
35	0xbc68e20a	-0.014214048
36	0xbf418d1d	-0.75605947
37	0x3f0c60a9	0.5483499
38	0x3e9701a1	0.2949343
39	0xbee95f49	-0.4558051
40	0x3e74a08b	0.23889367
41	0x3f95d936	1.1706913
42	0xbe1d8e55	-0.15386327
43	0xbc53f0cb	-0.0129358275
44	0xbf33656a	-0.7007662
45	0x3eb6b20d	0.35682717
46	0x3f6ecc3c	0.93280387
47	0xbf0f6ea2	-0.5602819
48	0xbeca80d3	-0.3955141
49	0x3e30cecc	0.17266387
50	0x3edec99f	0.435132
51	0x3f549521	0.8304005
52	0xbdcb667e	-0.09931658
53	0x3e3584e0	0.17726469
54	0xbfcf5555	-1.6197916
55	0x3eaf6777	0.34258625
56	0xbea0584b	-0.31317362
57	0xbf2a3c5b	-0.66498345
58	0x3e033b18	0.12815511
59	0xbd5e8b19	-0.054331873
60	0x3eb6eae4	0.35726082
61	0xbeeeb72b	-0.4662412
62	0xbf5ebb21	-0.87004286
63	0x3edb207b	0.42798218

weight f4 [943, 8]
0	0xbf1b76f8	-0.60728407
1	0xbfa39968	-1.2781191
2	0xbfd56a65	-1.6673094
3	0xbf9a3361	-1.204693
4	0x4012a90d	2.291568
5	0xbfea7a54	-1.8318582
6	0xc040f1d5	-3.0147603
7	0xbfb5df21	-1.4208719
8	0x3d7bb847	0.061455037
9	0x404116c3	3.0170143
10	0x3f4a757b	0.7908551
11	0x3dc8394a	0.09776552
12	0x3f69ad12	0.9127971
13	0x3e53f161	0.20697547
14	0x4003174b	2.0482967
15	0x3e1b566b	0.15169685
16	0xbfa71540	-1.305336
17	0xbdee09c9	-0.1162296
18	0x3edaa198	0.4270141
19	0x3eb798dd	0.35858813
20	0x3fd843e5	1.689572
21	0xbddb8027	-0.107178025
22	0x3f8c3da9	1.0956317
23	0x3e8b65a4	0.27225983
24	0xbf260621	-0.648531
25	0x3fb81a9a	1.4383118
26	0xbe912244	-0.28346455
27	0x3f50efa0	0.8161564
28	0x3f487c95	0.783151
29	0x3feacf6b	1.8344549
30	0x4089c81a	4.3056765
31	0xbe06388c	-0.13107508
32	0x3f71b925	0.94423133
33	0x3f47e79d	0.7808779
34	0xbd83e528	-0.064401925
35	0xc00da1ea	-2.2130075
36	0x40266b4d	2.6002991
37	0xbe89d2ab	-0.2691854
38	0x3f7d75d8	0.9900794
39	0x4000425b	2.00405
40	0x401927bc	2.3930502
41	0xbf340c4c	-0.70331264
42	0xc02c5b53	-2.693074
43	0xbf871d7a	-1.055587
44	0x3f3060f9	0.6889797
45	0xbfc70831	-1.5549375
46	0xbfb9b90c	-1.4509597
47	0xc0137c40	-2.3044586
48	0x4021e1fa	2.5294175
49	0x3e0c5e15	0.13707764
50	0xc0558a61	-3.336571
51	0xc0065035	-2.0986454
52	0x400044d5	2.0042012
53	0xbf741432	-0.95343316
54	0xc0594d46	-3.3953414
55	0xbfd4fb70	-1.6639233
56	0x3e80ce2f	0.25157306
57	0xbffe5d10	-1.987215
58	0x3f0fc57d	0.5616072
59	0x3f3f538d	0.74736863
60	0xc0269c17	-2.603277
61	0xbee9c5fd	-0.45658866
62	0xbf30a540	-0.6900215
63	0x3de55418	0.1119768
64	0xbf94f3a2	-1.1636851
65	0xbf34df16	-0.706529
66	0xbf0bc282	-0.5459367
67	0x3f6d3c89	0.92670494
68	0xbeb9b6cf	-0.36272284
69	0x3fc0190d	1.5007645
70	0x3f527e32	0.8222381
71	0x3f2c449f	0.6729221
72	0x3faebb71	1.3650953
73	0xbef6c00f	-0.48193404
74	0xbee32f66	-0.443721
75	0xbf325d8c	-0.6967399
76	0x3fd7647d	1.6827542
77	0x3fab7274	1.3394303
78	0x3e337d6b	0.17528312
79	0x3f30c80b	0.6905524
80	0xbf4af953	-0.7928669
81	0x3fdb8055	1.7148539
82	0x3ea5ae3f	0.32359502
83	0xbf7d5c95	-0.98969394
84	0x3f840d9f	1.0316657
85	0x3eee8ef7	0.4659345
86	0xbf4fc9fa	-0.81167567
87	0x3eed1589	0.46305493
88	0xbe91159f	-0.28336808
89	0x3f9dc1ac	1.2324729
90	0xbf16a1e2	-0.58840764
91	0xbf9cfc58	-1.2264509
92	0xbf750e88	-0.957253
93	0x3e808a99	0.25105742
94	0xbdd8b914	-0.10582176
95	0x3cc7f65b	0.024409464
96	0x404b09fc	3.1724844
97	0xbf7acb70	-0.9796667
98	0xc0215114	-2.5205736
99	0xc0280852	-2.6255078
100	0x404acf7b	3.1689136
101	0xbf413815	-0.754762
102	0xc03bf761	-2.9369738
103	0xc0177a76	-2.3668494
104	0xbea52c15	-0.32260194
105	0xbd95a3f3	-0.073066615
106	0x3f926e87	1.143998
107	0x3db54823	0.088516496
108	0xbd545799	-0.051841352
109	0xbf9fae36	-1.247504
110	0x3f72b8cc	0.9481323
111	0xbf778299	-0.9668365
112	0x3f485a0d	0.78262407
113	0xbf2427b3	-0.64123076
114	0x3ebb7d31	0.3661895
115	0xbf3f559f	-0.7474002
116	0x4009420e	2.1446567
117	0x3f9e3115	1.2358729
118	0x3f126c7b	0.5719678
119	0xbda53998	-0.08067626
120	0xbf87dd8b	-1.0614485
121	0x3f0f931e	0.5608386
122	0xbfcdc9e0	-1.6077232
123	0xbe4e6104	-0.20154196
124	0x3f5275b2	0.8221084
125	0xbfc10e3a	-1.5082467
126	0x3ef66707	0.4812548
127	0x3f25ac0c	0.6471565
128	0xbfee6bdb	-1.8626665
129	0x3f944123	1.1582378
130	0x3faa66ed	1.331266
131	0x3e730ed7	0.2373613
132	0x3ef1bf19	0.47216108
133	0xbe5ba317	-0.21448933
134	0x3eca1ca4	0.39474976
135	0x3f8ca984	1.0989232
136	0x40545343	3.317582
137	0xbfb1f955	-1.3904215
138	0xbfa96e86	-1.3236854
139	0xbfab83c3	-1.3399585
140	0x400abc7f	2.167755
141	0xbfd680a1	-1.6758004
142	0xbfd44fc5	-1.6586844
143	0xbf722aed	-0.9459675
144	0xbf34eba0	-0.70672035
145	0xbfdab147	-1.7085351
146	0x3f0cd54d	0.5501297
147	0x3f06d561	0.5266934
148	0xbfdd49c8	-1.7288141
149	0x4002b754	2.0424395
150	0x40359bc6	2.8376327
151	0xbf98417d	-1.1894985
152	0xbf68d37e	-0.9094771
153	0x3e95d9d2	0.29267746
154	0x3eeaa69d	0.4583024
155	0x3f87a126	1.0596054
156	0x3ed80097	0.4218795
157	0x3f1f16a9	0.6214395
158	0x3ea26bae	0.31722778
159	0x3ffbd8ee	1.9675577
160	0xbdb846ac	-0.089978546
161	0xbe0d1ef8	-0.13781345
162	0xbea99e50	-0.33128595
163	0xbea13b17	-0.31490394
164	0x403464bd	2.8186486
165	0xbf40c466	-0.7529968
166	0x3d5b2231	0.053499404
167	0x3f3f1a6e	0.74649704
168	0xbe59d2ed	-0.21271868
169	0x3e5f4c87	0.21806537
170	0x3f0343cf	0.5127534
171	0xbeb14524	-0.34623063
172	0xbf8cde24	-1.1005292
173	0xbf03fd0f	-0.5155801
174	0x3faa2f9c	1.3295779
175	0x3eee191b	0.4650353
176	0x3f81f95c	1.0154223
177	0xbdeb6a0a	-0.11494835
178	0xbcd6cc8a	-0.026220579
179	0xbf15013b	-0.58205
180	0x3e113d72	0.14183596
181	0xbed20988	-0.41022897
182	0x3ea5611a	0.32300645
183	0xc0173546	-2.3626266
184	0xbedf8ed0	-0.43663645
185	0x3f3398d3	0.70155066
186	0x3f27bca1	0.655222
187	0x3ea56433	0.32303008
188	0xbf8e12de	-1.1099508
189	0xbf0ada32	-0.5423919
190	0x3e0e6844	0.13906962
191	0xbfd9ac09	-1.7005626
192	0x3f1a1ada	0.6019722
193	0x3f2470b4	0.6423447
194	0xbf40d6f9	-0.7532802
195	0xbe580a45	-0.21097668
196	0x3e30a067	0.17248689
197	0xbe23b54d	-0.1598713
198	0x3fe923d2	1.8214056
199	0xbf161d81	-0.5863877
200	0x3f359e2a	0.70944464
201	0x3f3bdf24	0.7338736
202	0xbf94e6d5	-1.1632944
203	0xbe5650d3	-0.2092927
204	0xbff10eca	-1.8832638
205	0xbe808332	-0.25100094
206	0x3f305bf1	0.6889029
207	0xbf4e90d1	-0.8068972
208	0x3ef1888b	0.47174487
209	0xbe09db12	-0.13462475
210	0x3e4091e7	0.18805657
211	0x3fa3b3c4	1.2789235
212	0xbdac61c0	-0.08417082
213	0x3d545207	0.05183604
214	0x3d329b73	0.04360528
215	0xbf04fa42	-0.51944363
216	0xbf4100ac	-0.7539165
217	0x404b7c4b	3.1794612
218	0xbf4f0238	-0.8086276
219	0xbf82d4d0	-1.0221195
220	0xbff2bb95	-1.8963495
221	0xbf6a5140	-0.9153023
222	0xbf1914d8	-0.5979743
223	0x3ebd14a8	0.36929822
224	0xbe25a049	-0.16174425
225	0x3f0a3720	0.53990364
226	0x3ecb844b	0.3974937
227	0xbe804142	-0.25049788
228	0xc0153d7a	-2.3318772
229	0xbf1035e0	-0.56332207
230	0x3f14461f	0.57919496
231	0xbfd33a86	-1.6502235
232	0x401e18ed	2.4702713
233	0x3f8c92dc	1.0982318
234	0x3f7301f6	0.9492487
235	0x3f8183f1	1.011839
236	0xbdae6e0a	-0.08517082
237	0x40264384	2.5978708
238	0x3f8381e5	1.0274016
239	0xbf6fef33	-0.93724364
240	0x3f5da2d6	0.8657659
241	0x3f5362b0	0.8257246
242	0x3f204d8d	0.62618333
243	0x3e8738a7	0.2641041
244	0xc001412f	-2.0196035
245	0x3f99d06e	1.2016733
246	0x402721e5	2.6114438
247	0x3fcc81c7	1.5977105
248	0xbf8bfc5a	-1.0936387
249	0xbef63e93	-0.48094615
250	0x3fbc44e7	1.4708527
251	0x3f650a10	0.8946848
252	0x3f692cfe	0.9108428
253	0x3f19ae7b	0.6003186
254	0x3f268148	0.6504102
255	0x401a0079	2.4062788

weight f4 [1682, 8]
0	0x4031227a	2.7677293
1	0xc0424f22	-3.03608
2	0xc0052f93	-2.0810287
3	0x3fab3d28	1.3378038
4	0x3ebe5027	0.37170526
5	0xbde2fe38	-0.11083645
6	0x3eadbcd5	0.3393313
7	0x3fb861db	1.4404863
8	0x3e0d7b7e	0.1381664
9	0xbf9712dc	-1.180263
10	0x3f254709	0.64561516
11	0x3ea040f4	0.31299555
12	0x3fda4b35	1.7054201
13	0xbe11998e	-0.14218733
14	0xbf797124	-0.97438264
15	0x3f32103e	0.69556034
16	0x3f8b7d8f	1.0897692
17	0xbececdc3	-0.4039136
18	0xbfc31e30	-1.5243587
19	0xbe2c5224	-0.16828209
20	0xbe164cdb	-0.14677756
21	0xbe6fb552	-0.23409012
22	0xbf28817e	-0.6582259
23	0x3efa64d4	0.4890505
24	0x3fa223b9	1.2667152
25	0xbf7e8350	-0.99419117
26	0xbfaa16bf	-1.3288192
27	0x3fec6ab0	1.8470058
28	0xbe929723	-0.28630933
29	0x3ee0cc17	0.43905708
30	0x3f9f2f09	1.2436229
31	0x3fc011f4	1.5005479
32	0x3f57e252	0.8432971
33	0x3de7849c	0.1130459
34	0x3e7116a8	0.23543799
35	0xbe469632	-0.19393232
36	0x3ef3dc94	0.47629225
37	0x3d85524c	0.065098375
38	0x3fb931c7	1.4468316
39	0xbfbcc078	-1.4746237
40	0xbf391f74	-0.7231362
41	0x3f7a061d	0.9766558
42	0x400f1aaa	2.2360024
43	0xbe434a68	-0.19071352
44	0x3e9a5834	0.3014542
45	0x3ee31964	0.4435531
46	0xbfa11245	-1.25837
47	0x3f648430	0.892642
48	0x3fde505f	1.7368277
49	0xc03d2d28	-2.955881
50	0xbf48d56e	-0.7845067
51	0x3fcc59a6	1.5964859
52	0xbeeb35ea	-0.4593957
53	0x3f180108	0.59376574
54	0x3f201abe	0.62540805
55	0x3fffc748	1.9982691
56	0x3f6b5a71	0.9193488
57	0xbf0a3c0f	-0.5399789
58	0xbe8e78b7	-0.27826473
59	0x3fe07442	1.7535479
60	0x3fd5bca3	1.6698192
61	0x3fb5dc44	1.4207845
62	0x3f89b011	1.0756856
63	0x400bcc47	2.184343
64	0x401dcd85	2.465669
65	0xc000a03c	-2.00978
66	0xbfcccb63	-1.5999569
67	0x3f47b06f	0.7800359
68	0x3fe2d8f1	1.7722455
69	0xbdbfb9f2	-0.09361638
70	0x400a6648	2.1624928
71	0x3fcbaaac	1.591146
72	0xbf035c72	-0.51312935
73	0xbf672d2d	-0.9030331
74	0x3e22e296	0.15906748
75	0x401792d8	2.3683376
76	0x3dbd5b13	0.09245887
77	0xbf8ee238	-1.1162786
78	0x3f3987c6	0.724728
79	0xbf182615	-0.5943311
80	0x3f944a83	1.1585239
81	0xbf51c393	-0.8193905
82	0xbfccf9a9	-1.601369
83	0x3fcbd19b	1.5923342
84	0xbe4192a0	-0.18903589
85	0x3f78111a	0.96901095
86	0x3fa574b9	1.2926246
87	0x3ffb53d4	1.9634957
88	0x3d34a0b3	0.044098567
89	0xbfe4a9f8	-1.786437
90	0xc0049755	-2.0717366
91	0x3f1b446d	0.60651284
92	0x3f397c0f	0.72454923
93	0x3fcab636	1.5836856
94	0x402943ad	2.6447556
95	0x3f62a792	0.8853694
96	0x3fbf0730	1.4924068
97	0xbf1b73ef	-0.60723776
98	0x3e09d98f	0.13461898
99	0x4005d392	2.0910382
100	0x3f0f85c9	0.56063515
101	0xbf59b088	-0.8503499
102	0x3fa65dcd	1.2997376
103	0x3f631c7e	0.8871535
104	0x400c5e08	2.1932392
105	0xbf6aee33	-0.91769713
106	0xbe16bbbe	-0.14720055
107	0x3ed63557	0.4183757
108	0x3f75ed83	0.9606554
109	0xbf6cc475	-0.9248727
110	0x3fb457d3	1.4089302
111	0x3ea59190	0.32337618
112	0x3fd86e4b	1.6908659
113	0xc005a30f	-2.0880773
114	0xbfcbb505	-1.5914618
115	0x401de569	2.467127
116	0x3f977416	1.1832302
117	0xbf3e45a8	-0.74325037
118	0x3fe37948	1.7771387
119	0xbf3c3f1e	-0.7353381
120	0x3ef3935a	0.47573358
121	0x3f84e983	1.0383762
122	0x3e7ec0e1	0.24878265
123	0xbff42d72	-1.9076369
124	0xbdcc406f	-0.09973227
125	0xbf7bce57	-0.98361725
126	0xbdc5012b	-0.096193634
127	0x3f8b3894	1.0876641
128	0x3f8456f5	1.0339037
129	0x3f842191	1.0322744
130	0x3d3f9a15	0.046777803
131	0x3f285776	0.65758455
132	0xbf1b4f68	-0.6066804
133	0x3f808d26	1.0043075
134	0x3effb36f	0.49941584
135	0xbf8c49e7	-1.0960053
136	0xbfbaa875	-1.4582659
137	0x3f9c11b4	1.2192903
138	0x3fc11d33	1.5087036
139	0xbfaa0f80	-1.328598
140	0x3e84ad4a	0.2591346
141	0x3f85aa69	1.044263
142	0xbf6f384e	-0.9344529
143	0x3f8be16d	1.092817
144	0xbf7c704d	-0.9860886
145	0x3eae732d	0.34072247
146	0x3f0de8c6	0.5543331
147	0xbe3f21e1	-0.18665268
148	0xbf212e5e	-0.62961376
149	0xbf5658b8	-0.83729124
150	0x3e95dcd3	0.29270038
151	0x402ec2d7	2.730642
152	0x3fa7c92f	1.3108271
153	0xbdf2d5e7	-0.11857205
154	0xbe99120c	-0.2989658
155	0xbf8dfab3	-1.1092132
156	0x3f40bea3	0.7529089
157	0x3ee27262	0.44227892
158	0x3eec78f9	0.46186045
159	0xbf0739f3	-0.528228
160	0x3ff5c2f8	1.9200125
161	0xbf966c60	-1.1751823
162	0xbf245c6f	-0.6420354
163	0x3f1aa50d	0.604081
164	0x3f7d30cc	0.98902583
165	0xbfb4ec28	-1.4134569
166	0x3faab8cf	1.3337649
167	0x3dab537e	0.08365534
168	0x3fa395c0	1.2780075
169	0xbf9065ef	-1.1281108
170	0xbed4b399	-0.41543272
171	0x3ee88f18	0.45421672
172	0x3f2d5a6c	0.677161
173	0x3f9651bd	1.1743695
174	0xbe9a52ea	-0.30141383
175	0x3d3222c1	0.043490175
176	0x3f025c6c	0.50922275
177	0x3e9cedd8	0.3065021
178	0x3f8c80a1	1.0976754
179	0xbe611246	-0.21979627
180	0x3eaa811c	0.33301628
181	0xbe53b08b	-0.20672815
182	0x3cae7366	0.02129526
183	0x3fba2573	1.4542679
184	0x3e20cd23	0.15703253
185	0xbf8c9c39	-1.0985175
186	0xbfd64a3d	-1.6741406
187	0xbef6e4e0	-0.48221493
188	0x3f140355	0.57817584
189	0x3f6fe622	0.9371053
190	0x3d9d4dba	0.07680841
191	0x400411cd	2.0635865
192	0x3faae7ae	1.3351953
193	0xc0146bc3	-2.3190773
194	0xbfc17eb5	-1.5116793
195	0x3fd4acfa	1.6615288
196	0x40571706	3.3607802
197	0xbf3ad04b	-0.7297408
198	0xbd2d743b	-0.042347174
199	0xbee8d7f6	-0.45477265
200	0x3f800470	1.0001354
201	0xbfaa5e48	-1.3310022
202	0xbf58592c	-0.84511065
203	0x3fbf1bfc	1.4930415
204	0x3f7952f2	0.9739219
205	0x3ec42edb	0.38316998
206	0x3f2bb025	0.6706565
207	0x3f7cd528	0.9876275
208	0xbf95b4d4	-1.1695809
209	0xbf8618e1	-1.0476342
210	0x3f17d3a3	0.59307307
211	0xbf77247e	-0.9654006
212	0x3f00adae	0.50265014
213	0x3f37780f	0.7166757
214	0x3ef6efae	0.48229736
215	0xbf755bc2	-0.95843136
216	0x3f38b1f1	0.7214652
217	0xbe67619c	-0.22595829
218	0x3ebcb00e	0.3685307
219	0x400c4784	2.191865
220	0x3f1fe9e1	0.62466246
221	0x3f97fed1	1.1874639
222	0x3ebb4ff8	0.3658445
223	0x3f850c43	1.0394367
224	0x4023de25	2.5604336
225	0xbf1e2724	-0.61778474
226	0xbfcbd5f7	-1.5924672
227	0x3f933f5d	1.1503712
228	0x3ec5cd55	0.38633218
229	0xbdb0d347	-0.08634048
230	0xbe803f9b	-0.25048527
231	0x3ee7e8cb	0.45294794
232	0xbf919a25	-1.1375166
233	0xbfd8a259	-1.6924545
234	0x3fed6613	1.8546776
235	0x3e66468b	0.22487848
236	0xbe144231	-0.14478375
237	0x3f4fd435	0.8118318
238	0x3fd4c6a8	1.6623125
239	0xbfbf32b6	-1.4937351
240	0x3f1ddc1b	0.6166398
241	0xbe31329f	-0.17304467
242	0xbf8e91b0	-1.113821
243	0x3fac4d72	1.3461134
244	0xbf63bb6c	-0.8895786
245	0x3f856be5	1.0423552
246	0x3f5ae87f	0.8551101
247	0x3f2768e0	0.653944
248	0x3f718cd4	0.9435551
249	0xc00cc71d	-2.199653
250	0x400360f9	2.0527937
251	0x3f43b884	0.76453424
252	0x3f85c5d6	1.0451
253	0x3f89aaad	1.0755211
254	0xbf5ced1d	-0.86299306
255	0xc0296b84	-2.6471872

weight f4 [64, 16]
0	0xbe877d70	-0.2646289
1	0x3e8aaae4	0.27083504
2	0x3e42ad1b	0.19011347
3	0x3e8d7521	0.27628425
4	0xbf2dc26f	-0.6787481
5	0xbdf01505	-0.11722759
6	0x3dd97fec	0.10620102
7	0xbf3e4046	-0.74316823
8	0xbed8e8dc	-0.42365158
9	0x3f0f76b0	0.5604048
10	0x3f0f1d29	0.5590387
11	0xbf1c2731	-0.609973
12	0xbf11605f	-0.56787676
13	0xbd6b7421	-0.057483796
14	0xbf1811b1	-0.59401995
15	0x3dfbbcf4	0.12291899
16	0x3dc2d408	0.09513098
17	0xbe3a422a	-0.18189302
18	0xbed6188b	-0.418156
19	0xbe9a2d2a	-0.30112582
20	0xbe2a09fc	-0.16605371
21	0xbe8ab728	-0.27092862
22	0xbdf858e4	-0.121263295
23	0xbf0489f1	-0.5177298
24	0x3d869f88	0.06573397
25	0xbea4b8e3	-0.32172307
26	0xbe0b2639	-0.135888
27	0x3ddeab79	0.108725496
28	0x3f063cf3	0.5243675
29	0x3edad6cc	0.42742002
30	0x3d18a3d8	0.03726563
31	0x3d644109	0.055726085
32	0x3d8c0908	0.0683766
33	0xbec883ef	-0.39163157
34	0xbeed3afe	-0.4633407
35	0xbee2ec2f	-0.4432082
36	0x3e1ece3b	0.15508358
37	0x3d959150	0.07303107
38	0x3ebdf7cc	0.37103117
39	0xbf43091a	-0.7618576
40	0x3e50b36d	0.20380946
41	0xbe6946cb	-0.22780912
42	0x3e50e72d	0.20400687
43	0x3f1677d5	0.587766
44	0xbe1e31d4	-0.15448695
45	0x3e8e882e	0.27838272
46	0x3e9cc82d	0.30621472
47	0x3f2afc4a	0.6679121
48	0x3df66402	0.12030794
49	0x3f0b13b8	0.54326963
50	0x3f25644c	0.64606166
51	0x3efccd5d	0.4937543
52	0xbf42c21b	-0.7607743
53	0x3e401a3b	0.18760006
54	0x3eea5bed	0.4577326
55	0x3e6dabf5	0.23210128
56	0xbe344db3	-0.17607765
57	0x3e58fd2e	0.2119033
58	0x3ecd9bef	0.4015803
59	0xbf5e5129	-0.8684259
60	0xbf378c43	-0.716984
61	0x3f3ce384	0.7378466
62	0xbf5bf61a	-0.85922396
63	0xbc928c25	-0.017889092
64	0xbe96ee4c	-0.2947868
65	0x3e9ef292	0.3104444
66	0xbcd4fc0f	-0.025999097
67	0xbe50a148	-0.20374024
68	0xbe6772ff	-0.22602461
69	0x3e6ee564	0.23329693
70	0x3f23467a	0.63779414
71	0xbeb84ade	-0.3599462
72	0xbe1f72cb	-0.15571134
73	0xbeb70978	-0.35749412
74	0x3f0edf9d	0.55809957
75	0xbdcdd040	-0.10049486
76	0xbf6822b1	-0.90677935
77	0xbe251e7a	-0.16124907
78	0xbedf0500	-0.43558502
79	0x3c87cf57	0.01657836
80	0x3ed4f043	0.41589555
81	0x3e89c3cf	0.26907203
82	0xbf6d429a	-0.9267975
83	0xbe7f701c	-0.2494511
84	0xbf05242f	-0.52008337
85	0xbf6f1a45	-0.9339946
86	0xbca76fd8	-0.020439073
87	0xbeba10f5	-0.36341062
88	0x3ea28d7f	0.31748578
89	0xbf1ecf14	-0.62034726
90	0xbe37cf5c	-0.17950195
91	0x3f710bde	0.9415873
92	0xbd00815d	-0.03137337
93	0x3edf9962	0.4367171
94	0xbe3419c0	-0.17587948
95	0x3f3912eb	0.7229449
96	0x3f236585	0.6382678
97	0x3d80c5fe	0.06287764
98	0xbef25363	-0.47329244
99	0xbefc7a52	-0.49312073
100	0xbe9f0c68	-0.31064153
101	0xbf3afea7	-0.7304482
102	0xbf75fb28	-0.9608636
103	0xbf3789bc	-0.7169454
104	0x3d8333d9	0.064063735
105	0x3d4ace79	0.049513314
106	0xbefed104	-0.4976884
107	0x3f025d01	0.5092316
108	0xbe34297e	-0.17593953
109	0x3ed4d5e0	0.41569424
110	0x3de9257c	0.11384103
111	0x3e780073	0.24218921
112	0x3d258177	0.04040667
113	0xbda39474	-0.079872996
114	0xbf19737a	-0.5994183
115	0xbef3a976	-0.47590226
116	0xbe51e530	-0.20497584
117	0xbeecef1f	-0.46276185
118	0xbf10de89	-0.5658956
119	0xbee75492	-0.4518171
120	0xbd6b81b0	-0.057496727
121	0xbee73acf	-0.45162055
122	0xbe928f16	-0.2862479
123	0xbe21191f	-0.15732239
124	0x3e931fef	0.287353
125	0x3ec0110c	0.37513006
126	0xbe4771ad	-0.19476958
127	0x3f32cc6d	0.6984318
128	0x3f421044	0.7580607
129	0xbf54cdb5	-0.83126384
130	0xbe74cbca	-0.23905864
131	0xbed03976	-0.4066884
132	0x3ef4019c	0.47657478
133	0xbe43461a	-0.1906971
134	0x3e0ef8be	0.13962075
135	0xbd1cbf41	-0.03826833
136	0xbe98f96a	-0.29877788
137	0xbd6be1ea	-0.057588495
138	0xbd996ec9	-0.07491834
139	0xbcfec843	-0.031101352
140	0xbe23c452	-0.15992859
141	0xbf25df9d	-0.6479433
142	0x3e419528	0.18904555
143	0x3f524bc1	0.8214684
144	0x3f20091a	0.6251389
145	0xbe84012f	-0.25782153
146	0xbf3989b9	-0.72475773
147	0xbf28c974	-0.65932393
148	0x3d5ed64e	0.054403596
149	0xbf0d9fc0	-0.55321884
150	0xbdffc3b4	-0.12488499
151	0xbeeb7bb3	-0.45992813
152	0x3e57f405	0.2108918
153	0xbeb2b3f9	-0.34902933
154	0x3d8e3327	0.0694335
155	0x3ed76b03	0.4207383
156	0x3e3d97ed	0.18514986
157	0x3e617f87	0.22021304
158	0xbcfe159a	-0.03101616
159	0x3f26d289	0.65165
160	0xbef3974b	-0.47576365
161	0xbde8c595	-0.11365811
162	0x3f23dc5c	0.64008117
163	0x3f283230	0.6570158
164	0xbe8b548c	-0.27212942
165	0x3f150cb9	0.5822254
166	0x3ef1cc75	0.472263
167	0x3f357b36	0.7089113
168	0xbf31821f	-0.69339174
169	0xbdd39c16	-0.103325054
170	0x3e92f3d2	0.28701645
171	0xbe01afe7	-0.12664758
172	0xbf21d55b	-0.6321618
173	0x3f323964	0.6961882
174	0xbf4b384e	-0.7938279
175	0x3f727ccf	0.9472169
176	0xbe7d8466	-0.24757537
177	0x3f25fbe9	0.6483751
178	0x3f0f011d	0.55861074
179	0x3eda0604	0.42582715
180	0xbf2b0fd9	-0.66821057
181	0x3ed5f090	0.41785097
182	0x3f84cf95	1.0375849
183	0x3d16133c	0.036639437
184	0xbf6745f5	-0.9034112
185	0x3f117380	0.56816864
186	0x3e833fd3	0.25634632
187	0xbe8c2d58	-0.27378345
188	0xbf117d69	-0.56831986
189	0x3f42dc60	0.76117516
190	0xbf1c4aba	-0.61051524
191	0x3ee5a70d	0.44854012
192	0x3dd5cf33	0.10439911
193	0x3f446970	0.76723385
194	0x3f37df3e	0.71825016
195	0x3dad1854	0.08451906
196	0xbf4e8d80	-0.8068466
197	0x3e459815	0.19296296
198	0x3e5355a8	0.20638144
199	0xbeef873b	-0.4678286
200	0xbf0969ed	-0.53677255
201	0x3f014e8a	0.50510466
202	0x3f45e9c4	0.77309823
203	0x3d916c9c	0.07100794
204	0xbe0a2e41	-0.13494207
205	0x3f64f32f	0.8943357
206	0xbf58f3cc	-0.84747005
207	0x3e917c55	0.2841517
208	0xbe0ef492	-0.13960484
209	0x3f35a05c	0.70947814
210	0x3ee50bcd	0.44735566
211	0xbe4d1cd3	-0.20030527
212	0x3e90312e	0.2816252
213	0x3ec564b0	0.3855338
214	0x3d3feefe	0.04685878
215	0xbca84c3a	-0.02054416
216	0x3ef07d50	0.46970606
217	0x3f4b2850	0.79358387
218	0x3f48a78e	0.7838067
219	0xbdb32203	-0.087467216
220	0xbec980c7	-0.39356062
221	0x3e2d230d	0.16907902
222	0xbfa9adf7	-1.3256215
223	0xbf45ecfd	-0.7731474
224	0xbde5da12	-0.11223234
225	0xbea2d571	-0.31803468
226	0xbf0859b8	-0.532619
227	0x3cc16d00	0.023611546
228	0xbe2222db	-0.15833609
229	0xbeb575ae	-0.35441345
230	0xbe77e2d8	-0.24207628
231	0xbf81c59e	-1.0138433
232	0x3f1cd836	0.6126741
233	0xbecc6eaa	-0.3992818
234	0xbec59afa	-0.385948
235	0x3f1df564	0.6170256
236	0xbe989c2a	-0.29806644
237	0x3ed33673	0.4125248
238	0x3f083a38	0.53213835
239	0x3f08f336	0.5349611
240	0xbf02b08d	-0.51050645
241	0xbf89a27f	-1.0752715
242	0x3f6ca767	0.92442936
243	0x3ea3af45	0.31969658
244	0xbdbf8a5a	-0.0935256
245	0x3f2ab9e9	0.66689926
246	0xbe49b805	-0.19699104
247	0xbe8c81ef	-0.2744288
248	0xbf14e9ff	-0.5816955
249	0xbdc03f05	-0.0938702
250	0x3e0001d5	0.12500699
251	0x3e103ba9	0.14085259
252	0xbddd0fe2	-0.10794045
253	0x3f146f7f	0.5798263
254	0xbf130b93	-0.57439536
255	0x3f11817c	0.568382

bias f4 [64]
0	0xbf99d0bf	-1.2016829
1	0xc029833a	-2.6486344
2	0xbff1c09e	-1.8886907
3	0xbfa2e0aa	-1.2724812
4	0xbfcfe4fe	-1.6241758
5	0xbff73fd0	-1.9316349
6	0xbffb1edd	-1.9618794
7	0xc04c35d3	-3.1907852
8	0xbfa8744d	-1.3160492
9	0xc02310a6	-2.5478911
10	0xc000a404	-2.0100107
11	0xbfca33a2	-1.5797007
12	0xbfca56f9	-1.5807792
13	0xbf953de0	-1.1659508
14	0xbfda83d9	-1.7071487
15	0xbf978e63	-1.1840328
16	0xbfdfa4ed	-1.7472206
17	0xc00d9439	-2.2121718
18	0xbf8ff620	-1.1246986
19	0xc00e8828	-2.2270603
20	0xc0029d0c	-2.0408354
21	0xbffb7ee2	-1.9648097
22	0xc022a12c	-2.5410872
23	0xbfcb5884	-1.5886388
24	0xbf20e90f	-0.6285562
25	0xc00620d1	-2.095753
26	0xc01a8ffd	-2.4150383
27	0xc028f79c	-2.6401129
28	0xc01fe8f6	-2.4985938
29	0xbfe53153	-1.7905678
30	0xbfe5fda6	-1.7968032
31	0xbfa405f9	-1.2814323
32	0xbf9aede1	-1.2103845
33	0xbfbc91c7	-1.4731988
34	0xbff40be8	-1.9066133
35	0xc009f9c4	-2.1558695
36	0xc003070f	-2.0473058
37	0xbfe99054	-1.824717
38	0xc0227379	-2.538298
39	0xbfaf4d0a	-1.3695385
40	0xc002204e	-2.0332217
41	0xc0267d26	-2.6013885
42	0xbfa2041e	-1.2657506
43	0xbedbe0da	-0.42944986
44	0xc0023fda	-2.0351472
45	0xc0482c6e	-3.1277118
46	0xbfd19f8b	-1.6376814
47	0xbfd0d8f0	-1.6316204
48	0xbfeae441	-1.8350908
49	0xbfdf90a0	-1.7466011
50	0xbfcce2aa	-1.6006672
51	0xc01c1264	-2.4386225
52	0xbfba6747	-1.4562768
53	0xc00d7263	-2.2101066
54	0xbfc5e9f1	-1.5462018
55	0xbfb1ea7a	-1.3899682
56	0xbf644c1f	-0.8917865
57	0xbfc86478	-1.5655661
58	0xbf97679d	-1.1828495
59	0xc000e323	-2.0138633
60	0xbfccc834	-1.5998597
61	0xc000e7c5	-2.014146
62	0xc00767a9	-2.115702
63	0xbff8f873	-1.9450821

weight f4 [16, 64]
0	0xbebb8cd2	-0.36630875
1	0x3e19bcd3	0.15013437
2	0x3e0fe81b	0.14053385
3	0xbf562a1a	-0.8365799
4	0xbf857194	-1.0425286
5	0xbdb71c39	-0.0894093
6	0x3ea7c7f4	0.3276974
7	0x3eb842e4	0.35988533
8	0x3e7c9663	0.24666743
9	0xbe097cd9	-0.13426532
10	0xbe125963	-0.14291911
11	0xbea68d5f	-0.32529733
12	0xbfcd3d3c	-1.6034312
13	0xbf129f0e	-0.5727395
14	0x3dcc32f5	0.09970657
15	0xbeca8bab	-0.39559683
16	0xbea7753e	-0.32706636
17	0xbd4fcf6d	-0.050734926
18	0xbe097ac5	-0.13425739
19	0x3e17de44	0.14830881
20	0xbdc30e80	-0.0952425
21	0xbf13be82	-0.57712567
22	0x3d24f84e	0.040275864
23	0xbf55f43f	-0.83575815
24	0xbfe0d4db	-1.7564958
25	0xbd6f4800	-0.058418274
26	0x3d32409b	0.043518644
27	0x3ea65beb	0.32492003
28	0x3e92232b	0.28542456
29	0xbed0d80a	-0.40789825
30	0xbf1d32b7	-0.6140551
31	0xbe55b816	-0.20871004
32	0xbef70deb	-0.48252806
33	0xbf006cb1	-0.5016585
34	0xbf9c21d9	-1.219783
35	0x3e0c5f71	0.13708283
36	0x3e9b4eec	0.3033365
37	0x3e6c641f	0.23085068
38	0x3eb274ba	0.3485468
39	0x3d8c7e48	0.06860024
40	0x3de960ce	0.11395417
41	0x3e8aecf7	0.27133915
42	0xbf701b39	-0.9379154
43	0x3e2be8ee	0.16788074
44	0x3e35d616	0.17757449
45	0xbec858dc	-0.39130294
46	0xbdd0e449	-0.10199792
47	0xbfbe9f54	-1.4892373
48	0xbc0ac15f	-0.008468955
49	0xbf8614f6	-1.0475147
50	0xbf289a9b	-0.6586091
51	0x3e5a354f	0.21309398
52	0xbd842dfc	-0.06454083
53	0xbd19d902	-0.03756047
54	0xbed45eac	-0.4147848
55	0x3e8bd69d	0.27312174
56	0xbe6d5e2a	-0.23180452
57	0xbec64459	-0.3872402
58	0xbf21043b	-0.6289708
59	0xbe0ef091	-0.13958956
60	0xbf80f996	-1.0076168
61	0xbf052e0d	-0.5202339
62	0x3d8e3183	0.06943037
63	0xbdabdd3c	-0.083918065
64	0x3b95783b	0.0045614517
65	0xbf43d5f9	-0.7649837
66	0xbf822b85	-1.0169531
67	0x3f3059cf	0.6888704
68	0xbd5e5021	-0.054275636
69	0xbf89f12c	-1.0776725
70	0xbf1a4b0e	-0.60270774
71	0xbea85493	-0.32877025
72	0xbef6f7a1	-0.482358
73	0xbf6c715e	-0.92360485
74	0xbf5a2fb6	-0.8522905
75	0xbcbcd2a6	-0.023049664
76	0x3ef8cf62	0.4859572
77	0xbd2869df	-0.04111659
78	0xbd24304e	-0.04008513
79	0xbeca4ddf	-0.39512536
80	0x3f00cdb4	0.5031388
81	0xbde5faf8	-0.11229509
82	0xbee88ad9	-0.45418432
83	0xbe0e2242	-0.13880256
84	0xbec85642	-0.3912831
85	0x3e6528d5	0.22378857
86	0xbf71a327	-0.94389576
87	0xbe6852ca	-0.22687832
88	0x3e17075c	0.14748901
89	0xbe916e72	-0.28404576
90	0xbf6fc5ff	-0.93661493
91	0xbf21d157	-0.6321005
92	0xbfb05613	-1.3776268
93	0x3e6a3050	0.22869992
94	0x3d6614b9	0.056172106
95	0x3e1dea3e	0.15421388
96	0xbd5cfac0	-0.05395007
97	0x3e92076f	0.28521296
98	0xbf0c73c1	-0.54864126
99	0xbf4b0caf	-0.7931623
100	0xbe2ed0d1	-0.17071845
101	0xbed5f384	-0.4178735
102	0xbfbb86b8	-1.4650488
103	0x3da8df1b	0.08245679
104	0xbed01315	-0.40639558
105	0xbf05ace0	-0.5221691
106	0x3d217521	0.039418343
107	0xbf000e68	-0.5002198
108	0x3e2ec4d2	0.17067268
109	0x3ed4904a	0.41516334
110	0x3ddd7b9d	0.10814593
111	0x3c38a38a	0.0112694595
112	0x3e00e03f	0.12585543
113	0x3efd7df1	0.49510148
114	0xbf04b481	-0.5183793
115	0xbf1bf451	-0.6091967
116	0xbddf85cb	-0.10914191
117	0xbfbe81e8	-1.4883394
118	0x3ec3481a	0.38140947
119	0xbeaf7095	-0.3426558
120	0x3ebfdcf2	0.37473255
121	0x3f0ef104	0.5583651
122	0x3f04bd37	0.5185122
123	0xbe81c1f7	-0.25343296
124	0x3e0b33a3	0.13593917
125	0x3f1bc0ab	0.60840863
126	0xbf47a5a8	-0.77987146
127	0xbe3fa16b	-0.1871392
128	0xbf77aa54	-0.96744275
129	0x3e95997f	0.2921867
130	0x3e41a752	0.18911484
131	0xbf7fdd46	-0.9994701
132	0xbf64baee	-0.8934773
133	0x3eb6d1c9	0.35706928
134	0x3e0f14fb	0.13972847
135	0x3dd16b23	0.10225513
136	0x3e235229	0.1594931
137	0x3ec64430	0.38723898
138	0xbf9079b5	-1.1287142
139	0xbed37a3c	-0.41304195
140	0xbeb6bbd7	-0.35690185
141	0xbeba7abd	-0.36421767
142	0x3c701666	0.014653778
143	0xbf1511e5	-0.5823043
144	0xbef34b02	-0.47518164
145	0xbe29a468	-0.16566622
146	0xbe0d9d67	-0.13829575
147	0x3df6dc65	0.12053756
148	0x3f11f29c	0.5701082
149	0xbf574026	-0.8408226
150	0x3e507299	0.20356216
151	0xbf33c527	-0.70222706
152	0xbf630f57	-0.8869528
153	0xbf818486	-1.0118568
154	0x3e340e88	0.17583668
155	0x3d929ebf	0.07159185
156	0x3e3f84b4	0.18702966
157	0xbf5ac384	-0.85454583
158	0xbf2e7f9b	-0.6816346
159	0xbf3199b0	-0.69375134
160	0x3de9d4da	0.11417551
161	0xbf525b48	-0.82170534
162	0x3e1b8333	0.15186767
163	0x3e40ebda	0.1883997
164	0xbe331abc	-0.17490667
165	0x3e828787	0.25494024
166	0x3e71e1ee	0.23621342
167	0xbf3516fc	-0.70738196
168	0x3e8bae9a	0.27281648
169	0x3f319ae6	0.6937698
170	0xbede96db	-0.4347447
171	0x3de4c5c7	0.111705355
172	0xbe22d60c	-0.15901965
173	0x3ddc48cd	0.10756073
174	0xbfabc2cf	-1.3418826
175	0xbf43d3cf	-0.7649507
176	0xbe828a92	-0.25496346
177	0xbea4a533	-0.32157287
178	0xbc89694d	-0.016773844
179	0x3ea1be32	0.3159042
180	0xbf89e7b9	-1.0773841
181	0xbdc2b7fd	-0.09507749
182	0xbee5737a	-0.44814664
183	0xbcd15450	-0.025552899
184	0xbf4d40aa	-0.80176795
185	0x3cb6d8fe	0.022320267
186	0xbe8c1e4b	-0.27366862
187	0xbef8a871	-0.4856601
188	0xbdd2c30f	-0.10291111
189	0xbd4a0880	-0.049324512
190	0xbd2f7c87	-0.042843368
191	0xbe47ba9c	-0.1950478
192	0xbd7db61d	-0.061941255
193	0xbcd6f982	-0.026242021
194	0xbe56fa9b	-0.20994036
195	0x3e2a3332	0.16621092
196	0xbf2ce9ad	-0.6754406
197	0xbdda5d8a	-0.106623724
198	0xbfa0d142	-1.256386
199	0xbf4bc9cb	-0.79604787
200	0xbda8c04a	-0.08239801
201	0xbf89396c	-1.0720649
202	0xbf1329f7	-0.5748591
203	0x3d6fa536	0.058507167
204	0xbddce3e6	-0.10785656
205	0x3cb53bf4	0.022123314
206	0xbf9405a8	-1.1564226
207	0x3e7aa96e	0.24478695
208	0x3e848ec9	0.25890186
209	0xbcfeacb2	-0.031088207
210	0xbe911e8f	-0.28343627
211	0xbf1ad72f	-0.60484594
212	0xbec10d25	-0.3770534
213	0xbd2a1c27	-0.041530754
214	0x3d885c13	0.06658187
215	0x3dc52ded	0.096279
216	0xbd9d5b45	-0.07683424
217	0x3e321b40	0.17393208
218	0xbedd9069	-0.4327424
219	0xbe75f414	-0.2401889
220	0xbe1c2f5b	-0.1525244
221	0xbd270ce5	-0.04078378
222	0x3e20950b	0.15681855
223	0x3f2cd66b	0.67514676
224	0x3e6af830	0.22946239
225	0x3f857bf5	1.0428454
226	0x3e13f6ba	0.14449587
227	0xbf66f6f5	-0.90220577
228	0xbf1f3445	-0.6218913
229	0xbf9dc872	-1.2326796
230	0xbef355ba	-0.47526342
231	0xbeb520f8	-0.35376716
232	0x3e6fe0bc	0.23425573
233	0xbe51e2f0	-0.20496726
234	0x3ee5a86b	0.44855055
235	0xbe2b6d8a	-0.16741005
236	0xbf41649c	-0.7554414
237	0x3ebe98f3	0.37226066
238	0x3c903d9b	0.0176075
239	0x3e033407	0.12812816
240	0xbeb441ed	-0.35206547
241	0x3f2af38b	0.6677787
242	0xbe56c9a5	-0.20975359
243	0xbeaa3c34	-0.33249056
244	0x3f1df163	0.6169645
245	0xbf8cf816	-1.101321
246	0x3ef697a5	0.4816257
247	0xbf6ab898	-0.9168792
248	0x3e85c75c	0.26128662
249	0x3f4c7f83	0.7988207
250	0xbf105bb0	-0.56389904
251	0xbf780552	-0.9688312
252	0x3f092465	0.5357116
253	0x3f46f201	0.7771302
254	0xbf109add	-0.564863
255	0xbea588d3	-0.3233095

bias f4 [16]
0	0xc002feb5	-2.046796
1	0xbf387618	-0.72055197
2	0xbf9f8822	-1.246342
3	0xbf1bc7a1	-0.60851485
4	0xbeb8daca	-0.36104423
5	0xbfa954bd	-1.3228985
6	0xbf12bafc	-0.57316566
7	0xbf3112ca	-0.69169295
8	0xbfaccd9b	-1.3500246
9	0xbf87ef4f	-1.0619906
10	0xbea40d2b	-0.32041296
11	0xbeeace53	-0.45860538
12	0xbfb10a48	-1.3831263
13	0xbe82ffbf	-0.25585744
14	0xbf10c70f	-0.5655374
15	0xbf54c09a	-0.83106387

weight f4 [8, 16]
0	0x3e0824c5	0.13295276
1	0xbe2cd61c	-0.16878551
2	0x3e5d26f3	0.21596889
3	0xbe77743b	-0.24165432
4	0x3df9259f	0.12165379
5	0x3d03d114	0.032181814
6	0xbdd1d264	-0.10245207
7	0xbe34bfcf	-0.17651294
8	0x3dfc880f	0.123306386
9	0xbc6c6dbe	-0.014430461
10	0xbe199184	-0.14996916
11	0xbe5f9ec8	-0.21837914
12	0x3d76ad4b	0.06022386
13	0xbd540ec8	-0.05177191
14	0xbe084bed	-0.13310213
15	0x3d98c708	0.07459837
16	0x3e5a3056	0.21307501
17	0xbd8479ec	-0.06468567
18	0x3d408224	0.04699911
19	0xbe15e62c	-0.14638585
20	0xbd537244	-0.051622644
21	0x3d3a037f	0.04541349
22	0xbde833f5	-0.11338035
23	0xbd5a9d0f	-0.05337244
24	0x3d73a82c	0.059486553
25	0xbe343b09	-0.17600645
26	0x3dd64a76	0.10463421
27	0xbda3247c	-0.07965943
28	0x3d9a43da	0.07532473
29	0xbde00769	-0.109389134
30	0xbceecb6c	-0.029149733
31	0xbdbc75cb	-0.09202155
32	0x3cd20683	0.02563787
33	0xbd1c222a	-0.03811852
34	0xbc985857	-0.018596811
35	0x3dbd7b2c	0.09252009
36	0x3e32ba1f	0.17453812
37	0xbe0ea03e	-0.13928315
38	0xbd08745f	-0.033314105
39	0x3cb305db	0.021853378
40	0x3d49d5c8	0.049276143
41	0x3c7dc236	0.015488198
42	0x3e59c90d	0.21268101
43	0x3e3211c5	0.17389591
44	0xbdf0a836	-0.11750834
45	0x3d76d2b3	0.060259532
46	0x3cd91de9	0.02650352
47	0x3e3250ff	0.1741371
48	0x3cae17be	0.021251556
49	0x3c7db9df	0.01548621
50	0x3e6d85eb	0.23195617
51	0xbdc06bed	-0.09395585
52	0xbd4fe3ca	-0.050754346
53	0x3e864f67	0.26232454
54	0xbc022f3b	-0.007945831
55	0xbb674ac1	-0.003529236
56	0x3e1b274b	0.15151708
57	0x3dc73648	0.0972715
58	0x3c2cc1f7	0.010544292
59	0x3c916606	0.017748844
60	0x3db5840e	0.08863078
61	0xbdbdda5e	-0.09270166
62	0xbdfba15d	-0.12286637
63	0xbe0c86a4	-0.13723236
64	0xbdc270d6	-0.09494178
65	0x3e4a68b3	0.19766502
66	0xbd08d67f	-0.033407684
67	0x3e8709b3	0.26374587
68	0x3e1903a0	0.14942789
69	0xbbd76fd9	-0.0065746126
70	0xbdba8304	-0.091070205
71	0x3e3f8798	0.18704069
72	0xbdad973e	-0.08476113
73	0x3e1c1d78	0.15245616
74	0x3b8b5a59	0.0042527136
75	0xbdb59618	-0.08866519
76	0xbd8590cf	-0.06521761
77	0x3db2137f	0.08695125
78	0xbdb500da	-0.08838053
79	0x3d6d18e9	0.057885084
80	0x3e152e90	0.14568543
81	0xbe0efe27	-0.13964139
82	0x3e036c62	0.12834314
83	0xbdf8b959	-0.12144727
84	0xbdf468b6	-0.119340345
85	0x3e01fb22	0.12693456
86	0x3dd9c068	0.10632402
87	0xbdbc60f0	-0.09198177
88	0x3e1af07c	0.151308
89	0x3cab1020	0.020881712
90	0xbdbc5d6d	-0.09197507
91	0xbd520457	-0.05127367
92	0x3e69d3a6	0.22834644
93	0xbd38a8d8	-0.045082897
94	0xbe0f32a4	-0.13984162
95	0xbe1757e8	-0.14779627
96	0xbdf84699	-0.121228404
97	0x3dce8f61	0.10085941
98	0xbd8b131f	-0.067907564
99	0x3d8d5c42	0.069023624
100	0x3d7f57aa	0.062339462
101	0xbe05fc24	-0.13084465
102	0x3e6afd0f	0.22948097
103	0x3e1ac58e	0.15114424
104	0xbc820f14	-0.01587633
105	0x3ea07167	0.3133652
106	0x3e5a5d96	0.21324763
107	0xbcf0e631	-0.029406639
108	0xbd84c8a2	-0.0648358
109	0x3e1ff29b	0.1561989
110	0x3d990f88	0.074736655
111	0xbd0c1170	-0.034196317
112	0xbd07ea8f	-0.033182677
113	0x3e6f6c90	0.23381257
114	0xbe030716	-0.12795672
115	0x3d74fd99	0.059812162
116	0xbe242fe8	-0.160339
117	0x3cdd4bb3	0.027013635
118	0xbcc6e8c3	-0.024280911
119	0x3e3eae9a	0.18621293
120	0xbd2cf7ce	-0.042228512
121	0x3de959fc	0.11394116
122	0x3e411539	0.18855752
123	0x3e24194f	0.1602528
124	0xbcbbac77	-0.022909386
125	0xbd0a413a	-0.03375361
126	0x3e3c462f	0.18386148
127	0x3cedc009	0.029022234

bias f4 [8]
0	0x3ddb5a50	0.10710585
1	0xbd67ab3e	-0.056559794
2	0xbe143ae2	-0.14475587
3	0xbcb63177	-0.022240384
4	0xbd9b679c	-0.07588121
5	0xbce7b4aa	-0.02828439
6	0xbd0d91b5	-0.034562785
7	0x3e0068fe	0.12540051
